assignment1/results/trial_2/resBottleneck/ckpts/10000.pt (torch, 562439 bytes, 242 tensors)

block1.0.conv1.weight f4 [8, 16, 1, 1]
0	0xbe2c1350	-0.16804242
1	0x3e08b4cc	0.13350219
2	0x3e295f63	0.16540293
3	0xbd728a1e	-0.05921375
4	0x3eb1669c	0.34648597
5	0x3e763765	0.24044569
6	0x3ee41e3a	0.4455431
7	0x3ced4983	0.028965717
8	0x3f26e3e0	0.6519146
9	0x3e525d12	0.20543316
10	0xbebc4d1c	-0.3677758
11	0x3e079428	0.13240111
12	0x3d9a3c0b	0.075309835
13	0x3f2de8ba	0.6793324
14	0xbe21308b	-0.15741174
15	0x3f9ce55f	1.2257499
16	0x3de6c8bd	0.112687565
17	0x3e2e798d	0.17038555
18	0xbe08cff6	-0.13360581
19	0x3d3d23ba	0.04617665
20	0xbe516c14	-0.20451385
21	0x3e3717f6	0.17880234
22	0xbe3820de	-0.17981288
23	0xbcfcf5d7	-0.030878944
24	0xbef484b5	-0.47757497
25	0x3ef81dd3	0.48460254
26	0xbf10e692	-0.5660182
27	0xbf00cb16	-0.50309885
28	0x3d02c531	0.031926338
29	0xbdb31270	-0.08743751
30	0x3e74e377	0.23914896
31	0xbf3b6e87	-0.73215526
32	0xbe0b3532	-0.13594511
33	0x3e06ea17	0.13175236
34	0x3edbe40f	0.42947432
35	0xbe9fc9ef	-0.3120875
36	0xbd5a3202	-0.053270347
37	0xbb0d2983	-0.0021539635
38	0x3ee06f04	0.43834698
39	0x3d575501	0.0525713
40	0x3ee28782	0.4424401
41	0x3ea43cf6	0.3207776
42	0xbfae0e55	-1.3598124
43	0x3df565e9	0.119823284
44	0x3bf708cd	0.007538891
45	0xbf1df75f	-0.61705583
46	0xbf296d49	-0.6618238
47	0x3e193fc6	0.14965734
48	0xbdc8e8a8	-0.09810001
49	0xbe82d265	-0.25551143
50	0xbf616344	-0.8804209
51	0xbeab32e4	-0.33437264
52	0x3f410536	0.75398576
53	0xbeee20f4	-0.46509516
54	0x3e81c624	0.25346482
55	0x3f2695dd	0.65072423
56	0xbe83a1c2	-0.2570935
57	0x3e78c624	0.24294335
58	0xbf191fbb	-0.5981404
59	0xbf1a8dcc	-0.60372615
60	0xbee30a9c	-0.44344032
61	0xbdcb2d3d	-0.09920738
62	0x3df1342f	0.11777531
63	0xbf2aefa2	-0.667719
64	0xbe8dbb8c	-0.2768215
65	0xbf5c7cea	-0.86128104
66	0xbee8cf42	-0.45470625
67	0xbe009e1a	-0.12560311
68	0xbe93c8c8	-0.2886412
69	0x3d88d25f	0.0668075
70	0xbf029171	-0.51003176
71	0xbed890a3	-0.4229785
72	0xbf057fc5	-0.52148086
73	0xbe218dfc	-0.15776819
74	0xbe99f0b9	-0.3006647
75	0x3ee512b1	0.44740823
76	0x3e32abc7	0.1744834
77	0xbe958e46	-0.2921011
78	0xbf0649f8	-0.5245662
79	0x3d2b31c7	0.04179552
80	0x3e14ad3c	0.14519209
81	0xbcce3111	-0.025169881
82	0xbf389b86	-0.7211231
83	0xbf1dea38	-0.61685514
84	0xbe91754c	-0.28409803
85	0x3d5e835e	0.0543245
86	0x3dff70f8	0.12472719
87	0x3e7716ce	0.24129793
88	0x3efbb7cf	0.49163672
89	0x3ea43ad4	0.32076132
90	0xbf900d83	-1.1254123
91	0xbf2337c0	-0.6375694
92	0xbd898cff	-0.06716346
93	0x3dff707d	0.12472627
94	0xbf15cb2d	-0.58513147
95	0x3e5ad34c	0.21369666
96	0xbe2ce413	-0.16883878
97	0x3f4e5eed	0.80613595
98	0x3f2fe01d	0.68701345
99	0xbeb7dc02	-0.3591004
100	0x3f1db266	0.6160034
101	0xbd8811f8	-0.06644052
102	0xbea30678	-0.31840873
103	0x3e84ac2b	0.25912604
104	0x3f50176c	0.8128574
105	0xbeb9f2b0	-0.36317968
106	0x3eab8e73	0.33507118
107	0xbe7fba80	-0.24973488
108	0xbe51d656	-0.20491919
109	0x3f08939e	0.53350246
110	0x3f0a2c79	0.5397411
111	0x3eecdb25	0.46260944
112	0x3e1f652c	0.15565938
113	0x3f0f4b11	0.5597392
114	0x3dcc09a2	0.09962775
115	0x3e03a604	0.12856299
116	0xbef4a8e4	-0.47785103
117	0xbc4b50dc	-0.012409415
118	0xbdfae8cb	-0.12251433
119	0xbe0cb55e	-0.13741061
120	0x3f1b5fbf	0.6069297
121	0x3d25aeae	0.04044979
122	0xbecc891a	-0.3994835
123	0xbe6bf99e	-0.2304444
124	0x3ebf4180	0.3735466
125	0xbe86404d	-0.26220933
126	0xbfa3e028	-1.2802782
127	0x3ee50d99	0.44736937

block1.0.bn1.weight f4 [8]
0	0x3f694b38	0.911304
1	0x3f4d2f7b	0.80150574
2	0x3f77e513	0.96833915
3	0x3f4c68a0	0.79847145
4	0xbe504522	-0.20338872
5	0x3f841e41	1.0321733
6	0x3f7cb841	0.9871865
7	0x3f2e90f9	0.6818996

block1.0.bn1.bias f4 [8]
0	0xbf1f0df6	-0.6213068
1	0xbe820209	-0.25392178
2	0x3ed1b250	0.40956354
3	0x3e8724b2	0.26395184
4	0x3f1bd511	0.6087199
5	0xbef4e5d0	-0.47831583
6	0xbef408c7	-0.47662947
7	0x3de0e2a8	0.10980731

block1.0.bn1.running_mean f4 [8]
0	0x407cac94	3.9480333
1	0xc0733fc5	-3.8007672
2	0xc030deba	-2.7635942
3	0xc106adca	-8.417429
4	0xc08193b6	-4.049281
5	0xc0bc7a8e	-5.8899603
6	0x40400fb9	3.0009596
7	0xbfa9b7e1	-1.325924

block1.0.bn1.running_var f4 [8]
0	0x411c7332	9.778124
1	0x40d4ef03	6.654176
2	0x411d3b70	9.827011
3	0x41ab4391	21.407991
4	0x40c2f471	6.092339
5	0x4170384b	15.013743
6	0x4164b8ca	14.2951145
7	0x413eba20	11.920441

block1.0.conv2.weight f4 [8, 8, 3, 3]
0	0x3e9044e7	0.28177568
1	0x3dbfca48	0.09364754
2	0xbe222111	-0.15832926
3	0x3d52d043	0.051468145
4	0xbddd7130	-0.108126044
5	0xbeb8d4e8	-0.36099935
6	0x3da6c4c4	0.08142999
7	0x3dc11ee1	0.09429718
8	0x3cf9d86d	0.030498708
9	0x3e3ef863	0.1864944
10	0x3ea760f6	0.32691163
11	0x3e9daa24	0.3079387
12	0x3e43d418	0.19123876
13	0x3eb44082	0.35205466
14	0x3da8ef34	0.082487494
15	0xbe52b5aa	-0.20577112
16	0xbed5aabb	-0.4173182
17	0x3d6aa35b	0.057284694
18	0xbcf6903a	-0.03009807
19	0xbe05ea13	-0.13077573
20	0xbef686c2	-0.48149687
21	0xbe0337e3	-0.12814288
22	0xbe1271a2	-0.1430116
23	0xbed2a7d8	-0.4114368
24	0x3bdd9f76	0.006763394
25	0x3e22f9cb	0.15915601
26	0x3e454df4	0.19268018
27	0x3e39936e	0.18122646
28	0x3eb45528	0.3522122
29	0xbe07af23	-0.13250403
30	0x3f1d8d30	0.6154356
31	0x3f35d3ae	0.7102612
32	0x3eb3a612	0.3508764
33	0xbe75121f	-0.23932694
34	0x3dc4d35c	0.09610626
35	0xbd5a88e0	-0.05335319
36	0x3cb93a75	0.022610882
37	0x3d7c984e	0.061668687
38	0x3de58a6c	0.112080425
39	0xbd064da9	-0.032788906
40	0xbcca51d3	-0.02469722
41	0x3d293b92	0.041316576
42	0xbd84c00d	-0.06481943
43	0xbeabe20e	-0.33570904
44	0x3e0a8960	0.13528967
45	0x3de4e1b5	0.11175863
46	0x3e717141	0.23578359
47	0x3dab2832	0.08357276
48	0x3e18485c	0.14871353
49	0x3ee7d923	0.4528285
50	0x3f0ad702	0.54234326
51	0xbe4c9863	-0.19980006
52	0x3e96d8ef	0.29462382
53	0x3eac8ca3	0.33701047
54	0xbd49f967	-0.049310114
55	0x3e1904ad	0.1494319
56	0xbd0845a7	-0.03326955
57	0x3dbc5363	0.09195592
58	0xbda055a0	-0.07828832
59	0xbd66010b	-0.05615334
60	0x3e493c04	0.196518
61	0x3ea4c630	0.32182455
62	0x3c4a6528	0.012353219
63	0xbceeb7e4	-0.02914042
64	0xbd551449	-0.0520213
65	0x3eb61091	0.35559514
66	0xbef0a866	-0.47003478
67	0xbdb8d433	-0.09024849
68	0xbbd262b8	-0.0064204596
69	0xbe916db6	-0.28404015
70	0x3e6fea16	0.2342914
71	0x3ef5aa2b	0.4798139
72	0xbe23f010	-0.16009545
73	0x3eb8a6b6	0.3606469
74	0x3f046a58	0.5172477
75	0xbe844b42	-0.25838667
76	0xbe0d8120	-0.13818789
77	0xbe3890b8	-0.18023956
78	0xbe99d848	-0.30047822
79	0x3ddc593b	0.10759207
80	0xbe8de5e7	-0.27714464
81	0x3e91d0fd	0.28479758
82	0x3ecc95e4	0.39958107
83	0xbdce6db1	-0.10079516
84	0xbde60a71	-0.1123246
85	0xbe0ce499	-0.13759078
86	0xbedeccb1	-0.43515542
87	0x3d321526	0.0434772
88	0x3d1630d1	0.03666765
89	0x3cffa4af	0.031206457
90	0xbcd83659	-0.026393102
91	0x3d9071f4	0.07052985
92	0xbccfbbe6	-0.025358152
93	0xbf1258da	-0.57166827
94	0xbf50aae5	-0.81510764
95	0xbe3d0fd7	-0.18463074
96	0x3cea98f2	0.028637383
97	0x3c5a98c9	0.013342091
98	0x3e783f93	0.24243002
99	0x3e70ffe5	0.23535116
100	0x3e095d24	0.13414437
101	0x3f0f49ae	0.559718
102	0x3dc282da	0.09497614
103	0xbe253471	-0.16133286
104	0x3ef1bb8a	0.47213393
105	0x3eabfe50	0.33592463
106	0x3eb59c60	0.35470867
107	0x3e872487	0.26395056
108	0x3e46059e	0.1933808
109	0x3d72f3a7	0.059314396
110	0x3ea77f0c	0.32714117
111	0x3d23fc6d	0.040035654
112	0x3c81641d	0.015794808
113	0x3e307e6a	0.17235723
114	0x3dc4e007	0.09613042
115	0xbd0ec7ed	-0.034858633
116	0x3e0f9fc9	0.14025797
117	0x3e6f9d51	0.23399855
118	0x3de85c80	0.11345768
119	0x3d20c1e8	0.039247423
120	0xbe59a686	-0.2125493
121	0x3cd107a7	0.025516344
122	0x3dd38270	0.10327613
123	0xbd3073f8	-0.043079346
124	0xbd16dff7	-0.036834683
125	0xbd9277ec	-0.071517795
126	0xbe29baa3	-0.16575103
127	0xbcb4451a	-0.022005606
128	0x3ce0d1d6	0.027443808
129	0xb7bdea8e	-2.2639779e-05
130	0x3cb9dd5e	0.022688564
131	0x3e5f91cb	0.2183296
132	0xbe57d335	-0.21076663
133	0xbe8434ad	-0.25821438
134	0x3c64b4d7	0.013959131
135	0xbda174ac	-0.078835815
136	0xbdf0ea9c	-0.11763498
137	0xbe184167	-0.14868699
138	0x3e825d14	0.25461638
139	0x3eee4646	0.4653799
140	0x3e3bb402	0.18330386
141	0xbd8ce1fe	-0.06879042
142	0xbe63f120	-0.2225995
143	0xbee4bde0	-0.44676113
144	0x3eb1eb40	0.34749794
145	0x3e891286	0.26771945
146	0x3edcc0d3	0.43115863
147	0x3de8fad0	0.11375964
148	0x3e05aa17	0.13053165
149	0xbe341142	-0.17584708
150	0x3c7c9532	0.01541643
151	0x3dd100a9	0.10205204
152	0xbdeae1ad	-0.114688255
153	0x3e94012b	0.2890714
154	0x3e43cbc2	0.19120696
155	0x3e86aaa1	0.26302055
156	0x3df500dd	0.11963055
157	0x3db5a54b	0.08869418
158	0xba0d5696	-0.00053916255
159	0x3b098a2f	0.0020986905
160	0xbdc9a92d	-0.09846721
161	0xbd64c605	-0.05585291
162	0x3e102dd4	0.14079982
163	0xbe0f6c51	-0.14006163
164	0xbe8ccf61	-0.27501968
165	0x3d6f439e	0.058414094
166	0xbe84cd92	-0.25938088
167	0xbe2095fe	-0.15682217
168	0xbe4ca74b	-0.19985692
169	0x3e0122c9	0.12610926
170	0xbd136c1c	-0.035991773
171	0x3de42eaf	0.11141717
172	0x3dac7f79	0.08422751
173	0xbe212ea8	-0.15740454
174	0x3e2b3510	0.1671946
175	0x3ebe0dd0	0.37119913
176	0x3db5c1d8	0.088748634
177	0x3ea5e220	0.32399082
178	0x3f1c05f5	0.6094659
179	0x3d6785fc	0.05652426
180	0xbe866962	-0.26252276
181	0xbe4b6680	-0.1986332
182	0xbe29c51e	-0.165791
183	0x3d842cce	0.06453858
184	0xbcf4c30c	-0.029878162
185	0xbe90ccc3	-0.2828122
186	0xbd9bda43	-0.076099895
187	0x3df0ed24	0.11763981
188	0xbe584569	-0.21120228
189	0x3eac7003	0.33679208
190	0x3dcaf8f3	0.099107645
191	0x3db07fe8	0.08618146
192	0x3e875a0d	0.2643589
193	0x3db2c497	0.08728903
194	0x3d3e2bfe	0.046428673
195	0x3e845e7f	0.25853345
196	0x3e1b7ec5	0.15185077
197	0xbd2e59d1	-0.042566124
198	0x3b9d8c21	0.0048079644
199	0x3d6004ad	0.05469196
200	0x3dfcd481	0.123452194
201	0x3ae1b2a1	0.0017219373
202	0x3e8defc4	0.2772199
203	0x3edea295	0.43483415
204	0x3df3fccf	0.11913454
205	0xbe65f82d	-0.22457953
206	0xbc25d265	-0.010120963
207	0x3e4fad18	0.20280874
208	0xbe51efb7	-0.205016
209	0xbe79e7a3	-0.24404769
210	0x3eac6863	0.3367339
211	0x3d1ff414	0.03905113
212	0xbddd493f	-0.10804986
213	0x3e387015	0.18011506
214	0xba9b3dd9	-0.0011843994
215	0xbeae89e2	-0.3408957
216	0x3d7218f0	0.059105814
217	0x3dbb8fe2	0.09158303
218	0xbf05c488	-0.5225301
219	0x3ec764da	0.3894413
220	0x3f088f31	0.5334349
221	0xbd14e081	-0.036346916
222	0x3ef4f05d	0.47839633
223	0x3ea95161	0.330699
224	0x3e02010e	0.12695715
225	0xbd8c7942	-0.068590656
226	0xbdb6dcfc	-0.08928868
227	0xbec489de	-0.38386434
228	0x3e0aaec7	0.13543235
229	0x3e6e41b1	0.23267247
230	0xbea4bdc0	-0.32176018
231	0x3e7b55ab	0.24544398
232	0x3d22a131	0.039704505
233	0x3d4bfea2	0.049803384
234	0xbe94ea72	-0.29085118
235	0x3f67555f	0.9036464
236	0x3e865f92	0.2624479
237	0xbd8b5647	-0.068035655
238	0xbf0199e4	-0.50625443
239	0x3d4161ee	0.047212534
240	0x3e306957	0.17227684
241	0xbd35585c	-0.04427372
242	0x3e977db9	0.29588106
243	0x3e56663e	0.2093744
244	0x3f7095fc	0.9397886
245	0x3f137a27	0.57608265
246	0x3db30e6e	0.087429866
247	0xbf6f3a7d	-0.9344862
248	0xbe59b855	-0.21261723
249	0x3e2da6ae	0.16958115
250	0xbeebd8fd	-0.46063986
251	0x3de0c70a	0.10975464
252	0xbc89fc4d	-0.01684394
253	0xbeb80bc6	-0.35946482
254	0xbe327317	-0.17426716
255	0xbdc9ea6a	-0.09859164

block1.0.bn2.weight f4 [8]
0	0x3f04c168	0.51857615
1	0x3ef1d6ad	0.47234097
2	0x3d425668	0.047445685
3	0x3f83f430	1.0308895
4	0x3da1b31b	0.0789549
5	0x3f9d54bf	1.2291487
6	0x3d2e9e0e	0.0426312
7	0x3f14a692	0.58066666

block1.0.bn2.bias f4 [8]
0	0x3f0baf01	0.5456391
1	0x3e130a57	0.14359413
2	0xbed2a368	-0.41140294
3	0x3f83d065	1.0297972
4	0xbedc760b	-0.4305881
5	0xbd0e16ec	-0.03468983
6	0xbea94724	-0.33062088
7	0x3f5537ea	0.83288443

block1.0.bn2.running_mean f4 [8]
0	0x3f4f8c5e	0.8107356
1	0x3f38da91	0.72208506
2	0x3e9601c1	0.29298213
3	0x3fc0a367	1.5049866
4	0x3e308a8f	0.17240356
5	0xbd253b91	-0.04034001
6	0x3f983f59	1.1894332
7	0xc062c1e8	-3.543085

block1.0.bn2.running_var f4 [8]
0	0x3f76b883	0.9637529
1	0x3f8454b2	1.0338347
2	0x3f3bd477	0.7337107
3	0x4000b0f9	2.0108016
4	0x3f7052b7	0.9387621
5	0x4082315a	4.0685244
6	0x3facbb66	1.349469
7	0x40872332	4.2230463

block1.0.conv3.weight f4 [16, 8, 1, 1]
0	0xbf08846a	-0.5332705
1	0x3e47a2fa	0.19495764
2	0xbd1082f2	-0.03528113
3	0x3bc1a7a0	0.005909875
4	0x3e5e9968	0.21738207
5	0xbf168e96	-0.5881132
6	0xbe719d43	-0.23595147
7	0x3e12b060	0.14325094
8	0x3dd4d79e	0.10392688
9	0x3e261c7c	0.16221803
10	0x3e8a064b	0.26957926
11	0x3f0179e4	0.50576615
12	0xbd35b9e5	-0.044366736
13	0x3eeb004b	0.4589866
14	0x3e938a19	0.28816298
15	0xbe868e53	-0.2628046
16	0xbe958b27	-0.29207727
17	0xbe906d4e	-0.28208393
18	0xbeb0fbb3	-0.3456703
19	0xbf07c714	-0.53038144
20	0x3dd9d65e	0.106365904
21	0xbe4fb5f7	-0.20284258
22	0x3e2f2526	0.17104015
23	0x3e6da508	0.23207486
24	0xbe840177	-0.25782368
25	0x3d559269	0.05214158
26	0xbc80f87e	-0.01574349
27	0x3ef05a93	0.46944103
28	0x3dac2534	0.084055334
29	0xbd550e2a	-0.05201546
30	0x3e038da1	0.12846996
31	0x3e7b24ce	0.24525759
32	0x3dcd43d1	0.100227006
33	0xbdb61f70	-0.08892715
34	0xbeecf1f7	-0.46278355
35	0x3f219393	0.63115805
36	0xbe7c7acd	-0.2465622
37	0xbd1330e8	-0.035935313
38	0x3ce07048	0.02739729
39	0x3e73a015	0.23791535
40	0xbdd5d64b	-0.10441264
41	0xbead896d	-0.3389391
42	0xbd773d8b	-0.060361426
43	0xbdba2f23	-0.09091022
44	0x3d6c1720	0.05763924
45	0x3f3233d9	0.69610363
46	0xbe9f8d83	-0.31162652
47	0x3e86d2f9	0.26332834
48	0x3c2ec0e5	0.010666107
49	0xbe8fd59f	-0.28092667
50	0x3e944914	0.28962004
51	0xbf98aa33	-1.1926941
52	0x3e4c553a	0.19954386
53	0x3e334523	0.17506842
54	0x3e8b3334	0.27187502
55	0xbe9087dd	-0.28228655
56	0xbf108551	-0.56453425
57	0xbf17cfd7	-0.59301513
58	0x3d76a50b	0.06021599
59	0xbec76467	-0.38943788
60	0x3e412bd1	0.18864371
61	0x3ce6b48c	0.028162263
62	0xbe8f6997	-0.28010246
63	0xbecb9862	-0.39764696
64	0xbd87ce43	-0.06631138
65	0x3e7aecac	0.24504346
66	0xbe6583ad	-0.22413512
67	0x3e7b2cfb	0.24528877
68	0x3e01ea86	0.1268712
69	0x3ed5f74e	0.4179024
70	0xbe968f89	-0.29406384
71	0x3e1f557a	0.1555995
72	0x3f518347	0.8184094
73	0xbce69ae5	-0.028150031
74	0x3e9e4e06	0.30918902
75	0x3de14e74	0.11001292
76	0xbe126df1	-0.14299752
77	0xbf0a043c	-0.5391271
78	0xbe01c8ae	-0.1267421
79	0xbe030aff	-0.12797163
80	0x3c140482	0.009034278
81	0x3f187ff7	0.5957026
82	0x3eabc8a1	0.33551505
83	0xbdfd0474	-0.12354365
84	0x3eac6c19	0.33676222
85	0xbeff71ad	-0.49891415
86	0xbe89c64d	-0.26909104
87	0x3f38cb87	0.7218556
88	0xbec61ef4	-0.3869549
89	0xbd0ac8a3	-0.03388275
90	0xbe2ef8f9	-0.17087163
91	0x3e3684e5	0.17824133
92	0xbdc74e57	-0.09731739
93	0xbf3f8529	-0.7481256
94	0xbc24a36c	-0.010048728
95	0x3e798abd	0.2436933
96	0xbea69c01	-0.32540897
97	0x3e5eeeb8	0.21770751
98	0xbe00b5e4	-0.12569386
99	0xbee71781	-0.4513512
100	0x3bae9c92	0.005328723
101	0xbd982a06	-0.0742989
102	0x3c8edb42	0.017438535
103	0x3f13fc2c	0.5780666
104	0x3f676f68	0.9040437
105	0xbe7327a7	-0.23745595
106	0x3ea06684	0.31328213
107	0xbf162fdd	-0.58666784
108	0x3e70a5d2	0.23500755
109	0xbda27e89	-0.07934291
110	0x3e3b80f3	0.18310909
111	0x3dfc05b2	0.12305774
112	0xbd5d0254	-0.0539573
113	0x3e366497	0.1781181
114	0x3d920b2e	0.071310386
115	0xbf1c145f	-0.60968584
116	0x3e411b95	0.18858178
117	0xbdf0b8fc	-0.11754033
118	0x3e113066	0.14178619
119	0x3b81dc2d	0.0039630146
120	0x3dfaddec	0.122493595
121	0x3e879974	0.26484263
122	0xbca1e53c	-0.019762628
123	0xbf0e577d	-0.55602247
124	0x3ecd0a83	0.40047082
125	0xbf24847c	-0.64264655
126	0x3da7d65c	0.08195183
127	0xbf5374a7	-0.8259987

block1.0.bn3.weight f4 [16]
0	0x3d8e672b	0.069532715
1	0x3fc64d21	1.5492288
2	0xbd683d40	-0.056699038
3	0x3da40897	0.08009451
4	0x3f03875c	0.51378417
5	0xbe2aedac	-0.16692227
6	0x3f7b0c7a	0.9806591
7	0x3e1150c1	0.14190961
8	0x3ed3fdff	0.4140472
9	0x3f208f67	0.62718815
10	0x3ee334d2	0.44376236
11	0x3e28d251	0.1648648
12	0x3dc65f19	0.09686107
13	0x3f73ac91	0.9518519
14	0x3dc5fc5f	0.096672766
15	0x3f638611	0.88876444

block1.0.bn3.bias f4 [16]
0	0x3c69175d	0.014226762
1	0xbe833ca0	-0.2563219
2	0xbeb2165d	-0.34782687
3	0xbd8f8d2e	-0.0700935
4	0x3db0fc66	0.08641891
5	0xbe3016c2	-0.17196181
6	0x3f580a3f	0.84390634
7	0xbeaeb436	-0.34121865
8	0xbf3ae423	-0.7300436
9	0x3e916f94	0.2840544
10	0x3e8eb81b	0.27874836
11	0x3e5a8b6b	0.21342246
12	0x3e7233fc	0.23652643
13	0x3de667ba	0.11250253
14	0x3d863e18	0.06554812
15	0x3d2869c9	0.04111651

block1.0.bn3.running_mean f4 [16]
0	0xbea54909	-0.32282284
1	0x3f1016d7	0.5628485
2	0xbf30f448	-0.69122744
3	0x3f129bad	0.5726879
4	0x3f6a66e8	0.9156327
5	0x3e842bec	0.2581476
6	0xbfc34b10	-1.5257282
7	0xbf9f12ae	-1.2427576
8	0x3f171f9f	0.59032625
9	0x3e85812e	0.2607512
10	0x3eef5975	0.46747938
11	0xbdef41b7	-0.11682456
12	0xbe0ad37c	-0.13557237
13	0xbde088f2	-0.1096362
14	0xbf2f56d8	-0.6849189
15	0xbfb7b144	-1.4350972

block1.0.bn3.running_var f4 [16]
0	0x3ebe2562	0.37137896
1	0x3f44f7e4	0.7694075
2	0x3ee9b850	0.45648432
3	0x3e4e485f	0.20144795
4	0x3e9e7ce1	0.3095465
5	0x3ee65e2f	0.4499373
6	0x3f7b28b3	0.9810898
7	0x3e5c54e4	0.21516758
8	0x3eab1db5	0.33421102
9	0x3ee48b68	0.4463761
10	0x3f2c8077	0.6738352
11	0x3ef1fbf7	0.47262546
12	0x3ec004d7	0.37503693
13	0x3f2d4706	0.676865
14	0x3edc511c	0.43030632
15	0x3f8fe003	1.1240238

block1.1.conv1.weight f4 [8, 16, 1, 1]
0	0x3ecc3954	0.39887488
1	0x3ef96bd6	0.48715085
2	0x3bdbe3a9	0.006710489
3	0xbe54fe0a	-0.20800033
4	0x3f1db0c6	0.6159786
5	0x3f239f18	0.6391463
6	0x3f3f6bca	0.7477385
7	0xbdc2b0d8	-0.095063865
8	0x3dddebb8	0.108359754
9	0xbe5d7547	-0.21626769
10	0xbf89adc0	-1.0756149
11	0xbf26935b	-0.65068597
12	0xbc6f2527	-0.01459626
13	0xbedd68b5	-0.43243948
14	0x3f020f9f	0.50805086
15	0x3e5a165d	0.21297593
16	0xbf776e9a	-0.9665314
17	0x3df95b40	0.12175608
18	0xbeb058ea	-0.34442836
19	0x3f085075	0.5324777
20	0x3dbec2ea	0.09314521
21	0x400a7729	2.163523
22	0x3e6eb15c	0.23309845
23	0x3c34a437	0.01102548
24	0x3ebad650	0.36491632
25	0x3e0b3f5d	0.1359839
26	0xbe684673	-0.22683124
27	0x3e1a3ec5	0.15063007
28	0x3ef836eb	0.484794
29	0x3c9e9957	0.019360228
30	0xbeb4e073	-0.3532749
31	0x3ea320d5	0.31860986
32	0x3cf323d0	0.029680163
33	0x3b88165f	0.0041530575
34	0x3e34aed7	0.17644821
35	0x3f8c4a74	1.0960221
36	0x3e8be81a	0.27325517
37	0x3ed88809	0.42291287
38	0x3e158095	0.14599831
39	0xbe39bb42	-0.1813784
40	0x3d351a60	0.044214606
41	0x3eed81fb	0.4638823
42	0xbec15a24	-0.37764084
43	0xbdef18d0	-0.116746545
44	0xbe113bd4	-0.14182979
45	0xbdce0aad	-0.1006063
46	0x3dad0afd	0.084493615
47	0xbe999fd1	-0.30004743
48	0xbe029317	-0.12751423
49	0xbee00eb6	-0.43761224
50	0x3e4f638b	0.20252816
51	0xbf088e92	-0.53342545
52	0xbe277dd8	-0.163566
53	0xbfa2ad4b	-1.2709135
54	0xbeacb0d0	-0.33728647
55	0xbe113758	-0.14181268
56	0xbe16217b	-0.1466121
57	0xbe36a2b5	-0.17835505
58	0xbe235ca3	-0.15953307
59	0x3ef3e3bb	0.47634682
60	0xbdc6e5b5	-0.09711782
61	0xbef89931	-0.48554376
62	0xbef6d3f6	-0.48208588
63	0x3eb15fff	0.34643552
64	0x3fbfeef2	1.4994795
65	0xbe10db7a	-0.14146224
66	0xbe028355	-0.12745412
67	0x3e81409f	0.25244614
68	0xbeaf2080	-0.34204483
69	0x3dca40a3	0.0987561
70	0x3f3b44f8	0.7315211
71	0xbc96f8fe	-0.018429276
72	0x3e38b593	0.18038015
73	0x3e56f331	0.20991208
74	0xbefe7116	-0.49695653
75	0x3e311807	0.17294322
76	0xbcac178d	-0.021007324
77	0x3f082521	0.53181654
78	0x3c24b77f	0.0100535145
79	0xbf347341	-0.70488364
80	0xbcc5f141	-0.02416289
81	0x3ef94c29	0.48690918
82	0x3ec59822	0.3859263
83	0xbe942ded	-0.2894129
84	0x3ea7ed6d	0.3279833
85	0xbedc2b06	-0.43001574
86	0x3f340676	0.7032236
87	0x3f18e20a	0.5971991
88	0x3e37e13c	0.17957014
89	0x3e0957e0	0.13412428
90	0x3e605e2c	0.21910924
91	0xbf30b0a0	-0.6901951
92	0xbe899ba4	-0.26876557
93	0x3f19a110	0.60011387
94	0x3e265262	0.16242364
95	0x3ea6700a	0.32507354
96	0x3e0934ea	0.13399091
97	0x3f0aaf42	0.5417367
98	0xbe0164de	-0.12636134
99	0x3da08b76	0.078391
100	0x3ea5e703	0.3240281
101	0x3e474c65	0.19462736
102	0x3e95d052	0.29260498
103	0xbd19b3e7	-0.037525084
104	0x3edaa46d	0.42703572
105	0xbcde394e	-0.027126934
106	0x3f8c25d8	1.0949049
107	0xbe3fc962	-0.18729165
108	0xbe532b69	-0.20622028
109	0x3db59d74	0.088679224
110	0x3ef5a2fe	0.47975916
111	0x3c9e0e06	0.019293796
112	0xbfe48078	-1.7851706
113	0xbed2544a	-0.41079932
114	0xbd9213bc	-0.0713267
115	0xbe7a107e	-0.24420354
116	0xbe0bd822	-0.13656667
117	0xbfb10bf9	-1.3831779
118	0x3e2eabcb	0.17057721
119	0xbe9338fd	-0.28754416
120	0xbea9c49a	-0.33157808
121	0xbe45d94c	-0.19321173
122	0x3e2525ee	0.1612775
123	0xbe32e8d6	-0.17471632
124	0xbf28087c	-0.65637946
125	0xbe2ea93d	-0.17056747
126	0x3e90339e	0.2816438
127	0x3edbc5a4	0.42924225

block1.1.bn1.weight f4 [8]
0	0x3d976b12	0.07393469
1	0x3f7edc15	0.9955457
2	0x3eed79b2	0.4638191
3	0x3f4f882d	0.8106716
4	0x3f4e8c55	0.8068288
5	0x3c6cd3bc	0.014454778
6	0x3f97af38	1.1850348
7	0x3f8f488d	1.1194016

block1.1.bn1.bias f4 [8]
0	0xbe95669c	-0.29179847
1	0x3f9f8170	1.2461376
2	0x3ce9cf31	0.02854118
3	0x3ee782fb	0.45217118
4	0x3f83d339	1.0298835
5	0xbd80ecbb	-0.06295153
6	0xbf3ae2b6	-0.73002183
7	0x3e9509bd	0.29108992

block1.1.bn1.running_mean f4 [8]
0	0x40076e7e	2.116119
1	0x40051821	2.0795977
2	0x3eb73a70	0.35786772
3	0xc083641d	-4.105971
4	0x409f6a62	4.981736
5	0x40071b29	2.1110327
6	0x40affd53	5.4996734
7	0xc112d406	-9.176764

block1.1.bn1.running_var f4 [8]
0	0x414cbc99	12.796044
1	0x41a91504	21.135262
2	0x40414d24	3.0203333
3	0x40f4b99d	7.647658
4	0x414ffc4e	12.999098
5	0x40db1173	6.84588
6	0x40ee5308	7.4476357
7	0x41400ae4	12.002659

block1.1.conv2.weight f4 [8, 8, 3, 3]
0	0xbed4d154	-0.41565955
1	0xbe70d19c	-0.2351746
2	0xbe996b88	-0.29964852
3	0x3c6d2b18	0.014475606
4	0xbcc1c4f3	-0.023653483
5	0xbe8ee3d0	-0.27908182
6	0x3db80bbe	0.08986615
7	0xbe27ae78	-0.16375148
8	0xbe6977cc	-0.22799605
9	0xbd132869	-0.03592721
10	0xbd1cb4d7	-0.0382584
11	0x3df0cbd0	0.11757624
12	0x3db78c62	0.08962323
13	0x3deedc44	0.11663106
14	0xbec19fa3	-0.37817106
15	0x3dbfc96e	0.093645915
16	0x3d89022b	0.06689867
17	0x3e5c7e13	0.21532468
18	0x3ce8ba9f	0.0284093
19	0xbe820607	-0.25395223
20	0xbe3137db	-0.17306463
21	0xb9dd5908	-0.00042218738
22	0xbe7e3828	-0.2482611
23	0xbca1fc63	-0.019773668
24	0x3d627544	0.055287614
25	0xbdc3b06d	-0.09555135
26	0x3d9aa8bb	0.07551714
27	0xbe0b2d53	-0.13591509
28	0x3ed302a4	0.41212952
29	0xbea7c8f5	-0.32770506
30	0x3eb44394	0.35207808
31	0x3f56b5bc	0.83871055
32	0x3ecf6622	0.4050761
33	0xbe6602b1	-0.22461964
34	0xbe01ccf7	-0.12675844
35	0xbe881d34	-0.2658478
36	0xbd95ee02	-0.07320787
37	0xbf1f7a1e	-0.6229571
38	0xbe3774f6	-0.17915711
39	0x3ee2e7b7	0.4431741
40	0xbf11e68e	-0.56992424
41	0x3cc4e00f	0.02403262
42	0x3e90c598	0.28275752
43	0xbd65b50f	-0.056080874
44	0x3e17c259	0.14820231
45	0xbe36d4dc	-0.17854637
46	0xbe7b03b7	-0.24513136
47	0x3c988e87	0.01862265
48	0x3c9111de	0.017708715
49	0xbd255e15	-0.040372927
50	0x3d49b3e7	0.049243834
51	0x3b87a982	0.00414008
52	0xbe7dc3cd	-0.24781723
53	0xbd43fc02	-0.047847755
54	0x3e91ab3d	0.28450957
55	0x3e88ae34	0.26695406
56	0x3e80fd8a	0.25193435
57	0x3f1e3f61	0.6181546
58	0x3ec3e2c1	0.38258937
59	0x3eb57c40	0.35446358
60	0x3ec9a9db	0.39387402
61	0x3ea4c7f9	0.32183817
62	0xbd211bac	-0.03933303
63	0x3e778dca	0.24175182
64	0x3faef5f4	1.3668809
65	0xbf45b032	-0.7722198
66	0x3e8aeb34	0.2713257
67	0x3fe70c3a	1.8050606
68	0x3d8e894b	0.0695978
69	0xbf6bd932	-0.9212829
70	0xbf3ff5ee	-0.74984634
71	0xbf0280c1	-0.5097771
72	0xbe8177c7	-0.25286695
73	0xbe6a9a06	-0.22910318
74	0x3d42afb7	0.047530856
75	0xbd3e5d50	-0.04647571
76	0xbe673e64	-0.22582394
77	0xbe40cc79	-0.18828
78	0xbcb42ffe	-0.02199554
79	0xbdd84678	-0.10560316
80	0xbd15a311	-0.036532465
81	0xbe1afea9	-0.15136208
82	0xbe201158	-0.15631616
83	0xbe2dfd0e	-0.16991064
84	0xbd696f08	-0.056990653
85	0xbd870164	-0.06592062
86	0xbde34e5b	-0.110989295
87	0xbcd98076	-0.026550513
88	0x3cdd38ac	0.027004562
89	0x3cde37d9	0.02712624
90	0xbe84da8c	-0.25947988
91	0xbe7f7909	-0.24948515
92	0xbdf9d2fe	-0.12198447
93	0xbdcc41e3	-0.099735044
94	0xbe673c10	-0.22581506
95	0xbe830031	-0.25586084
96	0x3e04979b	0.12948458
97	0x3d2e4063	0.042541873
98	0x3ce637f4	0.028102852
99	0x3e025bab	0.12730281
100	0xbd0a3d00	-0.03374958
101	0xbb91fa0d	-0.004454857
102	0x3e84255b	0.2580975
103	0x3dfa94c6	0.122354075
104	0x3dce0950	0.1006037
105	0x3e16b9aa	0.14719263
106	0x3dbcba8a	0.09215267
107	0x3e06d4b0	0.13167071
108	0xbccb42e7	-0.024812175
109	0x3c9d8055	0.019226233
110	0xbe26e927	-0.16299878
111	0xbe9bacbc	-0.30405223
112	0xbe198c20	-0.1499486
113	0xbe3c8475	-0.18409903
114	0xbd3ad729	-0.04561535
115	0x3e675838	0.22592247
116	0x3ecd62ff	0.4011459
117	0xbd9455ff	-0.07242965
118	0xbe40da8d	-0.1883337
119	0xbaf66b20	-0.0018800236
120	0xbe8b148d	-0.27164117
121	0xbe642df3	-0.22283153
122	0xbd33d552	-0.04390461
123	0xbe1bebea	-0.15226713
124	0xbe614804	-0.22000128
125	0xbdc42b61	-0.09578586
126	0xbe412599	-0.18861999
127	0xbe0262dd	-0.12733026
128	0xbcf0a850	-0.029377133
129	0xbe2acdf9	-0.16680135
130	0xbe9fc9e1	-0.3120871
131	0xbda8c078	-0.082398355
132	0xbdbfe527	-0.09369879
133	0xbe1d547d	-0.15364261
134	0x3e5e8b52	0.21732834
135	0x3d943930	0.0723747
136	0x3e810815	0.2520148
137	0x3e2eaea8	0.17058814
138	0x3e86b7c9	0.26312092
139	0x3e5095f0	0.20369697
140	0x39bc94ad	0.00035968926
141	0x3e1791d9	0.1480173
142	0x3e119cfb	0.1422004
143	0x3d923ca2	0.07140471
144	0xbdc9426b	-0.09827121
145	0x3c6d3ee7	0.014480329
146	0xbcc013bb	-0.023446908
147	0xbeb61aab	-0.3556722
148	0xbe253033	-0.16131668
149	0xbe087b82	-0.13328364
150	0xbe77ad17	-0.24187122
151	0xbe9fac8c	-0.3118633
152	0xbdecfe42	-0.11571933
153	0x3dc5f81d	0.096664645
154	0x3ddd1e49	0.10796792
155	0x3ef00a6c	0.4688295
156	0xbf40f332	-0.75371087
157	0xbfd20d1d	-1.6410252
158	0xbecf4396	-0.4048125
159	0x3f162640	0.58652115
160	0xbe90d9e5	-0.2829124
161	0x3e0cf744	0.137662
162	0x3db1764e	0.08665143
163	0x3ca7b545	0.020472178
164	0x3d081942	0.033227213
165	0xbd405ca6	-0.046963356
166	0xbeae8cb3	-0.3409172
167	0xbe367552	-0.17818192
168	0x3e5b856d	0.21437617
169	0xbd060849	-0.032722745
170	0x3dfc830c	0.12329683
171	0x3e6e913b	0.23297589
172	0xbdec8bf5	-0.11550132
173	0xbd87e15d	-0.066347815
174	0xbdbfdca7	-0.09368258
175	0x3da76b1b	0.081747256
176	0xbe843f56	-0.2582957
177	0xbe96d9ee	-0.29463142
178	0x3ea540ba	0.32275945
179	0x3dae4e4d	0.085110284
180	0xbd9adb2e	-0.075613365
181	0xbec5b6e0	-0.38616085
182	0xbc6e3627	-0.014539278
183	0xbe85cd95	-0.2613341
184	0xbecc38bc	-0.39887035
185	0x3be76a46	0.0070622293
186	0xbe514e2d	-0.20439978
187	0x3d18a7ac	0.03726928
188	0x3e742c75	0.23845084
189	0x3e19ac8e	0.1500723
190	0xbc175e03	-0.009238723
191	0xbb9875f1	-0.0046527316
192	0x3ea59209	0.32337978
193	0xbce8dc8f	-0.028425483
194	0xbc716e26	-0.014735734
195	0x3d8418ac	0.06450018
196	0xbdad45f7	-0.0846061
197	0x3da47179	0.08029456
198	0xbef681c8	-0.4814589
199	0xbec80cd9	-0.39072302
200	0xbe99a4f9	-0.30008677
201	0xbf411310	-0.7541971
202	0xbf068162	-0.5254117
203	0xbe953e75	-0.29149213
204	0xbf1bc039	-0.60840183
205	0xbe6bfdab	-0.23045985
206	0xbe9fc077	-0.31201527
207	0xbe0a54c3	-0.13508897
208	0x3f77ac55	0.9674733
209	0xbe486610	-0.19570184
210	0xbe7a98a2	-0.24472287
211	0x3f3e83c1	0.7441979
212	0xbce62d93	-0.028097903
213	0xbf1d161e	-0.61361873
214	0x3e2bd7a1	0.16781475
215	0xbe938c44	-0.28817952
216	0xbdc177a6	-0.09446649
217	0x3e229054	0.1587537
218	0x3d7441dd	0.059633125
219	0xbb01a6d3	-0.0019783273
220	0xbcb1502a	-0.02164467
221	0xbe0ced14	-0.13762313
222	0xbca00746	-0.019534718
223	0xbb12de89	-0.0022410473
224	0x3e633ddb	0.22191565
225	0x3e34967a	0.17635527
226	0xbdb68006	-0.08911137
227	0xbe04902a	-0.12945619
228	0xbd8d0066	-0.068848416
229	0x3e0ee462	0.13954309
230	0xbe694a4b	-0.22782247
231	0xbe5c7733	-0.21529846
232	0x3dc3f6f0	0.09568584
233	0xbe2faf84	-0.17156798
234	0xbe6a9185	-0.22907074
235	0xbe81769e	-0.2528581
236	0xbe1fadd9	-0.15593661
237	0x3e40db24	0.18833596
238	0xbe2b0786	-0.16702089
239	0xbed9788b	-0.4247478
240	0x3e161736	0.14657292
241	0xbdb90759	-0.090346046
242	0x3d0b22c6	0.03396871
243	0x3d2b2c34	0.041790202
244	0xbc417712	-0.011808174
245	0x3e7ec29f	0.2487893
246	0xbd9e2f50	-0.07723868
247	0xbe3c2a39	-0.18375482
248	0x3d9ef855	0.07762209
249	0x3d8789ff	0.066181175
250	0x3c88b4ed	0.016687835
251	0x3e7495de	0.23885295
252	0xbcc979e9	-0.024594264
253	0x3eabd2e7	0.33559343
254	0x3ed80b2e	0.4219603
255	0x3e490c27	0.19633542

block1.1.bn2.weight f4 [8]
0	0x3f52057b	0.8203961
1	0x3b83be62	0.004020498
2	0x3f28e4b9	0.65974003
3	0x3f218d03	0.6310579
4	0xbe9af487	-0.30264685
5	0x3dacf12b	0.08444437
6	0x3f9a7cb4	1.2069306
7	0x3f2e7a4b	0.68155354

block1.1.bn2.bias f4 [8]
0	0x3f8380cb	1.027368
1	0xbd7d3723	-0.06182016
2	0x3f9969e1	1.1985437
3	0x3e80c622	0.25151163
4	0x3ed5139b	0.4161652
5	0xbe9481ca	-0.2900527
6	0xbe4aeeb9	-0.19817628
7	0x3f9161f4	1.1358018

block1.1.bn2.running_mean f4 [8]
0	0x3f99c3d0	1.2012882
1	0xbe56d23d	-0.20978637
2	0xc06cee52	-3.702046
3	0xbf4d43a5	-0.8018134
4	0xc080150d	-4.0025697
5	0xbf8a935a	-1.0826218
6	0xbf2247d1	-0.63390833
7	0xbf8217b2	-1.0163481

block1.1.bn2.running_var f4 [8]
0	0x4092ca03	4.5871596
1	0x401a89a2	2.4146504
2	0x40ad5cd5	5.417582
3	0x401a25a4	2.4085474
4	0x405151bd	3.270614
5	0x4112147c	9.130001
6	0x40b5a77a	5.676694
7	0x40c8fe72	6.28106

block1.1.conv3.weight f4 [16, 8, 1, 1]
0	0x3e5163d0	0.20448232
1	0xbbb49098	-0.005510401
2	0x3e4b2f07	0.19842158
3	0xbf31c837	-0.6944613
4	0xbe8a317a	-0.26990873
5	0x3d3956d9	0.04524884
6	0xbde35294	-0.11099735
7	0xbf075307	-0.52861065
8	0x3e9f859e	0.3115663
9	0xbd215767	-0.039389994
10	0xbed831f1	-0.42225602
11	0xbefcd6f8	-0.49382758
12	0x3d591e1d	0.053007234
13	0xbe3f0b98	-0.18656766
14	0xbe2daf2e	-0.16961357
15	0xbdf578f8	-0.119859636
16	0xbe63dbc3	-0.22251801
17	0x3eeb6028	0.459718
18	0xbe3eecc1	-0.18645002
19	0x3cb193fd	0.021677012
20	0x3eaad419	0.33364943
21	0xbde6f39f	-0.11276936
22	0x3f869cc4	1.0516591
23	0x3c81a693	0.0158265
24	0x3d9ea545	0.077463664
25	0x3e464650	0.1936276
26	0xbec154dc	-0.37760055
27	0xbe8a0c52	-0.26962525
28	0xbeac9bd8	-0.3371265
29	0x3de535c2	0.11191894
30	0xbe0fef48	-0.14056122
31	0x3e91ad18	0.28452373
32	0x3deb2c48	0.11483055
33	0x3eb60017	0.35546944
34	0xbec56567	-0.38553926
35	0x3e7bc738	0.24587715
36	0xbcf915c7	-0.030405892
37	0xbe1105fc	-0.14162439
38	0x3caf68ad	0.021412218
39	0x3fc0aa6a	1.5052006
40	0xbe953000	-0.29138184
41	0x3eb12dfc	0.34605396
42	0xbe9d13d5	-0.30679193
43	0xbd89a842	-0.06721546
44	0xbeb51e78	-0.35374808
45	0xbeb60f59	-0.35558584
46	0xbdb7b904	-0.08970836
47	0xbe2553ff	-0.16145323
48	0xbf146968	-0.5797334
49	0xbe5e0e74	-0.21685201
50	0x3f35198e	0.7074212
51	0xbed10237	-0.40822002
52	0xbe3c1615	-0.18367799
53	0xbe999d08	-0.30002618
54	0xbdd81611	-0.10551084
55	0x3eb571fc	0.35438526
56	0xbf2bd799	-0.6712585
57	0xbc3d5b23	-0.011557373
58	0x3f057e95	0.52146274
59	0x3e711537	0.23543249
60	0xbdeef870	-0.116684794
61	0xbd55616b	-0.05209486
62	0xbea569ae	-0.3230719
63	0x3ecfd3e8	0.4059136
64	0x3f7ffbf1	0.9999381
65	0x3e47659e	0.19472358
66	0x3f67ca47	0.90543026
67	0xbf12ce45	-0.5734599
68	0xbe02b986	-0.12766084
69	0x3e82ffaf	0.25585696
70	0xbe6ea78f	-0.23306106
71	0x3e9887ff	0.29791257
72	0x3e6136c3	0.21993546
73	0x3e0bc84c	0.13650626
74	0x3f6ca229	0.92434937
75	0x3e8c690b	0.2742389
76	0xbe1d38c1	-0.15353681
77	0x3e422a3c	0.18961424
78	0x3f69030c	0.91020274
79	0xbf40969a	-0.752298
80	0xbf5c3cfa	-0.8603054
81	0x3e4eafa6	0.20184192
82	0x3f4f746c	0.8103702
83	0xbdbb38e2	-0.09141709
84	0x3e4e6691	0.20156313
85	0xbec72db7	-0.38902065
86	0x3d2c93ff	0.042133328
87	0xbeb8e345	-0.36110893
88	0xbf6543bc	-0.8955648
89	0xbe639553	-0.22224931
90	0x3ed82703	0.42217264
91	0x3e648ef9	0.22320165
92	0xbe941c68	-0.28927922
93	0x3e552bef	0.2081754
94	0x3e60f458	0.2196821
95	0xbdcc1752	-0.099653855
96	0x3e3032b5	0.17206843
97	0xbc68930c	-0.014195215
98	0x3f2f4b9b	0.6847474
99	0x3c998592	0.01874045
100	0xbeb3087f	-0.3496742
101	0x3c58b005	0.01322556
102	0xbe3f484e	-0.18679926
103	0x3dc9d2ec	0.09854683
104	0xbe029dc1	-0.12755491
105	0xbe1e698e	-0.15469953
106	0x3e9efcbc	0.31052196
107	0x3edd7aee	0.4325785
108	0xbdb0bebd	-0.086301304
109	0xbe62b9f5	-0.2214125
110	0xbf68afc4	-0.908932
111	0xbf16e527	-0.5894341
112	0xbf19b1d1	-0.6003695
113	0xbe5b5dd1	-0.21422507
114	0x3e8508b1	0.25983194
115	0x3e97648c	0.295689
116	0x3cafd2ac	0.02146276
117	0x3e19d802	0.15023807
118	0xbead43cb	-0.33840784
119	0xbeef16f3	-0.46697196
120	0xbf5df3ae	-0.8669995
121	0x3e6205f0	0.22072577
122	0xbe5b9c7c	-0.21446413
123	0xbeb36fd2	-0.3504625
124	0x3d5ada6c	0.05343096
125	0xbef95c6f	-0.48703334
126	0x3ef4aa6d	0.47786275
127	0xbe37c2db	-0.17945425

block1.1.bn3.weight f4 [16]
0	0x3ee09b2e	0.43868393
1	0x3eb7de6c	0.35911882
2	0x3eee0a7e	0.4649238
3	0x3cca20d4	0.024673857
4	0x3fd2f4c6	1.6480949
5	0x3e6ca6df	0.23110531
6	0x3ea2d31e	0.31801695
7	0x3f85ec40	1.0462723
8	0x3ff59a0e	1.9187639
9	0x3fa368ec	1.2766395
10	0x3f06764f	0.52524275
11	0x3e50f676	0.20406517
12	0x3ea240f2	0.31690174
13	0x3f2cb020	0.67456245
14	0x3e3c57d8	0.18392885
15	0x3ea15f73	0.31518134

block1.1.bn3.bias f4 [16]
0	0xbe163178	-0.14667308
1	0xbe605c72	-0.21910265
2	0x3c118e24	0.008883987
3	0xbeab1bd3	-0.33419666
4	0xbaa48e82	-0.0012554678
5	0xbf721fd6	-0.9457983
6	0x3e00eec7	0.12591086
7	0x3b12ea75	0.002241758
8	0x3e3357a5	0.17513902
9	0x3f1ee4ad	0.6206768
10	0x3ccd57d8	0.025066301
11	0x3e10d09d	0.1414208
12	0xbdee7fbc	-0.11645457
13	0x3e4c35a7	0.19942342
14	0x3cb52e50	0.02211681
15	0x3e772055	0.24133427

block1.1.bn3.running_mean f4 [16]
0	0xbf15b4a7	-0.5847878
1	0xbf09565a	-0.5364739
2	0x3ddf4cfd	0.10903356
3	0xbeb2446c	-0.34817827
4	0x3fb75a1f	1.4324378
5	0xbf8a6556	-1.0812175
6	0x3ebeb161	0.37244704
7	0x3ea21018	0.31652904
8	0x40090d72	2.1414456
9	0x3f5a7aa9	0.85343415
10	0xbe9316e9	-0.28728417
11	0xbef95d4b	-0.4870399
12	0x3f708917	0.9395918
13	0xbf19bcd7	-0.6005377
14	0xbf586526	-0.8452934
15	0xbfa81ef6	-1.3134449

block1.1.bn3.running_var f4 [16]
0	0x3e79c4d0	0.24391484
1	0x3e59466f	0.21218275
2	0x3f1a7b8c	0.6034477
3	0x3dec49f9	0.11537547
4	0x3f4b0626	0.79306257
5	0x3daae84f	0.083450906
6	0x3eb19634	0.34684908
7	0x3ef93cba	0.48679143
8	0x3faca419	1.3487579
9	0x3f846ae9	1.0345126
10	0x3f195503	0.5989534
11	0x3f1b3738	0.6063113
12	0x3e899be6	0.26876754
13	0x3ed0468b	0.4067882
14	0x3eb444bd	0.35208693
15	0x3f245033	0.64184874

block1.2.conv1.weight f4 [8, 16, 1, 1]
0	0x3eafb80b	0.343201
1	0x3f2fe9cc	0.6871612
2	0x3cd28e37	0.025702579
3	0xbdac9a72	-0.084278956
4	0x3d43ab3d	0.047770727
5	0x3c9c1d4b	0.019056937
6	0x3e01dd49	0.1268207
7	0xbeaac86d	-0.33356038
8	0x3e4a10b6	0.19732937
9	0x3e383183	0.17987637
10	0xbe3d07d9	-0.18460025
11	0x3fc97b25	1.5740706
12	0x3e7af18b	0.24506204
13	0xbea5aae6	-0.32356948
14	0x3f0cc88b	0.54993504
15	0xbe79e792	-0.24404743
16	0x3d99f147	0.07516723
17	0xbc92422d	-0.01785382
18	0xbe249661	-0.1607299
19	0xbe469ca9	-0.19395699
20	0xbdb3897f	-0.0876646
21	0xbec7348b	-0.38907275
22	0x3eb21257	0.34779617
23	0xbe833eec	-0.25633943
24	0x3ca1c560	0.019747436
25	0x3e382fed	0.17987032
26	0x3dc3b6a4	0.0955632
27	0xbe067ba2	-0.131331
28	0xbe5b519b	-0.21417849
29	0x3f0693c9	0.5256925
30	0xbe218409	-0.15773024
31	0xbe19f75c	-0.15035766
32	0xbf327b00	-0.69718933
33	0x3d453a6a	0.04815141
34	0xbe9e8ef3	-0.30968437
35	0x3e992db8	0.29917693
36	0x3dd7688a	0.10517986
37	0xbdaa15cf	-0.08304941
38	0x3e436304	0.1908074
39	0x3e7e812e	0.24853966
40	0x3dc290af	0.095002525
41	0xbd3e4caf	-0.04645985
42	0xbec1493b	-0.37751183
43	0xbe17e109	-0.14831938
44	0xbe1e61fb	-0.15467064
45	0x3ea77b6d	0.32711354
46	0x3f39db74	0.72600484
47	0xbe1a99fd	-0.15097804
48	0x3f305492	0.68879044
49	0x3d40615c	0.04696785
50	0x3e1c41b0	0.15259433
51	0x3ebd95e5	0.37028423
52	0x3d99b427	0.075050645
53	0xbfa26644	-1.2687459
54	0x3e960c77	0.29306385
55	0x3e4e8e41	0.20171453
56	0xbe7f91c0	-0.24957943
57	0xbc270d90	-0.010196105
58	0x3e7e69ec	0.24845093
59	0x3ef80a33	0.4844528
60	0x3d60067c	0.054693684
61	0x3e726408	0.23670971
62	0xbe9cd708	-0.30632806
63	0x3df1f5dc	0.11814472
64	0xbe5625c4	-0.20912844
65	0x3d68cef6	0.056838
66	0xbd268ccc	-0.040661618
67	0x3d3343b0	0.043765724
68	0x3c64a5f9	0.013955587
69	0xbcc31e71	-0.023818227
70	0x3e81d1b3	0.253553
71	0xbd8d86e3	-0.06910493
72	0xbe0c58ed	-0.13705797
73	0xbd76995b	-0.060204845
74	0x3f7e0698	0.9922881
75	0x3d540913	0.051766466
76	0xbefc56ce	-0.49284977
77	0xbdb0cc42	-0.08632709
78	0x3cbb6404	0.02287484
79	0xbe53c494	-0.20680457
80	0xbe9d1dac	-0.306867
81	0xbe34a1a4	-0.17639786
82	0xbf204804	-0.6260989
83	0x3d4c1247	0.049822118
84	0xbeeefdda	-0.46678048
85	0x3e9532e7	0.29140398
86	0x3f1b04c8	0.6055417
87	0xbd72bfe5	-0.059265036
88	0x3dece64d	0.11567364
89	0x3b7e8bcc	0.003884065
90	0xbf54afd1	-0.83080775
91	0x3d310611	0.043218676
92	0xbe544bc9	-0.20732035
93	0x3f7985b5	0.97469646
94	0xbf14abac	-0.5807445
95	0xbddf548e	-0.109047994
96	0xbe312e3a	-0.1730279
97	0x3e9219fb	0.28535447
98	0xbe7bd850	-0.24594235
99	0x3e086221	0.13318683
100	0x3e0fd318	0.1404537
101	0xbe0a8c31	-0.13530041
102	0x3ea88370	0.3291278
103	0x3e8de5d1	0.27714399
104	0xbd9f3ae1	-0.07774902
105	0xbe801fef	-0.25024363
106	0x3dbaded6	0.09124534
107	0xbe9ed1f0	-0.31019545
108	0xbdcdbe99	-0.10046119
109	0xbd92ef29	-0.071745224
110	0xbe69ed14	-0.22844344
111	0xbe10d6cc	-0.14144439
112	0xbf0ba8bc	-0.54554343
113	0xbe2f45fa	-0.17116538
114	0xbcad8fcb	-0.02118673
115	0x3e0e9175	0.13922675
116	0x3dc6335b	0.09677764
117	0x3eda95c9	0.42692402
118	0xbed44cf0	-0.4146495
119	0x3d60128e	0.054705195
120	0x3e366467	0.17811738
121	0xbb9976c8	-0.0046833493
122	0x3e11f150	0.1425221
123	0x3e8e72a3	0.27821836
124	0x3ec1cf7b	0.37853608
125	0xbe456ee4	-0.19280583
126	0xbf6803a5	-0.9063056
127	0xbe6d2f2e	-0.23162529

block1.2.bn1.weight f4 [8]
0	0x3f86b514	1.0524011
1	0x3e9ddd69	0.30832985
2	0x3f64f8c7	0.89442104
3	0x3f76c4cf	0.96394056
4	0x3f4205bd	0.75790006
5	0x3f319b44	0.6937754
6	0x3e60d861	0.21957542
7	0x3f61d2fb	0.88212556

block1.2.bn1.bias f4 [8]
0	0x3ea87bea	0.3290704
1	0xbef055a1	-0.4694033
2	0xbd8a4a72	-0.067524806
3	0x3dca8469	0.098885365
4	0xbe108d68	-0.14116442
5	0x3f28b988	0.659081
6	0xbe61867d	-0.2202396
7	0x3ed8cd1c	0.42343986

block1.2.bn1.running_mean f4 [8]
0	0x40cfffc2	6.4999704
1	0xbeb72135	-0.35767522
2	0xc02ae380	-2.6701355
3	0x40760a51	3.8443797
4	0x3fa65007	1.2993172
5	0xc071a12a	-3.7754617
6	0xbfe5954d	-1.7936188
7	0xc05f0cb5	-3.4851506

block1.2.bn1.running_var f4 [8]
0	0x41bf5ed8	23.92131
1	0x403d41ef	2.9571493
2	0x40aef68e	5.467597
3	0x4110a440	9.0401
4	0x40930864	4.5947742
5	0x417de916	15.869406
6	0x4017098f	2.3599584
7	0x410ccf41	8.800599

block1.2.conv2.weight f4 [8, 8, 3, 3]
0	0x3e77e379	0.24207868
1	0xbf1debb5	-0.61687785
2	0xbe56a71b	-0.20962183
3	0xbee62a6d	-0.44954243
4	0xbf076e68	-0.5290284
5	0xbe4fa5da	-0.20278111
6	0xbd76a7d7	-0.06021866
7	0xbde9de62	-0.11419369
8	0xbe0f46da	-0.13991871
9	0x3e74214b	0.23840825
10	0x3e591179	0.21198072
11	0x3dc9c489	0.09851939
12	0x3e6c5646	0.23079786
13	0xbe4ca522	-0.19984868
14	0xbea3f96f	-0.3202624
15	0x3e8f2bea	0.2796319
16	0xbcd4149a	-0.02588873
17	0x3d89bf61	0.06725956
18	0x3ead8d3c	0.33896816
19	0x3ebca091	0.36841252
20	0xbe8dcd23	-0.2769557
21	0xbde9b9fa	-0.11412425
22	0x3e8f1acb	0.2795013
23	0xbe84c98d	-0.2593502
24	0xbe1538fc	-0.14572519
25	0xbe87c3cd	-0.26516572
26	0xbe67ce80	-0.22637367
27	0x3dd94752	0.106093064
28	0x3e27a0ef	0.16369985
29	0x3ebd8012	0.37011772
30	0x3d44c336	0.04803773
31	0xbf218aca	-0.631024
32	0xbde02980	-0.109454155
33	0x3e6c2b8e	0.2306349
34	0x3d281784	0.04103805
35	0x3dc803e5	0.09766368
36	0x3e9aa274	0.30202067
37	0x3e0eda85	0.13950546
38	0x3b1ed6f7	0.0024237016
39	0xbc9f65ec	-0.01945778
40	0x3e8cba4e	0.2748589
41	0x3dddf458	0.108376205
42	0x3e4842e9	0.19556774
43	0xbd2dbc5b	-0.042415958
44	0xbe1eb265	-0.1549774
45	0x3d65605a	0.05600009
46	0xbe1cad9e	-0.15300605
47	0xbeafe2e3	-0.34352788
48	0x3f62fac7	0.88663906
49	0x3d1e5ef6	0.03866478
50	0xbed48681	-0.41508868
51	0x3e319a32	0.17343977
52	0xbe05c03f	-0.13061617
53	0xbd0aff0f	-0.03393465
54	0x3e3d4e12	0.18486813
55	0x3a652888	0.00087416964
56	0xbd7473b8	-0.05968067
57	0x3e0b7c2c	0.13621587
58	0x3c206eba	0.009792024
59	0xbd057288	-0.03257993
60	0x3d7139a3	0.058892857
61	0x3d9091f1	0.07059086
62	0xbe39bc47	-0.18138228
63	0x3d391ee1	0.045195464
64	0xbe7ab245	-0.24482067
65	0xbe382d3b	-0.17986004
66	0xbec115e6	-0.3771202
67	0x3f4ed265	0.80789787
68	0xbddb1a42	-0.10698368
69	0xbe97aaf9	-0.2962263
70	0xbe965826	-0.29364127
71	0x3d2e326a	0.042528547
72	0xbe81df61	-0.25365737
73	0x3f53f45e	0.8279475
74	0x3e9cc475	0.30618635
75	0x3e6f687a	0.23379698
76	0x3f8fd46a	1.1236699
77	0x3e920a0c	0.2852329
78	0xbe89502f	-0.26818988
79	0xbf433b44	-0.7626231
80	0xbedac083	-0.42725
81	0xbdf7bb93	-0.12096324
82	0xbdb55b9a	-0.08855362
83	0xbe280b69	-0.16410603
84	0x3dc853de	0.097816214
85	0xbe06b744	-0.13155848
86	0xbdf8089c	-0.12111017
87	0xbd17e3de	-0.037082545
88	0xbec62397	-0.38699028
89	0xbe8ce431	-0.27517846
90	0xbe5c58bc	-0.21518224
91	0x3d026395	0.03183325
92	0xbeb9da76	-0.36299485
93	0x3dac01d3	0.083987854
94	0x3ea5cc77	0.32382557
95	0x3d707809	0.058708224
96	0x3e6ea8c4	0.23306566
97	0x3db37287	0.08762079
98	0x3df4b955	0.11949412
99	0x3e61d9af	0.22055696
100	0x3da5f9d2	0.0810429
101	0xbe96ecf9	-0.2947767
102	0x3d9988f6	0.07496826
103	0xbb686e6b	-0.0035466205
104	0x3e23edbc	0.16008657
105	0x3ded30eb	0.11581596
106	0xbe9256f9	-0.2858198
107	0xbe942d72	-0.28940922
108	0xbe2cfcd5	-0.16893323
109	0x3eaaadad	0.3333563
110	0xbea9c3d7	-0.33157226
111	0xbd516d4d	-0.051129628
112	0x3e45d9a7	0.19321309
113	0xbe212a86	-0.15738878
114	0xbbf87e99	-0.007583451
115	0x3eab1afc	0.33419025
116	0x3e5e439f	0.21705483
117	0x3e8db56d	0.2767748
118	0x3d8a0233	0.06738701
119	0xbea3f7d7	-0.32025024
120	0x3e8b4b8d	0.27206078
121	0xbf078900	-0.5294342
122	0xbefd7ffc	-0.49511707
123	0x3edc71b5	0.43055502
124	0x3ea954ed	0.33072606
125	0xbeb83495	-0.35977617
126	0xbe37cd7c	-0.1794948
127	0x3caccd2e	0.021093931
128	0xbc8eea93	-0.017445838
129	0xbdf8979a	-0.12138291
130	0xbc465636	-0.012105515
131	0x3d9f5c40	0.07781267
132	0x3b87fac9	0.004149769
133	0xbc9410c7	-0.018074406
134	0xbd97b025	-0.07406644
135	0x3cb573b2	0.022149894
136	0xbeaf0b2d	-0.34188214
137	0xbdb352a6	-0.08755998
138	0xbe3faa72	-0.18717363
139	0x3d9b36f8	0.07578844
140	0xbe1e3bb6	-0.15452465
141	0xbe73c110	-0.23804116
142	0xbde5009b	-0.11181756
143	0xbdb7a8e0	-0.08967757
144	0xbe472569	-0.19447865
145	0x3eadb886	0.33929843
146	0xbd817855	-0.0632178
147	0x3eaf9ad6	0.34297818
148	0x3fa46307	1.2842721
149	0x3ecd96c3	0.40154085
150	0xbe873249	-0.26405552
151	0x3f16673f	0.5875129
152	0xbdd69f03	-0.10479548
153	0xbe797185	-0.2435971
154	0x3c35b1de	0.01108977
155	0xbda1ca8f	-0.07899963
156	0xbd968895	-0.0735027
157	0x3d4eda3d	0.050501097
158	0xbd92ad13	-0.071619175
159	0xbe0a537f	-0.13508414
160	0xbd642908	-0.055703193
161	0xbdb7e1c1	-0.08978606
162	0xbe80b201	-0.25135806
163	0xbe271a58	-0.16318643
164	0xbed13a1f	-0.40864655
165	0xbeeb2d0c	-0.45932806
166	0xbe4616ff	-0.1934471
167	0x3d8a1fc2	0.067443386
168	0xbe121dff	-0.14269255
169	0x3e44b662	0.19210199
170	0x3e3d534d	0.18488808
171	0xbdc86c1a	-0.09786244
172	0xbe817ed8	-0.25292087
173	0xbe7c1eac	-0.24621075
174	0x3cd9d76f	0.026591985
175	0x3f164b11	0.5870829
176	0x3ce4fa8a	0.027951498
177	0xbdb353e8	-0.08756238
178	0xbd456db5	-0.048200328
179	0xbe2aadb2	-0.16667822
180	0xbd101fcd	-0.035186578
181	0xbd208430	-0.039188564
182	0xbe0a82d1	-0.13526465
183	0xbe728eb6	-0.23687252
184	0x3d1ccd6f	0.038281854
185	0x3e308754	0.17239124
186	0xbee4346b	-0.44571242
187	0x3e27b585	0.16377838
188	0x3d930acc	0.07179794
189	0x3ea32747	0.31865904
190	0x3e8de690	0.27714968
191	0xbe80fa93	-0.25191173
192	0x3d916248	0.07098824
193	0xbe49d999	-0.19711913
194	0xbe5f7c18	-0.21824682
195	0x3eb310c1	0.3497372
196	0x3e6aa42e	0.22914192
197	0x3b0e044c	0.0021670042
198	0xbd5b1ff1	-0.05349726
199	0x3d54ad5c	0.05192314
200	0x3da7c77d	0.08192346
201	0xbc59b3be	-0.013287483
202	0xbc5baa35	-0.01340728
203	0xbe290e0f	-0.16509269
204	0xbe008962	-0.12552407
205	0xbe4e3fa8	-0.2014147
206	0x3d471c63	0.048611056
207	0x3dc33a47	0.095326
208	0x3d96f479	0.07370848
209	0xbeb891f3	-0.3604885
210	0x3d54fbba	0.051997878
211	0x3f0eddc5	0.55807143
212	0xbe9e976d	-0.30974904
213	0xbea7e0e8	-0.32788777
214	0x3e3faa08	0.18717206
215	0xbe42b30b	-0.19013612
216	0xbe9793a8	-0.2960484
217	0x3f267dfb	0.6503598
218	0x3df6a8e7	0.12043934
219	0xbf22d45b	-0.6360528
220	0xbe0d5dae	-0.13805267
221	0xbdc10156	-0.09424083
222	0x3f02a8a9	0.51038605
223	0x3ed2d4e4	0.41178048
224	0x3eb89832	0.36053616
225	0xbdc9e8a2	-0.09858824
226	0x3daf1386	0.08548646
227	0xbe4eefc0	-0.20208645
228	0xbead7dc4	-0.33885014
229	0x3a490f91	0.0007669861
230	0xbe75cb34	-0.24003297
231	0xbd342482	-0.04398013
232	0xbe33b045	-0.1754771
233	0xbde92478	-0.11383909
234	0xbe19f383	-0.15034299
235	0xbd4c309d	-0.04985105
236	0xbec0dda3	-0.37669095
237	0x3ee067c7	0.43829176
238	0x3e902753	0.28155002
239	0xbd985514	-0.07438102
240	0xbd0e0c3b	-0.034679633
241	0xbe298215	-0.16553529
242	0xbda4c1ad	-0.08044753
243	0xbc7f76a2	-0.015592249
244	0xbce28420	-0.027650893
245	0x3e277bee	0.16355869
246	0xbec250c5	-0.37952247
247	0xbf44f9ba	-0.7694355
248	0xbe359c8e	-0.17735502
249	0xbebb805c	-0.36621368
250	0xbe435850	-0.19076657
251	0xbe8a7799	-0.2704437
252	0x3e1d515b	0.15363066
253	0x3f009b33	0.50236815
254	0x3e8f0137	0.27930614
255	0xbe785243	-0.2425013

block1.2.bn2.weight f4 [8]
0	0x3f3fb18c	0.7488029
1	0x3f8df0a7	1.1089066
2	0x3fadf550	1.3590488
3	0x3ee67c76	0.4501683
4	0x3f583e68	0.84470224
5	0x3f233dd8	0.6376624
6	0x3f3425f9	0.7037044
7	0x3f3c900b	0.7365729

block1.2.bn2.bias f4 [8]
0	0x3e2fa011	0.17150904
1	0xbea51e4d	-0.3224968
2	0xbf41ddf2	-0.75729287
3	0x3ea966ba	0.33086187
4	0xbd60fbbf	-0.054927584
5	0xbd82744b	-0.063698374
6	0x3d4f8cce	0.05067139
7	0xbe9c5955	-0.30536905

block1.2.bn2.running_mean f4 [8]
0	0xbf83f648	-1.0309534
1	0xbe2d0c02	-0.16899112
2	0x3f632c82	0.8873979
3	0xc004384b	-2.0659359
4	0x4011c270	2.2774925
5	0x3f63dd6b	0.8900973
6	0xbf3f6c7a	-0.747749
7	0xbf0ee52c	-0.5581844

block1.2.bn2.running_var f4 [8]
0	0x400464f0	2.0686607
1	0x40427feb	3.0390575
2	0x40ad6da9	5.4196362
3	0x3fec28db	1.8449968
4	0x40199401	2.3996584
5	0x3fa033a1	1.2515756
6	0x4026e294	2.6075792
7	0x3f851d97	1.0399655

block1.2.conv3.weight f4 [16, 8, 1, 1]
0	0xbf07d52d	-0.53059655
1	0x3d532e6c	0.051557943
2	0xbe853003	-0.26013193
3	0xbf5fea27	-0.87466663
4	0x3ea13c70	0.31491423
5	0x3ee6ed82	0.4510308
6	0x3dc6e1be	0.09711026
7	0xbe294f70	-0.16534209
8	0x3d9fb08b	0.07797345
9	0x3e2f9682	0.17147258
10	0xbede4568	-0.43412328
11	0xbeb6984b	-0.35663065
12	0x3f373b66	0.7157501
13	0xbe2ff997	-0.17185055
14	0x3ebead0a	0.37241393
15	0x3e9fd6fb	0.31218705
16	0xbeaf9f72	-0.34301335
17	0xbd227011	-0.039657656
18	0xbf225f38	-0.6342654
19	0xbe77bf5c	-0.24194092
20	0xbc9c9d36	-0.019117933
21	0xbe1bbf56	-0.15209708
22	0xbf1d0c8a	-0.6134726
23	0xbdbbb4d2	-0.09165348
24	0xbe2076e8	-0.15670359
25	0x3f0d9721	0.5530873
26	0xbdc84038	-0.09777874
27	0xbd943cc0	-0.0723815
28	0xbea45ce8	-0.32102132
29	0x3d480edc	0.048842296
30	0x3d9bca45	0.07606939
31	0x3f3926d2	0.7232486
32	0x3e55bf3c	0.20873731
33	0x3f89393b	1.072059
34	0xbe1124c0	-0.14174175
35	0xbcafa343	-0.021440154
36	0xbe5a57c4	-0.21322542
37	0x3e00b9bc	0.12570852
38	0x3e3a978f	0.18221878
39	0xbdac87fa	-0.08424373
40	0x3f264764	0.64952683
41	0x3d4d7cc5	0.050167818
42	0x3cb049f6	0.021519642
43	0xbe03903d	-0.12847991
44	0xbe941623	-0.2892314
45	0xbe1d3d08	-0.15355313
46	0x3d7a8b68	0.061168104
47	0xbe0a8faa	-0.13531366
48	0xbefd4ed5	-0.49474207
49	0xbe4a1073	-0.19732837
50	0x3df693d9	0.120399185
51	0xbf0316f1	-0.5120688
52	0xbf1d9eac	-0.6157024
53	0xbf2fc3b7	-0.6865801
54	0x3f1bb80d	0.60827714
55	0x3e0bf595	0.13667901
56	0xbe997d6c	-0.29978502
57	0x3c6db6ca	0.014508912
58	0xbcef09f9	-0.02917956
59	0x3eba331b	0.36367115
60	0xbe48b054	-0.19598514
61	0x3e87641b	0.26443562
62	0xbdec15d3	-0.115276
63	0xbe57bd5a	-0.21068326
64	0x3e8792a5	0.26479068
65	0x3dd80e1c	0.10549566
66	0x3ee75abf	0.4518642
67	0x3dd3dcd8	0.10344857
68	0xbdfbb56d	-0.122904636
69	0x3dd26264	0.10272673
70	0xbea4825a	-0.321307
71	0x3df0fad9	0.117665954
72	0x3e4f8014	0.20263702
73	0xbd9f9ada	-0.077932075
74	0xbeee3f01	-0.46532443
75	0xbe10ad28	-0.14128554
76	0x3dcc47f3	0.09974661
77	0x3e0d5093	0.13800268
78	0x3e4cf301	0.20014574
79	0xbe9e5f19	-0.3093193
80	0x3d8b859d	0.06812594
81	0xbe5f6624	-0.21816307
82	0x3ebfde04	0.37474072
83	0x3f14873c	0.5801885
84	0xbcda22ae	-0.026627865
85	0x3dc46a96	0.09590642
86	0x3ea30fbb	0.3184794
87	0xbe8a4a70	-0.27009916
88	0xbdf60037	-0.1201176
89	0xbefe26c1	-0.49638942
90	0xbfce5d6c	-1.612226
91	0xbe16c712	-0.14724377
92	0xbe0bc0e8	-0.13647807
93	0xbe4118dd	-0.18857141
94	0xbe41cc04	-0.18925482
95	0x3c4f5bcd	0.012656164
96	0x3ef21b64	0.47286522
97	0xbe6477a4	-0.22311264
98	0xbea94e38	-0.3306749
99	0x3d897543	0.06711819
100	0xbe063c50	-0.13108945
101	0x3d4ce42d	0.050022293
102	0x3e4ccd85	0.20000274
103	0x3e82ffa7	0.25585672
104	0xbe486ce6	-0.19572791
105	0xbdc85094	-0.09780994
106	0xbf1631c2	-0.58669674
107	0x3e8c49dc	0.274001
108	0xbf0ce574	-0.5503762
109	0xbe0058c8	-0.12533867
110	0xbbd3e212	-0.0064661587
111	0xbf1e8075	-0.6191476
112	0x3daa212f	0.083071105
113	0xbf881403	-1.0631107
114	0xbd83e6a0	-0.064404726
115	0xbda33552	-0.079691544
116	0xbf36d739	-0.71422154
117	0x3ecb02d8	0.39650607
118	0x3ed7b645	0.42131248
119	0x3d108e5c	0.035292014
120	0xbf069322	-0.52568257
121	0x3e888ad1	0.2666841
122	0x3f2d513e	0.6770209
123	0xbdc07517	-0.09397333
124	0xbe93348a	-0.28751022
125	0xbefeb173	-0.49744758
126	0xbee43952	-0.44574982
127	0xbc9ff1bd	-0.01952445

block1.2.bn3.weight f4 [16]
0	0x3eb0207b	0.3439978
1	0x3f1b74b5	0.60724956
2	0x3f385281	0.7200089
3	0x3f46f09b	0.77710885
4	0x3f242d62	0.6413175
5	0x3eecafff	0.46228024
6	0x3ec0b98f	0.3764157
7	0x3e6592bf	0.2241926
8	0x3deeeb7c	0.11666009
9	0x3e263f43	0.1623507
10	0xbdce5392	-0.100745335
11	0x3fb545d9	1.4161941
12	0xbcb15390	-0.021646291
13	0x3f10019f	0.56252474
14	0x3f42dabb	0.76115006
15	0x3f03d980	0.51503754

block1.2.bn3.bias f4 [16]
0	0xbeb5de03	-0.35520944
1	0x3e7ee424	0.24891716
2	0xbd365d3f	-0.04452252
3	0xbd909d77	-0.07061284
4	0x3eddabb1	0.43295053
5	0xbf9e07b1	-1.2346097
6	0x3c73519a	0.014850998
7	0xbe0a979d	-0.13534398
8	0xbe073d0b	-0.1320688
9	0x3e728d01	0.23686601
10	0xbde91b7a	-0.11382194
11	0x3e07a1ba	0.13245288
12	0xbe2a8f43	-0.16656213
13	0xbe2a9cf4	-0.16661435
14	0x3c11ea93	0.0089060245
15	0xbce86bbd	-0.028371686

block1.2.bn3.running_mean f4 [16]
0	0xbec2001a	-0.37890702
1	0x3e5d7dfa	0.21630087
2	0xbf1def5d	-0.61693364
3	0x3db8aa03	0.09016802
4	0x3eaff70f	0.34368178
5	0x3d9d9108	0.07693678
6	0xbf0bac5e	-0.54559886
7	0xbd6cb15e	-0.057786338
8	0x3e39ced2	0.18145302
9	0xbd216de1	-0.03941143
10	0x3eaa147a	0.33218747
11	0xbf43d989	-0.7650381
12	0x3e04a06f	0.12951826
13	0xbee7a0e3	-0.45239934
14	0xbeb3ec72	-0.3514133
15	0xbea6a956	-0.32551068

block1.2.bn3.running_var f4 [16]
0	0x3e8ffeab	0.28123984
1	0x3e49e524	0.19716316
2	0x3f4ed27a	0.8078991
3	0x3eb52419	0.35379103
4	0x3f0f87d5	0.5606664
5	0x3d88beeb	0.0667704
6	0x3eb387ca	0.35064536
7	0x3d29b5d8	0.041433185
8	0x3e4d8567	0.2007042
9	0x3ea0c213	0.31398067
10	0x3e646733	0.22304992
11	0x40713bdf	3.7692792
12	0x3e586718	0.21133077
13	0x3f022995	0.508447
14	0x3f38ab06	0.7213596
15	0x3f3d99b3	0.7406265
