assignment1/results/trial_2/resBottleneck/ckpts/12000.pt (torch, 562430 bytes, 242 tensors)

block1.0.conv1.weight f4 [8, 16, 1, 1]
000000 c8 39 3c be b4 75 33 3e 02 bd 32 3e 64 1c bb 3b
       -0.18381417 0.17525369 0.17454913 0.0057101715
000010 3a 37 91 3e 44 1a 0b 3e 84 de 49 3e be 3c c2 3c
       0.28362447 0.13584238 0.19713789 0.023710605
000020 da 5b 17 3f c4 32 2c 3e 49 72 49 be 92 89 09 3e
       0.5912453 0.1681624 -0.19672503 0.13431385
000030 de fc 94 3b 41 93 33 3f d8 be 21 be 68 13 95 3f
       0.0045467457 0.70146567 -0.15795457 1.1646547
000040 44 2e 91 3d 81 80 f9 3d e6 16 2b be d2 06 e7 3d
       0.070889026 0.12182713 -0.16707954 0.11280598
000050 83 6d 2b be 7f 93 23 3e 2a f0 07 be 22 11 cf bc
       -0.16740994 0.15974234 -0.13275209 -0.025276724
000060 59 05 d9 be 12 1a cb 3e ef ef 19 bf 3f d1 9a be
       -0.42386892 0.39668328 -0.60131735 -0.30237767
000070 d3 e5 3c be 7e 06 98 bd 37 75 95 3e 2a e4 53 bf
       -0.18447046 -0.07423113 0.2919099 -0.82770026
000080 bf be 2b be c9 07 37 3d 61 23 9a 3e e5 92 c2 be
       -0.16771983 0.04468516 0.30105117 -0.38002697
000090 f7 9b 32 bd 6b 12 ac bd 17 63 b7 3e f7 43 30 3d
       -0.04360577 -0.084019504 0.35817787 0.043033566
0000a0 c4 f3 91 3e f8 70 86 3e 6a 53 c8 bf a7 5c a1 3d
       0.2850629 0.26258063 -1.5650456 0.07879
0000b0 55 14 df 3d 88 df 18 bf b6 2e 0f bf 98 70 ce 3c
       0.1089255 -0.5971608 -0.5593065 0.025200173
0000c0 db f3 71 bd 47 52 93 be e6 63 40 bf a5 4c 71 be
       -0.05907045 -0.2877371 -0.7515243 -0.23564394
0000d0 61 00 1e 3f b7 93 ec be 15 62 78 3e d8 5c 08 3f
       0.6171933 -0.46206447 0.24256165 0.5326667
0000e0 15 bb 8c be e7 a3 4b 3e 56 47 b5 be 9b a6 14 bf
       -0.27486482 0.19886743 -0.35405988 -0.5806672
0000f0 54 58 b9 be 28 60 18 be 1a ee 19 3e 81 5b 57 bf
       -0.36200202 -0.1488043 0.15032235 -0.84124
000100 6f 2e 34 be 85 9b 3d bf c0 ce de be a8 56 99 bd
       -0.17595838 -0.7406543 -0.43517113 -0.074872315
000110 eb f1 71 be be 09 fd ba ab b2 b8 be 55 46 b1 be
       -0.2362744 -0.0019305272 -0.36073813 -0.34623972
000120 c1 1e eb be 9c 3e 04 be b6 be 95 be 6d 5a 1e 3e
       -0.459219 -0.12914509 -0.29247063 0.15464182
000130 a6 b7 1d 3e 2f fc 81 be 06 4a 08 bf 0c 31 37 3d
       0.15402088 -0.25387713 -0.5323795 0.04472451
000140 58 ba 26 bd 00 26 15 3e cf 54 48 bf 06 ea 07 bf
       -0.040705055 0.14565277 -0.7825441 -0.53091466
000150 0b 23 6e be 2d 7f 96 3d a2 19 a8 3d cc 42 4a 3e
       -0.23255555 0.073484756 0.08208014 0.19752043
000160 60 08 b6 3e 34 6f 86 3e 62 93 82 bf fe b5 0e bf
       0.35553265 0.26256716 -1.0201228 -0.5574645
000170 ba 57 00 bc 6f cf 0d 3d ec 95 2e bf ff 5b 55 3e
       -0.007833416 0.034621652 -0.6819751 0.20835875
000180 18 ba 5a bd 44 5c 5b 3f df 9d 16 3f 65 26 8b be
       -0.05340013 0.8568766 0.5883464 -0.2717773
000190 31 16 01 3f 6c bc 1e be 5b 05 f8 be 72 34 59 3e
       0.50424486 -0.15501565 -0.48441586 0.21211413
0001a0 c1 86 4a 3f 5c 36 98 be 4c 13 fc 3e d7 96 25 be
       0.7911187 -0.29728973 0.49233472 -0.16170822
0001b0 83 75 09 be 74 fc 17 3f db 33 b5 3e 46 03 af 3e
       -0.13423733 0.5936959 0.35391125 0.34182185
0001c0 96 e3 21 3e db 75 04 3f 69 8d 87 3d be 7d 20 3d
       0.15809473 0.51742333 0.06618769 0.039182417
0001d0 b8 45 c8 be e0 eb 8b bd 65 70 10 be 61 5c e6 bd
       -0.3911569 -0.06832099 -0.14105375 -0.11248089
0001e0 bb 29 05 3f 9a 9f 07 3d 88 27 c4 be 65 bf 2a be
       0.520168 0.033111192 -0.3831141 -0.16674574
0001f0 7b a0 79 3e 66 cf 3d be 26 76 88 bf 0a 62 c2 3e
       0.24377625 -0.18536147 -1.0661056 0.37965423

block1.0.bn1.weight f4 [8]
000000 07 8c 5c 3f ad 7b 51 3f 52 6b 79 3f 89 99 51 3f
       0.86151165 0.8182934 0.9742938 0.818749
000010 02 28 2a be 6c 98 84 3f 5e d0 87 3f c0 19 ee 3e
       -0.16616824 1.0359015 1.0610464 0.4650402

block1.0.bn1.bias f4 [8]
000000 7a 50 3c bf 84 fe 4e be 9d ad c4 3e 27 0e 9f 3e
       -0.735603 -0.20214278 0.38413706 0.31065485
000010 7e 77 24 3f 29 29 f1 be 3f 76 16 bf 23 58 37 3e
       0.6424483 -0.47101715 -0.5877418 0.17904715

block1.0.bn1.running_mean f4 [8]
000000 6c 66 57 40 af 67 76 c0 09 66 82 c0 e2 d0 f3 c0
       3.3656263 -3.8500783 -4.0749555 -7.6192484
000010 06 e9 81 c0 24 27 c7 c0 47 03 27 40 f5 c3 9c bf
       -4.0596952 -6.223528 2.609575 -1.2247301

block1.0.bn1.running_var f4 [8]
000000 d3 93 0c 41 ef 2d f7 40 89 ab 4d 41 f4 2f 97 41
       8.78609 7.724357 12.854379 18.898415
000010 59 5c 97 40 fa b2 60 41 10 2a 4a 41 ee 27 0a 41
       4.730023 14.043695 12.635269 8.634748

block1.0.conv2.weight f4 [8, 8, 3, 3]
000000 ba a2 78 3e 54 0b 01 3e b1 6b 29 be 29 6c ff 3d
       0.24280825 0.12601978 -0.16544987 0.12471802
000010 0a e2 32 bc 8d 35 8e be 33 dd 16 3e 41 e8 27 3e
       -0.01091815 -0.2777523 0.14732818 0.16397192
000020 3a 6e 54 3b 01 c9 7a 3e 43 2d be 3e 50 f4 7a 3e
       0.0032414333 0.2449074 0.37143907 0.2450726
000030 9a 6a 8d 3e 9c 95 f3 3e 2e 69 ea 3d 22 96 1f be
       0.27620393 0.4757508 0.11445843 -0.15584615
000040 4a 24 97 be c8 5e 02 3e ca f3 83 bd 71 d2 0b be
       -0.29519874 0.12731469 -0.064429834 -0.13654496
000050 53 7e db be f6 25 c2 bd b8 78 87 bd 13 c6 c0 be
       -0.42869815 -0.09479897 -0.06614822 -0.3765112
000060 b0 9f aa bd 00 15 8b 3c d6 61 86 3e 6c c3 18 3e
       -0.08331239 0.016977787 0.26246518 0.14918298
000070 aa f4 b1 3e 2c fd 37 be 32 22 c4 3e f2 d9 3c 3f
       0.34756976 -0.17967671 0.3830734 0.7377006
000080 f9 77 8b 3e f3 28 87 be ff e3 27 3e 20 e8 b4 bd
       0.2723997 -0.2639843 0.16395567 -0.08833337
000090 45 1c 63 bc 59 e4 bc 3d ce f3 b9 3d bd 73 1c 3c
       -0.01386172 0.09223241 0.09079705 0.0095490785
0000a0 74 79 39 3d 19 3f 16 3c 6e ff ec bd c3 74 ab be
       0.045281842 0.009170317 -0.11572157 -0.3348752
0000b0 80 1c 06 3d fb b5 6d ba 51 5c 37 3d b0 c9 93 bd
       0.032742023 -0.000906795 0.044765774 -0.07216203
0000c0 c6 00 b9 3d 67 6b e2 3e 84 dc c9 3e ac f2 5f be
       0.09033351 0.44222566 0.39426053 -0.21869916
0000d0 76 f2 94 3e 8f 6f 87 3e 57 1d f9 bd 29 ac 14 3e
       0.29091233 0.264523 -0.12163799 0.14518799
0000e0 74 4b 6f 3c 4d db 54 3d 69 f0 1c bd 7e f7 16 be
       0.014605392 0.051966954 -0.03831521 -0.14742848
0000f0 9c 49 79 3e 96 ad 87 3e da 64 7a bd 82 7f 27 bd
       0.24344486 0.26499623 -0.061131336 -0.040893085
000100 f2 5a 14 be 93 86 86 3e 31 a7 e1 be eb e4 f2 bd
       -0.14487818 0.26274547 -0.4407287 -0.11860069
000110 2c 8c 11 bd f4 27 08 be 9d 36 8b 3e 6b 91 cb 3e
       -0.03553407 -0.13296491 0.27190104 0.39759383
000120 de 8d ef bd e9 36 6f 3e 27 14 a2 3e 23 3d 26 be
       -0.11696981 0.2336079 0.31656 -0.1623426
000130 68 b5 1a be c4 ff 45 be 58 32 4d be 8f 35 6b 3d
       -0.15108263 -0.19335848 -0.20038736 0.057424124
000140 a6 f4 8d be 50 57 34 3e 9d 00 85 3e 7e f5 0c be
       -0.27725714 0.17611432 0.2597703 -0.13765523
000150 52 ab 08 be 42 9c 85 be bc 09 a2 be ad 98 b3 b9
       -0.13346604 -0.26095778 -0.31648052 -0.00034255293
000160 54 c8 a4 3c dd 7e 2c 3d a7 1c 55 bd bc cd c0 3d
       0.020115055 0.042113174 -0.052029278 0.09414241
000170 ef 1d 90 bd c8 60 00 bf 41 90 5f bf 3f b1 4e be
       -0.070369594 -0.50147676 -0.8732949 -0.20184802
000180 10 2f 96 3d 83 ac c6 3d ec 5d 83 3e ae 10 ab 3d
       0.07333195 0.09700873 0.25657594 0.08352791
000190 0f ab 2c bd 16 89 b3 3e 60 ce 5a 3d a9 bd 68 be
       -0.04215532 0.35065526 0.05341947 -0.227286
0001a0 af 5d f4 3e df 89 92 3e 54 f0 bf 3e 6d 91 72 3e
       0.47727725 0.28620812 0.37488043 0.23688288
0001b0 ea 88 1e 3e 6d 17 54 3d 38 a3 68 3e 6f bc 2e 3d
       0.15481916 0.051780153 0.22718513 0.042660173
0001c0 12 3e 9f bc 79 ef 84 3d 90 e5 1d 3e 12 c6 29 3c
       -0.019438777 0.06490988 0.15419602 0.010362165
0001d0 5c db de 3d cb 0d 98 3e ad f6 16 3e b8 18 85 bc
       0.10881683 0.29698023 0.14742537 -0.016247138
0001e0 06 39 67 be fb c7 99 3d c3 de 8c 3d 4b dc ca 3c
       -0.22580346 0.07508846 0.06878426 0.024763247
0001f0 ea b3 6b bb 8f a0 b6 bd c1 b0 45 be ef 0e b6 bc
       -0.0035965391 -0.08917343 -0.19305708 -0.022223918
000200 be 17 3b bd 65 e7 8d 3a 65 c8 41 3d b1 e5 d0 3d
       -0.04567694 0.0010826407 0.04731025 0.1020006
000210 ca 6d a4 bd 38 0f 29 be e8 02 49 bc ce 70 3a ba
       -0.08028753 -0.16509712 -0.012268759 -0.0007112146
000220 de 45 03 bd 3a 40 cb bd c2 63 97 3e 17 88 eb 3e
       -0.032049052 -0.099243596 0.29568297 0.46002266
000230 d3 19 25 3e 5e 97 8f 3c c4 ae 2d be a8 48 b9 be
       0.16123132 0.017528232 -0.16961199 -0.36188245
000240 d9 a3 91 3e 6f 68 60 3e fc b3 b4 3e 1f b6 be 3d
       0.28445318 0.21914838 0.35293567 0.093120806
000250 27 d4 da 3d 0d 66 13 be 07 c2 4e 3c 99 15 ab 3d
       0.10684996 -0.14394398 0.012619502 0.08353729
000260 ab 44 c0 bd 3b 4e 72 3e 12 46 20 3e 27 78 5c 3e
       -0.093880974 0.23662655 0.1565173 0.2153021
000270 b9 8d c8 3d cf b0 94 3d 58 64 e7 b9 57 2c e1 3a
       0.097926565 0.07260286 -0.00044134515 0.0017179352
000280 1c 13 a5 bd b0 44 3b bd ea 0a ec 3d 23 ce ea bd
       -0.080602854 -0.045719802 0.11525519 -0.11465099
000290 ef 86 66 be 04 db 43 3d 18 6b 59 be 9a 73 03 be
       -0.2251241 0.04781629 -0.2123226 -0.12837067
0002a0 34 86 27 be 30 6a d3 3d 39 5a f1 bc ce c8 ba 3d
       -0.16359788 0.10322988 -0.029461967 0.09120332
0002b0 cf 33 8d 3d 92 f0 03 be 57 25 0c 3e cc 92 9b 3e
       0.06894647 -0.12884739 0.13686119 0.30385435
0002c0 2f c8 94 3d b6 c9 87 3e f6 6e ff 3e ea 84 3d 3d
       0.072647445 0.2652108 0.49889344 0.046269335
0002d0 53 0d 5c be 9e 7f 26 be 2c f8 0a be ea 63 58 3d
       -0.21489458 -0.1625962 -0.13571233 0.05282966
0002e0 18 5b c8 bc 15 0f 6d be 70 27 7f bd 5d 37 c5 3d
       -0.0244575 -0.23150285 -0.06229347 0.096297
0002f0 bd 08 31 be 34 27 8d 3e f1 25 a6 3d 6a 7a 90 3d
       -0.1728849 0.27568972 0.081127055 0.07054599
000300 4d 97 5d 3e bf 55 92 3d 85 ab 1b 3d 4b b5 58 3e
       0.21639748 0.07145261 0.03800537 0.21162908
000310 9e 91 fe 3d 1b b8 0e bd de f6 80 3b 34 60 37 3d
       0.12430118 -0.034843545 0.003935679 0.04476948
000320 d5 f5 ce 3d 24 c0 b8 3a 20 5f 68 3e 4d 3e b6 3e
       0.101054825 0.0014095348 0.22692537 0.35594407
000330 e1 b8 c7 3d 4a 3f 3c be d3 bc 07 bc 99 ff 29 3e
       0.0975206 -0.18383518 -0.008284765 0.16601409
000340 42 d9 2b be dd 90 4c be ef 20 8d 3e 0f ef 02 3d
       -0.16782096 -0.19977136 0.2756419 0.031966265
000350 ab 23 b5 bd e8 f9 16 3e 57 27 7e ba 7d df 8e be
       -0.08844694 0.14743769 -0.0009695193 -0.27904883
000360 61 d8 11 3d 83 f5 ea 3d e7 a0 00 bf 91 14 99 3e
       0.035606746 0.11472609 -0.5024552 0.29898503
000370 d7 25 cb 3e c7 79 8a bd ae d0 d9 3e b1 4e 63 3e
       0.39677307 -0.067615084 0.42542022 0.22197987
000380 62 59 72 3d 12 63 c9 bd d5 b2 5b bd b1 d6 68 be
       0.059167273 -0.09833349 -0.053637344 -0.22738148
000390 80 29 40 3e 55 ee 3b 3e 1f 4b 87 be d9 44 43 3e
       0.18765831 0.18352635 -0.264245 0.19069232
0003a0 21 51 9d 3c 5a f5 79 bb 70 2a 85 be b6 06 63 3f
       0.019203724 -0.0038140626 -0.2600894 0.88682115
0003b0 b3 a0 b0 3e 22 28 0e be 53 a9 23 bf 56 98 f6 3c
       0.34497604 -0.13882497 -0.63930243 0.030101936
0003c0 46 88 72 3d 2d d3 a1 b9 7f 19 7a 3e a7 ca 50 3e
       0.05921199 -0.0003086565 0.24423788 0.20389806
0003d0 0e f8 58 3f 23 01 12 3f a7 ba 32 3e ff 28 71 bf
       0.847535 0.57032984 0.17454015 -0.9420318
0003e0 a2 33 14 be 2d d1 15 3e 70 ff c6 be 90 23 1e 3e
       -0.14472821 0.14630575 -0.38866758 0.15443254
0003f0 4c 15 c4 bd 42 43 8d be d9 9b 30 be 41 b3 81 bd
       -0.095743746 -0.27590376 -0.17246951 -0.06333018

block1.0.bn2.weight f4 [8]
000000 df f3 c2 3e 6f ea 06 3f 6b 14 1f 3d 50 f4 51 3f
       0.38076684 0.5270147 0.03883783 0.82013416
000010 09 02 8f 3d d3 f3 a8 3f f5 ef 0e 3d 15 ff cb 3e
       0.0698281 1.3199409 0.03489681 0.3984305

block1.0.bn2.bias f4 [8]
000000 7b d3 0d 3f 98 dd 85 3e 5b 6c ac be 06 63 82 3f
       0.5540082 0.26145625 -0.3367642 1.018647
000010 da 11 b4 be c2 7e c9 3c 0d 91 8a be 41 d6 55 3f
       -0.3516987 0.024596576 -0.2706379 0.8353005

block1.0.bn2.running_mean f4 [8]
000000 4a a6 1b 3f e8 c3 b6 3e b4 88 80 3e 44 8f b9 3f
       0.6080061 0.3569634 0.25104296 1.4496846
000010 88 95 14 3e c7 ec d7 3e 1a c2 76 3f 2c aa 20 c0
       0.14510167 0.42172834 0.96389925 -2.5103865

block1.0.bn2.running_var f4 [8]
000000 e8 10 32 3f 92 9c 1c 3f 60 0a e4 3e fb 09 f3 3f
       0.69557047 0.6117641 0.44539165 1.8987421
000010 5a a6 24 3f 78 df 39 40 d0 a9 78 3f fa e5 2c 40
       0.6431633 2.9042645 0.97134113 2.7015367

block1.0.conv3.weight f4 [16, 8, 1, 1]
000000 fa db cd be dc 08 07 3e 44 96 ec bc f3 f2 d6 3d
       -0.4020689 0.13186973 -0.028880246 0.10495558
000010 ec 3e 36 3e e6 20 16 bf 8e c7 45 be 60 44 ac 3d
       0.1779744 -0.5864395 -0.19314405 0.08411479
000020 82 0f 27 3e 59 e5 72 3e 8b f7 61 3e db d6 db 3e
       0.1631451 0.23720302 0.22067086 0.4293736
000030 ad b0 14 bd 0c ae 0b 3f 53 8b 71 3e 57 9f 83 be
       -0.036301304 0.5456245 0.23588304 -0.25707504
000040 d1 fb e5 bd 97 83 23 be c3 df 90 be a1 c8 c5 be
       -0.11229671 -0.15968166 -0.28295717 -0.3862963
000050 f6 4d b2 3d 1b 1d e5 be 91 5e 0f 3e 10 96 52 3d
       0.08706276 -0.44748768 0.14000918 0.051412642
000060 ad 41 5f be 0c 3b 93 3d ed 24 53 bc c9 b8 d0 3e
       -0.21802397 0.07188997 -0.012887222 0.4076598
000070 59 e4 8c 3d 0e ed b6 bc 52 5f d7 3d 91 bc 23 3e
       0.06879491 -0.022329833 0.10516228 0.15989901
000080 a2 4a a7 3d 0e 11 86 bd 1a f5 c1 be 87 fc 07 3f
       0.08168532 -0.06546222 -0.3788231 0.531197
000090 8b ad 4e be 18 9a 28 be 43 b8 b7 3c 7d 2a 75 3e
       -0.20183389 -0.16465032 0.02242673 0.23941989
0000a0 24 75 35 be d5 21 96 be 87 62 4a bd ad 44 60 bd
       -0.17720467 -0.29322687 -0.04941037 -0.054752994
0000b0 ef 0d 41 3d 05 44 24 3f 1c 9b 82 be 45 80 81 3e
       0.04713243 0.6416629 -0.25508964 0.25293174
0000c0 f1 46 14 3d a2 26 92 be f8 c3 72 3e 88 0f 96 bf
       0.036200467 -0.285451 0.23707569 -1.172349
0000d0 66 3c 27 3e fb 71 4b 3e 21 e4 63 3e 3d 25 54 be
       0.16331634 0.19867699 0.22254993 -0.2071733
0000e0 ce a7 ec be f3 8d f8 be ab e5 49 3d 26 29 a3 be
       -0.46221775 -0.485458 0.049291294 -0.3186733
0000f0 ff 1f 1e 3e 1c f9 c0 3c a6 c9 6a be 03 99 a6 be
       0.15441893 0.023556285 -0.22928485 -0.32538614
000100 31 f0 39 bd 95 c8 38 3e e3 df 3b be 20 c3 47 3e
       -0.04539508 0.18045266 -0.18347125 0.19508028
000110 77 b1 d4 3d 57 c6 ba 3e 88 7d 76 be 8c 57 05 3e
       0.10385411 0.36479446 -0.24071324 0.13021678
000120 39 84 40 3f 9b 9e 03 be 94 95 81 3e 32 37 90 3d
       0.75201756 -0.12853472 0.25309432 0.07041778
000130 05 75 ef bd 1a a8 f2 be c8 79 d4 bd a4 57 98 be
       -0.116922416 -0.47393876 -0.103747904 -0.29754364
000140 02 9f 24 bc 48 13 2a 3f 2e 9e 8c 3e a5 46 11 be
       -0.010047676 0.6643567 0.27464432 -0.14187105
000150 cb 35 8d 3e 03 b4 c9 be c6 8e 61 be da e5 2d 3f
       0.27580103 -0.3939515 -0.2202712 0.6792885
000160 36 e0 d8 be 20 94 70 be 69 3a 0f be 47 0a 71 3d
       -0.4235856 -0.23494005 -0.13987125 0.058847692
000170 90 36 a3 bd 4f 4a 3c bf cf c4 06 bc 5d 47 6a 3e
       -0.07969391 -0.73550886 -0.008225634 0.22878785
000180 4f 4c ab be 7b bf 4a 3e ec b7 d2 bd 96 12 95 be
       -0.33456656 0.19799607 -0.102889866 -0.29115742
000190 c9 fb 8f 3b 67 23 c3 be 96 e0 69 3c 6e 91 cd 3e
       0.004394029 -0.38112947 0.014274737 0.40150017
0001a0 a7 39 3c 3f 04 b4 5a be c1 4c 83 3e 74 30 29 bf
       0.7352547 -0.21357733 0.25644496 -0.6608956
0001b0 b8 0c 45 3e 27 5f 0b bd 63 7c 19 3e 52 b4 3d 3e
       0.19243133 -0.03402629 0.14988856 0.18525818
0001c0 87 8e 8e bb b6 0a 02 3e 74 18 6f 3d ec 5f fd be
       -0.0043504867 0.12699398 0.05837293 -0.49487245
0001d0 8a 17 1e 3e dc bd 43 be 3a b2 ed 3d 60 e9 96 3d
       0.15438667 -0.19115394 0.1160626 0.073687315
0001e0 c8 9c 06 bd 85 83 87 3e 09 86 84 bc 88 76 f9 be
       -0.032864362 0.2646753 -0.016177194 -0.48723245
0001f0 55 d9 a7 3e e6 65 36 bf 31 63 89 3d 61 be 44 bf
       0.32783 -0.71249235 0.067083724 -0.76852995

block1.0.bn3.weight f4 [16]
000000 c2 f4 00 3e 98 6c ce 3f 72 e3 4c 3e a8 4f c5 3d
       0.12593368 1.612689 0.20008639 0.09634334
000010 e4 d1 9e 3e 56 8e 08 be c6 c4 82 3f ea f8 ea 3d
       0.3101951 -0.13335547 1.02163 0.11473258
000020 ce 46 a9 3e 76 4f 1a 3f 09 84 07 3f 85 3c 97 3e
       0.33061832 0.602775 0.52935845 0.2953836
000030 e9 17 e7 3e 56 e7 56 3f de bb 0f 3e 47 70 7b 3f
       0.4513543 0.8394674 0.1403651 0.98218197

block1.0.bn3.bias f4 [16]
000000 c2 c5 cd 3c 20 fa af be 30 7d 8f be 34 54 e7 bd
       0.025118712 -0.34370518 -0.28025198 -0.11295357
000010 71 ea 2e bd 4d 1d 26 bd 8f c5 36 3f 26 5d 8f be
       -0.04270405 -0.040555287 0.713952 -0.28000754
000020 07 fa 22 bf 2e fc ce 3e f5 32 8d 3e c0 3e 95 3d
       -0.6366276 0.40426773 0.2757794 0.07287359
000030 10 bf 3d 3e c1 04 93 3d 48 d0 e7 3d b2 4d 03 bb
       0.18529916 0.07178641 0.11319023 -0.0020035324

block1.0.bn3.running_mean f4 [16]
000000 a8 6b 77 be fd 8c 1f 3f d7 9a 2b bf 3f 35 e9 3e
       -0.24162161 0.62324506 -0.6703314 0.45548436
000010 06 32 36 3f 25 7e 64 3e a0 fe b4 bf 52 83 84 bf
       0.7117008 0.22313745 -1.4140205 -1.0352576
000020 18 48 01 3f 93 36 a3 3a 07 83 ff 3e f1 c8 ba be
       0.5050063 0.0012452177 0.49904653 -0.3648143
000030 92 23 7e be 95 60 4b be 30 39 f9 be 38 3f b2 bf
       -0.24818256 -0.19861062 -0.48676443 -1.3925543

block1.0.bn3.running_var f4 [16]
000000 97 12 d7 3e 0e 4c 44 3f 6c b1 04 3f b8 5e e2 3d
       0.4200637 0.7667855 0.51833224 0.110532224
000010 51 96 f5 3d 67 5f 05 3f dc 45 35 3f d3 7d e0 3d
       0.11991561 0.520987 0.7080972 0.10961499
000020 07 0d 82 3e 86 f3 ac 3e ae 4f f9 3e cb ee 30 3f
       0.25400564 0.33779544 0.48693603 0.6911437
000030 26 ad e6 3e 9c 64 da 3e f1 de 9b 3e 6c f8 93 3f
       0.45053977 0.42654884 0.30443528 1.1560187

block1.1.conv1.weight f4 [8, 16, 1, 1]
000000 5e 26 a7 3e ae 22 cc 3e 0c 30 b3 3b a0 66 2e be
       0.3264646 0.39870209 0.005468374 -0.17031336
000010 0b 13 01 3f 93 fc 05 3f 9e b4 1c 3f 70 5e 9f bd
       0.5041968 0.5233852 0.612131 -0.077816844
000020 0b a7 b5 3d d8 45 35 be 5e 67 61 bf f8 5e 08 bf
       0.088697515 -0.17702425 -0.8804835 -0.5326991
000030 94 ff 42 bc 95 3b b5 be 78 c7 d4 3e 38 81 32 3e
       -0.011901755 -0.3539702 0.41558433 0.17432106
000040 69 15 73 bf 2e 79 6e 3e 79 fb 8f be 7a e4 0f 3f
       -0.94954544 0.23288414 -0.28121546 0.56208
000050 8a 67 8e 3c a4 9c 0d 40 01 af 73 3e c6 36 13 3c
       0.017383356 2.2126856 0.23797227 0.008985227
000060 5d 28 99 3e eb c1 51 3e f2 0c 4a be 18 86 be 3c
       0.29913607 0.2048413 -0.197315 0.0232573
000070 4d 4e 45 3e 99 b6 72 bd 9b 0e e1 be 72 76 ae 3e
       0.1926815 -0.05925617 -0.43956456 0.34074742
000080 04 da 0e 3e 5e ce 5d 3e 72 13 5f 3e 4b d5 68 3f
       0.13950354 0.21660754 0.21784762 0.9095046
000090 d3 c2 7b 3e 85 08 d5 3e b3 2e 24 bd b0 11 18 be
       0.24586038 0.41608062 -0.0400836 -0.14850497
0000a0 24 07 5a 3d e6 f5 c9 3e 57 34 d7 be c1 82 28 be
       0.053229466 0.39445418 -0.4203212 -0.16456129
0000b0 70 33 2d be 3c 73 25 be db 4d 7d bd 14 5b 8d be
       -0.16914153 -0.1615724 -0.061841827 -0.2760855
0000c0 5e 73 1b be 3f 5f 14 bf 1a 2a 99 3d 07 9a 0d bf
       -0.15180728 -0.57957834 0.07478733 -0.5531315
0000d0 fa b1 4e be 6a 58 ad bf 7b a6 35 be aa 8c ed bd
       -0.2018508 -1.3542607 -0.17739289 -0.11599095
0000e0 c4 68 05 be cc 97 70 be 4b 39 2d 3e 38 df d8 3e
       -0.13028246 -0.23495406 0.16916387 0.42357802
0000f0 dd 75 48 bd a3 52 ad be dc 97 03 bf 58 f2 9e 3e
       -0.04894053 -0.3385211 -0.51403594 0.3104427
000100 42 02 c8 3f 90 4d 3b be 4a 10 cb bd fb 8d 85 3e
       1.5625689 -0.18291306 -0.09915216 0.26084885
000110 c2 5b 81 be f0 79 91 3d 62 53 05 3f 8a 15 77 bc
       -0.25265318 0.07103336 0.5208036 -0.015080819
000120 50 5b 2a 3e b4 4d 35 3e f0 c8 a8 be 8f 9c 0b 3e
       0.16636395 0.17705423 -0.32965803 0.13633941
000130 b1 c8 73 bd 29 e2 c6 3e ae e3 56 3e bb c4 02 bf
       -0.059517566 0.38844422 0.2098529 -0.51081437
000140 e5 08 a2 bc c4 10 cc 3e 23 be a1 3e b3 97 72 be
       -0.019779632 0.3985654 0.31590375 -0.23690681
000150 ed 75 89 3e b3 39 b4 be 4e 5d 13 3f d4 4a fa 3e
       0.26847783 -0.3520027 0.57564247 0.48885214
000160 83 84 16 3e 28 da e0 3d 9b a9 37 3e d1 a2 10 bf
       0.14698987 0.1097911 0.17935793 -0.5649844
000170 5d 49 61 be 91 83 fb 3e 99 22 08 3e e5 3d 88 3e
       -0.22000642 0.49123815 0.13294448 0.26609722
000180 74 cd bb 3d fe de 0f 3f 89 ee 13 be 4c a2 00 3e
       0.091700464 0.56199634 -0.14446463 0.12561911
000190 83 a0 83 3e d1 54 59 3e 89 b8 e1 3e 7d a3 fb bc
       0.25708398 0.21223761 0.44086102 -0.030717606
0001a0 5f e3 d7 3e ca d6 3b bc 29 ab 8e 3f ff c3 28 3c
       0.42165658 -0.011464784 1.1145984 0.010300635
0001b0 88 3b dd bd 11 43 c9 3d 01 23 8d 3e 6c 9d 48 bd
       -0.1080237 0.09827245 0.27565768 -0.048978254
0001c0 ca 7f fc bf 55 de 87 be 88 96 a1 3c d7 53 ae be
       -1.9726498 -0.26536813 0.0197251 -0.3404834
0001d0 02 72 09 be 7f 95 b4 bf 89 85 13 3e 9b f7 70 be
       -0.13422397 -1.4108123 0.14406408 -0.23531954
0001e0 fa c9 69 be 28 a0 11 be bd 7e 61 3c 3a 52 0f be
       -0.22830954 -0.14221251 0.013763127 -0.1399621
0001f0 c4 61 13 bf 7d c2 18 bd 90 17 9d 3e d3 97 08 3f
       -0.57571054 -0.037294853 0.3068204 0.53356665

block1.1.bn1.weight f4 [8]
000000 64 e6 6d 3d 5b 77 6f 3f 7c 63 ed 3e be d5 47 3f
       0.058081046 0.93541497 0.46364963 0.7806052
000010 9a 4e 15 3f f1 2f 36 3c 43 7c 88 3f b7 42 92 3f
       0.5832306 0.011119829 1.0662922 1.142661

block1.1.bn1.bias f4 [8]
000000 31 38 75 be 9c f1 a4 3f 43 1f be bc 33 24 c7 3e
       -0.23947217 1.2886233 -0.023208266 0.38894805
000010 b8 84 94 3f 96 c5 53 bd 4c 39 5c bf 29 76 2b 3e
       1.1603003 -0.051702105 -0.8602493 0.16744293

block1.1.bn1.running_mean f4 [8]
000000 68 28 02 40 9d 26 15 40 b9 aa 59 3e 28 72 8a c0
       2.0337162 2.3304818 0.21256532 -4.326435
000010 0a 82 b7 40 90 91 c8 3f 87 2f b5 40 13 44 24 c1
       5.734624 1.5669422 5.6620517 -10.26662

block1.1.bn1.running_var f4 [8]
000000 e6 72 0f 41 88 70 93 41 55 74 07 40 37 45 ff 40
       8.965551 18.429947 2.1164753 7.977199
000010 2a 5c 08 41 a7 de 7b 40 a5 16 d6 40 ff a5 31 41
       8.522501 3.9354646 6.690264 11.103026

block1.1.conv2.weight f4 [8, 8, 3, 3]
000000 62 31 ae be 76 21 45 be b2 2f 7b be e3 d6 42 3c
       -0.3402205 -0.19251046 -0.24529913 0.011892053
000010 f1 56 9e bc 26 f1 69 be 87 b2 96 3d 63 41 09 be
       -0.019328566 -0.22845897 0.0735827 -0.1340385
000020 61 1c 3f be f3 58 12 be 58 0e 53 be 28 8d 11 3e
       -0.1866317 -0.14291744 -0.2061094 0.14214003
000030 c9 a8 e8 3d 0b 09 b9 3d c9 96 a8 be 58 a6 9a 3d
       0.11360318 0.09034928 -0.3292754 0.07551259
000040 9d 7c 8e 3d e1 d5 27 3e 78 74 23 3e af b5 98 bd
       0.06957362 0.16390182 0.15962398 -0.074565284
000050 7b b2 09 be 58 40 95 3b c6 29 85 be 01 bc e6 bd
       -0.13446991 0.0045547895 -0.26008433 -0.11266328
000060 d7 59 db 3c 37 e7 8f bd c1 23 65 3d 4b ab 0b be
       0.026776237 -0.070265226 0.0559423 -0.13639562
000070 b1 76 eb 3e 0c c4 71 be 24 64 b4 3e 00 58 4b 3f
       0.45988992 -0.23609942 0.3523265 0.7943115
000080 d6 e9 d1 3e c0 f4 53 be 20 90 77 be ab e4 0b be
       0.40998715 -0.20698833 -0.24176073 -0.13661449
000090 8e 39 bb 3d 04 22 bf be 08 e7 dd bb d9 19 b1 3e
       0.09141837 -0.3733064 -0.006771926 0.34590033
0000a0 be f9 14 bf 1a 0c 14 3e 08 0d ab 3e e4 15 4d ba
       -0.58193576 0.14457741 0.3340838 -0.00078233914
0000b0 f0 09 52 3e 0c a9 15 be 7a 79 4d be 0c bb 79 3c
       0.20511603 -0.14615268 -0.20065871 0.015242349
0000c0 26 86 6d 3c 9f 5d 07 bd b2 1b 25 3d 20 18 5e 3b
       0.0144973155 -0.03304827 0.040309615 0.0033888891
0000d0 ad b9 4f be 4b 6d 20 bd 6a 85 73 3e e1 74 44 3e
       -0.20285673 -0.03916673 0.23781362 0.19185211
0000e0 ce 07 36 3e 9b 79 31 3f 62 ca 12 3f 32 eb 99 3e
       0.17776415 0.6932618 0.5734006 0.30062252
0000f0 28 a2 ac 3e 1a 61 ae 3e 79 88 43 bc dd 28 98 3d
       0.33717465 0.34058458 -0.011934393 0.07429669
000100 73 66 a5 3f 6e fa 65 bf ff 4c ac 3e 64 28 ef 3f
       1.292189 -0.8983525 0.33652493 1.8684201
000110 ee 30 cb 3b b1 4e 55 bf 6d 8a 7d bf c3 a1 12 bf
       0.006200901 -0.833232 -0.99039346 -0.5727808
000120 57 f5 53 be ff 09 40 be 88 5d 1f 3d df d3 1b bd
       -0.20699058 -0.18753813 0.038907558 -0.038043853
000130 47 4a 3d be ff d1 1d be 34 7f 93 bc 9f 09 b1 bd
       -0.18485366 -0.15412138 -0.018004991 -0.08644413
000140 6b fa f4 bc e5 bf fd bd 06 07 03 be 2b 6c 0e be
       -0.029904565 -0.123901166 -0.12795648 -0.1390845
000150 43 15 3f bd 2f 06 5d bd 2f 11 ba bd a3 0a b2 bc
       -0.046651136 -0.053960975 -0.09085309 -0.021733588
000160 18 16 b5 3c fa e6 b5 3c 68 80 59 be a5 1f 51 be
       0.022105262 0.022204865 -0.2124039 -0.20422228
000170 f7 7f cc bd 35 33 a7 bd 65 48 3d be c4 77 56 be
       -0.09985345 -0.08164064 -0.18484648 -0.20944124
000180 c4 12 d9 3d 49 a3 0e 3d 7c 73 bc 3c 6c 6a d5 3d
       0.105992824 0.03482369 0.023004286 0.10420689
000190 1c 51 e2 bc 5a fc 6e bb b8 57 58 3e 95 1e cd 3d
       -0.027626567 -0.0036466331 0.21127212 0.10015599
0001a0 fd a7 a8 3d 83 c2 f6 3d 13 7d 9a 3d fd bc dc 3d
       0.08235166 0.12048819 0.07543387 0.10778234
0001b0 7f 62 a6 bc 39 ed 80 3c fb a0 08 be e7 dc 7e be
       -0.020310638 0.015738117 -0.13342659 -0.24888955
0001c0 48 61 fb bd ce 50 1a be 62 f1 18 bd 78 5f 3d 3e
       -0.12274414 -0.15069887 -0.037339576 0.1849345
0001d0 de 1f a8 3e 1e d9 72 bd 80 dd 1d be 45 b6 c9 ba
       0.32836813 -0.05928909 -0.15416527 -0.0015389404
0001e0 ff b1 63 be 31 c8 3a be fc 34 13 bd 55 44 ff bd
       -0.22235869 -0.1824043 -0.0359392 -0.12464205
0001f0 d8 68 38 be 52 94 a0 bd f4 1a 1e be 33 76 d5 bd
       -0.18008745 -0.0784079 -0.1543997 -0.10422935
000200 01 ff c4 bc 03 d1 0b be 89 cc 82 be d4 22 8a bd
       -0.024047377 -0.1365395 -0.25546673 -0.06744924
000210 a1 14 9d bd 5a c9 00 be 4d 2b 36 3e 00 aa 72 3d
       -0.0766995 -0.1257681 0.17789955 0.059244156
000220 7c 3e 53 3e 8d fd 0e 3e a4 8d 5c 3e 3b be 2a 3e
       0.20629305 0.1396391 0.21538407 0.1667413
000230 16 5e 9a 39 7d 24 f8 3d f3 63 ee 3d 64 69 6f 3d
       0.00029443268 0.121163346 0.116401576 0.058450118
000240 e2 b9 a4 bd 60 4d 42 3c 90 1b 9d bc b0 0b 95 be
       -0.08043267 0.011859268 -0.019178182 -0.2911048
000250 8a 30 07 be b3 6f df bd 38 ba 4a be 07 b8 82 be
       -0.1320211 -0.10909977 -0.197976 -0.25531027
000260 1b 13 c2 bd 24 15 92 3d 0c 6f c3 3e e3 1b f2 3e
       -0.094763 0.071329385 0.3817066 0.472869
000270 f5 05 1d bf b3 05 da bf be 8f 80 be e2 7f 2b 3f
       -0.61337215 -1.7032989 -0.25109667 0.6699201
000280 c4 0a bd be f0 c5 94 3e ac 15 33 bc 44 d2 2a 3d
       -0.36922276 0.29057264 -0.01093046 0.04170443
000290 cc ca aa bd e9 87 ec bd a8 66 9c be 75 a8 0b be
       -0.08339462 -0.1154936 -0.3054707 -0.1363848
0002a0 57 ec 4d 3d 67 ed 4e bd fa b0 3d 3e 35 fd 17 3e
       0.05027422 -0.050519373 0.18524542 0.14842685
0002b0 d4 94 19 be a1 a7 e6 bd 71 e8 51 bd 64 7d 7c 3e
       -0.1499818 -0.112624414 -0.051247064 0.24657208
0002c0 d2 96 b8 be bc 77 a8 be ff e3 d2 3e dd 51 51 3d
       -0.36052567 -0.3290385 0.41189572 0.05110346
0002d0 f9 46 02 be eb 17 01 bf 20 2c 41 be aa 93 93 be
       -0.12722386 -0.5042712 -0.18864489 -0.28823596
0002e0 b4 72 a9 be 52 7b d2 bc 1a cd 46 be 24 01 31 3e
       -0.33095324 -0.02569357 -0.19414178 0.17285591
0002f0 b2 03 6f 3e 49 96 fb 3d 52 c3 f7 bb 89 94 79 bb
       0.23341253 0.12284524 -0.007561126 -0.0038082919
000300 54 88 87 3e f3 9b be bc ad a2 45 bc ed 42 58 3d
       0.26471198 -0.023267722 -0.012062711 0.0527982
000310 25 d6 8d bd fa 9b 86 3d 9b f0 c7 be 5d d9 4f be
       -0.069256105 0.06572719 -0.39050755 -0.20297761
000320 0e c7 da bd 07 d3 3d bf d8 ed 05 bf 1e 8b ad be
       -0.10682498 -0.7415013 -0.52316046 -0.338952
000330 d2 a2 1b bf 0d 4b 3a be 23 b2 64 be 5c 74 69 be
       -0.6079532 -0.18192692 -0.22333579 -0.22798294
000340 16 8d 60 3f 93 19 73 bd 2a fe 47 be 9b 20 59 3f
       0.8771528 -0.05935056 -0.1953055 0.84815377
000350 e1 d1 01 bd 35 38 fe be a4 2f 97 3d 60 5e ca be
       -0.031694297 -0.49652258 0.073821336 -0.39525127
000360 e1 60 9e bd 7a 0e 05 3e 6c de 47 3d fe 4c d5 ba
       -0.07733322 0.12993804 0.048796102 -0.0016273556
000370 76 3a 91 bc e7 c1 e6 bd 55 21 83 bc a4 95 ed ba
       -0.017728072 -0.11267453 -0.016007105 -0.0018126261
000380 31 05 3a 3e fd 18 f3 3d 4d 60 17 be fd b3 8a bd
       0.18166043 0.118700005 -0.1478283 -0.06772611
000390 21 96 b4 bc f6 c0 89 3e 30 cf 1b be e7 69 5e be
       -0.022044243 0.2690503 -0.15215755 -0.21720086
0003a0 54 26 52 3d b3 03 51 be f6 87 3f be a0 5d 4e be
       0.051306084 -0.20411567 -0.18704209 -0.20152903
0003b0 3a 8d 5a bd 70 06 29 3e 4c 4a c1 bd 54 04 bf be
       -0.05335734 0.16506362 -0.09437999 -0.3730799
0003c0 f5 e6 27 3e 0b 69 85 bd b4 2b 8a 3c 7e ec 38 bc
       0.16396697 -0.06514176 0.016866542 -0.011286853
0003d0 31 28 b9 bb ff b1 d2 3d 49 70 05 bd f6 05 6f be
       -0.005650543 0.10287856 -0.032577787 -0.23342118
0003e0 8a f9 3d 3d 7f 44 85 bc 2f a1 c5 bc b0 c3 3e 3e
       0.046380557 -0.016268013 -0.02412471 0.18629336
0003f0 05 48 a1 bb 59 c9 a7 3e 2b 37 ea 3e 83 02 4d 3e
       -0.0049219155 0.32770804 0.45745215 0.2002049

block1.1.bn2.weight f4 [8]
000000 0e 0a 46 3f 21 af 57 3b a5 5b 56 3f 31 05 cc 3e
       0.7735909 0.0032910781 0.8373359 0.3984771
000010 43 85 af be 6a 4a 9c 3d 2f de 8f 3f 7a fb 22 3f
       -0.34281358 0.07631381 1.123968 0.6366497

block1.1.bn2.bias f4 [8]
000000 fd bb 8f 3f 99 46 4f bd 00 b7 95 3f bb 3e bd 3e
       1.1229244 -0.050604437 1.1696472 0.36961922
000010 2b df b1 3e 2a 2c 71 be 19 20 4d be 7a 65 90 3f
       0.34740576 -0.23552004 -0.20031776 1.1280968

block1.1.bn2.running_mean f4 [8]
000000 92 08 b5 3f 3f b9 78 be ee 7d 54 c0 f4 3a ba be
       1.414324 -0.24289416 -3.3201861 -0.36373103
000010 fe 75 2a c0 07 56 27 bf 48 41 79 be 1d f9 18 bf
       -2.6634517 -0.6536564 -0.24341309 -0.59755117

block1.1.bn2.running_var f4 [8]
000000 80 24 49 40 21 23 bf 3f f7 11 76 40 31 f1 10 40
       3.1428528 1.4932595 3.8448465 2.2647212
000010 32 96 08 40 5a df ba 40 31 6a 7c 40 92 54 a3 40
       2.1341672 5.8397646 3.9439814 5.1040735

block1.1.conv3.weight f4 [16, 8, 1, 1]
000000 cf 31 3a 3d 4d ce 93 bb fe 90 a2 3e 24 76 3b bf
       0.045457657 -0.004510677 0.31751245 -0.73227143
000010 e7 96 33 be 78 d5 17 3d d1 8d d2 3b e7 49 f7 be
       -0.17538033 0.037068814 0.0064255972 -0.4829857
000020 ea 99 29 3e ec 11 04 bd 58 0b f1 be b0 7a ea be
       0.1656262 -0.032243654 -0.47078967 -0.45796728
000030 fa 88 f9 3d 8d 5f 1c be 3c dd a7 3d f1 db 62 bd
       0.12184329 -0.15270825 0.08196494 -0.055385534
000040 4c 16 ca be 34 ac c0 3e 4b da d0 be 9a fc 12 3e
       -0.39470136 0.3763138 -0.40791544 0.14354172
000050 9d 9e cb 3e 4d 1e bd bd e4 2d 65 3f 7b 6b b2 bd
       0.3976945 -0.09234295 0.8952315 -0.087119065
000060 c8 ec cd 3c 7d 4d 22 3e 5e 0b c3 be a7 41 31 be
       0.02513732 0.15849872 -0.3809461 -0.173102
000070 36 cd 81 be 0f 9c bb 3d 3d a3 c8 bd cf c7 63 3e
       -0.25351876 0.09160625 -0.0979676 0.2224419
000080 e4 1f 60 3e 1a fb 94 3e 2a b1 0f bf 06 23 08 3e
       0.21887165 0.29097825 -0.56129706 0.1329461
000090 88 4f e4 bd 0a 61 ed bd c6 b5 8a 3b 88 20 bd 3f
       -0.11147982 -0.11590774 0.004233095 1.4775553
0000a0 4b d1 79 be ef 08 91 3e f7 1d cc be ab f1 1c 3e
       -0.24396245 0.28327128 -0.3986661 0.15326564
0000b0 f0 0f db be 14 2b 95 be a9 e9 00 bd f9 d2 27 be
       -0.42785597 -0.29134429 -0.031472836 -0.16389073
0000c0 60 ce 42 bf 0b c5 35 be 25 70 06 3f 38 9a e7 be
       -0.76096153 -0.17750947 0.5251487 -0.45234847
0000d0 83 4b 35 be 14 7b 7b be 2a 88 36 3d f6 0a 91 3e
       -0.17704587 -0.2455867 0.04456345 0.28328675
0000e0 ad ad 2e bf 90 00 1b bc a8 a5 da 3e 94 20 06 3e
       -0.6823376 -0.009460583 0.4270451 0.13098365
0000f0 ad ef a9 bd ca a8 2e bd e1 60 d0 be 72 23 df 3e
       -0.08297668 -0.04264144 -0.40698913 0.4358173
000100 66 92 87 3f a9 38 23 3e 32 22 50 3f 11 5e 15 bf
       1.0591552 0.15939583 0.8130218 -0.5834666
000110 d7 53 60 be af 77 56 3e 86 7b 85 be 6b 81 97 3e
       -0.21906982 0.20944093 -0.26070803 0.29590926
000120 b0 a9 d0 3d 43 d8 e4 3d 69 13 61 3f cc 2d 10 3e
       0.10188615 0.11174061 0.8792024 0.1407997
000130 8a b2 4a be a8 e1 1e 3e 45 18 59 3f 80 17 60 bf
       -0.1979467 0.15515769 0.8480266 -0.8753586
000140 b5 d3 54 bf 28 30 29 3e 9c 6a 75 3f ba 92 fa bd
       -0.8313554 0.16522276 0.958658 -0.12235017
000150 e0 9d 2c 3d e9 0c a3 be 2a e6 75 3d ec 88 c1 be
       0.04214275 -0.31845787 0.060033955 -0.37799776
000160 97 12 5a bf 41 4b 3a be 35 e4 c0 3e 2e 90 0a 3e
       -0.85184616 -0.1819277 0.37674108 0.13531563
000170 d7 50 bb be 47 87 2e 3e 9f 18 42 3e b0 9a 02 be
       -0.36585113 0.17043792 0.18954705 -0.12754321
000180 36 e4 82 3e 2e 61 3e bc 95 e5 18 3f a0 45 e8 bc
       0.25564736 -0.011619849 0.59725314 -0.028353512
000190 61 4b be be fa d0 30 3c e4 dd 85 bd 51 19 ba 3d
       -0.37166885 0.010792011 -0.06536463 0.0908686
0001a0 48 45 81 be 1b ac 01 be fe 65 7b 3e f5 e4 b2 3e
       -0.2524817 -0.1266331 0.24550626 0.34940305
0001b0 83 d4 0e 3d 20 7d 39 be 4f 18 60 bf 66 d3 0d bf
       0.034870636 -0.18114138 -0.8753709 -0.55400693
0001c0 6b 14 d9 be 65 91 33 be 93 ba e1 3e e8 28 fd 3d
       -0.4239839 -0.17535932 0.44087657 0.12361318
0001d0 5b 4a 6f bd c4 f8 fb 3d a5 81 fa be 1e 2d c4 be
       -0.05842052 0.12303308 -0.48927036 -0.38315672
0001e0 a7 20 34 bf 58 04 39 3e 11 2d 47 bd f4 5c 76 be
       -0.70362324 0.18068063 -0.048626963 -0.24058896
0001f0 00 8f e7 3d 41 1c cc be d8 53 1f 3f 01 d1 80 be
       0.11306572 -0.39865306 0.6223731 -0.25159457

block1.1.bn3.weight f4 [16]
000000 bc 72 90 3e 7a 36 8b 3e a2 db d4 3e f3 7d 62 bc
       0.28212535 0.2719 0.41573817 -0.013823974
000010 1c 73 d7 3f 4f fe 6c 3e 69 04 df 3e ca 1b 86 3f
       1.6832004 0.23143886 0.43558052 1.047723
000020 b9 5c e7 3f ff 3f 9f 3f 86 40 0a 3f d1 7d 45 3e
       1.8075172 1.2441405 0.54004705 0.19286276
000030 a5 6d 2c 3e e1 74 31 3f 49 fc 51 3e 69 37 8d 3e
       0.16838701 0.6931897 0.20506395 0.27581337

block1.1.bn3.bias f4 [16]
000000 fc 97 04 be 85 18 b1 be 46 00 29 bd f0 60 c5 be
       -0.12948602 -0.3458902 -0.041260026 -0.3855052
000010 a4 dd 88 3c b5 ac 83 bf 89 00 3c 3d ed ed e2 3d
       0.016707249 -1.0287081 0.045898948 0.11080537
000020 a3 34 22 3e 50 11 10 3f 54 62 67 3c 46 ec ad 3c
       0.15840392 0.56276417 0.014122564 0.021230828
000030 2e b9 00 be ec e3 6f 3e 42 5a a7 3d 6f bf 14 3e
       -0.1257064 0.23426789 0.08171512 0.14526151

block1.1.bn3.running_mean f4 [16]
000000 bd 9b 04 bf 01 d7 0f bf 9b df 12 bf 96 89 bd be
       -0.5180014 -0.56187445 -0.57372445 -0.37019032
000010 93 46 9e 3f 97 e2 86 bf bf d9 c7 bd 5b 9c 2c 3e
       1.2365288 -1.05379 -0.09758329 0.1685652
000020 6d 81 09 40 17 48 c0 3e 43 0b 7d be 7c 76 28 bf
       2.1485245 0.37555 -0.24711327 -0.6580579
000030 51 84 74 3f 06 f7 2a bf 66 5d 02 bf d4 24 87 bf
       0.955144 -0.6678318 -0.50923765 -1.0558114

block1.1.bn3.running_var f4 [16]
000000 f4 5c 46 3e 17 bb f7 3d 0f cd 1b 3f 13 b5 b1 3d
       0.19371396 0.120962314 0.6085977 0.08677115
000010 92 81 5d 3f 47 29 fc 3d 50 04 d1 3e 04 9a d4 3e
       0.86525834 0.123125605 0.40823603 0.41523755
000020 50 50 b7 3f b5 30 88 3f a6 24 31 3f 7a 79 ee 3e
       1.4321384 1.0639864 0.69196546 0.46577054
000030 4c 23 9d 3e 0c 88 c0 3e 10 3b 78 3e 96 11 01 3f
       0.30690992 0.37603796 0.2424128 0.5041746

block1.2.conv1.weight f4 [8, 16, 1, 1]
000000 dd 2e b6 3e 7d 11 42 3f 46 d4 2a 3e 56 a8 ce bd
       0.3558263 0.75807935 0.16682538 -0.10090701
000010 da 06 14 3e 2a b9 48 bc ec 0f 10 bb c1 ce 4e be
       0.14455739 -0.012251178 -0.0021982146 -0.20196058
000020 3b 7f a0 3d ed 81 82 3e 73 5b 41 be e8 73 b7 3f
       0.07836767 0.2548975 -0.18882541 1.4332247
000030 79 71 38 3e 3c 34 97 be 84 bf 1f 3f 21 6b 99 be
       0.18012036 -0.2953204 0.62401605 -0.29964545
000040 c7 30 f7 3d 3d 08 5f bc 9e f8 f9 bd da d8 16 be
       0.120698504 -0.013612804 -0.12205623 -0.1473116
000050 5d b5 89 bd 7c 04 a5 be d7 75 99 3e 3d 82 53 be
       -0.067240454 -0.32229984 0.29972717 -0.2065515
000060 b8 2e 3f bc ec 4b 39 3e fe b1 8b 3d ae 1c bc bd
       -0.011668853 0.18095368 0.06821059 -0.09185158
000070 08 db 37 be 0d 86 d3 3e 71 68 dd bd b6 53 06 be
       -0.17954648 0.4131321 -0.10810936 -0.1311787
000080 48 a2 1f bf af 15 1e 3e 5a 77 5a be 6b 56 d7 3e
       -0.62356997 0.15437959 -0.21334592 0.4205812
000090 a4 3c 12 bd 09 b4 e3 bd 02 44 be 3c 6f 23 36 3e
       -0.035702363 -0.11118323 0.023225788 0.17786954
0000a0 ae e7 12 3e bd 9f b1 bd c0 af 18 be a1 22 03 be
       0.14346191 -0.08673046 -0.14910793 -0.12806179
0000b0 05 4a dc bd 46 55 df 3d d7 b3 60 3f 87 b0 d1 bd
       -0.107563056 0.109049365 0.87774414 -0.10238748
0000c0 ac 53 3a 3f 3a ae b6 3d 09 33 69 3e 4a 80 d8 3e
       0.72783923 0.0891995 0.22773375 0.42285377
0000d0 d4 ab ac ba d7 c7 9e bf 1b ef 52 3e 31 b5 84 3e
       -0.0013173767 -1.2404736 0.20599024 0.25919488
0000e0 c2 5c c2 be 30 0b 3f bd 87 c3 2a 3e 1c b2 a8 3e
       -0.37961394 -0.04664153 0.1667615 0.32948387
0000f0 ae ca 5e 3e ff a7 4d 3e 8c 83 75 be 50 f0 d8 3d
       0.21757004 0.20083617 -0.23975962 0.10592711
000100 ab a8 03 be af 16 42 3d 94 a3 a0 bd 31 ac ec 3c
       -0.1285731 0.047384914 -0.078437 0.028890701
000110 5d 70 d2 3d d5 df 1d be 67 28 46 3e 6c fb 7d bd
       0.10275338 -0.15417416 0.1935135 -0.062007353
000120 93 87 39 bd b3 bb 09 be 79 b1 86 3f ad 2c 27 bd
       -0.04529531 -0.13450508 1.052291 -0.04081409
000130 89 b4 c5 be ca aa f1 bd c7 d7 c4 bd dc 5c ce 3c
       -0.386143 -0.118001536 -0.09611469 0.025190763
000140 bd 6a c9 be 55 4f 97 be 67 e4 09 bf 95 1c 15 3d
       -0.39339247 -0.29552713 -0.5386414 0.03640421
000150 ab f2 de be 86 a0 8a 3e 5c 3b 2d 3f 9d 6e d5 3c
       -0.43544516 0.27075595 0.676687 0.026053721
000160 73 31 ef 3c 10 29 dc 3a d8 75 43 bf cd 2f a8 3d
       0.029198384 0.0016796906 -0.7635169 0.08212242
000170 e4 57 c9 bd 94 b1 45 3f fe 92 29 bf 14 95 ca bb
       -0.09831217 0.7722409 -0.6623992 -0.0061823223
000180 44 97 38 be 23 2c 67 3e f7 c7 4b be 4e 41 17 3e
       -0.18026453 0.2257543 -0.199005 0.14771006
000190 05 90 58 3e d2 47 0d 3d 39 0f a4 3e 22 7d 6f 3e
       0.21148689 0.03449232 0.32042864 0.23387578
0001a0 1e da b9 bd 3e b3 77 be f1 7f f2 3c 4c 12 5a be
       -0.09074806 -0.24189469 0.029602023 -0.21296042
0001b0 0f cb 86 bd 27 f7 c4 bd 85 59 d1 bd ce 91 a7 bd
       -0.06581699 -0.09617453 -0.102221526 -0.08182107
0001c0 21 3f 22 bf 3e 66 9d be 90 dc 4e be ca b4 02 3e
       -0.6337758 -0.30742067 -0.20201325 0.12764278
0001d0 3d ea 11 bc 9f 78 54 3e 92 1a e5 be 81 86 e6 3d
       -0.008905944 0.20749138 -0.44746834 0.11256123
0001e0 32 3a 98 3e 89 b4 38 3b 97 cb 3e bd 93 30 89 3e
       0.297319 0.002818378 -0.046580877 0.26794872
0001f0 bf 57 bf 3e c2 11 76 be c0 1c 66 bf 1b 4a c1 bd
       0.37371632 -0.24030212 -0.8988762 -0.094379626

block1.2.bn1.weight f4 [8]
000000 e8 88 6d 3f 7e 98 71 3e 74 d0 68 3f ac 5d 63 3f
       0.9278703 0.23593327 0.90943074 0.88814807
000010 a4 c7 23 3f 6a 41 33 3f 06 b0 cc 3e 50 9b 51 3f
       0.639765 0.7002169 0.39978045 0.81877613

block1.2.bn1.bias f4 [8]
000000 27 f5 96 3d cf 7a d7 be 6a d4 4d be c2 2d 9a 3e
       0.07370978 -0.42085883 -0.20100561 0.30113035
000010 29 2e 13 3c bf cd 30 3f 10 1e f4 bd ee 47 f7 3e
       0.008983173 0.69063944 -0.119197965 0.48297065

block1.2.bn1.running_mean f4 [8]
000000 74 5f b9 40 f6 64 fc bd 21 65 bf bf 7d f0 4e 40
       5.792902 -0.12323944 -1.4952737 3.2334282
000010 82 41 ad 3f 42 0a 64 c0 2d e0 7c bf 55 5f 97 c0
       1.3535616 -3.563126 -0.98779565 -4.730387

block1.2.bn1.running_var f4 [8]
000000 40 f5 9c 41 54 d7 de 3f 69 6f bb 40 85 3e fc 40
       19.619751 1.7409463 5.85735 7.882632
000010 7c 89 93 40 d2 29 5f 41 f9 f7 a2 3f f4 18 eb 40
       4.6105328 13.94771 1.2731925 7.346796

block1.2.conv2.weight f4 [8, 8, 3, 3]
000000 86 cf b4 3d 30 d2 f2 be ea 67 3c be dd e4 00 bf
       0.088286445 -0.47425985 -0.18399015 -0.5034922
000010 14 b0 b6 be 17 f6 54 be be 51 1d 3d c7 3b 68 bd
       -0.35681212 -0.20797001 0.038408034 -0.056697633
000020 da d3 84 bd 5d 56 53 3e 15 c4 39 3e 6f d8 b0 3d
       -0.0648572 0.20638414 0.18141206 0.086350314
000030 9d e9 40 3e 87 d1 28 be 26 b9 8a be 09 b6 66 3e
       0.18839116 -0.16486178 -0.27094382 0.22530378
000040 58 14 04 bd 57 47 31 3d 01 93 35 3e 66 de bb 3e
       -0.032245964 0.043280926 0.17731859 0.36693114
000050 29 cd 0c be 38 50 ad bd 77 9c 8c 3e a9 c2 86 be
       -0.13750137 -0.08462566 0.27463123 -0.2632039
000060 1f 3a 35 ba 3c 53 d6 bd 1e 95 b8 be 4b 64 d2 3c
       -0.0006913263 -0.104650944 -0.36051267 0.025682589
000070 ec 8e 50 3e ca 7f bc 3e 3a 6d 2b bd 96 9f 23 bf
       0.2036702 0.36816245 -0.041852213 -0.63915384
000080 f4 b0 52 bd cc e6 6d 3e 9d 4a 80 3c 28 fd 53 3e
       -0.051438287 0.23232573 0.015660578 0.2070204
000090 8b 7f 9d 3e ec 12 61 3e fb 08 67 bd de b9 90 bd
       0.3076137 0.21979874 -0.05640505 -0.07066701
0000a0 1c 91 95 3e cf a0 be 3d 65 d2 16 3e 70 2f d3 bd
       0.29212272 0.093080156 0.14728697 -0.10311782
0000b0 b0 c1 16 be 25 05 00 3d 4b 8d 49 be a0 a2 db be
       -0.14722323 0.031254906 -0.19682805 -0.4289751
0000c0 fe 46 3d 3f 34 79 38 3c b8 0f 96 be 42 ce 7a 3d
       0.7393645 0.011259366 -0.29308867 0.06123186
0000d0 2a 7d 8d be 76 ac 85 3c a5 11 0c 3e ab d4 41 bd
       -0.27634555 0.016317587 0.13678606 -0.047321957
0000e0 76 58 a8 bd 18 28 09 3e d5 82 25 3c 40 0f 0b bb
       -0.082199976 0.13394201 0.010101994 -0.0021218807
0000f0 a4 0f 47 3c 95 9d a6 3c 2f 79 28 be 17 eb 2a 3d
       0.012149725 0.020338813 -0.16452478 0.041728105
000100 60 63 50 be a8 90 94 be 8b 03 d2 be df ed 70 3f
       -0.20350409 -0.29016614 -0.41018328 0.9411296
000110 f8 e9 17 3d a7 2e bc be 40 89 f1 be ef 8f 90 3d
       0.037088364 -0.36754343 -0.47175026 0.07058703
000120 b9 21 b0 be d3 d6 14 3f 8b b0 1a 3c 3f 13 4f 3e
       -0.34400728 0.58140296 0.009441505 0.20222186
000130 80 14 83 3f 76 7d 92 3e 48 3b 5f be ba df 41 bf
       1.0240631 0.28611344 -0.21799958 -0.75732005
000140 a1 8e a2 be f5 e2 c4 bd c4 42 8b bd 42 f4 03 be
       -0.31749442 -0.09613601 -0.06799844 -0.12886146
000150 2f 54 99 3d 2d 44 da bd 9f 75 c7 bd b9 78 c3 bc
       0.0748676 -0.10657535 -0.09739231 -0.023861276
000160 8f 9e a0 be 98 bd 60 be 89 d4 8b bd 57 22 14 3e
       -0.3137097 -0.21947324 -0.06827647 0.14466225
000170 38 7d c2 be 53 5f b9 3e 4f 66 e7 3e f4 05 b8 3d
       -0.3798616 0.3620554 0.45195243 0.089855105
000180 de f9 a6 3e 67 e4 9a 3d ec 9b de 3d 4c b6 f0 3d
       0.3261251 0.075630955 0.108695835 0.1175352
000190 a6 a2 ed bd 23 dd 9c be ac 3f 34 bd d5 de 23 be
       -0.11603288 -0.30637464 -0.044006035 -0.16002972
0001a0 8f 51 ca 3d 20 6b 8a 3d fa e0 a4 be da e6 8a be
       0.09878837 0.06758714 -0.32202893 -0.2712925
0001b0 ca 99 29 be a4 da a2 3e 51 4e e1 be d1 ee 53 bd
       -0.16562572 0.31807435 -0.44005063 -0.051741425
0001c0 a8 a8 3a 3e f6 c4 10 be 2b 6c a8 3d 96 37 99 3e
       0.182284 -0.14137635 0.082237564 0.2992522
0001d0 45 b7 9b 3e 6f 57 7c 3e 32 58 f3 bc 4d c7 67 be
       0.3041326 0.24642728 -0.02970514 -0.22634621
0001e0 d6 dd 55 3e 1b ad fa be 8e 44 f7 be ae f8 b3 3e
       0.20885405 -0.48960194 -0.4829449 0.35150665
0001f0 4a 5a a8 3e b6 b8 a4 be d4 fd 5e be fe c7 18 bd
       0.32881385 -0.32172173 -0.21776515 -0.037300102
000200 4e ad 39 bd b3 28 16 be be c8 37 bd 56 58 e5 3c
       -0.04533129 -0.14663963 -0.044869177 0.027996223
000210 7c ef 28 3c db 40 f0 bc 4c 5a da bd 1a 18 37 3d
       0.010311004 -0.0293278 -0.10661754 0.04470072
000220 0c bf 8d be 26 55 2b be 6a 44 46 be 00 34 14 3e
       -0.2768482 -0.167317 -0.19362035 0.14472961
000230 59 81 8d bb 20 9b 1d be 2c 77 16 bc b1 17 7d bd
       -0.004318398 -0.15391207 -0.009183686 -0.061790172
000240 ae b9 40 3b bb 50 5e 3e 2e 29 ba bd fe fe e8 3e
       0.0029407549 0.21710484 -0.09089886 0.45507044
000250 7c ad a3 3f af 7d 80 3e 88 da 76 be 83 32 ef 3e
       1.2787318 0.2509589 -0.241068 0.46718225
000260 83 1a 5c be 98 9a 5a be 37 b6 d5 3b 22 e1 80 bd
       -0.21494488 -0.21348035 0.006521966 -0.06292941
000270 06 dd 83 bd e3 92 34 3d 9a 71 61 bd d5 2b ed bd
       -0.06438641 0.044085395 -0.05503998 -0.11580626
000280 c2 74 45 bd 76 33 8a bd ae 53 71 be 4f 9d ac bd
       -0.048207052 -0.06748097 -0.23567078 -0.08428442
000290 54 3f 6d be f3 70 c5 be 7f 28 47 be 12 59 3a 3c
       -0.23168689 -0.38562736 -0.19449042 0.011373775
0002a0 91 a2 01 3d 86 2a 5f 3e d5 89 22 3d ae 58 67 be
       0.031649176 0.21793565 0.039682228 -0.22592422
0002b0 42 59 63 be 03 05 67 be ab 0e 12 3d e8 ef 1d 3f
       -0.22202018 -0.22560506 0.03565852 0.6169419
0002c0 1f f0 2d bc 42 05 5b be 93 a3 56 3d 5f c9 be bd
       -0.010616331 -0.21388724 0.05240209 -0.09315752
0002d0 00 7a 30 3e 95 39 03 3d 24 eb ac bd 0b 69 83 be
       0.1723404 0.032037336 -0.08443287 -0.2566608
0002e0 31 5a 17 3e 77 42 15 3e 7c 11 d3 be 8a 5c 4b 3d
       0.14780499 0.14576136 -0.41224277 0.0496488
0002f0 9c b3 ab 3d ca 94 35 3e 09 be 94 3e b8 fe 4b be
       0.08383867 0.1773254 0.29051235 -0.19921386
000300 02 02 96 bc de ab 30 be d0 b6 40 be b9 de 96 3e
       -0.018311504 -0.17253062 -0.18819737 0.294668
000310 6e 63 93 3e 32 da f8 3d da f5 7e bd 0f cf 47 3d
       0.28786796 0.121509925 -0.06224618 0.04878145
000320 c9 e1 86 3d a1 d9 a6 bc 9a 98 b2 bc ff 4f 11 be
       0.06586034 -0.020367445 -0.021801282 -0.14190672
000330 e4 e8 c1 bd 4e 2f 17 be 6f dd 28 3d 91 0c 23 3e
       -0.094682485 -0.14764139 0.0412268 0.15922762
000340 b2 e0 ed 3d 4e 69 aa be 98 60 f9 3d e6 b7 1d 3f
       0.11615123 -0.33283466 0.12176627 0.6160873
000350 6a 83 97 be 7c b5 82 be 68 a9 5c 3e 8b f9 f6 bd
       -0.29592448 -0.25529087 0.21548998 -0.12059315
000360 bb 69 31 be 3c 0b 0a 3f c8 47 10 3e 95 c7 f7 be
       -0.17325489 0.5392339 0.14089882 -0.48394457
000370 12 c3 2f be ea 78 0a be f6 09 1d 3f 4b 5a e8 3e
       -0.17164257 -0.13522688 0.61343324 0.45381388
000380 79 d6 9f 3e 45 fc 9a bd b3 ec 96 3d 6d 54 1f be
       0.31218317 -0.07567648 0.073693655 -0.1555955
000390 3e a7 8e be 40 cf 04 bb 32 65 4f be 81 f9 17 bd
       -0.2786197 -0.0020265132 -0.20253447 -0.03710318
0003a0 c2 fb 12 be bb be b8 bd fe b7 26 be 70 5b b0 bd
       -0.1435385 -0.09020754 -0.16281125 -0.0861119
0003b0 12 47 a8 be 4d 12 c3 3e 6b 77 a3 3e 83 0c f4 bd
       -0.32866722 0.380999 0.31927046 -0.11916449
0003c0 53 74 c1 bc 3d 2a bd bd 33 54 1b be de a6 54 3c
       -0.023615038 -0.09236572 -0.15168838 0.012979237
0003d0 5f a1 d7 3c d6 2d 44 3e 49 2f a0 be 41 d7 4f bf
       0.026322065 0.1915811 -0.31286076 -0.81187826
0003e0 e5 b8 31 be a8 ee 72 be 6a 95 5c be 6e 4d 75 be
       -0.17355688 -0.23723853 -0.21541372 -0.23955318
0003f0 2e cf 42 3e 63 3c f7 3e ec f9 67 3e 7f 5a 27 be
       0.19024345 0.4828826 0.22653931 -0.16343115

block1.2.bn2.weight f4 [8]
000000 69 16 24 3f 41 a0 89 3f ff 6b 9c 3f 80 cf 06 3f
       0.64096695 1.0752031 1.2220458 0.5266037
000010 6f 56 55 3f 77 cb 0c 3f 4d 93 22 3f 1a 9e 41 3f
       0.8333501 0.5499796 0.63506013 0.7563187

block1.2.bn2.bias f4 [8]
000000 17 3b 60 3e 67 f4 cc be a0 01 8c bf 48 95 e8 3d
       0.21897541 -0.40030214 -1.0937996 0.11356598
000010 38 78 d9 3d 2f 47 b6 bd f7 59 6a 3d 59 d1 91 be
       0.10618633 -0.08900296 0.057214703 -0.28480032

block1.2.bn2.running_mean f4 [8]
000000 a9 b0 74 bf 8c c5 1f bf 11 6e 7c 3f a4 4a c3 bf
       -0.9558206 -0.6241081 0.9860545 -1.5257154
000010 91 13 1e 40 50 9c a5 3f 0c 85 10 bf 51 41 29 bf
       2.4699442 1.2938328 -0.56453013 -0.6611529

block1.2.bn2.running_var f4 [8]
000000 76 90 a5 3f e5 8b 25 40 25 fb 5d 40 ca 69 89 3f
       1.2934711 2.5866635 3.4684536 1.0735409
000010 91 15 46 40 17 88 82 3f 9c 9b 0f 40 df cf 65 3f
       3.0950663 1.0197781 2.2438726 0.8977031

block1.2.conv3.weight f4 [16, 8, 1, 1]
000000 98 60 e1 be 47 33 43 3e 1c f0 d4 be de 1b 4e bf
       -0.44019008 0.1906253 -0.4158944 -0.8051127
000010 f7 ab 67 3e 2b 7c dc 3e 76 a3 c3 bb c7 b8 3e be
       0.22624193 0.43063483 -0.005970414 -0.18625174
000020 2c bb 59 3e 0d 42 57 3e cf 9f 72 be 08 be b6 be
       0.21262807 0.2102129 -0.23693775 -0.35691857
000030 c1 1b 4d 3f b0 29 8a 3c 3c 63 a3 3e 43 04 91 3e
       0.80120474 0.016865581 0.31911647 0.28323564
000040 c5 77 db be 82 c9 f2 3d 49 7a 3b bf d1 ce a5 be
       -0.42864814 0.11854841 -0.7323347 -0.3238435
000050 e6 09 2f be 5b 88 1c be 09 f8 19 bf 70 be d1 bc
       -0.1709362 -0.1528639 -0.60144097 -0.025603503
000060 c2 b9 5f be 6d 84 f5 3e 02 d5 86 be 6b ac 67 be
       -0.21848205 0.47952595 -0.26334387 -0.22624366
000070 65 79 8d be 63 ac 07 3e 8d 2f 69 3e 78 30 2a 3f
       -0.2763168 0.13249354 0.22772045 0.6648021
000080 8f fd b8 3e da 3e 6f 3f 6b 4c c0 bc 45 69 e1 3d
       0.3613095 0.9345528 -0.023473939 0.11006407
000090 85 39 18 be 77 7e 13 3e c6 38 2b 3d a8 b9 d5 bd
       -0.14865692 0.14403711 0.04180219 -0.10435802
0000a0 48 65 2e 3f 01 9a 14 3e 8b f3 f1 3d 51 02 07 be
       0.6812329 0.14511873 0.1181403 -0.13184477
0000b0 e0 2c 8f be 5d 67 3f be da 0c 69 bd e3 a1 ea bd
       -0.27963924 -0.18691774 -0.05689702 -0.11456659
0000c0 e3 c7 02 bf d3 4c b5 be 7d cf 3e 3e a1 d7 d1 be
       -0.5108625 -0.35410175 0.18633838 -0.40984824
0000d0 bc f5 d4 be bd 80 35 bf 56 e7 0c 3f 01 5f 74 3d
       -0.4159373 -0.70899564 0.5504049 0.059660915
0000e0 cc 67 ad be de f8 09 be 7f 15 6b be 30 91 0e 3e
       -0.33868253 -0.13473842 -0.22957419 0.13922572
0000f0 ea 08 a1 be 84 81 1e 3e c0 e1 41 be 7a 7e 5a be
       -0.31452113 0.15479094 -0.18933773 -0.2133731
000100 50 53 81 3e 2c 38 7a 3c d2 05 c1 3e 83 7c 4c 3e
       0.25258875 0.0152721815 0.37699753 0.19969372
000110 43 6a 18 be 3d c2 4b bc c6 0c 98 be 16 5d f7 3d
       -0.14884286 -0.012436447 -0.29697245 0.120783016
000120 d5 b2 d8 3c b3 06 95 bd 93 a6 c2 be 84 8a 29 be
       0.026452461 -0.072766684 -0.3801771 -0.16556746
000130 97 3f 94 bc dc 61 10 3e fc 61 29 3e 6e 3f a1 be
       -0.018096728 0.1409983 0.16541284 -0.31493706
000140 4f 86 ab 3d 23 b4 60 be de 0e b1 3e 91 00 d2 3e
       0.08375227 -0.21943717 0.34581655 0.41016057
000150 e9 1f 01 bd ec 55 5b 3d f8 63 83 3e c5 50 8f be
       -0.031524573 0.05354874 0.25662208 -0.2799131
000160 08 0a 8c 3d 06 68 bc be fb 6a ce bf 8e 14 30 be
       0.06837851 -0.36798114 -1.6126398 -0.17195341
000170 3e 5b a4 3d d5 13 35 be 6b 68 65 be f6 7f e5 bc
       0.080252156 -0.17683347 -0.22403114 -0.028015118
000180 f3 63 a2 3e 99 2b 3e be d5 8e af be e7 6d bc 3d
       0.3171688 -0.18571319 -0.3428866 0.0920065
000190 0e 45 d3 bd 12 b1 90 3c 4e a6 3e 3e 83 33 63 3e
       -0.103159055 0.017662559 0.18618128 0.22187619
0001a0 5e d2 45 3d 3d f6 8b be 18 e2 f2 be 70 4f a2 3e
       0.048296325 -0.27336302 -0.4743812 0.3170123
0001b0 0e cb da be ca 58 05 3c 16 8f 83 3b c9 27 21 bf
       -0.42733043 0.008138845 0.00401486 -0.6295133
0001c0 43 91 4e 3e 46 11 86 bf 32 7d 2d bd 75 fe 27 be
       0.201726 -1.0474021 -0.042355724 -0.16405661
0001d0 0a 3e 39 bf 81 4b d5 3e c0 24 d5 3e c8 cd 15 3d
       -0.7236029 0.41659167 0.416296 0.0365732
0001e0 e7 c2 c1 be 59 54 b6 3e e3 ab 31 3f 02 c8 e8 bd
       -0.3784401 0.35611227 0.69402903 -0.113662735
0001f0 47 67 b4 be 7d 9d aa be 7a be c1 be 57 c8 1a be
       -0.35235044 -0.3332328 -0.37840635 -0.15115486
