assignment1/results/trial_2/resBottleneck/ckpts/13000.pt (torch, 562437 bytes, 242 tensors)

block1.0.conv1.weight f4 [8, 16, 1, 1]
0	0xbe0ef88b	-0.13961999
1	0x3da62c41	0.081139095
2	0x3e003c26	0.12522945
3	0x3d747d9e	0.05969011
4	0x3e836255	0.2566096
5	0x3e0540a5	0.13012941
6	0x3e2a7631	0.16646649
7	0x3cafbc89	0.021452205
8	0x3f0a7bb3	0.54095
9	0x3e1bcbf4	0.1521452
10	0xbe6eed1f	-0.23332642
11	0x3d9253a7	0.07144862
12	0x3d3ed4fd	0.04658984
13	0x3f28e0e0	0.6596813
14	0xbe4db2f3	-0.20087795
15	0x3f954bbc	1.1663737
16	0x3dcd4309	0.100225516
17	0x3da1e165	0.07904319
18	0xbcc8f0f8	-0.024528965
19	0x3d90ab60	0.07063937
20	0xbe1b1975	-0.1514643
21	0x3dd2b6a5	0.10288743
22	0xbdcec1fc	-0.10095593
23	0xbcbb5819	-0.022869157
24	0xbed399ec	-0.4132837
25	0x3eb7c1b9	0.35889986
26	0xbf170d83	-0.5900499
27	0xbe942151	-0.28931668
28	0xbe77f72a	-0.2421538
29	0xbda3a016	-0.07989518
30	0x3e721ead	0.23644514
31	0xbf5633f3	-0.8367302
32	0xbec51c90	-0.38498354
33	0x3d589717	0.052878466
34	0x3e0fa089	0.14026083
35	0xbecefcf2	-0.40427357
36	0xbd2198ce	-0.039452367
37	0xbd19a5bb	-0.03751157
38	0x3e86c6c9	0.26323536
39	0x3d1f79f3	0.03893466
40	0x3e7b1947	0.24521361
41	0x3e734598	0.23757017
42	0xbfc8c540	-1.5685196
43	0x3e6b034f	0.22950481
44	0x3d439625	0.04775061
45	0xbf12f7f9	-0.57409626
46	0xbf105088	-0.5637288
47	0xbd73871e	-0.05945503
48	0xbe6265b5	-0.2210911
49	0xbe9cbe0d	-0.30613747
50	0xbf02acd6	-0.51044977
51	0xbea13fd0	-0.31493998
52	0x3f0ef3b8	0.55840635
53	0xbec96c04	-0.39340222
54	0x3e69d00d	0.22833271
55	0x3ef6bfa4	0.48193085
56	0xbe992f37	-0.29918835
57	0x3e383e5f	0.17992543
58	0xbeac527a	-0.33656675
59	0xbf3cf60d	-0.73812944
60	0xbeb1d8a5	-0.347356
61	0xbe2ab249	-0.16669573
62	0x3e71812b	0.2358443
63	0xbf4d3d64	-0.801718
64	0xbe43dabf	-0.19126414
65	0xbf2b2313	-0.66850394
66	0xbebb3428	-0.3656323
67	0xbdb1e312	-0.08685888
68	0xbe5ae66d	-0.21376963
69	0xbdc1c7d7	-0.094619446
70	0xbea91edb	-0.33031353
71	0xbea063b5	-0.3132607
72	0xbedd574a	-0.4323066
73	0xbdef4c00	-0.11684418
74	0xbe7c8350	-0.24659467
75	0x3e1954ae	0.14973709
76	0x3d521d66	0.051297568
77	0xbe6c4a22	-0.23075154
78	0xbf0658c0	-0.5247917
79	0x3c4933ed	0.0122804465
80	0xbe0437ca	-0.12911907
81	0x3e2348e4	0.15945774
82	0xbf4be626	-0.79648054
83	0xbf103c85	-0.56342345
84	0xbe577463	-0.21040492
85	0x3c068ccd	0.00821228
86	0x3dbec4f9	0.09314913
87	0x3e36feef	0.17870687
88	0x3e919b3b	0.28438744
89	0x3e73425c	0.23755783
90	0xbf72317b	-0.9460675
91	0xbf0e3855	-0.55554706
92	0x3c9d4fd1	0.019203098
93	0x3c84843a	0.016176332
94	0xbf341867	-0.70349735
95	0x3e8561d1	0.2605119
96	0xbcf99f91	-0.030471595
97	0x3f4f860d	0.8106392
98	0x3f0f4f86	0.5598072
99	0xbe4f7c07	-0.20262156
100	0x3ee99533	0.45621642
101	0xbd8cb4f4	-0.068704516
102	0xbf06a73c	-0.5259893
103	0x3e448434	0.19191056
104	0x3f401e54	0.7504628
105	0xbe89b6d9	-0.26897314
106	0x3ef7d527	0.4840481
107	0xbd9fc1d3	-0.07800641
108	0x3d12c22f	0.03582972
109	0x3f176c9f	0.5915012
110	0x3ed74726	0.4204647
111	0x3ed8c9a7	0.4234135
112	0x3dd36a08	0.10322958
113	0x3f0cc30f	0.54985136
114	0x3dc708f1	0.09718502
115	0x38c60646	9.442544e-05
116	0xbeb5325a	-0.35389978
117	0xbccde5e9	-0.025134044
118	0xbe536f74	-0.20647985
119	0xbdd06b54	-0.10176721
120	0x3f00e6ba	0.5035206
121	0x3cf5692a	0.029957373
122	0xbe671449	-0.22566332
123	0xbe246078	-0.16052425
124	0x3e8224d7	0.25418732
125	0xbe1d1dca	-0.15343395
126	0xbf653f0d	-0.8954933
127	0x3f059ffd	0.5219725

block1.0.bn1.weight f4 [8]
0	0x3f6b341b	0.9187638
1	0x3f36e73a	0.71446574
2	0x3f8234d7	1.0172375
3	0x3f2bc9c7	0.6710476
4	0xbe58facb	-0.2118942
5	0x3f7a73c0	0.9783287
6	0x3f937774	1.1520829
7	0x3f36ff7e	0.714836

block1.0.bn1.bias f4 [8]
0	0xbf1617e9	-0.58630234
1	0xbe300a8b	-0.17191522
2	0x3eceb567	0.40372774
3	0x3e75f480	0.2401905
4	0x3f346cc1	0.70478445
5	0xbf024d86	-0.5089954
6	0xbeef7dff	-0.46775815
7	0x3d983f74	0.07433978

block1.0.bn1.running_mean f4 [8]
0	0x403ee9df	2.9830244
1	0xc06c3b10	-3.691105
2	0xc0aa06c6	-5.313327
3	0xc0f2f376	-7.5922194
4	0xc0824ea0	-4.072098
5	0xc0c6816a	-6.2032976
6	0x40575494	3.3645372
7	0xbe107a26	-0.14109096

block1.0.bn1.running_var f4 [8]
0	0x40fde502	7.934205
1	0x40db6bde	6.8569174
2	0x4138d0dd	11.550992
3	0x416a84f3	14.657458
4	0x40840ebd	4.126799
5	0x414af662	12.685152
6	0x415bd77f	13.740111
7	0x40e7d273	7.2444396

block1.0.conv2.weight f4 [8, 8, 3, 3]
0	0x3e1daefb	0.15398781
1	0x3db08bc4	0.08620408
2	0xbe31d78d	-0.17367382
3	0x3d797790	0.06090504
4	0xbca6feb9	-0.020385133
5	0xbe953313	-0.2914053
6	0x3d9f9883	0.07792761
7	0x3e42af65	0.1901222
8	0x3c11b72f	0.008893772
9	0x3e6eeccf	0.23332523
10	0x3eb3c900	0.35114288
11	0x3e41d507	0.1892892
12	0x3e81bb64	0.2533828
13	0x3eefd5fb	0.46842942
14	0x3db529d7	0.08845871
15	0xbe18b576	-0.14912972
16	0xbe8e2b94	-0.27767622
17	0x3de73c6c	0.112908214
18	0xbd98f8b4	-0.07469311
19	0xbe24d5df	-0.1609721
20	0xbebaad0b	-0.36460146
21	0xbe0e66b6	-0.13906369
22	0xbd578f1f	-0.052626725
23	0xbecddb8d	-0.40206566
24	0xbda49f5b	-0.08038207
25	0xbd93b885	-0.07212929
26	0x3e2a7018	0.16644323
27	0x3e2df71b	0.16988795
28	0x3e9e3a68	0.30903935
29	0xbe1d90f6	-0.1538733
30	0x3ec57043	0.3856221
31	0x3f460e12	0.7736522
32	0x3e8d7796	0.276303
33	0xbe78244e	-0.24232599
34	0x3e216a43	0.15763192
35	0xbe0d3ceb	-0.1379277
36	0xbd47d6b4	-0.04878874
37	0x3dc5fc74	0.09667292
38	0x3d450ad8	0.048106045
39	0x3c87ac55	0.016561667
40	0x3d6d9e32	0.058012195
41	0xbcdcf8d6	-0.026974123
42	0xbe19d361	-0.15022041
43	0xbea1b39f	-0.31582353
44	0xbc5707bf	-0.013124405
45	0xbc71e883	-0.014764908
46	0xbd34aba7	-0.044109013
47	0xbd82b7b0	-0.06382692
48	0x3dd462ef	0.103704326
49	0x3eeec9a2	0.4663821
50	0x3ea59db2	0.32346874
51	0xbe55a14a	-0.20862308
52	0x3e867e30	0.26268148
53	0x3e052bdd	0.13005014
54	0xbe07283f	-0.13198946
55	0x3db96614	0.09052673
56	0x3ccf73d8	0.025323793
57	0x3ddc08b3	0.10743847
58	0x3be27771	0.006911211
59	0xbdd5bcc3	-0.10436394
60	0x3e794dee	0.24346134
61	0x3e9343c3	0.28762636
62	0xbdaf387e	-0.08555697
63	0xbd9eb308	-0.07748991
64	0xbe198e34	-0.14995652
65	0x3e8e3dd5	0.2778155
66	0xbefc2b9a	-0.49252015
67	0xbdfc9e36	-0.12334864
68	0xbd52c211	-0.051454607
69	0xbdfb622c	-0.12274584
70	0x3e9ae54c	0.30253065
71	0x3eaf5877	0.3424718
72	0xbe24893b	-0.16067974
73	0x3e2b4c20	0.16728258
74	0x3e59f804	0.21286017
75	0xbe30df8a	-0.17272773
76	0xbe0ab743	-0.13546471
77	0xbe3dd851	-0.1853955
78	0xbe24368d	-0.16036434
79	0x3da1ae69	0.07894594
80	0xbe7a7741	-0.24459554
81	0x3dee4335	0.116339125
82	0x3e698a0b	0.22806565
83	0xbdbea573	-0.09308901
84	0xbe2dc507	-0.16969691
85	0xbeb6f562	-0.35734087
86	0xbe862d9e	-0.26206678
87	0xbcd8e926	-0.026478361
88	0xbd8ce724	-0.06880024
89	0x3ca2e69f	0.01988536
90	0x3c65aebf	0.0140187135
91	0x3e1e715d	0.15472932
92	0xbd6506c4	-0.055914655
93	0xbf10b769	-0.5652986
94	0xbf786604	-0.97030663
95	0xbe12f7c3	-0.14352326
96	0x3da77fe2	0.081786886
97	0x3e06d62a	0.13167635
98	0x3e5fe2c9	0.21863855
99	0xbceee309	-0.029160993
100	0xbdad4f5c	-0.08462402
101	0x3e788fe8	0.24273646
102	0xbd0eeb83	-0.03489257
103	0xbe95cb27	-0.29256555
104	0x3ed0a7ba	0.40752965
105	0x3e700863	0.234407
106	0x3e867318	0.26259685
107	0x3e2aa4ec	0.16664475
108	0x3defa10b	0.117006384
109	0x3da74ee2	0.081693426
110	0x3e2fbbc1	0.17161466
111	0xbcaaa43d	-0.020830268
112	0xbce0556c	-0.027384482
113	0xbc83c96b	-0.016087255
114	0x3dd93b30	0.10606992
115	0x3c145800	0.009054184
116	0x3da0e734	0.078565985
117	0x3e6e6fd6	0.2328485
118	0x3e38cd7b	0.18047135
119	0xbdcab89f	-0.09898495
120	0xbecd7e02	-0.401352
121	0x3dea6f0c	0.11446962
122	0x3dd33c87	0.10314279
123	0xbc9edd52	-0.019392643
124	0xbc4c4885	-0.012468462
125	0xbdb9fbcb	-0.09081229
126	0xbe544ed2	-0.20733193
127	0x3d602cfb	0.054730397
128	0x3aa37e33	0.0012473523
129	0xbcbaedb1	-0.022818418
130	0x3dcd6f16	0.100309536
131	0x3d8703ec	0.06592545
132	0xbb701f4c	-0.0036639748
133	0xbd4c0fa3	-0.0498196
134	0x3dd8ff09	0.10595519
135	0xbd805af7	-0.0626735
136	0xbbecb96c	-0.0072242524
137	0xbdbfcbd0	-0.09365046
138	0x3e3e7481	0.1859913
139	0x3f045252	0.5168811
140	0x3e58fd70	0.21190429
141	0xbb920187	-0.0044557485
142	0xbdd13112	-0.102144375
143	0xbea9fcb0	-0.33200598
144	0x3e83c498	0.25735927
145	0x3e4b088f	0.19827484
146	0x3ea37dc9	0.31931904
147	0x3dac8be4	0.084251195
148	0x3dc5fc4d	0.09667263
149	0xbe055be8	-0.1302334
150	0x3c3b1086	0.011417514
151	0x3d9ac9ee	0.07558046
152	0xbdadf472	-0.0849389
153	0x3e5b39ef	0.21408819
154	0x3e110202	0.14160922
155	0x3e47784e	0.19479486
156	0x3db57381	0.08859921
157	0x3d868730	0.06568754
158	0xb9d15a2a	-0.00039930764
159	0x3acbb9ce	0.0015543045
160	0xbd9559fd	-0.072925545
161	0xbd296e65	-0.041365046
162	0x3dd58f55	0.10427729
163	0xbdd470b7	-0.10373061
164	0xbe5091d9	-0.20368136
165	0x3d313358	0.043261856
166	0xbe44b5a5	-0.19209917
167	0xbdeddcae	-0.11614357
168	0xbe179158	-0.14801538
169	0x3dbf4721	0.09339739
170	0xbcda5d26	-0.026655745
171	0x3da8fe52	0.08251633
172	0x3d7f818b	0.0623794
173	0xbdeebecf	-0.116574876
174	0x3dfd9826	0.12382536
175	0x3e8cc15b	0.2749127
176	0x3d869c57	0.06572788
177	0x3e75b565	0.23994978
178	0x3ee71a92	0.4513746
179	0x3d2b77bd	0.04186224
180	0xbe4717a8	-0.19442618
181	0xbe16a3c9	-0.14710917
182	0xbdfb7733	-0.12278595
183	0x3d43c789	0.047797713
184	0xbcb545b5	-0.022127965
185	0xbe567ab8	-0.20945251
186	0xbd66d9d9	-0.0563601
187	0x3db26e84	0.087124854
188	0xbe202c02	-0.15641788
189	0x3e7f6ac3	0.2494307
190	0x3d9652a5	0.07339982
191	0x3d82b77d	0.06382654
192	0x3e487c1b	0.19578592
193	0x3d84658f	0.06464683
194	0x3d0cd7b9	0.034385417
195	0x3e441128	0.1914717
196	0x3de65244	0.1124616
197	0xbd012018	-0.031524748
198	0x3b695c74	0.0035608085
199	0x3d25e8d3	0.04050524
200	0x3dbb3f65	0.09142951
201	0x3aa72743	0.001275279
202	0x3e523d0a	0.20531097
203	0x3ea4e289	0.32204083
204	0x3db4b2e8	0.08823186
205	0xbe2a5124	-0.16632515
206	0xbbf59e18	-0.007495653
207	0x3e19ce6a	0.15020147
208	0xbe1b7af8	-0.15183628
209	0xbe3914ce	-0.18074343
210	0x3e7f5f6d	0.24938746
211	0x3cececd3	0.02892152
212	0xbda3e2d7	-0.08002251
213	0x3e08988e	0.13339445
214	0xba65f225	-0.0008771739
215	0xbe8143bc	-0.2524699
216	0x3bccef52	0.006254115
217	0x3cdae5c4	0.026720889
218	0xbee17e55	-0.44041696
219	0x3e8bd727	0.27312586
220	0x3ecdce0e	0.4019627
221	0xbdf3fc0f	-0.11913311
222	0x3ebcc157	0.36866257
223	0x3e80abbb	0.2513102
224	0x3e277cf0	0.16356254
225	0xbcf10ba9	-0.029424505
226	0xbd730bcf	-0.059337433
227	0xbe860939	-0.2617891
228	0x3e15e631	0.14638592
229	0x3e31b575	0.17354377
230	0xbe5f49df	-0.21805523
231	0x3e03145b	0.12800734
232	0xbd0e0732	-0.03467483
233	0xbb9fb7fd	-0.004874228
234	0xbe9ebb64	-0.31002343
235	0x3f581d12	0.8441936
236	0x3eb942f4	0.36183894
237	0xbe35c527	-0.17750989
238	0xbf096edf	-0.536848
239	0x3d520404	0.05127336
240	0xbd3f16ba	-0.046652533
241	0xbd8dc1a3	-0.06921699
242	0x3e80d627	0.25163385
243	0x3e33a469	0.17543186
244	0x3f21a6af	0.63144964
245	0x3ebf0c29	0.37313965
246	0x3dab9359	0.08377714
247	0xbf83bd5c	-1.0292163
248	0xbe1e4e05	-0.1545945
249	0x3dcd9213	0.10037627
250	0xbf0a9cf4	-0.5414574
251	0x3d2205a4	0.03955616
252	0xbe12b6d7	-0.1432756
253	0xbe7138fb	-0.23556893
254	0xbe1ece41	-0.15508367
255	0xbdd64f66	-0.10464363

block1.0.bn2.weight f4 [8]
0	0x3eef80bc	0.46777904
1	0x3f09f391	0.5388728
2	0x3d0fed77	0.035138573
3	0x3f546b23	0.8297598
4	0x3d6b838d	0.057498503
5	0x3fa2edcb	1.2728819
6	0x3d01529e	0.03157293
7	0x3ec79ba2	0.38985926

block1.0.bn2.bias f4 [8]
0	0x3ed28435	0.4111649
1	0x3e0c1242	0.1367884
2	0xbe9c000e	-0.30468792
3	0x3f84e660	1.0382805
4	0xbea37444	-0.3192464
5	0x3e89b615	0.2689673
6	0xbe7abc96	-0.24486002
7	0x3f506d4b	0.8141677

block1.0.bn2.running_mean f4 [8]
0	0x3e0ca852	0.13736084
1	0xbe0c3f4b	-0.1369602
2	0x3db0ee00	0.08639145
3	0x3f8488bb	1.0354227
4	0x3e67f55d	0.22652192
5	0x3eb7b76b	0.35882124
6	0x3f6e1173	0.92995375
7	0xc00f9460	-2.243431

block1.0.bn2.running_var f4 [8]
0	0x3edb65e9	0.4285119
1	0x3f1f212c	0.6215999
2	0x3ea637c5	0.32464424
3	0x40306d2e	2.7566638
4	0x3f17b034	0.5925324
5	0x407333dc	3.8000402
6	0x3f912f84	1.1342626
7	0x400bcd41	2.1844027

block1.0.conv3.weight f4 [16, 8, 1, 1]
0	0xbecbc34f	-0.39797446
1	0x3e0245ed	0.12721987
2	0xbcd60d6a	-0.026129443
3	0x3d5b94c2	0.053608663
4	0x3e24d6b0	0.16097522
5	0xbf0b1d9c	-0.54342055
6	0xbe32f0f8	-0.17474735
7	0x3d5d9bc2	0.05410362
8	0x3e24bff8	0.16088855
9	0x3e440447	0.19142257
10	0x3e4c71a7	0.1996523
11	0x3ee6a8a1	0.4505053
12	0xbd06bdae	-0.032895736
13	0x3efeddce	0.497786
14	0x3e5a8996	0.21341547
15	0xbeaacfa0	-0.3336153
16	0xbda64208	-0.08118063
17	0xbdc2b5d6	-0.09507339
18	0xbe831336	-0.25600594
19	0xbeae2c67	-0.3401825
20	0x3da156e3	0.078779005
21	0xbeed88ab	-0.46393332
22	0x3e01b6b0	0.12667346
23	0x3c7d417b	0.015457506
24	0xbe48ca99	-0.19608535
25	0x3da637bf	0.081161015
26	0xbc3f0873	-0.011659729
27	0x3ec17909	0.37787655
28	0x3d7efe9c	0.062254533
29	0x3c08a1ec	0.008339386
30	0x3dc2dbc0	0.0951457
31	0x3df9158a	0.121623114
32	0x3d5f485c	0.054512367
33	0xbda4506a	-0.0802315
34	0xbeaf7bb7	-0.34274074
35	0x3f09691b	0.53676003
36	0xbe3afa3b	-0.18259518
37	0xbe2abb04	-0.16672903
38	0x3ca63880	0.020290613
39	0x3e28a26e	0.16468212
40	0xbe1086ca	-0.14113918
41	0xbe872a0c	-0.26399267
42	0xbd371ba3	-0.04470409
43	0x3c14ac51	0.009074287
44	0x3d2eb49d	0.042652715
45	0x3f255a72	0.64591134
46	0xbe6c54ec	-0.2307927
47	0x3e4a4a06	0.197548
48	0x3d860c3a	0.06545301
49	0xbe8b2131	-0.2717376
50	0x3e5ba474	0.21449453
51	0xbf9b9cde	-1.2157247
52	0x3e17652d	0.14784689
53	0x3df8ad71	0.12142456
54	0x3e4e2f53	0.2013524
55	0xbe752f03	-0.23943715
56	0xbed604f0	-0.41800642
57	0xbee0f3e8	-0.43936086
58	0x3d36aaae	0.044596367
59	0xbe93be5e	-0.28856176
60	0x3e0f1055	0.13971074
61	0x3ca9d41c	0.020731024
62	0xbe546cad	-0.20744582
63	0xbe96a7fb	-0.29425034
64	0xbc91b4db	-0.017786434
65	0x3e1a5133	0.15070038
66	0xbe29fad0	-0.16599584
67	0x3e1e60c9	0.15466608
68	0x3dc07594	0.09397426
69	0x3eb1c554	0.34720862
70	0xbe5f0334	-0.21778566
71	0x3e06a5a3	0.13149123
72	0x3f358fe4	0.70922685
73	0xbe2f635f	-0.17127751
74	0x3e6a7baf	0.22898744
75	0xbc817491	-0.015802654
76	0xbdd8a137	-0.10577624
77	0xbf021a58	-0.5082145
78	0xbdc03cd8	-0.09386605
79	0xbe907667	-0.28215334
80	0xbdc1a4ff	-0.09455299
81	0x3f31d2fe	0.69462574
82	0x3e7e72d1	0.24848486
83	0xbd399d31	-0.045315925
84	0x3e7f785e	0.2494826
85	0xbeaef666	-0.34172362
86	0xbe4c12dd	-0.19929071
87	0x3f255025	0.64575416
88	0xbf00d07d	-0.5031813
89	0xbe1bf5c7	-0.15230475
90	0xbe0195fb	-0.1265487
91	0x3d72fc05	0.059322376
92	0xbd9398cc	-0.07206878
93	0xbf2bb6f6	-0.6707605
94	0xbbf3dd53	-0.0074421554
95	0x3ead183e	0.33807558
96	0xbe216e8b	-0.15764825
97	0x3df77ec1	0.12084723
98	0xbdbea5d5	-0.09308974
99	0xbe9777b5	-0.29583517
100	0x3b7f8fff	0.003899574
101	0xbf178c40	-0.5919838
102	0x3c5399ce	0.012915088
103	0x3e76f9d2	0.24118736
104	0x3f2cc543	0.674885
105	0xbe732f78	-0.23748577
106	0x3e6d965b	0.23201887
107	0xbf1ecb37	-0.6202883
108	0x3e324c1c	0.17411846
109	0x3b578a84	0.0032888958
110	0x3e0addda	0.13561192
111	0x3e7c583b	0.24643032
112	0xbbb4e336	-0.0055202497
113	0x3e2c2c49	0.16813768
114	0x3d585269	0.052812967
115	0xbef141e7	-0.47120592
116	0x3e0f0ae9	0.13969006
117	0xbe2c5482	-0.16829112
118	0x3dd70e57	0.10500782
119	0x3e1b8ac8	0.1518966
120	0xbc74541d	-0.014912632
121	0x3ea70875	0.3262364
122	0xbc6fcd35	-0.0146363275
123	0xbeea9814	-0.4581915
124	0x3e97d55f	0.29654977
125	0xbf3aa62a	-0.72909796
126	0x3d789a59	0.060694072
127	0xbf3dafe0	-0.7409649

block1.0.bn3.weight f4 [16]
0	0x3e1b96de	0.1519427
1	0x3fcffdd8	1.6249342
2	0x3ea1903e	0.3155536
3	0xbd2422ff	-0.040072437
4	0x3ea5fc1a	0.324189
5	0xbd9ac7a9	-0.075576134
6	0x3f8032b8	1.0015478
7	0x3dbe05ee	0.09278475
8	0x3ea896be	0.32927507
9	0x3f021a2d	0.5082119
10	0x3eec2915	0.46125093
11	0x3ed5b92b	0.41742834
12	0x3edf5a0e	0.43623394
13	0x3f334cc9	0.7003904
14	0x3eb3442e	0.35012954
15	0x3f89c6d5	1.0763804

block1.0.bn3.bias f4 [16]
0	0x3d2c7f8f	0.042113837
1	0xbead9dff	-0.33909604
2	0xbe617a17	-0.2201923
3	0xbdef6f53	-0.11691155
4	0xbdbb93b8	-0.091590345
5	0xbd54050c	-0.051762626
6	0x3f311016	0.6916517
7	0xbe83bf54	-0.2573191
8	0xbf1c160e	-0.6097115
9	0x3ead4267	0.33839723
10	0x3e5243b5	0.2053364
11	0x3cff87df	0.031192718
12	0x3e56819f	0.20947884
13	0xbdcccb23	-0.09999683
14	0xbd27f759	-0.041007373
15	0xbd8d6b80	-0.069052696

block1.0.bn3.running_mean f4 [16]
0	0xbe91e605	-0.28495803
1	0x3f0db6fb	0.5535733
2	0xbf20435a	-0.6260277
3	0x3eda6b97	0.4266021
4	0x3f1b8323	0.60746974
5	0x3eaedbdf	0.34152123
6	0xbfb99140	-1.4497452
7	0xbf5b79f7	-0.8573298
8	0x3ef17741	0.47161296
9	0xbe4de4d7	-0.20106827
10	0x3f0359d7	0.5130896
11	0xbe86019d	-0.26173106
12	0xbed787d1	-0.42095807
13	0xbe3a3daf	-0.18187593
14	0xbec83706	-0.3910448
15	0xbfaaf666	-1.3356445

block1.0.bn3.running_var f4 [16]
0	0x3ec54682	0.38530356
1	0x3f6332ca	0.8874937
2	0x3f18d2c0	0.5969658
3	0x3de99832	0.11405982
4	0x3ddd9090	0.10818589
5	0x3efd2001	0.4943848
6	0x3f56d04b	0.8391158
7	0x3df61c43	0.12017109
8	0x3e83ca6e	0.2574038
9	0x3ec659dd	0.38740435
10	0x3e97fab6	0.29683465
11	0x3f3f3ab4	0.7469895
12	0x3f49e1c0	0.7886009
13	0x3ed11a97	0.408406
14	0x3e93cd4e	0.28867573
15	0x3f8cbc68	1.0994997

block1.1.conv1.weight f4 [8, 16, 1, 1]
0	0x3e973d8c	0.29539144
1	0x3eb8aec1	0.36070827
2	0x3ba08bc2	0.004899473
3	0xbe1dc4e9	-0.15407147
4	0x3ee98eec	0.45616853
5	0x3ef26f71	0.47350648
6	0x3f0dc858	0.55383825
7	0xbd903073	-0.07040491
8	0x3da456d9	0.080243774
9	0xbe240155	-0.16016133
10	0xbf4bf021	-0.7966328
11	0xbef6c2de	-0.48195547
12	0xbc304a49	-0.010759898
13	0xbea3f818	-0.32025218
14	0x3ec083c9	0.37600544
15	0x3e2182d2	0.1577256
16	0xbf6d3063	-0.9265196
17	0x3e837f06	0.2568285
18	0xbebefe1a	-0.3730324
19	0x3ef96e46	0.48716944
20	0xbd0f3606	-0.03496363
21	0x400e44f4	2.2229586
22	0x3e8e687a	0.27814084
23	0x3c05ac2c	0.008158725
24	0x3e88a53a	0.26688558
25	0x3e6c780c	0.23092669
26	0xbe09db0d	-0.13462467
27	0x3d500799	0.050788496
28	0x3e4dc1c2	0.20093444
29	0x3c870086	0.016479742
30	0xbef3cf58	-0.47619128
31	0x3eb6101d	0.35559168
32	0x3d2f7fd8	0.04284653
33	0x3e81fb10	0.25386858
34	0x3e19cb1a	0.15018883
35	0x3f4fff60	0.81249046
36	0x3e620657	0.22072731
37	0x3efe6272	0.49684483
38	0xbcb833d6	-0.022485655
39	0xbe09971a	-0.13436547
40	0x3d886430	0.06659734
41	0x3ec00162	0.37501055
42	0xbedd735b	-0.43252072
43	0xbe4a2b10	-0.1974299
44	0xbe61b683	-0.22042279
45	0xbd816d67	-0.06319695
46	0xbd7cac16	-0.06168755
47	0xbe929374	-0.28628123
48	0xbe26c55f	-0.16286229
49	0xbf0c7c2c	-0.5487697
50	0x3e3b0f59	0.18267573
51	0xbf191060	-0.5979061
52	0xbe37dc06	-0.17955026
53	0xbfad3ae4	-1.3533597
54	0xbe314812	-0.17312649
55	0xbdd6de3f	-0.10491609
56	0xbe1709a3	-0.1474977
57	0xbe4f34e0	-0.20235014
58	0x3e6e43f7	0.23268114
59	0x3eac9173	0.3370472
60	0xbe2162d5	-0.15760358
61	0xbe85ed72	-0.2615772
62	0xbf11da3d	-0.5697363
63	0x3ed655a1	0.41862205
64	0x3fcbd392	1.5923941
65	0xbdbf30b3	-0.093354605
66	0xbe05845a	-0.1303877
67	0x3e6f6547	0.23378478
68	0xbe6d4341	-0.23170187
69	0x3d6c4205	0.05768015
70	0x3eeb5fc7	0.4597151
71	0xbc5fcede	-0.013660161
72	0x3e436009	0.19079603
73	0x3e0f2ded	0.13982363
74	0xbebe7a8f	-0.3720288
75	0x3dc53bfa	0.0963058
76	0xbda5e06c	-0.08099446
77	0x3ebbef4f	0.36706015
78	0x3deb567e	0.114911065
79	0xbefca618	-0.4934547
80	0xbc929985	-0.01789547
81	0x3eb8a209	0.36061123
82	0x3e9257bc	0.2858256
83	0xbe5b7c51	-0.21434142
84	0x3e78bc59	0.24290599
85	0xbea30ed5	-0.31847253
86	0x3f0553e3	0.52081126
87	0x3ee273c9	0.44228962
88	0x3e082ee3	0.13299136
89	0x3dcb6f02	0.099332824
90	0x3e262be7	0.16227685
91	0xbf02db68	-0.5111604
92	0xbe4bd275	-0.19904502
93	0x3ee38ea4	0.44444764
94	0x3df659a3	0.120288156
95	0x3e768878	0.24075496
96	0x3e092ffe	0.13397214
97	0x3f14b151	0.58083063
98	0xbe0ef385	-0.13960083
99	0x3dff12bb	0.124547444
100	0x3e6e994a	0.23300663
101	0x3e4593f7	0.19294725
102	0x3ee0428a	0.43800765
103	0xbce3ab9f	-0.027791796
104	0x3eca7a1c	0.39546287
105	0xbbfb731d	-0.0076736347
106	0x3f85ce38	1.0453558
107	0x3cccb181	0.024986984
108	0xbe4414d8	-0.19148576
109	0x3db01bf6	0.08599083
110	0x3e967afd	0.29390708
111	0xbd8990cd	-0.06717072
112	0xc000ce89	-2.012606
113	0xbea57fe2	-0.3232413
114	0x3c92812d	0.017883861
115	0xbebbccca	-0.3667968
116	0xbdf2b05e	-0.118500456
117	0xbfc7399f	-1.556446
118	0x3db7495b	0.08949538
119	0xbe59f4a1	-0.21284725
120	0xbe77bbf4	-0.24192792
121	0xbd62ade9	-0.055341635
122	0x3e6e1d73	0.23253421
123	0xbe00296c	-0.12515801
124	0xbe9129e9	-0.28352287
125	0xbd136438	-0.035984248
126	0x3e2e8630	0.17043376
127	0x3eace214	0.33766234

block1.1.bn1.weight f4 [8]
0	0x3d563f09	0.05230621
1	0x3f7e76d3	0.9940006
2	0x3ee709ac	0.45124567
3	0x3f4df2e3	0.8044874
4	0x3f0e2f6a	0.555411
5	0x3c3906b4	0.011293102
6	0x3f877ca0	1.0584908
7	0x3f81d522	1.0143168

block1.1.bn1.bias f4 [8]
0	0xbe5ded67	-0.21672593
1	0x3fafe8f5	1.3742968
2	0xbe4fa7f4	-0.20278913
3	0x3ee59ef0	0.44847822
4	0x3f84ec9c	1.0384707
5	0xbd3e831c	-0.046511754
6	0xbf57d303	-0.84306353
7	0x3eb836d9	0.35979345

block1.1.bn1.running_mean f4 [8]
0	0x3ff41d93	1.9071525
1	0x40303d26	2.7537322
2	0xbe8ced3f	-0.27524754
3	0xc07f748e	-3.991489
4	0x40ad72ae	5.420249
5	0x3f935374	1.1509843
6	0x40a52630	5.1609116
7	0xc12c26b8	-10.759453

block1.1.bn1.running_var f4 [8]
0	0x40d9046f	6.781791
1	0x419df9d9	19.746996
2	0x4015a857	2.3383996
3	0x4100b5c7	8.044379
4	0x4105b56b	8.3567915
5	0x403c3790	2.9408913
6	0x40b1a97c	5.551939
7	0x411b38db	9.701381

block1.1.conv2.weight f4 [8, 8, 3, 3]
0	0xbe9d99a6	-0.30781287
1	0xbe3259c1	-0.17417051
2	0xbe63417e	-0.22192952
3	0x3c30841e	0.010773687
4	0xbc8f53a9	-0.017495947
5	0xbe53ac5e	-0.20671222
6	0x3d88546a	0.06656726
7	0xbdf85985	-0.121264495
8	0xbe2ce9ed	-0.1688611
9	0xbdc29196	-0.095004246
10	0xbe1b5086	-0.15167436
11	0x3eb78191	0.3584104
12	0x3e230e2f	0.1592338
13	0x3e17c55f	0.14821385
14	0xbe76159e	-0.24031684
15	0x3d52b207	0.05143931
16	0x3da9ba7d	0.08287523
17	0x3e09fdc5	0.13475712
18	0x3e745430	0.2386024
19	0xbd631575	-0.055440385
20	0xbd95834f	-0.07300436
21	0x3d4a0eeb	0.049330633
22	0xbe624524	-0.22096688
23	0xbde7ebee	-0.11324297
24	0x3bb9cf97	0.0056704986
25	0xbcfbaab0	-0.030721039
26	0x3d835fb2	0.06414737
27	0xbe2e0f52	-0.16998032
28	0x3f004e97	0.5011992
29	0xbe1d5274	-0.15363485
30	0x3e8268f4	0.25470698
31	0x3f4f47f5	0.8096917
32	0x3e9c94d7	0.30582306
33	0xbe2d4f6d	-0.1692483
34	0xbe6eab05	-0.23307426
35	0xbdeda079	-0.11602873
36	0x3e0e6d7f	0.13908957
37	0xbecfd315	-0.4059073
38	0xbda742bd	-0.08167026
39	0x3e9edba3	0.31026945
40	0xbf1cb2e2	-0.61210454
41	0x3e0227a5	0.12710436
42	0x3e945896	0.28973836
43	0x3d27164b	0.040792745
44	0x3e8b1b4c	0.27169263
45	0xbe076796	-0.13223109
46	0xbe39e762	-0.18154672
47	0x3c61f1e3	0.01379058
48	0x3c56e5fb	0.013116355
49	0xbcf4f3c9	-0.029901402
50	0x3d1561cf	0.03647023
51	0x3b48ee7e	0.003065973
52	0xbe3bf0b3	-0.18353538
53	0xbd1124dd	-0.035435546
54	0x3e4ab1f3	0.19794445
55	0x3e408f68	0.18804705
56	0x3e2240dd	0.15845056
57	0x3f18c6b9	0.59678227
58	0x3f108be5	0.5646346
59	0x3eb60b65	0.35555568
60	0x3ea055c8	0.31315446
61	0x3e9ebe01	0.31004336
62	0xbcfa9574	-0.030588843
63	0x3dbe69e8	0.09297544
64	0x3fafc147	1.3730859
65	0xbf4d83c4	-0.80279183
66	0x3eb99f15	0.36254182
67	0x3ff76704	1.9328313
68	0x3d9bab0e	0.076009855
69	0xbf4bd518	-0.7962203
70	0xbf7fc4e3	-0.999098
71	0xbef70d5f	-0.4825239
72	0xbe3fc501	-0.18727495
73	0xbe2dbf5b	-0.16967528
74	0x3d102f9e	0.03520166
75	0xbd0cfc38	-0.034420222
76	0xbe2b42ad	-0.16724654
77	0xbe0ec9c4	-0.13944155
78	0xbc8572b1	-0.01629004
79	0xbda02cd1	-0.07821048
80	0xbcdda4f5	-0.027056197
81	0xbde5948f	-0.11209976
82	0xbded1838	-0.11576885
83	0xbe00db62	-0.12583688
84	0xbd2ce1f4	-0.042207673
85	0xbd47f8d0	-0.04882127
86	0xbda85833	-0.08219948
87	0xbca11550	-0.019663483
88	0x3ca3d68f	0.01999977
89	0x3ca4938b	0.020089885
90	0xbe44c8ee	-0.19217274
91	0xbe3d3474	-0.1847704
92	0xbdb90580	-0.09034252
93	0xbd974644	-0.07386449
94	0xbe2b40fb	-0.16724007
95	0xbe420a3f	-0.18949221
96	0x3dc465bc	0.09589717
97	0x3d010d3d	0.031506766
98	0x3caa8058	0.020813152
99	0x3dc11692	0.09428133
100	0xbcccc2ad	-0.024995172
101	0xbb583903	-0.0032992966
102	0x3e43bc7b	0.19114868
103	0x3db99507	0.09061628
104	0x3d989785	0.07450775
105	0x3ddf4199	0.10901184
106	0x3d8bc616	0.06824891
107	0x3dc7b690	0.09751618
108	0xbc96896f	-0.01837608
109	0x3c694aff	0.014239072
110	0xbdf73af6	-0.12071793
111	0xbe66966a	-0.22518316
112	0xbde36fb2	-0.111052886
113	0xbe0b9e0a	-0.13634506
114	0xbd0a6013	-0.03378303
115	0x3e2b55dd	0.16731973
116	0x3e981c62	0.29709154
117	0xbd5bb795	-0.053641874
118	0xbe0ed42e	-0.13948128
119	0xbab67fc3	-0.0013923574
120	0xbe4e01ec	-0.2011792
121	0xbe28fdc1	-0.1650305
122	0xbd052f83	-0.032516014
123	0xbde6f3fe	-0.112770066
124	0xbe26d840	-0.1629343
125	0xbd9148cc	-0.07093963
126	0xbe0f0bc3	-0.1396933
127	0xbdc12136	-0.094301626
128	0xbcb23b86	-0.021756899
129	0xbdfcff8b	-0.123534285
130	0xbe6cae56	-0.23113379
131	0xbd79f522	-0.061024792
132	0xbd8e1e6d	-0.06939397
133	0xbde90a1d	-0.11378882
134	0x3e24d157	0.16095482
135	0x3d5b8cf7	0.05360123
136	0x3e3f1f94	0.1866439
137	0x3e015eec	0.12633866
138	0x3e478bc3	0.19486909
139	0x3e1a7ade	0.15085933
140	0x398baa0d	0.00026638844
141	0x3de081de	0.1096227
142	0x3dd7af23	0.105314516
143	0x3d589ba7	0.052882817
144	0xbd950713	-0.0727674
145	0x3c2fdc6f	0.010733708
146	0xbc8e245d	-0.017351324
147	0xbe86d8b5	-0.2633721
148	0xbdf4a085	-0.11944679
149	0xbdca2cf2	-0.09871854
150	0xbe376db2	-0.17912939
151	0xbe6c8a83	-0.23099713
152	0xbdafa008	-0.085754454
153	0xbdefe2a6	-0.11713152
154	0x3f040c21	0.5158101
155	0x3eef2c21	0.46713355
156	0xbf2b0f28	-0.6682
157	0xbfd89357	-1.6919965
158	0xbe63ab89	-0.22233404
159	0x3f3523aa	0.70757544
160	0xbeb3baee	-0.35103554
161	0x3df6cc76	0.120507166
162	0xbd7143c7	-0.058902528
163	0x3d2f9f1e	0.042876355
164	0xbd9b02cc	-0.07568893
165	0xbe26dff1	-0.16296364
166	0xbeb1da5f	-0.34736916
167	0xbe22c3fb	-0.15895073
168	0x3d46c3db	0.048526626
169	0xbc54d45e	-0.012990085
170	0x3e376a60	0.17911673
171	0x3df649a9	0.12025768
172	0xbdfedf94	-0.12444988
173	0xbe44a0a2	-0.19201902
174	0xbd93f775	-0.07224933
175	0x3ea8488a	0.32867843
176	0xbe99ae89	-0.30015972
177	0xbeead282	-0.4586373
178	0x3ec538ec	0.3851999
179	0x3dce5de1	0.100765
180	0xbe1fbbf3	-0.1559904
181	0xbf18e6c7	-0.5972714
182	0xbe70eb00	-0.23527145
183	0xbe83cc83	-0.25741968
184	0xbe983104	-0.29724896
185	0xbdd260dc	-0.10272381
186	0xbe54d65e	-0.207849
187	0x3e66becf	0.22533725
188	0x3e67eca6	0.22648868
189	0x3de39f5d	0.111143805
190	0xbbe02bd5	-0.0068411627
191	0xbb61c803	-0.0034451492
192	0x3e753f40	0.23949909
193	0xbcac7316	-0.021050971
194	0xbc32d009	-0.010913857
195	0x3d43aa02	0.047769554
196	0xbd8053b8	-0.06265968
197	0x3d739260	0.059465766
198	0xbec6e50a	-0.38846618
199	0xbe5949ed	-0.21219607
200	0xbe3ad2ff	-0.18244551
201	0xbf3efe5d	-0.7460688
202	0xbf0c33c8	-0.5476651
203	0xbebf1a2d	-0.37324658
204	0xbf137342	-0.57597744
205	0xbe10282f	-0.14077829
206	0xbe3861c5	-0.18006046
207	0xbe685da3	-0.2269197
208	0x3f3ca068	0.7368226
209	0xbe0f1cb7	-0.13975798
210	0xbda2df7d	-0.07952783
211	0x3f618db9	0.88106877
212	0x3d3188ff	0.04334354
213	0xbef11c1d	-0.4709176
214	0xbd54895b	-0.051888805
215	0xbee09641	-0.43864635
216	0xbd8f4a99	-0.0699665
217	0x3df0c504	0.11756328
218	0x3d34d540	0.044148684
219	0xbac24b35	-0.0014823439
220	0xbc8367a9	-0.01604064
221	0xbdd0c8bb	-0.10194536
222	0xbc6d285e	-0.014474956
223	0xbad6fe02	-0.0016402605
224	0x3e284dc4	0.16435915
225	0x3e22f043	0.15911965
226	0xbdfd4217	-0.12366121
227	0xbdc61099	-0.096711345
228	0x3d80937a	0.06278129
229	0x3e9a4460	0.3013029
230	0xbdfb6fe8	-0.12277204
231	0xbe71f01d	-0.23626752
232	0x3c2c603f	0.010520994
233	0xbe695574	-0.22786504
234	0xbe4d4f56	-0.20049796
235	0xbe48c52a	-0.19606462
236	0xbd2005bf	-0.03906798
237	0x3e1af88a	0.15133873
238	0xbd909dd8	-0.07061356
239	0xbeb9638d	-0.36208764
240	0x3e2c715d	0.1684012
241	0xbd8fc6bf	-0.0702033
242	0x3cb2e0de	0.02183574
243	0xbc00f11a	-0.007869983
244	0xbd8fd707	-0.07023435
245	0x3d0128d3	0.031533074
246	0xbccc2fde	-0.024925169
247	0xbe864f6f	-0.26232478
248	0xbb53a2ed	-0.0032293156
249	0x3d08d0fb	0.033402424
250	0xbcf7a9aa	-0.03023227
251	0x3e12f168	0.14349902
252	0xbc396238	-0.011314921
253	0x3ebde354	0.370875
254	0x3f02ccb8	0.51093626
255	0x3df74584	0.12073806

block1.1.bn2.weight f4 [8]
0	0x3f531e40	0.8246803
1	0x3b4323f6	0.0029776073
2	0x3f3eba97	0.74503464
3	0x3f10f731	0.56627184
4	0xbeb6d122	-0.3570643
5	0x3d8b30ab	0.06796392
6	0x3f847bd9	1.0350295
7	0x3f3c45f0	0.73544216

block1.1.bn2.bias f4 [8]
0	0x3f8c2407	1.0948495
1	0xbd3b8879	-0.045784447
2	0x3f8b945b	1.090465
3	0x3eea700e	0.45788616
4	0x3ebedf25	0.3727962
5	0xbe5a7514	-0.21333724
6	0xbe44076b	-0.19143455
7	0x3f8f087e	1.1174467

block1.1.bn2.running_mean f4 [8]
0	0x400951f6	2.1456275
1	0xbd8d9046	-0.069122836
2	0xc0725820	-3.7866287
3	0xbeb54d6a	-0.35410625
4	0xc0108391	-2.2580302
5	0xbf84c836	-1.03736
6	0xbf0b035a	-0.5430199
7	0xbf3b2026	-0.7309593

block1.1.bn2.running_var f4 [8]
0	0x40600166	3.5000854
1	0x3fb06e49	1.3783656
2	0x408a8fa7	4.3300357
3	0x3ff54ca0	1.9164009
4	0x4013c68b	2.308993
5	0x40a7f00d	5.248053
6	0x4088a60b	4.270269
7	0x40a2531b	5.0726447

block1.1.conv3.weight f4 [16, 8, 1, 1]
0	0x3d58fcd0	0.052975476
1	0xbb85ba43	-0.004081042
2	0x3e86ff19	0.263665
3	0xbf43facb	-0.76554555
4	0xbe23882b	-0.15969913
5	0x3d095c31	0.033535186
6	0x3be0151a	0.006838453
7	0xbedcbfa7	-0.4311497
8	0x3dbc4ee6	0.09194736
9	0xbceefb29	-0.029172497
10	0xbede8222	-0.43458658
11	0xbee8e190	-0.4548459
12	0x3dbb5138	0.091463506
13	0xbe0d814c	-0.13818854
14	0x3e17e9a2	0.14835218
15	0xbcc1395d	-0.023586923
16	0xbebb78a5	-0.36615482
17	0x3eae521f	0.34047028
18	0xbeab00f9	-0.3339918
19	0x3dd4cc24	0.10390499
20	0x3eacfd3a	0.33786947
21	0xbdab111f	-0.08352875
22	0x3f6f8858	0.9356742
23	0x3d0de021	0.034637574
24	0x3d8c5fe7	0.068542294
25	0x3e12d7f6	0.14340195
26	0xbeb49290	-0.35268068
27	0xbe152c65	-0.14567716
28	0xbe63f066	-0.22259673
29	0x3da9b8a3	0.0828717
30	0xbdcd26b2	-0.10017146
31	0x3e47eb4a	0.1952335
32	0x3c811da8	0.015761212
33	0x3e86ca68	0.263263
34	0xbf0edf60	-0.55809593
35	0x3e7c0ea1	0.24614955
36	0xbded3f5b	-0.1158435
37	0xbdd6d238	-0.10489315
38	0x3d62f6c7	0.055411126
39	0x3fbc27a0	1.4699593
40	0xbe559287	-0.20856677
41	0x3e833876	0.25629014
42	0xbebb66be	-0.36601824
43	0x3e85b43c	0.2611407
44	0xbee1fcb3	-0.44138107
45	0xbe86ef24	-0.26354325
46	0xbc35aedb	-0.011089052
47	0xbe66bac0	-0.22532177
48	0xbf340e0e	-0.70333946
49	0xbe2474d4	-0.16060191
50	0x3ecc1178	0.39857078
51	0xbef47106	-0.4774248
52	0xbe66c3f1	-0.22535683
53	0xbe638d6d	-0.22221918
54	0xbd2dfc2d	-0.04247682
55	0x3eef62fe	0.46755213
56	0xbf20c4e3	-0.62800425
57	0xbc0c3d0d	-0.0085594775
58	0x3f112c03	0.5670778
59	0x3df07e7b	0.11742874
60	0xbe4eae17	-0.20183598
61	0xbd1dfa2d	-0.038568664
62	0xbea36fa9	-0.31921127
63	0x3ed27460	0.41104412
64	0x3f802f0d	1.0014359
65	0x3e13acb7	0.14421354
66	0x3f5909d5	0.8478063
67	0xbf17a629	-0.59237915
68	0xbe67b91f	-0.22629212
69	0x3e420479	0.18947019
70	0xbe7cb3ca	-0.24677959
71	0x3ea5c652	0.3237787
72	0x3de28f03	0.110624336
73	0x3dcf0c2f	0.10109746
74	0x3f57eb39	0.84343296
75	0x3db1d555	0.08683268
76	0xbedde035	-0.4333512
77	0x3e0fc3a2	0.14039472
78	0x3f56d54b	0.8391921
79	0xbf57408b	-0.8408286
80	0xbf6b0e14	-0.91818357
81	0x3e1912bd	0.14948554
82	0x3f5dc12f	0.866229
83	0xbdb08357	-0.08618801
84	0x3d718a67	0.05896988
85	0xbe937c1d	-0.28805628
86	0x3d83507c	0.064118356
87	0xbea2b47a	-0.31778318
88	0xbf5656cd	-0.837262
89	0xbe288cb9	-0.16459931
90	0x3ec8deb4	0.3923241
91	0x3dca0729	0.09864647
92	0xbeb7e54b	-0.35917124
93	0x3e1de909	0.15420927
94	0x3e05fbec	0.13084382
95	0xbe1795eb	-0.14803283
96	0x3e9234c0	0.2855587
97	0xbc2c3f08	-0.010513075
98	0x3f0b7e2a	0.54489386
99	0xbd63a2e7	-0.055575278
100	0xbe9fe4ab	-0.31229147
101	0x3c1fdc09	0.00975705
102	0xbcc3109d	-0.023811633
103	0x3da8ec80	0.08248234
104	0xbea3c9dc	-0.31989944
105	0xbdeaa474	-0.11457148
106	0x3e683a16	0.22678408
107	0x3ed94752	0.42437226
108	0x3d115afd	0.035487164
109	0xbe27bb67	-0.16380082
110	0xbf5927e9	-0.84826523
111	0xbeeecf2c	-0.46642435
112	0xbebb1ade	-0.36543936
113	0xbe2276e0	-0.1586566
114	0x3ecfdb17	0.4059684
115	0x3e5ecb5e	0.21757266
116	0x3c9c15ad	0.019053305
117	0x3de40e4f	0.11135542
118	0xbefb2480	-0.49051285
119	0xbef6ac02	-0.48178107
120	0xbf4a0e88	-0.7892842
121	0x3e2764f4	0.16347104
122	0xbdd0bfec	-0.10192856
123	0xbe43af4b	-0.19109838
124	0x3d664948	0.05622223
125	0xbeb8aecd	-0.36070862
126	0x3ee9e2d4	0.4568087
127	0xbe90789b	-0.28217015

block1.1.bn3.weight f4 [16]
0	0x3dc1aea0	0.09457135
1	0x3e49bebd	0.19701667
2	0x3ebfeeb5	0.37486807
3	0xbe0e32b1	-0.13886525
4	0x3fca1a7c	1.5789332
5	0x3eaf3b61	0.3422499
6	0x3eb30fd1	0.34973004
7	0x3f8f5e2b	1.1200613
8	0x3fed02c3	1.8516468
9	0x3fa4bee3	1.2870754
10	0x3f1f673a	0.62266886
11	0x3e134139	0.14380349
12	0x3c255abf	0.010092436
13	0x3f311b23	0.6918203
14	0x3e761eb7	0.24035154
15	0x3ea1400c	0.31494176

block1.1.bn3.bias f4 [16]
0	0xbe161e6e	-0.14660046
1	0xbeb4547b	-0.35220703
2	0xbce819c6	-0.028332602
3	0xbe974a77	-0.29549
4	0x3c0150f9	0.007892841
5	0xbf8c8491	-1.0977956
6	0x3db48956	0.08815257
7	0xbc721295	-0.014774938
8	0x3dd4e87d	0.10395906
9	0x3edceb0c	0.43148077
10	0xbd6ba7b4	-0.05753298
11	0x3da7d7dc	0.08195469
12	0xbdaa5250	-0.08316481
13	0x3e288945	0.16458614
14	0xbd9b52fd	-0.07584188
15	0x3d68e6d4	0.05686076

block1.1.bn3.running_mean f4 [16]
0	0xbf1d49b2	-0.61440575
1	0xbf159f3d	-0.58446103
2	0xbea594a0	-0.32339954
3	0xbe94b1a9	-0.29041794
4	0x3f95ee62	1.1713374
5	0xbf763109	-0.9616857
6	0xbdfd18be	-0.12358235
7	0x3eaa76ca	0.33293754
8	0x40003480	2.0032043
9	0x3e3d40c3	0.18481736
10	0xbebe64f7	-0.37186405
11	0xbf336f04	-0.7009127
12	0x3f605629	0.8763147
13	0xbf1ceabd	-0.6129568
14	0xbf04453a	-0.5166813
15	0xbfa61c40	-1.2977371

block1.1.bn3.running_var f4 [16]
0	0x3e803c5f	0.2504606
1	0x3dc31e52	0.095272675
2	0x3f05ebe7	0.52313083
3	0x3da418e2	0.080125585
4	0x3f8a809e	1.0820501
5	0x3de25580	0.11051464
6	0x3eb7c3e3	0.35891637
7	0x3ed04d32	0.40683895
8	0x3fc530db	1.5405535
9	0x3f83bb47	1.0291528
10	0x3f4909a2	0.78530324
11	0x3f0791c6	0.5295681
12	0x3e7d68c4	0.24746996
13	0x3eb31f89	0.34984997
14	0x3e8fda58	0.2809627
15	0x3f09563a	0.53647196

block1.2.conv1.weight f4 [8, 16, 1, 1]
0	0x3ef37689	0.47551373
1	0x3f441aa3	0.76603144
2	0x3e7c7d26	0.24657115
3	0xbdda7f2f	-0.106687896
4	0x3de1cdc9	0.110255785
5	0x3de74dee	0.11294161
6	0xbe1b0458	-0.15138376
7	0xbe17c748	-0.14822114
8	0x3df467f1	0.11933888
9	0x3e12c747	0.14333831
10	0xbe6a5026	-0.22882137
11	0x3fb52d5a	1.4154465
12	0x3e7bf1d3	0.24603967
13	0xbe90a64c	-0.28251874
14	0x3ef37cba	0.47556096
15	0xbea2783f	-0.31732365
16	0x3ddac4c1	0.10682059
17	0xbc485319	-0.012226843
18	0xbded67ac	-0.115920395
19	0xbe058bbc	-0.13041586
20	0xbd7b68de	-0.061379306
21	0xbe94d9b2	-0.29072338
22	0x3e8c6467	0.2742035
23	0xbe3e69df	-0.18595074
24	0xbc55ab0d	-0.01304127
25	0x3e2ab0f1	0.1666906
26	0x3d3eae52	0.046552964
27	0xbdb491a7	-0.088168435
28	0xbe277779	-0.16354169
29	0x3ebf0348	0.3730719
30	0xbdcb6536	-0.09931414
31	0xbdeec3dd	-0.11658452
32	0xbeda3ac2	-0.42622954
33	0x3e3650f1	0.17804314
34	0xbe859101	-0.26087192
35	0x3eeb8b3b	0.46004662
36	0x3cb0a3af	0.021562425
37	0xbe0099c8	-0.12558663
38	0x3e6d28a1	0.2316003
39	0x3e4feb84	0.20304686
40	0x3de32da9	0.11092693
41	0xbe3d1dc2	-0.18468383
42	0xbe68e875	-0.22744925
43	0xbe47bb34	-0.19505006
44	0xbe18c8af	-0.14920305
45	0x3e405c64	0.18785244
46	0x3f5df75c	0.86705565
47	0xbdab33b5	-0.08359472
48	0x3f5dc86a	0.8663393
49	0x39ca80f2	0.00038624514
50	0x3e548979	0.20755567
51	0x3ebc3c49	0.36764744
52	0x3d471b79	0.048610184
53	0xbf995b33	-1.1980957
54	0x3e0d14b8	0.13777435
55	0x3e36a56e	0.17836544
56	0xbea448f6	-0.32086915
57	0xbc724caf	-0.014788791
58	0x3e30168b	0.171961
59	0x3e9897fe	0.2980346
60	0x3e29d2d5	0.16584332
61	0x3d97a06d	0.07403646
62	0xbea8be9f	-0.32957932
63	0x3e2c1521	0.16804935
64	0xbca682f7	-0.02032612
65	0x3db5bdc6	0.08874087
66	0xbe04edcb	-0.12981336
67	0x3d1df334	0.038562015
68	0x3df70276	0.12061016
69	0xbdb92c01	-0.09041596
70	0x3da351f9	0.079746194
71	0xbd1a7d8f	-0.0377174
72	0xbe1a1d84	-0.15050322
73	0xbe33e604	-0.17568213
74	0x3f82af6d	1.0209786
75	0xbe19a1e2	-0.1500316
76	0xbedb33a1	-0.42812827
77	0xbde3a6fd	-0.11115835
78	0xbe4ccc69	-0.19999851
79	0x3dc8c7c7	0.098037295
80	0xbecc7253	-0.39930972
81	0xbe6968f3	-0.22793941
82	0xbf0074e6	-0.5017837
83	0xbd422b43	-0.04740454
84	0xbedec9a5	-0.43513218
85	0x3e284193	0.16431265
86	0x3f126d9f	0.5719852
87	0x3d82953c	0.063761204
88	0x3d19cf73	0.037551355
89	0x3d35326d	0.044237543
90	0xbf4682c5	-0.7754329
91	0x3e0eb089	0.1393453
92	0xbeb0026d	-0.3437685
93	0x3f41edf8	0.75753736
94	0xbf2cb52f	-0.67463964
95	0xbba78707	-0.005112532
96	0xbe82b92c	-0.255319
97	0x3e714122	0.23560002
98	0xbe257e01	-0.16161348
99	0x3e3a03bf	0.18165492
100	0x3e4f2e83	0.20232587
101	0x3e278952	0.16360977
102	0x3e94acaf	0.29037997
103	0x3e587b38	0.21140754
104	0xbd2ed367	-0.042682078
105	0xbe73087a	-0.23733702
106	0x3c9e4527	0.019320084
107	0xbde4d798	-0.11173934
108	0xbdf5f1da	-0.1200902
109	0xbda881c2	-0.08227874
110	0xbcafe4f1	-0.021471472
111	0xbde33658	-0.110943496
112	0xbf1ef75b	-0.62096184
113	0xbeac312b	-0.33631262
114	0xbdd7034f	-0.10498678
115	0xbb35e88f	-0.0027757024
116	0xbe063a79	-0.13108243
117	0x3e8c259b	0.2737244
118	0xbf143e27	-0.57907337
119	0x3e2298be	0.15878579
120	0x3eba5906	0.36396044
121	0xbbf5761a	-0.0074908854
122	0x3be9acd2	0.0071311975
123	0x3e9e28d2	0.30890518
124	0x3e71903f	0.23590182
125	0xbdfd9aee	-0.12383066
126	0xbf5b37da	-0.856321
127	0xbeaff552	-0.34366852

block1.2.bn1.weight f4 [8]
0	0x3f8785a2	1.0587656
1	0x3e5020f3	0.20325069
2	0x3f49a34d	0.787648
3	0x3f52f969	0.8241182
4	0x3f4811ca	0.78152144
5	0x3f3bec3b	0.73407334
6	0x3edf13ff	0.43569943
7	0x3f66d0d7	0.90162414

block1.2.bn1.bias f4 [8]
0	0x3e1f3879	0.15548886
1	0xbecbec3c	-0.3982867
2	0xbdabdd8a	-0.083918646
3	0x3e6e121c	0.23249096
4	0xbe6ef476	-0.23335442
5	0x3ee42055	0.44555917
6	0xbe2e868f	-0.17043518
7	0x3eaa4a20	0.33259678

block1.2.bn1.running_mean f4 [8]
0	0x40bfcc03	5.993654
1	0xbe72b0a8	-0.23700202
2	0xbf8daff8	-1.1069326
3	0x405f45ed	3.488643
4	0x3f0e165d	0.55502874
5	0xc0808b65	-4.017016
6	0xbf5d9cad	-0.86567193
7	0xc09e9ff3	-4.957025

block1.2.bn1.running_var f4 [8]
0	0x418ce398	17.61113
1	0x3fa791af	1.3091334
2	0x40ae3466	5.4438963
3	0x4104cae8	8.299538
4	0x406f6b51	3.740925
5	0x41522e61	13.136323
6	0x3f76f6d9	0.9647041
7	0x41025755	8.146321

block1.2.conv2.weight f4 [8, 8, 3, 3]
0	0xbd0b4abb	-0.034006815
1	0xbf0797fa	-0.5296627
2	0xbd258b60	-0.04041612
3	0xbf1ba86a	-0.60803854
4	0xbeebf6a2	-0.46086603
5	0xbe1090ff	-0.14117812
6	0xbd1f2193	-0.03885038
7	0xbd7e1412	-0.06203086
8	0x3d877bd2	0.06615414
9	0x3e41702c	0.18890446
10	0x3e2835f4	0.16426831
11	0x3d9e57ad	0.077315666
12	0x3e36f927	0.17868482
13	0xbe14ce87	-0.14531909
14	0xbe7b2ba6	-0.2452837
15	0x3e51b698	0.2047981
16	0xbcd07179	-0.025444733
17	0x3d2a90d1	0.041642014
18	0x3e5ba526	0.21449718
19	0x3e8f00e0	0.27930355
20	0xbde296f4	-0.11063948
21	0xbd3195b5	-0.043355662
22	0x3ea397e6	0.31951827
23	0xbe3aa95a	-0.18228665
24	0x3d0b2e45	0.033979673
25	0xbd3662d7	-0.044527855
26	0xbe7dcb0c	-0.24784487
27	0xbbaa04c7	-0.005188558
28	0x3e52f389	0.20600714
29	0x3e917eab	0.28416952
30	0xbd98441c	-0.07434866
31	0xbf227a45	-0.6346782
32	0xbe2ca0e9	-0.16858257
33	0x3ea2818f	0.3173947
34	0x3d77350e	0.06035333
35	0x3d3ee7fc	0.046607956
36	0x3eaa16c7	0.33220503
37	0x3e96b142	0.29432112
38	0xbca2d304	-0.01987601
39	0xbc2f2827	-0.010690725
40	0x3ea703ff	0.32620236
41	0x3e224e7d	0.15850253
42	0x3d310440	0.043216944
43	0xbe029b64	-0.1275459
44	0xbde0609a	-0.10955925
45	0xbcb3680d	-0.021900201
46	0xbddcfdf2	-0.10790624
47	0xbeaa6b8a	-0.3328517
48	0x3f51a570	0.8189306
49	0x3d397abf	0.045283075
50	0xbe8f7653	-0.28019962
51	0x3e09f07a	0.13470641
52	0xbe42e0c2	-0.19031051
53	0x3d1a3c52	0.037655182
54	0x3e2c8545	0.16847713
55	0xbd527752	-0.051383324
56	0xbe09ac97	-0.13444744
57	0x3e2bbb78	0.16770732
58	0xb8f443ff	-0.00011647492
59	0xbcea495f	-0.02859944
60	0x3c142d96	0.009044072
61	0x3b97b6d8	0.004629951
62	0xbe48aa37	-0.19596182
63	0xbd7609d2	-0.06006796
64	0xbe198cce	-0.14995119
65	0xbea7fc34	-0.32809603
66	0xbeb93946	-0.3617651
67	0x3f6120e2	0.879408
68	0xbd2cf87b	-0.042229157
69	0xbedb4cc9	-0.4283202
70	0xbee6224c	-0.4494804
71	0xbbb53f2f	-0.0055312137
72	0xbee128d1	-0.43976453
73	0x3f2e8a3e	0.6817969
74	0x3d47e6d5	0.048804123
75	0x3da2ea84	0.079548866
76	0x3f71637b	0.9429242
77	0x3e86a5d4	0.26298392
78	0xbe872af3	-0.26399955
79	0xbf408824	-0.75207734
80	0xbee98188	-0.45606637
81	0xbdb29b63	-0.08721044
82	0xbd7992a1	-0.06093085
83	0xbded82aa	-0.11597188
84	0x3d8ccaf4	0.06874648
85	0xbdc2e9ca	-0.09517248
86	0xbdb1bbd8	-0.086784065
87	0xbcac67c1	-0.021045567
88	0xbe91c3d7	-0.28469726
89	0xbe4a5e16	-0.19762453
90	0xbdfab56a	-0.12241633
91	0x3dfe5213	0.12417998
92	0xbec2daac	-0.38057458
93	0x3ea733f5	0.32656828
94	0x3eb709f9	0.35749796
95	0x3d1f8a3a	0.038950182
96	0x3ea48623	0.32133588
97	0x3d9b0018	0.07568377
98	0x3d9e79b0	0.07738054
99	0x3e2610c6	0.16217336
100	0xbe0e56a9	-0.13900246
101	0xbe7038d7	-0.23459183
102	0x3cf1ec5c	0.02953165
103	0xbddb795e	-0.10716508
104	0x3db7b8ac	0.0897077
105	0x3b85a008	0.004077915
106	0xbebe19c1	-0.37129024
107	0xbea590b3	-0.3233696
108	0xbe7a1126	-0.24420604
109	0x3e680aa7	0.22660314
110	0xbee59877	-0.44842884
111	0xbcbee022	-0.023300234
112	0x3e4e760c	0.20162219
113	0xbe264712	-0.16238049
114	0x3da94925	0.08265904
115	0x3e513ee7	0.20434152
116	0x3e5e04e6	0.21681556
117	0x3e7b8c3c	0.24565214
118	0xbe179ae6	-0.14805183
119	0xbe9b3784	-0.30315793
120	0x3e2ca1b5	0.16858561
121	0xbec8f0f0	-0.3924632
122	0xbe9091ad	-0.28236142
123	0x3e975795	0.29559007
124	0x3e996268	0.2995789
125	0xbe6fc2de	-0.2341418
126	0xbe69f159	-0.22845973
127	0xbda64c56	-0.08120029
128	0xbd50a8c0	-0.050942183
129	0xbe4c6f9d	-0.19964452
130	0xbd33ece1	-0.043927077
131	0x3d254184	0.040345684
132	0xbd51c239	-0.051210616
133	0xbd9a1e4e	-0.075253114
134	0xbdf52479	-0.11969847
135	0x3cdd037f	0.026979206
136	0xbea6b34f	-0.32558677
137	0xbda6a96e	-0.08137785
138	0xbde2b67b	-0.11069962
139	0x3e9da385	0.30788818
140	0x3dba8093	0.09106555
141	0xbe32dd8f	-0.1746733
142	0xbe13de8b	-0.14440362
143	0xbe016d7b	-0.1263942
144	0xbdd34ebd	-0.103177525
145	0x3df723c3	0.12067368
146	0xbd913301	-0.07089806
147	0x3ed80466	0.42190856
148	0x3fa10a41	1.2581254
149	0x3e8dd71a	0.27703172
150	0xbe1f8ed3	-0.15581827
151	0x3ef4473f	0.47710606
152	0xbe5f17db	-0.21786444
153	0xbe465261	-0.19367363
154	0x3be30e91	0.0069292267
155	0xbd6c117c	-0.057633862
156	0xbd5f018c	-0.054444835
157	0x3d1c166b	0.038107317
158	0xbd5258f0	-0.05135435
159	0xbdcb4d46	-0.09926848
160	0xbd2fb44b	-0.04289655
161	0xbd7cec45	-0.06174876
162	0xbe6980b2	-0.22803
163	0xbe24b925	-0.16086252
164	0xbe801812	-0.25018364
165	0xbed5e51f	-0.41776368
166	0xbe5acdd4	-0.2136758
167	0xbd8c8b81	-0.06862546
168	0x3e2f0318	0.17091024
169	0x3e843d94	0.2582823
170	0x3a91459a	0.0011083365
171	0xbe516b54	-0.20451099
172	0xbe5f6079	-0.21814145
173	0xbe3df3f4	-0.18550092
174	0x3da74375	0.08167163
175	0x3f02277d	0.50841504
176	0xbd00c38f	-0.0314365
177	0xbe351b96	-0.17686304
178	0x3c16cce5	0.009204124
179	0xbdcecf3c	-0.100981206
180	0x3e09da5e	0.13462207
181	0x3c0ceccf	0.008601381
182	0xbdaf6c32	-0.085655585
183	0xbe30920c	-0.17243212
184	0x3e334ae3	0.17509036
185	0x3e332419	0.17494239
186	0xbec4b10d	-0.3841633
187	0x3d863ff0	0.06555164
188	0x3de8ef37	0.113737516
189	0x3de3c77c	0.11122033
190	0x3e55daf5	0.20884307
191	0xbe4a0501	-0.19728471
192	0xbc38fad9	-0.0112902755
193	0xbe5a2902	-0.21304706
194	0xbe6c6789	-0.2308637
195	0x3e8385dc	0.25688064
196	0x3e65a2b4	0.22425348
197	0x3e282b24	0.16422707
198	0xbdbec287	-0.09314447
199	0x3d422366	0.04739704
200	0x3da7253b	0.08161398
201	0xbcb2fa80	-0.021847963
202	0xbd0706ea	-0.03296558
203	0xbde9bf74	-0.1141347
204	0xbdd838a3	-0.105576776
205	0xbe08a1f3	-0.13343029
206	0x3d391088	0.04518178
207	0x3ddc60d4	0.10760656
208	0x3e13f3ec	0.14448518
209	0xbeb068a2	-0.34454829
210	0x3dcc5e0d	0.09978876
211	0x3f311c3e	0.6918372
212	0xbe8857fb	-0.26629624
213	0xbe7be08c	-0.24597377
214	0x3e93a352	0.2883554
215	0xbd86600e	-0.0656129
216	0xbe1d98ed	-0.15390368
217	0x3f07a512	0.5298625
218	0x3d5c665d	0.05380856
219	0xbef30614	-0.47465575
220	0xbe0301c2	-0.1279364
221	0xbe5c733f	-0.21528338
222	0x3ef651f4	0.481094
223	0x3ed37e98	0.4130752
224	0x3e7abf0a	0.24486938
225	0xbd8bfce6	-0.06835346
226	0x3d86a275	0.06573955
227	0xbe0f7151	-0.1400807
228	0xbe7ebb38	-0.24876106
229	0xbb0b99f8	-0.002130149
230	0xbe3ddc49	-0.18541063
231	0xbd09d22e	-0.03364771
232	0xbe060e13	-0.13091306
233	0xbdaa2e45	-0.083096065
234	0xbe21e546	-0.15810117
235	0xbd76076e	-0.06006568
236	0xbe8de351	-0.2771249
237	0x3edf690e	0.43634838
238	0x3e9ee620	0.31034946
239	0xbdf66289	-0.12030513
240	0xbc89a36d	-0.01680156
241	0xbc92f3c7	-0.017938508
242	0xbdc136f5	-0.0943431
243	0x3d5d54d6	0.054035984
244	0x3beb9d1e	0.0071903607
245	0x3e135361	0.14387275
246	0xbebc6450	-0.36795282
247	0xbf4f9237	-0.8108248
248	0xbe556a3f	-0.20841311
249	0xbe5e34b2	-0.21699789
250	0xbe73c929	-0.23807205
251	0xbe71d98f	-0.23618148
252	0x3e65fa45	0.22458751
253	0x3f079ef3	0.5297691
254	0x3e7e64f6	0.24843201
255	0xbe45e475	-0.1932543

block1.2.bn2.weight f4 [8]
0	0x3f261c2f	0.64886755
1	0x3f8da3e8	1.1065645
2	0x3f9d0dd5	1.2269846
3	0x3efdf7b8	0.49603057
4	0x3f671a06	0.90274084
5	0x3f25ae39	0.6471897
6	0x3f38278e	0.71935356
7	0x3f3ed4d1	0.7454348

block1.2.bn2.bias f4 [8]
0	0x3d209823	0.03920759
1	0xbea1e743	-0.3162175
2	0xbf7eae5d	-0.9948481
3	0x3e6235a4	0.22090775
4	0xbde03525	-0.109476365
5	0xbdf68269	-0.120365925
6	0xbd728d2e	-0.05921667
7	0xbe81f444	-0.25381672

block1.2.bn2.running_mean f4 [8]
0	0xbf71a308	-0.9438939
1	0xbf0bd486	-0.5462116
2	0x3f5f9b6c	0.8734653
3	0xbf9a4cf7	-1.2054738
4	0x40081680	2.1263733
5	0x3f877826	1.0583541
6	0xbf380363	-0.7188017
7	0xbea518cf	-0.3224549

block1.2.bn2.running_var f4 [8]
0	0x3fe4b396	1.7867305
1	0x3ffccfd2	1.9750922
2	0x406acd46	3.668779
3	0x3f8c9e28	1.0985765
4	0x401cb014	2.448247
5	0x3f858e23	1.0434002
6	0x3fd95c49	1.6981288
7	0x3f612274	0.87943196

block1.2.conv3.weight f4 [16, 8, 1, 1]
0	0xbf04e957	-0.5191855
1	0x3e0ae2be	0.13563058
2	0xbe6b7d79	-0.22997083
3	0xbf37eb97	-0.71843857
4	0x3e6809c0	0.2265997
5	0x3f120f62	0.5705472
6	0x3d4dbb7b	0.050227623
7	0xbe49143d	-0.19636627
8	0x3e80115c	0.25013244
9	0x3e7835b4	0.24239236
10	0xbea7cb76	-0.32772416
11	0xbe953629	-0.29142883
12	0x3f2e2132	0.680194
13	0x3d23ac8c	0.039959475
14	0x3eaa8cde	0.33310598
15	0x3ecbc78d	0.39800683
16	0xbeb2ae73	-0.3489872
17	0x3ddcf2b5	0.1078848
18	0xbf3f64e5	-0.7476333
19	0xbeabaf3d	-0.33532134
20	0xbdbe9316	-0.09305398
21	0xbe2448a1	-0.1604333
22	0xbf2482f7	-0.64262336
23	0xbcca2a05	-0.02467824
24	0xbe7b304b	-0.24530141
25	0x3f081514	0.5315716
26	0xbe821120	-0.2540369
27	0xbe55ae44	-0.20867258
28	0xbe92626c	-0.28590715
29	0x3e273631	0.16329266
30	0x3e431a20	0.19052935
31	0x3f1fb69c	0.62388015
32	0x3ea74c23	0.32675275
33	0x3f645f32	0.89207757
34	0x3d1be2c2	0.03805805
35	0x3e0d97f3	0.13827495
36	0xbe0b0fe3	-0.13580279
37	0x3e4461a1	0.19177867
38	0x3dbe0aad	0.0927938
39	0xbdc14c92	-0.09438433
40	0x3f2f983b	0.6859166
41	0x3e4c39e9	0.19943966
42	0xbd443266	-0.047899626
43	0xbd488825	-0.048957963
44	0xbe708195	-0.23486932
45	0xbe650dbe	-0.22368523
46	0xbd65442f	-0.055973228
47	0xbe183451	-0.14863707
48	0xbf1113a1	-0.56670576
49	0xbe9abe9b	-0.30223545
50	0x3e706e6a	0.2347962
51	0xbf09c0e8	-0.53809977
52	0xbee3fde5	-0.44529644
53	0xbf1658f8	-0.58729506
54	0x3efaf8b2	0.49017864
55	0x3db118ff	0.08647346
56	0xbea2ba3d	-0.31782714
57	0xbdd35eb9	-0.10320801
58	0xbe822267	-0.25416872
59	0x3dc02c31	0.09383429
60	0xbeb679b4	-0.35639727
61	0x3daf511e	0.08560394
62	0xbe32db06	-0.17466363
63	0xbe107eec	-0.14110917
64	0x3e619324	0.22028786
65	0xbc6dcb50	-0.0145138055
66	0x3ea9c288	0.33156228
67	0x3e716278	0.23572719
68	0xbe5df623	-0.21675925
69	0x3d24be3b	0.04022048
70	0xbea39c0a	-0.31954986
71	0x3d83ecbb	0.06441637
72	0xbbfca4e2	-0.0077100853
73	0xbd068b26	-0.032847546
74	0xbeb750aa	-0.3580373
75	0xbe1a08f2	-0.15042475
76	0xbd8ed184	-0.06973556
77	0x3e2d8ec3	0.1694899
78	0x3e0a6dc0	0.13518429
79	0xbea194e5	-0.3155891
80	0x3da2c200	0.07947159
81	0xbe91b2be	-0.28456682
82	0x3e93cd8e	0.28867763
83	0x3ea27615	0.31730714
84	0xbd42c59d	-0.04755174
85	0x3cbccd0e	0.023046996
86	0x3e4fb16a	0.20282522
87	0xbea4afd5	-0.321654
88	0x3d17197d	0.036889542
89	0xbec319a8	-0.38105512
90	0xbfc93d05	-1.5721747
91	0xbe3bad85	-0.18327911
92	0x3d3b7fc2	0.045776136
93	0xbe64dd79	-0.2235011
94	0xbe6517b9	-0.2237233
95	0xbd1a2e8d	-0.03764205
96	0x3e6642a3	0.22486357
97	0xbe2ba901	-0.16763689
98	0xbeb77ae7	-0.35835955
99	0x3db3e0e1	0.087831266
100	0xbd66d720	-0.056357503
101	0x3d7b25c5	0.061315317
102	0x3e5a7cd5	0.21336682
103	0x3e6635b2	0.2248142
104	0x3d7dcfa7	0.06196561
105	0xbe3f26a0	-0.18667078
106	0xbee1353f	-0.43985936
107	0x3eb277ac	0.34856927
108	0xbee2a550	-0.44266748
109	0x3b6c29ed	0.0036035732
110	0x3d58afa7	0.05290189
111	0xbf155c63	-0.58344096
112	0x3e22b738	0.15890205
113	0xbf84c094	-1.037127
114	0x3d0c7a33	0.034296226
115	0xbda01ead	-0.07818351
116	0xbf56660d	-0.8374947
117	0x3ebc7c6e	0.36813682
118	0x3ea36487	0.31912634
119	0xbd7836d5	-0.060599167
120	0xbe9b6cb8	-0.30356383
121	0x3e923bd2	0.28561264
122	0x3f1c6f92	0.6110774
123	0xbdb54714	-0.08851448
124	0xbe71bc4d	-0.23606987
125	0xbebb6018	-0.3659675
126	0xbf086f09	-0.53294426
127	0xbe6802cf	-0.22657321

block1.2.bn3.weight f4 [16]
0	0x3ec636dd	0.38713732
1	0x3f0aa0ed	0.54151803
2	0x3effc5b9	0.49955538
3	0x3f2480d8	0.642591
4	0x3ef9bb2d	0.48775616
5	0x3f070ab0	0.5275068
6	0x3ef9cc5a	0.4878872
7	0x3e8932d9	0.26796606
8	0x3e998726	0.29985923
9	0x3e1c2b7e	0.15250966
10	0x3dbffc6e	0.09374319
11	0x3fa5c595	1.2950922
12	0xbe46e110	-0.19421792
13	0x3f205699	0.6263214
14	0x3f3cee1a	0.73800814
15	0x3ee44cb8	0.44589782

block1.2.bn3.bias f4 [16]
0	0xbed8ad80	-0.4231987
1	0x3e489de1	0.19591476
2	0xbd17815d	-0.036988605
3	0xbe062e6d	-0.13103648
4	0x3eb851d9	0.35999945
5	0xbfa06368	-1.2530336
6	0x3d5226a1	0.05130637
7	0xbe275396	-0.16340479
8	0xbd8cccb5	-0.06874982
9	0x3e0e3656	0.13887915
10	0xbe13b7ac	-0.14425534
11	0x3d3d030b	0.04614548
12	0xbe05deb4	-0.13073236
13	0x3de6bbfa	0.112663224
14	0xbdaa8fc7	-0.083282046
15	0xbdfc4a67	-0.123188786

block1.2.bn3.running_mean f4 [16]
0	0xbe5ddaad	-0.2166545
1	0x3eb1f423	0.34756574
2	0xbf07e809	-0.5308843
3	0x3db1aabf	0.08675145
4	0x3ec9c084	0.3940469
5	0x3d728333	0.059207153
6	0xbeed031e	-0.4629144
7	0xbe912447	-0.2834799
8	0x3d8bfc96	0.06835286
9	0xbe0da162	-0.13831094
10	0x3da2811a	0.079347804
11	0xbf09b390	-0.53789616
12	0x3d871608	0.06595999
13	0xbe6981a1	-0.22803356
14	0xbec2cbbb	-0.3804606
15	0xbe65a5f7	-0.22426592

block1.2.bn3.running_var f4 [16]
0	0x3e386fc3	0.18011384
1	0x3e49114a	0.19635502
2	0x3f2bcd8e	0.67110527
3	0x3e9b3a83	0.30318078
4	0x3ef8dd08	0.48606133
5	0x3d71d7e5	0.059043784
6	0x3ea26bca	0.31722862
7	0x3de9365e	0.11387323
8	0x3dc08aa3	0.09401443
9	0x3e0e4ad9	0.1389574
10	0x3df1a82c	0.11799654
11	0x40204505	2.5042126
12	0x3dee18d6	0.11625831
13	0x3e9680c5	0.29395118
14	0x3f292e37	0.66086143
15	0x3ec96572	0.3933521
