assignment1/results/trial_2/resBottleneck/ckpts/14000.pt (torch, 562439 bytes, 242 tensors)

block1.0.conv1.weight f4 [8, 16, 1, 1]
000000 13 e3 19 be 97 c7 b0 3c 4e 5f 48 3e 42 71 7f 3d
       -0.15028028 0.021579547 0.19567606 0.06236387
000010 6e bd 6d 3e f7 cc d8 3d 3a 9f 22 3e 6c ff 9e 3c
       0.23216793 0.10585969 0.15881053 0.019408904
000020 63 9e fd 3e 0d f5 0c 3e 86 4c 4d be 73 35 9e 3e
       0.49534902 0.13765354 -0.20048723 0.30900154
000030 21 8e 49 3c 8c 2f 20 3f f1 1f 76 be a9 89 8b 3f
       0.012301953 0.6257255 -0.24035622 1.0901386
000040 9f e9 07 3d d3 75 9a 3c fc 00 6e bd a0 dc aa 3c
       0.033181783 0.018855011 -0.058106408 0.020857155
000050 8e 53 0c be 94 aa 55 3e 66 92 a7 bd f4 7f a9 bc
       -0.13703749 0.20865852 -0.0818222 -0.020690896
000060 d6 d2 d0 be 0f 41 a6 3e 9f 9b 19 bf e7 bc a7 be
       -0.40785855 0.3247151 -0.60003084 -0.3276131
000070 1c bd 98 be f3 49 b2 bd 1c 34 ad 3e d3 2f 35 bf
       -0.2983178 -0.08705511 0.3382882 -0.707761
000080 76 e0 96 be a3 13 03 3d 3d d9 72 3e 83 8f c7 be
       -0.29468125 0.03200115 0.23715682 -0.38976678
000090 78 34 12 bd 12 2f 8e bd 56 15 84 3e 53 49 10 3d
       -0.03569457 -0.06942572 0.25797528 0.035226177
0000a0 3e db 4a 3e be 19 5c 3e 31 1a d3 bf 8b 48 26 3e
       0.19810197 0.21494195 -1.6492368 0.1623861
0000b0 3d c2 4c 3e c3 80 12 bf 56 0c 04 bf c6 fc 33 3d
       0.19995971 -0.57227725 -0.51581323 0.043942235
0000c0 11 a8 fe bd 7a 42 9c be 8b f1 ee be 80 01 a4 be
       -0.124344 -0.30519468 -0.46668658 -0.32032394
0000d0 03 56 01 3f 9d da 42 be cc 70 3e 3e 00 3f df 3e
       0.5052187 -0.19028707 0.18597716 0.43602753
0000e0 4c e3 9b be d3 b1 26 3e c3 92 90 be 8c b5 3e bf
       -0.3044685 0.16278772 -0.2823697 -0.7449577
0000f0 a2 a1 07 bf 9a 40 1f be c4 60 a6 3e 12 38 44 bf
       -0.5298101 -0.15551987 0.324957 -0.76648057
000100 85 4f 59 be da d3 29 bf 23 34 a3 be 25 39 69 bd
       -0.2122174 -0.66338885 -0.31875715 -0.056939263
000110 d8 0c 46 be b5 c3 c3 bd 72 54 8d be d0 1c 91 be
       -0.19340837 -0.095588125 -0.2760349 -0.28342295
000120 13 3d d9 be 13 81 d8 bd 40 07 85 be cd 61 c0 3d
       -0.42429408 -0.10571494 -0.25982094 0.09393654
000130 23 c7 74 3c 8f 20 5f be 53 ee ea be c1 5e 85 3d
       0.014940056 -0.21789764 -0.45884952 0.065122135
000140 52 af 96 bd 5b f4 2c 3e a7 6e 38 bf 78 12 1b bf
       -0.073576584 0.16890089 -0.7204384 -0.60575056
000150 d2 ee 42 be e9 f3 34 3d 20 c9 66 3d d3 90 25 3e
       -0.19036415 0.044177923 0.05634415 0.16168527
000160 47 a2 6e 3e cd 16 5c 3e 92 67 86 bf 2a 98 19 bf
       0.23304091 0.21493073 -1.0500357 -0.5999781
000170 7c 4f 16 be 3a 37 11 bb e7 ba f8 be 1a 97 63 3e
       -0.14678758 -0.0022158162 -0.48580095 0.2222561
000180 84 0c a6 bc 93 e8 3e 3f 5d 01 11 3f 52 b0 50 be
       -0.02026964 0.7457363 0.56642705 -0.20379761
000190 90 55 d3 3e f6 23 05 be 85 cb fa be 69 cc 31 3e
       0.41276217 -0.13002 -0.48983398 0.17363133
0001a0 bf b7 31 3f c5 31 79 be 6b 0c d3 3e 45 58 b6 be
       0.69421 -0.24335392 0.41220412 -0.3561422
0001b0 86 3c cf 3b d2 2c 13 3f 26 7b 1b 3f 5b 7f c5 3e
       0.0063243536 0.57490265 0.60734785 0.38573727
0001c0 d8 20 2e 3d 57 67 07 3f fe 13 96 bc 34 22 b3 3c
       0.04251179 0.5289206 -0.01832008 0.021866895
0001d0 22 f0 a3 be ae a7 ad bd fd 7a 30 be 51 91 bc bd
       -0.32019144 -0.08479248 -0.17234416 -0.092074044
0001e0 66 3c fa 3e 25 09 de 3c 24 7c 95 be 89 e1 cd bd
       0.48874205 0.02710397 -0.29196274 -0.10052783
0001f0 9c c9 a5 3e f0 45 08 be 34 2c 47 bf 54 6d 0e 3f
       0.32380378 -0.13307929 -0.77801824 0.5563557

block1.0.bn1.weight f4 [8]
000000 06 35 60 3f ce 93 25 3f 51 c7 80 3f 5f 0d 3f 3f
       0.8758091 0.6467866 1.0060827 0.7462978
000010 73 c2 6e be 2f 2a 89 3f 6a dd 8f 3f 24 50 2a 3f
       -0.23316364 1.0715998 1.1239445 0.66528535

block1.0.bn1.bias f4 [8]
000000 9e 85 07 bf 2a 39 9d be ac da ad 3e 37 b9 82 3e
       -0.5293826 -0.30707675 0.33955896 0.25531933
000010 4e 90 36 3f 6c 22 c4 be 93 f9 d8 be 83 54 0d 3e
       0.7131394 -0.38307512 -0.4237791 0.1380177

block1.0.bn1.running_mean f4 [8]
000000 c3 49 49 40 e0 5f 5f c0 2c f7 88 c0 f6 70 d4 c0
       3.145127 -3.4902267 -4.2801723 -6.638789
000010 aa 57 75 c0 c0 68 c2 c0 9e 82 29 40 00 f2 8d be
       -3.8334756 -6.075287 2.6485972 -0.27723694

block1.0.bn1.running_var f4 [8]
000000 be 0d f7 40 49 2b e9 40 04 3e 5b 41 e9 3a 6c 41
       7.7204275 7.286534 13.702641 14.764382
000010 b5 1a 67 40 98 28 3d 41 32 d7 6d 41 90 04 cb 40
       3.611005 11.822411 14.865038 6.344307

block1.0.conv2.weight f4 [8, 8, 3, 3]
000000 cf 9a 25 3e 40 81 c8 3d dc 32 16 be a2 2d 6b 3d
       0.16172336 0.097902775 -0.14667839 0.057416566
000010 09 5a d9 3c 65 61 5f be 6d db 70 3d 51 04 1e 3e
       0.02653219 -0.21814497 0.05880301 0.15431334
000020 e1 cc 39 3d fe 09 52 3e 6f bb 9b 3e 1f 68 18 3e
       0.045361403 0.20511624 0.30416438 0.14883469
000030 c3 30 98 3e 17 df e7 3e c7 82 13 3d 29 05 f5 bd
       0.29724702 0.45287392 0.03601339 -0.11963875
000040 e1 c4 5e be 24 9c 86 3d c2 b7 da 3b a2 37 36 be
       -0.21754791 0.0657275 0.0066747377 -0.1779466
000050 8e 09 9f be 98 aa 64 bd 88 52 e4 bc 98 aa bb be
       -0.31061977 -0.055826753 -0.027871385 -0.3665359
000060 8c 81 3f 3d 91 b3 2a bd 74 75 28 3e 4e 5a 00 3e
       0.046754405 -0.041675154 0.16451055 0.12534449
000070 8a e6 79 3e a0 23 84 be 7f 1f cf 3e b2 3b 4e 3f
       0.2440435 -0.2580843 0.40453717 0.8055984
000080 10 2e 98 3e 31 c1 89 be cd 40 22 3e 19 d9 47 be
       0.29722643 -0.26905206 0.15845032 -0.1951641
000090 7c d0 96 bd bd 44 ee 3d 73 31 92 3d 4b be 92 3c
       -0.07363984 0.116342045 0.07138338 0.017913004
0000a0 fb 0d 5d 3d 67 cc bb bc 74 61 47 be e1 64 9c be
       0.05396841 -0.022924615 -0.19470769 -0.30545714
0000b0 3e 4d c6 3c 6b 6b 18 3d 44 97 d1 bd 20 bf 04 be
       0.024206754 0.037211817 -0.1023393 -0.12963533
0000c0 a5 fa 3e 3d f3 8a eb 3e 63 24 99 3e 6a 0f 2e be
       0.046625752 0.46004447 0.29910573 -0.16998067
0000d0 ae 3d aa 3e 51 49 21 3e f9 e3 0f be ad c0 7c 3d
       0.33250183 0.15750624 -0.14051808 0.061707187
0000e0 9a 67 df 3b 7d f0 97 3d 2b 6a 02 3c 65 30 18 be
       0.00681777 0.074189164 0.007959883 -0.14862211
0000f0 e1 f0 87 3e 49 be bc 3e df ea 00 3d 75 a0 35 bc
       0.26550964 0.36863926 0.03147399 -0.011085619
000100 6f 49 c2 bd 04 00 8b 3e 68 e8 f0 be 20 d2 26 be
       -0.094866626 0.2714845 -0.47052312 -0.16291094
000110 18 45 86 bd 8f 52 87 bd 70 ed 7e 3e 9b 4e 95 3e
       -0.06556147 -0.06607544 0.24895263 0.29161534
000120 3a 38 30 be 0a 2c bd 3d 90 95 22 3e df 0a f4 bd
       -0.17208949 0.092369154 0.15877366 -0.11916136
000130 40 1b 2f be a3 65 22 bd 14 b3 c5 bd 2f 7a 1c 3c
       -0.17100239 -0.03964771 -0.09653297 0.009550615
000140 25 15 40 be 8c 7b eb 3d a3 82 47 3e d3 0a 98 bd
       -0.18758066 0.11498174 0.19483428 -0.074239396
000150 42 1f 1e be af 5e c8 be 3c 70 5d be 8e b1 59 bd
       -0.15441611 -0.39134738 -0.21624845 -0.053147845
000160 16 fc 3d bd 41 c0 6e 3d e6 85 2f 3d 57 50 92 3e
       -0.046382986 0.058288816 0.042852305 0.2857692
000170 39 3f b4 bb b0 61 ca be 21 88 79 bf f4 79 c8 bd
       -0.005500701 -0.39527655 -0.9747334 -0.09788886
000180 45 2d ac 3e aa 98 9e 3e 97 f4 66 3e 0b 95 c6 3c
       0.33628288 0.30975848 0.22554241 0.024240991
000190 36 4a 03 bd ef 7e 52 3e f5 36 e8 bc 11 b5 b1 be
       -0.032053195 0.20556234 -0.028346518 -0.34708455
0001a0 a5 d3 b0 3e 74 5a 84 3e c7 be a4 3e bb 12 db 3d
       0.34536472 0.2585026 0.32176802 0.10696932
0001b0 5a ba 38 3d 3d 8f f3 3c 5b cf 09 3e 6c 60 45 ba
       0.045099594 0.029731387 0.13458006 -0.00075293216
0001c0 83 af a7 3a de 78 f4 bb c9 c5 8b 3d 40 b0 a1 bb
       0.0012793395 -0.0074606976 0.06824834 -0.0049343407
0001d0 b8 c7 97 3d 83 ee 91 3e db eb 97 3e f5 36 07 be
       0.0741114 0.28502283 0.2967213 -0.13204558
0001e0 c6 29 c3 be 15 43 19 3e ac 31 23 3e 99 f8 9e 3d
       -0.38117808 0.14966996 0.15936917 0.0776226
0001f0 50 96 93 bc d8 0d e0 bd 9b 31 89 be 84 92 09 3c
       -0.01801601 -0.109401405 -0.26795658 0.008396748
000200 d9 e6 24 bd 12 d4 4f bb a0 ec ea 3d 90 38 45 3d
       -0.040259216 -0.0031712097 0.11470914 0.048149645
000210 15 a6 83 bd 96 55 22 be 6c 3f 10 bd e5 6c 2d bd
       -0.06428162 -0.15852961 -0.035216734 -0.042340178
000220 b9 dd f0 ba d3 d8 ee bd 82 02 4b 3e 7b 00 07 3f
       -0.0018376625 -0.1166245 0.19825175 0.5273511
000230 36 5f ab 3e 09 b5 98 3d d6 e4 6a bd 1e cf 35 be
       0.33471078 0.07456405 -0.05734714 -0.1775479
000240 3c 6f 6e 3e da b1 37 3e 48 eb 93 3e 92 1c 9c 3d
       0.2328462 0.17938939 0.28890443 0.07622637
000250 b5 20 b3 3d 48 50 f1 bd 34 3f 29 3c 9c 0b 8c 3d
       0.08746473 -0.117828906 0.01033001 0.06838152
000260 c5 62 9d bd 65 58 46 3e 2f 32 03 3e 7f 78 34 3e
       -0.076848544 0.19369657 0.12812112 0.1762409
000270 14 2b a4 3d c5 6d 73 3d 64 69 bd b9 39 52 b8 3a
       0.08016029 0.059430856 -0.0003612741 0.001406259
000280 41 20 87 bd 0b 4b 19 bd f6 37 c1 3d a7 34 c0 bd
       -0.06597949 -0.037425082 0.09434502 -0.09385043
000290 1c b4 3c be 8a 52 20 3d 1f f9 31 be c1 34 d7 bd
       -0.18428081 0.039141215 -0.17380188 -0.10508109
0002a0 91 21 09 be 11 0f ad 3d a6 90 c5 bc a2 e5 98 3d
       -0.13391711 0.08450139 -0.024116825 0.07465674
0002b0 65 2b 67 3d 56 01 d8 bd 96 70 e5 3d 71 b2 7e 3e
       0.05643787 -0.1054713 0.11203115 0.24872757
0002c0 10 94 73 3d 1a 4e 5e 3e 6d 17 d1 3e bb 22 1b 3d
       0.059467375 0.21709481 0.40838185 0.03787492
0002d0 0c 21 34 be a2 4a 08 be 8d 83 e3 bd ba 21 31 3d
       -0.17590731 -0.1330972 -0.11109076 0.043245055
0002e0 a0 01 a4 bc ef 0c 42 be dd dc 50 bd b1 6f a1 3d
       -0.020020306 -0.18950246 -0.05099188 0.078826316
0002f0 71 ea 10 be c3 16 67 3e 38 01 88 3d 4c 88 6c 3d
       -0.14151932 0.22567277 0.066408575 0.05774717
000300 85 63 35 3e 7c 92 6f 3d ef da fe 3c 54 64 31 3e
       0.17713745 0.058489308 0.031110255 0.17323428
000310 33 62 d0 3d 1c a7 e9 bc 46 22 53 3b 54 1b 16 3d
       0.1017498 -0.028522067 0.0032216473 0.036647156
000320 9a 69 a9 3d 76 3b 97 3a a7 36 3e 3e 07 2e 95 3e
       0.08272095 0.0011538106 0.18575536 0.2913668
000330 cc 7c a3 3d 2c 18 1a be 0a 39 de bb 0f 28 0b 3e
       0.079827875 -0.15048283 -0.006781702 0.135895
000340 cc ab 0c be db 73 27 be 83 0c 67 3e b6 5b d6 3c
       -0.1373741 -0.16352789 0.22563367 0.026166778
000350 b6 46 94 bd b1 2b f7 3d 38 0b 50 ba 94 e7 69 be
       -0.072400495 0.1206888 -0.0007936242 -0.22842246
000360 3d 3a af bc 45 1f 3f 3d 54 83 d6 be 6e e8 92 3e
       -0.021390075 0.04666068 -0.4189707 0.28692955
000370 68 54 c7 3e 1a 15 14 be be 01 a7 3e 5d da 47 3e
       0.38931584 -0.14461175 0.32618517 0.19516893
000380 83 5e ea 3d 6f 63 9a 3d 33 c7 84 3c b0 d6 99 be
       0.11443808 0.07538497 0.016208267 -0.30046606
000390 de 44 d1 3d c1 aa 15 3e 67 98 3a be 8c e0 e6 3d
       0.102182135 0.14615919 -0.182222 0.11273298
0003a0 bd 7f 58 bd 23 45 75 3d 84 4a 24 be 1a 1b 6d 3f
       -0.052856196 0.059880387 -0.1604405 0.9261948
0003b0 83 2a a7 3e e5 d4 a0 bd de 3e 00 bf 5f af e8 3c
       0.3264962 -0.078531064 -0.5009593 0.028403936
0003c0 4c 6f 2a bc 02 19 8c bd 8c 84 65 3e 1d 20 91 3e
       -0.010402512 -0.06840707 0.22413844 0.28344813
0003d0 c4 08 2d 3f 17 17 cd 3e 22 bd 11 3e c3 10 73 bf
       0.675915 0.4005668 0.14232305 -0.9494745
0003e0 5b c7 1e 3c 95 61 4e 3e 24 ea f2 be 3a c1 c1 3d
       0.009691085 0.20154412 -0.4744426 0.09460683
0003f0 89 77 12 be f2 45 43 be c4 62 f1 bd 81 ff bb bd
       -0.14303412 -0.19069651 -0.11786416 -0.09179593

block1.0.bn2.weight f4 [8]
000000 89 d3 0e 3f dc b6 09 3f fa 37 02 3d 20 0b 2c 3f
       0.5579153 0.53794646 0.031791665 0.67204475
000010 21 af 46 3d 24 39 9d 3f 89 02 ea 3c 3a 0e e4 3e
       0.04850686 1.2283063 0.028565662 0.44542104

block1.0.bn2.bias f4 [8]
000000 f9 c6 5a 3e 82 1f a1 3d 31 24 8d be 3d ee 95 3f
       0.21364965 0.07867338 -0.27566674 1.171333
000010 88 32 94 be 37 af ca 3e b8 da 62 be 39 33 41 3f
       -0.28944802 0.39586803 -0.22153747 0.75468785

block1.0.bn2.running_mean f4 [8]
000000 d8 a8 b6 3e e4 ca f0 3e 7e 3f 1d 3e 6f 70 d7 3f
       0.35675693 0.47029793 0.15356252 1.6831187
000010 0b c2 97 3d 60 d5 e9 3e ad 34 8b 3f e1 c0 e6 bf
       0.07410058 0.45670605 1.087545 -1.8027612

block1.0.bn2.running_var f4 [8]
000000 81 ff e6 3e 28 ac ce 3e 68 1b 9c 3e 32 bb 2e 40
       0.4511681 0.4036572 0.3048966 2.7301755
000010 5b 6f 04 3f a1 b0 80 40 95 e2 5b 3f e7 73 04 40
       0.51732415 4.021561 0.8589261 2.069574

block1.0.conv3.weight f4 [16, 8, 1, 1]
000000 cb 8b ad be c6 8f 99 3d 09 aa c1 bc 41 57 f8 3c
       -0.33895716 0.07498126 -0.02364065 0.030315043
000010 3e 21 15 3e c7 67 0d bf bb e5 21 be 3d 9a 19 bd
       0.14563462 -0.55236477 -0.15810291 -0.03750061
000020 55 76 0e 3e 00 ea 6d 3d 8e f8 38 3e b9 82 d0 3e
       0.13912328 0.058084488 0.18063566 0.40724733
000030 67 3a f4 bc e6 33 02 3f db b8 45 3e 15 89 d5 be
       -0.029813005 0.5086044 0.19308798 -0.41706148
000040 14 48 f0 bd a9 25 71 bd 3c 2e 6d be 2a 78 9d be
       -0.11732498 -0.058873806 -0.23162168 -0.3075574
000050 cc fa 91 3d c6 a3 dc be 9a b7 ea 3d 61 90 3e be
       0.07127914 -0.430937 0.114608005 -0.18609764
000060 ae f8 14 be e7 35 51 3d 5d d6 2c bc ed 29 b5 3e
       -0.14547989 0.051076796 -0.010549155 0.3538355
000070 40 b3 66 3d bd 29 9a 3d 64 4c b0 3d f5 36 e9 3d
       0.05632329 0.07527492 0.0860832 0.11387435
000080 eb 71 bd bc 36 07 d1 bd c9 c4 9e be 05 3c 08 3f
       -0.02312561 -0.102064535 -0.3100951 0.5321658
000090 85 2a 29 be 41 91 0d be 6e 63 96 3c d3 8e 00 3e
       -0.16520126 -0.13824941 0.018357959 0.12554483
0000a0 94 8e 05 be 76 6c 8a be ce aa 25 bd 31 9d a4 bc
       -0.1304267 -0.27035874 -0.040446095 -0.020094486
0000b0 c0 fa 1d 3d 32 30 1c 3f 4a d2 55 be 9a ca 34 3e
       0.038569212 0.6101104 -0.20881 0.17655411
0000c0 d6 ce e0 3d 11 53 a3 be c4 b8 46 3e f2 fc 9b bf
       0.10976951 -0.31899312 0.1940642 -1.2186568
0000d0 24 ec 08 3e 76 63 72 3d c4 8b 3a 3e a8 47 72 be
       0.1337133 0.059176885 0.18217379 -0.23660147
0000e0 60 a0 c1 be b6 8c cb be 9a 44 25 3d bc b0 85 be
       -0.3781767 -0.3975579 0.040348627 -0.261114
0000f0 ee 6f 01 3e 30 cc 97 3c fe 30 40 be 89 45 88 be
       0.12640354 0.018529981 -0.18768689 -0.2661555
000100 0c 57 b4 bc f1 8f 06 3e 13 ca 19 be 8c 48 15 3e
       -0.022014163 0.13140847 -0.15018491 0.14578456
000110 14 26 ae 3d ce da a0 3e 58 c5 49 be e2 c9 03 3e
       0.085033566 0.31416935 -0.19704187 0.12869981
000120 0e ed 29 3f 4c b7 13 be 23 26 54 3e 44 c2 16 bd
       0.6637734 -0.14425391 0.20717673 -0.03680636
000130 28 00 c4 bd e6 cd f1 be 63 ed ad bd cb 01 b7 be
       -0.09570342 -0.472274 -0.084925435 -0.35743555
000140 2b 7b aa 3c c0 eb 2e 3f 6a 36 66 3e 75 3f 1c be
       0.020810684 0.68328476 0.22481695 -0.15258582
000150 dc 2b 67 3e 4e f8 8b be ce a2 38 be cb 23 2d 3f
       0.22575325 -0.2733788 -0.18030855 0.6763274
000160 43 c3 00 bf a9 c7 83 be 5e 7c ea bd 4e 69 14 3d
       -0.50297946 -0.25738266 -0.114495024 0.03623324
000170 43 8a 85 bd aa 75 2d bf 06 a3 dc bb 65 d1 89 3e
       -0.06520512 -0.67757666 -0.006733301 0.26917568
000180 45 b0 e9 bd 04 c3 02 3e 23 7d ac bd 3d cf 8b be
       -0.11410574 0.12769705 -0.084223054 -0.27306548
000190 5e 82 66 3b 45 b2 22 bf 37 72 3f 3c 55 a9 9a 3d
       0.003517292 -0.6355327 0.011684946 0.07551829
0001a0 86 ea 1f 3f 4c ed b7 be 1f f5 56 3e a9 e0 09 bf
       0.6246723 -0.3592323 0.20991944 -0.5385843
0001b0 9c 4f 21 3e 82 82 c8 3d 83 47 fb 3d b0 c0 6a 3e
       0.15753025 0.097905174 0.12269499 0.22925067
0001c0 16 06 26 3d 72 cc d7 3d af b7 43 3d 94 85 ed be
       0.040533148 0.10537042 0.047782596 -0.46390975
0001d0 e2 6a 01 3e b5 5a 41 be 7c 92 c2 3d c3 40 3d 3e
       0.12638429 -0.18882258 0.09500596 0.18481736
0001e0 ad 61 54 be ac 10 2c 3e fa f5 58 bc a3 fa 0e bf
       -0.20740385 0.16803235 -0.013242239 -0.5585119
0001f0 84 5a 89 3e 02 5d 46 bf 7b ec 60 3d a3 7b 1d bf
       0.2682687 -0.7748567 0.054913025 -0.6151678

block1.0.bn3.weight f4 [16]
000000 15 f5 4e 3d 18 fc cc 3f 83 85 a6 3e 9a 9a c8 3d
       0.050526697 1.6014433 0.32523736 0.09795113
000010 78 65 d6 3e 0d c2 42 be 00 27 81 3f 20 89 a8 3d
       0.4187429 -0.19019337 1.0090027 0.082292795
000020 80 10 be 3e f2 9e 07 3f 9a 1e 01 3f 03 12 ba 3e
       0.37121964 0.52976906 0.5043732 0.36341867
000030 3f e3 0d 3f bb c9 34 3f 41 13 8c 3d 4c 20 8a 3f
       0.55424875 0.70620316 0.0683961 1.0791106

block1.0.bn3.bias f4 [16]
000000 6e 61 9b 3d 81 32 9c be dd ba 07 be 71 e4 3e be
       0.075869426 -0.3050728 -0.13254876 -0.18641831
000010 75 89 7a bd a3 48 a0 3c d1 61 2f 3f 83 00 6f be
       -0.061166245 0.019565886 0.6850863 -0.23340039
000020 4a 6f 15 bf e7 89 bc 3e 36 f2 65 3e 0f 19 80 bd
       -0.5837294 0.3682396 0.22455677 -0.062547795
000030 f3 f6 0e 3e 35 84 db bd dd 92 9c 3d 6f 37 1d bd
       0.13961391 -0.10718576 0.076451994 -0.038382944

block1.0.bn3.running_mean f4 [16]
000000 7f 5a cd be 74 2e 01 3f ce 7d 4d bf e3 74 01 3f
       -0.40108106 0.50461507 -0.8027009 0.5056898
000010 a4 f1 1c 3f 55 ec b1 3e 1b 56 ce bf e9 b4 3d bf
       0.61306214 0.3475062 -1.6120027 -0.7410417
000020 98 89 f2 3e 97 85 c4 be f5 7a da 3e 7b f8 b5 be
       0.473706 -0.3838317 0.42671934 -0.35541138
000030 91 79 22 bf dd 45 87 be e2 c3 eb be 6e e3 ca bf
       -0.63466746 -0.2642049 -0.46047884 -1.5850656

block1.0.bn3.running_var f4 [16]
000000 df 40 c5 3e 9e 46 3b 3f 30 41 d0 3e d4 9f cb 3d
       0.38526055 0.7315463 0.40674734 0.09942594
000010 c7 7f a0 3d 86 0d e9 3e 5d 28 1f 3f 3e cf 8d 3d
       0.078368716 0.4551813 0.62170964 0.06924294
000020 ac 93 38 3e 43 08 b4 3e 01 68 95 3e 2e 67 24 3f
       0.18025082 0.35162553 0.2918091 0.6421994
000030 54 8b 40 3f 10 07 5c 3e 57 eb 85 3e a5 79 a7 3f
       0.752126 0.21487069 0.26156113 1.3083998

block1.1.conv1.weight f4 [8, 16, 1, 1]
000000 0e d7 88 3e 44 15 a7 3e fb 65 90 3b ff bb 0e be
       0.26726574 0.32633412 0.0044066883 -0.13938902
000010 cc 4f d3 3e e8 53 db 3e ec 47 00 3f 93 74 82 bd
       0.41271818 0.42837453 0.50109744 -0.06369891
000020 b4 ad 94 3d 07 62 14 be 2a 84 38 bf e8 42 df be
       0.07259694 -0.1449052 -0.72076666 -0.43605733
000030 09 bb 1e bc b8 59 94 be f3 2d ae 3e c5 21 12 3e
       -0.009688147 -0.289747 0.3401943 0.14270695
000040 f7 46 62 bf 4d f4 d9 3d 6d 9c a3 be bd f5 ca 3e
       -0.88389534 0.106423 -0.3195528 0.39640608
000050 3a a9 a6 3b 9e 8e 10 40 56 15 96 3e 00 25 f2 3b
       0.0050860913 2.2587047 0.29313153 0.0073896646
000060 1e 39 55 3e 9c cc 74 3e 98 4d 11 be 85 d2 18 3e
       0.2082257 0.23906177 -0.14189756 0.14924057
000070 af f9 a3 3d 7a c9 95 bb 71 20 df be 16 c9 b9 3e
       0.08006608 -0.004571137 -0.43579438 0.3628623
000080 88 c1 38 3d 05 cb 95 3e 7c 5f 13 3e 55 38 49 3f
       0.04510644 0.29256454 0.14391893 0.7860158
000090 3a 73 55 3e a6 4f 00 3f 63 86 d2 bd 0e f7 f8 bd
       0.20844737 0.50121534 -0.102795385 -0.12156497
0000a0 33 bc 93 3d cb c3 99 3e 88 dc de be 30 29 3f be
       0.072136305 0.3003219 -0.43527627 -0.18668056
0000b0 ea c7 58 be 6e de cd bd f9 36 b2 3b f8 46 1a be
       -0.21170011 -0.10052191 0.005438682 -0.15066135
0000c0 0d 76 c8 bd 90 22 04 bf 7c 18 89 3d f2 b8 1f bf
       -0.097881414 -0.5161524 0.06694123 -0.6239158
0000d0 c3 d8 48 be f4 9b b8 bf 06 54 b7 bd 53 69 c2 bd
       -0.19613938 -1.4422593 -0.08951573 -0.09492745
0000e0 f6 91 06 be dc e6 29 be fc bb 2e 3e d1 f2 5e 3e
       -0.13141617 -0.16591972 0.17063898 0.21772315
0000f0 85 de 7e be d3 e8 41 be 7d 61 0d bf 67 d3 9d 3e
       -0.24889572 -0.18936472 -0.5522688 0.3082535
000100 06 5e c9 3f bc 6f c0 bd 93 21 4c be 7c 43 4d 3e
       1.5731819 -0.09396312 -0.19934683 0.20045274
000110 f1 02 74 be e6 96 67 3d c1 7a ee 3e 43 6e 4a bc
       -0.23829247 0.056540392 0.4657803 -0.01235539
000120 b9 fc 4e 3e 1d 7d e2 3d 40 d4 9a be 33 e3 16 3e
       0.20213594 0.1105902 -0.3024006 0.14735107
000130 26 45 e1 bd d2 5d 9c 3e e3 13 81 3a 3c 8e d2 be
       -0.10999517 0.3054033 0.0009847846 -0.4112414
000140 00 a4 84 bc 75 0b a7 3e a5 67 84 3e 71 94 46 be
       -0.016191483 0.3262593 0.25860325 -0.19392563
000150 6c 0b 61 3e 79 86 93 be b8 41 f1 3e 0d e2 cc 3e
       0.21977013 -0.28813532 0.47120452 0.40016213
000160 b7 6b f6 3d 7b 0e b8 3d 2e 5a 16 3e c3 c8 ec be
       0.12032264 0.08987137 0.14682838 -0.4624692
000170 19 6a 38 be e5 e1 cd 3e 25 ec de 3d 06 0d 5f 3e
       -0.18009223 0.40211406 0.10884885 0.21782312
000180 f7 af ab 3d 1a a0 28 3f 83 1f ce bd 46 bb ea 3d
       0.08383172 0.65869296 -0.10064604 0.11461501
000190 f2 6f 5e 3e e6 c4 92 3e dc e3 e6 3e 17 fc cd bc
       0.21722391 0.28665847 0.45095718 -0.02514462
0001a0 5e f4 c9 3e 5f e6 ae 3c 9b 95 73 3f 8a 55 ac bd
       0.3944425 0.021350084 0.95150155 -0.08414753
0001b0 46 57 31 be b9 ee ba 3d eb 75 6d 3e 8f 7a de bd
       -0.17318448 0.09127564 0.23189513 -0.1086322
0001c0 63 11 06 c0 9a e9 9f be fb db d3 3c e4 0c bc be
       -2.0948112 -0.3123291 0.02586173 -0.36728585
0001d0 97 87 ce bd 13 6e ba bf e0 c8 2f 3e 3b 33 45 be
       -0.100844555 -1.4564842 0.17166471 -0.19257824
0001e0 fc 3e 73 be c1 13 95 bd 23 a6 86 3e aa d9 eb bd
       -0.23754495 -0.072791584 0.26298627 -0.115161255
0001f0 fa 1e 5d be 94 b2 2a 3c 34 6a 63 3e c6 d0 c9 3e
       -0.21593848 0.010418553 0.22208482 0.39417094

block1.1.bn1.weight f4 [8]
000000 81 f3 3f 3d 3f d8 4b 3f 1a e4 d9 3e 74 fe 41 3f
       0.046863083 0.7962684 0.4255684 0.7577889
000010 de f1 10 3f 05 dc 2d 3c 9e 84 90 3f 7b 39 64 3f
       0.5661906 0.010611539 1.1290472 0.8915021

block1.1.bn1.bias f4 [8]
000000 8f f2 48 be 60 55 ba 3f 9b a9 b4 bd 88 b2 0e 3f
       -0.19623779 1.4557304 -0.08821412 0.5574117
000010 5b d6 8c 3f 01 17 2c bd f7 de 61 bf 64 35 8a 3e
       1.1002916 -0.042014126 -0.8823084 0.2699386

block1.1.bn1.running_mean f4 [8]
000000 95 39 ec 3f 16 3c 41 40 a8 2d 27 3d cd 75 a3 c0
       1.8455073 3.0192924 0.040815026 -5.10813
000010 7a a8 ab 40 5a aa 8f 3f 64 86 97 40 55 85 23 c1
       5.364316 1.1223862 4.735155 -10.220052

block1.1.bn1.running_var f4 [8]
000000 97 5e bf 40 f7 e8 b0 41 4d b9 18 40 a6 3f 22 41
       5.9802966 22.113752 2.3863099 10.140539
000010 5d fc 05 41 f1 8b 1d 40 74 07 af 40 bb 5a 42 41
       8.374112 2.4616663 5.46966 12.147151

block1.1.conv2.weight f4 [8, 8, 3, 3]
000000 15 96 8e be c8 5d 21 be e8 9c 4d be f2 94 1f 3c
       -0.27848879 -0.15758431 -0.20079386 0.009740101
000010 0e 9f 81 bc 37 80 3f be 7c a0 76 3d 82 ac e0 bd
       -0.015822913 -0.18701254 0.060211644 -0.10970403
000020 18 72 1c be 44 aa 14 bd 42 d0 41 be be 15 7d 3e
       -0.15277898 -0.03629519 -0.189271 0.24715325
000030 f0 72 44 3e dd a9 d6 3d d9 02 9a be 58 49 88 3c
       0.1918447 0.104816176 -0.30080298 0.016636536
000040 ca dd ec 3d e2 67 7f 3c 61 df 51 3e cb d5 21 bd
       0.115657404 0.015588732 0.20495369 -0.03951053
000050 c7 51 ec bc a8 98 74 3c 90 3b 71 be 64 7c 19 be
       -0.028847588 0.014928974 -0.23557878 -0.14988858
000060 58 ad 9a bd eb ec 98 bd d4 54 80 3c 48 8f e9 bd
       -0.07552594 -0.074670635 0.01566545 -0.11404282
000070 86 94 fc 3e e7 87 1a be e6 62 b1 3e 87 67 4a 3f
       0.49332064 -0.15090905 0.34645766 0.7906422
000080 64 f7 5a 3e 46 23 71 bc 79 53 3c be 55 eb 96 bd
       0.21383435 -0.0147178825 -0.18391217 -0.07369105
000090 d8 e5 cf bc c8 79 ee be bc 1f 42 be 4b 7c 91 3e
       -0.025378153 -0.46577287 -0.18957418 0.2841514
0000a0 ef 6f 25 bf 8d 26 1a 3e a5 4d ae 3e df 79 10 bc
       -0.6462392 0.15053768 0.34043613 -0.008818119
0000b0 de 00 ab 3e d5 03 f5 bd 2c 32 28 be 67 68 4c 3c
       0.333991 -0.119636215 -0.16425389 0.012476063
0000c0 72 65 42 3c 6a 96 dd bc 66 29 07 3d 3b c6 35 3b
       0.011865007 -0.027049262 0.032998465 0.0027736563
0000d0 d4 09 2a be 9e 52 03 bd 6f 62 8d 3e d6 8c 5d 3e
       -0.16605312 -0.03206121 0.2761416 0.21635756
0000e0 72 cb 1f 3e b6 8b 17 3f cd c9 17 3f 58 13 d6 3e
       0.15604952 0.59197557 0.592923 0.41811633
0000f0 44 07 96 3e a1 b8 c0 3e 06 c4 b3 bb d0 8e b7 3d
       0.29302418 0.3764086 -0.0054860143 0.08962786
000100 8c 99 b5 3f 1b f4 5d bf ab df cc 3e f9 f8 ef 3f
       1.4187484 -0.867006 0.40014395 1.8747855
000110 b4 16 24 bd d7 8a 22 bf 9d 44 80 bf ae e3 ef be
       -0.040060714 -0.634931 -1.0020939 -0.46853393
000120 ee 80 2d be c2 32 1d be d6 73 02 3d fb 1c ff bc
       -0.16943714 -0.15351394 0.03184875 -0.031141749
000130 b7 f2 1a be 12 30 01 be 7c 79 71 bc 2c eb 90 bd
       -0.15131651 -0.12615994 -0.014738437 -0.070761055
000140 75 88 c8 bc 8d b6 cf bd f7 82 d6 bd c3 2a e9 bd
       -0.02447913 -0.10142241 -0.10474198 -0.11385109
000150 73 6a 1c bd c6 ec 34 bd 5b 4f 98 bd 82 bd 91 bc
       -0.038187455 -0.044171117 -0.07437011 -0.01779056
000160 96 3b 94 3c 96 e6 94 3c 96 0a 32 be f6 2e 2b be
       0.018094819 0.018176358 -0.1738685 -0.16717133
000170 00 66 a7 bd a5 dd 88 bd 32 f1 1a be da 8e 2f be
       -0.08173752 -0.066829 -0.15131071 -0.17144337
000180 d8 b0 b1 3d ff 84 e9 3c ea 42 9a 3c 65 b2 ae 3d
       0.086763084 0.0285058 0.018830735 0.0853012
000190 e2 41 b9 bc b2 a0 43 bb b6 17 31 3e de e7 a7 3d
       -0.022614423 -0.002985042 0.17294201 0.08198522
0001a0 c2 0e 8a 3d cd fd c9 3d c3 eb 7c 3d d8 b0 b4 3d
       0.06741096 0.09862862 0.061748277 0.08822793
0001b0 cd 32 88 bc 77 12 53 3c 94 ae df bd d3 9f 50 be
       -0.016625786 0.01288282 -0.1092197 -0.20373468
0001c0 fb c5 cd bd 46 a3 fc bd fa 63 fa bc 17 04 1b 3e
       -0.100475274 -0.123358294 -0.03056525 0.15138279
0001d0 5f 9f 89 3e 18 ca 46 bd 7e 39 01 be c2 1d a5 ba
       0.26879403 -0.048532575 -0.12619588 -0.001259737
0001e0 b6 62 3a be 21 e5 18 be f3 ff f0 bc 83 f4 d0 bd
       -0.18201718 -0.14931156 -0.029418921 -0.10202887
0001f0 f9 f3 16 be 3b 72 83 bd ca 6b 01 be 01 bc ae bd
       -0.14741506 -0.06418272 -0.12638775 -0.08531953
000200 8f 41 a1 bc 86 e6 e4 bd 32 23 56 be 40 26 62 bd
       -0.019684581 -0.11176781 -0.20911863 -0.05521226
000210 0e 95 80 bd c8 d7 d2 bd 77 1e 15 3e 7d a3 46 3d
       -0.0627843 -0.10295063 0.14562403 0.04849576
000220 4b eb 2c 3e ca 18 ea 3d 17 8a 34 3e 13 c4 0b 3e
       0.16886632 0.114305094 0.17630802 0.13649015
000230 0d b9 7c 39 89 1f cb 3d f8 23 c3 3d f5 f9 43 3d
       0.0002410153 0.09918124 0.09528345 0.0478458
000240 1e d5 86 bd 21 21 1f 3c 05 9b 80 bc f5 03 74 be
       -0.06583618 0.009712488 -0.01569892 -0.23829634
000250 d2 59 dd bd 33 eb b6 bd 3d f6 25 be 7f 08 56 be
       -0.108081475 -0.089315794 -0.16207214 -0.20901679
000260 35 e8 9e bd 5f a8 91 3c e6 7f 1b 3f e2 ca ba 3e
       -0.07759134 0.01778048 0.6074203 0.36482912
000270 0e 95 20 bf 16 8e e1 bf 45 79 76 be d6 dc 3d 3f
       -0.6272744 -1.7621486 -0.24069698 0.74165094
000280 5a ec 8a be cc fa 01 3e 60 19 59 bd 14 43 70 3d
       -0.27133447 0.12693328 -0.053002715 0.05865772
000290 42 10 9c bd e7 2e 3f be 05 b3 bd be 4d 57 eb bd
       -0.076202884 -0.18670236 -0.37050644 -0.11491261
0002a0 4c 9f 32 bc 76 90 38 bd 07 2b 1e 3e a0 b3 4a 3d
       -0.010902237 -0.045059644 0.15446101 0.04948771
0002b0 bc 3a 15 be 9d a6 88 be 23 df 89 bd ad d0 d4 3e
       -0.14573187 -0.26689616 -0.06732013 0.41565457
0002c0 cb 2c ae be 01 92 de be dd 11 f4 3e dc b3 eb 3d
       -0.3401855 -0.43470767 0.4766988 0.11508915
0002d0 ea 75 0c be 63 fa 11 bf 40 a8 3b be 96 b2 0f be
       -0.13716856 -0.57022685 -0.18325901 -0.14032969
0002e0 60 d0 42 be 56 dc 67 bc 02 f8 80 be 81 07 3e 3e
       -0.19024801 -0.014151653 -0.25189215 0.1855755
0002f0 5c c6 5a 3e 95 f0 cd 3d 3f ca ca bb 07 47 4c bb
       0.2136473 0.10055653 -0.0061886604 -0.0031170265
000300 32 e3 5d 3e 31 06 9c bc 03 c4 21 bc 74 06 31 3d
       0.216687 -0.019045921 -0.009873393 0.043219045
000310 9b 36 68 bd 21 5f 5c 3d e4 47 b8 be 55 cd 22 be
       -0.0566927 0.05380166 -0.35992348 -0.1589864
000320 22 1b 4a be 56 21 3f bf 42 79 05 bf e4 29 c2 be
       -0.19736913 -0.7466024 -0.5213815 -0.37922585
000330 57 94 05 bf f4 42 08 be cb d2 47 be c0 2c 7a be
       -0.52179474 -0.1330679 -0.19514005 -0.24431133
000340 18 16 3e 3f cf c6 38 be f2 9d 1b be 00 2a 66 3f
       0.7425246 -0.1804459 -0.1519697 0.89907837
000350 14 9d 3f 3d 96 c0 ef be 56 09 97 bd 3b 83 f8 be
       0.04678066 -0.4682662 -0.073748276 -0.4853762
000360 67 a7 81 bd 74 d2 d9 3d c5 9b 23 3d 77 ef af ba
       -0.063307576 0.10635844 0.039943475 -0.0013422807
000370 b9 d6 6d bc a5 e4 bc bd 89 8d 56 bc 2a a4 c1 ba
       -0.014516526 -0.09223298 -0.013095268 -0.0014773656
000380 54 47 18 3e a7 b9 41 3e 00 e4 e2 bd 90 96 85 bc
       0.1487096 0.18918477 -0.11078644 -0.016307145
000390 1f c9 ca 3c 40 0e aa 3e 24 a7 e5 bd df 3d 9d be
       0.024754105 0.33213997 -0.1121352 -0.30711266
0003a0 6d 5f 25 bd 1b 1b 88 be 50 f4 46 be c4 40 46 be
       -0.04037421 -0.2658318 -0.19429135 -0.19360644
0003b0 3c 01 06 bd 36 e2 05 3e ef 97 5e bd ff 81 af be
       -0.03271602 0.13074574 -0.054344114 -0.34278867
0003c0 73 53 1e 3e 2a 6c 5f bd 0f 04 71 3d 92 75 b7 3b
       0.15461521 -0.054546513 0.05884176 0.0055987323
0003d0 c3 26 58 bd 55 d2 d2 3a ac 66 c7 bc 33 ba 9f be
       -0.05277134 0.0016084412 -0.02434095 -0.31196746
0003e0 20 fe 19 39 c2 3a 85 3d a2 af ac bd 66 e7 01 3e
       0.00014685886 0.06505348 -0.08431937 0.12685928
0003f0 b4 5d d1 3c 1c 3f bb 3e 16 1b 05 3f a8 1a 36 3e
       0.025557376 0.36571586 0.51994455 0.17783606

block1.1.bn2.weight f4 [8]
000000 a6 9c 2f 3f b6 8d 30 3b c4 05 3b 3f 66 0a d5 3e
       0.685984 0.0026939935 0.7305567 0.41609496
000010 7a 18 e5 be 50 88 6e 3d 4d 80 93 3f 7f 6f 1c 3f
       -0.44745237 0.058235466 1.1523529 0.6110763

block1.1.bn2.bias f4 [8]
000000 de 13 85 3f ba ab 29 bd 9f 8f a2 3f e6 dc d3 3e
       1.0396688 -0.041423537 1.270008 0.4137947
000010 7e 39 ba 3e aa 83 46 be 26 8c d6 bd 0f a0 8d 3f
       0.36371988 -0.19386163 -0.1047595 1.1064471

block1.1.bn2.running_mean f4 [8]
000000 dc 79 de 3f 90 1a 4a be 47 5b 57 c0 44 23 b1 3d
       1.7380939 -0.19736695 -3.3649461 0.086493045
000010 cd a3 0d c0 71 d5 2b bf 32 e8 49 bf da 36 62 bf
       -2.2131226 -0.6712256 -0.78869927 -0.88364947

block1.1.bn2.running_var f4 [8]
000000 3f 2d 6c 40 84 6d 69 3f c2 48 4f 40 23 15 d7 3f
       3.6902616 0.9118273 3.2388158 1.6803325
000010 31 7b 1d 40 7e 5f 55 40 68 72 33 40 4b 46 85 40
       2.460644 3.3339534 2.8038578 4.1648307

block1.1.conv3.weight f4 [16, 8, 1, 1]
000000 a6 dc be bd fe fa 71 bb 4a 28 a4 3e fe 03 3d bf
       -0.09319429 -0.0036923285 0.32061988 -0.73834217
000010 5d d1 2e be 94 9a f8 3c e2 a9 ce 3c 27 6c c5 be
       -0.17072053 0.030347146 0.02522749 -0.38559076
000020 43 e5 9d 3d eb 37 d8 bc 60 21 f7 be d6 bf ba be
       0.07709744 -0.026393851 -0.4826765 -0.36474484
000030 67 8c 10 3e c6 f2 ff bd bd 43 9f 3d 8c e4 1e bc
       0.14116059 -0.12497477 0.07776592 -0.0096980445
000040 9e db a5 be 86 b7 9d 3e a1 60 6e be f1 49 0d 3e
       -0.32394117 0.3080408 -0.23279049 0.13797738
000050 77 41 a0 3e 80 ca 9a bd 15 72 78 3f 4c 92 9c 3d
       0.31299946 -0.07558155 0.97049075 0.076450914
000060 91 54 b3 3d 60 db 04 3e 93 f5 b0 be b6 14 3f be
       0.08756364 0.1297431 -0.34562358 -0.18660244
000070 3e 33 55 be e7 99 99 3d aa 4e 0b be c3 dc a4 3d
       -0.20820329 0.07500058 -0.13604227 0.080499195
000080 bb f5 1c 3e 70 e7 73 3e 2e bb 2b bf 2a c3 4f 3e
       0.15328114 0.23818755 -0.6708249 0.20289293
000090 ca 39 8f bd c3 5b c2 bd 05 30 76 bc 8e c4 b9 3f
       -0.06993444 -0.094901584 -0.015026097 1.4513109
0000a0 d9 ed 25 be a1 71 6d 3e fb 7c dc be 2e c0 c0 3e
       -0.16204013 0.23187877 -0.43064103 0.3764662
0000b0 9c 2e 09 bf 8e 1e 74 be 10 d5 dc 3d 27 a6 6a be
       -0.53586745 -0.2383978 0.10782826 -0.22914945
0000c0 de 78 1f bf c6 ca 14 be 12 6c 00 3f 6a 0a fb be
       -0.62293804 -0.14530477 0.501649 -0.49031383
0000d0 8c 02 36 be 1b e0 4d be 34 83 df ba d2 6e fb 3e
       -0.17774409 -0.2010502 -0.0017052651 0.49107987
0000e0 d3 61 33 bf 0c c3 fd bb 85 79 ba 3e 90 74 79 3d
       -0.7007114 -0.0077441987 0.36420837 0.06090218
0000f0 d4 55 2c be b6 f2 0e bd ce ba e6 be 10 49 de 3e
       -0.16829616 -0.034899436 -0.45064396 0.43415117
000100 b6 4d 79 3f e0 9b 05 3e 9a c6 59 3f b4 44 03 bf
       0.973842 0.13047743 0.85068667 -0.5127671
000110 a9 a5 af be ac 89 2f 3e f4 ce 92 be 11 ec b7 3e
       -0.34306076 0.17142361 -0.28673518 0.35922292
000120 ba 7b c8 3d 9e 53 bb 3d c1 67 5d 3f 23 0a 33 3e
       0.09789224 0.09146808 0.8648644 0.17484336
000130 42 ba ef be 32 0e 02 3e ee eb 60 3f ca 87 3f bf
       -0.4682179 0.12700728 0.8786 -0.7481657
000140 1c b6 5c bf 43 7e 0a 3e 9f f0 67 3f 20 fb e3 bd
       -0.86215377 0.13524728 0.90601534 -0.11131883
000150 bb 8a 1c 3d 95 70 85 be f1 fe 2d 3e 8c f0 94 be
       0.03821824 -0.26062456 0.16991784 -0.29089773
000160 bf ba 40 bf dd 7e 18 be 11 10 f6 3e e4 d5 05 3d
       -0.7528495 -0.14892145 0.48059133 0.032674685
000170 98 15 e0 be 7c db 0e 3e e8 db 7c 3e e3 c0 20 bd
       -0.43766475 0.13950914 0.24693263 -0.03924645
000180 83 9a 8d 3e 0b d7 1b bc 37 bf 07 3f 50 44 99 bd
       0.27656946 -0.009511719 0.53026146 -0.07483733
000190 ac 59 71 be ad 82 10 3c 26 86 08 bd 22 03 be 3b
       -0.23569363 0.008820218 -0.03333106 0.0057987133
0001a0 24 73 c6 bd 00 4b d4 bd d8 8b a8 3e 02 62 d1 3e
       -0.0968993 -0.103658676 0.32919192 0.40895087
0001b0 73 aa a9 3a 55 b4 17 be bd b2 58 bf 59 49 01 bf
       0.0012944475 -0.14814885 -0.8464773 -0.50502545
0001c0 70 ee 91 be 68 fd 12 be 96 c9 c1 3e 8e 11 61 3e
       -0.28502226 -0.1435448 0.3784911 0.21979353
0001d0 77 44 84 3d 4d 4c ce 3d 60 67 14 bf 9a 13 d8 be
       0.06458371 0.10073147 -0.5797024 -0.42202455
0001e0 2e 03 55 bf 3f 73 17 3e ea 58 f1 bd 2c 6e 1f bd
       -0.83207977 0.14790057 -0.11784537 -0.038923427
0001f0 95 f4 10 bd 15 13 a7 be d1 f2 ca 3e e7 7e 6d be
       -0.0353895 -0.32631746 0.3963838 -0.2319294

block1.1.bn3.weight f4 [16]
000000 31 5f 4d 3e 6d c4 6c 3e 51 7d 92 3e 89 1c c5 bd
       0.20055844 0.23121805 0.28611234 -0.09624583
000010 a7 27 c6 3f 67 80 11 3f 9f 52 05 3f 5e 48 98 3f
       1.5480851 0.5683655 0.52079195 1.1897085
000020 5a 63 f7 3f 8c b0 a8 3f bd 61 22 3f ce 68 62 3e
       1.9327195 1.3178878 0.63430387 0.22110292
000030 bf fb 86 3d 28 4f 21 3f f8 50 2a 3e c8 ed a4 3e
       0.065909855 0.6301141 0.1663245 0.32212663

block1.1.bn3.bias f4 [16]
000000 72 46 1c be 5c 00 91 be a0 d5 49 bc 6f 5f 5e be
       -0.15261248 -0.28320587 -0.012318999 -0.21716093
000010 98 7a f1 3d ea 06 88 bf 70 e3 ad 3c 74 c2 a0 bc
       0.11790961 -1.062711 0.021226615 -0.019623972
000020 ff 82 02 3e 25 32 e0 3e 6a 39 10 bd 59 67 84 bc
       0.12745284 0.43788257 -0.035211004 -0.016162561
000030 21 7f 0b be 03 56 78 3e 83 a6 b0 bb 35 fc ff 3d
       -0.13622715 0.24251561 -0.0053909435 0.124992765

block1.1.bn3.running_mean f4 [16]
000000 32 fd fd be 00 98 28 bf 74 1e 98 bc eb 53 00 bf
       -0.49607235 -0.65856934 -0.018569209 -0.5012805
000010 6a 91 83 3f d7 fb 7f bf d0 54 61 3e 30 0a 19 3d
       1.0278752 -0.9999365 0.2200501 0.03736323
000020 e6 65 03 40 05 6e 14 3f 8a 0c 14 bb c5 3e 95 be
       2.0530944 0.57980376 -0.0022590482 -0.29149452
000030 91 9c 5a 3f 1b 60 ba be 20 1e b5 be 96 ae 92 bf
       0.8539515 -0.36401448 -0.35374546 -1.1459529

block1.1.bn3.running_var f4 [16]
000000 31 13 0c 3e 0e f2 ee 3d 30 5e 12 3f 14 71 7c 3d
       0.13679196 0.11667262 0.5717497 0.061631277
000010 89 96 2e 3f be 5d d4 3d 91 c5 b0 3e c5 82 dc 3e
       0.6819845 0.103694424 0.3452573 0.4306852
000020 bd fa 92 3f da 0a 80 3f dc 22 1c 3f 21 b6 d4 3e
       1.1482769 1.0003312 0.6099069 0.41545203
000030 12 6f 4e 3e 81 13 bb 3e 47 56 6a 3e 8d cb d8 3e
       0.20159557 0.36538318 0.22884475 0.42342797

block1.2.conv1.weight f4 [8, 16, 1, 1]
000000 42 b2 d0 3e 0f 59 58 3f 9b a6 89 3e 7d 74 77 bd
       0.40761 0.8451089 0.26884922 -0.060413826
000010 49 6f 98 3d 5d 45 2f ba 84 68 11 be ef b2 bb bd
       0.07443101 -0.0006686056 -0.14200026 -0.09164988
000020 2b 84 c2 3d 77 8d 69 3e a4 b6 e2 be 7c e0 a1 3f
       0.09497865 0.22807871 -0.4427997 1.2646632
000030 bf 4a 33 3e 0f cd 88 be de 1d 2c 3f fd 21 9f be
       0.17508982 -0.26718947 0.67233074 -0.31080619
000040 15 6b f5 3d f9 9f 1f bc f3 50 c6 bd 81 c5 04 be
       0.11983315 -0.00974273 -0.096834086 -0.12965967
000050 24 b8 66 bd 73 87 85 be 1a 83 73 3e b3 32 2b be
       -0.056327954 -0.26079902 0.2378048 -0.16718559
000060 09 e7 b6 bc 7d 8d 2c 3e 7e 7b 04 3d e8 04 9d bd
       -0.022326963 0.16850848 0.032344334 -0.076669514
000070 6f ae 14 be 0e b8 a8 3e aa eb e2 bd a4 7f d1 bd
       -0.14519666 0.32952923 -0.110801056 -0.10229424
000080 76 6f b5 be f7 59 4c 3e 13 d1 b5 be 71 83 d2 3e
       -0.354366 0.19956194 -0.35511073 0.41115907
000090 b9 a1 e1 3c c5 0f 2d be 18 a9 70 3e 03 fd 43 3e
       0.027542936 -0.16900547 0.23502004 0.19139485
0000a0 7b 73 67 3e d0 57 2e be 63 d3 59 be 39 f4 6a be
       0.22602646 -0.17025685 -0.21272044 -0.22944726
0000b0 14 e7 4c be 9d aa f0 3d cf ef 58 3f 31 e1 a1 3d
       -0.20010024 0.11751292 0.8474092 0.0790428
0000c0 ab ad 51 3f f8 b0 f3 3d 30 45 98 3e 1e d7 d1 3e
       0.8190562 0.118989885 0.29740286 0.40984434
0000d0 ca 5c 48 3e b2 8f 8d bf 92 45 29 3c 32 36 8e 3e
       0.19566646 -1.1059477 0.010331528 0.27775723
0000e0 29 f1 ec be dd bc 5a be e8 3c 41 3d e6 64 84 3e
       -0.4627774 -0.21361108 0.047177225 0.2585823
0000f0 0a 35 2a 3e 46 b2 1f 3d fc 16 b1 be 28 a7 33 3e
       0.16621795 0.038988374 -0.34587848 0.17544234
000100 c5 32 9f bd 2c 5f 12 3d de 7b 23 bd d6 3b 5b 3c
       -0.077733554 0.035735294 -0.03991305 0.013380965
000110 3d 53 2c bb 1c a0 48 bd 95 fb 9b 3d 67 58 b9 bd
       -0.002629473 -0.048980817 0.07616345 -0.090500645
000120 85 e3 b9 3b 5b 83 e0 bc c8 27 89 3f af 80 f3 bc
       0.0056728744 -0.027406385 1.0715265 -0.029724447
000130 6c 21 ea be 34 4b e2 bd 2e fc 3b be b7 55 15 bc
       -0.45728624 -0.110495 -0.18357918 -0.009114674
000140 d0 3f c0 be 52 dc 72 be 57 9d e8 be 3d 8c ed bc
       -0.37548685 -0.23716858 -0.4543254 -0.028997535
000150 0e 32 08 bf b6 b2 ec 3d 42 5d 18 3f 23 e6 00 3e
       -0.5320138 0.11557524 0.595173 0.1258779
000160 0b 02 ec bb 60 c6 98 bd 0c f2 3a bf 70 df 49 3e
       -0.007202392 -0.07459712 -0.73025584 0.19714141
000170 25 2c 8d be 13 0f 42 3f 99 8d 3f bf 66 b3 23 3e
       -0.27572742 0.7580425 -0.74825436 0.15986404
000180 94 4f 89 be e8 30 0a 3e ad 5f 6c be a6 a1 6c 3e
       -0.26818526 0.13495219 -0.23083372 0.23108539
000190 ab cf 19 3e f7 c0 10 3e 72 c0 bf 3e 94 19 4e 3e
       0.15020625 0.1413611 0.37451512 0.20126945
0001a0 4c c2 cd bc 37 d8 7b be f4 45 0d bb af 8b 72 bd
       -0.025117062 -0.24594198 -0.0021556588 -0.059215244
0001b0 99 f1 9e bd d6 6a 74 bd a1 f2 5b bd b4 f9 1a be
       -0.07760925 -0.0596722 -0.053698186 -0.15134317
0001c0 71 04 0d bf 0d 7c a2 be 46 27 79 be 26 fa ba 3d
       -0.550849 -0.31735268 -0.24331388 0.09129743
0001d0 bd a4 63 be 5a 7b dd 3e 6d 23 de be 33 88 15 3e
       -0.22230811 0.43258172 -0.43386403 0.14602737
0001e0 0f af 71 3e 3c ac 38 bd c4 67 73 bd c1 1b 89 3e
       0.23601936 -0.04508613 -0.05942513 0.26778987
0001f0 a1 6b 9f 3e 86 08 9b bd ec 68 80 bf c2 73 87 be
       0.31136802 -0.07569985 -1.003202 -0.26455504

block1.2.bn1.weight f4 [8]
000000 1b c3 6e 3f 55 f3 6a 3e 99 4a 6b 3f 62 57 46 3f
       0.9326646 0.22944386 0.919107 0.77477086
000010 da 33 55 3f 6e b8 2b 3f c3 46 db 3e 7e 94 50 3f
       0.83282244 0.6707829 0.42827424 0.8147658

block1.2.bn1.bias f4 [8]
000000 15 ba 3b 3e 92 2d b4 be c9 ff c5 3d 02 c2 b0 3e
       0.18332703 -0.35191017 0.09667928 0.34523016
000010 7d 20 1a be 34 cf 15 3f d2 9d 35 be 54 12 cf 3e
       -0.15051456 0.5851929 -0.17735985 0.4044367

block1.2.bn1.running_mean f4 [8]
000000 13 da 9e 40 59 00 4b be a4 2e 2f bf 3a 7e 21 40
       4.9641204 -0.19824351 -0.6843054 2.5233293
000010 1f bb 42 3f 78 21 5f c0 46 e8 55 bf cf 0c 93 c0
       0.76066774 -3.4864178 -0.83557546 -4.5953135

block1.2.bn1.running_var f4 [8]
000000 f8 ff 85 41 25 0e 93 3f 56 6b cf 40 b1 01 fd 40
       16.749985 1.1488692 6.4818525 7.9064565
000010 8a 25 90 40 71 3d 54 41 5e ed 9c 3f 29 5e 20 41
       4.5045824 13.265 1.2259939 10.022988

block1.2.conv2.weight f4 [8, 8, 3, 3]
000000 5a a2 0d be d8 e2 db be c2 32 6b be 26 d8 19 bf
       -0.13831463 -0.42946506 -0.22968581 -0.6009544
000010 46 54 b6 be 2b 04 75 be 24 13 65 bd 1a 0d de bd
       -0.3561117 -0.23927371 -0.055926457 -0.10842343
000020 99 66 bc bd fd ee 2d 3e 6d 9a 15 3e 7e bf 87 3d
       -0.091992564 0.16985698 0.1460969 0.06628321
000030 89 f3 29 3e be 1c 0c be c6 bd 69 be 13 96 40 3e
       0.16596808 -0.1368284 -0.22826299 0.18807249
000040 60 ca c5 bc 4d 41 04 3d b4 77 62 3e 6e a2 89 3e
       -0.024144351 0.03228884 0.22115976 0.26881737
000050 52 ed 8b bd 48 4e b8 bd ef 32 81 3e 83 ce 44 be
       -0.06832375 -0.08999306 0.25234172 -0.19219403
000060 a8 5f 19 bc 9d 84 0c be 66 06 5b be b1 90 c1 3c
       -0.009361185 -0.13722463 -0.2138916 0.023628565
000070 72 80 34 3e e1 2c 93 3e 29 0f 15 3b 9b 85 24 bf
       0.17627123 0.28745177 0.0022744632 -0.64266366
000080 e0 27 f8 bd 6f 54 d8 3e 67 99 c3 3d 20 d1 e5 3d
       -0.121169806 0.42251918 0.095507436 0.11221528
000090 6e 40 af 3e 31 bf 69 3e 09 c0 c2 bc 56 c5 36 bd
       0.34228843 0.2282684 -0.02377321 -0.044621788
0000a0 d8 c6 a6 3e 7e c1 18 3e 11 69 8f 3d d3 79 dc bd
       0.3257358 0.14917561 0.07002462 -0.107654236
0000b0 1b 59 1f be c4 51 67 bd 0d 68 89 bd 70 c8 a5 be
       -0.15561335 -0.056474462 -0.06709299 -0.32379484
0000c0 c1 d1 53 3f 29 a6 3e 3d f1 66 93 be 1d 16 a0 3d
       0.82741934 0.04654518 -0.28789476 0.07816718
0000d0 44 2b 1b be a2 0d a9 3d 05 72 f4 3d f1 b6 ed bc
       -0.15153223 0.082545534 0.1193581 -0.029017897
0000e0 62 08 28 be 64 3c 04 3e c6 4d 8b 3c fb af 82 bd
       -0.16409448 0.12913662 0.017004859 -0.06381222
0000f0 8d 7d a9 bc 30 05 02 3d 59 2e 31 be c2 df ca bc
       -0.02068975 0.03174323 -0.17302836 -0.0247649
000100 c9 ce 33 be 2d 6a 9d be 3f 35 a7 be 91 af 5b 3f
       -0.17559351 -0.30745068 -0.3265781 0.8581477
000110 7d f0 13 bc e9 1c b9 be 88 9c ce be 5d 78 ee bb
       -0.009029505 -0.3615487 -0.403538 -0.007277532
000120 6f dc 01 bf 3c 46 f6 3e 79 53 09 3e 29 2a 66 3d
       -0.5072698 0.4810046 0.13410749 0.05619255
000130 59 d8 69 3f ac 51 b8 3e 5c 6f a2 be dd 5d 4f bf
       0.91345745 0.3599981 -0.31725585 -0.810026
000140 14 a6 a6 be b9 26 a5 bd 4b 0b 52 bd 95 a0 d3 bd
       -0.32548583 -0.080640264 -0.0512803 -0.10333363
000150 32 6f 7e 3d ed e5 ac bd 9c 9e 98 bd 78 40 82 bc
       0.062117763 -0.08442292 -0.07452127 -0.015899882
000160 93 39 85 be 8a fd 33 be e4 70 1a be 69 8f 83 3e
       -0.26020488 -0.17577186 -0.15082127 0.2569535
000170 2d 74 c2 be 6c 72 c4 3e 94 8b c0 3e 7e 58 ca 3d
       -0.3797926 0.38368547 0.3760649 0.0988016
000180 5f 25 d9 3e 5c 83 c4 3d d0 d3 0f 3e 7e 06 f8 3d
       0.42411324 0.09595367 0.14045644 0.12110613
000190 80 48 1e be 8d ac d7 bd 1e e5 0c 3d 48 cc fc bd
       -0.15457344 -0.10530958 0.03439819 -0.12343651
0001a0 14 90 4f 3e 7a f5 9b bd 1a eb bd be 38 9d 7c be
       0.20269805 -0.0761518 -0.3709343 -0.24669349
0001b0 a7 85 3b be bf af 14 3e c4 93 eb be d2 74 37 3d
       -0.18312703 0.14520167 -0.46011174 0.044789143
0001c0 34 42 48 3e f8 de 53 be c9 85 07 bd 93 a8 05 3e
       0.19556504 -0.20690525 -0.03308657 0.13052587
0001d0 37 cf 4c 3e b7 33 79 3e 2a 72 ff bd 39 c9 8c be
       0.20000921 0.24336134 -0.12472947 -0.2749727
0001e0 25 86 bc 3d 60 b6 d9 be 84 05 61 be ef c9 a0 3e
       0.092052735 -0.42521954 -0.2197476 0.31404063
0001f0 06 f2 bc 3e 17 27 67 be 28 d1 7e be e8 59 dd bd
       0.369034 -0.22573505 -0.24884474 -0.10808164
000200 3e 14 f5 bd 85 09 77 be 9f 83 b8 bd 17 43 78 3c
       -0.119667515 -0.24124725 -0.0900948 0.015152714
000210 01 d6 e2 bc 05 03 ae bc 7f b9 f5 bd 39 76 10 3d
       -0.027689936 -0.021241674 -0.11998271 0.035268996
000220 79 d9 ad be ae 89 46 be 68 ca 47 be 09 5f 63 3e
       -0.3395498 -0.19388458 -0.19510806 0.22204222
000230 ce 1d 71 bb 77 85 33 be 00 01 59 be 52 54 cc bd
       -0.0036791447 -0.17531382 -0.21191788 -0.0997702
000240 46 7b a0 bd 49 fa 23 3e 00 c1 a3 bc 15 3e bd 3e
       -0.078360125 0.16013445 -0.01998949 0.36961427
000250 3f 6f 93 3f 0e 65 d2 3e 5f 6b 48 be 46 15 af 3e
       1.1518325 0.41092724 -0.19572209 0.34195918
000260 e9 1f 68 be 31 4c 36 be 0f 59 66 3b 00 a0 56 bd
       -0.22668423 -0.17802502 0.0035148298 -0.05239868
000270 f4 a5 67 bd 43 c7 0b 3d ee 98 42 bd 3f 66 c6 bd
       -0.05655475 0.034125578 -0.047509126 -0.09687471
000280 cf d0 34 bd d7 f7 74 bd 43 1d 6b be 9e 07 18 be
       -0.044144448 -0.05980667 -0.22960381 -0.14846656
000290 d6 5c 92 be 3d f9 dd be c7 83 89 be 7e 1f 41 bd
       -0.28586453 -0.43354216 -0.2685835 -0.047149174
0002a0 8f 94 04 3e b8 c8 85 3e 06 ea 2e 3c de a8 56 be
       0.12947296 0.261297 0.010675913 -0.20962855
0002b0 ad ee 73 be 33 84 77 be a2 65 21 3e f4 f2 d7 3e
       -0.23821516 -0.24171524 0.15761426 0.42177546
0002c0 77 63 fd bb 2e 8e 5f be c5 f8 48 bd f5 23 28 be
       -0.0077328044 -0.21831581 -0.04906537 -0.16419967
0002d0 ab 65 f4 3d 05 bf 04 bd 18 0c 06 be dd 79 57 bd
       0.11933454 -0.032408733 -0.13090551 -0.052606452
0002e0 f2 e1 90 3e 3a 64 77 3e d6 1a c1 be 5e 22 54 bd
       0.28297383 0.24159327 -0.37715787 -0.051790588
0002f0 9b 0f 08 3e 53 00 d8 3d 84 2a 94 3e 22 41 1e be
       0.13287203 0.10546937 0.28938687 -0.15454534
000300 28 17 8a ba 7c 47 80 be 8c ad 9c be 97 f1 ad 3e
       -0.0010535466 -0.25054538 -0.30601156 0.3397338
000310 bf 9a b2 3e 8a 82 60 3e b4 a1 de bd 87 b6 4d 3d
       0.34883687 0.21924797 -0.10870686 0.0502229
000320 f0 d5 ac 3d 25 56 93 bd cc 9b 5d bd 1a 68 07 be
       0.08439243 -0.07194165 -0.054103658 -0.13223305
000330 af 20 60 bd ac a1 4b bd 31 7e 65 3d 45 48 7e 3d
       -0.05471867 -0.04971473 0.05602855 0.06208064
000340 9b 13 5d 3e 80 76 78 be 93 10 fa 3d 03 37 25 3f
       0.2158951 -0.24263954 0.122101925 0.64537066
000350 27 68 39 be 35 81 68 be 47 04 27 3e 8d 3b 0d bd
       -0.18106137 -0.22705539 0.16310225 -0.03448062
000360 aa e9 0f be c1 db 0c 3f c6 21 b9 3d 5f 13 d9 be
       -0.1405398 0.5502282 0.09039645 -0.4239759
000370 25 8e 3c be 84 47 46 be 99 c3 fd 3e 81 f9 d6 3e
       -0.18413599 -0.19363219 0.49563292 0.4198723
000380 1f 91 8c 3e 7b 38 88 bd 04 13 73 3d 3e a7 04 be
       0.2745447 -0.06651398 0.059344307 -0.12954423
000390 66 93 6c be 86 69 bc bb 4a af 31 be e7 53 e6 bc
       -0.23103103 -0.005749884 -0.17352024 -0.02811618
0003a0 0a 0f f7 bd 13 61 a2 bd ff 19 02 be 7d 49 ae 3b
       -0.12063415 -0.07928672 -0.12705229 0.005318819
0003b0 66 39 91 be 93 70 ae 3e 11 46 98 3e 92 58 03 be
       -0.28364104 0.34070262 0.29740956 -0.12826756
0003c0 23 cf 05 be 37 21 81 bc c0 40 ce bd 5f 3e 8f 3d
       -0.13067298 -0.015762908 -0.10070944 0.06994318
0003d0 6c 90 5b bc 29 59 6d 3e 04 bf d8 be d6 aa 4d bf
       -0.013401132 0.23178543 -0.42333233 -0.803388
0003e0 1c 5a f5 bd 2b 4d c7 bd 46 0d 7a be 76 7e 13 be
       -0.119800776 -0.097315155 -0.24419126 -0.1440371
0003f0 c7 37 4e 3e a2 53 f3 3e 85 e1 84 3e a3 20 79 be
       0.20138465 0.47524744 0.25953308 -0.24328856

block1.2.bn2.weight f4 [8]
000000 21 b4 33 3f bc 90 90 3f 34 a3 a2 3f 91 14 05 3f
       0.7019673 1.129417 1.2706056 0.51984507
000010 08 29 40 3f c9 7e 2e 3f c8 61 29 3f a2 6b 3e 3f
       0.7506261 0.6816221 0.6616483 0.74382985

block1.2.bn2.bias f4 [8]
000000 e5 8d 27 3e fb da d5 be 5c 5e 5f bf 11 ed 99 3e
       0.16362722 -0.4176863 -0.87253356 0.3006368
000010 9e 75 de 3d a5 6a 19 be 59 08 97 bd 69 d9 a1 be
       0.108622774 -0.14982088 -0.07374639 -0.31611183

block1.2.bn2.running_mean f4 [8]
000000 4c ec 58 bf 68 f4 1a bf b9 06 6d 3f 36 49 9b bf
       -0.8473556 -0.60529184 0.9258838 -1.2131717
000010 48 3b 00 40 a3 37 61 3f c6 b1 90 bf 25 f4 e6 be
       2.0036182 0.8797552 -1.1304252 -0.45108142

block1.2.bn2.running_var f4 [8]
000000 f8 5f d2 3f 6f 99 04 40 c5 39 21 40 79 7c 7e 3f
       1.6435537 2.0718648 2.519151 0.9940868
000010 d2 ad 33 40 a0 81 83 3f 3d 02 fd 3f 52 e8 7b 3f
       2.8074841 1.0273933 1.9766308 0.9840137

block1.2.conv3.weight f4 [16, 8, 1, 1]
000000 7b 6b dc be 49 d4 db 3d ad c4 a6 bd b8 42 4e bf
       -0.4305075 0.107338496 -0.08142982 -0.80570555
000010 73 d3 45 3e 56 39 02 3f 23 79 9e bd fd 54 7e be
       0.19318943 0.5086874 -0.07737949 -0.24837108
000020 cf 5c 6b 3e 85 ca b9 3e 1c b5 a1 be 20 21 82 be
       0.22984622 0.36287323 -0.31583488 -0.25415897
000030 7d 9f 29 3f ee f7 b3 bd b0 82 a9 3e ac 4d ac 3e
       0.66258985 -0.08787523 0.3310752 0.3365301
000040 00 5b d2 be ce 51 fb 3d 30 df 3f bf 26 62 af be
       -0.41085052 0.122714624 -0.7494993 -0.3425457
000050 8b 00 70 bd d2 1e 1c be a3 19 12 bf 32 d3 4a bc
       -0.058594268 -0.15246132 -0.5707037 -0.012379454
000060 97 f9 19 be 0f 2e eb 3e 32 a5 18 be c1 56 0f be
       -0.15036617 0.45933577 -0.14906767 -0.13997938
000070 77 60 a2 be ef 93 cf 3e e0 c9 22 3e aa 4b 1b 3f
       -0.31714222 0.40542552 0.15897322 0.6066233
000080 72 1e a2 3e 1b 63 68 3f d7 19 10 bd cd 96 29 3d
       0.31663853 0.9077622 -0.035180893 0.04140358
000090 7d 00 eb bd c1 fb 96 3d f2 bb 41 3d da 2d ce bd
       -0.114747025 0.07372237 0.04729838 -0.10067339
0000a0 10 a5 33 3f 10 53 2e 3e 33 71 1c bd d3 68 b6 bd
       0.7017374 0.17023873 -0.038193893 -0.089067124
0000b0 08 0e 89 be 4f 3b 0f be 92 ad 18 bd 62 0b bf bd
       -0.26768517 -0.13987468 -0.037274905 -0.09328343
0000c0 62 e3 17 bf f8 c5 94 be 81 26 8e 3e 5b 56 fb be
       -0.59331334 -0.29057288 0.2776375 -0.49089321
0000d0 e8 7a c8 be 58 38 1f bf 1d 8d ec 3e f8 fa 11 3c
       -0.3915627 -0.6219535 0.4620141 0.008909933
0000e0 0c d6 d7 be 03 05 0d 3c 19 0b 07 be 66 6a c1 3b
       -0.42155492 0.008607152 -0.13187827 0.0059025763
0000f0 62 e6 d2 be 0e a3 30 3e f7 17 3e be 16 ae 9a bd
       -0.41191393 0.172497 -0.1856383 -0.075527355
000100 0a 6f 29 3e 31 fc a1 3d 78 41 ac 3e 65 23 a0 3e
       0.16546264 0.0790943 0.336437 0.31277004
000110 82 b1 37 be 9d 50 67 bd c4 05 9f be ca 14 af 3d
       -0.17938808 -0.056473363 -0.31059086 0.08548887
000120 49 c6 04 bd 11 7e f6 bb 6b 87 a0 be 4a 01 1f be
       -0.032415662 -0.0075223525 -0.31353316 -0.15527835
000130 6c b8 33 bd d6 b3 3f 3e 77 f6 dd 3d f5 33 a6 be
       -0.04387705 0.18720946 0.10838025 -0.32461515
000140 4d 9b d6 3d c7 12 9a be 01 ba 57 3e de 90 93 3e
       0.1047884 -0.3009245 0.21067049 0.28821462
000150 12 3a 2d bd b4 ed 16 3c c5 8f 09 3e 64 db a2 be
       -0.04229171 0.009211946 0.1343375 -0.31808007
000160 b3 fe 33 3e f1 00 c9 be 2d 27 c6 bf 84 b1 87 be
       0.17577629 -0.3925853 -1.5480705 -0.2650262
000170 18 f4 4a 3d 09 55 3d be ab 30 92 be 38 94 4a bc
       0.049549192 -0.1848947 -0.28552756 -0.01236444
000180 16 b8 51 3e f6 55 3f be a0 a4 b4 be f2 7d fe bc
       0.2048038 -0.18685135 -0.3528185 -0.031065915
000190 68 06 dc 3d 1a da 2b 3e ca 60 42 3e a4 e4 35 3e
       0.107434094 0.16782418 0.18982235 0.17763
0001a0 31 6f 9b 3d 5b 5a 74 be cd 09 e2 be 96 87 98 3e
       0.075895675 -0.23862593 -0.44148102 0.29790944
0001b0 18 0c 96 be b5 73 bf 3d 11 77 2f 3e d3 d6 1d bf
       -0.29306102 0.09348241 0.17135264 -0.6165592
0001c0 ce 1c 6d 3e 25 4d 8a bf 72 b0 b2 3b 1d ce 85 bd
       0.2315552 -1.0804793 0.005453163 -0.065334536
0001d0 ab 88 3d bf 16 4d aa 3e 6f ca b9 3e a0 c4 14 be
       -0.74036664 0.33261937 0.36287257 -0.14528131
0001e0 71 f3 1d be 17 1b 3f 3e f7 c2 16 3f 55 cd 13 be
       -0.15424897 0.18662678 0.5889124 -0.14433797
0001f0 1b a5 56 be 26 56 df be a5 dc 04 bf 43 9e 9f be
       -0.2096142 -0.43620414 -0.51899177 -0.31175432
