assignment1/results/trial_2/resBottleneck/ckpts/18000.pt (torch, 562436 bytes, 242 tensors)

block1.0.conv1.weight f4 [8, 16, 1, 1]
00000000: 3844 c53c 44bc c0bc d777 c53d c8bf 2fbc
00000010: 1c4d 1f3e 18d1 5f3e 224d 103b e013 553c
00000020: d07e b33e afe6 bc3d 380e 78bd 0cc0 b23e
00000030: a956 633e b5d1 033f 0af6 f9be c209 8e3f
00000040: 688c 5d3b 3a7b 64bd 2bdb aabd 20b6 ddbd
00000050: 400e bcbd cea7 bfbc 9e42 4cbe db26 63bc
00000060: 2edc b0be 57cd 5e3e a8c4 1fbf ef9c b3be
00000070: 5a22 a3be ffaa 51bd 0826 4c3e 2a23 0dbf
00000080: 4fda a9be 1d02 b0bd be17 583e 69eb b3be
00000090: 03ef c3bc 5c57 563d dac8 a63e d45c c13c
000000a0: 3ad0 b33d 4b7b 133e b8c2 eebf 3e98 4d3e
000000b0: da64 313e 62a2 d1be 70d7 0dbf 102e b2be
000000c0: e235 423d 9676 7bbe 500d bebe 0da6 8cbe
000000d0: bf53 ad3e a283 33be cb69 b73d e796 953e
000000e0: 8fe0 90be 7c64 df3d cbc8 6ebd 4a79 42bf
000000f0: 43aa 28bf bfcd d1bd 5cf3 873e 38c5 36bf
00000100: 2cc9 49be e6b8 3dbf 7873 9cbe 41e1 a9bd
00000110: ccb4 04be b86f a1bd 3532 d4bd 4078 42be
00000120: d7cf c9be 5b12 91bd c1dc 04be a41f 883c
00000130: 2872 64bd 1ae4 43be e132 81be a848 09bd
00000140: c7d3 333e b956 3c3e 5ba7 1dbf 80ca 00bf
00000150: 2b9e 02be fde2 edbc 743d bd3d 2ce1 dd3d
00000160: f239 f53d 5579 133e 1c38 78bf 001a 1cbf
00000170: 8245 20bd c32f 8a3b bfbe 9dbe 642b ef3d
00000180: c8ca febd 7279 533f b29d da3e f4d9 ccbd
00000190: 8f9b 8d3e 4ac7 25be 7a17 1cbf ed45 ee3d
000001a0: c2d4 213f f9f9 26be 42b0 a33e e4cb b0be
000001b0: 9582 ce3d bbb1 0d3f 0ad5 263f 111b 123e
000001c0: 7381 d0bc 65e0 313f 9e9c 46bd 810d 36be
000001d0: cab2 5bbe 0515 60bd be32 cabe 83b4 7cbd
000001e0: f0af 003f 3fc7 943c 3bd1 32be 1231 47be
000001f0: 1c1c e23d b245 bc3c a842 21bf 8017 d63e
0.02408038 -0.023527272 0.09641998 -0.010726877 0.15556759 0.21857107 0.002201863 0.013005227
0.35057688 0.09223687 -0.060560435 0.34912145 0.22201027 0.5149186 -0.48820525 1.1096728
0.0033805612 -0.05578158 -0.08342584 -0.10825753 -0.091824055 -0.023395445 -0.19947287 -0.013864244
-0.34542984 0.21758018 -0.6240945 -0.35080668 -0.31862146 -0.051188465 0.19936383 -0.5513178
-0.3317437 -0.08594153 0.21102807 -0.3514054 -0.02391768 0.052329406 0.32575113 0.023603834
0.087799504 0.14402501 -1.8653173 0.20077607 0.17323628 -0.409442 -0.55406857 -0.34800768
0.047414668 -0.24556956 -0.37119532 -0.27470437 0.33852956 -0.17530683 0.08955725 0.29216692
-0.28296325 0.10907838 -0.05829696 -0.7596632 -0.658848 -0.10244321 0.26552856 -0.7139468
-0.19705647 -0.7411026 -0.30556846 -0.08294917 -0.12959594 -0.07882637 -0.10361139 -0.18991184
-0.39416382 -0.07083579 -0.12974836 0.01661665 -0.05577293 -0.19129983 -0.2523413 -0.033516556
0.17561255 0.18392457 -0.6158349 -0.5030899 -0.12755649 -0.0290389 0.09240237 0.10833964
0.11973943 0.14401753 -0.96960616 -0.6097717 -0.039128788 0.0042171194 -0.3080959 0.11678198
-0.12441021 0.82607186 0.42698437 -0.10002509 0.27657744 -0.16189304 -0.6097332 0.11634431
0.6321527 -0.16306295 0.31970412 -0.34530556 0.100835 0.5534932 0.6516882 0.14268138
-0.025452351 0.69483024 -0.048489206 -0.17778589 -0.21454921 -0.054707546 -0.39491838 -0.061695587
0.5026846 0.018161414 -0.17462628 -0.19452313 0.11040518 0.022982452 -0.62992334 0.41814804

block1.0.bn1.weight f4 [8]
00000000: 8b83 4e3f 7599 333f 0c9a 8c3f c493 5c3f
00000010: 5f7d 95be e9b5 8a3f 5a87 7e3f f2aa 303f
0.8066947 0.7015603 1.0984511 0.8616297 -0.29197213 1.0836765 0.9942528 0.6901084

block1.0.bn1.bias f4 [8]
00000000: 1a25 63be 3109 babe 775c 963e f93d 083e
00000010: 467b 1c3f 05c8 e8be 269b bdbe a7e6 0b3e
-0.22182122 -0.36335137 0.2936742 0.1330489 0.611256 -0.45465103 -0.3703243 0.13662206

block1.0.bn1.running_mean f4 [8]
00000000: 26a3 8140 e4e4 8ec0 d437 a5c0 d087 b9c0
00000010: 3348 4ac0 1c96 81c0 972e 933f adbc 7dbf
4.0511656 -4.4654408 -5.163065 -5.7978287 -3.1606567 -4.049574 1.1498593 -0.9911602

block1.0.bn1.running_var f4 [8]
00000000: cc19 1941 fccc c240 0f37 9e41 16db 5041
00000010: 86e5 2f40 f789 1341 31f0 3341 7068 9840
9.568798 6.0875225 19.776884 13.053488 2.748384 9.221183 11.2461405 4.7627487

block1.0.conv2.weight f4 [8, 8, 3, 3]
00000000: 606b 493d 024d 883d 6873 4ebe 449c a93d
00000010: 06a1 c9bc 13b0 adbe b3d8 593e 8cea f53c
00000020: 4f8a 463c d2e9 ce3d 576a 313e 8106 08bd
00000030: e6fc 7a3e 01d1 fe3e efc5 bb3c b404 18be
00000040: 9d2e 02be 85e9 853d 7252 58bc b2d0 6dbe
00000050: 9153 8dbe b007 dd3d 4cae 593c 0c26 abbe
00000060: ac05 193e f9bf 24bd fe5e 753e 2e6d bd3d
00000070: 048b 0f3e 13dc 89be 24ad b63e 4b22 7b3f
00000080: 8ffb 8c3e ae6d c0be 1d17 003e 03a9 68be
00000090: 714e fbbd 49d8 553e f1ef 653e 9e28 5dbd
000000a0: 9698 6e3c 8974 cc3c ca25 b2be d9f8 89be
000000b0: f1ad cebc 3d3c b7bd 9629 afbe aee0 2dbd
000000c0: 3616 753d 5a88 c63e e372 9c3e 0f6f 21be
000000d0: 298a 5d3e 0cff b53d a38d dabd ffa4 0e3e
000000e0: cfbe a7bd 31ad abbc 1ae3 163d 98ab c6bd
000000f0: 868e 133d 0193 8e3e 86fc 5e3b eee1 923d
00000100: a2ed 01bc b807 a73e f3d7 d1be f1d1 66be
00000110: fea0 e03c a1c4 a7bd c402 b53d bfe7 023e
00000120: 2dbd 2bbe b84e c93c 89c2 593e 1808 b2bc
00000130: 20ad eabd 979c fd38 dc1c 2b3e b0b3 32bc
00000140: d523 58be 8f64 423d aa45 9b3e 9a29 0d3d
00000150: 68f7 23be c71f f9be b1df 0abe 0cea e63c
00000160: 8d64 9e3c 5136 dc3d d18b b7bd 9e5f aa3e
00000170: c37b bbbc 6c66 a9be a43e 97bf 37bb a3be
00000180: b1f4 883e 4a4b 133f 2bfe 543e f800 39be
00000190: e5cd 093e 33ef 7d3d 930c 3c3e aab2 92be
000001a0: ce2b 213e f42a 433e 51dd 923e 337a bb3d
000001b0: 3b2b 5b3d 5530 c53d e099 053a 8bec 083d
000001c0: 8fd0 1e3e 926f 89bd 6573 b43d 29a2 8c3c
000001d0: c524 b03d 35a6 243e 45a2 123e 294c 01be
000001e0: ee73 03bf 6a3f d83a 1a8a 4d3e f94c 3f3e
000001f0: 54f0 1d3d 2a26 dfbc f2a9 553c 5c0d 2e3e
00000200: 2ed6 ba3d 68ec ae3d 1bd4 bc3d 2aea 8f3c
00000210: b4cd 013e 3739 07bd b1f9 f8bd afdc 31bd
00000220: 6dae f6bd 9517 9dbe e4e5 093e 889d 133f
00000230: b1e9 763e e78d 533e ab1c 34be 8416 c1bd
00000240: 23c4 1f3e 9c2c f63d f43a 463e 4e35 513d
00000250: 070e 703d 3cb2 a1bd 8acd e23b e2ad 3b3d
00000260: efea 52bd 7fe7 043e e2d1 af3d abda f13d
00000270: ce01 5c3d fa1c 233d 63ca 7db9 6b06 773a
00000280: 1916 35bd b86e cdbc 0978 813d 51ca 80bd
00000290: 13e3 fcbd 5cda d63c cd81 eebd a833 90bd
000002a0: f6c5 b7bd f4eb 673d 9461 84bc 02e7 4c3d
000002b0: 29e6 1a3d babc 90bd 69bd 993d e6a9 2a3e
000002c0: ca36 233d 88f5 143e d21a 8c3e 0ae7 cf3c
000002d0: 8665 f1bd 00a6 b6bd 0173 98bd 3b61 ed3c
000002e0: 45ca 5bbc c806 02be 96f3 0bbd 6c58 583d
000002f0: bb34 c2bd 3dd8 1a3e 9b43 363d f87d 1e3d
00000300: a815 f33d 7a87 203d 10c5 aa3c 81ba ed3d
00000310: 71a1 8b3d ed8f 9cbc ca79 0d3b 8229 c93c
00000320: df08 633d e2b2 4a3a 2fe9 fe3d 98eb 473e
00000330: 2918 5b3d aa81 cebd afe7 94bb c57c ba3d
00000340: 7784 bcbd 9768 e0bd 4dd1 1a3e 4ba2 8f3c
00000350: bcb5 46bd cd9e a53d ab66 0bba 41bb 1cbe
00000360: 27e7 fdbc 3889 263d 9428 fcbe e50e 3c3e
00000370: 2dff a93e 11c5 01be a3ee b33d 15cf e73c
00000380: 2794 3a3d 3d0b 0b3e 1bbc e63d a938 2cbe
00000390: 427d 1a3e 77dd 5e3d ca9e 77be c11e a63d
000003a0: e39a eebd da95 20bd 35ab 8cbd 07fa 443f
000003b0: b535 d53e 7b38 7cbc c2fd f0be f448 d43c
000003c0: a578 65bd 766e 8c3d 32b4 223e 31e2 623e
000003d0: fa21 e33e f282 bc3e 4170 153e 6dda 54bf
000003e0: 71eb 19be 0fb8 813e d70b 05bf 6c6c 733d
000003f0: a548 34bd 1377 bdbd 51c1 15be 8681 ed3b
0.049174666 0.06655313 -0.20161211 0.082817584 -0.024612915 -0.33923396 0.2127407 0.030019067
0.012117936 0.101031914 0.17325722 -0.033209328 0.24510536 0.49768832 0.02292153 -0.14845544
-0.12713094 0.06538681 -0.01320325 -0.23224142 -0.2760282 0.10792482 0.0132861845 -0.33427465
0.1494357 -0.040222142 0.23962018 0.0924934 0.14017874 -0.26925716 0.3567897 0.980992
0.27535674 -0.3758368 0.12508817 -0.22720723 -0.12270821 0.20883287 0.22454812 -0.053993814
0.0145627465 0.024957912 -0.34794456 -0.26947668 -0.025229426 -0.089470364 -0.34211415 -0.0424506
0.059835635 0.38775903 0.30556402 -0.15765022 0.21634735 0.08886537 -0.10671546 0.13930129
-0.08190691 -0.020956608 0.036837675 -0.09700698 0.036024593 0.2784653 0.0034025027 0.07171999
-0.007930191 0.32623076 -0.4098507 -0.22541024 0.027420517 -0.08191801 0.08838418 0.12783717
-0.16771384 0.024573669 0.21265616 -0.021732375 -0.11458802 0.00012093147 0.16710228 -0.010907099
-0.21107419 0.04745918 0.30326587 0.034463502 -0.16012347 -0.48657057 -0.13561894 0.028187774
0.019335056 0.107525475 -0.08962215 0.33276075 -0.022886163 -0.33085954 -1.1815991 -0.3197877
0.26749185 0.57536757 0.20800082 -0.18066776 0.13457449 0.061995696 0.18364172 -0.28651935
0.15739366 0.19059354 0.28684476 0.09154167 0.053508025 0.09628359 0.00050964765 0.03342871
0.15509246 -0.067107335 0.08811072 0.017167168 0.08600763 0.16079028 0.14319713 -0.12626709
-0.5134877 0.0016498391 0.20072213 0.18681706 0.038559273 -0.027239878 0.013041006 0.16997284
0.09122883 0.08541185 0.092201434 0.017567713 0.12676126 -0.03301355 -0.12157 -0.04342335
-0.12044988 -0.30682054 0.13466603 0.5766225 0.24112584 0.206596 -0.17589061 -0.09428123
0.15602164 0.12020227 0.19358426 0.051076226 0.058607128 -0.07895324 0.006921475 0.045820124
-0.05149358 0.12978934 0.08584954 0.11809286 0.05371266 0.039822556 -0.00024203355 0.00094232586
-0.044210527 -0.025077209 0.06321723 -0.06288589 -0.123479985 0.026227169 -0.11645851 -0.07041103
-0.08973305 0.056621507 -0.01615981 0.050024994 0.037817154 -0.07067247 0.0750683 0.16666374
0.039847173 0.14546788 0.27364212 0.025378723 -0.11786942 -0.08918381 -0.0744381 0.028977027
-0.013414924 -0.126979 -0.03416785 0.0528187 -0.09482714 0.15121551 0.044498067 0.038694352
0.11869365 0.0391917 0.02084592 0.116078384 0.06817902 -0.019111598 0.0021587485 0.024555925
0.055428382 0.0007732344 0.1244682 0.19523466 0.053489838 -0.10083325 -0.0045442204 0.09105829
-0.09204953 -0.10957449 0.15118904 0.017533442 -0.04851316 0.080869295 -0.0005317728 -0.15305807
-0.030994011 0.040658206 -0.4924971 0.18365057 0.33202496 -0.12672831 0.08785751 0.028296987
0.045551445 0.13578506 0.11266347 -0.16818489 0.15086845 0.054410424 -0.24181667 0.081113346
-0.11650636 -0.03920541 -0.06868593 0.7694401 0.41642538 -0.015394325 -0.47068602 0.025913693
-0.05602326 0.06857006 0.15889052 0.22156598 0.4436186 0.36818653 0.14593603 -0.8314579
-0.1503122 0.25335738 -0.5197119 0.05942957 -0.04401459 -0.09251227 -0.14624526 0.0072481064

block1.0.bn2.weight f4 [8]
00000000: d8d0 f03e 208b 383f fb69 ae3c 4020 2a3f
00000010: 1840 fd3c b10d a73f 43cd 9c3c 5e78 0d3f
0.47034335 0.7208729 0.02129077 0.6645546 0.030914351 1.3051053 0.019140845 0.5526179

block1.0.bn2.bias f4 [8]
00000000: 7ab2 323e aa9d 873c 2f26 3dbe 74aa 4c3f
00000010: 5bdf 46be 72da dabc d201 18be 3051 323f
0.17450896 0.016554672 -0.18471597 0.7994759 -0.19421141 -0.026715491 -0.14844444 0.6965513

block1.0.bn2.running_mean f4 [8]
00000000: ff98 f03d aa6b cc3e abdb c83d ebcf e13f
00000010: 24b1 203d 0f1b 7e3f 3f5c 213f 80d1 a5bf
0.11747932 0.3992589 0.09807523 1.7641577 0.039231434 0.9926004 0.6303138 -1.2954559

block1.0.bn2.running_var f4 [8]
00000000: 8bf2 ce3e 00df 273f 300c 0a3e e74f 1440
00000010: b39b 693e fdc2 3f40 301f b63e aaba 463f
0.4041942 0.65574646 0.13481212 2.3173769 0.22813301 2.9962761 0.3557067 0.77628577

block1.0.conv3.weight f4 [16, 8, 1, 1]
00000000: f130 cfbd 9a29 dc3d 87c4 81bc 4452 acbc
00000010: 92da c73d 4957 febe adf6 d8bd 4e00 e53d
00000020: fc41 4b3e e91e 183e a0e2 f73d 9d6b e33e
00000030: 57c3 a3bc f113 073f 9c7c 043e 60c4 d4be
00000040: 197c 29be d997 0abe 2fed 1ebe 4586 2fbe
00000050: a4a0 433d 7a26 0ebf 9246 9d3d 9ca6 91bd
00000060: a9f8 92bd 3162 7a3d d29f e7bb ae83 653e
00000070: d192 1a3d d1be 163e 4143 6c3d bd7c 933d
00000080: 15f1 633c 11b2 06be 52c5 54be 61a9 c83e
00000090: 70b9 e2bd c430 7dbd 3d8a 493c fe33 493d
000000a0: 3c76 cdbd b514 8dbd f103 debc d331 1a3d
000000b0: 58b3 d33c d083 023f 4046 0fbe 12b2 0e3e
000000c0: 7623 893d 0853 eebe 1528 053e 8cca 8abf
000000d0: ad7c b73d df90 813e edfe f93d 64bc adbe
000000e0: 10be 81be 716b 88be 067b dd3c 5525 33be
000000f0: 7076 ad3d 7f38 4a3c d0c7 00be 0a8f 36be
00000100: 1c98 d2ba 4492 22bd 0219 cebd 675e 023e
00000110: 2c63 693d 498f 773e 1133 07be 9e53 c13d
00000120: e044 0b3f ecab 81be 4227 0e3e 0d2b 96bd
00000130: 8f53 83bd feb8 80be d715 69bd 3aa1 dfbe
00000140: a523 c6bd ab4b 3b3f de41 1a3e e0a4 6bbe
00000150: 03ed 1a3e 8073 81be ac6f f7bd 1eda 3b3f
00000160: 5ad9 abbe db6f debe e61e 9dbd ee4c 29be
00000170: 0bec 32bd db0f 05bf 45d7 93bb 89a5 9c3e
00000180: 6cc7 48be 008d 8d3c 5728 67bd 8b3b c6bd
00000190: 13bf 1a3b fc7e 41bf 0548 003c 95d1 503e
000001a0: 0243 123f a8ea 9fbe 1c09 103e 338d f8be
000001b0: 2b2a d83d d605 5db9 995f a83d b45b 733d
000001c0: 76ef d73d bff3 ff3d bb24 033d 2678 e6be
000001d0: cf69 ad3d 0967 56be 3660 823d 1f7c 943e
000001e0: 4249 a7be 9b78 993d be60 11bc 49c3 54be
000001f0: c60b 383e 8e0b 79bf b0b6 163d 6e86 edbe
-0.10116757 0.10750122 -0.015840782 -0.021035321 0.09758486 -0.49675968 -0.10593925 0.11181699
0.1984939 0.14855541 0.12103772 0.4441804 -0.019990606 0.52764803 0.1293816 -0.41556072
-0.16551246 -0.13534488 -0.15520166 -0.17141064 0.04776062 -0.5552746 0.07679476 -0.07111856
-0.071763344 0.0611288 -0.0070686126 0.22413513 0.03773767 0.14721228 0.057681326 0.07201526
0.013912459 -0.13153864 -0.20778397 0.39191726 -0.11070526 -0.061814085 0.012301025 0.04912185
-0.10032317 -0.06888715 -0.027101489 0.037645172 0.025842354 0.5098238 -0.13991642 0.13935116
0.06696217 -0.46547723 0.13003571 -1.0843062 0.08959327 0.2530584 0.12206826 -0.33932793
-0.2534032 -0.2664447 0.027036201 -0.1749471 0.08469856 0.012342571 -0.12576222 -0.17828003
-0.0016067061 -0.03969027 -0.100633636 0.12731324 0.056979343 0.24175753 -0.13203074 0.09439777
0.5440197 -0.25326478 0.13882163 -0.0733243 -0.06412422 -0.25141138 -0.056905594 -0.43677694
-0.096747674 0.73162335 0.15064189 -0.23012114 0.15129475 -0.25283432 -0.120818466 0.73379695
-0.33564264 -0.43444714 -0.07671909 -0.16533253 -0.04368214 -0.5197732 -0.004511746 0.30595043
-0.19607323 0.017279148 -0.056434955 -0.09679326 0.0023612424 -0.7558439 0.007829671 0.20392449
0.57133496 -0.31233716 0.14065975 -0.48545226 0.10554918 -0.00021078376 0.08221359 0.059413627
0.105437204 0.12497663 0.03201745 -0.4501354 0.08467447 -0.20937742 0.06366007 0.29000947
-0.3267308 0.07493707 -0.008873163 -0.2077762 0.17973241 -0.97283256 0.036795318 -0.46391624

block1.0.bn3.weight f4 [16]
00000000: 34fe ab3d e904 c83f b12e b53e 7eff 393c
00000010: e386 843d c264 1bbd 3f3b 6b3f 4719 5b3d
00000020: 094a c63e 4dd2 143f 0977 193f afa7 b23e
00000030: 170a 523f f8c4 313f 7f13 e13e 232c 873f
0.08398095 1.5626498 0.35387185 0.011352418 0.0647104 -0.037937887 0.9188728 0.053490903
0.3872836 0.58133394 0.5994726 0.34893557 0.82046646 0.69441175 0.43960187 1.0560344

block1.0.bn3.bias f4 [16]
00000000: 33b5 903d b9c8 09bf 1114 a0bd e7db e9bd
00000010: 8bcf 84be ad15 a63d cebf 4a3f 1db6 20be
00000020: 0d1b 0cbf 7cd4 883e 19eb 7e3e 23fc ffbd
00000030: 6906 9a3d ca61 24be e484 0f3e 7991 0cbe
0.07065811 -0.53821903 -0.07816327 -0.11418896 -0.25939593 0.08109603 0.7919892 -0.1569447
-0.54728776 0.26724613 0.2489437 -0.12499263 0.07520754 -0.16052929 0.14015538 -0.13727368

block1.0.bn3.running_mean f4 [16]
00000000: 89de 11be b074 c53e d0ce 00bf 021d 953e
00000010: 42f6 953e cc5c 943e 73f7 93bf f7ee d3be
00000020: 2b75 833e a72c c4be 3fce d43e 0550 b5be
00000030: 9f59 97be 5f81 93be 39cd 52be f4da 76bf
-0.14245047 0.38565588 -0.5031557 0.29123694 0.29289442 0.28977048 -1.155989 -0.41393253
0.2567533 -0.38315317 0.41563603 -0.35412613 -0.29560563 -0.2880964 -0.20586099 -0.96427846

block1.0.bn3.running_var f4 [16]
00000000: dbf2 a03e e1f5 4c3f ba97 fa3e 99c0 b53d
00000010: b72b 203d 1463 aa3e 5c0a f13e dc2a f73c
00000020: 0027 d33d 32bc 513e 6f10 b83e 8ecb 113f
00000030: f6d9 503f 17b9 893e 7891 9b3e 2c53 a23f
0.31435284 0.8006268 0.48943883 0.08874626 0.03910419 0.33278716 0.47078216 0.030171804
0.10310173 0.20481947 0.35950038 0.56951225 0.8158258 0.26899025 0.3038442 1.2681632

block1.1.conv1.weight f4 [8, 16, 1, 1]
00000000: 8c5f 373e eff1 5f3e 78b2 443b dd55 bfbd
00000010: 7397 8d3e 3ff5 923e ebe7 ab3e c5d3 2ebd
00000020: f54c 473d f2d8 c6bd b349 f7be 769b 95be
00000030: 4402 d3bb d3ce 46be 795d 693e 4acb c33d
00000040: 77a6 52bf 51b9 e83d 9015 17be 1407 003f
00000050: 84ca 01bd 87c4 1140 65c5 9f3e 5730 a23b
00000060: f9d7 1c3e cd17 893e 4322 92be 55f6 9a3e
00000070: 3a55 f53b f179 9dbd 7db6 0fbf b40e 6a3e
00000080: be53 92bd c601 013f ef5c 4f3e a10a 0f3f
00000090: 2981 1a3e 53a1 063f 81d9 6bbe e2d2 a6bd
000000a0: 3c54 ed3d 67b2 403e e869 a2be 28e3 d33c
000000b0: 29c9 2bbe bcf0 9abd 9bb4 593e 9a33 81be
000000c0: 6017 44be c6b3 cabe 5b97 973e bce8 32bf
000000d0: 95fc 14be 024e c6bf 660c a73a 2444 82bd
000000e0: c950 d8bd bddf 38be d853 683e 17e9 773e
000000f0: 4b4e 9f3b da2e b0bd bb88 f9be 3d95 cb3e
00000100: 0c49 c83f b067 b73d 5959 35bd 755b 513d
00000110: 3a97 1dbe 39bc 34be caa7 a23e 0ba7 07bc
00000120: 1872 623e 5ad2 e23c 47d0 7dbe 11cd a53e
00000130: 8c8d c7bd 5810 283e 2538 ccbc 327e 82be
00000140: 73be 31bc fedb 5f3e 0470 313e 5e0f 05be
00000150: 3dcb 163e fab4 45be e0a8 a13e f048 893e
00000160: 461e a53d f5a8 763d 947d c93d 38a9 9ebe
00000170: 1024 f7bd 7cf4 893e a757 953d d374 153e
00000180: 3793 8a3d ac88 263f da26 31be e8b6 203e
00000190: a55e 313e c8a7 9c3e 4fe9 cb3e f105 8abc
000001a0: f221 933e 12f5 883d 0e29 813f f911 98bd
000001b0: 00aa a63c 0a76 fc3c a52a 143d 2f8e b5bd
000001c0: cf7c 0bc0 5423 16be d57c a4bd 27cd edbe
000001d0: 4c69 8fbd bd93 bbbf 268e 293d d421 04be
000001e0: f55d 3fbe 048d 713c 5fa3 42be f07f eebd
000001f0: c5d9 34be efd7 8abd 43b3 5d3e 74f5 963e
0.17907542 0.21869634 0.0030013602 -0.09342549 0.2765461 0.28702733 0.33575377 -0.042682428
0.048657376 -0.09709348 -0.48298416 -0.2922017 -0.006439479 -0.19414835 0.22789563 0.09560259
-0.82285255 0.11363471 -0.14754319 0.500108 -0.031687275 2.27762 0.31205288 0.00494961
0.15316762 0.2677597 -0.28541765 0.3026606 0.0074869664 -0.07689274 -0.5613783 0.22857171
-0.07144879 0.5039333 0.20250295 0.55875593 0.15088333 0.5258991 -0.2303219 -0.081456915
0.11588332 0.18818055 -0.31721425 0.025865152 -0.16775955 -0.07565448 0.21260302 -0.2523468
-0.19149542 -0.3959028 0.29607663 -0.69886374 -0.14549477 -1.5492556 0.0012744784 -0.06360653
-0.105622835 -0.180541 0.22688234 0.2421001 0.004861628 -0.08602686 -0.4873713 0.39762297
1.5647292 0.08955324 -0.04427466 0.05111261 -0.1538972 -0.17649926 0.31768638 -0.008279572
0.22113836 0.027688194 -0.24786483 0.32383016 -0.09743795 0.16412485 -0.024929116 -0.25486904
-0.010848629 0.21861264 0.17327887 -0.12994143 0.14725967 -0.19307318 0.31574154 0.2681346
0.08062415 0.060219724 0.09838405 -0.3098848 -0.12067425 0.2694434 0.07292109 0.14595346
0.0676636 0.65052295 -0.17299977 0.15694773 0.1732126 0.30596757 0.39826438 -0.016848536
0.28736836 0.066873685 1.0090654 -0.07425303 0.020344734 0.030818004 0.03617348 -0.0886501
-2.1794927 -0.14661914 -0.08031622 -0.4644558 -0.07002506 -1.4654461 0.04139533 -0.1290353
-0.18688186 0.014743093 -0.19007634 -0.11645496 -0.17661197 -0.06779467 0.21650414 0.2948414

block1.1.bn1.weight f4 [8]
00000000: 73e9 f73c bc26 793f 376c 413f 6a8a 2f3f
00000010: 81bf 073f c883 e33b 5a7a 8c3f 68ec 643f
0.030262684 0.9732473 0.7555575 0.6857058 0.53026587 0.0069432 1.0974839 0.8942323

block1.1.bn1.bias f4 [8]
00000000: 0eec 06be 6831 993f 6e2a 78be 68e0 043f
00000010: 6aec 7f3f 1c1d e7bc 865a 7abf 8a36 d33e
-0.13175985 1.1968203 -0.24234936 0.51904917 0.99970114 -0.028212123 -0.9779438 0.41252548

block1.1.bn1.running_mean f4 [8]
00000000: 1615 b53f 5416 4e40 c7f0 f63e fb2b 7ac0
00000010: 82a9 af40 a50b 243f db92 8e40 3004 45c1
1.414706 3.2201128 0.48230574 -3.9089344 5.489442 0.6408027 4.4554267 -12.313522

block1.1.bn1.running_var f4 [8]
00000000: b0dc 1d40 2a01 9941 2851 4240 2af9 0541
00000010: afd8 f840 7432 783f 928d bc40 afaf 3f41
2.4665947 19.125568 3.0362034 8.373331 7.7764506 0.96951985 5.8922815 11.9803915

block1.1.conv2.weight f4 [8, 8, 3, 3]
00000000: db17 3fbe 003b d8bd b2c3 09be 99af d53b
00000010: a8a2 2dbc 1f50 00be 0f2e 253d 9d82 96bd
00000020: 0aa6 d1bd de88 97bd e60c e0be 29ad d33d
00000030: ee7e 8d3e e396 553c 14f8 efbd b661 eabc
00000040: 1077 023e 74d4 573e 1c54 a93e 832b df3c
00000050: fbd8 623d 3fc2 173e 62da 7ebe e971 0cbe
00000060: 4f96 6ebe cbc3 7dbe a948 17be bad8 6cbe
00000070: 9643 843e 1f93 1bbe 69d7 293e 7284 2b3f
00000080: 64c3 8c3c cc04 80be 7882 1dbe e4eb 6dbd
00000090: 0c4f 23bd 2fd6 9fbe e9b8 373d 7d29 7c3d
000000a0: 8671 42bf e6df 833e 640f c03e 0ca7 ed3d
000000b0: 0974 903e ec2c a4bd bc67 e1bd 36fb 083c
000000c0: 5c4c 023c 5677 94bc ec23 b53c 1e26 f33a
000000d0: 93e0 e3bd b6fc afbc 310e 213e e281 3e3e
000000e0: c8c2 bc3d 3b98 133f 9fa3 3b3f 55a8 fb3e
000000f0: 64a6 1c3e d513 933e 5bf8 76bd 6975 aebb
00000100: 6471 903f 483d 70bf beaf fe3e 5f2c 0940
00000110: ebaa 413d 688c 1bbf 7e62 92bf ebf2 84be
00000120: 6e84 e8bd 87aa d2bd c8d2 ae3c 46f1 aabc
00000130: 8da6 cfbd de20 adbd bacd 21bc bb35 42bd
00000140: cc5e 86bc 642e 8bbd 93bc 8fbd ae3c 9cbd
00000150: 119e d1bc 8e76 f2bc 811d 4cbd 984f 43bc
00000160: b6a6 463c d48b 473c 3299 eebd 7868 e5bd
00000170: eb55 60bd f96a 37bd 80a4 cfbd 4445 ebbd
00000180: f320 6e3d 2679 9c3c eeba 4e3c d81d 6a3d
00000190: d944 78bc 4615 03bb c653 ed3d fb03 613d
000001a0: e403 393d e958 873d 3579 293d 3526 723d
000001b0: 1086 36bc a06e 0d3c a4e1 95bd b5ca 0bbe
000001c0: aee1 89bd 9748 a9bd 1ec7 a7bc dfbd cf3d
000001d0: a16e 383e ad33 05bd 7e2d adbd f046 5dba
000001e0: efc7 f9bd 2fe6 ccbd 4d7c a1bc 7d03 8cbd
000001f0: f34b cabd aa27 30bd e870 adbd b12a 6abd
00000200: 9c1a 58bc d760 99bd 6f7c 0fbe f388 17bd
00000210: 2851 2cbd 4c47 8dbd bcd6 c73d cf19 053d
00000220: eebb e73d 2bdc 9c3d 3af2 f13d f84d bb3d
00000230: 3d57 2939 0f1b 883d bac1 823d 1f51 033d
00000240: caaf 34bd 4e40 d53b 9158 2cbc 507f 23be
00000250: 104e 94bd d62d 75bd e679 debd 8564 0fbe
00000260: 1bf6 54bd d712 9f3b df44 433f 6972 ba3e
00000270: ede6 09bf a5b8 fabf 00af 20be 4432 2b3f
00000280: cac6 03bf a391 053e 1b78 ab3a d092 113e
00000290: b411 a9bd 71c7 38be f114 c3be 3131 e2bd
000002a0: 4dfe 0cbe a12a 92bc a2ff 653e d458 283d
000002b0: c205 71be 88fa 83be eaef a43d 36f2 fc3e
000002c0: 11bf c9be ee2b 7fbe bf5c f83e ed3e c93d
000002d0: 644d 3abe c41b 25bf d85c 83be 8471 adbd
000002e0: f751 343d 9365 2cbc dc21 afbe 7951 263e
000002f0: d1d2 e73d e4fd 893d 60de 87bb deea 08bb
00000300: f8ad 143e b815 51bc 4fcc d8bb 683d ed3c
00000310: eb96 1bbd 42ab 133d fe60 80be dbee 62be
00000320: 20ad 2cbe 5655 0fbf b85d ddbe 33ac c1be
00000330: c071 9dbe cc01 61bd 4322 85be c936 9fbe
00000340: 2ccd 0d3f 7b77 a0be 229b a5bd deec 7e3f
00000350: f1e9 a03d f3f5 cbbe f6df 75be b779 dabe
00000360: e1c0 2dbd 6df4 913d 4f49 db3c 808f 6aba
00000370: a071 1fbc 7f1e 7dbd 0663 0fbc 7859 7bba
00000380: 5f25 cc3d 1934 4b3e 86e7 0dbe 798f b1be
00000390: ded0 293d b854 0f3f 7c51 d3be 7195 b6be
000003a0: 6db8 6b3d ce37 a1be f6ee 88be 9e40 54be
000003b0: 5a34 473d 0055 95bd 818f a4bd 01ef 9ebe
000003c0: c91e 023c af86 13be a2df 3d3d 99ac 27bc
000003d0: a027 71be 43a2 e1bd 9eab 66be fef7 03bf
000003e0: 7e98 44bd 805f 84bd c46a a1be b40f a83d
000003f0: 1ec4 c63d 6aa4 d13e 602d 153f d11f 3c3e
-0.18661444 -0.10558128 -0.13453558 0.006521177 -0.010597862 -0.12530564 0.040327128 -0.07349131
-0.102367476 -0.07399152 -0.4375984 0.10335762 0.27635902 0.0130364625 -0.11717239 -0.028611045
0.12740731 0.21077138 0.33071983 0.027242428 0.05538271 0.14820193 -0.24887994 -0.13715328
-0.23299526 -0.2478172 -0.14773811 -0.2312955 0.25832814 -0.15192841 0.16586079 0.6699897
0.017183013 -0.2500366 -0.15381801 -0.05808629 -0.039870307 -0.31218097 0.04485408 0.061563004
-0.75954473 0.25756758 0.37511742 0.11604127 0.28213528 -0.08016381 -0.11006114 0.008360675
0.007952776 -0.01812331 0.022111855 0.0018550789 -0.111268185 -0.021482807 0.1572807 0.18604234
0.09216839 0.5765416 0.7329654 0.49151865 0.15297848 0.28726068 -0.060295444 -0.005324055
1.1284604 -0.9384351 0.49743456 2.1433332 0.04728214 -0.6076112 -1.1436307 -0.25966582
-0.11353384 -0.10286432 0.021340743 -0.020867001 -0.10139189 -0.084535345 -0.009875709 -0.047414523
-0.016402625 -0.06795958 -0.070183896 -0.07628761 -0.025588067 -0.029597547 -0.049832825 -0.011920832
0.012124708 0.012179334 -0.116503134 -0.112015665 -0.054769438 -0.04477975 -0.10138798 -0.11487821
0.05813689 0.019100737 0.01261781 0.057157367 -0.015153133 -0.0020001694 0.11588244 0.054935437
0.045169726 0.06608755 0.041375358 0.05911847 -0.011140361 0.008632332 -0.07318428 -0.13651545
-0.06732498 -0.082657985 -0.020480689 0.10143637 0.18010952 -0.032519985 -0.084559426 -0.00084410515
-0.121963374 -0.100048415 -0.019712592 -0.06836603 -0.098777674 -0.043006577 -0.08468801 -0.05716962
-0.013189938 -0.07489174 -0.14012311 -0.03699584 -0.042069584 -0.068983644 0.09757754 0.032495316
0.113151416 0.07659181 0.11813779 0.09145731 0.00016149595 0.06645786 0.06384607 0.032059785
-0.044112958 0.00650791 -0.010519163 -0.15966535 -0.07241452 -0.059858166 -0.10863094 -0.14003189
-0.051992517 0.004854541 0.76276964 0.36415413 -0.5386799 -1.9587599 -0.15691757 0.66873574
-0.51475203 0.13043837 0.0013082059 0.14216161 -0.0825533 -0.18044831 -0.38101915 -0.11044539
-0.13768883 -0.017842593 0.22460797 0.041100338 -0.23537353 -0.25777078 0.080535725 0.49403542
-0.39403585 -0.24919102 0.4850826 0.09826455 -0.18193585 -0.6449549 -0.25656772 -0.08468917
0.04402348 -0.010522264 -0.3420552 0.16242017 0.11319507 0.06737879 -0.004146382 -0.0020891945
0.14519489 -0.012761526 -0.0066161524 0.028959945 -0.037985723 0.036051996 -0.25074 -0.22161429
-0.16862917 -0.5598959 -0.43235564 -0.3782669 -0.30750847 -0.054933354 -0.26002702 -0.31096485
0.5539119 -0.31341156 -0.0808623 0.9958018 0.07857121 -0.39836082 -0.24011216 -0.42670986
-0.04242027 0.07126699 0.026768355 -0.0008947775 -0.00973168 -0.06179666 -0.008751636 -0.0009588222
0.099680655 0.19844092 -0.1385785 -0.34679773 0.041458957 0.55988646 -0.41273105 -0.3566089
0.05754893 -0.31487888 -0.26744813 -0.20727775 0.04863391 -0.07291603 -0.08035184 -0.3104172
0.00794191 -0.14406846 0.04635585 -0.010234022 -0.23550272 -0.11017277 -0.22526404 -0.5155028
-0.04799699 -0.06463528 -0.31526768 0.0820612 0.09705375 0.4094575 0.5827236 0.18371512

block1.1.bn2.weight f4 [8]
00000000: cc47 503f cf9a ec3a e3ad 2d3f 9e55 0f3f
00000010: ea52 fabe fb41 0a3d deee 873f 5c88 363f
0.81359553 0.0018051508 0.67843455 0.55990016 -0.48891383 0.03375433 1.0619771 0.7130182

block1.1.bn2.bias f4 [8]
00000000: 1a11 8b3f 8561 e3bc ca56 8d3f 5ce9 193f
00000010: 8128 6e3e d950 06be a2fb 91be 52f1 873f
1.0864594 -0.027756462 1.1042111 0.60121703 0.23257639 -0.13116778 -0.28512293 1.062052

block1.1.bn2.running_mean f4 [8]
00000000: 1199 943f e776 f9bc 9b05 4bc0 0562 8bbf
00000010: eb7b 97bf c3d7 18bf 091b 9cbf 156c dcbe
1.1609212 -0.030452205 -3.1722171 -1.0889288 -1.1834692 -0.59704226 -1.219575 -0.4305121

block1.1.bn2.running_var f4 [8]
00000000: 742d 3d40 0f6f eb3e bf0f 5140 e83e d03f
00000010: b3b1 3040 2adc d63f 7f8b 6a40 876d 9440
2.9558992 0.45983168 3.266586 1.6269197 2.760846 1.6785939 3.6647642 4.63837

block1.1.conv3.weight f4 [16, 8, 1, 1]
00000000: aa51 b5be 8a24 22bb d3ee 5a3e 83af 80bf
00000010: 8a29 e1bd d259 a73c b3a4 573e 5146 d9bb
00000020: 720b 1a3e 5de1 90bc fbb4 c9be 4003 5ebe
00000030: 5c02 273e 3ca1 abbd da20 e73d d86d 99be
00000040: 3a9b 04bf 705c 533e 84e0 5ebe 645c 2f3e
00000050: b257 323e 819d 4fbd 81c9 543f 33a0 3d3d
00000060: c68b 483e a50b b23d 2831 75be 924a 44be
00000070: 2879 e1bd 1fb9 4d3d 95f6 94be 13cc 443e
00000080: b3b5 043d 7c6e 233e d7d5 33bf 6819 713e
00000090: 0086 603d 7f3d 82bd 6eea c5bc 6961 b13f
000000a0: d2b3 d9b6 561a 1f3e 1b47 03bf 2b45 083f
000000b0: 054a 07bf 3b63 23be 273d d73d aca9 92be
000000c0: 6760 2dbf 9166 c7bd 36d7 c23e 7db0 1cbf
000000d0: 1654 8dbd b5ea 09be c7bd 013e 125e e03e
000000e0: d5aa 30bf 7609 aabb a609 ec3e a56d 243e
000000f0: 2d8f 5abe a1a5 bfbc f407 f8be 126c ba3e
00000100: e9dd 7a3f 9e0d b33d ba87 5c3f f103 f8be
00000110: 3f10 89be 9427 eb3d cb9a 6ebe bf31 d43e
00000120: 863f 98bd c00a 7b3d b1ed 203f ee8c d93d
00000130: fdc3 03bf 3751 ae3d b777 6c3f a792 5bbf
00000140: c418 53bf 5599 b93d f3f6 513f f577 45bc
00000150: 0f87 00be cace 32be 1923 e33c d719 7ebe
00000160: 6d7f 22bf 235d ccbd fce9 ab3e 9204 19be
00000170: 9837 04bf e78b bf3d d19c a13e 9f4c d0bd
00000180: 68ab d73e 8ed8 d0bb 020c 543e 147d e2bd
00000190: fb32 89bc 69a0 c13b d2d2 02be bbb4 3cbd
000001a0: 3e25 17be 0440 8ebd f30c da3e 9b0b b13e
000001b0: 1807 85be 9940 cbbd 754d 59bf ae0e 9fbe
000001c0: f3cc a8bd 45fc c4bd 4df7 953e a44c 9d3d
000001d0: dc20 ebbd 3460 8a3d d39d aebe 201c 32bf
000001e0: 6448 2fbf 80f6 ca3d bed0 04be 84aa e73d
000001f0: 8fcb 87be e8e1 5fbe 12bf cc3e 421c 2dbe
-0.35413867 -0.0024741017 0.21380167 -1.0053562 -0.10994251 0.020428572 0.21058922 -0.006630697
0.15043429 -0.017685587 -0.3939589 -0.21680927 0.16309494 -0.083803624 0.11285563 -0.29966617
-0.51799357 0.20640731 -0.21765333 0.17125088 0.17416266 -0.050687317 0.8311997 0.046295356
0.1958457 0.08693627 -0.23944533 -0.19169071 -0.11009437 0.050225373 -0.29094377 0.19218473
0.032399844 0.15960115 -0.7024817 0.23544848 0.054815292 -0.06359386 -0.024159636 1.3857852
-6.488038e-06 0.1553739 -0.51280373 0.5323054 -0.5284732 -0.15955822 0.10509711 -0.28645074
-0.67725223 -0.0973636 0.38054818 -0.612068 -0.06900804 -0.1346844 0.1267005 0.4382177
-0.6901067 -0.005189116 0.4610111 0.16057451 -0.2134368 -0.023394408 -0.48443568 0.36410576
0.9799486 0.08742832 0.861446 -0.48440507 -0.26770207 0.11482158 -0.23301236 0.41444203
-0.07433991 0.06128955 0.6286269 0.10622583 -0.5147093 0.08511584 0.9237017 -0.8577065
-0.82459664 0.09062449 0.8201744 -0.012052526 -0.12551521 -0.17461696 0.027726697 -0.24814545
-0.63475686 -0.09978702 0.33576953 -0.1494315 -0.5164733 0.09352856 0.31564954 -0.10170864
0.4212296 -0.0063734716 0.20707706 -0.11059013 -0.016747942 0.005909015 -0.12775734 -0.046070796
-0.147603 -0.06945804 0.42588004 0.34579167 -0.25981975 -0.099244304 -0.84883815 -0.31065887
-0.08242216 -0.09618429 0.29290238 0.07680634 -0.11480877 0.067566305 -0.34104785 -0.69574165
-0.68469834 0.099102974 -0.12970254 0.1131182 -0.2652249 -0.2186352 0.39989525 -0.16905311

block1.1.bn3.weight f4 [16]
00000000: de28 c13e afa6 613e cc71 1c3e 9842 5abe
00000010: 0a75 bf3f 0894 0e3f ca76 d63e e3b3 883f
00000020: 07ff e23f ee51 a33f 56a4 e63e 5aad 3b3e
00000030: a5a5 593d 50cc 133f ff93 113e b75e 473e
0.37726492 0.22036241 0.15277785 -0.21314466 1.4957592 0.5569463 0.41887504 1.0679897
1.7734078 1.2759378 0.45047253 0.18327847 0.053136487 0.5773363 0.14216612 0.19469725

block1.1.bn3.bias f4 [16]
00000000: 7295 3ebe 39b9 aebe 0722 b23b 57bc a3be
00000010: d429 b4bc 6b17 80bf e877 753d e7c6 3d3e
00000020: a09b 0b3e 291a 7f3e d028 63bd 8f8c 19bd
00000030: afaa f3bd a16a 9d3e 38ac 8fbc a1d3 c13d
-0.18611696 -0.3412569 0.0054361853 -0.3197963 -0.021992601 -1.0007147 0.059928805 0.18532906
0.13633585 0.24912323 -0.055458844 -0.037487563 -0.1189779 0.30745414 -0.017538175 0.09464193

block1.1.bn3.running_mean f4 [16]
00000000: 9571 4cbf 13fc 28bf 8069 d9be e5aa 85bd
00000010: a5c2 5f3f 9fca 2dbf 13f2 56be 6982 a53d
00000020: aecd 0440 ddb0 10be 8d26 9bbe bb8e 1dbf
00000030: e41a 0b3f 3bcc 98bd 7ed3 15bf def1 80bf
-0.7986081 -0.66009635 -0.42463303 -0.06526736 0.8740638 -0.678873 -0.20990781 0.080815144
2.0750537 -0.14129968 -0.3030285 -0.61545914 0.54337907 -0.07460829 -0.58525836 -1.0073812

block1.1.bn3.running_var f4 [16]
00000000: a3e2 4a3e d74a 003e a2d7 fa3e 71e0 e53d
00000010: de48 623f b248 0e3e ebdd a93e 64d4 043f
00000020: c54b ae3f 65b0 543f 7848 223f 0b0c b93e
00000030: 72b1 303e 4676 913e 3128 4b3e 5354 df3e
0.19813018 0.12528549 0.4899264 0.112244494 0.88392437 0.13894919 0.33177122 0.5188658
1.3616873 0.83081657 0.6339183 0.36142 0.1725519 0.28410548 0.1983955 0.43619022

block1.2.conv1.weight f4 [8, 16, 1, 1]
00000000: 84a4 a83e c7b1 483f a057 ab3e 5099 7fbd
00000010: 42b8 413b 097d b2bd d759 92be fbf5 a5bc
00000020: 3968 4cbe 6240 a53d b64f 38be e8f0 9c3f
00000030: 2025 603e debf 90be 8a8f 253f cc09 82be
00000040: 0c4e 6f3e b6b3 b33c fd49 b7bc b75d 93bd
00000050: 1c26 c3bc c4bf 43be 880d 123e d3fa d9bd
00000060: 814f 6cbc ff01 163e c913 363d 9edd b4bd
00000070: 5eb7 5dbd 2680 3b3e 7610 44bd 9496 c93c
00000080: a995 c7be 02ef 833e 94a1 f2be f797 853e
00000090: 80ff eb3d eafd b4bc f078 c93d 2c58 aebd
000000a0: d7ad 7e3d 777d 413c 0291 66be 71d2 a3be
000000b0: 04f9 82be 5240 37bc 7adf 543f e4a3 bcbb
000000c0: 46ce 413f e0f3 bdbd b5b3 7c3e e13a 943e
000000d0: f044 593d 71ed 8cbf 5e01 c8bd f0b8 843e
000000e0: 712c 09bf a9bf f9bd 8d36 aa3d db43 a43d
000000f0: 5bcc 013e 8995 1e3d b9fd bdbe 9156 083d
00000100: 6a30 6c3d 1028 3a3d fa92 67be 5b0f 933d
00000110: 6fa0 bdbd 5b6f dabd 92a7 16be 6c40 70bd
00000120: bcd8 0e3d 218c aabd 31e5 7b3f d5cd 3c3e
00000130: 8a1f c7be 3366 51be ab4c 13be 29a9 0dbe
00000140: 6973 2cbe 3242 80be 95cb 11be 3385 ccbc
00000150: eb7e 2cbf d128 383e ac90 0d3f 4acb 133e
00000160: ff36 30be 1a38 c7bd 09cc 1cbf e181 be3c
00000170: b2fb d6be b82f 2d3f ecf7 39bf 3d90 6f3e
00000180: 08f8 b3be 136c 273e 184f 2ebe b769 a83e
00000190: 04f8 c33e d585 4a3e cd44 da3e cbee 023e
000001a0: fe2a 29be b4ee 80be cc36 91bc c742 ebbd
000001b0: f04a be3c bd36 75bd 57d9 023d 7e9b 9bbe
000001c0: dd11 2cbf 9aed cebe 943f 2dbd 1d68 ee3d
000001d0: 07fc 8cbe 0b3b 833e acd5 18bf c03f eb3d
000001e0: 7794 f83e 2624 62be a314 ebbe 21cb e63e
000001f0: b7cf 093e 7b1a 10be e56a 39bf 618a 163e
0.32938015 0.78396267 0.3346529 -0.06240207 0.002955929 -0.08715255 -0.28584167 -0.020258894
-0.19961633 0.08068921 -0.17999157 1.2261019 0.21889162 -0.28271383 0.6467215 -0.253981
0.23369616 0.021936279 -0.022374148 -0.07195609 -0.023821883 -0.19116122 0.14262974 -0.10643544
-0.014423252 0.14649199 0.044452462 -0.088313326 -0.05412995 0.18310603 -0.04786726 0.024607934
-0.3898137 0.25768286 -0.473889 0.26092502 0.11523342 -0.022093732 0.0983752 -0.08512911
0.062177505 0.011809698 -0.22516254 -0.31996492 -0.2558061 -0.011184769 0.831535 -0.005756842
0.75705373 -0.09275031 0.24677928 0.2895117 0.05304426 -1.1009961 -0.09765886 0.25922346
-0.5358344 -0.121947594 0.08311186 0.08020755 0.12675612 0.038716827 -0.37107638 0.03328568
0.05766336 0.045448363 -0.22614661 0.07180663 -0.09259116 -0.106657706 -0.1471236 -0.058655187
0.034874663 -0.08327509 0.98396593 0.18437894 -0.3889125 -0.20449142 -0.14384715 -0.1383406
-0.168409 -0.25050503 -0.14237817 -0.024965858 -0.6738116 0.1798432 0.55298877 0.14433017
-0.1720848 -0.097274974 -0.6124883 0.02325529 -0.41988903 0.6765094 -0.72643924 0.23394866
-0.3515017 0.16349821 -0.1702236 0.32893154 0.38275158 0.19777615 0.42630616 0.12786405
-0.16520306 -0.25182116 -0.017726324 -0.11487346 0.023229092 -0.059866656 0.031945553 -0.3039207
-0.6721476 -0.4041565 -0.04229696 0.11640952 -0.27536032 0.25630984 -0.5970104 0.11486769
0.4855077 -0.22084102 -0.45914182 0.4507685 0.13458143 -0.14072601 -0.72428733 0.14701225

block1.2.bn1.weight f4 [8]
00000000: 90ad 673f 56bb a73e e790 343f 4382 443f
00000010: 3708 243f 3590 4c3f d115 2e3f 588a 703f
0.9049921 0.32760113 0.70533603 0.76761264 0.64075035 0.7990754 0.6800204 0.93961096

block1.2.bn1.bias f4 [8]
00000000: 303a 6a3e 469f 4fbe e475 4dbd 7d0f 863e
00000010: effb d7bd 277c 9e3e a0ce 9fbe 9d6e 993e
0.2287376 -0.20275602 -0.050161257 0.26183692 -0.105460994 0.30954096 -0.3121233 0.29967204

block1.2.bn1.running_mean f4 [8]
00000000: e26f 8340 c525 473f a0bf d6bf fbd5 563f
00000010: 9fd0 2bbe c104 12c0 3416 3bbf adaa 95c0
4.1074076 0.77792007 -1.6777229 0.8392026 -0.16778801 -2.2815402 -0.73080754 -4.6770844

block1.2.bn1.running_var f4 [8]
00000000: f6e6 6a41 e7fb f93e 70f0 c640 f216 d540
00000010: eaa6 9c40 3684 0f41 cd41 f63f 5c90 c340
14.681387 0.48825 6.2168503 6.659051 4.8953753 8.969778 1.9238831 6.111372

block1.2.conv2.weight f4 [8, 8, 3, 3]
00000000: a9ba 30bd a9f7 30be 9b92 68be 1297 dabe
00000010: 94cf 35be 942d 8fbe 3f2f d13c 7f1a 0dbe
00000020: fc1b 3bbe a37b 103e f13d b93d 3a9b 003d
00000030: c23b 273e 72b6 c4bd 776d 1dbe b5bf 303e
00000040: 3328 fabb 4753 963c c21f 6c3c 2f47 e2ba
00000050: 2a3a b4bd 8ef6 05bd 70cf 413e 8e66 2bbe
00000060: 20dd bebd 3163 85bc d2aa 64bd 4cb0 03be
00000070: 1640 f33d 4adf b43e 77f4 10be a42d 41bf
00000080: 676e c0bd d621 113f bc09 a6bb cf11 033c
00000090: c74c a33e 15f6 9a3e b923 df3c b567 08bd
000000a0: 78eb a73e bdd9 503e 468d 423c cbbc 47be
000000b0: 5c3b cbbd c54a 8fbc be8a 65bd 9d9a 26be
000000c0: c059 273f f141 7c3d 3537 b8be efb8 1b3e
000000d0: 8caf 64bd b1c0 093e 9200 fdbb 08b9 2ebd
000000e0: aa46 87be f5bf fc3d 62b4 a23c 0e1a 0abe
000000f0: 5b6f 69be c437 9fbd a3b2 12be 3a23 c83d
00000100: c805 9bbd 1ca8 95be eaf5 86be be25 723f
00000110: 0ac7 78bd c72c afbe 958b 92be 1df0 26ba
00000120: cac4 b5be efec 393f e1b7 fabd 1551 363c
00000130: 0db9 4c3f 345e 5c3e d58b 90be 97fb f7be
00000140: ec8b c6be bea1 b1bd cbaf 7bbd 3313 acbd
00000150: 902b ce3c 7521 82bd e6c0 52bd 192f 5a3c
00000160: e469 33be 339a afbd 5d0e 9a3d ac2b b83d
00000170: 578e a7be 54ca 073f 1aad 003f bcf4 d73c
00000180: 3363 ce3e ad60 ed3d 3305 ddbd f947 a73c
00000190: 9f1a cdbd d6e3 bcbc 7724 7fbc 3003 28be
000001a0: 07a7 d03c 221b 5c3b f16c afbe 3bc5 24be
000001b0: b2e2 d9bd b172 553e 67b5 afbe 13e1 0d3e
000001c0: 4c7f 103e 3e96 4cbe 6fee c23c afc4 f33d
000001d0: 9409 5e3e 1116 5d3e eca0 4cbe 97eb 5bbe
000001e0: 1aac d5bc efa3 a8be 31a4 c0bd f216 bc3e
000001f0: 9cee 863e 3210 dbbd e252 7bbe ac6a 1cbe
00000200: 0306 aabd e339 38be 4880 88bd 901a a73d
00000210: 0326 38bd d47a ccbb 6202 3cbe 0b96 243e
00000220: 030c 0bbe b0eb 30be 2bf9 d7bd 6383 033e
00000230: accf 203c 2470 41bd d7b6 8ebe dc6d cfbd
00000240: 2fd9 42bd 0d86 1e3e 3d0b 25bd 0e6b 943e
00000250: 879e 903f a717 1f3f dfee 27be cb60 1c3f
00000260: a3b5 54be 00bd b2bd 45db e73b 1562 2cbd
00000270: 4e01 bd3b af34 f63c 4032 acbc d7de abbc
00000280: 7990 ffbc d990 1ebd 5353 4cbe fe42 acbd
00000290: 4ef8 44be 7c38 53be 182c 03bd aa8d c8bd
000002a0: d4f4 91bc 582a 393e d9bc c7bd f5bf edbd
000002b0: c97b 083d 65bb 44be 44fc da3d b954 da3e
000002c0: a0b0 b63c 19f0 86be 5ff2 a1bd 9d23 1cbe
000002d0: 2ac2 2a3e 70e7 b73d 951c 92bd 2e7f 923c
000002e0: 0a4e 2b3e 12ae 103e 73ad aebe a487 91bb
000002f0: f25d 1f3e b5bc 253e ab3a 173e b1bc e9bd
00000300: 0571 293e 1973 4abe 3e9a 81be e524 d43e
00000310: 1352 033d 6da7 013e 2464 3e3d 9eac dabb
00000320: 7b7a 1b3e a418 13bd c876 14be b37f 19be
00000330: d53b ebbb 4021 88bd 12e6 1b3d 0c1b 323e
00000340: 66ae 043e 2227 17be bcda 523d b514 fd3e
00000350: 4cf7 88be 2145 9ebd c5b4 ac3e 19f6 5bbe
00000360: f354 11be e2da 063f ff9c b0ba a6c7 5fbe
00000370: 871b dfbc bc3c dcbd feb7 073f 1a23 f33e
00000380: eb17 3c3e 0591 87bc 402d 233d d9f4 bdbd
00000390: 8ed2 2fbe ba41 e4bc c78a 1dbe 98ed c8bc
000003a0: b06d d8bd 9d04 d8bc 88dc 923b 8c51 90bd
000003b0: ff75 61be f4e4 943e d2f1 7c3e 6a93 57bc
000003c0: c1e6 94be 750d ca3c c593 a7bd bf6c 3ebd
000003d0: 0265 ed3c b217 313e 25a1 0abf dcbe 38bf
000003e0: 14c9 3ebe 7773 ecbd 9c88 93be 0292 81be
000003f0: ae17 2c3e 9c3c e23e 16b3 a23e 9a33 0ebe
-0.043146763 -0.17281975 -0.22712176 -0.42693383 -0.17754966 -0.2796446 0.025535224 -0.13779639
-0.18272394 0.14109664 0.090450175 0.031398036 0.1633139 -0.09605111 -0.15373789 0.1726063
-0.0076341867 0.018350257 0.0144118685 -0.0017263646 -0.088001564 -0.032705836 0.18926787 -0.1673834
-0.0931952 -0.01628265 -0.05582697 -0.1286022 0.11877458 0.35326606 -0.14155756 -0.7546027
-0.093960576 0.56692255 -0.0050670784 0.007999851 0.31894514 0.3026587 0.027238714 -0.033302028
0.32796836 0.2039556 0.0118745025 -0.19505613 -0.09923431 -0.017491708 -0.056040518 -0.16269918
0.6537132 0.061586324 -0.3597962 0.15207265 -0.055831477 0.13452412 -0.0077210153 -0.04265693
-0.264211 0.123413004 0.019861404 -0.13486502 -0.22796385 -0.07774308 -0.14325957 0.09772344
-0.07569462 -0.2922982 -0.26359493 0.9458884 -0.060736693 -0.3421385 -0.28622118 -0.0006368177
-0.355017 0.72627157 -0.12242103 0.01112773 0.79969865 0.2152031 -0.28231683 -0.48434135
-0.38778627 -0.08673428 -0.061446946 -0.084020995 0.025167257 -0.06354038 -0.051453494 0.013316893
-0.17520863 -0.08574333 0.07522271 0.08992705 -0.32725784 0.53043103 0.5026413 0.026361816
0.40310058 0.11590705 -0.10792007 0.020420061 -0.10014843 -0.02305786 -0.015572659 -0.16407466
0.02547027 0.0033585508 -0.34262803 -0.16090862 -0.10638942 0.20844533 -0.34318087 0.1385539
0.1411106 -0.19979188 0.023795335 0.11902749 0.21683341 0.21590449 -0.19983262 -0.21476589
-0.026083041 -0.3293757 -0.09406317 0.36736256 0.2635392 -0.106964484 -0.24543336 -0.15275067
-0.08301928 -0.17990832 -0.06665093 0.08159363 -0.044958126 -0.006240228 -0.18360284 0.16072862
-0.13578801 -0.17277408 -0.10545572 0.12843089 0.009815138 -0.047226086 -0.2787387 -0.10128376
-0.047570404 0.15480824 -0.04029392 0.28987926 1.1298379 0.62145466 -0.16399716 0.61085194
-0.20772414 -0.08727455 0.0070756995 -0.042085726 0.005767978 0.030054418 -0.021020055 -0.020980282
-0.03119682 -0.038712356 -0.1995366 -0.08411215 -0.19235346 -0.20627016 -0.032024473 -0.09792645
-0.017816938 0.18082559 -0.09752817 -0.116088785 0.033321176 -0.1921211 0.10692647 0.42642763
0.022301018 -0.26355055 -0.07907557 -0.1524796 0.1667563 0.0897969 -0.07134358 0.01788291
0.16728988 0.14128903 -0.34116706 -0.0044412185 0.15563181 0.16185267 0.14768474 -0.11412943
0.1654702 -0.19770469 -0.2531299 0.41434398 0.032060694 0.12661524 0.04648222 -0.0066734096
0.15183441 -0.03591217 -0.14498436 -0.1499012 -0.0071787634 -0.06646967 0.03806121 0.1739313
0.12957153 -0.14761022 0.051478133 0.4942986 -0.26751173 -0.07728029 0.33731666 -0.21480598
-0.14192562 0.5267774 -0.0013474523 -0.21853504 -0.027234806 -0.10753772 0.53015125 0.47487718
0.18368499 -0.016548643 0.039838076 -0.092752166 -0.17170164 -0.027863372 -0.1538497 -0.024527356
-0.10567796 -0.026369387 0.004481856 -0.07046804 -0.22017668 0.29080927 0.24701622 -0.013157705
-0.290823 0.02466462 -0.08182482 -0.046490427 0.028978828 0.17294195 -0.5415214 -0.7216623
-0.18631393 -0.11545461 -0.28815162 -0.25306708 0.16805908 0.44186866 0.31777257 -0.13886872

block1.2.bn2.weight f4 [8]
00000000: 51f0 2b3f 34bd 8a3f 9f66 9b3f 4b2b fb3e
00000010: d991 263f ef65 083f 65a9 503f dfc2 423f
0.6716357 1.083899 1.2140692 0.49056467 0.65066296 0.5328054 0.81508476 0.760786

block1.2.bn2.bias f4 [8]
00000000: 8ada f83c 9dcf 9dbe 32b6 86bf fcec 9e3d
00000010: 08a7 3f3e 3bec e43c 1c86 20bd b2e2 0cbf
0.030377645 -0.3082246 -1.0524352 0.07760045 0.18716061 0.027944675 -0.039190397 -0.5503341

block1.2.bn2.running_mean f4 [8]
00000000: 27aa 24bf 8f28 aabe 689e 993f 5229 96bf
00000010: db81 fb3f f817 0b3f 49e6 3dbf 1e2c 03bf
-0.6432213 -0.3323407 1.2001467 -1.173136 1.9649004 0.5433345 -0.7417951 -0.5123919

block1.2.bn2.running_var f4 [8]
00000000: 32b2 883f d1c8 f33f 264e 4640 5b17 993f
00000010: 3c29 0e40 6809 8b3f 6913 eb3f fea5 453f
1.0679381 1.9045659 3.0985198 1.1960253 2.2212667 1.0862246 1.8365299 0.7720641

block1.2.conv3.weight f4 [16, 8, 1, 1]
00000000: 5e5f debe 8fd0 8a3d 234b 82bd 0581 32bf
00000010: 5b13 b03d ee10 223f 126d d43c 282f 90be
00000020: 0965 843e 79a7 d33e 535d 54bd 9e34 48be
00000030: cef4 ec3e bfcb e63d 0d30 a23e b06d ce3e
00000040: dbe3 ddbe c26f 3ebe 953c 20bf c53a a3be
00000050: bb9a 12be 200f c0bd 250d 2bbf 01d1 013d
00000060: edd5 9e3d 4352 fa3e 8007 bcbd 49ba b7bd
00000070: 5c80 96be 414d 8b3e 1e39 733e 65fe fa3e
00000080: 0528 873e fdeb 473f e928 79be a465 2f3d
00000090: 187d 3fbe 5093 533e a7aa 2a3e e4cf 993b
000000a0: cef1 1e3f 5389 aa3d 0ce1 5bbd 4628 0fbe
000000b0: 3bce b3be 045c 98be 6f6c e7bd 85e7 bdbd
000000c0: 1803 12bf 40a1 8cbe 95a1 9e3e db54 9bbe
000000d0: 2cef 11be 578c 25bf 7220 a53e a0cf 6abc
000000e0: c523 b5be 7722 c53c ddd2 c9bd b41f a4be
000000f0: e17e 1ebf f112 fcbc 0b69 83be 4779 25be
00000100: dd84 3b3e f77c 9c3e 2c76 933e b596 893e
00000110: 4d69 45be bac2 e1bd c69d 1fbe b1e7 143e
00000120: 75ab 46be afea ecbc 0848 53be 1efb 52be
00000130: 550d 95bb 80c2 d83d 77fd 373d 1f29 92be
00000140: 3291 413d 21cd 40be 6ccc 413e fc7e 6f3e
00000150: 0170 38be c810 0b3c 872e da3d 6691 94be
00000160: 5bc0 fb3d 883b b2be 67ec c7bf 7a09 b6be
00000170: 1532 e5bb 27c7 0dbd fc3d a2be 14cd cd3d
00000180: 41a0 b3bb 3afb fbbd 594d f2be 99a5 c2bd
00000190: da55 023e e2b3 323e 7e9b c13d f7da 543d
000001a0: 8c26 403e 08ea b0bd f096 05bf 839a b03d
000001b0: edc5 a7bc 8fd3 6d3e 909d 2a3e 2808 03bf
000001c0: 3c53 583c 6fc4 86bf fc80 11be ec16 01be
000001d0: 1760 21bf b5d1 af3e d14d e33e 1ea8 d8be
000001e0: 8503 a13e 39d0 ae3c 5013 fa3e da6d d1bd
000001f0: 34f4 8dbe 88cd b8be bd98 d6be d611 dcbe
-0.43432134 0.06778061 -0.063619874 -0.6972812 0.08597442 0.6330708 0.025930915 -0.28160977
0.25858334 0.4133871 -0.051846813 -0.19551322 0.4628052 0.1126933 0.31677285 0.4031806
-0.43337902 -0.1859732 -0.6259244 -0.31880775 -0.14316837 -0.09377885 -0.6681693 0.031693462
0.07755647 0.48890886 -0.09181118 -0.08971078 -0.29394805 0.27207378 0.23752257 0.49022213
0.2639772 0.78094465 -0.24332012 0.04282154 -0.18700063 0.20661664 0.16666661 0.004693972
0.62087715 0.08326974 -0.05368142 -0.13980207 -0.3511828 -0.29757702 -0.11299979 -0.092726745
-0.5703597 -0.27466774 0.30982652 -0.30338177 -0.14251393 -0.64667267 0.32251316 -0.014331728
-0.35378852 0.024064286 -0.09854672 -0.32055438 -0.6191235 -0.03077075 -0.2566608 -0.16159545
0.18312402 0.3056409 0.28801095 0.26872793 -0.1927845 -0.11023469 -0.1558753 0.14541508
-0.19401343 -0.0289205 -0.20632946 -0.20603606 -0.0045487084 0.10583973 0.044919457 -0.28546998
0.04725761 -0.1882825 0.18925637 0.23388284 -0.18011476 0.008487888 0.10653406 -0.2901718
0.12292548 -0.34811044 -1.5619019 -0.35554105 -0.0069944956 -0.034613755 -0.31687915 0.10048881
-0.0054817502 -0.12303777 -0.47324637 -0.095042415 0.12728062 0.17451432 0.09453486 0.051966634
0.18764704 -0.08638388 -0.5218344 0.08623221 -0.02048012 0.23225234 0.16661668 -0.5118432
0.013203438 -1.0528697 -0.1420936 -0.126064 -0.63037246 0.3433968 0.44395307 -0.42315763
0.31447998 0.021339523 0.4884286 -0.10226031 -0.27725375 -0.36094308 -0.41913405 -0.42982358

block1.2.bn3.weight f4 [16]
00000000: 9d8a e83e 0551 a53e 8a77 083f 4078 3a3f
00000010: 6cc9 013f 44d4 d03e 63a4 b23e 66a9 043f
00000020: 24b3 b43e 1010 1c3e 4b93 433e 011a a33f
00000030: 1b1b 1dbe b29a f43e 17c3 8b3f 11a1 1a3e
0.45418254 0.32288375 0.533074 0.72839737 0.5069797 0.40786946 0.34891042 0.5182098
0.35292923 0.15240502 0.19099157 1.2742311 -0.15342371 0.47774273 1.0918912 0.15100504

block1.2.bn3.bias f4 [16]
00000000: 584b c4be 82af fc3e d113 3fbc d653 ac3c
00000010: 1e2b dc3e 31b5 7fbf 3ed3 af3d 5496 fc3c
00000020: 67f7 29be 9cd2 b63d aa2e 3ebd 4367 2abc
00000030: 2335 1ebe 8cfb 643e a527 c5bd c3ad c23a
-0.38338733 0.49352652 -0.011662439 0.02103607 0.43001646 -0.9988585 0.08585213 0.0308334
-0.16598283 0.08926889 -0.04643122 -0.010400596 -0.15449958 0.22361583 -0.09626702 0.001485281

block1.2.bn3.running_mean f4 [16]
00000000: f716 c1bd 2061 eb3e da31 18bf 66d5 4a3e
00000010: 170e 903e e3b5 b1bd 5a6c bcbe 43fb ffbe
00000020: 347b 033e eedf 0bbe f9bf aabc 9d7f fcbe
00000030: 822a c7bc 251d 70bc 36b4 d9be dd59 4cbe
-0.09428208 0.45972538 -0.5945107 0.19807968 0.2813575 -0.0867727 -0.36801416 -0.49996385
0.12839967 -0.13659641 -0.020843493 -0.4931611 -0.024312261 -0.014655386 -0.42520303 -0.19956155

block1.2.bn3.running_var f4 [16]
00000000: 2b90 083e fd2e 2e3e ee01 f83e 9f03 ae3e
00000010: e5c7 a93e d266 733d b63b 693e 3955 b63d
00000020: f819 8b3e f479 9e3d d465 903d 334a 0740
00000030: 196b 5c3e 51ec 9c3e e492 8c3f 7f1a 703e
0.13336246 0.17010112 0.48438972 0.33987138 0.3316032 0.05942423 0.22776684 0.08902974
0.2716825 0.077381045 0.07050672 2.1139038 0.2152523 0.30649045 1.0982327 0.23447607

block1.3.conv1.weight f4 [8, 16, 1, 1]
00000000: 4e4a 77be 575f 13be 2b3b a4be 4994 8ebe
00000010: 217f 08bd fbfd 11be 389f 63bf bfbb 89be
00000020: f3db 853e 831d cfbd a366 81bc 9e46 1dbf
00000030: 08a2 06bf 569d a03e f42c 123e 1d5d 15bf
00000040: c265 463e 8558 c6be c50e 1fbd 65dd 0cbe
00000050: 8df1 8fbe e870 8f3e 6747 213d 934c 41be
00000060: 7fe5 23be 4038 b93e 59f8 22bf f168 48be
00000070: 7a56 f4be be21 0e3e a7b6 623f 4e98 053e
00000080: 06c3 7fbf 9f79 7dbe 6dfd d6be d193 52be
00000090: ae64 64be cfb4 d1be c893 04be e9a0 c4be
000000a0: 1065 0cbd 3dd6 88be 3501 6fbe a695 adbd
000000b0: 9d12 fbbe d3e6 01bc bfe1 01bf cb30 ed3d
000000c0: 0de5 c2be 19c3 3a3e 64c1 293f 21a1 73be
000000d0: c306 04bf 6603 42bf 276d 013e 6ab8 c43d
000000e0: d3ac 66be ac7f 393e 802d 09be 6465 82bc
000000f0: 6331 1c3e fd4f 003d 586f eabe bfd4 163e
00000100: 1482 7c3e dfeb 0abf 3622 babe ac9d 3abf
00000110: 1f5d f6be 3713 a8be e369 bd3e f4a4 703e
00000120: 30e5 fd3d e813 163f db74 933e 182b f63d
00000130: aeb7 ddbe 4e5c 9b3e 05f2 22bf 5c9f adbe
00000140: eba8 a5be 7464 823d d586 c0bd a31e 92bc
00000150: e905 693c e596 4cbe 6961 8abd ad59 a8bb
00000160: 5372 abbc 7c6e e1bd f715 5e3f 7be0 efbe
00000170: d89c 2e3e f7b0 cdbb b0af 88bd 8a7c 32be
00000180: 6634 323c 6430 223f d8b2 ed3e 1acc 773e
00000190: cd88 9c3e b0a6 4c3e cb74 843d 1068 44bc
000001a0: 3824 783e bbe5 bfbb f272 5e3e 87f2 b0be
000001b0: 448c e6bc bbc9 dcbc af76 753d 9f7d 98be
000001c0: 1041 003f 4ea0 c73d 3246 3cbe 0612 89bc
000001d0: 46a8 adbe 975e 53be b320 06be 5f41 a6bd
000001e0: 1ee8 7abe 6a82 bcbe 2d85 113d 205c 9a3d
000001f0: 17bb b5be 5699 86be be95 17be d2d3 903f
-0.24149439 -0.14391838 -0.32076392 -0.27847508 -0.033324365 -0.14257042 -0.88914824 -0.2690105
0.2614437 -0.10113051 -0.015796011 -0.6143588 -0.5259099 0.31370038 0.14274961 -0.58345205
0.19374755 -0.3873941 -0.038832445 -0.1375633 -0.28113976 0.28015828 0.039374735 -0.18876867
-0.16005515 0.36175728 -0.636602 -0.19571282 -0.47722226 0.13880059 0.88559955 0.13046381
-0.9990696 -0.24753426 -0.41990224 -0.205642 -0.22304031 -0.40958259 -0.12946999 -0.38404015
-0.03427607 -0.2672595 -0.23340304 -0.08475809 -0.49037638 -0.007928568 -0.50735086 0.11581572
-0.38065377 0.18238486 0.66310716 -0.23791935 -0.5157282 -0.75786436 0.12639295 0.09605487
-0.22526865 0.18115109 -0.13396263 -0.015917487 0.15253215 0.031326283 -0.45788074 0.14729594
0.24658996 -0.5426616 -0.36354226 -0.7289684 -0.4811792 -0.3282716 0.36994848 0.23500425
0.1239723 0.58624125 0.2880009 0.12019938 -0.433042 0.3034386 -0.6365054 -0.33910644
-0.32355437 0.06366816 -0.09400717 -0.017836874 0.0142226005 -0.19979437 -0.06756861 -0.0051376433
-0.020928537 -0.11007401 0.86752266 -0.46850953 0.17052019 -0.0062771994 -0.06674135 -0.1743032
0.010876751 0.6335509 0.4642551 0.24198952 0.3057312 0.19985461 0.06467589 -0.011987701
0.24232566 -0.0058562434 0.21723536 -0.34560034 -0.028143056 -0.026951661 0.05992764 -0.2978334
0.5009928 0.097473726 -0.18386152 -0.016732227 -0.33917445 -0.20641552 -0.13098411 -0.08117937
-0.24502608 -0.36818248 0.035527397 0.07537103 -0.354943 -0.2628886 -0.14803216 1.1314642

block1.3.bn1.weight f4 [8]
00000000: c3ff 203f 174a 5d3f 9724 593f 1e53 4a3f
00000010: 01ad 583f 92cf 523f 07c7 683f 6326 f23e
0.6289026 0.8644118 0.84821457 0.79033077 0.84638983 0.8234798 0.9092869 0.47294912

block1.3.bn1.bias f4 [8]
00000000: 9a54 e33e ae7e 99be a913 313e 7bc9 0c3d
00000010: 9142 ac3e f81c aebe 1da5 c3be 3686 ed3e
0.44400483 -0.2997946 0.17292656 0.034371834 0.33644536 -0.34006476 -0.3821191 0.46391457

block1.3.bn1.running_mean f4 [8]
00000000: 4d20 f7c0 b16a debe f748 04c1 3cc0 9abf
00000010: de86 fdbf 9150 7cbf 1fb1 dd3f cc4b d33f
-7.722693 -0.43440774 -8.267814 -1.2089915 -1.9806783 -0.98560435 1.7319678 1.6507506

block1.3.bn1.running_var f4 [8]
00000000: 3dec dd40 1dfd ca40 dbc8 b840 2d7e 8440
00000010: 1032 3c41 ba8b 9140 9a4b 8040 0ff5 7b40
6.9350877 6.3433976 5.7745185 4.1404023 11.762222 4.5483065 4.0092287 3.9368322
