assignment1/results/trial_2/resBottleneck/ckpts/20000.pt (torch, 562431 bytes, 242 tensors)

block1.0.conv1.weight f4 [8, 16, 1, 1]
0	0x3d7af6f6	0.061270677
1	0x3c0e4ffb	0.008686061
2	0x3e32ff26	0.17480144
3	0xbcb554d8	-0.022135183
4	0x3e05b4af	0.13057207
5	0x3d8027f3	0.0625762
6	0xbd4ccaf0	-0.049998224
7	0x3c32d784	0.010915641
8	0x3eabfb8e	0.33590358
9	0x3d9e8cc7	0.07741695
10	0x3d2bc023	0.041931283
11	0x3f06b189	0.5261465
12	0x3da744d3	0.08167424
13	0x3ee71e82	0.45140463
14	0xbeccf6d0	-0.40032053
15	0x3f87f51d	1.0621678
16	0xbe18cf66	-0.14922866
17	0xbe1f06de	-0.15529963
18	0xbc8ed332	-0.01743469
19	0xbe49a41f	-0.19691513
20	0xbd9dd712	-0.07707037
21	0xbdda03f3	-0.106452845
22	0xbe866c4d	-0.26254502
23	0xbc3ea790	-0.01163663
24	0xbec30a36	-0.38093728
25	0x3e3b00f9	0.1826209
26	0xbf052ded	-0.520232
27	0xbe885b9f	-0.266324
28	0xbeb8b2be	-0.3607387
29	0xbd054981	-0.032540802
30	0x3e443610	0.19161248
31	0xbf0da11f	-0.55323976
32	0xbec0a10b	-0.37622866
33	0xbdb88a1c	-0.09010717
34	0x3e835ea3	0.2565814
35	0xbee46702	-0.4460984
36	0xbca473d5	-0.020074764
37	0xbdaa3ea4	-0.08312729
38	0x3f00255f	0.50057024
39	0x3ca24b67	0.019811345
40	0x3da7ea48	0.081989825
41	0x3df79214	0.12088409
42	0xbfebe463	-1.8429073
43	0x3e8fd56d	0.28092518
44	0x3e30941f	0.17244004
45	0xbeb34dcc	-0.35020292
46	0xbee07957	-0.43842575
47	0xbe5fd7bf	-0.21859644
48	0xbd3bc608	-0.045843154
49	0xbe92ec03	-0.28695688
50	0xbe86c403	-0.2632142
51	0xbe9feb77	-0.31234333
52	0x3e917a63	0.28413686
53	0xbdb4eef6	-0.08834641
54	0xbe2f2ab3	-0.17106132
55	0x3e7b1be6	0.24522361
56	0xbea1f4cf	-0.31632087
57	0x3dbb7fd9	0.091552444
58	0xbbd78430	-0.0065770373
59	0xbf49ef7e	-0.7888106
60	0xbf2bae7c	-0.6706312
61	0xbdbd3db3	-0.09240284
62	0x3e48d2dc	0.19611686
63	0xbf32b83e	-0.6981238
64	0xbd96b9b9	-0.073596425
65	0xbf377e1a	-0.7167679
66	0xbe3d432e	-0.18482658
67	0xbe08428b	-0.13306634
68	0xbddec49c	-0.10877344
69	0xbe3dbe87	-0.18529712
70	0xbe045c21	-0.1292577
71	0xbe233947	-0.15939818
72	0xbeb96fcb	-0.36218104
73	0xbd73866d	-0.05945437
74	0x3cd9dd6a	0.026594836
75	0x3c60446a	0.013688186
76	0xbd2fb290	-0.0428949
77	0xbe20660e	-0.15663931
78	0xbeae853b	-0.34086022
79	0xbd8f9bd0	-0.07012141
80	0x3d0e3dce	0.03472691
81	0x3e23623c	0.15955442
82	0xbf1b81e9	-0.607451
83	0xbf010f28	-0.5041375
84	0xbddb431b	-0.10706159
85	0xbcdd8005	-0.027038584
86	0x3df9d705	0.12199215
87	0x3dba3abe	0.090932354
88	0x3d986607	0.07441335
89	0x3df78ec4	0.12087777
90	0xbf68031b	-0.9062974
91	0xbf195dac	-0.59908557
92	0x3d317a64	0.04332961
93	0x3c409641	0.011754573
94	0xbee2fcb1	-0.44333413
95	0x3e1b3c3c	0.15159696
96	0xbe1b3bf7	-0.15159594
97	0x3f498e50	0.78732777
98	0x3ec6caec	0.38826692
99	0xbd52603a	-0.0513613
100	0x3e6db5d8	0.23213899
101	0xbe2ad244	-0.16681772
102	0xbf0a8fa5	-0.54125434
103	0x3dc7fd36	0.09765093
104	0x3f12fca9	0.5741678
105	0xbe0c25cf	-0.13686298
106	0x3eb2d1e6	0.34925765
107	0xbec1a2f7	-0.37819645
108	0x3d8e24e0	0.06940627
109	0x3f03efb9	0.5153766
110	0x3f2d1317	0.67607254
111	0x3e4ce8e7	0.2001072
112	0xbd14d069	-0.036331568
113	0x3f4b13e0	0.793272
114	0xbe242e2b	-0.16033237
115	0xbe73effe	-0.23822019
116	0xbe386617	-0.18007694
117	0xbd31d505	-0.043416042
118	0xbeb1b65f	-0.3470945
119	0xbd541a29	-0.05178276
120	0x3f0e3e99	0.55564266
121	0x3c79bf4a	0.015243361
122	0xbdd569d0	-0.10420573
123	0xbe0be3fc	-0.13661188
124	0x3d91a83a	0.07112165
125	0x3d58cfb1	0.052932445
126	0xbf0d3080	-0.5515213
127	0x3ec96c03	0.3934022

block1.0.bn1.weight f4 [8]
0	0x3f55e0f0	0.8354635
1	0x3f4d478b	0.8018729
2	0x3f97f8b4	1.1872773
3	0x3f42629e	0.7593173
4	0xbe9db7cb	-0.30804285
5	0x3f84253c	1.0323863
6	0x3f5f06fa	0.8712002
7	0x3f099787	0.5374684

block1.0.bn1.bias f4 [8]
0	0xbe69a702	-0.22817615
1	0xbeaa16b3	-0.33220443
2	0x3e72812e	0.2368209
3	0x3e4ee1ab	0.20203273
4	0x3f2679dc	0.6502969
5	0xbed8f047	-0.42370817
6	0xbf07127b	-0.52762574
7	0x3cc1fa89	0.023679035

block1.0.bn1.running_mean f4 [8]
0	0x4076c11b	3.8555362
1	0xc09b6fc3	-4.857393
2	0xc085be02	-4.1794443
3	0xc0c1c8e2	-6.055772
4	0xc02c20e7	-2.6895082
5	0xc08acc54	-4.3374424
6	0x3f8ba408	1.0909433
7	0xbf891035	-1.0708071

block1.0.bn1.running_var f4 [8]
0	0x40fae08b	7.83991
1	0x40a2f80a	5.092778
2	0x4185448d	16.658472
3	0x41317073	11.089953
4	0x4013484a	2.3012872
5	0x41083102	8.511965
6	0x412ec6ed	10.923566
7	0x405ee0eb	3.482478

block1.0.conv2.weight f4 [8, 8, 3, 3]
0	0xbd73ddc9	-0.059537683
1	0x3dee25e2	0.11628319
2	0xbda8cac8	-0.082418025
3	0x3d62bb14	0.055354193
4	0xbdbff4f4	-0.09372893
5	0xbe66f993	-0.22556143
6	0x3e6dd184	0.23224455
7	0x3bda15bb	0.0066554225
8	0x3d1f089e	0.038826577
9	0x3d92fb25	0.07176808
10	0x3e1a570b	0.15072267
11	0xbdcc9811	-0.09989942
12	0x3e758688	0.23977101
13	0x3f0d0198	0.55080557
14	0xbda9bd2d	-0.082880355
15	0xbe345d1b	-0.17613642
16	0xbe1e1b03	-0.15439992
17	0x3b8050d2	0.0039158845
18	0x3d5dbd2d	0.05413549
19	0xbe4070a9	-0.18792976
20	0xbe2284d3	-0.15870981
21	0x3d44047c	0.04785584
22	0x3926814e	0.00015879163
23	0xbed2c930	-0.4116912
24	0x3c119c56	0.008887371
25	0x3b94c3a0	0.004539922
26	0x3e74ff1f	0.23925446
27	0x3d923b52	0.07140221
28	0x3d731dc2	0.05935455
29	0xbe907a3e	-0.28218263
30	0x3ee7ad57	0.45249435
31	0x3f805be9	1.0028049
32	0x3e814579	0.25248316
33	0xbe9ec2ef	-0.31008098
34	0x3c88bdfa	0.01669215
35	0xbe8fa294	-0.28053725
36	0xbe48b407	-0.19599925
37	0x3e375588	0.17903721
38	0x3e2c08b2	0.16800192
39	0xbd96f467	-0.07370835
40	0xbbddbdc6	-0.0067670075
41	0xbc47226e	-0.012154205
42	0xbec12f70	-0.37731504
43	0xbe8d70e0	-0.2762518
44	0xbdb8db34	-0.09026185
45	0xbc161c09	-0.009161958
46	0xbe942cd4	-0.2894045
47	0xbcc317da	-0.023815084
48	0x3dde42e6	0.108526036
49	0x3ea505ff	0.32231137
50	0x3e8c3e2b	0.2739118
51	0xbe3134cf	-0.17305301
52	0x3e4cc609	0.1999742
53	0x3d5b5b53	0.05355389
54	0xbe032038	-0.12805259
55	0x3dba8c5d	0.091088034
56	0xbcc52ae9	-0.024068313
57	0xbc28c358	-0.01030048
58	0x3dd735a8	0.10508281
59	0xbd4bab2e	-0.049723797
60	0x3d95ec2d	0.073204376
61	0x3e908164	0.28223717
62	0x3de6bf29	0.1126693
63	0x3d8194cf	0.06327211
64	0x3d583532	0.052785106
65	0x3ec9b039	0.3939226
66	0xbed4b344	-0.4154302
67	0xbe7f66f8	-0.24941623
68	0x3ca602d5	0.020265022
69	0xbe24c06e	-0.16089031
70	0xbd0e2433	-0.03470249
71	0x3c668bd7	0.014071426
72	0xbe687041	-0.22699071
73	0x3d3a8755	0.04553922
74	0x3eb7b9c6	0.3588392
75	0xb9ca5cd2	-0.000385976
76	0xbda26cda	-0.07930918
77	0xbd13fa0a	-0.036127128
78	0x3e910547	0.2832434
79	0xbdc61fa0	-0.09674001
80	0xbe37d814	-0.17953521
81	0x3d935652	0.07194199
82	0x3e935af7	0.28780338
83	0xba8cabce	-0.0010732354
84	0xbe128cd8	-0.1431154
85	0xbf01f9dc	-0.5077188
86	0xbe1e40fa	-0.15454474
87	0x3dab5a00	0.083667755
88	0x3d37bf77	0.04486033
89	0x3e079697	0.13241039
90	0xbd0699e5	-0.03286161
91	0x3eaaae93	0.33336315
92	0xbdbf9206	-0.09354024
93	0xbe86f233	-0.26356658
94	0xbf9fcaf2	-1.2483809
95	0xbe84c6af	-0.25932834
96	0x3e68290d	0.2267191
97	0x3f11729b	0.568155
98	0x3e5e2a73	0.2169588
99	0xbe30b076	-0.17254815
100	0x3df37886	0.118882224
101	0x3b0f659b	0.002188063
102	0x3e2bfe51	0.16796233
103	0xbe99aa8e	-0.30012935
104	0x3e2778b7	0.16354643
105	0x3e47670b	0.19472902
106	0x3e9609f1	0.2930446
107	0x3da8c4fe	0.08240698
108	0xbd2b55f1	-0.041830007
109	0x3dfb6cbd	0.122765996
110	0xbce08cd9	-0.027410911
111	0xbe0356ad	-0.12826033
112	0x3e6fb8c6	0.23410329
113	0xbd0ed884	-0.034874454
114	0x3dc6a066	0.09698562
115	0x3d40dd86	0.04708626
116	0x3e056023	0.13024954
117	0x3e4d0b3f	0.20023821
118	0x3e4178fa	0.18893805
119	0xbd9bb9e8	-0.07603818
120	0xbf0a9b94	-0.54143643
121	0xbe7b2190	-0.24524522
122	0x3dfad399	0.1224739
123	0x3e834113	0.25635585
124	0x3dcb1a1e	0.09917091
125	0x3d8bef6c	0.068327755
126	0x3c85e832	0.01634607
127	0x3e6f183e	0.23349091
128	0x3d7ca8eb	0.06168453
129	0xbcecaf24	-0.028892107
130	0x3e584b2a	0.21122423
131	0x3d51958e	0.051168017
132	0x3e40a1da	0.18811741
133	0xbd4ef791	-0.050529066
134	0xbd9a29b7	-0.07527488
135	0xbd9f83df	-0.07788824
136	0xbd898e42	-0.06716587
137	0xbe716ed3	-0.23577432
138	0x3e106be5	0.14103658
139	0x3f1998fa	0.5999905
140	0x3e801590	0.2501645
141	0x3e9bdfff	0.30444333
142	0xbd8d30a5	-0.06894044
143	0x3cee9854	0.02912537
144	0x3e061893	0.13095312
145	0x3dce9eeb	0.10088905
146	0x3e266144	0.16248041
147	0x3d2f981b	0.04286967
148	0x3d497c00	0.04919052
149	0xbd87b74a	-0.066267565
150	0x3bbe5ca3	0.005809383
151	0x3d1d8632	0.038458057
152	0xbd31076b	-0.043219965
153	0x3ddf19ad	0.10893569
154	0x3d939208	0.072055876
155	0x3dcafea4	0.0991185
156	0x3d38a86c	0.045082495
157	0x3d08e7c5	0.033424158
158	0xb9550365	-0.00020314528
159	0x3a4f55b3	0.00079091935
160	0xbd17fd9d	-0.0371071
161	0xbcac6cd3	-0.021047985
162	0x3d595556	0.0530599
163	0xbd5831c3	-0.05278183
164	0xbdd44141	-0.10364009
165	0x3cb454fe	0.022013184
166	0xbdc82f7a	-0.097746804
167	0xbd72109d	-0.059097875
168	0xbd9a3ef7	-0.07531541
169	0x3d42a883	0.047523987
170	0xbc5e38e1	-0.013563366
171	0x3d2bfaef	0.041987356
172	0x3d0202cf	0.03174096
173	0xbd72f6b6	-0.059317313
174	0x3d8109bf	0.06300687
175	0x3e0f3e1e	0.1398854
176	0x3d08fd6f	0.033444818
177	0x3dfa0cfe	0.12209509
178	0x3e6b2ffe	0.22967526
179	0x3cae7f81	0.021301033
180	0xbdca9c5a	-0.09893103
181	0xbd994d43	-0.0748544
182	0xbd7fe8d2	-0.062477894
183	0x3cc73d3d	0.024321193
184	0xbc3879cd	-0.011259508
185	0xbdda44fd	-0.1065769
186	0xbceaee1c	-0.028677993
187	0x3d3595aa	0.044332184
188	0xbda30093	-0.07959094
189	0x3e01f721	0.12691928
190	0x3d18faa9	0.037348423
191	0x3d0506d5	0.03247722
192	0x3dcc070c	0.099622816
193	0x3d06bc8c	0.032894656
194	0x3c8f54ef	0.017496554
195	0x3dc78835	0.09742776
196	0x3d6a6435	0.05722447
197	0xbc83682f	-0.01604089
198	0x3aed7d19	0.0018118947
199	0x3ca8d73f	0.02061045
200	0x3d3e8e67	0.046522524
201	0x3a2a2170	0.0006489968
202	0x3dd5f41e	0.10446952
203	0x3e27cc73	0.16386585
204	0x3d37e452	0.044895478
205	0xbdad5398	-0.0846321
206	0xbb79f5c1	-0.0038140866
207	0x3d9c861c	0.07642767
208	0xbd9e3a4e	-0.077259645
209	0xbdbc5a2b	-0.09196886
210	0x3e01f151	0.12689711
211	0x3c711c9a	0.014716292
212	0xbd26c857	-0.040718403
213	0x3d8b0279	0.06787581
214	0xb9ea019a	-0.0004463315
215	0xbe038c8a	-0.1284658
216	0x3e04d096	0.12970194
217	0x3cd9ca29	0.026585655
218	0xbee3b946	-0.4447729
219	0x3e391f5d	0.1807837
220	0x3ea5ad57	0.3235881
221	0xbe016f11	-0.12640025
222	0x3d6200c5	0.055176515
223	0x3c9d554b	0.01920571
224	0x3d99baa1	0.075063
225	0x3e1e8b1b	0.15482752
226	0x3e7eff77	0.2490214
227	0xbe18862c	-0.14894933
228	0x3e237f87	0.15966617
229	0x3def80b8	0.11694473
230	0xbe69ae82	-0.22820476
231	0x3de433cf	0.11142694
232	0xbd83acfe	-0.0642948
233	0xbd43bfba	-0.047790267
234	0xbe433afd	-0.19065471
235	0x3f544df5	0.82931453
236	0x3f00c836	0.503055
237	0xbdebc313	-0.11511817
238	0xbe770fd8	-0.24127138
239	0x3e646281	0.22303201
240	0xbe288495	-0.16456826
241	0x3e1dcc62	0.15409997
242	0x3e75728c	0.23969477
243	0x3e22475d	0.15847535
244	0x3eccb171	0.39979127
245	0x3ea163b8	0.31521392
246	0x3ddd9651	0.10819686
247	0xbf26d73d	-0.6517218
248	0xbe0a546a	-0.13508764
249	0x3e5bb84f	0.21457027
250	0xbefc145d	-0.49234286
251	0xbb556c50	-0.003256578
252	0x3d48121f	0.048845407
253	0xbde1970d	-0.11015139
254	0xbe557c7e	-0.20848271
255	0x3b7af411	0.0038292448

block1.0.bn2.weight f4 [8]
0	0x3ef25ddc	0.47337234
1	0x3f46fcd5	0.7772954
2	0x3c9263f5	0.017869929
3	0x3f4e777f	0.80651087
4	0x3cd1a214	0.02558998
5	0x3fa09528	1.2545519
6	0x3c839ba1	0.01606542
7	0x3eda5ba7	0.4264805

block1.0.bn2.bias f4 [8]
0	0x3e4da3ed	0.20082064
1	0x3df81c04	0.121147186
2	0xbe1ec209	-0.15503706
3	0x3f220ddf	0.63302416
4	0xbe26fa08	-0.16306317
5	0xbe24ec62	-0.16105798
6	0xbdff2ad4	-0.12459341
7	0x3f39e9c5	0.7262233

block1.0.bn2.running_mean f4 [8]
0	0xbdb739cd	-0.089465715
1	0x3eafe4e8	0.3435433
2	0x3d9ff444	0.07810262
3	0x3fe872f7	1.8160084
4	0x3d6367ac	0.05551879
5	0x3f68d681	0.90952307
6	0x3ebeb95c	0.37250793
7	0xbf45674c	-0.77110744

block1.0.bn2.running_var f4 [8]
0	0x3ec046d8	0.3755405
1	0x3f30b66d	0.6902836
2	0x3d9448bd	0.07240436
3	0x3fcf1637	1.6178654
4	0x3df487c3	0.11939957
5	0x4020a3a7	2.5099885
6	0x3e33c1d3	0.17554407
7	0x3f12acbb	0.57294816

block1.0.conv3.weight f4 [16, 8, 1, 1]
0	0xbe0746ca	-0.13210598
1	0x3dcadaae	0.09904991
2	0xbc59d5bf	-0.01329559
3	0xbc9bf161	-0.019035997
4	0x3da7be8b	0.0819064
5	0xbee5d07e	-0.4488563
6	0xbdb61a7b	-0.088917695
7	0x3d5da0b0	0.05410832
8	0x3e7051d5	0.23468716
9	0x3ea86ff7	0.32897922
10	0x3dd00e8f	0.10159027
11	0x3ed69111	0.41907552
12	0xbc8963a7	-0.01677115
13	0x3eeee7e6	0.466613
14	0x3dde6641	0.10859347
15	0xbece7e90	-0.40330935
16	0xbe3229ce	-0.1739876
17	0xbdad851a	-0.08472653
18	0xbe056432	-0.13026503
19	0xbe1304d4	-0.1435731
20	0x3d24338b	0.040088218
21	0xbf143aba	-0.5790211
22	0x3d840171	0.064455874
23	0xbe5e11d8	-0.21686494
24	0xbd38a1e4	-0.045076266
25	0x3d7c4a30	0.06159419
26	0xbbc26896	-0.005932878
27	0x3e330990	0.17484117
28	0x3d01bc51	0.031673733
29	0x3e217ff4	0.15771466
30	0x3d464d36	0.048413478
31	0x3d43d8ad	0.04781406
32	0x3c3eb9ec	0.011641007
33	0xbde1a76b	-0.110182606
34	0xbe32958f	-0.17439865
35	0x3ea86c87	0.328953
36	0xbdbe4bc0	-0.09291792
37	0xbd5650c0	-0.052323103
38	0x3c292877	0.010324589
39	0x3d28d86c	0.04122202
40	0xbd936444	-0.071968585
41	0xbce2aade	-0.027669366
42	0xbcba57f8	-0.022747025
43	0x3c568b23	0.013094696
44	0x3cb1b607	0.021693243
45	0x3eed5534	0.46354067
46	0xbdf0821a	-0.11743565
47	0x3dd9e833	0.106399916
48	0x3df5f061	0.12008739
49	0xbe9fb9e9	-0.31196526
50	0x3ddf861c	0.10914251
51	0xbf8fd424	-1.1236615
52	0x3d9a0165	0.07519797
53	0x3d8dc4b9	0.069222875
54	0x3dd1d40f	0.10245525
55	0xbe933ca8	-0.28757215
56	0xbe59cac7	-0.2126876
57	0xbe6500a2	-0.22363523
58	0x3cb9e500	0.022692204
59	0xbe165cc7	-0.14683829
60	0x3d919783	0.07108977
61	0x3c29b3a9	0.010357776
62	0xbdd82d93	-0.105555676
63	0xbe1939ab	-0.14963405
64	0x3c2baefa	0.010478729
65	0xbd365647	-0.044515874
66	0xbdacfbc0	-0.08446455
67	0x3dfa5d9a	0.12224884
68	0x3d43e397	0.04782447
69	0x3e5b8869	0.21438755
70	0xbde2f406	-0.110817
71	0x3d51e9e8	0.05124846
72	0x3ed7c1b6	0.42139977
73	0xbe718e2a	-0.23589388
74	0x3deea057	0.11651676
75	0xbdc4c304	-0.09607509
76	0xbd5c6ee4	-0.05381669
77	0xbe60d4e7	-0.21956216
78	0xbd43a286	-0.047762416
79	0xbf0c1d23	-0.5473196
80	0xbe1d370f	-0.15353034
81	0x3f6266b7	0.8843798
82	0x3e0178ec	0.12643784
83	0xbe967ebd	-0.2939357
84	0x3e020a4d	0.12699242
85	0xbe6557e2	-0.22396806
86	0xbdcfae0e	-0.1014062
87	0x3f0d2c73	0.5514595
88	0xbe86a6a2	-0.26299006
89	0xbe860c23	-0.26181135
90	0xbd83e02c	-0.06439242
91	0xbe1a40e3	-0.15063815
92	0xbd16273d	-0.036658514
93	0xbf1c446d	-0.6104191
94	0xbb782c77	-0.00378683
95	0x3ecee1e7	0.40406725
96	0xbdcb41e8	-0.0992468
97	0x3dda4f39	0.10659642
98	0xbd420455	-0.047367413
99	0xbe6a19ba	-0.22861376
100	0x3b01668d	0.0019744963
101	0xbf43d4b9	-0.76496464
102	0x3bd75709	0.0065716547
103	0x3e406850	0.18789792
104	0x3f246106	0.64210546
105	0xbe45f01a	-0.19329873
106	0x3df1c936	0.11805956
107	0xbec80470	-0.39065886
108	0x3db56e29	0.08858902
109	0xbc915aa4	-0.017743416
110	0x3d8d5208	0.06900412
111	0x3e657be6	0.22410545
112	0xbd4ccc67	-0.04999962
113	0x3eb77e4e	0.3583855
114	0x3cdc2501	0.026873114
115	0xbed6f9c5	-0.41987434
116	0x3d91924a	0.071079805
117	0xbe5e36d1	-0.21700598
118	0x3d5adb1f	0.053431626
119	0x3e9f2cf7	0.31088993
120	0xbe9ebf53	-0.31005344
121	0x3e075887	0.13217364
122	0xbbf40a03	-0.0074474826
123	0xbea70a43	-0.32625017
124	0x3e1a76ea	0.15084425
125	0xbf7960f1	-0.97413546
126	0x3cfcfef2	0.030883286
127	0xbed2512e	-0.4107756

block1.0.bn3.weight f4 [16]
0	0xbd39336b	-0.04521505
1	0x3fb0eeaa	1.3822834
2	0x3ecb25d1	0.3967729
3	0x3d61cd78	0.05512759
4	0x3d1daed5	0.03849681
5	0x3ce221f5	0.027604083
6	0x3f729442	0.94757473
7	0x3d37d6d0	0.044882596
8	0x3e8b5bc0	0.27218437
9	0x3ed7d848	0.42157197
10	0x3f0ef5b3	0.5584366
11	0x3ec0e0eb	0.376716
12	0x3f406bde	0.7516459
13	0x3f3cb276	0.7370981
14	0x3eeb739c	0.4598664
15	0x3f9f4204	1.2442021

block1.0.bn3.bias f4 [16]
0	0x3d5d430d	0.054019023
1	0xbefa4289	-0.48878887
2	0xbcd9b4f4	-0.026575543
3	0x3c066f72	0.008205282
4	0xbe624c14	-0.22099334
5	0x3d45ab56	0.0482591
6	0x3f2e0a64	0.67984605
7	0xbe06e4e3	-0.13173251
8	0xbf16711d	-0.5876635
9	0x3ea24a15	0.31697145
10	0x3e9f3d31	0.31101373
11	0xbd85eadc	-0.065389365
12	0x3d7f2da3	0.062299382
13	0xbdfb675f	-0.12275576
14	0x3e165222	0.14679769
15	0xbe322250	-0.17395902

block1.0.bn3.running_mean f4 [16]
0	0xbe073fe3	-0.13207965
1	0x3eb5b792	0.35491616
2	0xbf0b501e	-0.54419124
3	0x3e6376e2	0.22213319
4	0x3e51a370	0.20472503
5	0x3e5c9285	0.21540268
6	0xbf8628f9	-1.0481254
7	0xbeb83f9e	-0.35986036
8	0x3e3cdbea	0.18443266
9	0xbf014848	-0.5050092
10	0x3ecf490b	0.40485415
11	0xbe4c2f40	-0.199399
12	0xbe8dfede	-0.2773351
13	0x3c101473	0.008793938
14	0xbcce1b0b	-0.02515938
15	0xbf6901af	-0.91018194

block1.0.bn3.running_var f4 [16]
0	0x3e66ca57	0.22538124
1	0x3f252f1e	0.6452502
2	0x3ed92988	0.42414498
3	0x3d95f64c	0.07322368
4	0x3d1f40cf	0.038880166
5	0x3e736c96	0.23771891
6	0x3f30c595	0.69051486
7	0x3ce44d2a	0.027868826
8	0x3d9d4ba1	0.07680441
9	0x3e1ed2f7	0.15510164
10	0x3ec38afe	0.3819198
11	0x3f1b4288	0.60648394
12	0x3f5849c5	0.84487563
13	0x3e675bb8	0.22593582
14	0x3e88f86a	0.26752025
15	0x3f9e5a8d	1.2371384

block1.1.conv1.weight f4 [8, 16, 1, 1]
0	0x3e19e57d	0.15028949
1	0x3e3bf9e5	0.18357046
2	0x3b25481f	0.002521999
3	0xbda09a69	-0.078419514
4	0x3e6daef3	0.23211269
5	0x3e76aa16	0.2408832
6	0x3e9048b5	0.2818047
7	0xbd12bcb8	-0.035824507
8	0x3d274a89	0.040842567
9	0xbda6e62f	-0.08149373
10	0xbecf8df5	-0.40537992
11	0xbe7b23d2	-0.24525383
12	0xbbb10da3	-0.005403237
13	0xbe26dd67	-0.16295396
14	0x3e43e6a8	0.19130957
15	0x3da45bad	0.08025298
16	0xbf266fca	-0.65014327
17	0x3b3b9be3	0.0028626851
18	0xbdd8f17b	-0.10592934
19	0x3ea0a2fb	0.31374344
20	0xbcd9f56c	-0.026606284
21	0x401b7c1b	2.4294498
22	0x3e656971	0.22403504
23	0x3b882127	0.0041543427
24	0x3e09b006	0.13446054
25	0x3e3a88a0	0.18216181
26	0xbddf4f5f	-0.10903811
27	0x3d2ffc12	0.042965002
28	0xbd9a1743	-0.07523968
29	0xbd949506	-0.072549865
30	0xbec08310	-0.37599993
31	0x3e2b1e5c	0.167108
32	0x3de606ec	0.11231789
33	0x3ef109b7	0.47077724
34	0x3e9ee8e4	0.31037056
35	0x3eda3349	0.42617252
36	0x3e01a887	0.12661944
37	0x3f207ac2	0.62687314
38	0xbe963232	-0.2933517
39	0xbd8c050d	-0.06836901
40	0x3de535b8	0.11191887
41	0x3e262e1e	0.1622853
42	0xbe9fa0ca	-0.3117736
43	0xbd5d8532	-0.054082103
44	0xbe01b63e	-0.12667176
45	0xbd826751	-0.06367362
46	0x3e3ada7b	0.18247406
47	0xbe5845f6	-0.21120438
48	0xbdf7b3cb	-0.1209484
49	0xbe8bcab5	-0.2730309
50	0x3ecce9b7	0.4002206
51	0xbf201450	-0.62530994
52	0xbdfa17ae	-0.12211548
53	0xbfd209b9	-1.6409217
54	0xbd4f5311	-0.050616328
55	0xbd5aac04	-0.053386703
56	0xbdbf1dc9	-0.09331853
57	0xbdf8d884	-0.12150672
58	0x3e29a5d9	0.16567172
59	0x3e5567ec	0.20840424
60	0xbe2133cd	-0.15742417
61	0xbd80532a	-0.06265862
62	0xbe890d31	-0.26767877
63	0x3ecd3216	0.40077275
64	0x3fbe23d4	1.4854684
65	0x3c951f45	0.018203387
66	0xbe9c9a9f	-0.30586717
67	0x3dc014fc	0.093790025
68	0xbe044a71	-0.12919022
69	0xbe90dc84	-0.2829324
70	0x3e96a3f4	0.2942196
71	0xbbe3b68e	-0.0069492524
72	0x3e4eebe4	0.20207173
73	0x3d566141	0.052338842
74	0xbea12a2c	-0.31477487
75	0x3e1bb976	0.15207466
76	0xbdc97bd5	-0.09838072
77	0x3e00f561	0.12593605
78	0xbdc5abc1	-0.096519
79	0xbe18d952	-0.14926651
80	0xbc1533db	-0.009106602
81	0x3e3be4de	0.18349025
82	0x3e14eaad	0.14542647
83	0xbddf5b4e	-0.10906087
84	0x3dfd217f	0.123599045
85	0xbe25efaf	-0.16204713
86	0x3e87af1f	0.26500794
87	0x3e667437	0.2250527
88	0x3d8a96ec	0.06767067
89	0x3d4f08f9	0.050545666
90	0x3da91b2a	0.08257134
91	0xbe852b95	-0.26009813
92	0xbdcf768e	-0.101300344
93	0x3e6794a5	0.22615297
94	0x3d7ac358	0.06122145
95	0x3dfadf50	0.12249625
96	0x3e280a4f	0.16410182
97	0x3f16644b	0.58746785
98	0xbe7a9369	-0.24470295
99	0x3e57ca49	0.2107326
100	0x3e14e04f	0.14538692
101	0x3e689fee	0.22717258
102	0x3e908fff	0.2823486
103	0xbc67b178	-0.014141433
104	0x3e7dd18e	0.2478697
105	0x3d922658	0.0713622
106	0x3f6679a3	0.9002935
107	0xbe008736	-0.12551579
108	0xbe79e53b	-0.2440385
109	0x3ca372e0	0.019952238
110	0xbd594902	-0.05304814
111	0xbd96b6ea	-0.07359107
112	0xc00e529b	-2.2237918
113	0xbe9f93a2	-0.31167322
114	0xbe072825	-0.13198908
115	0xbea0bcd4	-0.31394064
116	0xbd70b75a	-0.058768608
117	0xbfadc302	-1.3575137
118	0x3dcb4a8b	0.09926327
119	0xbdddcdd6	-0.10830276
120	0xbe556dc3	-0.20842652
121	0x3db06c90	0.08614457
122	0xbda99a78	-0.08281416
123	0xbd05bd78	-0.032651395
124	0x3d85a131	0.065248854
125	0x3bdfc17b	0.0068284846
126	0x3ca6ff9d	0.020385558
127	0x3e1836ac	0.14864606

block1.1.bn1.weight f4 [8]
0	0x3cd19010	0.02558139
1	0x3f56eb51	0.83952814
2	0x3f3f7ffc	0.74804664
3	0x3f1cfa03	0.6131899
4	0x3efbb9f0	0.49165297
5	0x3bdb365b	0.0066898293
6	0x3f8ee528	1.1163683
7	0x3f758b2f	0.959155

block1.1.bn1.bias f4 [8]
0	0xbde25d72	-0.110529795
1	0x3f9c7751	1.2223912
2	0xbee3276b	-0.4436601
3	0x3f124e4e	0.57150733
4	0x3f6e2042	0.9301797
5	0xbcc174d9	-0.023615288
6	0xbf829819	-1.0202667
7	0x3e6b8f07	0.2300378

block1.1.bn1.running_mean f4 [8]
0	0x3f86a4e8	1.0519075
1	0x4076584e	3.8491397
2	0x3fc6db13	1.5535606
3	0xc07d2a5f	-3.9557111
4	0x40733caf	3.8005788
5	0x3ef73a0c	0.48286474
6	0x403d74f3	2.960263
7	0xc13b6fd5	-11.714803

block1.1.bn1.running_var f4 [8]
0	0x3fc39ed4	1.5282845
1	0x419a5237	19.290144
2	0x40514b44	3.2702188
3	0x41022f7b	8.136592
4	0x40efd967	7.4952884
5	0x3f12a64d	0.57285005
6	0x4095cacf	4.681007
7	0x4137b357	11.481284

block1.1.conv2.weight f4 [8, 8, 3, 3]
0	0xbe2063d4	-0.15663081
1	0xbdb57a2c	-0.08861193
2	0xbde74210	-0.11291897
3	0x3bb33992	0.0054695094
4	0xbc11c032	-0.008895921
5	0xbdd764dd	-0.10517285
6	0x3d0a9cd2	0.03384096
7	0xbd7cabe9	-0.061687384
8	0xbdaff716	-0.0859205
9	0xbdbd9716	-0.09257333
10	0xbe8d18c6	-0.27557963
11	0x3d8d44ed	0.06897912
12	0x3ea940c8	0.33057237
13	0x3d601ee7	0.05471697
14	0xbdef76d0	-0.116925836
15	0x3beb2312	0.0071758116
16	0x3e49bbce	0.19700548
17	0x3ccd9e48	0.025099888
18	0x3ec9d6c0	0.39421654
19	0x3dec3303	0.11533167
20	0x3da07a7c	0.07835862
21	0x3e109461	0.14119102
22	0xbe2e4bf8	-0.17021167
23	0xbda0ceb5	-0.07851926
24	0xbe763146	-0.24042234
25	0xbeb72fef	-0.35778758
26	0xbe6e41bb	-0.23267262
27	0xbe01289d	-0.12613149
28	0x3e9f19f7	0.31074497
29	0xbe34451f	-0.17604493
30	0x3e235bdd	0.15953012
31	0x3f1d4052	0.6142627
32	0xbd0cdb12	-0.03438861
33	0xbe2188b6	-0.15774807
34	0xbe198ff6	-0.14996323
35	0xbdb71924	-0.08940342
36	0xbd15f664	-0.03661193
37	0xbea4f4a3	-0.32217893
38	0x3dbb64f2	0.09150113
39	0x3c510cc8	0.012759395
40	0xbf422b8e	-0.7584771
41	0x3e930c36	0.28720254
42	0x3eb3b579	0.3509939
43	0x3e2d13ea	0.16902128
44	0x3ea48aae	0.32137054
45	0xbd89c461	-0.067269094
46	0xbdbd2cf4	-0.0923709
47	0x3be60773	0.007019931
48	0x3bdb1bce	0.006686664
49	0xbc79342d	-0.015210194
50	0x3c980c2a	0.018560488
51	0x3acc601b	0.0015592607
52	0xbdbf4076	-0.09338467
53	0xbc93b5dd	-0.018031055
54	0x3e398260	0.1811614
55	0x3e1faf07	0.15594111
56	0x3d6c10d8	0.05763325
57	0x3f289480	0.65851593
58	0x3f428ee9	0.75999314
59	0x3efaf8ea	0.4901803
60	0x3e3b2197	0.18274532
61	0x3e5e93ae	0.21736023
62	0xbe27cba1	-0.16386272
63	0xbe0e0530	-0.13869166
64	0x3f8d0d99	1.1019775
65	0xbf5b1e08	-0.855927
66	0x3ec16a50	0.37776423
67	0x4003a208	2.0567646
68	0xbd31ace2	-0.043377765
69	0xbf1a8f11	-0.6037455
70	0xbf9fbcc4	-1.2479482
71	0xbe93eb26	-0.28890342
72	0xbdc32879	-0.09529204
73	0xbdb0d15b	-0.086336814
74	0x3c92bbe3	0.017911857
75	0xbc8f7a0d	-0.017514253
76	0xbdae496c	-0.08510098
77	0xbd914fb7	-0.070952825
78	0xbc07ce60	-0.00828895
79	0xbd230170	-0.039796293
80	0xbc618fb1	-0.013767169
81	0xbd69a31d	-0.057040323
82	0xbd7148bb	-0.05890725
83	0xbd83224e	-0.064030275
84	0xbcaff001	-0.021476747
85	0xbccb8185	-0.024842033
86	0xbd2b51c9	-0.041826043
87	0xbc23edfd	-0.010005471
88	0x3c26bbb7	0.010176591
89	0x3c277c09	0.010222443
90	0xbdc84315	-0.0977842
91	0xbdc08c67	-0.094017796
92	0xbd3c4a76	-0.04596945
93	0xbd19f295	-0.03758486
94	0xbdae47b3	-0.08509769
95	0xbdc5780a	-0.09642036
96	0x3d47de2f	0.048795875
97	0x3c83550a	0.01603176
98	0x3c2d83ab	0.010590474
99	0x3d44801c	0.047973737
100	0xbc5060f6	-0.01271843
101	0xbadc0b10	-0.0016787965
102	0x3dc731fb	0.0972633
103	0x3d3cdc9b	0.046108823
104	0x3d1b49c8	0.03791216
105	0x3d63338c	0.05546908
106	0x3d0e3e61	0.034727458
107	0x3d4b3e15	0.049619753
108	0xbc193272	-0.009350406
109	0x3bed6a5b	0.0072453446
110	0xbd7b995d	-0.061425555
111	0xbdeaa980	-0.11458111
112	0xbd677496	-0.05650767
113	0xbd8e1594	-0.069377095
114	0xbc8cd20a	-0.017189998
115	0x3dae5cfa	0.085138276
116	0x3e1acc83	0.15117078
117	0xbcdf9984	-0.027294882
118	0xbd915a49	-0.07097299
119	0xba39b952	-0.0007084805
120	0xbdd1a5e1	-0.10236717
121	0xbdabfa3a	-0.08397336
122	0xbc878a05	-0.016545305
123	0xbd6b08d4	-0.057381466
124	0xbda9cb06	-0.08290677
125	0xbd13da07	-0.0360966
126	0xbd9192e7	-0.071080975
127	0xbd448adc	-0.04798399
128	0xbc3561c6	-0.011070674
129	0xbd80bc0b	-0.06285866
130	0xbdf0dcfc	-0.117608994
131	0xbcfe5ff1	-0.031051608
132	0xbd10a165	-0.035310168
133	0xbd6d285d	-0.05789982
134	0x3da7baec	0.081899494
135	0x3cdf6e20	0.027274191
136	0x3dc28030	0.09497106
137	0x3d83a828	0.06428558
138	0x3dcb1271	0.09915627
139	0x3d9d35af	0.07676255
140	0x390e21e1	0.00013554796
141	0x3d647974	0.05577989
142	0x3d5b7ed0	0.053587735
143	0x3cdc6f86	0.026908647
144	0xbd17a59e	-0.03702318
145	0x3bb321c8	0.0054666735
146	0xbc10ab6b	-0.008829932
147	0xbe09397d	-0.13400836
148	0xbd78efcb	-0.06077556
149	0xbd4dc560	-0.05023706
150	0xbdbab98e	-0.09117423
151	0xbdf0b314	-0.117529064
152	0xbd32bb57	-0.043635692
153	0xbd40b8a8	-0.047051102
154	0x3f4137af	0.7547559
155	0x3e778025	0.24169977
156	0xbebd7308	-0.37001824
157	0xbffca948	-1.973916
158	0xbe6a4f09	-0.22881712
159	0x3f3fcc04	0.7492068
160	0xbf00a5c4	-0.5025294
161	0x3e3452b9	0.17609681
162	0x3d4f4799	0.05060539
163	0x3e149e72	0.14513567
164	0xbdf5d312	-0.12003149
165	0xbe4c2114	-0.19934493
166	0xbecbef52	-0.39831024
167	0xbe1d0361	-0.1533332
168	0xbe03822c	-0.12842625
169	0xbab95f77	-0.0014142831
170	0x3e364f45	0.17803676
171	0x3d5c866e	0.05383914
172	0xbe319784	-0.17342955
173	0xbeadabe8	-0.33920217
174	0x39fabdd8	0.0004782516
175	0x3f18d5fc	0.59701514
176	0xbe976373	-0.2956806
177	0xbeb83603	-0.35978708
178	0x3ef4f575	0.4784352
179	0x3ca343fd	0.01992988
180	0xbd6d120b	-0.057878535
181	0xbf1e09ec	-0.6173389
182	0xbe019666	-0.12655029
183	0xbda95f1d	-0.082700945
184	0x3e172633	0.14760666
185	0x3dde30eb	0.10849174
186	0xbebc943c	-0.36831844
187	0x3e3847f7	0.17996202
188	0x3dcde3a4	0.10053185
189	0x3d67a2a8	0.056551605
190	0xbb63f1f4	-0.0034781666
191	0xbae5a492	-0.0017520359
192	0x3df992a9	0.12186176
193	0xbc2f78ac	-0.010709923
194	0xbbb5f63a	-0.005553034
195	0x3cc72788	0.024310842
196	0xbd02960e	-0.031881385
197	0x3cf7e0bb	0.030258527
198	0xbe26fcda	-0.16307393
199	0xbe4c69e7	-0.19962274
200	0xbe2f64fa	-0.17128363
201	0xbefeac4f	-0.49740836
202	0xbed351a2	-0.41273218
203	0xbed88e95	-0.4229628
204	0xbeb04319	-0.3442619
205	0xbd8973a1	-0.067115076
206	0xbe8dfb45	-0.27730766
207	0xbeb4f237	-0.35341045
208	0x3ee97d9d	0.45603648
209	0xbedf38f2	-0.43598133
210	0xbd861208	-0.06546408
211	0x3f8b4e6f	1.0883311
212	0x3db1c828	0.08680755
213	0xbe646d1b	-0.22307245
214	0xbe20b2ad	-0.1569316
215	0xbe976c26	-0.29574698
216	0xbd11d7ba	-0.035606124
217	0x3d75035a	0.05981765
218	0x3cb80efc	0.022468083
219	0xba45514d	-0.00075270684
220	0xbc05c879	-0.008165472
221	0xbd547411	-0.051868502
222	0xbbf0c027	-0.007347125
223	0xba520b0a	-0.0008012509
224	0x3dab581c	0.08366415
225	0x3e486b67	0.1957222
226	0xbe13b10f	-0.14423011
227	0xbe9f26c8	-0.31084275
228	0x3dc5ffba	0.096679166
229	0x3f22059a	0.632898
230	0xbeba8b4d	-0.36434403
231	0xbeb50bb6	-0.35360497
232	0x3d98e461	0.07465435
233	0xbeab26c1	-0.33428004
234	0xbe80335c	-0.25039184
235	0xbe2aa3e8	-0.16664088
236	0x3d8e027e	0.06934069
237	0xbdfb12c3	-0.12259438
238	0xbd5b1aef	-0.053492483
239	0xbe79853c	-0.24367231
240	0xbb4ae194	-0.003095721
241	0xbe340094	-0.17578346
242	0x3b2b55e0	0.0026143715
243	0xbd8c66e8	-0.06855565
244	0xbe2256a1	-0.15853359
245	0xbd5fb1b0	-0.054612815
246	0xbe864492	-0.2622419
247	0xbef00e5f	-0.46885964
248	0xbd8e66a1	-0.06953169
249	0xbd883b23	-0.066519044
250	0xbe8f1d68	-0.27952123
251	0x3e1a8c25	0.15092523
252	0x3daae726	0.08344869
253	0x3ef6ec51	0.4822717
254	0x3f289794	0.6585629
255	0x3dbe0753	0.09278741

block1.1.bn2.weight f4 [8]
0	0x3f4219de	0.7582072
1	0x3ac696ba	0.0015151121
2	0x3f2e49f3	0.6808159
3	0x3efc26a5	0.49248233
4	0xbf1b0de5	-0.60568076
5	0x3cf6f308	0.030145183
6	0x3f90f057	1.1323346
7	0x3f2a498a	0.6651846

block1.1.bn2.bias f4 [8]
0	0x3f926a79	1.1438743
1	0xbcbed8d0	-0.023296744
2	0x3f8edf84	1.1161962
3	0x3ef00a99	0.46883085
4	0x3db54ec0	0.08852911
5	0xbde09a2d	-0.10966907
6	0xbe83b3d0	-0.25723124
7	0x3f7dafb4	0.99096227

block1.1.bn2.running_mean f4 [8]
0	0x3f884b81	1.0648042
1	0xbd464728	-0.048407704
2	0xc01efe15	-2.484258
3	0xbf4e6bf7	-0.8063349
4	0xbf99ef03	-1.2026066
5	0xbed7b874	-0.42132914
6	0xbf8c5bcc	-1.0965514
7	0xbe3eadb5	-0.18620951

block1.1.bn2.running_var f4 [8]
0	0x4032a66a	2.791407
1	0x3e929fdb	0.28637585
2	0x4039be92	2.9022565
3	0x3fb6d0cd	1.4282471
4	0x400912fd	2.141784
5	0x3f8bd117	1.0923184
6	0x4042f556	3.046224
7	0x4077d215	3.8721974

block1.1.conv3.weight f4 [16, 8, 1, 1]
0	0xbed14def	-0.4087977
1	0xbb08173f	-0.002076581
2	0x3e73a26b	0.23792426
3	0xbf820d57	-1.0160321
4	0xbdd65255	-0.10464922
5	0x3c8be897	0.01707868
6	0x3db9cc21	0.090721376
7	0xbd7bc92c	-0.06147115
8	0x3dfebd3d	0.12438438
9	0xbc73343f	-0.014843999
10	0xbede580b	-0.43426546
11	0xbdebba7d	-0.11510179
12	0x3dda9d1b	0.10674497
13	0xbd8ffaf6	-0.07030289
14	0x3de56f4b	0.11202868
15	0xbe935ab8	-0.2878015
16	0xbee3fd2a	-0.44529086
17	0x3e3166ae	0.17324325
18	0xbe193774	-0.1496256
19	0x3e68599a	0.2269043
20	0x3e4bec85	0.19914444
21	0xbd2e35b2	-0.042531677
22	0x3f47c00d	0.7802742
23	0x3e608331	0.21925046
24	0x3e5fda0d	0.21860524
25	0x3d95703f	0.072968
26	0xbebd1ac7	-0.36934492
27	0xbe1731a7	-0.14765035
28	0xbc918800	-0.017765045
29	0x3d2c91ba	0.042131163
30	0xbe8516f2	-0.25994068
31	0x3d94f889	0.07273967
32	0xbdaf5ec6	-0.085629985
33	0x3e092c2b	0.13395755
34	0xbf34c742	-0.70616543
35	0x3da98a4c	0.08278331
36	0x3dfd7d53	0.12377419
37	0xbd5ac377	-0.053409066
38	0x3dc09fa9	0.09405453
39	0x3fad1343	1.3521503
40	0xbc8c78f2	-0.017147515
41	0x3e058a19	0.13040961
42	0xbedf8ba0	-0.43661213
43	0x3ee890c6	0.45422953
44	0xbf2772b5	-0.65409404
45	0xbe092d43	-0.13396172
46	0x3e546074	0.20739919
47	0xbe8913c6	-0.26772898
48	0xbf2e6a80	-0.68131256
49	0xbda75cc8	-0.081719935
50	0x3ec840f0	0.39112043
51	0xbf0770e2	-0.5290662
52	0xbdbbf17e	-0.0917692
53	0xbde7794b	-0.11302432
54	0x3da4c4ea	0.08045371
55	0x3ee5eaa7	0.44905588
56	0xbf31b13a	-0.6941105
57	0xbb8eb77b	-0.0043553687
58	0x3f0042b3	0.50101775
59	0x3e161238	0.14655387
60	0xbe4cddb9	-0.20006455
61	0xbca0d84f	-0.019634394
62	0xbee2c1dd	-0.4428853
63	0x3ebc76e1	0.36809447
64	0x3f7ebb98	0.99504995
65	0x3d9648c2	0.07338096
66	0x3f58bd71	0.84664065
67	0xbec81e9a	-0.39085847
68	0xbeb53d1e	-0.3539819
69	0x3dc558da	0.09636088
70	0xbe5689c1	-0.20950986
71	0x3ed11ce6	0.4084236
72	0xbd753101	-0.059861187
73	0x3d52b4ce	0.05144196
74	0x3f304284	0.68851495
75	0x3d71009b	0.058838468
76	0xbf10b5b8	-0.5652728
77	0x3d925439	0.071449704
78	0x3f52089d	0.8204439
79	0xbf574b4a	-0.84099257
80	0xbf4400b3	-0.76563567
81	0x3d9bc73b	0.076063596
82	0x3f4bc9f4	0.7960503
83	0x3d202e01	0.039106373
84	0xbe3da40b	-0.18519609
85	0xbe161798	-0.14657438
86	0xbc606023	-0.013694796
87	0xbe10a5ce	-0.1412575
88	0xbf3ba4fe	-0.73298633
89	0xbdab8732	-0.08375396
90	0x3e430f04	0.19048697
91	0xbdf07e40	-0.1174283
92	0xbeccfb70	-0.40035582
93	0x3da0cff7	0.07852166
94	0x3ec06817	0.37579414
95	0x3c0ec936	0.008714965
96	0x3ecb6c78	0.39731193
97	0xbbaf4a40	-0.0053494275
98	0x3d02df12	0.031951018
99	0xbd399787	-0.045310523
100	0x3e358276	0.17725548
101	0x3ba24986	0.0049526123
102	0xbe32ac41	-0.17448522
103	0xbc6b41a4	-0.014358912
104	0xbd8205e0	-0.06348777
105	0xbd6ec9eb	-0.058298033
106	0x3e8507fa	0.25982648
107	0x3ed16583	0.4089776
108	0xbdbd70da	-0.0925004
109	0xbdaa9de1	-0.08330894
110	0xbf752312	-0.9575664
111	0xbe83de05	-0.25755325
112	0x3e27408b	0.16333215
113	0xbda555cd	-0.08073006
114	0x3e8a46ec	0.27007234
115	0x3da7afdc	0.081878394
116	0xbe5ec4eb	-0.21754806
117	0x3d6844c1	0.056706194
118	0xbeb8ddb7	-0.36106655
119	0xbf25cfba	-0.6477009
120	0xbf1ab6ed	-0.6043537
121	0x3daa5a2e	0.08317982
122	0xbe523ec6	-0.20531759
123	0x3e8c5970	0.27411985
124	0xbe4b5baa	-0.19859186
125	0xbe3beac6	-0.18351278
126	0x3ec7ceee	0.39025062
127	0xbe23437a	-0.15943709

block1.1.bn3.weight f4 [16]
0	0x3ed4fb20	0.41597843
1	0x3e93a204	0.28834546
2	0x3e4b0a8b	0.1982824
3	0xbe9c7d17	-0.30564186
4	0x3fbd0073	1.4765762
5	0x3ecf7a98	0.4052322
6	0x3e874e83	0.26427087
7	0x3f97b0d3	1.1850837
8	0x3fef4b7d	1.8694912
9	0x3fc00405	1.5001227
10	0x3ef3ef6d	0.47643605
11	0x3e8d7b06	0.27632922
12	0x3ddf96dc	0.10917446
13	0x3f0453e6	0.5169052
14	0x3e59055f	0.21193455
15	0x3e2c92a8	0.1685282

block1.1.bn3.bias f4 [16]
0	0xbe59b45c	-0.21260208
1	0xbeb558d3	-0.3541933
2	0x3dbe780a	0.093002394
3	0xbeb65082	-0.35608298
4	0xbe38c8b5	-0.18045314
5	0xbf6faf92	-0.93627274
6	0xbd87d99b	-0.06633302
7	0x3e14b2e3	0.14521365
8	0x3dd811f6	0.10550301
9	0x3e957273	0.2918888
10	0xbd1d8ad5	-0.03846248
11	0xbd7111ed	-0.058854986
12	0xbdd58ebd	-0.10427616
13	0x3eb23b4a	0.3481086
14	0xbc0b2e2f	-0.008494898
15	0x3cf06695	0.02934579

block1.1.bn3.running_mean f4 [16]
0	0xbf4f5208	-0.80984545
1	0xbf292423	-0.66070765
2	0xbdd5d968	-0.104418576
3	0xbe823013	-0.25427303
4	0x3f115d75	0.5678323
5	0xbf32b7dc	-0.698118
6	0xbe19857f	-0.14992331
7	0x3da7d28b	0.08194455
8	0x400bd6bc	2.1849813
9	0xbd99b31f	-0.07504868
10	0xbe071741	-0.13192464
11	0xbf31c6f2	-0.6944419
12	0x3ee76f25	0.45201984
13	0xbdaef7c7	-0.085433535
14	0xbe79fcfa	-0.24412909
15	0xbf66226b	-0.8989627

block1.1.bn3.running_var f4 [16]
0	0x3e4fc88d	0.20291348
1	0x3df34863	0.11879041
2	0x3ebac5c7	0.36479017
3	0x3def1314	0.11673561
4	0x3f3d78ef	0.74012655
5	0x3e0f82ac	0.14014691
6	0x3eb6b054	0.35681403
7	0x3f00ad8c	0.5026481
8	0x3f83613b	1.0264047
9	0x3f563848	0.8367963
10	0x3f15ae74	0.5846932
11	0x3ed5861e	0.41703886
12	0x3deab24c	0.11459789
13	0x3e90e320	0.28298283
14	0x3e3d6bd2	0.18498161
15	0x3eb2bf75	0.34911695

block1.2.conv1.weight f4 [8, 16, 1, 1]
0	0x3eb20b21	0.34774116
1	0x3f2e046b	0.6797549
2	0x3dec50fe	0.115388855
3	0xbda87651	-0.08225692
4	0x3c7e1959	0.015508973
5	0x3d05566b	0.032553118
6	0xbef3efd3	-0.4764391
7	0x3cdf8059	0.02728288
8	0xbe271f43	-0.16320519
9	0x3d7b9a7c	0.061426625
10	0xbe21690b	-0.15762727
11	0x3f9ae7be	1.2101972
12	0x3ea8bf24	0.3295833
13	0xbe850117	-0.25977394
14	0x3f07638d	0.5288628
15	0xbe3c90f6	-0.18414673
16	0x3e8b4557	0.2720134
17	0x3cac0f43	0.021003371
18	0x3d8172b0	0.06320703
19	0xbdd72678	-0.10505384
20	0x3c7c9058	0.015415274
21	0xbe17e7db	-0.1483454
22	0x3db727e3	0.08943155
23	0xbd8d049a	-0.06885643
24	0x3d9ea547	0.07746368
25	0x3e52e6a2	0.20595792
26	0xbd4d556c	-0.050130293
27	0xbdc7f3f5	-0.09763328
28	0xbba23ec4	-0.00495133
29	0x3e2ea317	0.17054401
30	0xbc98a685	-0.01863409
31	0x3dbe9b23	0.09306934
32	0xbe105ab5	-0.14097102
33	0x3e9c3188	0.3050654
34	0xbec05933	-0.37568054
35	0x3e8cbce6	0.27487868
36	0xbda3822a	-0.07983811
37	0xbd2a0913	-0.04151256
38	0xbc793b63	-0.015211913
39	0xbe49e47f	-0.1971607
40	0xbdf0332b	-0.117285095
41	0x3d6c4688	0.05768445
42	0xbe87778f	-0.26458403
43	0xbeceef24	-0.40416825
44	0xbe26284e	-0.16226313
45	0xbd988955	-0.07448069
46	0x3f5e9768	0.8694978
47	0x3cddb38c	0.027063154
48	0x3f566e70	0.83762264
49	0xbe5b9920	-0.21445131
50	0x3e8dbabd	0.27681533
51	0x3e155288	0.14582264
52	0x3d4c4ea5	0.04987969
53	0xbf7aa362	-0.9790555
54	0xbcfb27ab	-0.030658564
55	0x3e9f68a3	0.3113452
56	0xbf0e0837	-0.55481285
57	0xbdfdcdbd	-0.12392757
58	0xbd881e5a	-0.06646414
59	0x3e134f7a	0.14385787
60	0x3d998991	0.07496942
61	0x3ca8926b	0.02057763
62	0xbe8b6b37	-0.27230236
63	0x3d4029ac	0.04691474
64	0x3bd27700	0.0064228773
65	0x3dd427db	0.10359164
66	0xbe5ac7ce	-0.21365282
67	0xbbbd7e5c	-0.0057828855
68	0xbd21d26a	-0.039507307
69	0x3d887922	0.06663729
70	0xbe5c8a2b	-0.21537082
71	0xbd83d3e1	-0.06436897
72	0x3c914a55	0.01773564
73	0x3c18d7dd	0.00932881
74	0x3f5bd8fc	0.85877967
75	0x3dfc9d3e	0.12334679
76	0xbeddd713	-0.4332815
77	0xbe3a9dde	-0.18224284
78	0xbe35cb04	-0.17753226
79	0xbcafbbeb	-0.021451911
80	0xbd91c0cd	-0.07116852
81	0xbe9cb5a1	-0.30607322
82	0xbe307558	-0.17232263
83	0xbd8801e0	-0.06640983
84	0xbf2a78fa	-0.66590846
85	0x3e496688	0.19668019
86	0x3efffba4	0.49996674
87	0x3e4fbedb	0.2028765
88	0xbe1762c7	-0.14783774
89	0xbe2ce8f4	-0.1688574
90	0xbf00c57e	-0.5030135
91	0x3da3d196	0.0799896
92	0xbec079ba	-0.3759287
93	0x3f24b8d0	0.643445
94	0xbf387af5	-0.7206262
95	0x3e83ae8e	0.25719112
96	0xbec0e34a	-0.37673408
97	0x3e13ec81	0.14445688
98	0xbe787198	-0.24262083
99	0x3ec83b64	0.3910781
100	0x3eb036e7	0.34416887
101	0x3e3a4c3f	0.18193148
102	0x3eebe639	0.46074083
103	0x3d8c8beb	0.06862625
104	0xbde4087d	-0.111344315
105	0xbe86757d	-0.2626151
106	0x3d4a41db	0.04937921
107	0xbe5642c5	-0.20923908
108	0x3d1a2454	0.0376323
109	0xbcbd1ec7	-0.023085965
110	0x3dad6a81	0.0846758
111	0xbea67c99	-0.32516935
112	0xbf3ccd49	-0.7375074
113	0xbf06c368	-0.52641916
114	0xbd1333ec	-0.03593819
115	0x3d0f8d14	0.035046652
116	0xbea0d411	-0.31411794
117	0x3ea0a7d7	0.31378052
118	0xbf0ae245	-0.5425151
119	0x3bf99c6d	0.0076175244
120	0x3ee144de	0.43997854
121	0xbd76fbe0	-0.0602988
122	0xbec6f7a6	-0.38860816
123	0x3ee968ae	0.45587677
124	0x3e565abc	0.2093305
125	0xbe2c9970	-0.16855407
126	0xbf39a09c	-0.72510695
127	0xbca463d8	-0.02006714

block1.2.bn1.weight f4 [8]
0	0x3f4f7c1f	0.8104877
1	0x3ef26322	0.47341257
2	0x3f3a1459	0.726873
3	0x3f2f8b4e	0.6857194
4	0x3f2fb1cb	0.68630666
5	0x3f3acfcb	0.72973317
6	0x3f2bdc15	0.67132694
7	0x3f60768c	0.8768089

block1.2.bn1.bias f4 [8]
0	0x3d9303b7	0.07178443
1	0xbe41f708	-0.18941891
2	0x3d9e7a01	0.07738114
3	0x3eb8342d	0.35977307
4	0xbe28b0d3	-0.16473703
5	0x3ebd9fab	0.3703588
6	0xbe973920	-0.2953577
7	0x3e8c172a	0.27361423

block1.2.bn1.running_mean f4 [8]
0	0x4070ac86	3.76053
1	0x3f913603	1.1344608
2	0xbfa520fe	-1.2900693
3	0x3f948296	1.1602352
4	0xbe458dc5	-0.19292362
5	0xbfe0cb14	-1.7561975
6	0xbf62f4c7	-0.8865475
7	0xc0919609	-4.549565

block1.2.bn1.running_var f4 [8]
0	0x4139c2f6	11.610098
1	0x3ee70356	0.45119733
2	0x40a9a689	5.301579
3	0x40ce0a5e	6.4387655
4	0x404ec465	3.230737
5	0x40fb070f	7.8446116
6	0x400496ea	2.071711
7	0x40cf154e	6.4713507

block1.2.conv2.weight f4 [8, 8, 3, 3]
0	0xbd556bd1	-0.052104775
1	0xbe15f5d5	-0.14644559
2	0xbe006a8d	-0.12540646
3	0xbeccfd10	-0.4003682
4	0xbe19fd22	-0.15037969
5	0xbe53c3a2	-0.20680097
6	0x3d7773dd	0.06041323
7	0xbe03d8a1	-0.12875606
8	0xbe529356	-0.20564017
9	0x3e23ff83	0.16015439
10	0x3dee42ef	0.1163386
11	0xbd1eec75	-0.03879972
12	0x3e3cdd40	0.18443775
13	0xbdbf9092	-0.093537465
14	0xbe3dc1ab	-0.1853091
15	0x3e2fae39	0.17156304
16	0x3d15e168	0.036591917
17	0xbc9997b6	-0.0187491
18	0xbc869da0	-0.016432583
19	0xbc800588	-0.015627638
20	0xbda85fd5	-0.082214035
21	0xbcea30d7	-0.028587742
22	0x3e601328	0.21882308
23	0xbdc417f3	-0.095748805
24	0xbdc24330	-0.09485471
25	0xbd8aacb3	-0.06771221
26	0xbd22ccdc	-0.03974615
27	0xbe4ee394	-0.20204002
28	0x3e0e1842	0.13876441
29	0x3e90e105	0.28296676
30	0xbd689f49	-0.05679253
31	0xbf3a00e8	-0.7265763
32	0xbe410f24	-0.18853432
33	0x3f1b991d	0.6078051
34	0x3d65c603	0.05609704
35	0xbe0d5711	-0.13802744
36	0x3ea0b99a	0.31391603
37	0x3ead27c1	0.33819392
38	0xbd3fb7af	-0.046806034
39	0xbd696ecc	-0.05699043
40	0x3e86b2b9	0.2630823
41	0x3e134db1	0.14385106
42	0xbd2b12ba	-0.041765906
43	0xbe38d568	-0.18050158
44	0xbdcd46dc	-0.10023281
45	0xbd9dec6f	-0.07711112
46	0xbe2f2b03	-0.17106251
47	0xbe59a498	-0.21254194
48	0x3f0f0ca2	0.5587865
49	0x3d7cd6ed	0.061728407
50	0xbedd23ea	-0.43191463
51	0x3ccfb282	0.025353674
52	0xbbdc3a86	-0.0067208437
53	0x3dc4e4bc	0.0961394
54	0xbd5e89ef	-0.054330762
55	0xbdca1df5	-0.09868995
56	0xbe9af2fa	-0.302635
57	0x3df0d306	0.117589995
58	0x3dabdac6	0.08391337
59	0xbdb76518	-0.08954829
60	0xbe457d03	-0.1928597
61	0xbd2a3276	-0.04155203
62	0xbe4d8469	-0.20070042
63	0x3e28000d	0.1640627
64	0xbd3b7968	-0.04577008
65	0xbe480f28	-0.19537032
66	0xbe6e9ddb	-0.23302405
67	0x3f5d91d3	0.86550635
68	0xbd7a2e08	-0.061079055
69	0xbec36117	-0.3816001
70	0xbe9d0411	-0.30667165
71	0xbcd44229	-0.025910454
72	0xbeaf8ed2	-0.3428865
73	0x3f5a484f	0.85266584
74	0xbde09181	-0.10965253
75	0xbd7aa7f0	-0.061195314
76	0x3f360ad4	0.7111027
77	0x3e0cb184	0.13739592
78	0xbeadbcb4	-0.33933032
79	0xbefddbfc	-0.49581897
80	0xbecf6bec	-0.40512025
81	0xbdb31301	-0.08743859
82	0xbd0efeea	-0.034911074
83	0xbd6d9d26	-0.058011197
84	0x3d626fc0	0.055282354
85	0xbd1ebdd5	-0.038755257
86	0xbd224a1a	-0.03962145
87	0x3cd462f4	0.02592609
88	0xbe1ae477	-0.15126215
89	0xbd70fa35	-0.058832366
90	0x3dc1fd71	0.09472168
91	0x3e5ba0a4	0.21447998
92	0xbe651928	-0.22372878
93	0x3f02a55f	0.51033586
94	0x3f04a065	0.5180724
95	0xbd123323	-0.0356933
96	0x3e86e587	0.2634699
97	0x3cf1945a	0.029489685
98	0xbe0d0b29	-0.13773789
99	0xbd03190d	-0.032006312
100	0xbd016fbc	-0.0316007
101	0x3d8900d9	0.06689615
102	0xbd08e796	-0.033423983
103	0xbde868d8	-0.11348122
104	0x3dde2be9	0.10848219
105	0x3d5f5822	0.05452741
106	0xbe8e709d	-0.27820292
107	0xbcc78d77	-0.024359448
108	0xbe319ef7	-0.17345797
109	0x3e740ea9	0.23833717
110	0xbeafb925	-0.34320942
111	0x3da0f180	0.078585625
112	0x3dc731d8	0.09726304
113	0xbdfa2aa8	-0.12215167
114	0x3d618bd4	0.05506499
115	0x3de21d46	0.1104074
116	0x3e474706	0.19460687
117	0x3deec622	0.116588846
118	0xbe961af3	-0.29317436
119	0xbe818334	-0.25295413
120	0x3d176f25	0.03697123
121	0xbe4a78e6	-0.19772682
122	0xbd551fec	-0.052032396
123	0x3ea0e91d	0.3142785
124	0x3e746305	0.23865898
125	0xbacb92f7	-0.001553147
126	0xbe3d3db5	-0.1848057
127	0xbe321ec9	-0.17394556
128	0xbddea07b	-0.10870453
129	0xbe32cecc	-0.17461699
130	0xbdd6dc8c	-0.10491285
131	0x3d9cdbcc	0.076591104
132	0xbdf44306	-0.11926846
133	0x3c3276b8	0.010892563
134	0xbe209ff3	-0.15686016
135	0x3e1d300e	0.15350363
136	0xbda6d1b5	-0.08145467
137	0xbe4f1479	-0.20222653
138	0xbdd41eab	-0.10357412
139	0x3dca1811	0.098678716
140	0x3cf2079d	0.029544646
141	0xbd81e9cc	-0.06343421
142	0xbe664eb5	-0.22490962
143	0xbd8f589c	-0.06999323
144	0xbd48e3c5	-0.049045343
145	0x3d849938	0.06474537
146	0x3c72ffe2	0.014831515
147	0x3df2511e	0.11831878
148	0x3f8c2922	1.0950053
149	0x3ef781b1	0.48341134
150	0xbe357c48	-0.17723191
151	0x3e9c1011	0.30481008
152	0xbe6af294	-0.22944099
153	0xbd6f7a28	-0.058466107
154	0x3cbdd42c	0.02317246
155	0xbc575580	-0.013142943
156	0x3d86ff64	0.06591681
157	0x3ca4b8ba	0.020107616
158	0x3c871afc	0.01649236
159	0x3d86bb7a	0.06578727
160	0xba0c9f40	-0.0005364306
161	0xbc3f9e66	-0.01169548
162	0xbe261a7d	-0.16221042
163	0xbd344e36	-0.0440199
164	0xbe696c88	-0.22795308
165	0xbe97b13f	-0.29627416
166	0xbdbf86c8	-0.09351879
167	0xbe6be96f	-0.23038267
168	0xbdbed356	-0.09317653
169	0x3e5c2e1c	0.21501964
170	0xbd8ea31e	-0.06964706
171	0xbe1e18d3	-0.15439157
172	0x3dccd6e6	0.10001926
173	0xbdbefb36	-0.093252584
174	0x3e24b9ee	0.16086552
175	0x3ee8e3d4	0.4548632
176	0xbcd8d62e	-0.026469316
177	0xbe50d781	-0.20394708
178	0xbdb2c80f	-0.087295644
179	0xbe70fdc9	-0.23534311
180	0x3e37698e	0.1791136
181	0x3d703940	0.058648348
182	0xbe370200	-0.17871857
183	0x3bc7b99f	0.006095126
184	0x3e2bde38	0.16783988
185	0x3dca5bd3	0.09880795
186	0xbe8cb9bd	-0.27485457
187	0xbda525b6	-0.080638334
188	0x3e18626d	0.14881296
189	0x3de481ba	0.11157556
190	0x3df498a4	0.119431764
191	0xbd6216ec	-0.05519764
192	0x3df8c52d	0.12146983
193	0xbe442370	-0.19154143
194	0xbe96ffeb	-0.29492125
195	0x3ec15969	0.37763527
196	0x3e3fc7f7	0.18728624
197	0x3dec4c5a	0.115380004
198	0xbd65778e	-0.05602222
199	0xbd00f3ff	-0.031482693
200	0x3e184113	0.14868574
201	0xbdfedc41	-0.12444354
202	0xbd696563	-0.056981456
203	0xbdfc25fc	-0.123119324
204	0xbc852d65	-0.016256997
205	0x3d70126d	0.058611322
206	0x3d7fc41e	0.06244289
207	0x3d819e61	0.063290365
208	0x3c9df5c5	0.019282231
209	0xbe5f6287	-0.21814929
210	0x3d0008e5	0.031258482
211	0x3f01221d	0.5044268
212	0xbe4f4b56	-0.20243582
213	0xbd05b49c	-0.032642946
214	0x3ecd43ae	0.40090698
215	0xbe3a1ae3	-0.18174319
216	0xbe0e5f9b	-0.13903658
217	0x3ed8c034	0.4233414
218	0xbcc1f81c	-0.023677878
219	0xbe250ca6	-0.16118106
220	0xbd7e2347	-0.06204536
221	0xbd91ee75	-0.0712556
222	0x3f01a87a	0.506477
223	0x3ecd8a04	0.4014436
224	0x3e61177d	0.21981616
225	0xbd15a48e	-0.036533885
226	0x3c065975	0.008200039
227	0xbe0380ce	-0.12842104
228	0xbe33804e	-0.17529413
229	0xbd6aeeab	-0.057356518
230	0xbe2a88d4	-0.16653758
231	0xbd5f2135	-0.054475028
232	0xbe0f7719	-0.14010276
233	0xbd370546	-0.044682764
234	0xbe008584	-0.12550932
235	0xbdf6ab76	-0.12044422
236	0xbe116467	-0.14198457
237	0x3e68ca1d	0.2273335
238	0x3e631538	0.22176063
239	0x3cf57c92	0.029966626
240	0xbebd4c0e	-0.36972088
241	0x3c91cc58	0.017797634
242	0xbd6bad15	-0.05753811
243	0xbd770f90	-0.060317576
244	0x38c81b38	9.541813e-05
245	0x3d96f274	0.07370463
246	0xbef4c469	-0.478061
247	0xbf3a71be	-0.72829807
248	0xbe80df12	-0.2517019
249	0xbd29d94e	-0.041467004
250	0xbe87aaff	-0.26497647
251	0xbe985d85	-0.2975885
252	0x3e30a78b	0.17251413
253	0x3ee0981f	0.4386606
254	0x3e9490c9	0.29016712
255	0xbe031c36	-0.1280373

block1.2.bn2.weight f4 [8]
0	0x3f072025	0.52783424
1	0x3f87afdc	1.0600543
2	0x3f8e5ce9	1.1122104
3	0x3ed11bec	0.40841615
4	0x3f28b43e	0.6590003
5	0x3f1067b5	0.56408244
6	0x3f5381e3	0.82620066
7	0x3f59ec56	0.85126245

block1.2.bn2.bias f4 [8]
0	0xbb0eabf8	-0.0021769982
1	0xbeb99161	-0.36243728
2	0xbf97b400	-1.1851807
3	0x3e80fc22	0.25192362
4	0x3dac2eb6	0.08407347
5	0x3db91444	0.090370685
6	0xbe371e7a	-0.1788272
7	0xbf0a7676	-0.5408701

block1.2.bn2.running_mean f4 [8]
0	0xbf2fc0de	-0.68653667
1	0xbe270519	-0.16310538
2	0x3f33c01b	0.70215005
3	0xbfa7f0b9	-1.3120338
4	0x3ff6727d	1.9253689
5	0x3f2f4095	0.6845792
6	0xbf0d8201	-0.55276495
7	0xbee440b6	-0.4458062

block1.2.bn2.running_var f4 [8]
0	0x3f2fa3a7	0.6860909
1	0x3fc6770b	1.5505079
2	0x3fc84f14	1.5649133
3	0x3f83279b	1.0246462
4	0x4005da80	2.0914612
5	0x3f84a074	1.0361466
6	0x3fb38997	1.4026364
7	0x3f836485	1.0265051

block1.2.conv3.weight f4 [16, 8, 1, 1]
0	0xbefb4f93	-0.49084148
1	0x3d9d25dc	0.07673237
2	0xbdbebc49	-0.09313256
3	0xbf1b614d	-0.60695344
4	0x3d818d10	0.06325734
5	0x3f2d0838	0.67590666
6	0x3d0b2f26	0.03398051
7	0xbe5e9e64	-0.21740109
8	0x3e0c4ef9	0.13702
9	0x3ed10fa3	0.40832242
10	0xbd256e5c	-0.04038845
11	0xbe07c531	-0.13258816
12	0x3ed5865e	0.41704077
13	0x3d792f4a	0.060836114
14	0x3ebfe9b0	0.37482977
15	0x3ed83bde	0.42233175
16	0xbef0d73f	-0.4703922
17	0xbe34ae2b	-0.17644565
18	0xbf192c24	-0.5983298
19	0xbe88dfcd	-0.26733246
20	0xbb8eb0f1	-0.004354589
21	0xbdc16546	-0.094431445
22	0xbf2965d9	-0.6617103
23	0x3d286568	0.041112334
24	0xbca27bb5	-0.019834379
25	0x3ee9215c	0.45533264
26	0x3d5185bc	0.05115293
27	0xbdb5ac0f	-0.08870708
28	0xbe80c38f	-0.251492
29	0x3e47910a	0.19488922
30	0x3e969081	0.29407123
31	0x3eee3275	0.4652287
32	0x3e564e6f	0.20928358
33	0x3f43a9ce	0.76430976
34	0xbe96d703	-0.29460916
35	0x3e447cdf	0.1918826
36	0xbdcb19a7	-0.09917002
37	0x3e3d0d0a	0.18462005
38	0x3c924cc8	0.017858878
39	0xbc95ab9c	-0.018270306
40	0x3f03c27a	0.5146862
41	0x3de287f7	0.110610895
42	0x3dda2c5b	0.106529914
43	0xbd382405	-0.044956226
44	0xbecd74d8	-0.40128207
45	0xbeadef6e	-0.33971733
46	0xbd97d2e5	-0.07413272
47	0xbd9ef742	-0.077620044
48	0xbea3da4d	-0.32002488
49	0xbecca4a7	-0.3996937
50	0x3e94d29e	0.29066938
51	0xbeb99cbd	-0.36252394
52	0xbe25d186	-0.16193208
53	0xbf10bef7	-0.5654139
54	0x3eb743b3	0.35793838
55	0xbdfb53ed	-0.12271867
56	0xbebbf1e6	-0.3670799
57	0x3d83fed5	0.0644509
58	0xbdb7b1a8	-0.08969432
59	0xbeb40396	-0.35158986
60	0xbf21f6d2	-0.6326724
61	0xbd72fa75	-0.059320886
62	0xbe560703	-0.20901112
63	0xbdb39fe7	-0.08770733
64	0x3e545508	0.20735562
65	0x3ea1f1f8	0.3162992
66	0x3e2cad75	0.16863044
67	0x3e513bac	0.2043292
68	0xbe9c1c32	-0.3049026
69	0xbe0d95d9	-0.13826694
70	0xbe5a7ca6	-0.21336612
71	0x3e54e017	0.20788608
72	0xbdd353b4	-0.103186995
73	0xbdb265e4	-0.0871084
74	0xbe53126b	-0.20612495
75	0xbe4c2b2c	-0.19938344
76	0xbcedf6e7	-0.029048396
77	0x3dea01a8	0.11426097
78	0x3abf96d0	0.0014617089
79	0xbe89bca1	-0.26901725
80	0x3dbb90e5	0.09158496
81	0xbe296af8	-0.16544712
82	0x3d9bb1c2	0.07602264
83	0x3e898bb6	0.26864403
84	0xbe41c4e1	-0.1892276
85	0x3d088889	0.033333335
86	0x3b950432	0.0045476193
87	0xbeb95a20	-0.36201572
88	0x3caf39dd	0.021389896
89	0xbe9d3696	-0.30705708
90	0xbfca2a3f	-1.5794142
91	0xbe9bd2f1	-0.30434373
92	0x3d9d1772	0.076704875
93	0xbdd737e7	-0.105087094
94	0xbe8a4721	-0.27007392
95	0x3e64862e	0.2231681
96	0xbd2e9927	-0.042626526
97	0xbdfbac0a	-0.12288673
98	0xbef0c4b7	-0.47025082
99	0xbd8ad015	-0.0677797
100	0x3bd4cb1d	0.0064939396
101	0x3e62a6fa	0.22134009
102	0x3dd3fce0	0.103509665
103	0x3d979664	0.074017316
104	0x3e413dbb	0.18871205
105	0xbd1e1647	-0.038595464
106	0xbf0675d5	-0.5252355
107	0x3e00d8ba	0.12582675
108	0xbe085569	-0.13313831
109	0x3e900fb8	0.28136992
110	0x3e0d4f58	0.13799798
111	0xbec6dc2e	-0.3883986
112	0x3d712bda	0.05887971
113	0xbf7babf8	-0.9830928
114	0xbbfe43d9	-0.007759553
115	0xbe6ba556	-0.2301229
116	0xbf0909ba	-0.53530467
117	0x3ee45297	0.4459426
118	0x3ecd0214	0.40040648
119	0xbf0793f6	-0.52960145
120	0x3ec86d48	0.39145875
121	0xbc080aec	-0.008303385
122	0x3ec774e5	0.3895637
123	0xbe0635fa	-0.13106528
124	0xbe5c342e	-0.2150428
125	0xbe77b446	-0.24189863
126	0xbedfb95f	-0.43696114
127	0xbef86aaa	-0.48518878

block1.2.bn3.weight f4 [16]
0	0x3ec1098b	0.37702593
1	0x3ed5686d	0.41681233
2	0x3f0073f8	0.50176954
3	0x3f09cb4b	0.53825825
4	0x3f10c8a2	0.5655614
5	0x3eb1add4	0.34702933
6	0x3eb1d4ff	0.34732816
7	0x3f1b7ed9	0.6074043
8	0x3efd6348	0.49489808
9	0x3cd4554a	0.025919575
10	0x3e02c7c6	0.1277152
11	0x3fa501d4	1.2891183
12	0xbe7515d9	-0.23934115
13	0x3ecb59a2	0.39716822
14	0x3f822149	1.0166408
15	0x3e82aec5	0.25523964

block1.2.bn3.bias f4 [16]
0	0xbed07ac6	-0.4071867
1	0x3ea8f844	0.33001912
2	0x3cc53294	0.02407197
3	0xbd6ed97d	-0.05831288
4	0x3ec10592	0.37699562
5	0xbf6cacc5	-0.92451125
6	0xbbf47c4a	-0.0074611055
7	0x3d4cc5e0	0.049993396
8	0xbd8fef04	-0.070280105
9	0x3dcd2bc6	0.10018115
10	0xbc929622	-0.017893855
11	0xbd6bc17a	-0.05755756
12	0xbe1a4da3	-0.15068679
13	0x3dfab6ec	0.12241921
14	0xbe11ba84	-0.14231306
15	0xbd336b36	-0.043803416

block1.2.bn3.running_mean f4 [16]
0	0xbddec8d5	-0.108781494
1	0x3ec48237	0.38380596
2	0xbef3cdbc	-0.476179
3	0x3e56e530	0.20985866
4	0x3e8fea8c	0.28108633
5	0xbdd9e8f0	-0.106401324
6	0xbeb89d6b	-0.360576
7	0xbee3d4f4	-0.44498408
8	0x3d60fcec	0.054928705
9	0xbe19f685	-0.15035446
10	0xbd18e510	-0.037327826
11	0xbecfb954	-0.40571082
12	0xbce0d184	-0.027443655
13	0x3bc0cbe2	0.0058836797
14	0xbeae9446	-0.340975
15	0xbe690d73	-0.22759037

block1.2.bn3.running_var f4 [16]
0	0x3e1d3d95	0.15355523
1	0x3e5f3dbe	0.21800897
2	0x3eb8f7ba	0.361265
3	0x3eabdb72	0.3356586
4	0x3e91e111	0.28492025
5	0x3d7b9a40	0.0614264
6	0x3e80d02b	0.2515882
7	0x3d9e8c03	0.07741549
8	0x3e5c7827	0.2153021
9	0x3dbee75a	0.093214706
10	0x3d925962	0.07145955
11	0x3fc98160	1.5742607
12	0x3e227cad	0.15867873
13	0x3e5eaeb7	0.21746336
14	0x3f81784e	1.0114839
15	0x3e48e130	0.19617152
