assignment1/results/trial_2/resBottleneck/ckpts/21000.pt (torch, 562440 bytes, 242 tensors)

block1.0.conv1.weight f4 [8, 16, 1, 1]
000000 79 ff 9d 3d 0e 12 4d bd fb ce d0 3d 08 5b 34 bc
       0.07714743 -0.050066046 0.101957284 -0.011008032
000010 1b 5d fe 3d d2 02 75 bc 24 4f 5a 3b 97 1d 2a 3c
       0.12420102 -0.014954286 0.0033311332 0.010383031
000020 db 7b a7 3e 50 d0 96 3d ce ec cb bc 6b da d2 3e
       0.32711682 0.07363951 -0.02489319 0.41182265
000030 cb 16 43 3e 3e 27 d5 3e e9 95 c8 be 4a c6 8b 3f
       0.19051664 0.41631502 -0.39176872 1.0919888
000040 ec ad ba bd c8 01 0a be d1 e9 c5 3c 3a 3a 45 be
       -0.09115204 -0.13477242 0.024159344 -0.19260493
000050 7f 23 96 bd 46 5f 34 bd 22 71 86 be 12 5a 35 bc
       -0.07330989 -0.044036172 -0.26258188 -0.011068838
000060 5a be b8 be 19 e1 31 3e c1 c8 08 bf 8d 45 99 be
       -0.36082727 0.17371024 -0.53431326 -0.29935876
000070 cf 78 c6 be 9e 43 e1 bc aa 72 62 3e be 0e 03 bf
       -0.38764045 -0.027498063 0.22114053 -0.5119437
000080 57 d5 95 be 8d d6 b9 bd 7b 4d 62 3e 47 7e ef be
       -0.29264328 -0.090741254 0.22099869 -0.4677603
000090 a5 6d 9c bc 64 67 91 bd f8 cf 07 3f 2c 60 9a 3c
       -0.019095251 -0.07099798 0.5305171 0.018844686
0000a0 de b9 a8 3d aa 7d eb 3d 02 83 e9 bf f2 aa 0d 3e
       0.08238576 0.11498578 -1.8243105 0.13834742
0000b0 9e 98 3d 3e b2 31 b3 be af 40 f4 be 09 b7 26 be
       0.1851525 -0.34998852 -0.477056 -0.1628076
0000c0 c6 cb 65 3d 47 21 9d be 21 1a 95 be 4c 7d 8f be
       0.056102537 -0.3068945 -0.29121497 -0.2802528
0000d0 35 61 8a 3e 40 d3 d8 3c 55 08 1c be 45 db 6e 3e
       0.27027288 0.02646792 -0.15237553 0.23325832
0000e0 4b b9 9c be ca 59 b2 3d 5c b6 2f bd 59 d1 3c bf
       -0.30610117 0.08708532 -0.04289852 -0.7375694
0000f0 80 f9 31 bf 53 d7 bc bd 58 7e 75 3e b6 0c 2a bf
       -0.6952133 -0.09220757 0.23973978 -0.66425645
000100 de ac 6e bd 2b 61 39 bf 70 23 7e be 8b 71 ca bd
       -0.058270328 -0.7241389 -0.24818206 -0.09884938
000110 ff e5 d3 bd 21 d7 5b be ca 97 fb bd 71 42 1b be
       -0.10346603 -0.21468784 -0.12284811 -0.15162064
000120 21 a2 b8 be 8a a4 67 bd 18 f5 9f 3c b0 f5 00 3e
       -0.36061195 -0.0565534 0.01952605 0.12593722
000130 65 01 95 bd 33 3c 19 be c9 66 73 be fb c3 43 bd
       -0.072756566 -0.1496437 -0.23769678 -0.047794323
000140 d2 9e 91 3d 29 60 4c 3e e0 04 14 bf 8a 6a ff be
       0.07110371 0.19958557 -0.5781994 -0.4988597
000150 46 90 d0 bd 8c 49 23 3d 6e 2d 04 3e 8c 24 b1 3d
       -0.10183768 0.03986506 0.12907955 0.08649549
000160 dd eb b0 3d 85 7a eb 3d cb cd 63 bf 18 e8 0e bf
       0.08638737 0.11497978 -0.8898589 -0.55822897
000170 24 ab 06 3d af 61 3c 3c f2 9c dc be 4a ca 3d 3e
       0.032878056 0.011497899 -0.4308849 0.18534198
000180 69 82 1a be a1 9b 42 3f 0f e6 cf 3e 3a 92 cf bc
       -0.1508881 0.7601872 0.40605208 -0.025338281
000190 99 1c 62 3e fd d5 6f be 9b b2 09 bf 22 3b be 3d
       0.22081222 -0.23421474 -0.53788155 0.092886224
0001a0 02 4b 0e 3f 3b 4f 05 be 29 6e 9b 3e 12 e2 c1 be
       0.555832 -0.13018505 0.30357483 -0.3786779
0001b0 51 46 37 3a 07 0f 00 3f 41 1f 28 3f 26 b2 89 3d
       0.0006991374 0.5002293 0.6567269 0.06723432
0001c0 08 14 a7 bd aa 0e 44 3f ce bb 93 bd 79 7c 83 be
       -0.081581175 0.76584876 -0.07213555 -0.25680903
0001d0 c5 66 2f be 56 9e cc bd 86 ef 9b be c8 c0 49 bd
       -0.17129047 -0.09991138 -0.3045618 -0.049256116
0001e0 a7 1c 0b 3f b1 8f 6d 3c 30 d6 5f bd 87 dc ed bd
       0.54340595 0.014499591 -0.054647624 -0.11614328
0001f0 fd d5 50 3e bb 39 6f 3d 99 0f 13 bf 0a 60 b6 3e
       0.2039413 0.058404665 -0.57445675 0.35620147

block1.0.bn1.weight f4 [8]
000000 32 1c 35 3f f8 c0 49 3f 9a 74 90 3f 2b 16 35 3f
       0.7074615 0.7881007 1.1285584 0.7073695
000010 53 67 ab be de ec 87 3f e3 32 6b 3f b4 4b 14 3f
       -0.33477268 1.0619161 0.9187452 0.57928014

block1.0.bn1.bias f4 [8]
000000 5c 2f 93 be a0 c9 a5 be 9a 7a 2d 3e 63 c4 8e 3e
       -0.2874707 -0.3238039 0.169413 0.27884206
000010 69 8c 25 3f 54 fe 9c be 85 67 08 bf d8 e5 ed 3d
       0.64667374 -0.30662787 -0.5328296 0.11616105

block1.0.bn1.running_mean f4 [8]
000000 2e bd 66 40 dd 43 8d c0 1f 5a 7f c0 23 d7 aa c0
       3.6052966 -4.414534 -3.9898756 -5.338762
000010 e9 ea 16 c0 c9 2a 72 c0 9b 13 9f 3e 2d 0e 66 bf
       -2.3580878 -3.7838614 0.31069645 -0.8986538

block1.0.bn1.running_var f4 [8]
000000 b2 1d e9 40 2a a7 96 40 41 01 80 41 25 2d 21 41
       7.284875 4.707906 16.000612 10.073522
000010 3e 4b f1 3f de d1 ed 40 6c 38 0b 41 57 d2 69 40
       1.8851087 7.4318686 8.701275 3.6534631

block1.0.conv2.weight f4 [8, 8, 3, 3]
000000 d9 b3 09 bd 65 c0 dc 3d 54 e6 12 bd 1c 86 65 3d
       -0.03361878 0.10778884 -0.03586419 0.0560361
000010 8a 81 ab bd 9a 3c 70 be f9 02 51 3e e3 0d 65 3d
       -0.08374317 -0.23460618 0.2041129 0.055921447
000020 a4 fb 8e 3d 44 2d 01 3d 8b 49 0b 3e ba 91 d7 bd
       0.069815904 0.03153731 0.13602273 -0.10525842
000030 24 f7 82 3e 78 66 11 3f 60 01 c7 bc 72 3b 14 be
       0.25579178 0.5679698 -0.024292648 -0.14475802
000040 84 06 e6 bd 5b bc 3e 3d cf 66 1b 3c e2 83 25 be
       -0.112317115 0.04656635 0.009484961 -0.1616359
000050 03 98 69 be 2f 5e 81 3c e7 61 c0 3b 8f 83 d3 be
       -0.22811894 0.01579198 0.005871046 -0.4131131
000060 0c 18 b1 3d 98 b7 5b 3d 89 01 3a 3e 1e b0 a6 bc
       0.08647165 0.053641886 0.18164648 -0.020347651
000070 80 90 0d 3c 88 61 7e be 05 97 ec 3e 0b c6 7f 3f
       0.0086404085 -0.24841893 0.4620897 0.99911565
000080 16 fa 9c 3e 5e 5d 9f be 7a 22 e1 bb 3c 66 82 be
       0.3065955 -0.3112592 -0.006870565 -0.25468624
000090 8e b1 2e be a6 65 22 3e c1 c7 34 3e f6 b9 2e bd
       -0.17059919 0.15859088 0.17654325 -0.042657815
0000a0 87 0a 3e 3c c6 2a 10 3d 17 94 a4 be b3 c3 60 be
       0.01159919 0.035197042 -0.32144234 -0.21949653
0000b0 56 cd 91 bc a2 0a 47 3a 89 5a 8d be 2e 58 c2 bc
       -0.017798107 0.0007592832 -0.27608135 -0.023723688
0000c0 d3 fc 72 3d 4d 4a 8b 3e 0d 33 79 3e d0 83 1c be
       0.059323143 0.27205124 0.2433588 -0.15284657
0000d0 d3 69 3c 3e 04 dc 34 3d 51 78 ba bd 90 53 b7 3d
       0.18399744 0.044155136 -0.0910498 0.08951485
0000e0 81 26 42 bc 49 7e b2 bc 79 8d ee 3d 7b 36 f3 bc
       -0.01185 -0.021788733 0.116480775 -0.029689064
0000f0 5d 2a f7 3d ae 6e af 3e f4 7d 3a 3e a3 1f ad 3d
       0.12068627 0.3426413 0.1821211 0.084533
000100 b4 2f 2a 3d a9 a4 df 3e 95 dc c7 be ae 2c 7b be
       0.0415494 0.43680313 -0.39035478 -0.24528763
000110 d5 1e 42 3d 6c b1 34 be 10 d1 2d bd 10 79 64 3d
       0.047392685 -0.17645806 -0.042435706 0.055779517
000120 65 a4 3b be 2e 6c af 3d 85 87 9d 3e a0 4c 13 bd
       -0.1832443 0.085655555 0.30767456 -0.035961747
000130 cf f1 90 bd cb 69 48 bd 73 6f 6b 3e 2b 14 f0 bd
       -0.07077371 -0.048929017 0.22991733 -0.11722597
000140 de 24 70 be 6b 7d 9b 3d 90 8a 91 3e 8e e2 90 3c
       -0.23451564 0.07592281 0.28426027 0.017686155
000150 d3 8b 11 be bd 30 00 bf 9a fd 11 be b4 c7 c6 3d
       -0.14213495 -0.5007437 -0.14256898 0.09706059
000160 d3 04 ca 3b d9 fc 0a 3e 09 b6 01 bd 3c be a1 3e
       0.006165126 0.13573016 -0.031667743 0.3159045
000170 ef c0 26 bc 93 3a 92 be 3e 57 96 bf b7 a5 54 be
       -0.010177835 -0.28560314 -1.1745374 -0.2076634
000180 86 02 99 3e a9 d7 11 3f 9e 05 81 3e c8 8e 3c be
       0.29884738 0.56969696 0.25199598 -0.18413842
000190 e6 de 06 3e 5d e6 9f ba eb 51 23 3e 3b 24 a7 be
       0.13170967 -0.0012199391 0.15949218 -0.3264483
0001a0 f5 c0 32 3e 69 a4 4b 3e 6c 98 79 3e c4 c8 98 3d
       0.1745642 0.19886936 0.2437455 0.07460168
0001b0 f7 a6 9b bd 55 c3 e1 3d f3 77 4f bd 97 f0 09 be
       -0.076002054 0.11023585 -0.050651502 -0.13470684
0001c0 34 c5 60 3e b6 c8 a6 bd fc 84 a2 3d c3 ef 7f 3d
       0.21950227 -0.08143751 0.07935521 0.062484514
0001d0 5c 1a f5 3d 96 12 34 3e a1 36 50 3e 10 e6 61 bd
       0.11967918 0.17585215 0.2033334 -0.055151045
0001e0 42 d7 0e bf 2c 9d 87 be c8 26 f1 3d ee 73 86 3e
       -0.5579721 -0.264871 0.11774975 0.26260322
0001f0 a9 d4 d9 3d 44 b9 c8 3d 59 64 cf 3c ae be 85 3e
       0.10636265 0.098009616 0.025316404 0.2612204
000200 d7 8d 3d 3d df 43 16 bd da d7 39 3e 43 95 0e 3d
       0.046277847 -0.03668582 0.18148747 0.034810316
000210 74 79 2f 3e 4e ca 0b bd b5 75 ab bd 36 92 1b bd
       0.17136174 -0.03412848 -0.0837206 -0.037981234
000220 9d 6c f1 bb 94 72 9c be fd 85 0d 3e 22 a5 1c 3f
       -0.007367684 -0.30556166 0.13820644 0.6118947
000230 b2 9a 4f 3e c6 40 a1 3e e6 cd a7 bd f0 7c d0 bc
       0.20273855 0.3149473 -0.08193569 -0.0254502
000240 28 1b ff 3d 00 8a c4 3d 05 43 1e 3e be 06 27 3d
       0.124563515 0.09596634 0.15455253 0.040777914
000250 43 a7 3f 3d 10 18 81 bd cf 12 b5 3b 90 d6 15 3d
       0.046790373 -0.06303418 0.005525924 0.036581576
000260 26 64 28 bd ed 36 d4 3d ba 5e 8c 3d 09 17 c1 3d
       -0.041111134 0.10362039 0.06854005 0.09428222
000270 de a5 2f 3d ae 39 02 3d a0 9e 4a b9 db 37 45 3a
       0.042882793 0.03179329 -0.00019323314 0.0007523277
000280 19 93 10 bd 0b 03 a4 bc a0 ba 4e 3d 44 a5 4d bd
       -0.035296533 -0.020020982 0.05047095 -0.050206438
000290 f9 e5 c9 bd 76 88 ab 3c f5 6a be bd fa 40 66 bd
       -0.09858317 0.020939093 -0.09297744 -0.05621431
0002a0 45 b8 92 bd 05 29 39 3d 17 61 53 bc ba 96 23 3d
       -0.07164053 0.045205135 -0.012901566 0.039938666
0002b0 aa 55 f7 3c d8 1b 67 bd d4 7b 75 3d df 40 08 3e
       0.030192215 -0.05642304 0.059932545 0.13305996
0002c0 48 4e 02 3d 9a d9 ed 3d 3c b6 5f 3e d6 fb a5 3c
       0.031812936 0.1161377 0.2184686 0.020261686
0002d0 88 b9 c0 bd 60 d2 91 bd 3c 6c 73 bd 86 84 bd 3c
       -0.09410387 -0.07120204 -0.059429392 0.023134481
0002e0 82 79 2f bc 92 9e cf bd 93 77 df bc 79 b9 2c 3d
       -0.010710122 -0.10137667 -0.027278697 0.042169068
0002f0 82 0c 9b bd 6d 3f f7 3d ce 83 11 3d 5a 12 fd 3c
       -0.07570745 0.120726444 0.03552609 0.03089254
000300 89 12 c2 3d 8d 29 00 3d 91 56 88 3c d8 cb bd 3d
       0.094761916 0.031289626 0.01664284 0.09267396
000310 6c f4 5e 3d 86 fd 79 bc 9e e6 e1 3a 3e 9a a0 3c
       0.054432318 -0.015258199 0.0017234867 0.019604798
000320 29 42 35 3d 50 d4 21 3a 9a 83 cb 3d 77 9c 1f 3e
       0.04425255 0.00061732996 0.099372104 0.1558703
000330 4e eb 2e 3d 8c de a4 bd 7e c3 6d bb f6 e2 94 3d
       0.042704873 -0.0805026 -0.0036279853 0.07269852
000340 df 81 96 bd 77 29 b3 bd 5d 34 f7 3d de 58 65 3c
       -0.0734899 -0.08748143 0.120705344 0.013998238
000350 0e a5 1e bd 15 3a 84 3d 9e 96 de b9 b4 42 fa bd
       -0.038731627 0.06456391 -0.00042455358 -0.12219754
000360 02 7d 17 3e ce e4 a0 3c 41 ae c0 be e5 13 13 3e
       0.1479378 0.019640353 -0.37632945 0.14363058
000370 f9 f2 b4 3e da fa fb bd 65 42 66 3d de 45 e2 3c
       0.35341623 -0.123037055 0.056215663 0.027621206
000380 b3 82 b1 3b 74 38 0f 3e d6 21 88 3e 51 8c 24 be
       0.005417192 0.13986379 0.26588315 -0.16069151
000390 f0 fa 00 3e e2 23 18 3e ec 8d 5b be ec c6 a1 3d
       0.12595725 0.14857438 -0.21440858 0.078992695
0003a0 72 d6 c2 bd d2 29 88 bd 26 8d 09 be a3 f9 4d 3f
       -0.095135584 -0.066486016 -0.1343275 0.8045904
0003b0 6f 0e fd 3e 7b 48 1d be 44 b5 5f be bd cd 50 3e
       0.49425074 -0.1535968 -0.21846491 0.20390983
0003c0 69 f2 48 be 4b 81 38 3e fe 76 25 3e fb 55 0c 3e
       -0.19623722 0.18018071 0.16158673 0.13704674
0003d0 83 f2 d4 3e f5 b8 94 3e 49 ed 9f 3d b6 89 1f bf
       0.41591272 0.2904736 0.078089304 -0.62319505
0003e0 85 75 3a be d2 30 29 3e 35 76 f4 be 5c ba e3 bb
       -0.18208893 0.1652253 -0.47746435 -0.006949706
0003f0 eb 5c 59 3d be 15 b7 bd d4 4e 44 be 6d 6e 0e 3d
       0.05306713 -0.08939694 -0.19170696 0.03477328

block1.0.bn2.weight f4 [8]
000000 c4 43 01 3f 36 7b 20 3f 5f 3f 8b 3c 01 db 28 3f
       0.5049403 0.62688005 0.016997991 0.65959173
000010 cf 86 c7 3c 65 75 a5 3f 70 5f 7a 3c ae 80 b5 3e
       0.024356274 1.2926451 0.015281543 0.35449737

block1.0.bn2.bias f4 [8]
000000 35 98 3a 3e c8 c6 d7 3d 01 03 17 be 94 0d 48 3f
       0.18222125 0.105359614 -0.1474724 0.7814572
000010 06 d3 1e be fe c5 9a bd 85 b7 f2 bd 7c ff 35 3f
       -0.15510187 -0.07557295 -0.1185141 0.71092963

block1.0.bn2.running_mean f4 [8]
000000 d4 2f 4d 3e 30 b9 f4 3e 5c a0 02 3e fe 72 e4 3f
       0.20037776 0.47797537 0.12756485 1.7847593
000010 81 b5 60 bc 8f 29 08 3f ef 3c e5 3e 2f a8 2c bf
       -0.013715149 0.53188413 0.4477305 -0.6744413

block1.0.bn2.running_var f4 [8]
000000 34 26 cc 3e c5 8b 2a 3f 90 c2 98 3d 6b 66 f4 3f
       0.39872897 0.6661952 0.07458985 1.9093755
000010 2c f2 e8 3d 8f 88 f2 3f 7d 56 30 3e 00 1b 14 3f
       0.113743156 1.8947924 0.17220493 0.578537

block1.0.conv3.weight f4 [16, 8, 1, 1]
000000 69 2f ed bd 3b 12 a3 3d c1 34 4f bc cf ea 02 bd
       -0.115813084 0.079624616 -0.012646855 -0.031962212
000010 2a 8f 9f 3d ac 89 e0 be cd 37 ad bd 84 72 a0 3c
       0.07790978 -0.43855035 -0.08457909 0.019585855
000020 10 c7 8f 3e df 50 4d 3e b7 e7 c5 3d 26 be c9 3e
       0.2808156 0.20050381 0.09663337 0.39402884
000030 2d ad 82 bc fb 70 06 3f 3a 8c d3 3d 5a 61 c0 be
       -0.015951717 0.52516145 0.103294805 -0.37574273
000040 0a eb 6e be bc e5 d2 bd fc c3 fd bd 95 b4 8c bd
       -0.23331848 -0.102977246 -0.12390897 -0.06870381
000050 22 31 1c 3d 48 1c 11 bf 17 21 7b 3d c0 1f 76 be
       0.038132794 -0.5668378 0.061310854 -0.24035549
000060 83 23 00 bd fe 59 43 3d 38 ec b8 bb ca f7 2d 3e
       -0.031283867 0.047693245 -0.005643394 0.16989055
000070 1f d2 f6 3c fb a8 1e 3e 37 a0 3c 3d 59 aa 72 3d
       0.03012949 0.15494148 0.04605123 0.059244487
000080 93 5c 35 3c 59 ad d6 bd dc de 29 be f3 32 a0 3e
       0.011069435 -0.10482282 -0.1658892 0.3128887
000090 bf 02 b5 bd c2 02 4c bd 81 e7 20 3c 53 af 20 3d
       -0.088384144 -0.049807318 0.00982082 0.039229702
0000a0 23 b1 ae bd 3a b1 df bc 55 40 b1 bc 9c 80 44 bc
       -0.0852988 -0.027306188 -0.021637121 -0.0119935535
0000b0 76 08 a9 3c 91 91 e3 3e eb c5 e4 bd 6a ea b2 3d
       0.020633917 0.44446996 -0.11170562 0.08736117
0000c0 29 35 78 3d da 3c a1 be 13 9e d4 3d d9 9a 8d bf
       0.060597572 -0.3149174 0.10381713 -1.1062881
0000d0 fe 7f 92 3d 4f c2 ea 3d 11 97 c7 3d 1e ec 77 be
       0.07153319 0.11462843 0.097456105 -0.24211165
0000e0 54 2a 4f be 29 d4 59 be fd d2 b0 3c 99 06 0f be
       -0.2023099 -0.21272339 0.021584982 -0.1396736
0000f0 eb 7c 8a 3d e8 6b 21 3c 4c a1 cd bd ba bf 11 be
       0.067621075 0.009852387 -0.100405306 -0.14233294
000100 a8 f5 66 3c 0b 1e 33 bd 00 8b a4 bd 1d 11 b9 3d
       0.014096655 -0.043729823 -0.08034325 0.09036467
000110 bb 54 3a 3d 22 b4 5b 3e 23 e1 d7 bd aa 99 86 3d
       0.04549096 0.21455434 -0.10540988 0.06572278
000120 0f a7 ef 3e d6 a8 4c be a7 fb e2 3d 10 b5 09 be
       0.46807143 -0.19986281 0.11083155 -0.13447976
000130 21 ab 51 bd fb ff 84 be d6 16 3a bd 38 a5 ea be
       -0.051188592 -0.25976548 -0.045431934 -0.45829177
000140 3f 52 e6 bd 13 46 4f 3f 5e 4f f6 3d a3 1e 9d be
       -0.11246156 0.809663 0.12026857 -0.30687436
000150 f4 63 f7 3d 56 25 80 be e7 8b c5 bd f4 8b 1c 3f
       0.120796114 -0.25028485 -0.09645825 0.6115105
000160 78 3c 86 be 5d ed a8 be ca e1 7a bd d1 00 33 be
       -0.2621801 -0.32993594 -0.061250485 -0.1748078
000170 a5 d5 0e bd 7a f0 0d bf 82 10 6c bb ef a4 c7 3e
       -0.034871716 -0.55445063 -0.0036020582 0.38993022
000180 f0 4c 32 bd 44 7c f0 3d d9 8c 38 bd 21 a5 4b be
       -0.043530405 0.11742452 -0.045056198 -0.1988721
000190 d9 41 f6 3a e6 ff 40 bf 32 d5 cc 3b 38 50 75 3e
       0.0018787935 -0.7539047 0.006251001 0.23956382
0001a0 c5 f7 21 3f 79 a3 56 be 0f fd e5 3d df bc ae be
       0.6326869 -0.20960797 0.11229908 -0.34128472
0001b0 03 94 ac 3d 07 60 5c bc cc 6c 86 3d b7 91 7d 3e
       0.084266685 -0.013450629 0.0656372 0.24762617
0001c0 8a 62 a7 bd be 0e 88 3e 26 67 d1 3c ea 28 f2 be
       -0.08173092 0.26573747 0.02556188 -0.4729684
0001d0 cf 77 8a 3d 44 ef 76 be 62 2d 50 3d 07 e1 90 3e
       0.06761133 -0.2411471 0.05082453 0.28296682
0001e0 45 6d 7c be ba be 82 3d b7 21 e8 bb 76 78 bb be
       -0.24651058 0.063840345 -0.0070840972 -0.36615342
0001f0 cc eb 12 3e b3 de 7c bf c6 a6 f0 3c f2 25 b4 be
       0.14347762 -0.9877731 0.029376399 -0.351852

block1.0.bn3.weight f4 [16]
000000 34 1c 49 bc fe 41 a7 3f ef 52 d5 3e e4 85 8c 3d
       -0.012274791 1.3067014 0.41664836 0.06861475
000010 64 4f 10 3d e7 61 84 bc 70 36 55 3f 7a de 2e 3d
       0.035231963 -0.016159965 0.8328619 0.04269264
000020 db 24 83 3e 61 31 b4 3e 5a 39 0a 3f 90 fa c5 3e
       0.25614056 0.35193923 0.5399376 0.38667727
000030 ce 69 45 3f 45 a5 40 3f bb ea b1 3e 10 6b 8f 3f
       0.7711457 0.7525218 0.34749398 1.1204548

block1.0.bn3.bias f4 [16]
000000 a2 e3 31 3d 7f d4 06 bf ca 50 fc bd c5 bf 30 3d
       0.04342998 -0.52667993 -0.12320097 0.043151636
000010 59 7d 57 be 25 9a e5 3c 00 dc 2c 3f e9 4f 00 be
       -0.2104391 0.028027603 0.67523193 -0.12530483
000020 34 d9 18 bf cc d6 bc 3e 61 c8 a8 3e a1 1c 93 bd
       -0.59706426 0.36882627 0.32965377 -0.07183195
000030 87 46 69 3d 82 52 b7 bd 14 05 38 3e 71 45 d7 bd
       0.056952026 -0.08951284 0.17970687 -0.10511292

block1.0.bn3.running_mean f4 [16]
000000 b6 5a 3c be e2 5f c6 3e 90 3a 0b bf 51 ec 77 3e
       -0.18393978 0.38745028 -0.54386234 0.24211241
000010 f8 f8 6c 3e ed a7 3c 3e 12 28 8b bf f9 f6 ab be
       0.23141849 0.18423434 -1.0871603 -0.33586863
000020 18 88 42 3e ad a9 e7 be e5 a3 a1 3e 19 a7 83 be
       0.18997228 -0.4524664 0.31570354 -0.25713423
000030 b9 e3 7e be 43 12 a5 3c 4c a0 59 be 0b ab 77 bf
       -0.24891557 0.02015031 -0.21252555 -0.96745366

block1.0.bn3.running_var f4 [16]
000000 da 98 6d 3e 81 5a 34 3f e1 bb c9 3e 9c db 83 3d
       0.2320284 0.704506 0.39401153 0.064383715
000010 36 b7 c5 3c 7c f8 68 3e 39 9a ea 3e 0c 15 a0 3c
       0.024135213 0.2275104 0.45820788 0.019541286
000020 a6 50 8a 3d da 4f 32 3e 39 6c 8f 3e 6d 0b 20 3f
       0.06753664 0.17413273 0.28012255 0.62517434
000030 fc 90 5d 3f d6 ad 36 3e d0 1f 89 3e d0 46 b0 3f
       0.86549354 0.1783975 0.26782084 1.377161

block1.1.conv1.weight f4 [8, 16, 1, 1]
000000 66 62 12 3e 1a d0 32 3e 37 66 1d 3b 66 c4 98 bd
       0.14295349 0.17462197 0.0024017224 -0.07459335
000010 06 16 62 3e 05 9d 6a 3e 57 3e 89 3e cf 93 0b bd
       0.22078714 0.2291146 0.26805374 -0.034076508
000020 17 22 1f 3d 45 c1 9e bd 91 6d c5 be 5b e3 6e be
       0.03885087 -0.07751707 -0.38560155 -0.23328917
000030 46 0a a8 bb 01 b9 1e be b4 59 3a 3e 41 58 9c 3d
       -0.005128178 -0.15500261 0.18198282 0.076340206
000040 7d d1 23 bf ae 5d 07 bd 6a c5 be bd 4f 46 45 3e
       -0.6399153 -0.033048324 -0.093149975 0.19265102
000050 db 58 cf bc 64 cd 17 40 8e bd 83 3e bd 7c 81 3b
       -0.025310924 2.371911 0.25730556 0.0039516375
000060 00 dc d9 3d fb 9b 5c 3e 63 b2 dd bd 35 e0 78 3d
       0.10637665 0.21543877 -0.1082504 0.060760695
000070 d4 2d 49 3d ed 4e 95 bd 9c fb fb be 61 09 ad 3d
       0.04911597 -0.072904445 -0.492154 0.084490545
000080 c4 eb e4 3d 69 85 d7 3e e5 1b 61 3e 25 2e e5 3e
       0.11177781 0.4209397 0.21983297 0.44761768
000090 80 ac f6 3d 92 fa 2f 3f 7d 4a 86 be 0c 30 85 bd
       0.120446205 0.68741715 -0.26228705 -0.06503305
0000a0 77 32 e8 3d 41 4c 1f 3e 50 9c a8 be ac 88 d3 bd
       0.113377504 0.15556432 -0.32931757 -0.103288025
0000b0 f3 b9 bf bd a8 7b 58 bd 0b 12 f7 3d 5e 1a 24 be
       -0.09361639 -0.052852303 0.12063988 -0.16025683
0000c0 66 f2 c2 bd 45 31 6e be 3e 80 e8 3e 37 c0 22 bf
       -0.0951889 -0.23260982 0.4541034 -0.63574547
0000d0 8c e3 ed bd 87 e9 cb bf 07 3c 28 be 8f 00 50 bd
       -0.11615667 -1.5930642 -0.16429149 -0.050781783
0000e0 1c f2 9f bd e4 3e 01 be 98 e4 18 3e f1 f1 e8 3d
       -0.078098506 -0.12621647 0.14930952 0.11374272
0000f0 8a 3c 25 be ee aa c9 bd a4 e5 a0 be 17 79 b4 3e
       -0.16136375 -0.098470554 -0.31425202 0.35248634
000100 1f d4 b7 3f 7f 11 ba 3d d1 27 b1 be d3 c8 1a 3e
       1.4361609 0.09085368 -0.3460069 0.15115671
000110 ac ac fb bd cb 2a 99 be 38 da a7 3e 2e 9a d8 bb
       -0.12288794 -0.2991546 0.32783675 -0.0066101765
000120 c9 4a 5a 3e f1 79 13 3d 04 09 7c be 70 0d ed 3d
       0.21317591 0.036004964 -0.24612814 0.115748286
000130 a7 9c a1 bd 07 7b eb 3d 3a 99 ac bd 6f fb fa bd
       -0.07891207 0.11498075 -0.08427663 -0.122549884
000140 e1 d6 0d bc d3 ba 32 3e 54 a1 0d 3e a4 71 d4 bd
       -0.008657188 0.1745408 0.13831073 -0.10373238
000150 9e c7 f0 3d 67 d6 1d be 73 10 81 3e 9e 35 5b 3e
       0.11756824 -0.15413819 0.25207862 0.21407172
000160 09 d4 83 3d 26 f0 44 3d ed de a0 3d a1 5a 7d be
       0.06436927 0.048080586 0.0785502 -0.24741603
000170 d0 56 c5 bd 1e 48 5c 3e bb 83 6e 3d 9e a1 ee 3d
       -0.09635699 0.21511886 0.058231097 0.1165192
000180 1b 37 8a 3d 35 22 0e 3f a2 d3 6f be 46 6f 87 3e
       0.06748792 0.55520946 -0.23420575 0.26452082
000190 75 9b 0d 3e 6e 7e 6c 3e ac 06 a5 3e 60 63 5c bc
       0.13828833 0.23095104 0.32231653 -0.013451427
0001a0 87 f7 7b 3e 2a 57 70 3d e3 4d 63 3f d8 bc 39 be
       0.24606143 0.058676876 0.8879072 -0.18138444
0001b0 5b 01 15 be 5a 07 0e 3d 49 0d 4d bd cb f3 ac bd
       -0.14551298 0.03467498 -0.050061498 -0.08444937
0001c0 d5 f0 0b c0 32 6b 99 be 69 a4 c1 bd 5c ac 83 be
       -2.1865742 -0.29964596 -0.09455187 -0.25717437
0001d0 10 fa 64 bd 48 19 ab bf ee d9 e7 3d 45 fb d2 bd
       -0.05590254 -1.336709 0.11320864 -0.10301832
0001e0 b8 a2 4f be 88 ac b1 3d 06 57 e3 bd ae f0 93 bc
       -0.20276916 0.08675486 -0.11100583 -0.018059101
0001f0 f4 f2 8e 3d 67 9e 3f bc 9a 61 27 3d c0 35 2f 3d
       0.069799334 -0.011695481 0.040864564 0.04277587

block1.1.bn1.weight f4 [8]
000000 24 d9 c6 3c 5a a3 6b 3f 77 3e 50 3f ec 04 20 3f
       0.024273463 0.9204613 0.81345314 0.6250751
000010 c1 de 02 3f fd 49 c8 3b e1 35 88 3f da 41 6f 3f
       0.51121145 0.0061123357 1.0641443 0.93459857

block1.1.bn1.bias f4 [8]
000000 84 58 d7 bd ed a9 86 3f 4b 1e d9 be ba 30 07 3f
       -0.1051493 1.0520607 -0.42405924 0.52808726
000010 77 3f 7c 3f a0 bc b8 bc 69 23 79 bf 9c d7 8d 3e
       0.9853434 -0.02255088 -0.97319657 0.2770356

block1.1.bn1.running_mean f4 [8]
000000 ca ff 76 3f b1 02 71 40 7e f6 b5 3f d2 53 8b c0
       0.96484053 3.7657893 1.4215848 -4.353982
000010 05 1e 73 40 bc dd dc 3e d2 b9 34 40 75 54 37 c1
       3.7987072 0.4313792 2.8238416 -11.458119

block1.1.bn1.running_var f4 [8]
000000 b0 70 a8 3f f0 0a 8a 41 53 59 2c 40 bf 43 f4 40
       1.315939 17.25534 2.692952 7.63327
000010 dd 27 eb 40 83 12 08 3f 58 1e 85 40 f4 9f 1a 41
       7.348616 0.53153247 4.159954 9.664051

block1.1.conv2.weight f4 [8, 8, 3, 3]
000000 47 90 18 be ef 9e ac bd bb f9 db bd d3 7d aa 3b
       -0.14898787 -0.08428752 -0.10740992 0.0052029877
000010 fc a5 0a bc 9c e2 cc bd f2 d8 03 3d d3 58 70 bd
       -0.008462425 -0.1000416 0.032189317 -0.05867846
000020 e4 61 a7 bd 17 f5 0b be 07 91 a7 be 84 25 23 3d
       -0.08172968 -0.13667713 -0.32727835 0.0398307
000030 98 2c a3 3e 3e 98 86 3d 7c ad 90 bd dc ed 4e 3c
       0.3186996 0.06572007 -0.070643395 0.012629952
000040 da a7 5b 3e d4 7e b0 3d 43 b5 c1 3e 20 e8 27 3e
       0.21450749 0.086179405 0.37833604 0.16397142
000050 3e fa cf 3d 2c 9c c6 3d 93 5e 59 be b0 db 9d bd
       0.10155152 0.09697756 -0.21227483 -0.07707918
000060 e1 ec 6d be 74 ef c5 be 16 40 86 be 78 13 fe bd
       -0.23234893 -0.3865925 -0.2622077 -0.12406057
000070 48 45 8c 3e 91 51 33 be 3c 31 1e 3e 09 5a 1a 3f
       0.27396607 -0.17511584 0.15448469 0.6029363
000080 51 56 4c bd 20 78 df bd 61 0e a3 bd 03 b1 75 3c
       -0.049887005 -0.10911584 -0.07961727 0.014995816
000090 83 69 8a bd 56 e3 b4 be 95 18 a4 3d 5e 0b 55 bc
       -0.06758406 -0.35329694 0.08012501 -0.013003198
0000a0 58 fb 44 bf dc 1b a0 3e fc 29 b6 3e ce 48 21 3e
       -0.7694602 0.31271255 0.35578907 0.15750429
0000b0 9b 1d 91 3e 7d 05 83 bd 19 ee b3 bd 1a d6 da 3b
       0.283429 -0.06397531 -0.08785648 0.006678355
0000c0 d5 69 d0 3b a4 19 6d bc 4d 9b 90 3c 50 43 c2 3a
       0.0063602724 -0.014471445 0.017652178 0.0014821086
0000d0 e5 ec b5 bd 95 8a 8c bc 79 88 34 3e f8 bc 3a 3e
       -0.08883075 -0.017155925 0.17630185 0.18236148
0000e0 81 63 8d 3d 80 f0 10 3f bf 8a 38 3f 7c 29 f9 3e
       0.069037445 0.56616974 0.7208671 0.48664463
0000f0 b2 ab 4b 3e 47 9b 7d 3e fa fc 97 bd 4f 6e 50 be
       0.19889715 0.24766265 -0.07421298 -0.2035458
000100 c8 a3 87 3f 69 ef 55 bf a5 b0 e6 3e b9 25 05 40
       1.0596857 -0.83568436 0.45056644 2.0804274
000110 8f cb 3a bc 83 64 0a bf 54 c1 91 bf b0 53 12 be
       -0.011401071 -0.5405962 -1.1387124 -0.14289737
000120 bc a2 b9 bd b6 30 a8 bd 01 93 8b 3c e0 79 88 bc
       -0.09064242 -0.08212416 0.01703787 -0.016659677
000130 64 c8 a5 bd a3 38 8a bd ff 2d 01 bc 57 0d 1b bd
       -0.08094862 -0.06749084 -0.0078845015 -0.03785452
000140 32 8e 56 bc ba 3c 5e bd d7 82 65 bd 98 78 79 bd
       -0.013095425 -0.054257132 -0.05603298 -0.060906023
000150 5b 5a a7 bc 83 93 c1 bc d6 f5 22 bd 5b ee 1b bc
       -0.020428827 -0.02362991 -0.03978523 -0.009517278
000160 0e 99 1e 3c f9 4f 1f 3c 9a 7d be bd 42 27 b7 bd
       0.009680046 0.009723657 -0.093013 -0.08943035
000170 84 1a 33 bd 9f 6f 12 bd be c6 a5 bd 74 d5 bb bd
       -0.04372646 -0.03575098 -0.08094548 -0.09171572
000180 9f 1d 3e 3d 25 d9 79 3c 4a 0c 25 3c 9b e9 3a 3d
       0.046414968 0.015249525 0.010073731 0.04563294
000190 18 36 46 bc 7b 4e d1 ba d4 79 bd 3d 88 a5 33 3d
       -0.012097858 -0.0015968824 0.092517525 0.043859035
0001a0 13 b6 13 3d 8b 1d 58 3d 9a 4d 07 3d 61 53 41 3d
       0.03606231 0.05276255 0.03303299 0.047198657
0001b0 dc b8 11 bc cb d4 e1 3b 9b 52 6f bd 54 36 df bd
       -0.008894172 0.006891822 -0.058428388 -0.10899034
0001c0 77 29 5c bd cd 26 87 bd 0e f3 85 bc 01 db a5 3d
       -0.05375048 -0.065991975 -0.01635125 0.08098412
0001d0 ed 3e 13 3e 86 b0 d4 bc ad 42 8a bd 71 a9 30 ba
       0.14379473 -0.02596308 -0.06750999 -0.0006739116
0001e0 28 6b c7 bd 0a 96 a3 bd 00 ed 80 bc 00 91 5f bd
       -0.09737235 -0.07987602 -0.01573801 -0.054581642
0001f0 20 82 a1 bd 35 a3 0c bd 8b 78 8a bd d9 f3 3a bd
       -0.078861475 -0.034335334 -0.06761273 -0.045642707
000200 20 88 2c bc 04 e8 74 bd 5c 1c e5 bd 8a f6 f1 bc
       -0.010530502 -0.05979158 -0.1118705 -0.029536504
000210 d1 92 09 bd 05 96 61 bd c9 8b 9f 3d 40 87 d4 3c
       -0.03358728 -0.05507471 0.07790334 0.025943398
000220 aa 02 b9 3d 41 77 7a 3d de 29 c1 3d fb 89 95 3d
       0.09033711 0.061148886 0.09431814 0.07301708
000230 7c 32 07 39 8e 53 59 3d 13 c9 50 3d 0e ae d1 3c
       0.0001289341 0.0530582 0.05097301 0.025595691
000240 cb 3e 10 bd cb 6b aa 3b a7 9c 09 bc 31 87 02 be
       -0.035216134 0.005200838 -0.008399165 -0.12746884
000250 b5 c9 6c bd 48 ba 43 bd 7a 9c b1 bd c9 f4 e4 bd
       -0.05780955 -0.047785074 -0.08672424 -0.111795016
000260 6c 00 2a bd 9f e8 f1 bc b4 39 40 3f 4d a6 bd 3e
       -0.04150431 -0.029529868 0.7508805 0.3704094
000270 4b 6a 87 be c1 0c f4 bf 00 6f e6 bd 22 c8 4a 3f
       -0.26448283 -1.9066392 -0.1125164 0.7921163
000280 62 0d e1 be 22 2f 7e 3e 63 f3 0c 3d b6 3f d8 3d
       -0.43955523 0.24822667 0.0344118 0.10559027
000290 5c d7 09 be 8b ea 38 be 56 f1 b4 be ce c3 cb bd
       -0.1346106 -0.18058221 -0.35340375 -0.09949456
0002a0 d7 0c ae bd 34 23 75 3d b8 04 5a 3e ad 45 bc 3d
       -0.08498543 0.059848025 0.21290863 0.09192977
0002b0 f3 89 22 be af d5 be be bb 27 e6 bc e5 3e 22 3f
       -0.15872936 -0.37272403 -0.028095117 0.6337722
0002c0 08 8b 8e be 80 95 c0 be cf 81 fc 3e 6c 46 47 3d
       -0.27840447 -0.3761406 0.49317786 0.048651144
0002d0 1d 7c bc bd a4 57 22 bf 5d 41 27 be a4 6d 98 bd
       -0.0920336 -0.6341498 -0.16333528 -0.07442787
0002e0 27 ef 20 3e 3d 8f 92 3d ca 6c a6 be 0c 35 0c 3e
       0.1571623 0.07156227 -0.32504874 0.13692111
0002f0 ab 45 93 b8 50 4e 5c 3d 8b fe 58 bb 91 b2 da ba
       -7.022483e-05 0.053785622 -0.0033110704 -0.0016685297
000300 2f 60 ed 3d b2 f6 26 bc f4 17 ad bb 9c 5b bd 3c
       0.11590611 -0.010190653 -0.0052823965 0.023114972
000310 f5 7a f8 bc 1c cf eb 3c 96 b7 2b be 50 b9 44 be
       -0.030332068 0.02878528 -0.16769251 -0.19211316
000320 ed 1c 29 be 6f 49 fe be 08 6c d0 be 04 be e6 be
       -0.1651494 -0.496654 -0.4070742 -0.45066845
000330 5c 5a 9e be 7a 22 2b bc 86 57 4f be 8e 62 b5 be
       -0.30928314 -0.010445232 -0.20248231 -0.35426754
000340 22 f6 ce 3e 86 5b ec be f5 8c 93 bd 91 14 89 3f
       0.4042216 -0.46163577 -0.0720462 1.0709401
000350 b1 dd dd 3d 06 a1 7e be d5 83 31 be b8 6b 6b be
       0.108333 -0.24866113 -0.17335446 -0.2299031
000360 b1 b9 0a bd d0 0e 69 3d 5b 14 af 3c a2 a2 3b ba
       -0.033868495 0.056898892 0.021372011 -0.0007157718
000370 79 84 fe bb b1 16 4a bd b9 f3 e4 bb 30 45 47 ba
       -0.007767257 -0.049338046 -0.006987062 -0.00076015573
000380 b2 fb a2 3d e1 63 23 3e 3f 5d 10 be ec 94 c3 be
       0.07958163 0.1595607 -0.1409807 -0.38199556
000390 fd 2a 54 3d ed 64 2d 3f a6 0d b6 be 11 ed d3 be
       0.05179881 0.67732126 -0.35557288 -0.41391805
0003a0 b5 26 1b 3d 56 ea a9 be 3f 51 72 be fb 3d 10 be
       0.03787871 -0.33186597 -0.23663805 -0.14086144
0003b0 e7 cd 7a 3d 16 ff 16 be 52 58 93 bd f2 5a 6d be
       0.06123152 -0.14745745 -0.0719458 -0.23179224
0003c0 2f 54 c6 bc cf af 3e be b6 c8 55 3c 0f 7c d7 bd
       -0.024210064 -0.18621753 0.0130483415 -0.10521709
0003d0 df 05 44 be a3 02 76 bd 27 9d 7d be 7e 1e ea be
       -0.19142865 -0.06006111 -0.2476698 -0.4572639
0003e0 bf be b6 bd 6f e0 6d bd 0c d5 83 be ce 36 26 3e
       -0.08923101 -0.058075365 -0.2574848 0.16231844
0003f0 86 62 52 3d 2b 21 df 3e ea 44 20 3f fa c0 74 3d
       0.05136349 0.43579993 0.62605155 0.05975435

block1.1.bn2.weight f4 [8]
000000 91 bf 4b 3f 25 e6 bc 3a e2 9e 3c 3f 24 ca 08 3f
       0.7958918 0.001441185 0.73679936 0.5343344
000010 01 42 0e bf c6 7c c8 3c 88 48 82 3f 9d 8a 27 3f
       -0.55569464 0.02447356 1.0178385 0.6544588

block1.1.bn2.bias f4 [8]
000000 b9 95 8c 3f f2 88 b5 bc 8a 91 8e 3f 76 b8 02 3f
       1.0983192 -0.022160027 1.1138165 0.51062715
000010 e8 95 c7 3d 21 b9 d7 bd ef cb 72 be 96 dd 6c 3f
       0.09745389 -0.105333574 -0.23710607 0.92525613

block1.1.bn2.running_mean f4 [8]
000000 44 00 92 3f 7b 26 94 bc 04 c1 f5 bf 4d bd 7b bf
       1.1406331 -0.018084755 -1.9199529 -0.98335725
000010 7e 1a 7a bf 8c d3 c8 be e5 17 05 bf 1d 9c b7 be
       -0.97696674 -0.39223897 -0.51989585 -0.35861292

block1.1.bn2.running_var f4 [8]
000000 2b 2a 27 40 5c 27 95 3e d9 80 29 40 2a 88 a5 3f
       2.6119487 0.2913159 2.6484892 1.2932179
000010 6c 5b 09 40 f9 4f 85 3f d5 30 46 40 7e 52 81 40
       2.146205 1.0415031 3.0967305 4.04132

block1.1.conv3.weight f4 [16, 8, 1, 1]
000000 55 b5 d8 be 51 73 01 bb 44 88 7b 3e 60 e6 80 bf
       -0.42325845 -0.0019752572 0.245637 -1.0070305
000010 c0 45 82 bd 23 41 85 3c 25 0b d1 3d ea 7c 89 3d
       -0.0636096 0.016266411 0.10207204 0.067132786
000020 63 94 ae 3d 5e 56 67 bc 78 0f e2 be 0f 5b d6 bd
       0.08524396 -0.014119713 -0.44152427 -0.10466587
000030 e1 64 0a 3e 3e fd 88 bd b8 fd d4 3d cb ea 87 be
       0.13515045 -0.06688927 0.103999555 -0.2654632
000040 35 fa ff be c3 be 28 3e 5c cb d6 bd 52 fe 44 3e
       -0.4999558 0.1647902 -0.104880065 0.1923764
000050 b2 7d 24 3e 74 c8 25 bd 00 d6 3b 3f 4f ec 6d 3e
       0.16063574 -0.04047437 0.73373413 0.23234676
000060 2c b5 3e 3e 9b 25 8e 3d ed b9 bf be 9a 8a fe bd
       0.18623799 0.069407664 -0.37446538 -0.1242878
000070 28 13 e1 bc 48 29 24 3d 65 2e 86 be 32 04 ce 3d
       -0.027474955 0.04007843 -0.2620727 0.10059394
000080 65 25 2a 3d bd 7a 02 3e 9e 02 34 bf f9 ea 4a 3e
       0.04153957 0.12742133 -0.70316494 0.19816197
000090 52 34 08 3e fb 07 50 bd 82 c4 0e 3c f1 b4 a6 3f
       0.13301209 -0.05078886 0.008713843 1.3023969
0000a0 67 53 40 bd 16 0c fe 3d 59 6b 00 bf 18 dd ec 3e
       -0.04695454 0.12404649 -0.501638 0.4626243
0000b0 66 3d 24 bf 33 6c 02 be 67 26 1a 3d bf d4 22 be
       -0.64156187 -0.12736587 0.03763428 -0.15901469
0000c0 52 8f 1e bf 41 32 9f bd 66 1d cc 3e 8f 4c 06 bf
       -0.6193744 -0.07773257 0.3986618 -0.5246057
0000d0 7a 3b 0a be 01 29 dc bd da ef b2 3d 94 9d e3 3e
       -0.13499251 -0.107500084 0.08737154 0.4445616
0000e0 d2 ff 43 bf cc c0 87 bb 49 e3 fe 3e a7 8f 1f 3e
       -0.76562226 -0.004142856 0.4978278 0.15582143
0000f0 d1 5e 1a be c7 fd 98 bc 27 50 ae be 97 fc 88 3e
       -0.15075232 -0.018675698 -0.34045526 0.2675521
000100 1f 61 6b 3f 88 f3 8e 3d 37 ea 50 3f bc 6c dc be
       0.9194507 0.06980044 0.81607383 -0.43051708
000110 dc 34 9e be 99 b9 bb 3d cc 0e 5b be 82 5d fc 3e
       -0.30899704 0.09166259 -0.21392363 0.4929009
000120 f4 d5 89 bd de 6c 48 3d 35 ea 28 3f 5b 13 bd 3c
       -0.067302614 0.04893195 0.6598237 0.023080518
000130 c1 e8 0d bf 62 31 8b 3d 14 d3 56 3f 33 d2 4c bf
       -0.5543328 0.067965284 0.8391583 -0.8000824
000140 20 dc 3e bf 68 2d 94 3d 62 53 49 3f 87 8c 19 3b
       -0.74554634 0.07235223 0.7864286 0.0023429708
000150 27 f9 47 be 70 ce 0e be dc 43 35 3c 49 de e0 bd
       -0.19528638 -0.13945937 0.011063542 -0.109798975
000160 00 8a 3f bf a2 28 a3 bd 85 ab 54 3e 36 2e 00 be
       -0.74819946 -0.079667345 0.20768555 -0.12517628
000170 16 c6 c6 be 38 f2 98 3d 93 72 91 3e b5 13 4b bd
       -0.38823003 0.074680746 0.28407726 -0.04957934
000180 93 41 c5 3e b1 bc a6 bb 57 0d 2c bc 42 07 80 3b
       0.38526592 -0.0050884117 -0.010501227 0.003907115
000190 02 f2 2d 3e 39 72 9a 3b 89 32 32 be 93 c2 a5 bd
       0.1698685 0.0047133234 -0.1740209 -0.08093753
0001a0 8f 37 b7 bd 31 23 63 bd 83 e5 88 3e fb 6c ba 3e
       -0.08946144 -0.055453483 0.26737604 0.3641127
0001b0 08 f9 af bb 97 37 a2 bd f3 c4 69 bf c3 1b b8 be
       -0.005370263 -0.07920759 -0.91316146 -0.3595868
0001c0 c4 ba 2c 3e 95 44 9d bd 43 0b 83 3e 0e 87 17 3e
       0.1686812 -0.076790966 0.2559453 0.14797613
0001d0 59 16 53 be 7a c2 5c 3d c0 bf c1 be 5a e7 1d bf
       -0.20613994 0.053896405 -0.37841606 -0.6168114
0001e0 b6 73 0f bf 4f 0a a2 3d 05 83 69 be b7 f2 86 3e
       -0.56035936 0.079121225 -0.22803886 0.26357052
0001f0 a9 3a 62 be 35 be 32 be 68 35 c5 3e b7 e0 09 be
       -0.2209269 -0.1745537 0.38517308 -0.13464628

block1.1.bn3.weight f4 [16]
000000 5a 01 b9 3e b6 46 ec 3e 3c 2e 1d 3e e5 19 59 be
       0.36133844 0.46147698 0.15349668 -0.21201284
000010 f6 9b bc 3f 47 07 d8 3e ea b2 94 3e 0c c5 95 3f
       1.4735096 0.42193052 0.2904275 1.1700759
000020 39 8b ea 3f 0a 66 a9 3f 7c a0 f1 3e d7 35 20 3e
       1.8323737 1.3234265 0.47192752 0.15645538
000030 b5 b1 92 3c bf 70 01 3f bf 72 24 3e 9a 0f 5a 3e
       0.017907003 0.5056266 0.16059397 0.21295014

block1.1.bn3.bias f4 [16]
000000 77 17 61 be d6 2f ab be fa 45 b8 bb f4 1d 95 be
       -0.21981607 -0.33434933 -0.005623576 -0.29124415
000010 80 ef be bc 5d 56 70 bf 3c 3c 27 bd ad a1 f0 3d
       -0.023307562 -0.9388178 -0.04082893 0.11749587
000020 1b 1f ec 3d 14 91 83 3e 14 82 12 bc 0f 60 b7 bd
       0.115293704 0.25696623 -0.008942146 -0.089538686
000030 89 20 cd bd f0 a0 be 3e ec ab 6b 3b c5 37 ad 3d
       -0.10015971 0.3723216 0.0035960628 0.08457903

block1.1.bn3.running_mean f4 [16]
000000 38 2e 2d bf 72 2f 2b bf 65 ea 0c be ef 18 88 be
       -0.6764865 -0.6686927 -0.1376129 -0.26581523
000010 b4 80 24 3f 89 05 31 bf 16 50 c5 bd 45 5d c9 bc
       0.64258885 -0.6914907 -0.09634416 -0.024580607
000020 b6 76 04 40 f7 fb 4b bd c7 58 68 bd 6c 21 3f bf
       2.0697455 -0.04980084 -0.05672529 -0.7466037
000030 ca 3d b0 3e 04 75 f3 bd f9 1b 17 be df a4 55 bf
       0.3442214 -0.11887553 -0.14756764 -0.834547

block1.1.bn3.running_var f4 [16]
000000 25 8d 60 3e 2c 2f d3 3d 20 d5 ad 3e 87 ad dc 3d
       0.21928842 0.10311732 0.33951664 0.10775285
000010 5d 85 38 3f 24 3c 0b 3e 8a 52 9f 3e 21 6a 00 3f
       0.72078496 0.1359716 0.3111766 0.5016194
000020 2e 48 8a 3f b0 a8 3d 3f e3 19 16 3f ac d6 d6 3e
       1.0803277 0.7408552 0.5863325 0.41960657
000030 df 4a da 3d 26 87 6b 3e 20 39 1c 3e d9 b6 a9 3e
       0.10658812 0.23000774 0.15256166 0.33147314

block1.2.conv1.weight f4 [8, 16, 1, 1]
000000 33 01 d6 3e af f4 23 3f 6f 17 30 3e b7 46 c1 bd
       0.4179779 0.6404523 0.17196439 -0.09437316
000010 8f f1 2c 3d 78 1e ea 3d 5c 48 e8 be d7 02 87 3c
       0.042222556 0.11431593 -0.45367706 0.016480846
000020 3c 47 3c be 16 fc e8 3d ae 07 86 be 7a 6c 94 3f
       -0.18386549 0.113762066 -0.26177734 1.1595604
000030 60 90 79 3e 5a 83 84 be 4c 2f fb 3e 53 62 41 be
       0.24371481 -0.25881463 0.49059522 -0.18885164
000040 8d 00 8e 3e 8d 9f dc 3c 7f 34 8d 3d 9f 2a d1 bd
       0.27734795 0.026931548 0.068947785 -0.102132075
000050 9b e6 e2 3c 41 52 49 be a7 8b c1 3d bd e7 0e bd
       0.027697852 -0.19660284 0.09450465 -0.03488897
000060 ec ec a1 3d 32 33 3f 3e fe 2d 80 bd cd 19 c4 bd
       0.079065174 0.18671873 -0.06258772 -0.095752336
000070 37 9e 1e 3d 9e 4e 42 3e 2e 7f 4b 3d 71 3c 92 3d
       0.038725104 0.18975303 0.049681835 0.071404345
000080 3a c0 0c be ca 66 55 3e 31 a7 c8 be f4 09 51 3e
       -0.13745204 0.20839992 -0.39190057 0.20413953
000090 0e 59 6a bc af 48 1f bd 21 78 3b bc 12 b9 58 be
       -0.014303459 -0.038887676 -0.011442215 -0.21164349
0000a0 a8 d9 6c bd 26 f8 7d bd fa 0b ae be 2f 73 c6 be
       -0.05782476 -0.06200423 -0.33993512 -0.38759753
0000b0 b0 18 50 be 24 dd 9a bd 8d b9 5b 3f 6e 81 03 3d
       -0.20321918 -0.075617105 0.85830003 0.032105856
0000c0 93 7a 62 3f 3e 2e 7e be 86 0a 71 3e 8b 54 28 3e
       0.88468283 -0.24822327 0.2353917 0.164385
0000d0 c1 c3 1d 3e 55 cc 6a bf cb 8c 9e bc 3e 30 8f 3e
       0.15406705 -0.91718036 -0.019354245 0.27966493
0000e0 02 fa 01 bf 0a a0 98 bd 8d 2d 28 3d 7f 07 2f 3e
       -0.50772107 -0.074524 0.041059066 0.17092703
0000f0 e6 52 30 3e 9d 2b 16 bc 0c 75 56 be 11 e7 0f 3d
       0.17219123 -0.009165672 -0.20943087 0.03513247
000100 7b fd 8a bb 75 69 e1 3d b5 a3 61 be 63 62 45 bd
       -0.004241643 0.110064425 -0.22035106 -0.048189532
000110 c8 d0 f4 3c 12 fd 5a 3c 55 0b 45 be ba 6f 3c bd
       0.02988471 0.013366001 -0.19242604 -0.04600499
000120 f0 6b 9e 3d 62 c4 dc bc 68 c7 45 3f 12 a8 0c 3e
       0.07735431 -0.026949111 0.77257395 0.13735989
000130 53 c6 f2 be be 13 2f be 2c db 94 be 8d 91 3d bd
       -0.47416934 -0.17097375 -0.29073465 -0.046281386
000140 b8 a3 90 bd cb d2 90 be d7 2e 50 be c1 de 27 bd
       -0.07062477 -0.28285822 -0.20330368 -0.04098392
000150 6b d8 37 bf 95 c9 28 3e 7d 45 13 3f d8 41 6a 3e
       -0.718146 0.16483147 0.57527906 0.2287668
000160 6b 53 10 be e9 0f 07 be 31 7d e7 be 0d b1 6a 3d
       -0.14094321 -0.13189663 -0.452127 0.057297755
000170 d7 8f 9e be 24 33 22 3f 00 cf 25 bf bc 18 69 3e
       -0.30969116 0.63359284 -0.6476898 0.22763342
000180 da bc 02 bf d5 cc 14 3e 0b a9 70 be 90 b2 af 3e
       -0.51069415 0.14531262 -0.23501985 0.3431592
000190 c7 4d a7 3e 5c 12 46 3e 29 d7 c1 3e bc ee 25 3d
       0.32676527 0.19342941 0.37859467 0.040510878
0001a0 38 3a 71 bd ee f0 89 be 06 f4 0a 3e 46 85 52 be
       -0.058893412 -0.26941627 0.1356965 -0.20558652
0001b0 7d cb 21 bc 82 61 a6 bc cc c6 2a 3e 78 e1 8a be
       -0.009875176 -0.020310167 0.16677397 -0.27125144
0001c0 ca 34 2d bf ad 50 0a bf 5f 17 a2 bc dc 5f 89 3d
       -0.67658675 -0.5402935 -0.019786535 0.06707737
0001d0 8d 5c 9d be 09 85 44 3e 8c 99 00 bf 81 f7 3c bc
       -0.30734673 0.19191374 -0.50234294 -0.011533619
0001e0 75 b2 e4 3e 38 ec 77 be 30 df c0 be 57 82 fe 3e
       0.44667402 -0.24211204 -0.3767028 0.49708816
0001f0 46 56 58 3e 55 ad 0b be ec 40 3b bf 28 20 12 bc
       0.2112666 -0.1364034 -0.7314594 -0.008918799

block1.2.bn1.weight f4 [8]
000000 c3 95 5b 3f 24 1d f2 3e 29 10 2a 3f 31 8c 42 3f
       0.85775393 0.47287858 0.6643091 0.75995165
000010 43 10 12 3f 13 f0 27 3f 90 9a 20 3f 4b 0e 43 3f
       0.57056063 0.656007 0.62735844 0.76193684

block1.2.bn1.bias f4 [8]
000000 fa 43 08 3e 23 3c 2d be b9 96 67 3d 93 11 f5 3e
       0.13307181 -0.16917472 0.056540225 0.4786497
000010 44 ab 6e be ef 7d c3 3e 15 0c b1 be dd f1 a4 3e
       -0.2330752 0.38182017 -0.3457953 0.32215777

block1.2.bn1.running_mean f4 [8]
000000 9f ac 61 40 f7 4d a3 3f 4b 44 c0 bf c3 24 f5 3f
       3.526161 1.2758168 -1.5020841 1.9151844
000010 c8 b5 37 bf 1c 22 b1 bf b9 4f 91 bf 3c 5b 8f c0
       -0.7176175 -1.3838534 -1.1352454 -4.479887

block1.2.bn1.running_var f4 [8]
000000 b1 e4 19 41 4a cd 06 3f 14 5c 9b 40 d0 c5 ba 40
       9.618333 0.52656996 4.85499 5.836647
000010 6d 2f 3c 40 6b 23 d0 40 3a ec f4 3f 94 d8 c1 40
       2.9403946 6.5043235 1.9134591 6.0576878

block1.2.conv2.weight f4 [8, 8, 3, 3]
000000 26 1d c7 3a 56 4d dc bd 76 4b cd bd 4c 7e b9 be
       0.0015191182 -0.10756938 -0.10024159 -0.3622917
000010 c9 fc 24 be b7 3c 47 be c8 1f a0 3d a4 bd 00 be
       -0.16112055 -0.19456755 0.07818562 -0.12572342
000020 b7 0d 4b be 62 ca 1d 3e 1d 80 e5 3d c4 25 0e bd
       -0.1982945 0.15409234 0.11206076 -0.034703985
000030 52 86 3a 3e b7 e7 ac bd be b7 1e be 76 11 36 3e
       0.18215302 -0.084426336 -0.1549978 0.17780098
000040 f1 03 65 3d 54 1c 0c 3b 8f 25 06 bd 92 4e 58 3d
       0.055911962 0.002137919 -0.032750662 0.052809305
000050 71 87 d9 bc b2 6a 28 bd 11 19 5b 3e 63 99 bc bd
       -0.026553841 -0.041117378 0.21396281 -0.09208944
000060 3d dc f0 bd e2 fd 9a bd 08 01 4d bd af c1 41 be
       -0.11760757 -0.075679556 -0.05004981 -0.1892154
000070 59 18 fd 3d aa fc 88 3e 54 4d 1a bd 8b 23 34 bf
       0.123581596 0.26755267 -0.037671402 -0.70366734
000080 b0 4e 60 be 47 16 28 3f 5b 2b e1 3d 2c 21 fd bd
       -0.21905017 0.6565899 0.109945975 -0.12359843
000090 ae 6b 87 3e bd 57 9e 3e 48 08 3b bd 3a ef 51 bd
       0.2644934 0.30926314 -0.045662194 -0.051253535
0000a0 a1 9b 7e 3e 48 e7 13 3e 29 2b 23 bd d4 b7 03 be
       0.24864055 0.14443696 -0.039836083 -0.12863094
0000b0 c9 a2 b2 bc 46 d9 50 bd 60 8b 0b be f4 1f 36 be
       -0.021806138 -0.050988458 -0.13627386 -0.17785627
0000c0 be a7 19 3f 25 e6 06 3e 6d 28 c5 be 98 97 b1 bc
       0.6002158 0.1317373 -0.38507405 -0.02167873
0000d0 8d 4a dd bb d9 d8 e4 3d 87 4b 39 bd 4a af 58 bd
       -0.006753272 0.11174173 -0.045238044 -0.052901544
0000e0 d6 40 8d be 99 7b 0e 3e 6f 71 d7 3d a5 0b 8c bd
       -0.27588528 0.13914336 0.105196826 -0.068381585
0000f0 5f ed 2d be db e4 cf bc 97 27 43 be 62 3c 19 3e
       -0.16985081 -0.025377681 -0.19058071 0.1496444
000100 00 0f dd bd c1 39 36 be 3c 61 5f be 50 48 5b 3f
       -0.10793877 -0.17795469 -0.21814436 0.85657215
000110 05 35 21 bd 9e 9b bb be 3e 0e 9a be d9 36 05 ba
       -0.039357204 -0.36642164 -0.3008899 -0.00050817203
000120 e6 3c c0 be b4 16 53 3f 99 a1 d4 bd 90 b3 eb bd
       -0.37546462 0.8245652 -0.10382385 -0.11508858
000130 17 20 35 3f 3e 30 20 3e 17 be ae be 1f 66 f8 be
       0.7075209 0.15643403 -0.34129402 -0.48515412
000140 a4 c1 c7 be 8a 49 ad bd 89 fc 11 bd 0e b0 e6 bc
       -0.39014924 -0.08461292 -0.035641227 -0.028160121
000150 58 96 d6 3d 81 5a c3 3b 71 4a ee 3c c0 63 3f 3c
       0.104778945 0.0059617166 0.02908823 0.011681497
000160 a8 16 0e be df 0e 1b bd ed 0b 29 3d 3d 82 44 3e
       -0.1387583 -0.03785598 0.04127114 0.19190307
000170 8f df 39 be a7 99 01 3f 1d 80 0a 3f e4 71 54 3d
       -0.18151687 0.5062508 0.54101735 0.051866427
000180 3d 21 89 3e b5 b5 96 3d c0 9d 85 bd f4 a2 7f bd
       0.2678317 0.073588766 -0.06524229 -0.062411264
000190 f0 b4 3f bd e6 ba b4 3c 27 61 77 bd 60 7e e7 bd
       -0.046803415 0.022061776 -0.060395386 -0.11303401
0001a0 9f 6f a8 3d 4e fb f1 3c 91 a5 be be f0 99 74 bd
       0.08224415 0.029538777 -0.37235692 -0.05971712
0001b0 4a 1f 1a be b2 94 53 3e be 2c b9 be 51 af 70 3d
       -0.15050998 0.20662192 -0.36166948 0.058760945
0001c0 c0 f9 26 3d ed 54 29 be b6 3c 82 3d 5b 2b b4 3d
       0.040765524 -0.16536303 0.06359236 0.08797332
0001d0 82 ec 19 3e f8 c7 a4 3d 18 65 85 be 1b 8d 7c be
       0.15031627 0.080459535 -0.2605369 -0.24663202
0001e0 e2 24 6b 3d c2 1d 24 be d4 58 8c bd 8e 6c 8b 3e
       0.05740822 -0.16026977 -0.0685288 0.27231258
0001f0 d8 3e 70 3e b8 f6 c5 bb 7d 69 4c be 77 74 24 be
       0.23461473 -0.006041374 -0.19962116 -0.16060053
000200 b3 03 a4 bd 69 4e 02 be 27 07 91 bd 54 ed fe 3d
       -0.08008518 -0.12725224 -0.07081442 0.124476105
000210 fc e5 c4 bd 85 a6 e8 3c 32 9a d0 bd f4 3c 61 3e
       -0.096141785 0.028399715 -0.101856604 0.21995908
000220 31 8d 24 bd 61 39 36 be 0e 8c cf bd d2 24 06 3e
       -0.040173713 -0.17795326 -0.10134135 0.13099983
000230 de f1 de bc 35 ec 1f bd 37 7a 3f be 4c fe ef bd
       -0.02721494 -0.039043624 -0.18698965 -0.11718425
000240 77 22 2f bd d1 3a 00 3e d1 47 40 bd 6c b1 49 3e
       -0.042757478 0.12522437 -0.04694349 0.19696587
000250 e2 bc 89 3f ad 92 de 3e a0 40 57 be 87 65 6b 3e
       1.0760767 0.4347128 -0.21020746 0.22987948
000260 b8 2d 88 be f1 45 6c bc 80 e3 23 3d 7a d5 0a bc
       -0.2659738 -0.014420972 0.040011883 -0.008473748
000270 a4 7c be 3d 62 95 15 3d 07 d0 dc bc 57 b8 e9 3d
       0.09301117 0.036519416 -0.026954664 0.11412113
000280 96 3d 2d 3b 1f 8f 57 bd 45 5e 15 be b0 2c f9 bc
       0.0026434413 -0.052626725 -0.14586742 -0.030416816
000290 b7 5a 52 be 7d 81 8d be 16 3a 00 be 89 88 5e be
       -0.20542417 -0.27637854 -0.12522158 -0.21731772
0002a0 aa b5 24 bd 48 1e 43 3e 4c de 9a bd a0 f2 3c be
       -0.04021231 0.1905452 -0.07561931 -0.18451929
0002b0 98 92 ec 3d 83 38 d4 bd 35 40 ba 3d fb f4 e5 3e
       0.11551398 -0.10362341 0.09094278 0.44913468
0002c0 72 3e a5 bd 38 6c 77 be d1 af 90 bd 62 28 90 be
       -0.08068551 -0.24162376 -0.07064784 -0.2815581
0002d0 9b 4b 11 3e c2 20 4a 3d 18 c1 6e be 68 f7 a4 bc
       0.14188997 0.049347647 -0.23315847 -0.020137504
0002e0 61 21 02 3e 8d 8b 89 3d a6 05 88 be 3a d6 be bd
       0.12708046 0.0671607 -0.2656681 -0.09318204
0002f0 30 01 d0 3d c1 4c be 3d 08 6f 19 3e 38 51 ff bc
       0.101564765 0.092919834 0.14983761 -0.031166658
000300 d8 b3 d1 3d 2e 39 3e be ca d9 8c be aa bc a5 3e
       0.102393806 -0.185765 -0.2750991 0.32370502
000310 fb 30 60 3e 9a f9 01 3e ae 5e fc bc ff 0d bf bc
       0.21893685 0.12692872 -0.030806866 -0.023322104
000320 b1 fe 23 3e c3 8a 02 be 77 b2 31 bd 10 47 9b bd
       0.16015126 -0.12748246 -0.043383088 -0.075819135
000330 9f 76 8a bc 7a 94 6f 3d d2 4e ba 3d a5 bf c5 3d
       -0.016902266 0.058491208 0.09097065 0.09655694
000340 c5 50 29 bd ec 88 7b be 75 f0 8d 3d ab 9f fe 3e
       -0.041336793 -0.2456395 0.06930629 0.49731192
000350 78 62 35 be b4 d8 94 bd 2e 2d b2 3e db fd 40 be
       -0.17713344 -0.07267895 0.34800094 -0.18846838
000360 cf 3a b9 bd ac 89 df 3e 74 f0 59 bd 49 1c 1c be
       -0.0904442 0.43659723 -0.05320783 -0.15245165
000370 b3 25 52 bd 31 bb a3 bd 25 11 f8 3e 00 8c c4 3e
       -0.051305484 -0.07994688 0.4845058 0.38388062
000380 04 7e 43 3e 5d 3c b1 bc f9 15 8b ba 4d f6 13 be
       0.1909104 -0.021635229 -0.0010611407 -0.14449425
000390 e8 76 29 be 53 0e 6e bd ff 5d 28 be 7b fa 18 bd
       -0.16549265 -0.05811913 -0.16442107 -0.03734825
0003a0 4e aa f4 bd 7c de 46 bd 5f 29 bf bd 80 37 9b bd
       -0.119465455 -0.04855202 -0.09334063 -0.07578945
0003b0 d4 db d3 bd d7 47 5f 3e 23 e9 57 3e c8 2d dc 3c
       -0.10344663 0.21804748 0.21085028 0.026877299
0003c0 2e d9 9f be 87 59 26 3d 4d 2f 64 bd 19 e2 70 bd
       -0.31220382 0.040612724 -0.055709172 -0.058809374
0003d0 82 35 38 bd ec 2c e6 3c 3e 32 03 bf c1 09 37 bf
       -0.044972904 0.028097592 -0.5124854 -0.7149926
0003e0 da 64 81 be fa 20 a3 bd 7e be 85 be a1 38 99 be
       -0.25272256 -0.07965274 -0.26121897 -0.29926017
0003f0 1e 79 0c 3e fb 85 cb 3e c6 0a 8a 3e 52 58 e1 bd
       0.13718078 0.39750656 0.26961344 -0.11003174

block1.2.bn2.weight f4 [8]
000000 41 9d 05 3f 48 2a 84 3f 0c 8c 93 3f 56 d9 e7 3e
       0.52193075 1.0325403 1.1527114 0.45283002
000010 ca 06 2d 3f 37 df 09 3f 8b ec 3e 3f 35 65 56 3f
       0.67588484 0.53856224 0.74579686 0.8374818

block1.2.bn2.bias f4 [8]
000000 e2 61 15 3d 90 a8 99 be 5e c6 8d bf 48 8b 72 3e
       0.0364703 -0.30011415 -1.1076162 0.23685944
000010 bb 1a 16 3d 89 5d e2 3b f3 0e 3d be f9 ae 13 bf
       0.036646586 0.006908123 -0.18462734 -0.5768886

block1.2.bn2.running_mean f4 [8]
000000 0f 82 f7 be c7 29 88 be 8d 3a 13 3f c8 0f d0 bf
       -0.48341414 -0.26594374 0.57511216 -1.6254816
000010 ce ad 02 40 f4 2e e0 3e cf bc a7 be de a7 df be
       2.0418582 0.43785822 -0.32761237 -0.4368276

block1.2.bn2.running_var f4 [8]
000000 aa b9 25 3f 3f 60 c2 3f b8 f6 d1 3f 73 63 9f 3f
       0.64736426 1.5185622 1.6403418 1.2452224
000010 ca 54 e0 3f 02 9e 59 3f 10 2a 9f 3f 86 c9 38 3f
       1.7525876 0.85006726 1.2434711 0.721825
