assignment1/results/trial_2/resBottleneck/ckpts/23000.pt (torch, 562434 bytes, 242 tensors)

block1.0.conv1.weight f4 [8, 16, 1, 1]
00000000: e1e1 923c b08d 1abd 09dd 273d db86 d9bd
00000010: 9325 e63d e73e dc3d 1ff8 b2bd 6aeb 193c
00000020: cd7d 953e 9974 883d 32a6 a13d 3b5f 453e
00000030: c617 233e 7a8c c43e ce27 b7be dcda 8d3f
00000040: ca14 3bbe 264b 23be daf2 92bd 396d 3bbe
00000050: 3ad8 87bd 386c e73c 4c27 9bbe 0f16 24bc
00000060: 2084 b7be b6f1 203e 2a12 f9be 52d1 9bbe
00000070: b13f cfbe 8299 e0bc 98ef 6f3e 0917 efbe
00000080: 2be5 d6be 3509 81bd 65b9 4c3e 71ac 04bf
00000090: 0f89 8dbc c95e a73d ccde 173f 9fad 8b3c
000000a0: c4c6 c83d 2212 d53d fb26 e1bf 77f4 573e
000000b0: eb07 663e 45f4 aabe a92e bbbe 34c3 33be
000000c0: 644a 393d a46f bcbe 6e24 97be b673 47be
000000d0: 0d69 7a3e 04a5 44bb 44c7 1ebe b11d 583e
000000e0: ed17 a2be ec5e a13d 162a 18bd 4d3e 2fbf
000000f0: d27a 26bf 53ff c1bd 125c 913e 100e 28bf
00000100: 0c54 29bd d808 3cbf acc7 3fbe 84d8 00be
00000110: 74b9 bfbd 2691 21be ca83 3cbe 557a 0cbe
00000120: 55ed acbe c996 51bd 1cdc 7a3d b33f 883d
00000130: 6b53 b13c 8573 21be 6d0d 70be e683 17bd
00000140: 909f 873d d2db 5b3e 2de0 05bf b342 eebe
00000150: 06b5 bcbd 6ea1 6b3c aa6a 3e3e 1a47 a03d
00000160: 6821 d03d 490f d53d acb0 62bf d84b 14bf
00000170: 8464 2f3d 9782 1f3c ffea b7be 84b0 453e
00000180: 6723 11be 7431 473f 0def d93e da89 95bd
00000190: aa95 4c3e db6b 21be 030e 0ebf b21e ac3d
000001a0: 0ec4 093f 3b3c f1bd eb93 733e e6a9 84be
000001b0: dfd2 82bb a29a f13e cffd 143f 2ec1 173e
000001c0: e280 e7bd eca9 493f cefb f7bd 3be3 7ebe
000001d0: c3b3 1ebe 4fd7 08bd ab08 9fbe 888b 36bd
000001e0: 41ce 093f b3f1 563c c993 bebd 20ae 93bd
000001f0: e380 373e 5ac8 983d a024 0bbf f4d1 8d3e
0.017929973 -0.03773278 0.04098228 -0.10621425 0.112376355 0.10754185 -0.087387316 0.009394506
0.2919754 0.06662864 0.07893027 0.19274609 0.15927038 0.38388425 -0.35772556 1.1082416
-0.18269649 -0.15946636 -0.071752265 -0.18303384 -0.06633039 0.028249845 -0.3030342 -0.010015025
-0.3584299 0.15717205 -0.4864667 -0.30433136 -0.4047828 -0.027416948 0.23431242 -0.46697262
-0.41971716 -0.06300584 0.19992597 -0.51825625 -0.017277269 0.08172376 0.59324336 0.017050562
0.098035365 0.10403849 -1.7590021 0.2108935 0.22463958 -0.33389488 -0.36559036 -0.17554933
0.04523696 -0.36803925 -0.2951998 -0.19477734 0.24454136 -0.0030005584 -0.15505701 0.21105076
-0.3165888 0.07879433 -0.03714951 -0.6845444 -0.6503116 -0.09472527 0.28390557 -0.6564646
-0.04133992 -0.73450994 -0.18728513 -0.12582594 -0.09361544 -0.15778026 -0.18409649 -0.13718541
-0.3377482 -0.05116919 0.06124507 0.06652775 0.021646222 -0.15766723 -0.23442622 -0.036991023
0.06622231 0.21470574 -0.5229519 -0.46535262 -0.09214215 0.01438175 0.18595377 0.078260615
0.10162622 0.10403306 -0.8855083 -0.5792823 0.04282047 0.009735725 -0.35921475 0.19305617
-0.14173661 0.77809834 0.42565194 -0.07301684 0.19978967 -0.157638 -0.5549013 0.08404292
0.5381478 -0.11779066 0.23786895 -0.25910872 -0.003992423 0.47188288 0.5819978 0.14819786
-0.11303879 0.78774905 -0.12108575 -0.24891369 -0.15498261 -0.03340846 -0.310613 -0.04456666
0.53830343 0.013119149 -0.093055315 -0.07210946 0.1792026 0.07460089 -0.5435276 0.27699244

block1.0.bn1.weight f4 [8]
00000000: 1b53 3f3f 063e 4c3f 9c62 893f f611 313f
00000010: 0198 89be 5707 783f 2cc9 503f da2c 1c3f
0.74736184 0.7978214 1.0733218 0.6916803 -0.26873782 0.968862 0.81556964 0.6100594

block1.0.bn1.bias f4 [8]
00000000: e4fd 95be 8249 8dbe 43d6 b03e 7cf2 983e
00000010: a3ee 153f f500 c6be 7356 0ebf cd05 fe3d
-0.29295266 -0.27595145 0.3453847 0.298725 0.58567256 -0.38672605 -0.5560066 0.1240345

block1.0.bn1.running_mean f4 [8]
00000000: 6a0b 3840 b201 90c0 f8d7 5ac0 c618 9ec0
00000010: 4d6b febf 24f8 58c0 9eb5 223f cd72 8abf
2.8756967 -4.500207 -3.4194317 -4.940524 -1.9876496 -3.3901453 0.63558376 -1.0816284

block1.0.bn1.running_var f4 [8]
00000000: b3af c940 2c8a 8940 aa74 3a41 f4e1 1441
00000010: 7c42 b53f 6f04 c540 3a57 0141 53b4 4340
6.3026977 4.2981167 11.653482 9.305164 1.4160914 6.156791 8.083796 3.057881

block1.0.conv2.weight f4 [8, 8, 3, 3]
00000000: 098f 9ebc 2eeb 023e ebfd 82bb 1530 723d
00000010: 8ece e1bd 5e6f 75be 029f 5d3e 51f9 bebb
00000020: fb68 283e 22d2 febc 8891 b43d ae04 cdbd
00000030: 9931 5e3e 40ec 093f 0f40 82bd c077 25be
00000040: a8d4 95bd 725b 643d cca4 2e3d 6d49 19be
00000050: 6795 6fbe a6e7 253d 2de0 6ebc f445 d1be
00000060: c8f3 823d e91a 31bd 7559 fa3d a3d6 85bd
00000070: 1547 8abd ccd2 61be 403d ea3e 8b5b 853f
00000080: bb19 b53e f802 90be b98f 863d c9ae 81be
00000090: b573 47be db56 0e3e 7710 d53d 9ec5 803a
000000a0: 2a12 acbc 8e61 863c 9700 a9be 69ad 69be
000000b0: 0112 78bc 6dff e1bc 5074 89be 97cd 263d
000000c0: b690 ea3c 2566 853e 3317 493e 05fa dcbd
000000d0: 52f1 5f3e 60f5 d53c c55f e1bd e557 e93d
000000e0: e5f9 aebc 22e7 dd3b 333f 263e 7355 eb3b
000000f0: ca9a e23d 3c12 bb3e d66e 293e 5bfa 803d
00000100: 8707 d33c accc b13e ff57 afbe 60d5 71be
00000110: ec38 363c 0475 22be 5137 d8bd 7425 8c3d
00000120: c3ec 21be 3dd6 db3d 0a3b b33e d13d 1fbc
00000130: 861a 91bd 5756 f6bc 4ab3 823e d0a4 a2bd
00000140: 1c50 41be 2314 b63d d7de a13e 4470 613d
00000150: d2d8 1dbe d6c8 01bf 444f 07be 5ff0 c33b
00000160: dede 24bd 2799 003e 56b1 91bc 31e6 ac3e
00000170: b90a 11bc d3e1 b2be 54d7 88bf 2227 82be
00000180: 6776 373e 815f 1d3f 77fd 3a3e 8624 41be
00000190: 9d31 193e 7ece 86bd 912d 6a3e 6ca3 42be
000001a0: 3038 363e d383 353e 89d1 923e 008d 983d
000001b0: 5c92 e1bd d83f dc3d 78b0 b5bd 5ab0 0cbe
000001c0: 8ee5 483e ddc3 76bd b5c1 9f3d 034a a8bb
000001d0: 072e 5a3d 203c 4e3e 00ec 623e 3011 8dbd
000001e0: 262f 08bf 9a08 86be 2104 253e 2fe7 873e
000001f0: f53b ab3d aad0 6e3d ad47 4dbd 243f 6e3e
00000200: 0d84 d63c 3d32 1e3c 75b6 2b3e b25c 823d
00000210: e8fc 4a3e 96c5 733b abf7 bbbd 22a2 10bd
00000220: bded 09bd 70d8 c1be 00d2 d93d c942 0f3f
00000230: 7132 c53d 6051 b83e 6d3e 02be 3513 fabd
00000240: 8cd1 e63d d4d3 b13d be31 0f3e de1f 173d
00000250: 2468 2d3d 659b 69bd 9bd5 a33b 9d92 073d
00000260: fd5b 18bd af02 c03d 1203 7e3d eab4 ae3d
00000270: deec 1e3d 78a7 eb3c 4054 37b9 2071 323a
00000280: 71cf 02bd a265 94bc 1d0c 3b3d 2811 3abd
00000290: 2dad b6bd c233 9b3c fe49 acbd 1b55 50bd
000002a0: 51c0 84bd 2e88 273d 3541 3fbc a403 143d
000002b0: 79c9 df3c 1d1b 51bd c21c 5e3d 0990 f63d
000002c0: c4cc eb3c 8e34 d73d cc69 4a3e 5f2e 963c
000002d0: 5260 aebd 4df0 83bd 5f3f 5cbd 7d79 ab3c
000002e0: b8c4 1ebc 5bda bbbd 1c31 cabc b847 1c3d
000002f0: 8f49 8cbd 5bb5 df3d 37a9 033d 56fa e43c
00000300: 7d98 af3d c7eb e73c 46b7 763c 01ba ab3d
00000310: 6dba 493d 9c30 62bc d464 cc3a f24f 913c
00000320: 6600 243d 206c 123a 6a23 b83d 516a 103e
00000330: 1344 1e3d 442c 95bd 9520 57bb 32b6 863d
00000340: 9e2d 88bd d11a a2bd 5aab df3d 1283 4f3c
00000350: 748a 0fbd bc46 6f3d 8865 c9b9 326f e2bd
00000360: 3a5a 253e 9d14 c03c a80e 92be 9529 1d3e
00000370: 9ebf a63e 6f6a 8bbd 54b1 353d d504 c33a
00000380: 75e1 50bc 7dc3 073e bfbe 953e 6791 edbd
00000390: e85e a33d a4be 053e cc6f 63be a719 053d
000003a0: 2d79 01be a8b7 2bbd e118 1dbe 5df8 433f
000003b0: 3123 083f dc77 1bbe cced 6abe fc1a 413e
000003c0: 8647 14be a2f4 623e a44c 7c3e eb1c 203e
000003d0: 890a ca3e 80cd 773e 83a4 693d 5f58 0dbf
000003e0: 5ab5 52be fb7e d43d 872d e3be c737 a4ba
000003f0: 71ed 3f3d 18ae 93bd 90dc 3bbe 9037 a6bc
-0.019355314 0.12785026 -0.0039975545 0.059127886 -0.11025725 -0.23968264 0.21642688 -0.0058280607
0.16446297 -0.031106059 0.088168204 -0.10010658 0.21698608 0.53876114 -0.063598745 -0.16158962
-0.073159516 0.05575127 0.04263763 -0.14969416 -0.23396836 0.04050412 -0.014579815 -0.40873682
0.06394154 -0.043238554 0.12224094 -0.06535079 -0.06751839 -0.22053069 0.45749855 1.0418562
0.35371193 -0.28127265 0.06570382 -0.25328663 -0.19477732 0.1390032 0.10403531 0.000982452
-0.021004755 0.01640394 -0.33008263 -0.22820057 -0.015141011 -0.027587617 -0.26846552 0.04072341
0.028633457 0.26054493 0.19637756 -0.10789875 0.218694 0.02611798 -0.11004595 0.11393718
-0.021359393 0.006771938 0.16235046 0.007181817 0.1106468 0.3653735 0.16546187 0.062977515
0.025760425 0.34726465 -0.34246823 -0.23616552 0.01112197 -0.1586495 -0.10557426 0.06843081
-0.15812974 0.10734222 0.3500598 -0.009719328 -0.07085137 -0.030070467 0.25527412 -0.07941592
-0.18878216 0.088905595 0.31615326 0.055038705 -0.15414742 -0.50697076 -0.13213831 0.005979582
-0.040251605 0.12558423 -0.017784756 0.33769372 -0.008852654 -0.34937915 -1.0690713 -0.2542048
0.1791626 0.6147385 0.18260752 -0.18861589 0.14960332 -0.06582354 0.22868945 -0.19007653
0.17794871 0.17726068 0.28675488 0.074487686 -0.11014244 0.10754365 -0.08871549 -0.13739148
0.19618818 -0.060245384 0.078006186 -0.005135776 0.05326655 0.20140123 0.2216034 -0.06888044
-0.5319694 -0.26178437 0.16114856 0.26543567 0.08361045 0.058304466 -0.050117183 0.23266274
0.026186014 0.009655532 0.1676882 0.063653365 0.19823039 0.0037196628 -0.09178098 -0.035310872
-0.03367399 -0.3786044 0.106357574 0.5596128 0.096287616 0.35999584 -0.12719126 -0.12210695
0.11270437 0.08682981 0.13983819 0.036895625 0.042335644 -0.05703296 0.004999829 0.033098806
-0.0371971 0.09375512 0.062014647 0.085306 0.038800113 0.028766379 -0.00017483626 0.0006807018
-0.031936113 -0.018114869 0.04566585 -0.045426518 -0.089197494 0.018945578 -0.084125504 -0.050862413
-0.06481994 0.040901355 -0.011673261 0.036136284 0.02731775 -0.051051248 0.054226644 0.12039191
0.028784163 0.10508071 0.19766921 0.018332658 -0.085144654 -0.06442318 -0.053771373 0.020931954
-0.009690456 -0.091725074 -0.02468162 0.038154334 -0.06849968 0.10923263 0.032143798 0.0279514
0.08574007 0.02831067 0.015058344 0.08385087 0.049250055 -0.013805535 0.0015594014 0.017738316
0.040039442 0.000558557 0.0899113 0.14103056 0.03863914 -0.072838336 -0.0032825817 0.0657772
-0.06649326 -0.07915271 0.109213546 0.012665527 -0.03504415 0.058417067 -0.00038413354 -0.11056365
0.161477 0.02344733 -0.28526807 0.15347894 0.32568067 -0.0680741 0.044358566 0.0014878759
-0.012749066 0.13258167 0.2924709 -0.11599999 0.07977086 0.13061005 -0.22210616 0.032495167
-0.12643881 -0.041923195 -0.15341522 0.7655085 0.531787 -0.15182441 -0.22942275 0.1885795
-0.14480409 0.22163633 0.24638611 0.15636031 0.39461163 0.24199486 0.057041656 -0.5521297
-0.20576993 0.10375782 -0.44370672 -0.001252883 0.0468573 -0.0721094 -0.18345857 -0.020290166

block1.0.bn2.weight f4 [8]
00000000: d752 fd3e 77e7 373f 1afb 7b3c 55b4 233f
00000010: fdff be3c 1417 9a3f 3089 623c 1cf5 ee3e
0.49477264 0.7183756 0.0153796915 0.6394704 0.023315424 1.2038293 0.013826653 0.4667138

block1.0.bn2.bias f4 [8]
00000000: 438e 713e c4c4 2fbb 76a2 08be 20e8 2d3f
00000010: f67e 0fbe 563b 88bd dd9b dbbd 86fd 253f
0.23589425 -0.0026820162 -0.13343224 0.6793232 -0.14013276 -0.066519424 -0.10723088 0.6483997

block1.0.bn2.running_mean f4 [8]
00000000: 7536 96bc f849 8a3e 2257 a63d da32 d93f
00000010: 8389 b23c 3f40 5c3f e943 9f3e 4cb0 6fbf
-0.018336514 0.2700956 0.08122088 1.6968644 0.021794086 0.8603553 0.311065 -0.9362838

block1.0.bn2.running_var f4 [8]
00000000: 21ac cc3e 193f 153f 458b 6b3d 7d25 bc3f
00000010: 0fbd a43d 427a d53f 8c2a ef3d c540 203f
0.39975074 0.58299404 0.057505865 1.469894 0.080438726 1.6677935 0.11678037 0.6259883

block1.0.conv3.weight f4 [16, 8, 1, 1]
00000000: c9ce a1bd 46f0 533c 9d7a 3bbc 6d2b f2bc
00000010: 155e 903d 872a d5be 05ba 9cbd 9960 e83c
00000020: 9ff3 a63e 57f3 8c3e 4510 b33d a70c bb3e
00000030: 047b 6cbc 148a f23e 3e68 bf3d 38ba a0be
00000040: 4588 77be 5a57 3bbe 0a9b e5bd 25a4 c3bc
00000050: bf50 0d3d 4a86 13bf 6a38 633d 7827 72be
00000060: 4abe 98bd 35a6 203d 2651 a7bb dfb5 4b3e
00000070: 2b50 df3c 28c8 2e3e eaaa 2a3d 5fe2 283c
00000080: 2458 243c 153c c2bd adb2 19be 7df1 903e
00000090: 0fc7 a3bd 97c5 38bd da95 113c bc64 113d
000000a0: bf28 a3bc 463e d5bd 3f60 a0bc 7427 7b3c
000000b0: bdf0 983c 5720 d93e 1ffe cebd e2d9 60bc
000000c0: 82f7 723d 2be2 a0be 0260 c03d 2001 85bf
000000d0: 9f8d 843d f44f 7e3d 8896 b43d a409 bdbe
000000e0: 2971 3bbe 1a17 45be 4dfd 9f3c ae68 01be
000000f0: 2e9b 7a3d a30d 123c 880d babd 71df 03be
00000100: c6f3 873d 6a26 b8bd a9e0 94bd 5f73 d93c
00000110: 7a97 283d 3efa 343e 9653 c3bd ef43 b93d
00000120: e199 f43e fba2 3fbe 7d5f cd3d 72e9 1bbe
00000130: f8b3 3dbd 5686 4dbe 5b5f 28bd f965 d2be
00000140: de91 f3bd c90d 553f 28dc de3d eb54 4ebe
00000150: 8cd7 df3d 604c 91bd 2fbd b2bd 7269 1f3f
00000160: 636e 93be dcc0 a8be 23ff 62bd 910b 00be
00000170: da3b 01bd caf2 02bf fd96 55bb 0959 c53e
00000180: 4f35 473c baf4 9e3d ddfa 26bd eff8 41be
00000190: 8186 de3a 5c76 46bf e254 b93b 2845 2a3e
000001a0: eb7c 063f 467b 7abe a517 d03d 0193 cebe
000001b0: c926 9c3d 1ab8 f8bc 0141 733d ea87 903e
000001c0: 8e64 a8bd 165d 223e 7a77 bd3c 1769 07bf
000001d0: bf91 7a3d 4cf1 14be 8c5b 3c3d 62c0 a63e
000001e0: b41f d1be 13f3 f53d 0d08 d2bb 635e 63be
000001f0: 4bef 043e 3fea 74bf 77bd d93c 167b a3be
-0.07900769 0.012935704 -0.0114428075 -0.029561723 0.07049195 -0.41634008 -0.07652668 0.028366374
0.32607743 0.27529404 0.087433375 0.3653309 -0.014433626 0.4737097 0.093460545 -0.31392074
-0.24173076 -0.1829504 -0.11211212 -0.023881981 0.034500834 -0.57626784 0.055473723 -0.23647869
-0.0745817 0.039221007 -0.005106109 0.19893597 0.027259907 0.17068541 0.041666903 0.010307877
0.01003078 -0.09484116 -0.15009566 0.2830924 -0.07996952 -0.04511031 0.008885825 0.03549646
-0.01991689 -0.10412268 -0.019577144 0.015329231 0.01866948 0.42407486 -0.101070635 -0.013723822
0.059318073 -0.31422552 0.09393312 -1.0390968 0.064723246 0.062087968 0.08817774 -0.36921418
-0.18304886 -0.19247094 0.019529963 -0.12637588 0.061183147 0.008914384 -0.09084612 -0.12878205
0.06638293 -0.08991702 -0.07269413 0.026544271 0.041160084 0.17673585 -0.09537427 0.090461604
0.4777365 -0.18714516 0.100279786 -0.15225771 -0.04631421 -0.20070776 -0.041106563 -0.41093424
-0.11893056 0.8322416 0.10881835 -0.20149581 0.10929784 -0.070946455 -0.0872749 0.6227027
-0.28795156 -0.3295964 -0.0554191 -0.12504412 -0.03155122 -0.51151717 -0.0032591217 0.3854449
0.012158706 0.07761522 -0.040766586 -0.18942617 0.0016977341 -0.7752435 0.005655871 0.16627944
0.5253436 -0.24461088 0.1016076 -0.4034653 0.07624585 -0.030361224 0.059388164 0.28228694
-0.08222304 0.15855822 0.02312826 -0.5289473 0.06117415 -0.14545172 0.045985743 0.3256865
-0.408445 0.12009253 -0.006409651 -0.22203974 0.12981908 -0.9566993 0.026579602 -0.31929845

block1.0.bn3.weight f4 [16]
00000000: e8d1 583d c908 a23f 8e3e d43e d879 5f3e
00000010: 1a12 023d de6d 1fbe d49e 623f 7938 1e3d
00000020: efcd 803e 624c d63e 6b8f d93e fcee a53e
00000030: a9a7 303f 9a62 393f b61e a93e db98 963f
0.052934557 1.2658931 0.41453975 0.21823823 0.031755544 -0.15569255 0.885236 0.038628075
0.25157115 0.4185515 0.42492232 0.32408893 0.6900583 0.7241608 0.33031243 1.1765398

block1.0.bn3.bias f4 [16]
00000000: 903a 543d 883a 05bf 1f71 da3b 08ec b83d
00000010: 9d05 43be 2bee 3c3c 62ff 2c3f 3831 e8bd
00000020: 461a 1abf 5305 de3e 0d7b ba3e 90b4 82bd
00000030: e8be 863d be39 6abd b8b4 093e 60f2 3abe
0.051813662 -0.52042437 0.006666317 0.090293944 -0.1904511 0.011531393 0.67577183 -0.11337513
-0.6019634 0.43363437 0.36422005 -0.06382096 0.06579381 -0.057183973 0.13447845 -0.18256521

block1.0.bn3.running_mean f4 [16]
00000000: 4efd 1dbe a2d1 c33e 171d fcbe fd2c 443e
00000010: 70b5 3f3e 4b91 d13d 4831 83bf cd0d 94be
00000020: 5d06 093e bd8c aebe 0404 e43e f17b 3dbe
00000030: e746 73be 5966 21bb 6835 39be e765 49bf
-0.1542866 0.38245875 -0.49240944 0.19157787 0.18721557 0.102327906 -1.0249414 -0.2891678
0.13381334 -0.3409175 0.44534314 -0.18504311 -0.23757516 -0.0024627654 -0.18086779 -0.78671116

block1.0.bn3.running_var f4 [16]
00000000: bba5 3e3e 0277 fb3e 66d8 af3e 17e2 963d
00000010: 4329 a13c 3419 3e3e 03bb cb3e 6841 8d3c
00000020: b391 f63c 8fcb fe3d 45b0 553e 70ba dc3e
00000030: 1e72 443f 8e36 573e 1685 5c3e 39da 793f
0.18617909 0.49114233 0.34344786 0.07367342 0.019672995 0.18564302 0.39791116 0.017243102
0.030098772 0.124411695 0.20868023 0.4311099 0.7673663 0.21016905 0.21535143 0.97598606

block1.1.conv1.weight f4 [8, 16, 1, 1]
00000000: 016d 043e 30c8 213e a566 0e3b 3d3b 8abd
00000010: b58f 4c3e 0e3e 543e 2b5c 783e e593 fcbc
00000020: cffa 0f3d 31a3 8fbd e0a4 b2be 1928 58be
00000030: b34d 98bb 9d9c 0fbe 4299 283e bc78 8d3d
00000040: 7e0f 26bf 0b3e 543d d11c 70bd 4f75 773e
00000050: 8a98 bbbc 8688 1540 d438 253e 9a51 6a3b
00000060: c245 dc3d 8e4d 1b3e bf12 70bd 4730 a03d
00000070: 0b0c cebd 1e23 dfbd dd46 93be 1d9a fe3d
00000080: d82f 333d 3714 a63e d4ea 903e af4c ac3e
00000090: ac32 df3d 546b 3b3f e373 acbe d603 71bd
000000a0: 5002 c43d f05a 283e 86c2 90be f1ec a6bd
000000b0: daf1 76bd 6f3e b33b a591 0c3e cb27 17be
000000c0: f98b 07be f9df a1be d034 c83e b9a2 14bf
000000d0: 943d d7bd e8f4 c4bf a42a a4bd 0033 3cbd
000000e0: 1186 a9bd e40d c3bd afc5 833e 7ec4 ba3d
000000f0: 2caf 3bbd 118c 11bd 7f89 c3be 43fd ce3e
00000100: f2eb b23f 0876 893c 524a 23be 2111 933d
00000110: 63b6 e3bd 6b51 91be d44e a73e fdfa c3bb
00000120: b6d5 4a3e 1fb5 863d decb 6abe b89f 203e
00000130: d601 74bd 101b 063e d564 8fbd 5f24 1dbe
00000140: 6758 00bc d9b3 213e ec23 003e bf3a c0bd
00000150: 30db d93d 7cd0 0ebe b488 693e e756 463e
00000160: 438b 6e3d 3031 323d c593 913d 703f 65be
00000170: 9194 b2bd 8e4f 473e b2dc 573d d8e7 d73d
00000180: 93d1 d03d f39c 0f3f 33ea f8bd dd7c c13e
00000190: 7d1e 003e 1c80 aa3e 60a9 7a3e f667 47bc
000001a0: 14a2 6d3e 667b 823d d615 4c3f 8fc8 19be
000001b0: 6143 07be 507d 9c3b baef 3bbd 823b 4abd
000001c0: 26d0 08c0 a10a 58be 98f6 92bd 6ec4 94be
000001d0: 7331 4fbd b0ad a7bf 3b1d e83c 1de5 bebd
000001e0: f1aa 3bbe 9613 e23d 364d 05be 3347 073d
000001f0: c19f 3cbc 9133 5ebc 08f8 d63b d011 c03d
0.12932207 0.15799022 0.0021728661 -0.0674958 0.19976695 0.20726797 0.2425391 -0.03083224
0.0351513 -0.07013548 -0.34891415 -0.21109046 -0.0046479343 -0.14024587 0.16464713 0.06907794
-0.6486739 0.05181698 -0.05862123 0.24165843 -0.022899885 2.3364577 0.1613496 0.0035754205
0.10755493 0.15166304 -0.058611628 0.07821708 -0.10060891 -0.1089537 -0.28765002 0.124317385
0.0437468 0.32437298 0.2830416 0.33652255 0.10898337 0.73210645 -0.33682165 -0.05884155
0.095707536 0.1644094 -0.2827341 -0.08150662 -0.06028924 0.005470089 0.13727434 -0.14761274
-0.13236989 -0.3161619 0.39102793 -0.58060795 -0.10509792 -1.538724 -0.080159456 -0.045947075
-0.08277524 -0.09524134 0.25736758 0.09119509 -0.045821354 -0.03553397 -0.3819084 0.40427598
1.3978255 0.016779914 -0.1594632 0.071810015 -0.11118772 -0.2838243 0.3267733 -0.005980848
0.19808087 0.06577515 -0.22929332 0.15685928 -0.059572063 0.13096261 -0.07001654 -0.15345906
-0.007833577 0.15791263 0.12513703 -0.09386205 0.1063751 -0.13946718 0.22806054 0.19369088
0.05823828 0.04350394 0.07108263 -0.2238748 -0.08719743 0.19463941 0.052700706 0.105422676
0.10196223 0.5609886 -0.12154045 0.37790576 0.1251163 0.33300865 0.24478674 -0.012170782
0.23206359 0.06371193 0.7972082 -0.15017913 -0.13209297 0.0047756806 -0.045882918 -0.049373157
-2.1377044 -0.21097805 -0.0717594 -0.29056114 -0.050584268 -1.309988 0.02833425 -0.09321044
-0.18326928 0.11038892 -0.13017735 0.033026885 -0.011512698 -0.013562099 0.0065603293 0.093783975

block1.1.bn1.weight f4 [8]
00000000: 331c ac3c 7824 283f fc6e 3a3f 2cb6 2c3f
00000010: 12cc 063f 2c4e 7d3b b2e3 863f de25 683f
0.02100954 0.65680647 0.728256 0.6746547 0.52655137 0.003865133 1.0538237 0.9068278

block1.1.bn1.bias f4 [8]
00000000: 6c3e c3bd cc16 9a3f 91f4 b6be e59c cb3e
00000010: 2453 773f c034 aabc 4c78 74bf 6d72 6e3e
-0.095333904 1.2038207 -0.35733464 0.3976814 0.9661124 -0.020777106 -0.9549606 0.23285837

block1.1.bn1.running_mean f4 [8]
00000000: b15c 583f e3e1 6c40 128b c23f 84ed 70c0
00000010: 91cb 7f40 3f02 be3e a469 4b40 11c5 31c1
0.84516436 3.701287 1.5198691 -3.7644968 3.9967997 0.3711109 3.1783228 -11.110612

block1.1.bn1.running_var f4 [8]
00000000: abe3 663f b4b7 6141 b73d 2840 edc6 bb40
00000010: 7288 bc40 109c d03e 3d2e 5240 56c2 0341
0.90191144 14.107349 2.6287668 5.868033 5.891656 0.40744066 3.2840722 8.234945

block1.1.conv2.weight f4 [8, 8, 3, 3]
00000000: 1e09 0abe 3d2d 9cbd 0508 c7bd f940 9a3b
00000010: 1ec5 fabb 3761 b9bd 109b ee3c 3473 59bd
00000020: 9f72 97bd 7c56 35bd f3f3 91be c228 723c
00000030: df22 be3e 2578 b03d 9ea0 abbd 4b3c 83bd
00000040: 73ed 0e3e c8b7 bd3d bf18 993e b947 013e
00000050: addc e23d 6b13 c03c cb9f 64be ba89 debd
00000060: d2a8 8cbe d2ec babe ca54 73be 0d26 b0bd
00000070: 0a88 523e b82c f3bd fe16 9d3d 47d9 083f
00000080: 3390 24bd fe48 92bd dc83 06be db9e e73b
00000090: 612c c8bd a485 a3be 0bba f33d 6ffe 25bb
000000a0: ca6b 3fbf 977b b43e 7ff3 c43e e9f8 3e3e
000000b0: f563 a23e 1816 6dbd 76cc a2bd 4403 c63b
000000c0: b0a5 bc3b 8180 56bc 3ed8 823c 02fc af3a
000000d0: 809a a4bd 7852 7ebc 3736 cb3d d38c 173e
000000e0: 076a a63c 9078 113f b23f 493f 6e4b 023f
000000f0: 8f87 0f3e 485f 803e 2807 bbbc 25a3 16be
00000100: c61d 883f d9a3 53bf 2b97 c43e 801e f93f
00000110: 07db 18be b013 fabe 8e3c 98bf e6ee 51be
00000120: 4df6 a7bd 7c2d 98bd 6f92 7c3c 30f7 76bc
00000130: d6ff 95bd a01f 7abd 1cc3 e9bb 524a 0cbd
00000140: ea20 42bc 3e14 49bd 10a9 4fbd 57b8 61bd
00000150: 846b 97bc 8e25 afbc 1072 13bd e415 0dbc
00000160: 9a7f 0f3c 1a25 103c da5a acbd 55b7 a5bd
00000170: 490d 22bd 967e 04bd 5afe 95bd 73f3 a9bd
00000180: 0204 2c3d ad0f 623c a155 153c 0a1e 293d
00000190: 2c57 33bc 1f61 bdba ce6f ab3d 148b 223d
000001a0: f7a5 053d 3e8a 433d d2d7 f43c 88eb 2e3d
000001b0: 3dd9 03bc af54 cc3b b089 58bd 0ff6 c9bd
000001c0: 8c33 47bd 9691 74bd b164 72bc ac10 963d
000001d0: 2a3a 053e bd70 c0bc cc31 7abd bbd7 1fba
000001e0: cb6e b4bd 0303 94bd 794d 69bc 1c48 4abd
000001f0: c321 92bd f87e febc 4093 7abd 4e27 29bd
00000200: 141b 1cbc fe96 5dbd 544c cfbd 43ed dabc
00000210: 8cf3 f8bc ea1b 4cbd 3c5b 903d 624b c03c
00000220: 8165 a73d c29e 623d f8c5 ae3d 524d 873d
00000230: bea6 f438 c0a2 443d 70e8 3c3d 9bb7 bd3c
00000240: 2983 02bd 1629 9a3b fa0d f9bb 5c33 ecbd
00000250: 5f3d 56bd f416 31bd 4fb1 a0bd b227 cfbd
00000260: 11d0 19bd fc79 bebd 3d0c 3e3f 053b bc3e
00000270: 6a30 83be 1d53 f2bf 42f7 1fbe 6ff6 373f
00000280: b350 bdbe fa02 433e fdcb 913c 186f e33d
00000290: a6b9 05be 0bf1 25be ba90 b7be 8ebd 05be
000002a0: c75f bebd 3cee e13c 6a48 193e 5a6d c63d
000002b0: d713 1abe 0b2b d4be 6c58 95bd d0ba 2e3f
000002c0: c0ad 81be a2fc b7be 0849 013f 5621 783d
000002d0: 9200 a1bd c0ef 10bf 9b7f 52bd 885a c3bd
000002e0: 465f 6b3e 514f dc3d 58bb a6be 52b1 243e
000002f0: ae6a 51bc 2153 473d 2f6f 44bb c6d0 c5ba
00000300: f4c5 d63d 7c14 17bc b099 9cbb d153 ab3c
00000310: bad3 e0bc 6d5b d53c 5b4f 3abe 2457 57be
00000320: c2d7 14be 281d eabe 3be5 b4be 335e c7be
00000330: 06f0 aebe 2849 23bd 31a4 4bbe 9024 95be
00000340: 53d9 c33e e214 cebe 67f3 d7bd 26b8 8d3f
00000350: ef10 e63d dc44 86be 490e 85be 4a6a 83be
00000360: cc09 fbbc 95de 523d 4268 9e3c 43a0 29ba
00000370: d44d e6bb 0fda 36bd 9d32 cfbb 2287 34ba
00000380: cb76 933d 619a 813e 685b b6bd 11be d6be
00000390: 7b8c ff3d 5532 463f ab9e a5be 2b6d bbbe
000003a0: daa9 963d e9a5 8bbe bb2b 7abe 48a4 0cbe
000003b0: 969a c53d 4737 31be c21f b0bd a86e 58be
000003c0: b1be c2bd 995a 36be 8e10 1b3d 3e4a d4bd
000003d0: 2bb0 45be c856 10bd 5342 51be 6fda e3be
000003e0: 39c4 dfbd 51d8 28bd 880f 5dbe 6b29 4c3e
000003f0: 5044 8a3d 2895 e83e f814 0a3f 7d5e e53d
-0.1348004 -0.07625816 -0.097183265 0.0047074524 -0.0076528927 -0.090517454 0.029126674 -0.053088382
-0.07394909 -0.04427193 -0.2850643 0.014780225 0.3713598 0.08616666 -0.08380245 -0.06407984
0.13957767 0.09263569 0.29901692 0.12625016 0.11077247 0.02344676 -0.22326581 -0.10866113
-0.2747255 -0.36508805 -0.23762813 -0.086010076 0.20559707 -0.11873764 0.07670401 0.5345654
-0.04017658 -0.071428284 -0.13136238 0.0070684976 -0.097740896 -0.31937897 0.11900719 -0.0025328656
-0.7477385 0.35250542 0.38467023 0.18649639 0.31716886 -0.0578824 -0.07949154 0.0060428698
0.005757056 -0.013092161 0.015972253 0.0013426545 -0.08037281 -0.015522592 0.0992245 0.14799814
0.02031423 0.5682459 0.78612816 0.50896347 0.14016555 0.25072694 -0.02283056 -0.14710672
1.0634086 -0.82671887 0.38396582 1.9462433 -0.14927302 -0.48843145 -1.189348 -0.20501289
-0.08201275 -0.074305505 0.015415772 -0.0150735825 -0.073241875 -0.061065316 -0.0071338546 -0.034250565
-0.011848668 -0.04909157 -0.05069834 -0.05510744 -0.018483885 -0.021380212 -0.03599745 -0.008611176
0.00875845 0.008797908 -0.08415766 -0.080916084 -0.03956345 -0.032347284 -0.07323904 -0.082983874
0.04199601 0.013797683 0.009114654 0.041288413 -0.010946076 -0.00144485 0.083709344 0.039683416
0.03262898 0.04773926 0.029888067 0.04270509 -0.008047399 0.006235681 -0.052865684 -0.09861385
-0.048633143 -0.059709154 -0.0147945145 0.07327399 0.13010469 -0.023491258 -0.061082646 -0.0006097515
-0.088101946 -0.07227137 -0.014239662 -0.049385175 -0.07135346 -0.031066403 -0.061175585 -0.04129725
-0.00952794 -0.054099075 -0.1012198 -0.026724463 -0.03038957 -0.04983131 0.070486516 0.023473445
0.08173657 0.055327184 0.08533853 0.066065446 0.00011665885 0.048006773 0.046120107 0.023158839
-0.031863365 0.004704605 -0.007600543 -0.115332335 -0.05230462 -0.04323478 -0.07846319 -0.10114993
-0.037551943 -0.093006104 0.74237424 0.36763778 -0.25622874 -1.8931614 -0.15621665 0.718604
-0.3697563 0.19044104 0.017797465 0.11105174 -0.130591 -0.16205232 -0.35852605 -0.1306059
-0.09295612 0.02757942 0.1496903 0.09688826 -0.15046631 -0.4143909 -0.07292256 0.68253803
-0.25327873 -0.3593493 0.5050206 0.060578667 -0.07861437 -0.5661583 -0.051391225 -0.09538752
0.22985563 0.10757316 -0.32564807 0.16083267 -0.012781782 0.048663262 -0.0029973497 -0.0015092127
0.10486975 -0.009221192 -0.004779063 0.02091399 -0.02744471 0.026044572 -0.18194334 -0.21029335
-0.1453543 -0.4572537 -0.3533114 -0.38939056 -0.34167498 -0.03986469 -0.19886853 -0.29129457
0.38251743 -0.40250307 -0.10544472 1.1071823 0.112336986 -0.2622441 -0.2598746 -0.2566703
-0.03064432 0.051481802 0.019336823 -0.0006470719 -0.007028321 -0.04464155 -0.0063231722 -0.00068865914
0.07200392 0.25313094 -0.08904153 -0.41941884 0.124779664 0.7742055 -0.32347617 -0.36606726
0.07356615 -0.27275017 -0.24430744 -0.13734543 0.096486256 -0.17306243 -0.08599807 -0.21135962
-0.09509028 -0.17807998 0.037857585 -0.10365723 -0.19305484 -0.03523901 -0.20435457 -0.4450259
-0.109260984 -0.04122192 -0.21587956 0.19937675 0.06751311 0.45426297 0.53938246 0.11199663

block1.1.bn2.weight f4 [8]
00000000: 778b 5c3f 30ea aa3a 6561 263f 745c e03e
00000010: d5cd 06bf e20d b33c f5a4 783f 14d2 373f
0.86150306 0.0013039764 0.6499236 0.43820536 -0.52657825 0.021857206 0.97126704 0.7180493

block1.1.bn2.bias f4 [8]
00000000: 16b2 7c3f 7440 a4bc 35d2 8b3f ae75 f63e
00000010: 138c 553d 4f59 c3bd ac74 a4be 5ef1 643f
0.9870924 -0.020050265 1.0923525 0.48136657 0.05213554 -0.09538519 -0.32120264 0.894308

block1.1.bn2.running_mean f4 [8]
00000000: a7a6 8e3f aea7 b0bd 8665 eabf c531 8cbe
00000010: 43cb 51bf d817 80be 9f81 67bf d124 28bf
1.1144608 -0.08625732 -1.8312232 -0.2738172 -0.8195078 -0.2501819 -0.9043216 -0.6568118

block1.1.bn2.running_var f4 [8]
00000000: 2b8a 1340 b83e 4e3e 0d22 fe3f 28c0 863f
00000010: 1a73 fc3f f535 503f 33ec f53f 26e4 2140
2.305308 0.20141113 1.9854141 1.0527391 1.9722626 0.8133233 1.9212707 2.52955

block1.1.conv3.weight f4 [16, 8, 1, 1]
00000000: 6608 debe 8b40 eaba f27c 863e e739 76bf
00000010: 59c6 d5bd 01f9 6f3c eaa7 843e edbe d3bc
00000020: 0b54 0b3e 1350 51bc 17f1 b3be c69f 1cbe
00000030: 5da5 133e 589a 77bd e37d 5f3d 5c5f acbe
00000040: 8a16 0cbf fbad 183e 92f7 e6bc 73d9 1c3e
00000050: db13 0a3e 78fc 15bd ed6e 273f fcdd 643e
00000060: 30af 3f3e 189d 803d ff4e 9fbe 3c16 00be
00000070: a7ae edbc 1879 143d c6a1 93be c4de 0a3e
00000080: a051 ea3c 371d ec3d f525 21bf ab62 5e3e
00000090: 15f5 2d3e a44b 3cbd 05af a53d c819 a53f
000000a0: 28cf c4bd 46dc e53d 8eb7 02bf 2bda e33e
000000b0: 2a94 0abf 1e19 ecbd c60f 52bd d327 65be
000000c0: 4894 10bf 3b0a 90bd e3a4 c23e 841c e2be
000000d0: 28a2 babd c932 c7bd cf1f cd3d 3465 063f
000000e0: 145c 49bf 40a8 75bb ac0c f23e d54b 313e
000000f0: d0bf 0ebe 386e 8abc 3071 4abe 90f4 8a3e
00000100: 0a50 613f 6f57 813d 5d32 543f 48db e6be
00000110: 1aa4 91be 6ada a93d 8d3e 24be 76c1 b53e
00000120: 5015 cdbc f757 353d 0738 1c3f fd07 4f3d
00000130: befb 14bf 8ee2 7b3d 3fa5 5c3f 1d8d 33bf
00000140: 4457 32bf ec11 863d b755 493f 1cce 613c
00000150: 622e 49be 2f35 01be bcb6 8dbd 7fef 84bd
00000160: 3804 28bf 04a0 93bd 5a5f 8b3e d57e 2fbe
00000170: e24d c4be e86a 8a3d cbe5 823e 10cf e0bb
00000180: 41db be3e dddc 96bb 4e57 37bc 1f59 c93c
00000190: 9033 243e d2a6 8b3b dd90 08be ab99 98bd
000001a0: ac05 86bd 4383 4dbd 1c13 b83e 6844 733e
000001b0: 6b20 183c 69cb 92bd 0778 67bf e7e8 aebe
000001c0: 1af0 8b3e 874b 8ebd 16c6 6c3e f798 1a3e
000001d0: ecda 25be 0f9b 473d 4d26 b6be 5836 19bf
000001e0: e068 0ebf f59c 923d a794 01be c0f3 4b3e
000001f0: 67f5 7cbe afbb 21be e8bc ab3e 7ff7 4ebe
-0.43365782 -0.0017872019 0.262672 -0.961821 -0.104382224 0.0146467695 0.25909358 -0.025847876
0.13606279 -0.012775439 -0.35144874 -0.15295324 0.1441855 -0.060449928 0.054563414 -0.33666503
-0.5472189 0.14910118 -0.028194223 0.15317325 0.13484137 -0.036617726 0.65403634 0.22350305
0.18719172 0.06279963 -0.31114957 -0.12508482 -0.029013945 0.036248296 -0.2883436 0.13561541
0.028603375 0.1152901 -0.6294854 0.21717326 0.16988023 -0.045970574 0.08090023 1.2898493
-0.096098244 0.112236544 -0.5106133 0.44502386 -0.5413233 -0.11528228 -0.051284574 -0.22378473
-0.5647626 -0.07033201 0.38016424 -0.4416238 -0.0911296 -0.097264834 0.10015833 0.52498174
-0.78656125 -0.0037484318 0.47275293 0.17314084 -0.13940358 -0.01689826 -0.1976974 0.2713971
0.88012755 0.06315505 0.8288935 -0.45089173 -0.28445512 0.08293612 -0.16039486 0.3549916
-0.025034577 0.044273343 0.6102299 0.050544728 -0.5819663 0.061495356 0.86189646 -0.70137197
-0.69664407 0.06546387 0.78646415 0.01378205 -0.196466 -0.12617944 -0.069196194 -0.06490993
-0.6563144 -0.07208255 0.27221185 -0.17138226 -0.3834067 0.06758672 0.25565943 -0.0068606213
0.37276652 -0.0046039657 -0.011190249 0.024578629 0.16035295 0.00426183 -0.13336511 -0.07451185
-0.065440506 -0.05017401 0.3595208 0.23756564 0.009285073 -0.07167704 -0.9041752 -0.34162065
0.2733162 -0.069479994 0.23122439 0.15097414 -0.16196793 0.04873186 -0.35576096 -0.59848547
-0.55628777 0.071588434 -0.12654363 0.19917202 -0.24702989 -0.15794252 0.33542562 -0.202116

block1.1.bn3.weight f4 [16]
00000000: ef35 d23e 6ca7 8b3e e2fa 593e d0c8 1dbe
00000010: 1e22 b03f 1508 d13e b497 b43e b799 9d3f
00000020: e8e9 de3f cf03 983f 5f2a ea3e bf56 0f3e
00000030: 9c2a 65bd 00a8 1b3f 83b1 2e3e 7bfb d43d
0.41056773 0.2727617 0.2128711 -0.15408635 1.3760412 0.4082648 0.3527199 1.2312535
1.7415133 1.1876162 0.45735452 0.13997935 -0.05594884 0.6080322 0.17059903 0.103995286

block1.1.bn3.bias f4 [16]
00000000: 51ef 58be a050 b2be 19a8 ad3d 7e73 3bbe
00000010: 5974 83bd 7278 66bf 7943 8a3c 0840 403e
00000020: 8e92 7d3d a12a 963e f931 0f3c f5a8 7bbd
00000030: a158 a2bd 1892 cc3e 9f4a 7fbd 9525 453c
-0.21185042 -0.34827137 0.08479328 -0.18305776 -0.06418676 -0.90027535 0.016877877 0.18774426
0.061907344 0.29329398 0.008739942 -0.061440427 -0.07927061 0.3995521 -0.062327024 0.012032886

block1.1.bn3.running_mean f4 [16]
00000000: dd12 2cbf 1a5d 1fbf 7170 0fbe f9cf 20be
00000010: 5136 373f 20a9 47bf 5433 ef3d 3a2a 9f3c
00000020: 013d ea3f 98c5 103d c15f a13d f593 f7be
00000030: 36dc 9e3e f842 0e3b c5c3 71bd f514 4abf
-0.67216283 -0.62251437 -0.14007737 -0.15704335 0.71567255 -0.7799244 0.11679712 0.019429315
1.8299867 0.03534469 0.07879592 -0.4835507 0.31027383 0.0021707397 -0.05902459 -0.7893823

block1.1.bn3.running_var f4 [16]
00000000: b889 4d3e 8d2e e13d 640c a93e 9e08 bc3d
00000010: 4235 3c3f 6197 fb3d ce2c b23e 0580 113f
00000020: 4cb5 5e3f 2171 1c3f 7e04 073f ccb3 b53e
00000030: 5e80 d63d cd05 4a3e 65aa 3c3e 90b3 953e
0.20072067 0.10995207 0.33017266 0.09181331 0.73518765 0.122847326 0.34799808 0.5683597
0.8699539 0.6111012 0.5274123 0.35488737 0.10473703 0.19728775 0.18424375 0.29238558

block1.2.conv1.weight f4 [8, 16, 1, 1]
00000000: 509d bf3e 7047 163f f361 ec3d cb7d 9fbd
00000010: a767 1e3d 4cec 9bbd 46b8 0dbf b3c6 dc3c
00000020: f46f 47be e5e3 033e 6ca0 6abe 6199 8b3f
00000030: fe83 043e 05ca 87be 2b4a 013f ed0a d7bd
00000040: 8dc1 9d3e 309e b7bc 37b9 fb3c df76 0ebe
00000050: dde0 b73c 012d 11be 1bd5 923d 2918 f9bc
00000060: aa22 f13d 53f2 8d3e 5122 81bd a86e fdbd
00000070: c393 9e3c 7570 3f3e 76d5 a7bc c6bd 833d
00000080: 0b2e 0bbd de7b 843e 29f4 b1be d190 6c3e
00000090: bd6f c23c 082c 02bd 8614 bc3d b26b 4bbe
000000a0: b28e 00be 6000 9abd 041b 9dbe 257c 99be
000000b0: 9d59 1fbe 8b58 9abd e86b 5e3f 6799 9d3d
000000c0: 7d2b 653f 00dc 3ebe 12bb b73d 5036 693e
000000d0: 9122 c43c 1310 53bf a3c9 113c 4881 ae3e
000000e0: 71f5 13bf 9b4e cbbd aef1 f23d c7dc 963c
000000f0: eabe 853e 86af 963b 6c5e 33be 1a4d b83c
00000100: 7d45 92bd dbd4 fe3d a617 9fbe 9386 14bd
00000110: 2851 ddbc 3985 cd3d 995e 6bbe d12a 94bd
00000120: c577 09be c887 2cbd d585 333f e8cc 4d3e
00000130: 499a d0be 72fd 19be 2047 4abe fa86 80bd
00000140: 5fd4 1ebd 4fa9 90be ac2a 5ebe 5107 9bbc
00000150: 9db8 3fbf 5faf e43d 8ccf 083f 0d45 763e
00000160: 12a5 77be b482 f5bd 5b1f d6be 9f67 1e3e
00000170: ed38 88be c570 143f aa8f 1ebf b16f 363e
00000180: 3f58 efbe 8861 403e 2e41 8bbe 5344 af3e
00000190: fd87 a83e 23b5 023e 31b9 e93e 3f63 13bd
000001a0: f0ac f3bd 92a7 9dbe 77bc bc3d 6ae6 43be
000001b0: 349b cb3c c680 23bd dafe bf3d cd37 82be
000001c0: f5bb 36bf 56bf 0fbf 8303 373d 23e3 743c
000001d0: 24e5 5ebe fb42 223e b3fc eabe 4f34 e4bd
000001e0: 80e0 f53e ec5f 90be 508b 9fbe 229b fa3e
000001f0: 8c79 763e 2734 53be 27f5 24bf d4aa 4ebd
0.37424707 0.58702755 0.1154212 -0.07787665 0.03867307 -0.076134294 -0.55359304 0.026950216
-0.194763 0.12879904 -0.22912759 1.0906183 0.12940976 -0.26521316 0.50503796 -0.10500131
0.3081173 -0.022414297 0.030727966 -0.13912533 0.02244609 -0.14177324 0.07169553 -0.030407028
0.1177419 0.2772394 -0.063053735 -0.12374622 0.019357568 0.18695243 -0.020487528 0.06432681
-0.033979457 0.25875753 -0.34756592 0.23102118 0.023734922 -0.031780273 0.09183602 -0.19865301
-0.12554434 -0.07519603 -0.30684674 -0.29977527 -0.15561529 -0.075364195 0.868834 0.07695275
0.8951948 -0.18638611 0.08971228 0.22774625 0.023942264 -0.824464 0.008898172 0.3408301
-0.5779639 -0.09927102 0.11862503 0.018415822 0.26122218 0.0045985607 -0.17516488 0.022497702
-0.0714216 0.12442943 -0.3107273 -0.036261152 -0.027016237 0.10035176 -0.22985305 -0.07234729
-0.13424595 -0.04212168 0.70126086 0.20097697 -0.4074271 -0.15038088 -0.19753695 -0.06275745
-0.03877675 -0.28254172 -0.21695966 -0.018924387 -0.7489107 0.11166262 0.5344169 0.24049778
-0.24184063 -0.1198782 -0.41820797 0.15469216 -0.2660593 0.5798457 -0.61937964 0.17816044
-0.46747014 0.18787205 -0.27198166 0.34231815 0.3291625 0.1276441 0.45649102 -0.03598332
-0.118982196 -0.30791909 0.09215634 -0.19130865 0.02485428 -0.03991773 0.09374781 -0.25433198
-0.7138055 -0.5615133 0.044681083 0.014946732 -0.21767098 0.15845864 -0.4589592 -0.111427896
0.48022842 -0.28198183 -0.31160975 0.48946482 0.24069804 -0.20625363 -0.6443657 -0.050455883

block1.2.bn1.weight f4 [8]
00000000: f817 4a3f c4c4 013f c99d 2a3f 1cd4 363f
00000010: c5e3 153f 2f78 293f 3034 323f 8dc9 423f
0.78942823 0.50690866 0.6664701 0.71417403 0.58550674 0.6619901 0.6961088 0.7608879

block1.2.bn1.bias f4 [8]
00000000: 3509 4c3e fbcd 79be c0a5 b03c 9ff7 963e
00000010: 9da2 2fbe 6540 923e 33e7 a3be a856 933e
0.19925387 -0.24394982 0.02156341 0.29485795 -0.17151876 0.28564754 -0.32012329 0.2877705

block1.2.bn1.running_mean f4 [8]
00000000: a88a 2240 623f 8c3f a468 0dbf 79ad 0340
00000010: d57f 80bf a536 8cbf e0e4 8abf ce18 82c0
2.539713 1.0956843 -0.55237794 2.057463 -1.0039011 -1.0954176 -1.0851097 -4.065528

block1.2.bn1.running_var f4 [8]
00000000: 7ac6 0f41 2bbb 133f e63d 8940 827f ad40
00000010: 21a0 0d40 8269 d440 c1ae f13f f9b8 b340
8.985956 0.5770747 4.288806 5.421815 2.2128985 6.6378794 1.8881456 5.6163297

block1.2.conv2.weight f4 [8, 8, 3, 3]
00000000: 173e c3bd 9c8e d7bd 7bf6 82bd 5d18 b6be
00000010: 94c4 e8bd e1ce 1fbe e882 a03d f347 7fbd
00000020: 8f86 30be 3046 193e 34b0 bf3d 3b18 5bbd
00000030: a1f1 2a3e ac39 cebd d2f6 51be e64f 473e
00000040: c9b4 363d 2d15 9cbd 0617 b2bd 72a1 ba3c
00000050: ba54 77bd 2bab efbc afc5 503e 92f2 8fbd
00000060: 1094 d0bd e6c5 58bd 8379 f93b 5768 41be
00000070: 6e2c c43d 643d 893e bced 8b3c b690 31bf
00000080: 6f89 8abe febf 1d3f 09b6 2c3e 0305 febd
00000090: cab9 803e dc63 983e 72c0 38bd 9f7c 81bd
000000a0: 7039 7c3e b8df de3d 18c1 a1bd f053 f6bd
000000b0: e7d7 bfbb d2c5 c4bd d3c2 0dbe 0a3e 62be
000000c0: a23c 0c3f 34a3 243e 06cf c9be 2339 3dbd
000000d0: 3052 dd3d fecc 1b3e c9aa 11bd 055c 623a
000000e0: 92d8 78be 9515 683d 992a b03d 4bd7 3cbd
000000f0: 0cbf 33be 3abe 11bd 006f 32be 4472 113e
00000100: f4e6 27be de21 febd fc49 8cbe ec31 3d3f
00000110: 2f83 23bd 4cc4 b0be be7d cbbe 4fc4 933b
00000120: c6d5 85be 9ddf 523f db32 c1bc a10d 30bd
00000130: 700c 2d3f 1cd5 663e bd55 88be 36c3 ccbe
00000140: be47 d1be 9c78 b4bd 9b2b 2cbd 63cd cbbc
00000150: e49e d53d feec 6d3c 5543 e93c aa89 203c
00000160: f828 09be e325 a6bb 1834 fb3d edef 153e
00000170: 193d 4bbe 8d19 ef3e be69 113f 16a9 043c
00000180: c8c0 593e ec66 af3d 0ca2 dfbd fe41 63bd
00000190: f06f 05bd 6197 a93d 52a2 8abd 55cb 2cbe
000001a0: bc79 a73d 91c5 733d 319c c0be c8ae 07bc
000001b0: d2bd 10be c510 343e 4929 acbe f621 2d3d
000001c0: 0ed3 753d 5598 12be 857b 823d 6e8d ba3d
000001d0: 0e5a be3d 770f 463d fd69 79be 7a82 45be
000001e0: 0200 963c 52d9 1cbe ffb1 d0bd 2b5c 803e
000001f0: b59d 803e 99c8 9e3c 116e 4cbe c4ca 4abe
00000200: bdf5 50be 2ac6 16be c1d1 0ebd 939e 2e3e
00000210: bb27 ddbd e4d3 cd3d 5ac3 2cbd a75e 353e
00000220: 76e8 22bd 5c83 3fbe 4ec9 bcbd 9eac ec3d
00000230: d88b 353d 8136 ee3c 1018 3abe 9835 adbd
00000240: b3c4 70bd 3934 1d3d 0644 83bd 060c 953e
00000250: 41f6 853f 9fb1 ab3e 36d7 5bbe e900 793e
00000260: 760e 60be a772 84bd 29a0 bfbc bccc 4cbd
00000270: cde7 c83d d700 47bb 43a5 45bd fe2b 1b3e
00000280: d393 63bb 2da8 19bd 6671 00be 976b 4c3c
00000290: 771f 53be ae8b 80be 37e3 22be a3c7 b5be
000002a0: 4698 a6bb 5b23 403e b0a9 76bd f929 03be
000002b0: dfbd 9f3d 06e8 dbbd aeea 043e 64f8 a83e
000002c0: a8f2 41bb e5c7 53be 7168 efbd e658 43be
000002d0: cf6d 013e 90b1 d63d 52f2 66be e856 97bc
000002e0: 9317 863e 23e1 963d bf6e 5fbe a5e1 c0bc
000002f0: c792 293e 36b1 df3d 7e7a 393e 0c0f a2bc
00000300: d683 123e f121 37be 8be4 86be c25d ad3e
00000310: 3062 4d3e 17a7 fc3d 1044 72bd d802 1cbd
00000320: 2de4 123e d944 3ebe 5983 2bbd 6a06 a6bd
00000330: b48f 59bd 26ca 24bb dd67 833d f3f6 f4bc
00000340: daa7 7f3b 93bd 92be 6a2b e03d 693f f73e
00000350: fafd f1bd 2e6e 7ebd 954f 9e3e 608e 57be
00000360: bfcc 11bd 50ec f33e 3dc8 9bbd d4e2 f7bd
00000370: e3b5 c5bc 41e0 fcbd 4ed3 f83e 5125 a33e
00000380: 222b 9c3d 5105 16bd dd50 82bb 5d06 1ebe
00000390: c452 2ebe 4e92 8fbd 15db 38be 7018 0fbd
000003a0: da3e 07be 0070 91bd d89b d7bd c0d0 85bd
000003b0: 22dd cabd e0f0 103e 7b7e 2a3e 330d 493c
000003c0: a7d3 95be 8a83 943c 18c4 f5bd 005e 68bd
000003d0: d766 04bd 2d11 70bc e8a6 fbbe a01a 2cbf
000003e0: 57d5 95be d050 20bd 3fd7 68be af58 aebe
000003f0: 383c 093e 84b2 b73e a8c2 8d3e 8158 8cbd
-0.09533327 -0.105252475 -0.06394669 -0.35565463 -0.11365619 -0.15606262 0.078374684 -0.062324475
-0.1723883 0.1496818 0.0935978 -0.053489905 0.16693737 -0.10069594 -0.2050431 0.19464073
0.044606004 -0.076212265 -0.086957976 0.022782061 -0.060383536 -0.029256424 0.2038791 -0.070286885
-0.10184491 -0.052923106 0.0076133623 -0.18887459 0.09578787 0.2680465 0.017081134 -0.69361436
-0.2705798 0.6162108 0.16866316 -0.124033 0.25141746 0.29763687 -0.045105405 -0.06322598
0.24631286 0.10882515 -0.07898158 -0.120277286 -0.005854595 -0.09608044 -0.13843851 -0.22093979
0.5478002 0.16077882 -0.3941576 -0.046197068 0.10806692 0.15214917 -0.035563264 0.0008634928
-0.24301365 0.056661207 0.08601875 -0.046103757 -0.17553347 -0.035581805 -0.17425156 0.14203745
-0.16396695 -0.124088034 -0.27400196 0.739043 -0.03992003 -0.34524763 -0.3974437 0.004509486
-0.2613966 0.82372457 -0.02358382 -0.042981748 0.67597103 0.22542232 -0.26627913 -0.39992684
-0.40875047 -0.08812067 -0.042033773 -0.02487821 0.104306966 0.014521835 0.02847449 0.009798447
-0.13394535 -0.0050704344 0.122657955 0.14642306 -0.19847526 0.4669918 0.56801975 0.008096954
0.21264946 0.08564553 -0.1091958 -0.055482857 -0.032577455 0.08280826 -0.067692414 -0.1687444
0.08177516 0.059514586 -0.37619165 -0.008281417 -0.1413491 0.17584522 -0.33625248 0.042268716
0.06001573 -0.14315923 0.06371216 0.09109007 0.0929452 0.048354592 -0.24356838 -0.19288054
0.01831055 -0.15317276 -0.101902 0.2507032 0.2512032 0.019382762 -0.19963862 -0.19803911
-0.20406242 -0.14724031 -0.034868006 0.17052679 -0.107985936 0.100501806 -0.04217849 0.17711888
-0.039772473 -0.18702453 -0.09218083 0.115563616 0.04432282 0.029078724 -0.18173242 -0.08457488
-0.058781337 0.03837988 -0.06409459 0.29110736 1.0465776 0.33533952 -0.21468815 0.24316753
-0.21880516 -0.06467181 -0.0233918 -0.049999937 0.098098375 -0.003036549 -0.04825331 0.151535
-0.0034725561 -0.0375139 -0.12543258 0.012476823 -0.20617472 -0.25106567 -0.15906988 -0.35503873
-0.0050840704 0.18763487 -0.06022042 -0.1280898 0.07799887 -0.10737614 0.12980148 0.33002007
-0.0029594097 -0.20681722 -0.116898425 -0.19076881 0.12639545 0.10483086 -0.22553375 -0.018474057
0.2618986 0.0736716 -0.2181959 -0.023545096 0.16559897 0.10922472 0.18113133 -0.019782566
0.14308104 -0.17884041 -0.2634624 0.33860594 0.20056987 0.12336557 -0.05914694 -0.03808865
0.14344855 -0.18580951 -0.04187331 -0.08106692 -0.05311556 -0.0025144904 0.06416295 -0.02990291
0.003900996 -0.2866026 0.109457806 0.48290566 -0.1181602 -0.062116794 0.3092009 -0.21050406
-0.03559565 0.4764123 -0.07606552 -0.12103811 -0.024134582 -0.123474605 0.48598713 0.31864408
0.076254144 -0.036626164 -0.003976925 -0.15432115 -0.1702376 -0.07010327 -0.18052323 -0.034935415
-0.1320757 -0.071014404 -0.10527772 -0.065339565 -0.09905459 0.14154387 0.16649811 0.012271213
-0.2926304 0.018129129 -0.120002925 -0.05673027 -0.03232464 -0.0146525325 -0.49150777 -0.67228127
-0.29264328 -0.03913957 -0.2273836 -0.34052035 0.13401878 0.35878384 0.27687573 -0.06852818

block1.2.bn2.weight f4 [8]
00000000: 20fb 1c3f f2a5 6c3f 3b31 9c3f daca 033f
00000010: 2f49 213f 6e40 053f eab1 2e3f 6bea 5e3f
0.61320686 0.9244071 1.2202524 0.514814 0.63002294 0.52051437 0.68240225 0.87076443

block1.2.bn2.bias f4 [8]
00000000: 9f5b 8dbb dd58 68be 8513 7abf 4e2e 453e
00000010: 9f0c e43d cb51 4d3d 441c 47be ab23 f7be
-0.0043139006 -0.22690149 -0.97686034 0.19255945 0.1113522 0.050126832 -0.19444376 -0.482694

block1.2.bn2.running_mean f4 [8]
00000000: 6ede 0bbf d909 433c 991d 143f eb2a 8dbf
00000010: 6ffb d73f f7e2 c23e 3d52 a8be e582 abbe
-0.54636276 0.011904203 0.5785766 -1.1028723 1.6873606 0.38063785 -0.32875243 -0.33498302

block1.2.bn2.running_var f4 [8]
00000000: 8d90 113f 6983 b93f 7f1e 9d3f 2786 7c3f
00000010: a880 b93f 338c 4d3f 8797 813f 092a 463f
0.5686119 1.4493228 1.2274932 0.986422 1.4492388 0.8029205 1.0124367 0.7740789

block1.2.conv3.weight f4 [16, 8, 1, 1]
00000000: 2633 c4be cf85 6b3b dab3 36be 3bdd 23bf
00000010: 8670 a13c dc16 213f 736a 93bc 576f bcbd
00000020: dce5 083e 9f5c 933e 7c1a 86bc ee35 eebd
00000030: ad02 d93e 85b2 173e 7212 bb3e 0b73 c23e
00000040: a7ad 05bf e79e 55be 2546 e8be c850 90be
00000050: de1e a43c d1bb 92bd a154 1fbf 5828 1a3e
00000060: 8193 1c3c f354 c23e 5855 2a3d ce5f f4bd
00000070: b065 94be 166d 463e 7d9e 653e 5621 db3e
00000080: ca44 683e b16c 3a3f aded 5fbe e8d8 4d3e
00000090: f5a9 5cbe 2e53 083e ef73 7a3d 7f53 08ba
000000a0: 8fa6 003f a336 703a 0e78 333b ad7d 0abe
000000b0: 2038 aebe 474b c3be e0db d33c caa0 bdbd
000000c0: f845 a0be ea09 8bbe 228d 833e 88df b2be
000000d0: dfc5 67be 8b59 0ebf bd57 5d3e ffe2 5ebe
000000e0: 7bde 99be c5b1 9dbc 122f 79be ffb8 d4be
000000f0: 5c37 f2be 496c e6bd 7db0 9cbe dabe 92bd
00000100: afe0 033e 7b68 a53e b27f 1b3e 66a6 2c3e
00000110: ccb5 9dbe 49da cbbd a832 babd 9422 8b3e
00000120: a4a7 cebd 3018 acbd 5c6b 44be 5262 38be
00000130: e49f 1cbc fc05 cf3d 19bd 773c 05a3 59be
00000140: 08d1 c83d cf00 7abd 50bb 083e e926 8f3e
00000150: f996 37be 1cb0 3abc 1fb5 813d d7d5 a2be
00000160: 4f45 c13b 94aa 9bbe b6d9 c4bf a3b4 28be
00000170: a0ee 113d 7929 02be f135 73be ec24 dc3d
00000180: e09e 803c c610 dbbd f46d edbe 0672 3fbd
00000190: 12c5 663c c777 773e 4b4a 873d 3685 7a3b
000001a0: 4af5 513e ad3c 08bd 3026 06bf f684 8b3d
000001b0: 7225 e8bd b7f4 4b3e aa0d 283e 30f5 a2be
000001c0: a0fa 8fbd b0e0 66bf 35ec cb3c a510 0dbe
000001d0: ed0e 11bf 235b bf3e acc3 c03e b3a6 15bf
000001e0: 67d6 f13e c492 c7bc c412 9b3e bdf7 02be
000001f0: d62a 0fbe 4070 ecbd 638c b5be a922 0abf
-0.38320273 0.003593791 -0.17842045 -0.64009446 0.019706976 0.62925506 -0.017995095 -0.09200924
0.13368934 0.28781602 -0.01637005 -0.1163138 0.42384854 0.14814194 0.3653751 0.37978396
-0.522181 -0.20861398 -0.45366016 -0.2818663 0.02003425 -0.071647294 -0.6223851 0.15054452
0.009556652 0.37955436 0.041585296 -0.11932336 -0.2898383 0.1937755 0.2242374 0.4279887
0.22682491 0.728221 -0.2186801 0.20102274 -0.21549208 0.1331298 0.06114572 -0.000520043
0.5025415 0.0009163415 0.002738479 -0.13524504 -0.34027195 -0.3814337 0.02586168 -0.09259184
-0.31303382 -0.27156 0.25693613 -0.34936166 -0.22634076 -0.5560538 0.21615501 -0.2176628
-0.30052552 -0.019249806 -0.24334362 -0.4154739 -0.4730786 -0.112511225 -0.306034 -0.07165308
0.12878679 0.32306275 0.1518543 0.16860351 -0.30802763 -0.09953744 -0.09091693 0.2717482
-0.10090569 -0.08403051 -0.1918158 -0.18006256 -0.009559605 0.10108563 0.015120768 -0.21253593
0.098054945 -0.061035927 0.13352704 0.27959374 -0.17928685 -0.011394527 0.06333374 -0.31803772
0.005898155 -0.30403578 -1.537894 -0.16475157 0.03562796 -0.12711133 -0.23751046 0.1074923
0.015700758 -0.10696559 -0.4637295 -0.0467396 0.014085071 0.24166785 0.06605967 0.0038226373
0.20503727 -0.03326099 -0.5240202 0.0681247 -0.11335267 0.1991757 0.16411462 -0.31827688
-0.07030225 -0.90186596 0.024892906 -0.1377588 -0.566634 0.3737422 0.37649286 -0.5845749
0.47233889 -0.024361975 0.30287755 -0.12789817 -0.13981184 -0.115448475 -0.3545867 -0.5395914

block1.2.bn3.weight f4 [16]
00000000: 20cb ad3e 0880 c13e a480 a73e 8a63 b43e
00000010: 3ee3 043f eec1 be3e e435 973e fdf3 0c3f
00000020: d111 a53e 0e1e f63b 91df 273e af5a 983f
00000030: ec9b 80be 6313 c43e 5bcf 843f 5a06 9b3e
0.33944035 0.37792993 0.32715333 0.35232192 0.51909244 0.37257332 0.29533303 0.55059797
0.32240155 0.007510907 0.16393878 1.1902674 -0.2511896 0.3829604 1.037578 0.30278283

block1.2.bn3.bias f4 [16]
00000000: a3c0 cfbe c18c aa3e 2e40 d53b 23de a93d
00000010: 3160 a33e 4707 5ebf 8939 073d bfb6 fb3d
00000020: e3a5 03be d927 123e 5d82 50bb 552f e0bd
00000030: 1c79 cbbd 37b9 0a3e 80a6 10be b7d3 07bd
-0.40576658 0.33310512 0.006507895 0.08294322 0.31909326 -0.86729854 0.033013854 0.122907154
-0.1285625 0.14273013 -0.0031815984 -0.10946528 -0.09935209 0.13547216 -0.14126015 -0.03316089

block1.2.bn3.running_mean f4 [16]
00000000: 1b00 43be 2647 ae3e 7050 debe f300 073e
00000010: a166 713e 4455 f2bd e065 c6be 3a35 f2be
00000020: e918 d63d f315 16be b15b e13c 45a0 dbbe
00000030: e02e 4cbd c2a0 34bd 1752 c6be 6127 c3bd
-0.19043009 0.34038657 -0.43420744 0.13183956 0.23574306 -0.118326694 -0.387496 -0.47306234
0.1045397 -0.1465681 0.027509542 -0.42895713 -0.04984939 -0.044098623 -0.38734505 -0.09528995

block1.2.bn3.running_var f4 [16]
00000000: 621c 2c3e 40d0 143e 396f a33e ef71 6c3e
00000010: 65ab 603e 2026 3a3d ed76 2d3e 88fc 093e
00000020: 3cb0 653e 7142 ad3d 08ab 7c3d d16e 0140
00000030: f60c 563e 3734 833e 1e95 4b3f ddfc 523e
0.16807702 0.14532566 0.31920794 0.23090337 0.21940382 0.045446515 0.16939898 0.1347524
0.2243051 0.08459938 0.061686546 2.0223887 0.20903382 0.25625774 0.7952441 0.20604272

block1.3.conv1.weight f4 [8, 16, 1, 1]
00000000: 87a9 b2be 0f21 6fbe b2dc e4be f456 afbe
00000010: 70d9 053e af65 ddbd b0e3 5dbf 4baa cdbd
00000020: a613 b33c 1339 24be 7e11 773c 636b 1ebf
00000030: 39f2 e5be 5a82 c43e dfc5 9b3e 22e8 d6be
00000040: c8d9 553e 60d0 89be 2168 8fbd 5ac0 cdbd
00000050: 5a39 6ebe 5366 643e b03b febd 1e57 24be
00000060: 2b2d dbbd 5251 993e 0f03 09bf 57c2 a5be
00000070: 489f c4be a093 3a3d 3b42 6b3f 12b1 e63c
00000080: dcaa 81bf c710 b3be fb11 a6be d854 7dbe
00000090: b253 82be f2b0 c5be 6ed4 dabd 4553 5dbe
000000a0: 0b58 fdbd fc27 b8be 7a6c 56be c408 df3d
000000b0: 6fbf 7bbe 9fd2 043d 729f 00bf b26d 9f3d
000000c0: 7376 98be 9569 093e e7f2 013f 782f 7ebe
000000d0: c3a7 07bf 53b9 29bf 9f15 a4bd 151e 873d
000000e0: e457 7abe 48f7 923e b2ed d9bd 259a bbbd
000000f0: 2db4 d53d 46a8 003c 935a 0ebf d7ef 7d3d
00000100: 1282 003e ecdd cabe 4e33 dcbe 60e5 f4be
00000110: f754 e7be a94e 91be 473b 503e 887d a23e
00000120: a2ac 1d3e 032a 203f 218c 1b3e a45b 073e
00000130: 0ff3 e1be 8f8a 6d3e 69e7 1fbf f1fe e8be
00000140: 68a3 8dbe c81d 3a3d 786f 48bd e906 bdb9
00000150: f0ac e7bd 29d2 77be f270 82bc 0022 813c
00000160: e836 40bd d1d6 a8bc fb0a 503f cb1f d8be
00000170: b926 663e 67f4 f23c f317 dc3d 83fb 53bd
00000180: 8520 523d 94bd 303f c3f4 d73e 933d b03e
00000190: f899 e83d 0a00 ef3c 9e07 5e3d 7224 96bc
000001a0: 8d65 613e c07e 8e3d d122 9b3d 148c b0be
000001b0: ede7 68be 7673 0cba 71a4 1f3e c37b a9be
000001c0: 615f 033f b07c e83c f8db 4abe 1822 2dbe
000001d0: 0b45 5fbe 8f73 02be cd69 71be f055 cb3c
000001e0: 7ec5 8dbe 0495 1bbe e957 c83d a456 c23d
000001f0: 90a9 d0be 0ba5 5bbe 6efe 38be b808 6d3f
-0.34894964 -0.23352455 -0.44699627 -0.34246027 0.13071227 -0.1081041 -0.8667555 -0.100422464
0.021859955 -0.16037397 0.015079854 -0.6188261 -0.44911364 0.383807 0.304244 -0.41973978
0.20883858 -0.2691679 -0.07002283 -0.10046454 -0.23264065 0.22304659 -0.12413728 -0.16048858
-0.107019745 0.29944855 -0.5352029 -0.32374832 -0.38402772 0.045550942 0.91897935 0.028160606
-1.0130267 -0.34973738 -0.32435593 -0.24739397 -0.2545448 -0.3861156 -0.10685049 -0.21613796
-0.123703085 -0.35968006 -0.20939818 0.10890344 -0.24584745 0.032427426 -0.50243294 0.077845946
-0.2977787 0.13419183 0.50761265 -0.24822795 -0.5299036 -0.6629841 -0.080119364 0.065975346
-0.2444759 0.28704286 -0.1064104 -0.0916026 0.104347564 0.0078526195 -0.55606955 0.061996307
0.12549618 -0.39622438 -0.43007892 -0.4783125 -0.4518201 -0.28380325 0.20335113 0.31736398
0.15397885 0.62564105 0.15190174 0.13218552 -0.44130751 0.23197387 -0.6246248 -0.45507005
-0.27663732 0.045438558 -0.04893443 -0.00036054038 -0.11312282 -0.24201263 -0.015922997 0.015763283
-0.046927363 -0.020610245 0.81266755 -0.42211756 0.22475709 0.029657556 0.107467555 -0.051753532
0.051300544 0.69039273 0.42178926 0.34421977 0.11357492 0.029174823 0.054206483 -0.018327925
0.22011395 0.069577694 0.07575 -0.3448187 -0.22744723 -0.0005357781 0.15590073 -0.33102235
0.5131741 0.028379768 -0.19810474 -0.16907537 -0.21803682 -0.12739395 -0.23575516 0.024821252
-0.27689737 -0.15193564 0.097823925 0.09489182 -0.40754366 -0.21449678 -0.18065807 0.9259143

block1.3.bn1.weight f4 [8]
00000000: c688 363f 1d9c 5a3f dd46 2e3f e17d 243f
00000010: 423d 623f 5172 393f 3b7e 743f 12ef 9d3e
0.7130245 0.8539446 0.6807688 0.64254576 0.8837472 0.7244006 0.9550511 0.3084646

block1.3.bn1.bias f4 [8]
00000000: 7709 b33e 0664 4dbe 3566 6c3d b6e4 613e
00000010: efdc 223e b713 f2be 9f8f d0be a664 ff3e
0.3496816 -0.20057687 0.05771466 0.22059903 0.15904592 -0.47280666 -0.40734574 0.49881476

block1.3.bn1.running_mean f4 [8]
00000000: 8246 ddc0 a672 85bf f02c e0c0 3be3 ecbf
00000010: d473 1fc0 6c8f 353e 821f a03f bd6b 063f
-6.914857 -1.0425613 -7.0054855 -1.8506845 -2.4914446 0.17730492 1.2509615 0.52508146

block1.3.bn1.running_var f4 [8]
00000000: d614 a440 b99d 7240 30e6 8640 4046 5440
00000010: 3f3b 0041 d7df 3740 3412 3640 9344 0140
5.1275434 3.7908766 4.215599 3.3167877 8.014464 2.873037 2.844861 2.0198104
