assignment1/results/trial_2/resBottleneck/ckpts/24000.pt (torch, 562441 bytes, 242 tensors)

block1.0.conv1.weight f4 [8, 16, 1, 1]
00000000: dd34 9c3c 55e3 87bd d541 803d 4f7b cfbd
00000010: cbea da3d 9a57 3abd ffed 96bd d168 123c
00000020: e9d9 8d3e 1ccc 813d f32f 373d 7571 853e
00000030: e241 0d3e 19c5 bb3e ca95 a8be 62c9 8b3f
00000040: f6ad 82bd 7207 1abe 1e27 00bd 7f8b 32be
00000050: 6437 81bd 48b4 a4bd 0c45 a7be 7114 1cbc
00000060: 2dc0 b2be 5a17 193e 1fe8 04bf b9f9 8abe
00000070: 5313 c9be d4f4 45bc c50c 233e 9924 04bf
00000080: 57b0 b6be cda7 8ebd 61aa 1f3e 6bf2 0bbf
00000090: 1da1 86bc aab7 8dbc ebb4 103f e0dc 843c
000000a0: a0ef ea3d a9ac ca3d 9059 e3bf 6993 973e
000000b0: be3f 893e 500c aabe bfff ccbe 6416 10be
000000c0: cfc3 573d 9e30 b4be 4518 7fbe 7b3f 7bbe
000000d0: 2931 6e3e 5bc3 e93c bf09 78be 2d92 4d3e
000000e0: b198 9dbe 387f 993d bb99 afbc a488 2cbf
000000f0: 31dd 16bf 6e6b a0bd dc63 813e 2c74 30bf
00000100: 082c a53b b0ee 3dbf e919 35be 9576 04be
00000110: 9f5e b6bd fbdc 29be 346e 66be a09f 05be
00000120: 59f7 a9be c95c 47bd 65e8 c13d 30f2 88bc
00000130: e228 14bb 5542 1bbe dad2 4ebe 6170 4fbd
00000140: 3314 be3d 1da1 593e 788e cebe c44e 03bf
00000150: dc7f b3bd d9a2 6dbd 4998 133e 1375 983d
00000160: 5ed6 d53d f4a9 ca3d 4d1b 69bf e5c6 13bf
00000170: 22d4 01bc 8ec2 f03b d7fc b5be b958 323e
00000180: 3a1e cebd 3a27 453f 1e5d d23e 83b5 bcbd
00000190: 2e9a 423e 3b45 0dbe 86e0 11bf bfb8 a33d
000001a0: 2f7c 083f f576 e5bd 34f5 713e fca6 82be
000001b0: d026 4e3c 2092 f13e f776 093f 07f1 1f3e
000001c0: 0f43 54be cfff 4d3f 48e3 05be 33b4 57be
000001d0: 6af5 16be 33d1 7abd 9204 8cbe 5ea3 2dbd
000001e0: ddb7 073f d374 4c3c 4fb1 13bd 1be4 23bd
000001f0: 08c1 693e ea10 c83d 17ed 08bf 5cab a73e
0.019068176 -0.06635157 0.062625565 -0.10130941 0.106893145 -0.0454937 -0.07369613 0.008936123
0.27705315 0.06337759 0.044723462 0.26063123 0.13794664 0.3667381 -0.3292678 1.0920832
-0.06380837 -0.15041903 -0.031287305 -0.17436026 -0.06309393 -0.080421984 -0.32669866 -0.009526358
-0.34912243 0.14950314 -0.5191669 -0.27143648 -0.39272556 -0.012082297 0.1592284 -0.51618344
-0.35681412 -0.06965599 0.15592338 -0.54666775 -0.016434247 -0.017299492 0.5652606 0.016218603
0.11471486 0.098962136 -1.7761707 0.29604653 0.26806444 -0.3321252 -0.4003887 -0.14071041
0.052676972 -0.35193342 -0.24911602 -0.24535935 0.2326094 0.028535536 -0.24222468 0.20075293
-0.30780557 0.07494968 -0.02143561 -0.67396 -0.5893126 -0.078329906 0.252715 -0.68927264
0.0050406493 -0.74192333 -0.17685665 -0.1293586 -0.08904766 -0.16588204 -0.22502977 -0.13049173
-0.33196524 -0.04867247 0.09468154 -0.016717046 -0.0022607376 -0.15162022 -0.20197621 -0.050644282
0.092811964 0.21252866 -0.4034307 -0.5129206 -0.087646216 -0.05801663 0.14413561 0.07444205
0.10441278 0.09895697 -0.9105728 -0.57725364 -0.007924112 0.0073474115 -0.35544464 0.17416658
-0.10064359 0.7701298 0.41086668 -0.09214308 0.19004127 -0.1379594 -0.5698322 0.07994222
0.5331449 -0.1120433 0.23628694 -0.25518024 0.012582496 0.47181797 0.5369715 0.15619288
-0.20728706 0.8046846 -0.13074982 -0.21064834 -0.14742056 -0.061234664 -0.27347237 -0.042392127
0.5301493 0.012479025 -0.036057767 -0.04001246 0.22827542 0.09768851 -0.5348677 0.32747924

block1.0.bn1.weight f4 [8]
00000000: 1fb9 373f 2140 3f3f 5f17 803f e776 283f
00000010: 8c9b 8ebe f416 7d3f 3f9e 623f 309a 233f
0.7176685 0.7470723 1.0007132 0.6580643 -0.27853048 0.9886315 0.88522714 0.63907146

block1.0.bn1.bias f4 [8]
00000000: cc9f a8be 2990 babe 3397 933e d7bb f73d
00000010: aaa9 253f 6519 b8be d376 0bbf 105c b63d
-0.32934415 -0.3643811 0.28826293 0.120963745 0.6471201 -0.35956874 -0.54478186 0.08904278

block1.0.bn1.running_mean f4 [8]
00000000: 8b1c 2840 6116 8ac0 40b9 55c0 216b 93c0
00000010: 4107 f6bf 3b4a 5cc0 9402 393f a29e 72bf
2.6267421 -4.315232 -3.3394318 -4.6068273 -1.9220964 -3.4420307 0.7226956 -0.94773304

block1.0.bn1.running_var f4 [8]
00000000: 8a1f c640 5a4d 8e40 020f 4e41 223d 0741
00000010: 25f7 983f 9846 c440 beee df40 bb98 3840
6.19135 4.4469423 12.878664 8.452425 1.1950423 6.1336174 6.9978933 2.884322

block1.0.conv2.weight f4 [8, 8, 3, 3]
00000000: 552e 013d 9409 133e 3b29 7dbd 47c2 f93d
00000010: 275a ecbd 185d 78be 0ab5 8d3e 4d1c 2ebd
00000020: f958 123e e765 52bc 5bfa 173e c31e b8bd
00000030: 387a 473e 6e1f 083f 4048 cabd 81aa 1fbe
00000040: df65 5dbd 5af4 3f3d fabd 053d c744 b2bd
00000050: f8eb 23be 03f2 623d 6dbc e03c c7b5 c5be
00000060: 51a8 043d 55ce ee3c 7188 ba3d 3920 9dbd
00000070: c003 9bbd 80ce 95be 87e1 e53e c451 833f
00000080: 11ed 973e bfbf 8fbe 0842 fe3c 453f aabe
00000090: d1dc 26be d26a 163e fdc8 043e 495f e63c
000000a0: bad0 a1bc 9be9 393a e254 b4be 12cb 83be
000000b0: a548 18bd 3f62 74bd 3f51 91be 3b2c 513d
000000c0: 7077 3d3d efbe 523e 1986 4a3e aeef c0bd
000000d0: 3a73 583e e86d ccbc 821c 8cbd eb0b 063e
000000e0: 7064 543c 126d 643d ce75 653e 89d1 923c
000000f0: e5fb 8c3d 70fd a03e 3f82 0c3e d0ca a13d
00000100: a6a2 1b3d 1629 a33e f6e7 9abe ff16 82be
00000110: b342 773d fc2b e5bd 5ee8 d3bd e10c 9b3d
00000120: 6de2 30be abe1 2a3e 06d9 a13e 9f9d e9bb
00000130: cbde 92bd e011 e6bd 4ea3 793e 22e9 9bbd
00000140: 4011 34be d10e 803d 95a0 993e a023 a83d
00000150: 5bfa 18be fa02 f7be 52bf 12be 9079 be3b
00000160: 2869 c4bb 66d9 a33d 5d04 78bc 5dc0 ab3e
00000170: 91c5 dbbc d614 9bbe 3115 85bf c3cb 63be
00000180: 3b0d 793e 9be1 213f 7cfa 793e 5cf9 62be
00000190: 5d9e 123e 1776 87bd 5206 5c3e bb2f 25be
000001a0: 58e3 f83d 79b3 2b3e 07bb 8b3e bfee 15bc
000001b0: 13dc a3bd fa83 0d3e 923c b0bd ae74 ccbd
000001c0: 68ee 543e 13ce 21bc db69 ae3d 0fb2 fabb
000001d0: 6ca5 953d 5a4b 263e 5964 643e 6b9d 9abd
000001e0: 97c4 0ebf 8208 94be 8654 193e 13ab 693e
000001f0: 7361 a83d 86fe c23d 5e31 b7bb 09cf 843e
00000200: ac40 4a3d ec60 a33d da6d 393e b2af bd3d
00000210: ae16 1b3e d7c6 70bd a9a8 16be 9ac3 e7bc
00000220: ab4d 213c f28f babe 9c70 ec3d ef08 223f
00000230: 6098 113e 094e a03e 0c84 cbbd bb91 c2bd
00000240: 638e db3d 8e26 a93d 1635 083e 2ec0 0f3d
00000250: 1ff2 243d 6435 5ebd 22d7 9b3b 30f5 003d
00000260: dfec 10bd 49a4 b63d 339e 713d a52e a63d
00000270: b72b 173d ec27 e03c 4562 2eb9 2fbc 293a
00000280: f2da f8bc 0528 8dbc b3eb 313d fcfc 30bd
00000290: 58c3 adbd 21a1 933c ebe1 a3bd cc2a 46bd
000002a0: 398c 7cbd 865b 1f3d 37ec 35bc c8ca 0c3d
000002b0: 25de d43c 2ce7 46bd 5646 533d 3988 ea3d
000002c0: 5b4b e03c 6db4 cc3d 7389 403e 74da 8e3c
000002d0: 2cde a5bd 8100 7bbd 4080 51bd 971b a33c
000002e0: 8c05 17bc e0af b2bd 8253 c0bc 9ca7 143d
000002f0: 3371 85bd 01cb d43d 4879 fa3c 2ace d93c
00000300: 1c07 a73d d89a dc3c 87ad 6a3c ef58 a33d
00000310: 9fe2 3f3d 4627 57bc bb6b c23a dc38 8a3c
00000320: d8ff 1b3d 2547 0b3a 5727 af3d 6d5e 093e
00000330: 278b 163d f1e4 8dbd 6ba1 4cbb 8423 803d
00000340: a088 81bd f331 9abd 7dc1 d43d 0863 453c
00000350: 7c89 08bd f199 633d e191 bfb9 cc62 d7bd
00000360: 321f 193e 38ce 273d fdc8 a2be 7605 2c3e
00000370: b77b 9c3e 084d 7cbd 0b12 193d 3ccd cfbc
00000380: 3e82 10bd a021 d63d 6b92 973e 15ac 11be
00000390: 5566 5f3d d716 0a3e fe49 5cbe 06e7 3f3d
000003a0: e859 19be e4dc a4bd 6f9c 5fbe 0575 2a3f
000003b0: ab9b de3e 0b69 37be 8a37 5abe 3baf 3c3e
000003c0: a966 46be 7f9a 253e 3ee0 883e 2e4f 923d
000003d0: 22aa ae3e b6d4 433e f360 8abc 9c68 09bf
000003e0: 7aaa 78be 9a12 b33d e4c7 e8be b08b 88bd
000003f0: d238 583d 211c 67bd 3298 56be 0b31 9cbb
0.031538326 0.14359123 -0.0618069 0.121952586 -0.11540633 -0.24254262 0.27677184 -0.04250746
0.14291753 -0.012841678 0.14841597 -0.08990242 0.19480217 0.5317296 -0.09877062 -0.15592386
-0.05405223 0.04686389 0.03265188 -0.087045245 -0.16007984 0.05540658 0.027433598 -0.38615248
0.03238708 0.029151121 0.091080554 -0.076721616 -0.07569075 -0.2925911 0.44898626 1.0259328
0.29673055 -0.28075978 0.031037346 -0.33251396 -0.16295172 0.14689186 0.12967296 0.028121607
-0.019752849 0.0007092 -0.3522101 -0.25740868 -0.037178654 -0.059664007 -0.28382298 0.051067572
0.046256483 0.20580648 0.19777717 -0.09420715 0.21137705 -0.024954751 -0.06841375 0.13090484
0.012963399 0.05576808 0.2240822 0.01792218 0.068839826 0.31443357 0.1372156 0.079000115
0.03799691 0.31867284 -0.30255097 -0.2540817 0.060366344 -0.1119003 -0.10347055 0.07570816
-0.17273875 0.16687648 0.31610888 -0.0071293856 -0.07171401 -0.11233878 0.24378702 -0.07612826
-0.17584705 0.06252826 0.30005327 0.0820992 -0.14939253 -0.48244458 -0.14330795 0.005812831
-0.005993981 0.0800045 -0.015137759 0.335452 -0.026827605 -0.30289334 -1.0397092 -0.22245698
0.24321453 0.6323487 0.24411958 -0.22165436 0.14318223 -0.06614321 0.21486786 -0.16131489
0.121527374 0.16767682 0.27291128 -0.00915116 -0.0800096 0.13819876 -0.08605303 -0.099831924
0.2079407 -0.009875792 0.08516284 -0.007650621 0.07306942 0.16239682 0.22303905 -0.07549556
-0.5576872 -0.2891274 0.1497365 0.22819166 0.08221712 0.09521203 -0.005590602 0.25939205
0.049378082 0.07977471 0.18108311 0.09262027 0.1514537 -0.05878338 -0.14712776 -0.028291512
0.009845178 -0.36437947 0.11544916 0.6329488 0.14218283 0.31309536 -0.09937295 -0.09500452
0.107205175 0.08259307 0.133015 0.035095386 0.040269967 -0.054250136 0.0047558704 0.03148383
-0.035382148 0.08918054 0.05898876 0.081143655 0.036906924 0.027362786 -0.00016630541 0.000647488
-0.030377839 -0.017230997 0.04343767 -0.043210015 -0.084845245 0.018021168 -0.08002075 -0.048380658
-0.061657164 0.038905643 -0.011103681 0.034373075 0.025984833 -0.048560306 0.05158075 0.11451764
0.027379682 0.09995351 0.18802433 0.017438151 -0.080990165 -0.061279777 -0.0511477 0.019910617
-0.009217631 -0.08724952 -0.02347732 0.036292657 -0.06515732 0.103902824 0.03057541 0.026587564
0.08155653 0.026929304 0.014323599 0.07975947 0.046846982 -0.013131922 0.0014833132 0.016872816
0.03808579 0.00053130306 0.08552425 0.13414927 0.0367538 -0.06928433 -0.0031224142 0.06256774
-0.06324887 -0.07529058 0.103884675 0.012047537 -0.03333424 0.05556673 -0.00036539047 -0.10516891
0.14953306 0.04096815 -0.31793967 0.16798958 0.30563137 -0.0615969 0.037370723 -0.025366418
-0.03528046 0.10455632 0.29603896 -0.142258 0.05454095 0.13485275 -0.21512601 0.04685118
-0.14975703 -0.08049944 -0.21837018 0.6658481 0.4347814 -0.17911164 -0.21310249 0.1842622
-0.19375099 0.16172217 0.26733583 0.071440086 0.34114176 0.19124112 -0.016891932 -0.53675246
-0.24283782 0.08743782 -0.45465004 -0.06667268 0.052788563 -0.05642331 -0.20956495 -0.0047665886

block1.0.bn2.weight f4 [8]
00000000: 4704 fb3e 97eb 2e3f 99af 6f3c c404 3e3f
00000010: 82c0 b43c f893 993f 857b 573c 3749 c23e
0.490267 0.6832823 0.014629268 0.7422602 0.022064451 1.1998281 0.013152008 0.37946483

block1.0.bn2.bias f4 [8]
00000000: 8a4c 463e ad4a 333d c0f7 01be 32e2 1e3f
00000010: e483 08be 251c 9ebd bbe4 d0bd 2805 253f
0.19365135 0.04377239 -0.12692165 0.62063897 -0.13331562 -0.07720212 -0.10199877 0.6446099

block1.0.bn2.running_mean f4 [8]
00000000: ecfc 97bd fc8b dc3e a3f2 c5bb ddf1 bd3f
00000010: e5d8 74bb 755a 1d3f 08d4 af3e 4992 6fbf
-0.07421288 0.4307555 -0.0060408874 1.4839436 -0.0037360725 0.6146615 0.34341455 -0.9358259

block1.0.bn2.running_var f4 [8]
00000000: 1b69 8e3e 9006 1e3f cc3d 4e3d 3c13 de3f
00000010: 9ad9 8e3d e25c d83f e6e7 f63d 41d4 1f3f
0.27814564 0.61728764 0.050351903 1.734962 0.06975098 1.6903346 0.1205595 0.6243325

block1.0.conv3.weight f4 [16, 8, 1, 1]
00000000: 1faa 89bd 74ce 7dbb d054 32bc 7cd3 36bd
00000010: 8553 893d 35ed ccbe 5414 95bd 91b5 47bc
00000020: 3752 963e 7f20 913e 9453 aa3d 6dff c73e
00000030: cdf4 60bc d656 d93e 5f11 b63d 0583 b4be
00000040: 5c65 8dbe 00a0 e1bd 0567 dabd d998 bbbc
00000050: 036a 063d 10b8 17bf 2f22 583d a95c 54be
00000060: 68e6 92bd b692 0f3d 3227 9fbb c626 433e
00000070: da6e d43c cfa4 563e 1c57 223d 694d 8d3b
00000080: 4efe 1b3c 15c1 b8bd cf32 12be ddde 893e
00000090: 4bc9 9bbd 4ec8 2fbd 557b 0a3c be53 0a3d
000000a0: baf1 44bc 2d11 adbc fd8c 98bc d028 803d
000000b0: bf7c 913c b1b0 d83e 8ce4 c4bd 32b9 4bbd
000000c0: ae22 803d 6f70 95be 0bfd b63d 9d0e 85bf
000000d0: 912f 7c3d 655b 033c c9c6 ab3d 210e aebe
000000e0: d24b 32be 3879 3bbe e22e 983c 7030 f6bd
000000f0: d560 6e3d 43ed 0a3c 88f9 b0bd 68e0 fabd
00000100: e276 9f3d c6cf 89bd 019d 8dbd 19dc 813d
00000110: 895d 203d 3a81 263e c3cb b9bd a7ed c63d
00000120: bf0a d73e 9d45 28be 245a c33d 11bc 1abe
00000130: a472 34bd ceda 98be 3628 20bd ee6a c8be
00000140: b5f4 28be 8aec 563f 69fc d33d 7880 08be
00000150: 4eeb d43d c3e0 66bd 8a04 aabd 590e 243f
00000160: 9319 8ebe 72e6 86be b4eb 57bd f012 59be
00000170: 1ad9 f5bc e312 05bf 042b 4bbb fe9e ba3e
00000180: d6b6 8bbc 1c22 933d 1fd5 1ebd cd27 fdbd
00000190: 264c d33a ba29 47bf e549 b03b 3ff0 543e
000001a0: 53a3 073f e640 81be 5af0 c53d 8680 bebe
000001b0: 5388 943d 2507 49bb 8262 673d 52e2 873e
000001c0: d26f dabd 1847 353e d638 b43c cc72 0abf
000001d0: 0c56 6e3d 631a 09be c42a 333d 1e19 913e
000001e0: 1f2e d2be 5982 b03d 8cc8 c7bb e0b9 a8be
000001f0: ade5 fc3d f796 6ebf ac1d cf3c 3b73 8fbe
-0.06721901 -0.0038727792 -0.010884479 -0.04463528 0.06705383 -0.40024725 -0.07279268 -0.012189285
0.293596 0.28345105 0.083167225 0.39062062 -0.01373024 0.42449063 0.08890032 -0.3525621
-0.27616394 -0.11016846 -0.10664181 -0.022900032 0.032815944 -0.5926523 0.052766975 -0.20738472
-0.07172853 0.035052024 -0.0048569674 0.1905776 0.025931764 0.20961307 0.039633855 0.0043122065
0.00952108 -0.090212025 -0.14277194 0.26927844 -0.07606753 -0.042915635 0.008452256 0.03377127
-0.012020523 -0.021126354 -0.018621916 0.06257784 0.017759679 0.42322305 -0.09613904 -0.049737163
0.062566146 -0.29187343 0.08934983 -1.0395085 0.0615688 0.008017396 0.08387525 -0.33995155
-0.17411736 -0.1830796 0.018577043 -0.120209575 0.058197815 0.008479419 -0.08641344 -0.12249833
0.07786347 -0.06729083 -0.06914712 0.063408084 0.039151702 0.16260234 -0.090720676 0.09713297
0.42000386 -0.16432805 0.09538677 -0.15110804 -0.044054642 -0.29854435 -0.03910085 -0.3914408
-0.16499598 0.8395468 0.10350878 -0.13330257 0.10396443 -0.056366693 -0.08301647 0.6408439
-0.27753887 -0.2634769 -0.05271502 -0.2119863 -0.030010749 -0.51981944 -0.003100098 0.36449426
-0.017054956 0.0718424 -0.038777467 -0.12361107 0.0016120716 -0.77798045 0.0053799027 0.20794772
0.5298359 -0.25244826 0.09664984 -0.3720743 0.07252564 -0.0030674424 0.05649043 0.26539856
-0.10665859 0.17702901 0.021999758 -0.54081416 0.05818753 -0.13388972 0.043741956 0.28339475
-0.41050813 0.08618612 -0.006096905 -0.3295431 0.12348495 -0.93199104 0.025282703 -0.280176

block1.0.bn3.weight f4 [16]
00000000: 9cbd 923d a9be 973f 14a1 ae3e ba64 903e
00000010: 3800 e93c ee3a 49be 5cad 5f3f 1f80 163d
00000020: 00e4 8f3e 8c24 963e 1c99 153f a34b 913e
00000030: e133 4d3f 5383 3e3f 88cd a13e a767 893f
0.07165071 1.185506 0.34107268 0.28201848 0.028442487 -0.19651386 0.873739 0.03674328
0.28103638 0.29324758 0.5843675 0.2837802 0.80157286 0.74419135 0.3160212 1.0734757

block1.0.bn3.bias f4 [16]
00000000: 9e0f de3c aa20 05bf e2e4 503d 0c2c c73d
00000010: 0ec8 39be 0bb4 ec3c 9f5e 283f e6dc dcbd
00000020: 9144 12bf 6f74 d23e 52d2 a73e 1282 61bd
00000030: ff93 593d ed9e 773c 5843 603e 7f96 34be
0.027107056 -0.52002966 0.05099953 0.09725198 -0.18142721 0.028894445 0.6576938 -0.107843205
-0.57135874 0.41104457 0.3277765 -0.055055685 0.053119656 0.015113574 0.2190069 -0.17635535

block1.0.bn3.running_mean f4 [16]
00000000: 6c94 46be b12f ae3e 145c f0be 9ca5 463e
00000010: 6c26 283e acdd 083e 1dc1 79bf c24b 87be
00000020: a59f 273e c3b0 bfbe 1d9a fc3e 9d68 67be
00000030: 72d4 41be 360b ae3c 2cc6 4ebe 2876 4ebf
-0.19392556 0.3402076 -0.4694525 0.19399112 0.16420907 0.13365811 -0.9756029 -0.26424986
0.16369493 -0.37439546 0.4933633 -0.225985 -0.18928698 0.02124558 -0.20192784 -0.8064904

block1.0.bn3.running_var f4 [16]
00000000: e99e 3c3e 9d68 183f 55a3 bd3e 3a75 dc3d
00000010: 9f33 aa3c 1073 5e3e 1107 163f 8e3a ad3c
00000020: 10b5 f13c 5047 3a3e eb84 223e e235 103f
00000030: 003c 423f 8ac7 373e c691 733e 5c60 903f
0.18419994 0.5953463 0.37038675 0.10764547 0.020776568 0.2172358 0.5860453 0.021146085
0.029505283 0.18191266 0.15871017 0.5633222 0.758728 0.17947212 0.23786077 1.1279407

block1.1.conv1.weight f4 [8, 16, 1, 1]
00000000: 22eb fb3d d8e2 193e 7a93 073b 127e 83bd
00000010: 8994 423e a1e0 493e f13d 6c3e ee40 f0bc
00000020: 73f4 083d caa0 88bd 28ee a9be bd9c 4dbe
00000030: d30d 91bb c69a 08be 695f 203e d491 863d
00000040: 99ba 1dbf da18 073c 5b84 2ebd d5cc 103e
00000050: 8970 b2bc 8a64 1440 4bb2 353e b3e2 5e3b
00000060: b5ad b33d ba70 0e3e c567 acbd d9b3 d439
00000070: 87d7 1b3d 74bc 98bd 11df b8be 4227 cc3d
00000080: ae26 953d 4246 833e 079f 643e 91cc bb3e
00000090: e14e d43d 0a8d 473f ea0b 7cbe 4c41 65bd
000000a0: 243d a53d 8614 2b3e 198f a3be 304b 35bc
000000b0: 9be4 d0bd 46ae 853c 5e27 233e 54a9 27be
000000c0: 748a 42be 2232 a5be 25ea c23e 0b82 ffbe
000000d0: 0abd ccbd ee13 c7bf 4bff 86bd 3004 33bd
000000e0: 5c44 85bd 62e8 b6bd dc7a 283e 97e9 2a3e
000000f0: 8f5a 80bd e516 5ebd 8213 75be 09e7 f33e
00000100: 942f b13f 0708 863d a537 3ebe 3a43 3c3d
00000110: 079a d8bd 0bd2 a3be b162 843e 006b babb
00000120: 373e 503e 9deb 983d 1b00 45be 2f03 b43d
00000130: 9265 d4bd a855 af3d 8bd4 ffbd 326e 22be
00000140: 7e2a f4bb 0ed0 193e a6c6 f33d 94d9 b6bd
00000150: ef39 cf3d 84d8 07be a023 5e3e 6da9 3c3e
00000160: 98e7 623d 607f 293d 5a79 8a3d e40f 5abe
00000170: f4dd a9bd f195 3d3e 7254 4d3d ff5e cd3d
00000180: d8e8 c03d 151a 1b3f c40a e8bd e7b8 9e3e
00000190: 73bb f33d 5b8c a83e 2b2c 543e 2fad 3dbc
000001a0: 415b 673e 3603 853d 9f79 473f bf90 5cbe
000001b0: 9130 65bd d472 f33b 1c7b 18be 7a89 be3c
000001c0: a92f 0ac0 a465 26be 6eff f33a 6caf 53be
000001d0: 4915 45bd f598 a0bf e90c 9dbc a294 b5bd
000001e0: 9a72 34be 873b ff3d e3b9 28be 407c 423d
000001f0: 226a e43c 31b8 813d d7a9 213d 3006 0d3d
0.123007074 0.1502794 0.0020687268 -0.064205304 0.19001974 0.19714595 0.23070504 -0.029327836
0.03343625 -0.06671293 -0.3318951 -0.20079322 -0.004426697 -0.13340291 0.15661396 0.06570783
-0.6161285 0.008245671 -0.042606693 0.14140637 -0.021782177 2.3186364 0.17743795 0.0034009635
0.08773366 0.1391019 -0.0841823 0.00040569788 0.03804734 -0.074578196 -0.36107686 0.09968425
0.07282768 0.2563954 0.22326289 0.3667951 0.103666075 0.77949584 -0.2461392 -0.055970475
0.08068302 0.16707048 -0.31945112 -0.011065289 -0.10199853 0.016318452 0.15932986 -0.16373187
-0.18998128 -0.3226481 0.38069263 -0.49903902 -0.09996994 -1.5552957 -0.06591662 -0.043705165
-0.06507179 -0.08931042 0.16453117 0.1669067 -0.06267273 -0.054221053 -0.23933223 0.47637203
1.3842645 0.065445 -0.18575914 0.04596255 -0.105762534 -0.31996188 0.25856546 -0.005689025
0.20336233 0.07466815 -0.19238321 0.0878967 -0.103709355 0.085612595 -0.12491711 -0.15862349
-0.0074513545 0.15020773 0.119031236 -0.089282185 0.10118472 -0.13266188 0.21693277 0.18424006
0.055396646 0.04138124 0.06761427 -0.21295124 -0.08294287 0.1851423 0.05012936 0.10027885
0.094194114 0.60586673 -0.113301784 0.31000444 0.119009875 0.32919583 0.20719974 -0.011576935
0.22593404 0.06494753 0.77919954 -0.21539591 -0.05595452 0.00742946 -0.14890712 0.023258913
-2.159159 -0.1624971 0.0018615553 -0.20672387 -0.048116002 -1.2546679 -0.019171195 -0.0886624
-0.17621842 0.12462526 -0.1647716 0.047481775 0.02788264 0.0633396 0.039468613 0.03442973

block1.1.bn1.weight f4 [8]
00000000: daee a13c e60e 503f cae0 3d3f b1ee 1b3f
00000010: 6ef3 f43e 3af4 713b 09ec 893f 01d2 553f
0.019767214 0.81272733 0.74171126 0.6091109 0.47841972 0.0036919252 1.0775157 0.83523566

block1.1.bn1.bias f4 [8]
00000000: 43cf b9bd 73a0 973f b046 e5be 79d4 cd3e
00000010: b969 703f 50e1 a1bc d7e5 5abf 7fac 523e
-0.09072735 1.184584 -0.44780493 0.40201166 0.9391132 -0.019760758 -0.8550696 0.20573615

block1.1.bn1.running_mean f4 [8]
00000000: 1de5 453f c999 6d40 77b6 d63f 742c 6cc0
00000010: f100 5740 c0b1 bc3e ce24 4140 e685 2cc1
0.77302724 3.7125113 1.6774434 -3.6902132 3.3594325 0.36854362 3.0178714 -10.78269

block1.1.bn1.running_var f4 [8]
00000000: e814 633f c8ff 7041 9f7e 1c40 5e54 c240
00000010: 0558 aa40 4121 af3e 407c 8340 e2cd fe40
0.88703775 15.062447 2.4452283 6.0727987 5.3232446 0.34205058 4.108917 7.962632

block1.1.conv2.weight f4 [8, 8, 3, 3]
00000000: ab4c 03be 348e 94bd e451 bdbd c7c0 923b
00000010: dd84 eebb 6b55 b0bd c4f8 e23c bdd6 4ebd
00000020: bf0e 90bd 3ac1 a9bd 5a01 b5be 64e0 bbbc
00000030: 942a c13e 8dc7 473c 282a 0cbe 3686 a1bd
00000040: 2b38 053e e090 853d cf65 9b3e d746 353e
00000050: 967e 133e 117b 843c c37d 69be 7980 b8bd
00000060: 24ed 82be 81eb c0be 61e1 7abe b711 50bd
00000070: 9a17 543e d711 6abd 5176 d33d 1488 063f
00000080: 89c8 30bd 56fb 25bd 0c48 dbbd a4b6 2f3d
00000090: 6589 07bd edab 8bbe 6796 cf3d 5230 383c
000000a0: dc19 31bf c02a cd3e 7b52 cb3e 8a80 543e
000000b0: 65a0 993e a384 61bd efda 9abd de59 bc3b
000000c0: 6471 b33b 2609 4cbc afeb 783c 3165 a73a
000000d0: 6e92 9cbd bae9 71bc a722 d53d 1291 1c3e
000000e0: 3249 a03c f6fd 0b3f fdb2 3b3f a7b1 fd3e
000000f0: f4e5 fa3d 1c6f 5b3e d268 91bd cdc7 54be
00000100: f594 7e3f 7ce0 4fbf caca c73e bffc fb3f
00000110: eb10 28be ea73 f5be 806f 94bf a5e9 21be
00000120: 48c4 9fbd 9dc0 90bd 873f 703c 55ea 6abc
00000130: 2eae 8ebd 52eb 6dbd 2f5b debb ee71 05bd
00000140: 0ca8 38bc 9044 3fbd 2987 45bd dbb4 56bd
00000150: 2208 90bc c999 a6bc 5140 0cbd 9a33 06bc
00000160: 277f 083c 941c 093c eff1 a3bd 5da1 9dbd
00000170: 1625 1abd 2d0f fcbc c6ac 8ebd 95a8 a1bd
00000180: 579f 233d ee07 573c 4b0c 0e3c 96dd 203d
00000190: 0597 2abc 8f23 b4ba 5d12 a33d bd9c 1a3d
000001a0: 1441 fe3c beff 393d 78e5 e83c 9862 263d
000001b0: 9ad4 fabb 5f5c c23b e2f8 4dbd 581b c0bd
000001c0: 4b7b 3dbd a7a2 68bd f390 66bc 34be 8e3d
000001d0: 0674 fd3d f60c b7bc 99fc 6dbd 1e0b 18ba
000001e0: 02a1 abbd 30ca 8cbd 45eb 5dbc 6669 40bd
000001f0: 6800 8bbd 0c14 f2bc 4f59 6ebd 64e6 20bd
00000200: 287d 14bc 1bc7 52bd f52e c5bd a43e d0bc
00000210: e2cd ecbc 6026 42bd 1550 893d 6ee9 b63c
00000220: 8e3a 9f3d 0990 573d df3e a63d 47b3 803d
00000230: cab6 e838 8f0a 3b3d c8b0 333d d575 b43c
00000240: ab49 f8bc 12a4 923b eaec ecbb c5ac e0bd
00000250: 46c9 4bbd 9572 28bd dfd9 98bd 090c c5bd
00000260: 7c4e 12bd dfa9 aebd 7ba2 473f 6061 c63e
00000270: 1de6 86be 0681 f1bf 7f01 12be b44e 2b3f
00000280: e458 cdbe 3450 3b3e a8f6 ecbb 1b0b 1b3e
00000290: c470 e3bd a680 35be 652d afbe 8ad1 e0bd
000002a0: f93c ddbd 26e8 063d 4777 143e a881 ee3d
000002b0: 2711 fcbd 62da b6be 9cd4 bfbd 901d 283f
000002c0: 8041 8cbe f804 c5be c6fc f63e f15f 523d
000002d0: ef39 cbbd c7f4 16bf 1be8 9abd f43c d0bd
000002e0: f165 693e affa 713d aabb b1be d314 1f3e
000002f0: 47cf 4abd 5c99 3d3d 81d9 3abb de29 bcba
00000300: 374b cc3d 4fb5 0fbc 96f5 94bb bcf7 a23c
00000310: 64db d5bc 60f2 ca3c febe 0ebe 53e3 37be
00000320: 9eb7 d4bd d51e e4be 5066 bebe 3268 c4be
00000330: c4e0 b1be c229 48bd ab77 55be 3ec0 64be
00000340: 6a79 e63e 1428 bbbe b543 08be 03f2 8e3f
00000350: 6b14 6e3d 9ec0 60be e8da 5abe 0132 87be
00000360: f2c9 eebc 3395 483d 7ead 963c c248 21ba
00000370: da0e dbbb 4dee 2dbd dc1d c5bb f1b6 2bba
00000380: ca44 8c3d c427 203e 2475 2dbe e832 ddbe
00000390: 546e e03d 3a94 473f d82f adbe ea04 d1be
000003a0: f953 453d a670 9fbe 34fc 86be b5ee 20be
000003b0: beb1 d83d 2fea 2ebe 97c1 b4bd 01e0 49be
000003c0: 2363 afbd c8d6 4abe 31a8 183c 9f71 11be
000003d0: de76 4ebe bf98 b9bd ad45 52be 222d dcbe
000003e0: 3113 cbbd 3a22 7dbd baf2 57be ae1f 543e
000003f0: f50b ee3d d950 e83e 6871 053f 11f6 103e
-0.12822215 -0.072536856 -0.09244135 0.0044785473 -0.007279022 -0.08610042 0.027706511 -0.05049776
-0.070340626 -0.08288808 -0.35352594 -0.022934146 0.37727797 0.012193573 -0.13687956 -0.07886927
0.13009708 0.06521773 0.3035111 0.17702805 0.14403757 0.016171964 -0.2280188 -0.09008879
-0.2557155 -0.37679675 -0.24500038 -0.050798144 0.20712128 -0.05714592 0.103253014 0.5255139
-0.043159995 -0.040522896 -0.10707101 0.04289879 -0.033090014 -0.27279606 0.10136109 0.011241989
-0.69180083 0.40071678 0.39711365 0.20752159 0.30005184 -0.055058133 -0.075612895 0.0057480177
0.0054761637 -0.012453353 0.01519291 0.0012771246 -0.07645117 -0.014765197 0.10407 0.15289715
0.019566152 0.5468439 0.7331999 0.495496 0.12250891 0.21429104 -0.07100071 -0.20779343
0.9944604 -0.8120191 0.39021903 1.9686507 -0.16412704 -0.47939998 -1.1596527 -0.15811785
-0.078011096 -0.07067988 0.014663584 -0.014338096 -0.06966816 -0.058085747 -0.0067857723 -0.032579355
-0.011270534 -0.046696246 -0.048224602 -0.05241857 -0.017582003 -0.020337002 -0.034241024 -0.008191014
0.008331097 0.00836863 -0.080051295 -0.07696793 -0.037633024 -0.030768955 -0.06966548 -0.078934826
0.03994688 0.013124449 0.008669923 0.03927382 -0.010411982 -0.0013743507 0.07962487 0.037747134
0.031036891 0.04540991 0.028429732 0.04062137 -0.0076547386 0.0059314216 -0.05028618 -0.093802154
-0.04626016 -0.056795742 -0.0140726445 0.06969872 0.12375645 -0.022345047 -0.058102224 -0.00057999964
-0.08380319 -0.06874502 -0.013544862 -0.046975516 -0.06787187 -0.029550575 -0.05819064 -0.039282218
-0.009063043 -0.051459413 -0.09628097 -0.025420494 -0.028906766 -0.04739988 0.067047276 0.022328105
0.0777484 0.052627597 0.081174605 0.062841944 0.00011096669 0.045664366 0.043869764 0.022028843
-0.030308565 0.004475125 -0.007230391 -0.10970453 -0.049752496 -0.0411249 -0.074634306 -0.09621436
-0.03571938 -0.08528494 0.779823 0.38746166 -0.26347438 -1.88675 -0.14258383 0.66916966
-0.4010688 0.18292314 -0.007231552 0.15140955 -0.11105493 -0.17724857 -0.3421432 -0.109774664
-0.10802645 0.032936238 0.14498626 0.11645824 -0.12307959 -0.35713488 -0.09366724 0.6567011
-0.27393723 -0.38480353 0.48239726 0.051361028 -0.09923159 -0.5896725 -0.07563802 -0.10167876
0.22792794 0.05907696 -0.3471349 0.15535288 -0.04951408 0.046288833 -0.002851099 -0.0014355739
0.099752836 -0.008771255 -0.0045458777 0.01989352 -0.02610559 0.024773777 -0.13940045 -0.17957811
-0.10386585 -0.44554773 -0.37187433 -0.38360745 -0.34741795 -0.04886795 -0.20846431 -0.2233896
0.45014507 -0.36554015 -0.13307078 1.1167606 0.05812494 -0.21948478 -0.21372569 -0.26405337
-0.02914903 0.048970412 0.018393274 -0.00061525044 -0.00668512 -0.04246359 -0.0060155224 -0.0006550393
0.06849058 0.1564017 -0.16939217 -0.432029 0.109585434 0.7796055 -0.33825564 -0.40824062
0.048175786 -0.3114063 -0.2636429 -0.1571606 0.10580777 -0.17081521 -0.08825987 -0.19714357
-0.08563831 -0.19808495 0.009317444 -0.142035 -0.20162532 -0.09062337 -0.20534392 -0.43003184
-0.0991577 -0.06180022 -0.21088687 0.2071521 0.116233744 0.45374182 0.5212617 0.14156367

block1.1.bn2.weight f4 [8]
00000000: fa39 373f 4993 a23a 33b8 2b3f b68a 153f
00000010: 4e15 10bf cdb8 a13c 6243 713f 45c5 1f3f
0.7157284 0.0012403514 0.6707794 0.5841478 -0.5628251 0.01974144 0.94243443 0.62410384

block1.1.bn2.bias f4 [8]
00000000: 90b8 803f c83c 9cbc d9ee 8b3f 95c5 da3e
00000010: 3bb2 363d f446 babd b8bb 80be 3de0 6b3f
1.0056324 -0.019071952 1.0932266 0.42728868 0.044603568 -0.090955645 -0.25143218 0.92139035

block1.1.bn2.running_mean f4 [8]
00000000: f8b6 7d3f b017 b6bd 178a f1bf 02ec 37bf
00000010: 0a4a 8ebf 534e 64be c2f6 f6be 5ecb 28bf
0.99107313 -0.08891237 -1.8870267 -0.71844494 -1.1116345 -0.22295503 -0.48235136 -0.65935314

block1.1.bn2.running_var f4 [8]
00000000: 989c f53f 5b73 3f3e 1b9e 0840 5e23 a83f
00000010: 91df f13f ac7b 273f 9265 1540 0e1c 4740
1.9188414 0.18696348 2.13465 1.3135793 1.8896352 0.65423083 2.3343244 3.1110873

block1.1.conv3.weight f4 [16, 8, 1, 1]
00000000: 7853 cebe 7bd2 deba e135 623e 5d08 80bf
00000010: ee54 e1bd ee5c 643c 04a5 503e d997 b83c
00000020: 5292 f43d 8919 47bc 0f0a bdbe 75da f7bd
00000030: 75eb 153e be82 6bbd 8a68 c23d 14b1 a1be
00000040: 684c 0bbf db3a 113e da41 f4bc 7c6d 303e
00000050: 0b14 053e 75ab 0ebd b951 213f 987c 373e
00000060: d398 8b3e 27ad 743d 2574 82be 38a8 abbd
00000070: 1df7 b33c d13a 0d3d cc90 86be 317e 283e
00000080: 7598 d2bb ea97 e03d 17e4 28bf 0dad 323e
00000090: e2ec 093e ca25 33bd 620b 7abd ad18 a13f
000000a0: 05de 5dbd 13a5 da3d 88cc 08bf f9d5 e43e
000000b0: 61dc f8be 5388 e0bd d9f6 01bd bba4 65be
000000c0: aec2 05bf 0603 89bd 1ec2 f43e aa0b e3be
000000d0: 2dce cabd 457e bdbd 0112 eb3d 0893 e23e
000000e0: 1b2f 3dbf beab 69bb 18c7 073f c0a1 753d
000000f0: e1e3 f9bd 73ad 83bc 0e80 6dbe 302e 973e
00000100: ef91 463f 9d0f 763d dc65 553f d52c 04bf
00000110: 3e62 94be 8591 a13d 5e27 a7bd 464f d83e
00000120: 8d26 483d cd7e 2c3d c24c 123f be0b 7f3d
00000130: a2bc 1cbf 8099 6f3d f44f 503f 085f 3abf
00000140: 3b43 3abf 820e 7f3d d635 353f 7ec7 683d
00000150: 8ea2 7cbe 3dcd f5bd 78ad d0bd b741 81bd
00000160: 9981 2fbf 036c 8cbd baab 4d3e ffc7 e4bd
00000170: b24d c5be 8cab 833d 7cba 4c3e 1f05 223d
00000180: 3205 a63e 6d80 8fbb fdbc 1cbd 138d 453d
00000190: 5c2d 403e 64b2 843b 8780 3cbe bfae 59bd
000001a0: 986b 17bd 357c 43bd 1412 c43e 25ae 5a3e
000001b0: 7277 15bd f297 8bbd 6e88 68bf 0a3a a1be
000001c0: a46b b33e 1e5a 87bd b01b 503e 739a 143e
000001d0: 5fd6 e0bd f1f2 3d3d 39a2 aebe eec3 11bf
000001e0: 2979 09bf 9d75 8b3d ab6c 17be f96f 333e
000001f0: f32b 87be 36d7 19be 71e3 973e f058 5abe
-0.40298057 -0.0016999984 0.22090866 -1.0002552 -0.11002527 0.013938172 0.20375448 0.022533344
0.11941971 -0.012152084 -0.36921737 -0.12102214 0.14640601 -0.057497732 0.094925955 -0.31580412
-0.5441346 0.14182608 -0.029816557 0.17229265 0.12995927 -0.034831483 0.63015324 0.17918622
0.27265033 0.059735443 -0.25479236 -0.083816946 0.021968419 0.03447992 -0.26282346 0.16454388
-0.0064268657 0.10966475 -0.6597304 0.17448826 0.1346927 -0.04373721 -0.06104601 1.2585655
-0.054166812 0.10676017 -0.5343709 0.44694498 -0.48605636 -0.10963502 -0.031729553 -0.22426121
-0.5225018 -0.0669003 0.4780435 -0.44344836 -0.09902606 -0.092525996 0.11478043 0.442528
-0.739 -0.0035655345 0.5303817 0.05996871 -0.122016676 -0.016073918 -0.2319338 0.29527426
0.77566427 0.060073484 0.8335855 -0.5163091 -0.28981203 0.07889084 -0.081618056 0.4224798
0.04886489 0.042113114 0.57148373 0.062267058 -0.6122533 0.058496 0.81372 -0.72801256
-0.72758836 0.062269695 0.7078527 0.056830876 -0.24671385 -0.12002037 -0.101893365 -0.06311362
-0.68557125 -0.06856539 0.2008504 -0.11170959 -0.3853584 0.06429204 0.19993013 0.039555665
0.3242584 -0.004379323 -0.03826617 0.048230242 0.18767303 0.004049586 -0.18408404 -0.053145166
-0.036967844 -0.047725875 0.38295043 0.21355493 -0.036490865 -0.06816091 -0.90833175 -0.31489593
0.3504306 -0.06608985 0.20323062 0.14512043 -0.10978388 0.046374265 -0.3410814 -0.5693959
-0.537005 0.06809542 -0.14787547 0.17523183 -0.26400718 -0.15023503 0.29665712 -0.2132299

block1.1.bn3.weight f4 [16]
00000000: e4a8 d33e 14b5 aa3e 89d0 3a3e 7c41 5bbe
00000010: 34db aa3f cb01 cc3e b0de c63e 14ca a13f
00000020: 5329 df3f a8da 983f 370d e53e 200d 593e
00000030: 77c0 c73d e262 043f 506d 2b3e 6433 423e
0.4133979 0.33341277 0.18243612 -0.21411699 1.3348145 0.39845118 0.38841772 1.2639794
1.7434486 1.1941729 0.44736645 0.21196413 0.09753507 0.51713383 0.16740918 0.18964916

block1.1.bn3.bias f4 [16]
00000000: 4ec8 5fbe 133b c5be 570a 063e de15 40be
00000010: 4e6f 63bc b55b 66bf 19d2 39bc 2dea 823e
00000020: 7743 773d 2670 8f3e 0eb4 d1bc 04ba cdbd
00000030: e3b1 aabd fd59 dc3e 7d02 513c ee49 e6b9
-0.21853754 -0.38521633 0.13089882 -0.18758342 -0.013881518 -0.89983684 -0.011341595 0.25569287
0.060367074 0.2801525 -0.025598552 -0.10045245 -0.083347104 0.43037406 0.012756941 -0.000439241

block1.1.bn3.running_mean f4 [16]
00000000: 59cc 1dbf e400 1abf 8bee 33be 25f7 8b3d
00000010: 7436 123f dc63 45bf b5b1 5a3e 7ced aa3d
00000020: 9fef e53f 084d 843d 18d7 43bd d0f8 0abf
00000030: 4f89 8c3e cd99 b03c a19b ef3c 4edf 55bf
-0.61639935 -0.6015761 -0.17571466 0.068342485 0.5711434 -0.771055 0.21356852 0.08346078
1.7963752 0.06460005 -0.04781255 -0.5428591 0.27448508 0.021557713 0.029249014 -0.8354386

block1.1.bn3.running_var f4 [16]
00000000: 713d 763e 353e ca3d 25b9 803e ef70 af3d
00000010: 1a3c 0f3f 1916 0b3e b819 943e 5971 d23e
00000020: 4006 413f 0490 073f 0d2b dd3e fb57 933e
00000030: 31b7 8a3d 3b86 463e 5cb6 1c3e acc5 573e
0.24046876 0.09875146 0.25141254 0.08566462 0.5595108 0.13582648 0.28925872 0.41102102
0.7540016 0.52954125 0.43196908 0.2877806 0.06773222 0.19387142 0.1530394 0.210715

block1.2.conv1.weight f4 [8, 16, 1, 1]
00000000: 5467 913e 3bcc 133f 4c76 e53d e2f5 3fbb
00000010: 7114 203d b4c1 85bd 567b f3be c1b2 113d
00000020: a6e2 06be a761 783d 3b36 45be ddc2 8b3f
00000030: 4856 723e c9d0 81be 9076 173f fbfe 0fbe
00000040: 2056 ba3e ce92 cfbc c7ac 923c 5f21 16be
00000050: 1fc9 de3c 3e58 2fbe 4249 fe3d 7ff5 ecbc
00000060: 5e9b 173e 0257 5b3e 1447 ab3c da48 04be
00000070: 458a ad3c ae81 443e 3576 943c b911 ea3d
00000080: c8bb 29bd a9e8 743e 49f8 b9be 1a7d 383e
00000090: e730 903a da34 79bd bfc1 f53d ac67 5bbe
000000a0: 1dbe f5bd 5ed3 9bbd 984f 81be a5aa a4be
000000b0: 45ae 5ebe cc6f 90bd c7b8 583f 3e2a 183e
000000c0: 92c4 673f d691 15be a7a3 ef3d 2ec9 5f3e
000000d0: 064d 61bd b2f2 51bf c14b b4bd 81c6 c43e
000000e0: 5f2d 10bf b537 12be 8d62 b83d 981d 433d
000000f0: 48dc 3a3e de35 383d 519c 2dbe 66d7 d3bd
00000100: 0909 90bd 62ea 033e 2c52 aabe 1411 95bd
00000110: c017 cc3c d753 0c3d 0ec5 1fbe 1760 85bd
00000120: 770a 00be 311d 943d ff14 323f ae47 9b3e
00000130: 9f64 b5be eeac 0ebe 7981 5bbe dc4d c8bc
00000140: e4b9 e0bc 444c 7ebe 025c 80be bfef 82bd
00000150: 2884 3fbf 7c57 773e bf5a ec3e 1c96 833e
00000160: e3b1 89be e20c 08be 64cf d3be f28d 043e
00000170: 3416 97be aa9b 153f 5cb9 14bf ecd0 0e3e
00000180: 6a7d dcbe 2a82 493e 1fe4 9ebe 0200 c33e
00000190: fc49 a03e 46c8 293e 97b4 d93e e1cc c7bc
000001a0: 3926 42be ffee 8dbe e733 ce3d c618 24be
000001b0: a769 99bd 90b1 d2bc 909c 3c3c 5a24 97be
000001c0: 268b 3fbf 190b 0abf 3c73 03bd a515 0b3d
000001d0: 011f 6ebe 4227 7d3e fb5b c4be 7a3b cbbd
000001e0: eb02 b43e 69df a3be ab07 d8be b2a4 d73e
000001f0: d5be 703e 6445 27be 56fa 2cbf ed45 0fbd
0.28399146 0.57733506 0.11204204 -0.0029290845 0.039081994 -0.065310866 -0.47555035 0.035570864
-0.13172397 0.060640004 -0.19258969 1.0918843 0.23665726 -0.25354603 0.59165287 -0.14062111
0.36393833 -0.025338557 0.017904652 -0.14661168 0.027195511 -0.17123505 0.124163166 -0.028925655
0.14805362 0.2141991 0.020907916 -0.12918416 0.021184096 0.19190094 0.018122772 0.114291616
-0.041438848 0.23916878 -0.3632224 0.18016472 0.0011000902 -0.06084142 0.11999845 -0.21426266
-0.11999152 -0.076086745 -0.25256038 -0.3216144 -0.21746166 -0.070525736 0.8465695 0.14859864
0.9053432 -0.14606413 0.11701136 0.21854088 -0.055005096 -0.8201095 -0.088035114 0.38432696
-0.5631923 -0.14279063 0.09003172 0.047635645 0.18248093 0.044973247 -0.16954161 -0.10343818
-0.07032973 0.12882379 -0.33265817 -0.07278648 0.024913669 0.034259643 -0.15602514 -0.06512468
-0.12503992 0.0723213 0.6956329 0.30328125 -0.3542833 -0.13933155 -0.21436109 -0.024451189
-0.02743239 -0.2483378 -0.25070196 -0.06393384 -0.7481103 0.24154466 0.46162984 0.25700462
-0.2689353 -0.13286164 -0.41369164 0.12944773 -0.29509127 0.5844065 -0.58095336 0.13946885
-0.43064433 0.1967856 -0.31033418 0.38085943 0.31306446 0.16580305 0.42520592 -0.024389686
-0.18959893 -0.27721402 0.10068493 -0.16025075 -0.07490855 -0.025719434 0.011511937 -0.29519922
-0.748217 -0.53923184 -0.032092318 0.03395619 -0.23254015 0.24722007 -0.38351426 -0.09923454
0.35158476 -0.32006386 -0.4219335 0.4211784 0.23510297 -0.16335064 -0.6756948 -0.034978796

block1.2.bn1.weight f4 [8]
00000000: 871f 3b3f 12c7 0a3f cfb1 2f3f 4573 243f
00000010: 8b58 2a3f 8273 263f a39f 2b3f 40bd 3d3f
0.7309498 0.5421001 0.6863069 0.6423839 0.66541356 0.6502 0.6704046 0.741169

block1.2.bn1.bias f4 [8]
00000000: f199 093e 6671 89be 910f 423d 99e2 d23e
00000010: 7771 19be 511e 5f3e 7da3 a3be 6f11 9a3e
0.1343763 -0.2684433 0.047378127 0.41188505 -0.1498469 0.21788909 -0.3196067 0.30091426

block1.2.bn1.running_mean f4 [8]
00000000: 8d7b 2d40 99a1 d33f eb3b bfbe 98b7 ae3f
00000010: 424e 17bf b29a a5bf 0ef5 a4bf 9de4 8dc0
2.710666 1.6533691 -0.373504 1.3649778 -0.59103787 -1.2937834 -1.2887285 -4.434157

block1.2.bn1.running_var f4 [8]
00000000: 20ff 0441 128b 0f3f e9d6 8440 209f 9440
00000010: 9171 1740 a9a4 b740 6179 d33f 03b9 9a40
8.312286 0.5607158 4.151234 4.6444244 2.3663065 5.73885 1.6521417 4.8350844

block1.2.conv2.weight f4 [8, 8, 3, 3]
00000000: d26a d0bd 4f34 acbd ee78 bfbd 8e4b bbbe
00000010: d734 d3bd e3e8 fabd 794d 8e3d aeb2 c8bd
00000020: abf5 47be 68d8 293e b637 e43d 496f 47bd
00000030: cd64 3a3e 70bf a1bd 63bb 4dbe 3016 6d3e
00000040: 11d7 c83d ec01 9abd 91a5 1dbd 9bf7 813d
00000050: f872 2ebd 0b63 243c c670 883e 7548 2cbd
00000060: a8ae 92bd 4e21 88bd 88d4 b9bc 0d6d 21be
00000070: 8f03 d13d 8742 9e3e 303c d23c 6e0a 30bf
00000080: 6a41 5cbe 40fe 143f 9faa 3b3e 46da d1bd
00000090: 69de 7d3e 5d67 9b3e 92ed 9ebb 3b57 04bc
000000a0: abee 773e 6f7d ee3d 8d2b 04be ef03 c1bd
000000b0: 2110 383d 5aa4 2ebd 5e36 febd 127f 71be
000000c0: 4990 0e3f 0b2e 153e b3fc aabe 4d60 d0bc
000000d0: 938e 953d 44af 253e 8d54 313c db3b 9dbc
000000e0: 4e9e 78be 4077 643d e03a 293d c5b4 9abd
000000f0: 6523 2fbe d7d0 afbd 4501 4abe ca0f 2d3e
00000100: 6be8 f1bd f8b6 d0bd 0efe 91be fac4 2d3f
00000110: d20f 21bd 0aad aabe 45b5 dabe 9841 da3c
00000120: add6 4bbe bf47 423f e4a7 c7b9 16a4 b7bd
00000130: 4fd0 213f 67d4 543e 4f9d 99be c436 d7be
00000140: e765 bfbe 54af 00be da68 99bd 3202 22bd
00000150: 1990 fe3d e7d4 983c 9757 853c 8fab 663d
00000160: 4c29 d8bd 782d 493d e4ac d33d 118f 393e
00000170: d8da 39be 6c0b f23e 125f 0e3f abfb 91bc
00000180: f8a3 543e 9c36 af3d bc6a 0bbe 1ba2 cb3b
00000190: 7cd5 6bbd 6f38 743d c111 75bd 6fbb 4dbe
000001a0: 21ae 6cbc 878f 563d 57ec ccbe 9fc7 36bc
000001b0: 1919 28be 4e7a 5c3e 5b0e a7be ada7 a13d
000001c0: 181e ac3d e438 23be 996b 303d 377b 843d
000001d0: 7f75 ae3d 7f4f 3d3c 8fa0 a0be c4b7 45be
000001e0: bfd3 8d3d bb06 fbbd 02fb cebd ddb0 783e
000001f0: 813f 8e3e 5fbc 1b3d 3c6f 2cbe e113 4bbe
00000200: 127c 88be 3544 17be d75f 09bd 8183 ef3d
00000210: e3c7 04be cf62 bd3d 3809 bfbd adcf 163e
00000220: 691e 86bd 48ac 18be 8dcd 00be f46c cf3d
00000230: c33d 2b3d 225a 833d e42e 12be cb91 69bd
00000240: fc6e e4bd 11ce d73c e54d debd 54b9 9d3e
00000250: ebce 823f a517 d03e 85d6 3dbe fdf0 df3d
00000260: 7d5f 55be fbc5 2abd 767f 05bc b8c2 c0bd
00000270: e6e2 f63d 2e47 7a3c 139d d8bd 0285 1a3e
00000280: efa5 f43c 4f0e 63bd 5f36 ccbd fd84 ecbb
00000290: 8407 6fbe 67db 72be 2552 c2bd 8b6e a5be
000002a0: 5ddf a2bd b6ee 1f3e b990 f8bd e289 11be
000002b0: ac14 1e3e f412 b2bd f319 043e ec53 ce3e
000002c0: 9d16 7bbd f6dc 84be 4063 03be f5bf 25be
000002d0: da5b 623d 4e06 1a3e 6b50 5dbe 7dee 35bd
000002e0: 91d5 4d3e 62ae be3d b521 48be 33aa 29bd
000002f0: 54a5 183e c4fc 4e3d 9ac9 573e be35 00bd
00000300: bd5a df3d fe83 cabd d9d0 92be ee15 8a3e
00000310: 12e8 503e 1312 ac3d 203a 2ebd 23b9 193d
00000320: f690 4e3e ede4 20be 7a44 f139 46ba 9bbd
00000330: c095 84bb 583c 003d 3dd5 d53d 514a dabc
00000340: b665 833d 11ee 90be 9613 d23d 3c21 043f
00000350: ca1d e4bd 0ead 2cbd 1521 b43e 3402 30be
00000360: 2dba 84bd 2d33 dd3e 85c1 a9bd d6a4 c7bd
00000370: 89a5 20bd 2e54 68bd 64c2 fb3e cb4f 703e
00000380: e829 e63d 3346 0ebd 6971 4fbc 46db 2ebe
00000390: 2a71 1cbe ada3 48bd 444e 2fbe f7f5 f9bc
000003a0: 2a3d 03be a622 2dbd bfb1 e3bd 7783 5ebd
000003b0: 4d56 dfbd 1b82 063e dd3f 1c3e b410 373b
000003c0: 9adf 8fbe 7179 b53c 9d5a febd 1dbe b3bb
000003d0: 3ae5 5bbc ed70 74bc a6fc fcbe d65b 29bf
000003e0: cb71 88be 1e66 87bd 5240 8fbe 7142 b6be
000003f0: 9b78 023e 2522 b93e c20d 993e 028a 99bd
-0.10176624 -0.084084146 -0.093492374 -0.3658108 -0.10312813 -0.12251451 0.069483705 -0.097997054
-0.19527309 0.16586459 0.111434385 -0.048690114 0.18202515 -0.07897842 -0.20091014 0.23152995
0.09806646 -0.07519898 -0.038487975 0.06346055 -0.04259011 0.010033379 0.2664854 -0.042061288
-0.07162219 -0.06646977 -0.02268435 -0.15764256 0.10205757 0.3091013 0.025663465 -0.68765914
-0.21509328 0.58200455 0.18326806 -0.102467105 0.24791874 0.30352297 -0.004850098 -0.008077438
0.24212138 0.11645018 -0.12907238 -0.094245784 0.044937257 -0.042637207 -0.124127135 -0.2358363
0.5568891 0.14568345 -0.3339592 -0.025436545 0.073025845 0.1618014 0.010823381 -0.01919358
-0.24279138 0.05577779 0.041315913 -0.0755401 -0.17103346 -0.08584755 -0.19727047 0.16900554
-0.11811908 -0.101911485 -0.2851414 0.6787869 -0.039321728 -0.33335143 -0.42716423 0.026642606
-0.19906111 0.75890726 -0.00038081326 -0.08966844 0.6320848 0.2078415 -0.3000283 -0.4203397
-0.37382433 -0.12566882 -0.07490702 -0.039552875 0.12429828 0.018656207 0.016277118 0.056315955
-0.10554752 0.049115628 0.10335711 0.18120982 -0.18149889 0.4727434 0.55613816 -0.0178202
0.20765674 0.08555338 -0.13614935 0.006214393 -0.05757664 0.05962413 -0.059831385 -0.20091031
-0.014445812 0.052382972 -0.40024063 -0.011155992 -0.16415824 0.2153103 -0.3262814 0.0789331
0.084041774 -0.15939671 0.043071363 0.06468814 0.08518504 0.011554598 -0.31372496 -0.19308382
0.06925153 -0.12257143 -0.1010647 0.24286218 0.27782825 0.03802144 -0.16839308 -0.19831802
-0.26657158 -0.14772113 -0.033538666 0.11695004 -0.12966876 0.09247362 -0.0932793 0.1472766
-0.06548769 -0.1490947 -0.12578411 0.10128203 0.041806947 0.06413676 -0.142757 -0.057023805
-0.11153981 0.026343377 -0.10854701 0.30805457 1.0219396 0.4064304 -0.18538864 0.10934637
-0.20837207 -0.041692715 -0.008148065 -0.0941214 0.12054996 0.01527576 -0.105768345 0.15089801
0.02986428 -0.055433568 -0.09971308 -0.007218002 -0.2334271 -0.23716508 -0.09488324 -0.323109
-0.079527594 0.15618405 -0.12136979 -0.14212754 0.15437573 -0.08695021 0.12900524 0.40298402
-0.061300863 -0.2594983 -0.1283083 -0.16186507 0.055263378 0.15041468 -0.21612708 -0.044416893
0.20101 0.09310605 -0.19544108 -0.04142208 0.14906818 0.050534025 0.21072999 -0.031301253
0.10905979 -0.09888457 -0.28674963 0.26969856 0.20401028 0.08401885 -0.0425359 0.037530076
0.20172486 -0.15712328 0.0004601812 -0.07603888 -0.004046172 0.03130755 0.104410626 -0.026646765
0.06415884 -0.2830663 0.10257642 0.5161321 -0.11138494 -0.042157225 0.3518149 -0.1718834
-0.06480823 0.43203107 -0.08288864 -0.09748237 -0.039220367 -0.056720905 0.49171746 0.23467939
0.11238462 -0.034734916 -0.012661316 -0.17075834 -0.15277544 -0.04898422 -0.171197 -0.030512793
-0.12816301 -0.04226937 -0.11117887 -0.054324593 -0.109051324 0.13135569 0.15258737 0.002793354
-0.28100282 0.022152634 -0.12419627 -0.0054853098 -0.013421351 -0.014919502 -0.49411505 -0.66155756
-0.26649317 -0.06611274 -0.2797876 -0.35597566 0.1274132 0.36158863 0.2989331 -0.07497026

block1.2.bn2.weight f4 [8]
00000000: 4c64 ff3e 5113 6e3f 8601 883f 70df 0b3f
00000010: 3f8e 2f3f deee 0d3f e1ad 3e3f 5ff4 503f
0.49881208 0.92998224 1.0625465 0.54637814 0.68576425 0.5544261 0.7448407 0.8162288

block1.2.bn2.bias f4 [8]
00000000: 6a78 913d f4e1 51be f94d 8cbf 3649 af3d
00000010: 3c95 243d 7fbb eabc dfd7 18be 7afe ffbe
0.07103045 -0.2049635 -1.0961295 0.08558886 0.040181383 -0.028653858 -0.14926098 -0.49998838

block1.2.bn2.running_mean f4 [8]
00000000: e849 97be d13c d1bd d2e9 0b3f a575 a7bf
00000010: b4b8 cc3f 9353 be3e d412 87be 7eed a6be
-0.29548573 -0.10216678 0.54653656 -1.3082777 1.5993867 0.37173137 -0.26381552 -0.32603067

block1.2.bn2.running_var f4 [8]
00000000: cb0c e93e 55a4 9c3f afbb 803f 667c 593f
00000010: 2cf7 a43f e668 3b3f fd73 4d3f ca33 383f
0.45517573 1.223765 1.0057276 0.8495544 1.2887931 0.7320694 0.8025511 0.71954024

block1.2.conv3.weight f4 [16, 8, 1, 1]
00000000: 83ef b1be a165 d13d d41b 55bd 6d14 2bbf
00000010: 4f06 b23b 563f 203f be9e f93c 787b 29bd
00000020: 5dea fc3d bad1 a63e bac7 a8bc 461e a0bd
00000030: b007 d33e db66 a63d 0746 9f3e 2612 d63e
00000040: 11ec f0be fda2 3ebe fb10 d9be 44a8 76be
00000050: e9ca 583d 8b77 c1bc 49bf 2bbf ce0c 2c3e
00000060: 44b1 11bc db45 c03e 74d3 1d3d 8aa8 c4bd
00000070: 5693 5dbe 9e59 763e 5e1d 723e a9f1 da3e
00000080: e84d 393e b79f 373f e8d8 8fbe 95d5 133e
00000090: 4d44 20be 92d9 433e 270a febb 37f2 dc3c
000000a0: ba79 d13e 5447 933c 75c2 0a3d f600 cabd
000000b0: ad0c d9be 2869 cfbe 894d 1f3d e535 b1bd
000000c0: b63e b3be 6bc0 60be 548c 733e a3df 8bbe
000000d0: e249 58be 8b81 0fbf dda2 753e cb1b 7bbe
000000e0: 55b3 9ebe 6191 0f3c cf1a 67be 8c30 ecbe
000000f0: 1e66 e9be 7133 b1bd e894 8abe 6c12 38bc
00000100: c062 113e f0d2 963e 7042 5d3e 1896 1f3e
00000110: 0391 94be 64fb 34be 8834 8abc 0ffb 743e
00000120: 0ca6 c0bd 53c9 aebd 2128 40be 4794 26be
00000130: 734a f0bb c5d6 ba3d 9a4a 413b ba36 54be
00000140: bd1a 063e eaeb 8abd 4028 e53d 35e1 743e
00000150: 85e3 3bbe 8ff6 e1bc c097 453d e70f b0be
00000160: f59b 993c bc54 8cbe 752f c1bf ca16 3abe
00000170: f44d 1c3e 3599 b9bd 0aab 8cbe 2e64 073e
00000180: 12fa 1f3d 55e3 9ebd 07cf ebbe cc96 79bd
00000190: 7547 a03c 2420 7b3e 6f09 cd3d 3dbb 1c3d
000001a0: 3daa 353e 79d8 b2bc 98c9 0bbf 3c9b 253d
000001b0: 12ab 07be 08d3 353e 1524 3f3e 4eb6 84be
000001c0: 83aa adbd 05e7 6abf 1022 2f3c eb00 4fbe
000001d0: 1148 15bf 9150 b03e 0ed0 b23e 64bd 0bbf
000001e0: 417d ec3e 9583 72bd c44b 763e 3f31 58be
000001f0: 4527 45be 1a5b 8bbd b573 d9be 3d0b fcbe
-0.34753045 0.10224462 -0.052028492 -0.6682804 0.005432881 0.6259664 0.030471202 -0.041377515
0.12349389 0.32581884 -0.02060305 -0.07818274 0.41216803 0.08125087 0.31108114 0.4181072
-0.47055104 -0.18616863 -0.42395768 -0.24087626 0.052927885 -0.023616573 -0.67088753 0.1680176
-0.008892361 0.37553295 0.038531736 -0.09602459 -0.21638235 0.24057624 0.23644015 0.42762497
0.18096125 0.7172808 -0.28095174 0.14436944 -0.15651055 0.19125965 -0.007752675 0.026970966
0.40913182 0.017978348 0.033876855 -0.098634645 -0.42392483 -0.40509915 0.038892303 -0.08652858
-0.35008782 -0.21948402 0.23784 -0.2731906 -0.21121934 -0.5605704 0.23987909 -0.24522321
-0.30996194 0.008762688 -0.2256882 -0.46130788 -0.45585722 -0.0865239 -0.2706673 -0.011234861
0.14197826 0.29457808 0.21607375 0.155846 -0.29016885 -0.17674023 -0.016870752 0.23923896
-0.09406671 -0.08534493 -0.18765308 -0.16267501 -0.007333094 0.09122995 0.002949393 -0.20724002
0.13096137 -0.06783278 0.11189318 0.23914035 -0.1834851 -0.027583389 0.048240423 -0.34387133
0.018751124 -0.27408397 -1.5092608 -0.18172756 0.15264112 -0.09062425 -0.27474242 0.1322181
0.039056845 -0.07758204 -0.46056387 -0.060934827 0.019565323 0.2452398 0.10011565 0.0382645
0.17740722 -0.021831738 -0.5460448 0.040431246 -0.13248852 0.17756283 0.18666108 -0.25920337
-0.08479788 -0.9175876 0.0106892735 -0.20215194 -0.5831309 0.34436467 0.34924358 -0.5458586
0.4618931 -0.059207518 0.2405234 -0.21112536 -0.19253261 -0.068044856 -0.4247109 -0.49227324

block1.2.bn3.weight f4 [16]
00000000: b133 c83e 6bea ad3e 02e0 be3e 72dd aa3e
00000010: ab1e e83e f9b7 bf3e 2a2b c23e 6898 223f
00000020: 02af ef3e 52a8 ae3c 7bf0 7e3d cfae 933f
00000030: 3ae4 82be 8378 cf3e b14f 733f d82d 9d3e
0.39101937 0.3396791 0.3728028 0.33372074 0.45335898 0.37445047 0.37923557 0.63513803
0.46813208 0.021320496 0.06224106 1.1537722 -0.25564748 0.4052163 0.95043474 0.30699039

block1.2.bn3.bias f4 [16]
00000000: 1315 d7be b54a 8e3e 345e 673d ce71 2a3e
00000010: 124b a83e 3e80 5abf 04ea 4c3c 5037 073e
00000020: 286c c9bd f506 d23d 9cbb 10bd f17f 0cbe
00000030: 1b42 d2bd 3ab5 633e 2b29 f2bd 15c8 7abd
-0.42008266 0.27791372 0.056486323 0.16644976 0.32869774 -0.8535193 0.012506966 0.13204694
-0.09835082 0.10255233 -0.03533517 -0.13720681 -0.10266515 0.22237101 -0.118242584 -0.06122597

block1.2.bn3.running_mean f4 [16]
00000000: 3510 fabd 31f8 b13e 7cfc c0be 983e 323e
00000010: bb8c 673e f9f5 01be 638b a6be 8af3 d7be
00000020: 7b68 bb3d 5893 00be 4d38 05bc 5628 a4be
00000030: 1f63 60bc 51a3 e1bc 6fbd d7be 1ab3 2cbe
-0.122101225 0.34759668 -0.3769263 0.1740669 0.22612278 -0.12691487 -0.3252822 -0.42177993
0.091507874 -0.12556207 -0.008131099 -0.32062024 -0.013695507 -0.027543696 -0.42136714 -0.16865197

block1.2.bn3.running_var f4 [16]
00000000: 7406 f23d 5663 2a3e 63bf 853e e728 6b3e
00000010: 8d19 773e 5ff3 673d c331 323e a3bd ea3d
00000020: 135a 423e 29df 803d 9c10 4b3d 876e aa3f
00000030: 6e3a 043e 8c4d 263e 34a9 473f ce71 0d3e
0.11817637 0.16639456 0.2612258 0.22964822 0.2413084 0.05662858 0.17401795 0.114619516
0.18979673 0.062925644 0.049576387 1.331498 0.12912914 0.1624052 0.7799256 0.13812944

block1.3.conv1.weight f4 [8, 16, 1, 1]
00000000: d8a1 9bbe d2bb 69be 7512 bdbe a7d7 d3be
00000010: 391e d33d 821b 6bbe e9c1 69bf 7d3b fcbd
00000020: 0029 743d 2164 2ebd bd0e 6ebd 6e15 16bf
00000030: 3856 cdbe f0db aa3e 0803 dc3e 6ffc babe
00000040: 9b53 9b3e b657 80be cebc dbbd a8a9 afbd
00000050: 678f 32be ae78 1f3e 4f2b f1bd be63 24be
00000060: a6f5 0dbe c225 a93e 7ae7 fcbe 50ad 8fbe
00000070: 1c80 b8be c814 743b ecbf 733f 5071 b93d
00000080: b9cb 71bf 11bd cabe 59f7 97be d880 b5be
00000090: 27a2 9abe f81b debe 7dc6 26be f695 6cbe
000000a0: 1388 f5bd 8c1d b6be 69e9 2abe 8194 043d
000000b0: 6d85 86be 2894 d83c a6d0 e9be 77fe 9d3d
000000c0: 398d 4abe 9068 1e3e dca2 103f 073b 3ebe
000000d0: dd05 0fbf e5fd 2dbf 3f41 e63c 73ca 553d
000000e0: a5ab 76be 87eb 8b3e 7c39 75be da21 5bbd
000000f0: 41bb 103e 40a1 8c3d a995 d4be 8ca7 693d
00000100: 9560 273e 5603 c1be 2d29 9abe 36ce 08bf
00000110: 788f e0be 9b45 7dbe 2646 d63d bf80 b83e
00000120: 5231 4e3e f649 2f3f 8ddd 103e b4c0 203e
00000130: a2c8 f0be 0730 433e ca1a 0cbf 6e95 debe
00000140: 7e84 9bbe 2e1e a53d 36dd d9bd 5bda ed3c
00000150: e221 8dbd a2d1 7bbe da74 b23b d31d c43c
00000160: fa9a 36bd 419c f93c abed 453f 568b e7be
00000170: 26fa 653e 7000 723c de41 583d 7eae 1abd
00000180: 9e79 003d 809e 353f 90fa 963e 2779 a53e
00000190: a793 a63d 8c9f 543d 655a 21bd 69c7 9cbd
000001a0: 6ac7 843e d0e4 273d 8c29 a63d b0ed b2be
000001b0: 173e 9fbe 3e6a 883b 35af f13d 986d a5be
000001c0: 64dd f33e 46fb 4d3d a37c 70be 85fa 40be
000001d0: bcab 1fbe c61e 05be b9fe 33be 47ef d63c
000001e0: 1a2d 82be ec78 1cbe 4511 5c3e 1ecd bd3d
000001f0: 3ae0 c9be 25bf 63be e5ad b4bd 84bc 703f
-0.30396914 -0.22825554 -0.36928144 -0.41375467 0.10308499 -0.22959712 -0.9131151 -0.12316034
0.059609413 -0.04257596 -0.058119524 -0.5862645 -0.40104842 0.33370924 0.42971063 -0.36520717
0.30337223 -0.25066918 -0.10729371 -0.08577281 -0.17437516 0.1557338 -0.117758386 -0.16053674
-0.13863239 0.3303662 -0.49395353 -0.28061914 -0.3603524 0.0037243832 0.95214725 0.09054816
-0.9445148 -0.3959737 -0.296809 -0.35449862 -0.30201837 -0.43380713 -0.16286655 -0.2310408
-0.11988845 -0.35569417 -0.16690601 0.032368187 -0.2627367 0.026437834 -0.45667 0.07714551
-0.19780435 0.15469575 0.56498504 -0.18577205 -0.5586832 -0.6796554 0.028107284 0.052195024
-0.24088915 0.2732813 -0.2394771 -0.05349908 0.14133932 0.068666935 -0.41520432 0.05704455
0.16345437 -0.37697858 -0.3010954 -0.5343965 -0.43859458 -0.24733584 0.104625985 0.36035725
0.20136002 0.6847223 0.14147015 0.1569851 -0.4702807 0.1906129 -0.54728377 -0.4347338
-0.3037452 0.08062397 -0.10637896 0.029034784 -0.06891228 -0.24591687 0.0054460587 0.023940003
-0.04458139 0.030470015 0.7731578 -0.45223492 0.22458705 0.014770612 0.05279719 -0.037764065
0.031365983 0.70944977 0.2948804 0.32318994 0.08133631 0.05190997 -0.039392848 -0.07655222
0.2593339 0.040989697 0.08113393 -0.34946966 -0.31102058 0.0041630557 0.11800996 -0.32310176
0.47629845 0.05028846 -0.23485045 -0.18845566 -0.15592855 -0.1300002 -0.17577638 0.026237143
-0.25425035 -0.15280503 0.21490963 0.092676386 -0.39428884 -0.22240885 -0.0882223 0.9403765

block1.3.bn1.weight f4 [8]
00000000: 1da9 323f b0fd 503f 3a07 213f 7bd6 2e3f
00000010: bf3c 5b3f 1cb8 483f 0bed 723f 6407 dc3e
0.69789296 0.81637096 0.6290165 0.6829602 0.85639566 0.7840593 0.9489295 0.4297439

block1.3.bn1.bias f4 [8]
00000000: 397a ab3e 66a7 7dbe 62f5 d53d 6333 d03d
00000010: 3075 8a3e 12b1 d8be 5245 cabe a7ba d23e
0.33491686 -0.24770889 0.10447194 0.10166051 0.27042532 -0.42322594 -0.39506012 0.4115803

block1.3.bn1.running_mean f4 [8]
00000000: 4316 c6c0 911f 91be 2593 dfc0 d2db 8dbf
00000010: 0585 0dc0 9b45 c83d e517 f53e 7ed3 5c3f
-6.1902175 -0.28344396 -6.986712 -1.1082709 -2.2112439 0.09778901 0.47869793 0.8626021

block1.3.bn1.running_var f4 [8]
00000000: 3156 9740 8910 6240 3de8 7440 be0c 5040
00000010: 386c ce40 4cbe 4d40 3613 4c40 faf7 f93f
4.7292714 3.5322592 3.8266747 3.2507777 6.4507103 3.2147398 3.1886725 1.9528801
