assignment1/results/trial_2/resBottleneck/ckpts/29000.pt (torch, 562440 bytes, 242 tensors)

block1.0.conv1.weight f4 [8, 16, 1, 1]
0	0x3e0e811b	0.13916437
1	0xbd81dea6	-0.06341295
2	0x3e381c2c	0.17979497
3	0xbdac1344	-0.08402112
4	0x3daa7905	0.08323864
5	0x3d05300b	0.03251652
6	0xbd8835ac	-0.06650862
7	0x3be40532	0.006958627
8	0x3e60f825	0.2196966
9	0x3d4a2605	0.049352665
10	0xbbd6faac	-0.006560644
11	0x3ea1656d	0.31522694
12	0x3e031cac	0.12803906
13	0x3eadd4fd	0.3395156
14	0xbebd2634	-0.3694321
15	0x3f796bb9	0.97429997
16	0xbd697934	-0.057000354
17	0xbe8de8f0	-0.2771678
18	0xbd2739b2	-0.040826507
19	0xbe3ef745	-0.18649013
20	0xbd493e65	-0.04913177
21	0x3d574836	0.0525591
22	0xbed1b2da	-0.40956765
23	0xbbf314d5	-0.007418255
24	0xbeba646d	-0.36404744
25	0x3dee6d38	0.116419256
26	0xbf0a90fa	-0.54127467
27	0xbeb6b142	-0.35682112
28	0xbebde273	-0.3708683
29	0x3c8875d0	0.01665774
30	0x3e038376	0.12843117
31	0xbeb9582b	-0.3620008
32	0xbea0fbbb	-0.31442055
33	0xbe1f8317	-0.1557735
34	0x3e06e288	0.13172352
35	0xbf13b191	-0.5769282
36	0xbc51ac86	-0.01279748
37	0xbd9cb52c	-0.07651743
38	0x3f00cb20	0.50309944
39	0x3c4eec35	0.012629558
40	0x3dc1a449	0.09455163
41	0x3d9dd307	0.07706266
42	0xbfdcc4f4	-1.7247605
43	0x3eb2139c	0.34780586
44	0x3e4512d6	0.19245467
45	0xbe54c13b	-0.20776837
46	0xbec100cc	-0.3769592
47	0xbe1c4fcf	-0.1526482
48	0x3ce4da59	0.027936148
49	0xbecbecb5	-0.3982903
50	0xbe0d1c2d	-0.1378028
51	0xbdbcec9a	-0.09224816
52	0x3e397b72	0.18113497
53	0x3b870f6c	0.0041217115
54	0xbec4464f	-0.3833489
55	0x3e20146e	0.15632793
56	0xbe98e9a4	-0.29865754
57	0x3d6f0eff	0.05836391
58	0x3b548697	0.0032428855
59	0xbf3238e3	-0.6961805
60	0xbf0d9048	-0.5529828
61	0xbd947b77	-0.072501116
62	0x3e725bcf	0.23667835
63	0xbf19ab19	-0.600267
64	0xbdbdc30d	-0.092657186
65	0xbf4ae7cf	-0.7925996
66	0xbd8cd4c8	-0.06876522
67	0xbe243672	-0.16036394
68	0xbd8e0340	-0.06934214
69	0xbd804c5e	-0.06264566
70	0xbea0bf34	-0.31395876
71	0xbdd01b84	-0.10161498
72	0xbea80f4a	-0.32824165
73	0xbd1b3ec7	-0.037901666
74	0x3e03435f	0.12818669
75	0xbca1a488	-0.019731775
76	0x3d953d6e	0.072871074
77	0xbe2bae55	-0.16765721
78	0xbe5b6fc8	-0.2142936
79	0xbd72f05a	-0.05931125
80	0x3de3937e	0.11112116
81	0x3e789e74	0.24279195
82	0xbebe41c7	-0.3715956
83	0xbeeefdc6	-0.4667799
84	0xbd8bc719	-0.06825084
85	0x3c846020	0.016159117
86	0x3e26e05d	0.16296525
87	0x3d6d7078	0.057968587
88	0x3ddbf599	0.107402034
89	0x3d9dd0ed	0.07705865
90	0xbf632258	-0.8872428
91	0xbf1681db	-0.58791894
92	0x3d2b6694	0.041845873
93	0x3c2810e6	0.010257935
94	0xbe94a08e	-0.29028744
95	0x3daff761	0.08592106
96	0xbe3d1f0a	-0.18468872
97	0x3f4478f4	0.7674706
98	0x3eb9a1a5	0.36256137
99	0xbdc29099	-0.09500236
100	0x3e1789d1	0.14798667
101	0xbdc67320	-0.09689927
102	0xbf1bd552	-0.60872376
103	0x3d7efb91	0.06225163
104	0x3f070311	0.52739054
105	0xbdb2afa0	-0.08724904
106	0x3eaab366	0.33339995
107	0xbe04a2c0	-0.12952709
108	0x3d35559a	0.04427109
109	0x3edb7553	0.4286295
110	0x3ec6341a	0.38711625
111	0x3dd25984	0.1027098
112	0xbe3ee57f	-0.18642233
113	0x3f553937	0.8329043
114	0xbd94912e	-0.07254253
115	0xbeb5aad6	-0.354819
116	0xbdeb1b04	-0.11479762
117	0x3cfee90a	0.031116981
118	0xbe404af6	-0.18778595
119	0xbd0736a7	-0.033011105
120	0x3f0b2d38	0.54365873
121	0x3c1f3641	0.009717525
122	0xbd9d5d84	-0.07683852
123	0xbd7cd60d	-0.061727572
124	0x3efeaf7b	0.49743256
125	0x3e0c2165	0.13684614
126	0xbefb267b	-0.49052796
127	0x3d07f8b3	0.033196162

block1.0.bn1.weight f4 [8]
0	0x3f2b6330	0.66948223
1	0x3f47785e	0.7791804
2	0x3f8208c2	1.0158923
3	0x3f1b81ef	0.6074514
4	0xbe97071d	-0.29497615
5	0x3f804564	1.0021176
6	0x3f50cb3c	0.8156011
7	0x3f10fa65	0.5663207

block1.0.bn1.bias f4 [8]
0	0xbe994e07	-0.29942343
1	0xbea877a1	-0.3290377
2	0x3e676f26	0.22600994
3	0x3e98a37e	0.29812235
4	0x3f21e7a4	0.6324408
5	0xbecd12d7	-0.40053436
6	0xbf0d066c	-0.55087924
7	0x3e12e8ca	0.14346614

block1.0.bn1.running_mean f4 [8]
0	0x403e6750	2.9750557
1	0xc07ad335	-3.919141
2	0xc05a2e4f	-3.4090765
3	0xc088f3b1	-4.2797475
4	0xbfecf33a	-1.8511727
5	0xc03357c1	-2.802231
6	0x3f014c0a	0.5050665
7	0xbf042ee8	-0.51634073

block1.0.bn1.running_var f4 [8]
0	0x40939b30	4.612694
1	0x406f6612	3.7406049
2	0x413e53ba	11.895441
3	0x40cbc7cd	6.3681397
4	0x3f6d3ab3	0.9266769
5	0x40a7df5b	5.246015
6	0x40b9d62b	5.8073936
7	0x4046b192	3.104588

block1.0.conv2.weight f4 [8, 8, 3, 3]
0	0x3d92df5f	0.07171511
1	0x3e233441	0.15937902
2	0xbd0c4dba	-0.034253813
3	0x3cc3af85	0.023887405
4	0xbe066522	-0.13124517
5	0xbe9647e0	-0.2935171
6	0x3df9e3f7	0.12201684
7	0xbdcd1bcd	-0.10015068
8	0x3e0a035d	0.13477845
9	0xbd88dd1f	-0.066828005
10	0x3e0d3718	0.13790548
11	0xbdf71bbe	-0.12065838
12	0x3e18de03	0.14928441
13	0x3f1bee5d	0.6091059
14	0xbe1796c8	-0.14803612
15	0xbe4f46a3	-0.2024179
16	0x3d39677a	0.0452647
17	0x3bd3a6fe	0.006459116
18	0x3d0efcb9	0.034908984
19	0xbdfa721a	-0.122287944
20	0xbe7b0c18	-0.24516332
21	0x3c26ecc4	0.010188285
22	0x3dc0651f	0.09394287
23	0xbe8992e5	-0.26869884
24	0x3cbfcc7c	0.023412935
25	0xbcaf73f2	-0.021417592
26	0x3d8478f5	0.06468383
27	0xbe479e10	-0.1949389
28	0xbe1a28b9	-0.15054597
29	0xbe80a909	-0.25128964
30	0x3ef70cab	0.48251852
31	0x3f84372a	1.0329335
32	0x3e8c42d9	0.2739475
33	0xbe8001ee	-0.25001472
34	0x3df00e62	0.11721493
35	0xbe9e1ce6	-0.30881423
36	0xbddcd471	-0.107827075
37	0x3db30169	0.08740503
38	0x3dfe434b	0.12415179
39	0x3cf9c45a	0.030489136
40	0xbdf40b19	-0.11916179
41	0xbbcc45bf	-0.0062339003
42	0xbe87693a	-0.2644747
43	0xbe960925	-0.29303852
44	0xbcd5b76f	-0.026088445
45	0xbd2b40b9	-0.04180977
46	0xbe802671	-0.25029328
47	0x3d9b344e	0.07578336
48	0xbc2bc60a	-0.010484228
49	0x3e2cc224	0.16870934
50	0x3e0b1584	0.13582426
51	0xbd8a62ed	-0.0675715
52	0x3e1e2be0	0.15446424
53	0xbde21118	-0.110384166
54	0xbded8359	-0.11597318
55	0x3d996ca0	0.07491422
56	0x3d9c844d	0.07642422
57	0x3d6499c1	0.055810694
58	0x3e37d8c2	0.1795378
59	0x3d11872a	0.035529293
60	0x3d2c4193	0.042054724
61	0x3e839212	0.2569738
62	0x3debaa8b	0.11507138
63	0x3dcb19b1	0.099170096
64	0x3d630fd4	0.055435017
65	0x3eb2be7b	0.3491095
66	0xbe4e38cc	-0.20138854
67	0xbe60204d	-0.21887322
68	0x3e064c2b	0.13114993
69	0xbd59def9	-0.05319116
70	0xbde4b0b1	-0.11166514
71	0xbd727d45	-0.059201498
72	0xbe14d47a	-0.14534178
73	0x3d0e39d5	0.03472312
74	0x3e480e20	0.19536638
75	0xbd609ae6	-0.054835223
76	0xbd3a38c8	-0.045464307
77	0x3d21b7a1	0.039481763
78	0x3e24a846	0.16079816
79	0xbdd12663	-0.102124
80	0xbd9ffc39	-0.078117795
81	0x3e4944ca	0.19655147
82	0x3e873316	0.26406163
83	0x3dcc2f0c	0.09969911
84	0xbe3916ee	-0.18075153
85	0xbefde855	-0.49591318
86	0xbda5d464	-0.08097151
87	0x3a9f29a2	0.0012143145
88	0x3d0eaee5	0.03483476
89	0x3dadcb29	0.08486015
90	0x3dfcb8a8	0.12339908
91	0x3e997d41	0.29978374
92	0xbc0df334	-0.008663941
93	0xbead339a	-0.3382843
94	0xbf88494a	-1.0647366
95	0xbdcd2762	-0.10017277
96	0x3e3dd27a	0.18537322
97	0x3f2cd8a0	0.67518044
98	0x3e5d473a	0.21609202
99	0xbe4a3c15	-0.19749482
100	0x3db44523	0.08802249
101	0xbe150850	-0.14553952
102	0x3e7fb4e2	0.24971345
103	0xbda25219	-0.07925815
104	0x3dc9723c	0.098362416
105	0x3e0cc650	0.13747525
106	0x3e9e372c	0.30901468
107	0x3da28493	0.07935443
108	0xbd8a9dac	-0.06768355
109	0x3e0483ef	0.12940954
110	0xbd24cb53	-0.040232968
111	0xbdfa35cb	-0.122172914
112	0x3e385079	0.17999448
113	0x3d36a39e	0.04458963
114	0x3d1a5f0d	0.037688304
115	0xbc0e8c0a	-0.00870038
116	0x3d99af4d	0.07504139
117	0x3e50b7b2	0.20382574
118	0x3e7b14bc	0.24519628
119	0xbe2ea18b	-0.17053811
120	0xbf060bf4	-0.5236199
121	0xbeab2593	-0.33427104
122	0x3e0f087c	0.1396808
123	0x3e641506	0.22273645
124	0x3dde2557	0.10846966
125	0x3e2ae860	0.16690207
126	0xbdad1945	-0.084520854
127	0x3dfe4f5d	0.12417481
128	0xbd6a44d0	-0.05719453
129	0x3da0126b	0.07816013
130	0x3db899ef	0.090137355
131	0xbc518463	-0.012787911
132	0x3e417164	0.18890911
133	0x39f1f22a	0.00046147528
134	0xbe14577a	-0.14486495
135	0xbe0507fc	-0.12991327
136	0xbd571e4d	-0.05251913
137	0xbed62465	-0.41824642
138	0x3d94158c	0.07230672
139	0x3f2a07b7	0.6641802
140	0x3e0e8098	0.13916242
141	0x3e9b5331	0.30336908
142	0xbe285862	-0.16439965
143	0xbda7662e	-0.08173786
144	0x3daaf85a	0.083481506
145	0x3d83b80c	0.064315885
146	0x3dd421b1	0.103579886
147	0x3cdfe132	0.027329061
148	0x3d0071d4	0.031358555
149	0xbd2d091f	-0.042245027
150	0x3b72b558	0.0037034359
151	0x3cc8d744	0.02451671
152	0xbce1b57e	-0.027552363
153	0x3d8e397b	0.06944557
154	0x3d3c265f	0.04593503
155	0x3d81684b	0.063187204
156	0x3ceb6f99	0.028739737
157	0x3cae8d57	0.02130763
158	0xb907cb4f	-0.00012950342
159	0x3a042c91	0.00050420413
160	0xbcc1c91e	-0.02365547
161	0xbc5bd6cd	-0.013417912
162	0x3d0a8c62	0.033825286
163	0xbd09d280	-0.033648014
164	0xbd874f89	-0.06606967
165	0x3c65eba3	0.014033231
166	0xbd7f3bba	-0.06231282
167	0xbd1a507c	-0.037674412
168	0xbd44a939	-0.048012946
169	0x3cf82f9c	0.03029614
170	0xbc0daa2c	-0.008646529
171	0x3cdb45a4	0.026766606
172	0x3ca5c30d	0.020234609
173	0xbd1ae329	-0.037814293
174	0x3d248574	0.040166333
175	0x3db6a1d0	0.08917582
176	0x3caea8f1	0.021320792
177	0x3d9f67c1	0.07783461
178	0x3e15ee18	0.14641607
179	0x3c5e7b6d	0.013579232
180	0xbd8129a3	-0.0630677
181	0xbd437515	-0.04771908
182	0xbd2323e3	-0.039829146
183	0x3c7e06d3	0.015504557
184	0xbbeb341a	-0.007177842
185	0xbd8b2524	-0.067941934
186	0xbc95c41c	-0.018281989
187	0x3ce7846c	0.028261386
188	0xbd4fd336	-0.050738536
189	0x3da5b428	0.08091003
190	0x3cc30bc3	0.02380932
191	0x3ca99b56	0.020703953
192	0x3d8210e3	0.06350877
193	0x3cabc968	0.020970061
194	0x3c36bee3	0.011153909
195	0x3d7e6667	0.062109377
196	0x3d156c31	0.036480132
197	0xbc278aae	-0.010225935
198	0x3a9765a9	0.0011550683
199	0x3c5744f1	0.0131389955
200	0x3cf2f4b6	0.029657703
201	0x39d8e9ed	0.0004137302
202	0x3d8864c5	0.06659845
203	0x3dd5f0ce	0.104463205
204	0x3cea7589	0.028620498
205	0xbd5cfd0f	-0.053952273
206	0xbb1f58f7	-0.0024314502
207	0x3d4790be	0.04872202
208	0xbd49bce8	-0.04925242
209	0xbd70256b	-0.058629435
210	0x3da5acb7	0.08089583
211	0x3c19b4ed	0.009381515
212	0xbcd4a525	-0.025957653
213	0x3d313c2c	0.043270275
214	0xb9952d4d	-0.00028453246
215	0xbda7b90f	-0.08189594
216	0x3e69c54a	0.22829166
217	0x3d60e22e	0.0549032
218	0xbe83a30f	-0.2571034
219	0x3e29312e	0.16522667
220	0x3ea7ccd8	0.3277347
221	0x3ddd0c4c	0.10793361
222	0x3caadc49	0.020856993
223	0xbe35620e	-0.17713186
224	0xbd29be64	-0.041441336
225	0x3d94b1df	0.07260489
226	0x3e94a356	0.29030865
227	0xbd98b16d	-0.07455716
228	0x3dbc0788	0.09181124
229	0x3ddf7021	0.10910059
230	0xbe79025c	-0.24317306
231	0xbc3232b0	-0.010876343
232	0xbe4b63d2	-0.19862297
233	0xbe1d994c	-0.1539051
234	0xbe2c389b	-0.16818468
235	0x3f1428ee	0.57874954
236	0x3ed6c6eb	0.41948637
237	0xbe014243	-0.12622933
238	0xbe450240	-0.1923914
239	0x3e0fe3af	0.14051698
240	0xbdfe3893	-0.124131344
241	0x3e81653d	0.2527255
242	0x3dc41d96	0.095759556
243	0x3d17e143	0.03708006
244	0x3e866542	0.2624913
245	0x3e471d7d	0.19444843
246	0x3db2e44c	0.087349504
247	0xbed36e69	-0.41295174
248	0xbe97b42d	-0.2962965
249	0x3e11fa53	0.14255647
250	0xbea22997	-0.31672356
251	0xbd2d785f	-0.042351123
252	0x3e00ead8	0.12589586
253	0xbcaf4969	-0.02139731
254	0xbe42d31c	-0.19025844
255	0x3aae3f0c	0.0013293936

block1.0.bn2.weight f4 [8]
0	0x3eed9b05	0.46407333
1	0x3f29c9fd	0.66323835
2	0x3c3aa540	0.011391938
3	0x3f205941	0.6263619
4	0x3c86a186	0.016434442
5	0x3f9a7795	1.2067744
6	0x3c27cc52	0.010241585
7	0x3ecf4dcb	0.4048904

block1.0.bn2.bias f4 [8]
0	0x3de4f01a	0.11178608
1	0xbdad62d1	-0.08466113
2	0xbdca69f5	-0.09883491
3	0x3f27111f	0.652605
4	0xbdd4da84	-0.10393241
5	0xbdea65f8	-0.1144523
6	0xbda2aaca	-0.07942732
7	0x3f14b7fd	0.58093244

block1.0.bn2.running_mean f4 [8]
0	0xbd19c367	-0.037539866
1	0x3ee7164e	0.45134205
2	0x3d59cd8d	0.053174544
3	0x3fb48c05	1.410523
4	0xbc281b4f	-0.010260417
5	0x3f146638	0.57968473
6	0x3e77cb3f	0.24198626
7	0xbf1aeb1f	-0.60515016

block1.0.bn2.running_var f4 [8]
0	0x3e996c07	0.2996523
1	0x3edeef79	0.43542078
2	0x3cd4f4a2	0.025995556
3	0x3fa91ca7	1.3211869
4	0x3d195319	0.037432764
5	0x3f9a20c4	1.2041249
6	0x3d852b0a	0.0650235
7	0x3ed3f842	0.41400343

block1.0.conv3.weight f4 [16, 8, 1, 1]
0	0xbdd14ec7	-0.10220104
1	0xbde787d6	-0.113052055
2	0xbc0ade3d	-0.008475837
3	0x3c3d8dc4	0.011569444
4	0x3d55e046	0.052215837
5	0xbeabc40c	-0.3354801
6	0xbd682dbc	-0.05668424
7	0xba114bb1	-0.000554259
8	0x3ea3cf3b	0.31994042
9	0x3e876cb6	0.26450127
10	0x3d84a27c	0.06476304
11	0x3eb8733f	0.36025426
12	0xbc2f4847	-0.010698385
13	0x3ee172ca	0.4403289
14	0x3d8dc71a	0.06922741
15	0xbe9744bf	-0.29544637
16	0xbe7f3689	-0.24923147
17	0xbdcaad18	-0.09896296
18	0xbdaa1263	-0.08304288
19	0xbb209ca9	-0.002450744
20	0x3cd15118	0.025551364
21	0xbf0f28a0	-0.55921364
22	0x3d284e14	0.041090086
23	0xbe442d9f	-0.19158028
24	0xbbf084ee	-0.007340065
25	0x3de17c49	0.11010034
26	0xbb77de1c	-0.0037821596
27	0x3e753e6a	0.2394959
28	0x3ca56676	0.020190459
29	0x3e84f930	0.25971365
30	0x3cfcd4d7	0.030863209
31	0x3d42ecb4	0.04758902
32	0x3bf2acc7	0.0074058506
33	0xbd8fe80b	-0.070266806
34	0xbde3b115	-0.1111776
35	0x3e56b776	0.20968422
36	0xbd729fc8	-0.05923441
37	0xbd08d981	-0.033410553
38	0x3bd7ac79	0.0065818396
39	0x3cd7755e	0.026301082
40	0xbcba901c	-0.022773795
41	0xbb04845c	-0.0020220494
42	0xbc6d95c2	-0.014501037
43	0xb97f04e4	-0.00024320517
44	0x3c62998d	0.013830555
45	0x3ec92511	0.39286092
46	0xbd995270	-0.07486427
47	0xbcd42b45	-0.025899539
48	0x3cbf986d	0.023388112
49	0xbe42ff52	-0.1904271
50	0x3d8e7e9b	0.06957742
51	0xbf7e4f8b	-0.9934012
52	0x3d4463ac	0.047946617
53	0x3d0cfd2b	0.034421127
54	0x3d85c37f	0.065314285
55	0xbeabefbf	-0.3358135
56	0xbe0ad740	-0.13558674
57	0xbe11fcb2	-0.14256552
58	0x3c6d0322	0.014466079
59	0xbdbfb5a2	-0.093608156
60	0x3d39a085	0.0453191
61	0x3bd85df0	0.006602995
62	0xbd89cfc4	-0.06729081
63	0xbdc35c17	-0.09539049
64	0x3de9c813	0.11415114
65	0xbdadf169	-0.08493311
66	0xbd5c8d03	-0.053845417
67	0x3c9cb61d	0.019129807
68	0x3cf9c172	0.03048775
69	0x3dffb9b7	0.12486594
70	0xbd90ae48	-0.070644915
71	0x3d8838a3	0.066514276
72	0x3ed30b8c	0.41219747
73	0xbe1f6f97	-0.15569912
74	0x3d981f4f	0.07427847
75	0xbe2666fd	-0.16250224
76	0xbd0c84a9	-0.034306202
77	0xbe33b775	-0.17550452
78	0xbcf96e5e	-0.030448135
79	0xbea831fa	-0.3285063
80	0xbd4aa372	-0.04947228
81	0x3f52cf6c	0.8234775
82	0x3da5134a	0.0806032
83	0xbe948ff2	-0.29016072
84	0x3da5cb10	0.08095372
85	0xbe3184e0	-0.17335844
86	0xbd8464ef	-0.06464564
87	0x3f132f97	0.5749449
88	0xbe31aebd	-0.17351814
89	0xbe954d9e	-0.2916078
90	0xbd2823a1	-0.041049603
91	0xbdd7c6ab	-0.1053594
92	0xbcbf6fd2	-0.02336875
93	0xbee3af54	-0.44469702
94	0xbb1e3566	-0.0024140715
95	0x3ecf5fda	0.40502816
96	0xbceb36c2	-0.028712634
97	0x3e0fe10e	0.14050695
98	0xbcf75e49	-0.030196326
99	0xbe1aa503	-0.1510201
100	0x3aa3929c	0.0012479606
101	0xbf4a2232	-0.7895843
102	0x3b894707	0.0041893753
103	0x3e6c71a1	0.23090221
104	0x3f00b3f9	0.50274616
105	0xbe6636ba	-0.22481814
106	0x3d9a22f8	0.07526201
107	0xbebe1d13	-0.37131557
108	0x3d67538d	0.056476165
109	0xbcdf16ea	-0.027232606
110	0x3d342e69	0.043989573
111	0x3ec8cb81	0.3921776
112	0xbe13e8c0	-0.14444256
113	0x3e811219	0.2520912
114	0x3c8c5725	0.017131398
115	0xbf04f67f	-0.51938623
116	0x3d39983f	0.04531121
117	0xbe963aec	-0.2934183
118	0x3d0b84d0	0.034062207
119	0x3e4eda75	0.20200522
120	0xbec736c9	-0.38908985
121	0x3e14ffa0	0.14550638
122	0xbb9b92af	-0.0047477107
123	0xbe3b7026	-0.183045
124	0x3dc4ee67	0.09615784
125	0xbf76d434	-0.96417546
126	0x3ca14868	0.019687846
127	0xbe40b141	-0.18817617

block1.0.bn3.weight f4 [16]
0	0x3c7d9284	0.015476827
1	0x3f93646c	1.1515021
2	0x3e87c7cf	0.2651963
3	0x3ebb9ce6	0.36643142
4	0x3cb40693	0.021975791
5	0x3ba724e8	0.005100835
6	0x3f3af0ff	0.7302398
7	0x3cea6459	0.028612303
8	0x3e419c76	0.18907341
9	0x3e980237	0.2968919
10	0x3f09b937	0.5379824
11	0x3e7df3a0	0.24799967
12	0x3f5e371e	0.8680285
13	0x3f3d1662	0.7386228
14	0x3eeaa931	0.45832208
15	0x3f886562	1.065594

block1.0.bn3.bias f4 [16]
0	0x3d212b4a	0.039347924
1	0xbf10e7be	-0.5660361
2	0xbccdd4bb	-0.025125852
3	0x3e13a5fa	0.14418784
4	0xbe10b262	-0.14130548
5	0x3c761a32	0.015020894
6	0x3f0a39c9	0.53994423
7	0xbdabfce4	-0.083978444
8	0xbf133094	-0.57496
9	0x3e0c9e21	0.13732196
10	0x3e81d34a	0.25356513
11	0xbcba72c9	-0.022759812
12	0x3dba27c4	0.09089616
13	0x3e7e45a6	0.24831256
14	0x3e873208	0.26405358
15	0xbe0f1eb8	-0.13976562

block1.0.bn3.running_mean f4 [16]
0	0xbe1b9cde	-0.15196559
1	0x3eb1047e	0.3457374
2	0xbec49b52	-0.3839975
3	0x3e956052	0.2917505
4	0x3e0740a2	0.13208249
5	0x3dd91d71	0.10601319
6	0xbf63b8ce	-0.88953865
7	0xbe3aacd0	-0.18229985
8	0x3dd1636b	0.102240406
9	0xbe962378	-0.29323936
10	0x3e858e65	0.260852
11	0xbd99075d	-0.074721076
12	0xbe51e7b8	-0.2049855
13	0x3d240c79	0.040050957
14	0xbe9c8e58	-0.3057735
15	0xbf1ede0e	-0.6205758

block1.0.bn3.running_var f4 [16]
0	0x3deaa4f4	0.114572436
1	0x3ee4a806	0.44659442
2	0x3e959ef6	0.2922284
3	0x3e100bd1	0.14067008
4	0x3c283575	0.010266651
5	0x3e23d516	0.15999255
6	0x3ea9f50e	0.33194774
7	0x3bf9321f	0.007604852
8	0x3c6ee0e6	0.014579987
9	0x3db35d9a	0.087580875
10	0x3e675bbe	0.2259359
11	0x3ead187c	0.33807743
12	0x3f46b9f7	0.7762751
13	0x3e3d2a41	0.1847315
14	0x3e9aeade	0.30257314
15	0x3f7f2859	0.9967094

block1.1.conv1.weight f4 [8, 16, 1, 1]
0	0x3dc428e4	0.09578112
1	0x3defa90a	0.117021635
2	0x3ad39412	0.0016142151
3	0xbd4cccd9	-0.050000045
4	0x3e17856e	0.14796993
5	0x3e1d3276	0.1535128
6	0x3e37f67e	0.17965123
7	0xbcbb1664	-0.022837825
8	0x3cd54c55	0.026037375
9	0xbd54c898	-0.051949114
10	0xbe84545d	-0.25845614
11	0xbe201d82	-0.15636256
12	0xbb627665	-0.0034555432
13	0xbdd4bfc9	-0.103881426
14	0x3df9c240	0.12195253
15	0x3d518f58	0.051162094
16	0xbf212125	-0.629412
17	0x3cd4632d	0.025926197
18	0xbcda9ae4	-0.026685186
19	0x3ddde31c	0.10834333
20	0xbc8af305	-0.016961584
21	0x401106aa	2.2660317
22	0x3e6178ff	0.22018813
23	0x3b2d9019	0.0026483594
24	0x3d467f60	0.048461318
25	0x3ddfbc58	0.109245956
26	0xbe026e4f	-0.12737392
27	0xbd53531e	-0.05159294
28	0x3ca9ce2a	0.02072819
29	0x3d4aa141	0.04947019
30	0xbe8b347f	-0.2718849
31	0x3e04e531	0.12978055
32	0x3c6ce67e	0.0144592505
33	0x3edf57bc	0.43621624
34	0x3e6d2077	0.23156916
35	0x3e94667b	0.28984436
36	0x3da553f9	0.08072657
37	0x3f423f34	0.7587769
38	0xbe93cefa	-0.28868848
39	0xbd3285d6	-0.043584667
40	0x3dddee91	0.108365186
41	0x3e04d519	0.12971915
42	0xbe9f2a8a	-0.31087142
43	0xbdee919c	-0.116488665
44	0xbdb4e887	-0.088334136
45	0xbc4d30cc	-0.012523841
46	0x3e73cc04	0.23808295
47	0xbdd1468d	-0.102185346
48	0xbe2eca9f	-0.17069481
49	0xbe9f401f	-0.31103608
50	0x3e99f5f3	0.30070457
51	0xbed83451	-0.42227414
52	0xbd9f6e63	-0.077847265
53	0xbfc7639a	-1.5577271
54	0xbdc5d583	-0.09659865
55	0xbd0b66cc	-0.03403358
56	0xbd6f7d16	-0.0584689
57	0xbd86089f	-0.06544613
58	0x3e54d954	0.20786029
59	0x3e435932	0.19076994
60	0xbe2d685e	-0.16934344
61	0xbdf9d33f	-0.12198495
62	0xbe37b77b	-0.17941086
63	0x3eb324f5	0.34989133
64	0x3fa5bc21	1.2948037
65	0x3db52d04	0.08846477
66	0xbe1f2ae0	-0.155437
67	0x3ca66cc9	0.020315545
68	0xbda8ab51	-0.08235801
69	0xbe64eb23	-0.22355323
70	0x3ec7c531	0.39017633
71	0xbb912a4b	-0.0044300905
72	0x3e50948a	0.20369163
73	0x3d8ce875	0.06880275
74	0xbe95f237	-0.29286358
75	0x3c2fcd17	0.01073005
76	0xbdb76b16	-0.08955972
77	0x3e08c521	0.13356449
78	0xbe1582ef	-0.14600728
79	0xbe3cab70	-0.18424773
80	0xbbbe2149	-0.0058023077
81	0x3def8cb4	0.11696759
82	0x3dbdd3f2	0.09268941
83	0xbd8e6347	-0.069525294
84	0x3da15e74	0.07879344
85	0xbdd3919a	-0.10330506
86	0x3e2cfaf2	0.16892603
87	0x3e12e999	0.14346923
88	0x3d30b120	0.04313767
89	0x3d03fd34	0.032223895
90	0x3d57aa2c	0.052652523
91	0xbe29cecc	-0.16582793
92	0xbd84473a	-0.06458898
93	0x3e13a1ca	0.14417186
94	0x3d1fe599	0.03903732
95	0x3d9fec05	0.07808689
96	0x3dda322e	0.10654102
97	0x3f1a2539	0.6021305
98	0xbd5d5a4a	-0.054041184
99	0x3ed6c6f9	0.4194868
100	0x3dbdcbc5	0.092673816
101	0x3e52b5a1	0.20577098
102	0x3e4d4d1b	0.20048945
103	0xbc13b3e3	-0.009015056
104	0x3e322a9e	0.1739907
105	0x3d874d0c	0.066064924
106	0x3f4199e4	0.75625443
107	0xbe1ffa6b	-0.1562287
108	0xbd4e4553	-0.05035908
109	0x3d942aa9	0.07234699
110	0xbdee628c	-0.1163989
111	0xbdbb3d97	-0.09142607
112	0xc002f9eb	-2.0465038
113	0xbe8ea107	-0.2785723
114	0xbd92dbc7	-0.071708255
115	0xbe0fe910	-0.1405375
116	0xbd197833	-0.037468147
117	0xbfa2b3d1	-1.2711126
118	0xbc3077e2	-0.01077077
119	0xbd8d65f9	-0.06904215
120	0xbe326908	-0.17422879
121	0x3e1e6062	0.15466455
122	0xbd9b26dd	-0.07575772
123	0x3da40554	0.08008829
124	0xbdd145a1	-0.10218359
125	0x3dbc950b	0.09208115
126	0xbdab9995	-0.08378903
127	0x3c1af44b	0.009457658

block1.1.bn1.weight f4 [8]
0	0x3c77bdbb	0.015120919
1	0x3f40dedc	0.75340056
2	0x3f5b01e5	0.85549766
3	0x3f10a11d	0.5649584
4	0x3efdaccb	0.49545893
5	0x3b31a8a1	0.0027108567
6	0x3f83353f	1.0250624
7	0x3f5ed3a6	0.870417

block1.1.bn1.bias f4 [8]
0	0xbd90d0a5	-0.07071046
1	0x3f8aba78	1.0838156
2	0xbebaa1e5	-0.3645164
3	0x3ee4e883	0.44708642
4	0x3f6eb1db	0.93240136
5	0xbc7c9aeb	-0.015417795
6	0xbf47fa7d	-0.7811659
7	0x3ea75d0f	0.32688186

block1.1.bn1.running_mean f4 [8]
0	0x3f0d04aa	0.5508524
1	0x405bd984	3.435151
2	0x3fb5ab48	1.4192896
3	0xc07af98f	-3.9214818
4	0x404b5154	3.1768389
5	0x3e7e33df	0.24824475
6	0x402baa4d	2.6822693
7	0xc127316a	-10.449564

block1.1.bn1.running_var f4 [8]
0	0x3ef0e441	0.47049144
1	0x413a3afd	11.639401
2	0x4030c760	2.762169
3	0x4097c312	4.7425623
4	0x408a5672	4.3230524
5	0x3e479795	0.19491418
6	0x404ce554	3.201497
7	0x40e566ad	7.1687837

block1.1.conv2.weight f4 [8, 8, 3, 3]
0	0xbdcc7ca6	-0.09984712
1	0xbd675b98	-0.056483835
2	0xbd936cff	-0.07198524
3	0x3b647de0	0.0034865066
4	0xbbb9b663	-0.005667494
5	0xbd895010	-0.06704724
6	0x3cb0bafd	0.021573538
7	0xbd210faa	-0.03932158
8	0xbd605cb4	-0.05477591
9	0xbe1ef807	-0.15524302
10	0xbe62ad0d	-0.22136326
11	0xbe0829b0	-0.13297153
12	0x3eb9e432	0.36306912
13	0x3db28d0a	0.08718307
14	0xbd93775c	-0.072005
15	0xbdaf7dc8	-0.08568913
16	0x3e25a169	0.16174854
17	0x3d29ab20	0.041422963
18	0x3e78685b	0.24258558
19	0x3e789230	0.24274516
20	0x3e506b23	0.2035337
21	0x3c8ee062	0.017440978
22	0xbe4c5267	-0.19953309
23	0xbe0ceaaa	-0.13761392
24	0xbe9fcee5	-0.31212536
25	0xbeba7f90	-0.36425447
26	0xbe680476	-0.22657952
27	0xbba9aac7	-0.005177829
28	0x3dba54ba	0.090981916
29	0xbd11f02f	-0.035629448
30	0x3d985c9c	0.07439539
31	0x3eedde2d	0.4645857
32	0xbbd59799	-0.006518316
33	0xbd7e6912	-0.06211192
34	0xbdeae013	-0.1146852
35	0xbc58a86b	-0.013223748
36	0xbc8bb233	-0.017052745
37	0xbec85c53	-0.39132938
38	0x3e193b09	0.14963926
39	0x3d7572d7	0.059923973
40	0xbf4db143	-0.80348605
41	0x3e991d0d	0.29904976
42	0x3ed405c2	0.41410643
43	0x3e8f8060	0.2802763
44	0x3e9f314f	0.31092307
45	0xbd2f9cc7	-0.042874124
46	0xbd712c64	-0.058880225
47	0x3b92aba7	0.004476029
48	0x3b8bbca9	0.0042644334
49	0xbc1ee240	-0.009697497
50	0x3c41d621	0.0118308375
51	0x3a825a6e	0.0009945163
52	0xbd73d910	-0.05953318
53	0xbc3c6132	-0.011497783
54	0x3d52e72f	0.051490005
55	0x3e10824b	0.14112203
56	0xbd25b053	-0.04045136
57	0x3f09c56a	0.53816855
58	0x3f411920	0.7542896
59	0x3ed1aa10	0.4095006
60	0x3cff1550	0.031138092
61	0x3df48709	0.119398184
62	0xbd9cac80	-0.07650089
63	0xbdea3cfc	-0.11437413
64	0x3f60e117	0.8784346
65	0xbf538947	-0.82631344
66	0x3eddd36f	0.43325374
67	0x3ff0f05b	1.8823351
68	0xbe856a62	-0.26057726
69	0xbf012e1a	-0.5046097
70	0xbf9a5a54	-1.2058816
71	0xbe53bbbe	-0.20677087
72	0xbd78d2bd	-0.06074785
73	0xbd61709a	-0.055039026
74	0x3c3b1552	0.011418657
75	0xbc36ee37	-0.011165193
76	0xbd5e3676	-0.054251157
77	0xbd394506	-0.04523184
78	0xbbad2689	-0.0052841348
79	0xbccfd459	-0.02536981
80	0xbc0fcb1f	-0.008776455
81	0xbd14f11e	-0.03636276
82	0xbd19d110	-0.037552893
83	0xbd273199	-0.040818784
84	0xbc605143	-0.013691249
85	0xbc81bbbe	-0.015836593
86	0xbcda6df5	-0.02666376
87	0xbbd101f3	-0.006378406
88	0x3bd4950a	0.0064874934
89	0x3bd58a40	0.006516725
90	0xbd7f54af	-0.06233662
91	0xbd757ef2	-0.059935518
92	0xbcf0114e	-0.029305127
93	0xbcc447da	-0.023960043
94	0xbd5e3447	-0.054249074
95	0xbd7bc506	-0.061467193
96	0x3cfed406	0.03110696
97	0x3c27724d	0.0102201225
98	0x3bdd3a59	0.0067513403
99	0x3cfa88dd	0.03058284
100	0xbc04d6fa	-0.008107895
101	0xba8c4695	-0.0010702187
102	0x3d7df87e	0.06200456
103	0x3cf0cbb5	0.02939401
104	0x3cc5fd6b	0.02416869
105	0x3d10d6c3	0.035361063
106	0x3cb55bb9	0.022138463
107	0x3d0190c9	0.03163222
108	0xbbc352e2	-0.005960808
109	0x3b9759b3	0.0046188473
110	0xbd20646a	-0.039158262
111	0xbd959857	-0.07304447
112	0xbd138d05	-0.03602316
113	0xbd3527b7	-0.04422733
114	0xbc338b34	-0.010958482
115	0x3d5e4f66	0.05427494
116	0x3dc55dbd	0.0963702
117	0xbc8e8b02	-0.017400268
118	0xbd39527a	-0.04524467
119	0xb9eccb8b	-0.0004516508
120	0xbd85a61e	-0.06525825
121	0xbd5b44b0	-0.053532302
122	0xbc2ccf64	-0.010547493
123	0xbd15d526	-0.036580227
124	0xbd587bb8	-0.052852362
125	0xbcbc8225	-0.023011276
126	0xbd399aad	-0.045313526
127	0xbcfa969a	-0.03058939
128	0xbbe74253	-0.007057467
129	0xbd242262	-0.040071853
130	0xbd998c66	-0.07497482
131	0xbca22974	-0.019795157
132	0xbcb866c4	-0.02250994
133	0xbd172faa	-0.03691069
134	0x3d55da6b	0.052210253
135	0x3c8e6f60	0.017387092
136	0x3d77fc4a	0.060543336
137	0x3d27dc3f	0.040981527
138	0x3d8174ef	0.063211314
139	0x3d4870a0	0.048935533
140	0x38b53765	8.6410706e-05
141	0x3d11a688	0.035559207
142	0x3d0bed30	0.034161747
143	0x3c8c86a0	0.017154038
144	0xbcc15855	-0.02360169
145	0x3b645c8b	0.00348452
146	0xbbb883a8	-0.005630929
147	0xbdaef4f6	-0.08542816
148	0xbd1eb0e3	-0.03874291
149	0xbd032cd7	-0.032025184
150	0xbd6e0cc7	-0.058117654
151	0xbd997101	-0.07492257
152	0xbce3dc35	-0.027814964
153	0xbde8bd33	-0.11364212
154	0x3f4e18ea	0.80506766
155	0x3ed4958e	0.4152035
156	0xbe3c629f	-0.18396996
157	0xbfe6b5ab	-1.8024191
158	0x3d8f3140	0.069918156
159	0x3ef40833	0.47662506
160	0xbedb79d5	-0.42866388
161	0x3e4c5b5a	0.19956723
162	0xbde4a88f	-0.111649625
163	0x3cfe65cd	0.031054402
164	0xbe034a18	-0.12821233
165	0xbe80d845	-0.25165
166	0xbef0b74f	-0.47014853
167	0xbdcceb64	-0.10005835
168	0xbe77474f	-0.24148296
169	0xbda0ab50	-0.07845175
170	0x3e136a2b	0.14395969
171	0x3d5c0b23	0.05372156
172	0xbe28e5bd	-0.16493888
173	0xbe92757d	-0.2860526
174	0xbdecc380	-0.11560726
175	0x3f460547	0.773518
176	0xbe8016a0	-0.25017262
177	0xbea47a43	-0.32124528
178	0x3ed5e1e9	0.41773918
179	0x3e071ae2	0.13193849
180	0x3d9bc1fe	0.076053604
181	0xbf17f446	-0.59357107
182	0xbd74ad3c	-0.05973552
183	0x3c243c72	0.010024177
184	0x3e7e8fce	0.24859545
185	0x3dc9e337	0.09857791
186	0xbeac7cf5	-0.33689085
187	0x3de74f1f	0.11294388
188	0xbdb00783	-0.08595183
189	0x3d13a452	0.03604538
190	0xbb117e34	-0.0022200467
191	0xba928646	-0.0011178933
192	0x3d9f15cd	0.0776783
193	0xbbdfd05d	-0.0068302588
194	0xbb67fdd7	-0.0035399103
195	0x3c7dcee2	0.015491219
196	0xbca68831	-0.020328613
197	0x3c9e094d	0.019291544
198	0xbe144817	-0.14480625
199	0xbe079250	-0.13239408
200	0xbda7dfb6	-0.08196966
201	0xbeba326e	-0.363666
202	0xbea90168	-0.33008885
203	0xbec0a5f9	-0.37626627
204	0xbe9489f8	-0.29011512
205	0xbd27de15	-0.04098328
206	0xbe1b9c1a	-0.15196267
207	0xbecba6fe	-0.39775842
208	0x3ed6a0f6	0.41919678
209	0xbec1adc5	-0.37827888
210	0xbe6edc40	-0.23326206
211	0x3f9661f7	1.1748646
212	0x3e64c950	0.2234242
213	0xbe328ffc	-0.17437738
214	0xbe470e2f	-0.19439004
215	0xbe4e00c9	-0.20117487
216	0xbcb9f37f	-0.022699116
217	0x3d1c32fe	0.038134567
218	0x3c6aabc5	0.01432318
219	0xb9fb9c5f	-0.00047990956
220	0xbbaa97d6	-0.0052060885
221	0xbd077123	-0.03306688
222	0xbb9983b6	-0.0046848906
223	0xba05bf58	-0.000510206
224	0x3d5a74d5	0.053334076
225	0x3e2e6d90	0.17033982
226	0xbe2a3c44	-0.16624552
227	0xbee611d4	-0.44935477
228	0x3d9f3edf	0.077756636
229	0x3f658159	0.89650494
230	0xbe8f6a08	-0.28010583
231	0xbed644d1	-0.41849378
232	0xbbda3d80	-0.0066601634
233	0xbe50e098	-0.20398176
234	0xbe2950cb	-0.16534726
235	0xbdeb204e	-0.11480771
236	0x3cb01e4a	0.021498818
237	0xbe1d6a16	-0.153725
238	0xbd737110	-0.059433997
239	0xbea19613	-0.3155981
240	0xbd734240	-0.059389353
241	0xbe14a745	-0.14516933
242	0xbc1eebfe	-0.00969982
243	0xbc051be2	-0.008124324
244	0xbe0e913f	-0.13922594
245	0xbdb6d4dc	-0.089273185
246	0xbe45d97f	-0.1932125
247	0xbeff0e2c	-0.498155
248	0xbde78267	-0.11304169
249	0xbc820b56	-0.015874546
250	0xbe275d1a	-0.16344109
251	0x3e3c53cf	0.18391345
252	0x3da572e7	0.080785565
253	0x3ed7c665	0.4214355
254	0x3f181f8f	0.59423155
255	0x3e05a77f	0.13052176

block1.1.bn2.weight f4 [8]
0	0x3f521cfd	0.8207548
1	0x3a7d3291	0.0009658719
2	0x3f2a3394	0.6648495
3	0x3f0a7454	0.5408375
4	0xbf1b5b9c	-0.6068666
5	0x3c9c4a95	0.019078532
6	0x3f635273	0.8879768
7	0x3f1cc7c4	0.6124232

block1.1.bn2.bias f4 [8]
0	0x3f72c579	0.9483257
1	0xbc7353a9	-0.014851489
2	0x3f6fb76d	0.9363926
3	0x3eda8801	0.42681888
4	0xbb9353de	-0.0044960817
5	0xbd8fa3a9	-0.070136376
6	0xbe4798e8	-0.19491923
7	0x3f6052f0	0.8762655

block1.1.bn2.running_mean f4 [8]
0	0x3f3b0056	0.7304739
1	0xbcf99691	-0.030467303
2	0xbfafbac2	-1.3728869
3	0xbf3a7799	-0.7283874
4	0xbf5ffced	-0.8749531
5	0xbe7acd1d	-0.24492307
6	0xbe19834f	-0.14991497
7	0xbf3a9029	-0.7287622

block1.1.bn2.running_var f4 [8]
0	0x40084daa	2.1297402
1	0x3df08987	0.11744981
2	0x4015744e	2.3352237
3	0x3f94c104	1.1621404
4	0x3fd810b4	1.6880097
5	0x3ee35934	0.44403994
6	0x3ff3c8fb	1.9045709
7	0x40270879	2.6098921

block1.1.conv3.weight f4 [16, 8, 1, 1]
0	0xbeeb1283	-0.4591256
1	0xbaad836e	-0.0013238022
2	0x3e5b76ed	0.21432085
3	0xbf78bd63	-0.9716398
4	0xbe571440	-0.21003819
5	0x3c30f2e9	0.010800102
6	0x3e7ba784	0.24575621
7	0x3df771d6	0.12082259
8	0x3d66ae09	0.056318317
9	0xbc1b0a66	-0.009462928
10	0xbef05bdb	-0.4694508
11	0xbd445a11	-0.047937457
12	0x3d51d11a	0.051224805
13	0xbd376a1c	-0.04477893
14	0xbb765f03	-0.0037593252
15	0xbe5a435c	-0.21314758
16	0xbf018e61	-0.5060788
17	0x3de22ef1	0.110441096
18	0xbb2883a7	-0.0025713237
19	0x3e19d239	0.150216
20	0x3d7bda98	0.061487764
21	0xbcde1242	-0.027108315
22	0x3f076cfc	0.5290067
23	0x3e725b23	0.23667578
24	0x3ee16456	0.44021863
25	0x3d3e8815	0.046516497
26	0xbe4630cf	-0.19354557
27	0xbdfb4b01	-0.12270165
28	0xbd735899	-0.059410665
29	0x3cdbfa61	0.026852788
30	0xbe5b6a77	-0.21427332
31	0x3dcca4dc	0.09992382
32	0x3d477107	0.048691776
33	0x3daee48a	0.08539684
34	0xbf25f282	-0.6482316
35	0x3ea21b7c	0.31661594
36	0x3d61b2e7	0.055102255
37	0xbd0bc2e5	-0.034121413
38	0xbdd7caa4	-0.105366975
39	0x3f941838	1.1569891
40	0x3d3fcd82	0.046826847
41	0x3daa42b6	0.08313505
42	0xbed2274c	-0.41045606
43	0x3f10ee80	0.5661392
44	0xbef18ac7	-0.4717619
45	0xbdaef6c7	-0.08543163
46	0xbd82466e	-0.0636109
47	0xbde8eb46	-0.11373
48	0xbec0fd89	-0.37693432
49	0xbd55626c	-0.052095816
50	0x3f06e5d0	0.52694416
51	0xbea2c19a	-0.3178833
52	0xbd82c1e4	-0.06384638
53	0xbd938dea	-0.07204802
54	0x3e309f49	0.17248262
55	0x3ef62ef6	0.48082703
56	0xbf4e8e8f	-0.8068628
57	0xbb35f620	-0.002776511
58	0x3ef9a6bc	0.4876002
59	0x3dd46a4f	0.10371839
60	0xbcaad5c9	-0.020853894
61	0xbc4d2c4b	-0.012522767
62	0xbdd82f6d	-0.10555921
63	0x3e8a6f0d	0.2703785
64	0x3f4f446e	0.8096379
65	0x3d3f9c16	0.046779715
66	0x3f3ec386	0.74517095
67	0xbede3932	-0.43403012
68	0xbe2a0292	-0.16602543
69	0x3d7b9d8c	0.061429545
70	0x3ba837d7	0.0051336098
71	0x3f080576	0.5313333
72	0xbd408fa1	-0.047011975
73	0x3d0652d5	0.03279384
74	0x3f16ee31	0.589572
75	0x3d848a07	0.06471639
76	0xbf1e39c0	-0.6180687
77	0x3d3a92c4	0.045550123
78	0x3f339527	0.70149463
79	0xbf42fd5e	-0.7616786
80	0xbf38fc27	-0.72259754
81	0x3d469d62	0.048489936
82	0x3f184a60	0.5948849
83	0x3da3d686	0.079999015
84	0xbe7f1e93	-0.24914007
85	0xbdbf6a77	-0.093464784
86	0xbe122b9f	-0.14274453
87	0xbdfbf6b9	-0.12302918
88	0xbf0fe927	-0.5621514
89	0xbd5ab20b	-0.05339245
90	0x3e3d0f7c	0.18462938
91	0x3b505f50	0.0031795092
92	0xbeb26a37	-0.3484666
93	0x3d4d2166	0.05008068
94	0x3e7a9cbd	0.24473853
95	0x3d74afd2	0.059737988
96	0x3eaaecd6	0.33383816
97	0xbb5f7ded	-0.0034102157
98	0xbc2b7c6e	-0.010466678
99	0x3d82a12c	0.06378397
100	0x3e1e8815	0.15481599
101	0x3b4ee757	0.0031570995
102	0xbdf64df4	-0.12026587
103	0xbd86b91b	-0.06578275
104	0x3cab0b6a	0.020879466
105	0xbd1839d9	-0.037164543
106	0x3ed0a632	0.40751797
107	0x3e24c8b3	0.16092186
108	0x3df645c6	0.12025027
109	0xbd59c3ec	-0.05316536
110	0xbf75172f	-0.957385
111	0xbe2bea92	-0.167887
112	0x3eef6270	0.4675479
113	0xbd52cca8	-0.051464707
114	0x3dc7873c	0.09742591
115	0x3c9ab3ad	0.018884504
116	0xbc4e4f42	-0.012592139
117	0x3d13caf1	0.036082212
118	0xbe949815	-0.2902228
119	0xbf0a972d	-0.54136926
120	0xbef11523	-0.4708644
121	0x3d59324b	0.05302648
122	0xbd9b0e75	-0.07571117
123	0x3e43d53f	0.19124316
124	0xbeb283fd	-0.34866324
125	0xbdef9741	-0.11698771
126	0x3e08c5d4	0.13356715
127	0xbe601cef	-0.21886037

block1.1.bn3.weight f4 [16]
0	0x3ed926c7	0.42412397
1	0x3eb1ff7d	0.34765235
2	0x3e45ec71	0.19328476
3	0xbe3244af	-0.17409013
4	0x3fa22630	1.2667904
5	0x3ecdba61	0.40181258
6	0x3e995bad	0.29952756
7	0x3f9c2110	1.219759
8	0x3fcec5d7	1.6154126
9	0x3f955909	1.1667796
10	0x3ee13971	0.43989137
11	0x3e034673	0.12819843
12	0x3d247d49	0.040158544
13	0x3f152c2a	0.58270514
14	0x3e42f69e	0.1903939
15	0x3e2e7fbb	0.17040913

block1.1.bn3.bias f4 [16]
0	0xbe197368	-0.1498543
1	0xbee6d44b	-0.45083842
2	0x3d0f4cae	0.034985237
3	0xbdc2b102	-0.09506418
4	0xbd49e038	-0.049286097
5	0xbf4c1f87	-0.79735607
6	0xbdb4c2f3	-0.08826246
7	0x3df2b2bb	0.118504964
8	0x3bd6aeea	0.006551613
9	0x3e2cedc1	0.16887571
10	0xbbeabeac	-0.007163843
11	0xbda560cd	-0.08075104
12	0xbc700471	-0.014649496
13	0x3eda82d5	0.42677942
14	0x3d11d5fb	0.03560446
15	0xba975b8f	-0.0011547672

block1.1.bn3.running_mean f4 [16]
0	0xbf1661d1	-0.58743006
1	0xbf1e2129	-0.6176935
2	0xbd9acf6f	-0.07559096
3	0x3e4ddda6	0.20104083
4	0x3f151cfe	0.58247364
5	0xbe9c5e40	-0.30540657
6	0x3eeb9923	0.46015272
7	0x3c0c21d9	0.008552992
8	0x3fe0e42d	1.7569634
9	0xbdf47deb	-0.119380794
10	0xbe88ba3e	-0.26704592
11	0xbea5cfee	-0.323852
12	0x3e97d4d3	0.2965456
13	0x3e4b06ad	0.19826765
14	0xbb05c470	-0.0020411275
15	0xbf2bde93	-0.67136496

block1.1.bn3.running_var f4 [16]
0	0x3e8cfb32	0.27535397
1	0x3dbcd443	0.09220173
2	0x3e74f68c	0.23922175
3	0x3e167c57	0.1469587
4	0x3f0638d7	0.5243048
5	0x3dd2c78c	0.10291967
6	0x3e86df9b	0.26342472
7	0x3f038bd8	0.5138526
8	0x3f32cb17	0.6984114
9	0x3eefeed6	0.46861905
10	0x3efa84ef	0.48929545
11	0x3e90cb39	0.28280047
12	0x3daabd98	0.083369434
13	0x3e5d3de0	0.21605635
14	0x3e6314ce	0.22175905
15	0x3e55e255	0.2088712

block1.2.conv1.weight f4 [8, 16, 1, 1]
0	0x3ea835b7	0.3285348
1	0x3eef6100	0.46753693
2	0x3e3a9333	0.18220215
3	0x3d44db54	0.04806073
4	0x3d838011	0.06420911
5	0xbda80636	-0.0820431
6	0xbedb7af9	-0.42867258
7	0x3d870f55	0.06594721
8	0xbe0f1e06	-0.13976297
9	0x3e6e6575	0.2328089
10	0xbe264501	-0.1623726
11	0x3f88140e	1.063112
12	0x3e0cfd04	0.13768393
13	0xbf03feb7	-0.5156054
14	0x3eac8a83	0.33699426
15	0xbccfad9d	-0.02535134
16	0x3e9b58cb	0.3034118
17	0xbd7939a8	-0.060846
18	0x3d309709	0.04311279
19	0xbe38f49f	-0.18062066
20	0x3c3ec49c	0.011643555
21	0xbe5e3c83	-0.21702771
22	0x3e1837b6	0.14865002
23	0x3ba17547	0.0049273106
24	0x3e33e885	0.17569168
25	0x3e8664f9	0.2624891
26	0xbd5f783d	-0.054558028
27	0xbe14ae76	-0.14519677
28	0xbd3b37b2	-0.045707412
29	0x3e30868f	0.1723883
30	0xbdd7c7f9	-0.10536189
31	0x3d2a79b7	0.041619983
32	0xbdae282d	-0.08503757
33	0x3e83eb8b	0.25765643
34	0xbe89c552	-0.26908356
35	0x3e38ad3c	0.18034834
36	0xbc392582	-0.011300446
37	0x3cf94d0e	0.03043225
38	0x3c7dfcce	0.015502168
39	0xbe76ac39	-0.24089135
40	0xbe124b93	-0.14286642
41	0xbdd34428	-0.10315734
42	0xbe68cb03	-0.22733693
43	0xbeb07ea1	-0.3447161
44	0xbe083f55	-0.13305409
45	0xbd7a4fec	-0.061111376
46	0x3f62d8f5	0.886123
47	0x3d9be6cb	0.0761238
48	0x3f6f19f3	0.9339897
49	0xbe0b4772	-0.13601473
50	0x3df0bf40	0.11755228
51	0x3e58b54e	0.21162912
52	0xbd1fb049	-0.038986478
53	0xbf3932d2	-0.7234317
54	0xbc25fa6c	-0.010130506
55	0x3eca0e22	0.39463907
56	0xbf0d5e80	-0.5522232
57	0xbe83a1b8	-0.2570932
58	0x3e09be56	0.13451514
59	0x3e2b6823	0.16738944
60	0x3e2691d1	0.16266562
61	0x3cb4916d	0.022042
62	0xbe2d5b9f	-0.16929482
63	0x3c33e826	0.0109806415
64	0xbd7ff885	-0.062492866
65	0x3e229f41	0.15881063
66	0xbe8d030e	-0.27541393
67	0xbe7301cd	-0.23731156
68	0x3cd192dd	0.025582725
69	0x3d19f3ab	0.037585896
70	0xbe85b596	-0.26115102
71	0xbdd93dc1	-0.10607482
72	0xbd49641d	-0.04916774
73	0x3d4e0ba6	0.050304078
74	0x3f203389	0.62578636
75	0x3edc602b	0.4304212
76	0xbea99841	-0.33123973
77	0x3cd486b6	0.025943141
78	0xbdfc5e03	-0.12322619
79	0x3c4d234d	0.012520623
80	0x3d4ddc4f	0.05025893
81	0xbe6899b0	-0.22714877
82	0xbe90b0e8	-0.2825997
83	0xbca74173	-0.02041695
84	0xbf41d64f	-0.75717634
85	0x3da8682d	0.08222995
86	0x3ec4dd86	0.3845026
87	0x3e43af68	0.19109881
88	0xbe6a6de0	-0.22893476
89	0xbe2fa454	-0.1715253
90	0xbef18156	-0.47168988
91	0x3e002d54	0.12517291
92	0xbe94c9ca	-0.29060203
93	0x3f19e180	0.6010971
94	0xbf0142b7	-0.50492424
95	0x3e7b0844	0.24514872
96	0xbee13fb7	-0.43993923
97	0x3e0d3824	0.13790947
98	0xbe49972d	-0.19686575
99	0x3f0ae5fb	0.5425717
100	0x3ec1e669	0.37871101
101	0x3e9ef525	0.31046405
102	0x3ee1b5b1	0.44083932
103	0xbcf0c949	-0.029392855
104	0xbc8d8825	-0.017276833
105	0xbe5c9f8e	-0.2154524
106	0x3daffc96	0.08593099
107	0xbe51ff2c	-0.20507497
108	0xbd0ef249	-0.03489903
109	0x3b190b7f	0.00233528
110	0xbcaa8067	-0.02081318
111	0xbe6450f1	-0.22296502
112	0xbf3f5b7d	-0.74748975
113	0xbf110df0	-0.5666189
114	0xbd2e153d	-0.042500723
115	0xbdafeead	-0.08590446
116	0xbe9a75a2	-0.30167872
117	0x3e35b9e4	0.17746693
118	0xbeadc6be	-0.3394069
119	0xbe5b29fa	-0.21402732
120	0x3ec23f8e	0.37939113
121	0xbe9d0a52	-0.30671936
122	0xbea8e0cd	-0.3298401
123	0x3ee43a21	0.445756
124	0x3e9dbf1a	0.3080986
125	0xbe508cf4	-0.2036627
126	0xbf157126	-0.58375776
127	0xbcee814e	-0.029114392

block1.2.bn1.weight f4 [8]
0	0x3f362f67	0.7116608
1	0x3f064632	0.5245086
2	0x3f33eac9	0.7028013
3	0x3f205d9b	0.6264283
4	0x3f23524f	0.6379747
5	0x3f33fc63	0.70306987
6	0x3f321d26	0.69575727
7	0x3f35074a	0.7071425

block1.2.bn1.bias f4 [8]
0	0x3e31941e	0.17341658
1	0xbe42f41e	-0.19038436
2	0x3b98b05a	0.0046596946
3	0x3ee9976a	0.45623332
4	0xbdc608f9	-0.0966968
5	0x3e9d3ba1	0.30709556
6	0xbeb69dfa	-0.35667402
7	0x3e3c30a4	0.1837793

block1.2.bn1.running_mean f4 [8]
0	0x401e553d	2.4739525
1	0x3f35d2fd	0.7102507
2	0xbe8c8905	-0.27448288
3	0x400edc3d	2.2321923
4	0xbe93e8a6	-0.28888434
5	0xbf87c8ac	-1.0608115
6	0xbedd8447	-0.43264982
7	0xc07cb963	-3.948815

block1.2.bn1.running_var f4 [8]
0	0x40db77a6	6.8583555
1	0x3f2f8c8e	0.68573844
2	0x4069dcd7	3.654104
3	0x407a8ed3	3.9149673
4	0x400182a4	2.0235987
5	0x408e4cdf	4.4468837
6	0x3fd22fde	1.6420858
7	0x4089e131	4.308739

block1.2.conv2.weight f4 [8, 8, 3, 3]
0	0xbe2d14ec	-0.16902512
1	0xbd82dd55	-0.06389872
2	0xbdafdec5	-0.08587412
3	0xbeba3fe9	-0.36376885
4	0xbdefe410	-0.11713421
5	0xbd916c29	-0.07100708
6	0x3d4e5a5f	0.050379153
7	0xbdb1639d	-0.08661578
8	0xbdb7ab24	-0.08968189
9	0x3e0dd513	0.13850813
10	0x3da658ba	0.08122392
11	0x3caa8663	0.020816034
12	0x3e4f8c80	0.2026844
13	0xbd08e007	-0.033416774
14	0xbd9ae36d	-0.07562909
15	0x3e493d1e	0.1965222
16	0x3d8ffce3	0.07030656
17	0xbd952213	-0.0728189
18	0xbdd4df19	-0.10394115
19	0xbb186eda	-0.0023259432
20	0xbd720864	-0.059090033
21	0x3ce2fc38	0.027708158
22	0x3e416ffc	0.18890375
23	0xbd1f7499	-0.038929556
24	0x3c1d1654	0.009587843
25	0xbceba92b	-0.028767189
26	0x3c73bde5	0.014876817
27	0xbeaed42b	-0.34146246
28	0x3c78ded4	0.015189845
29	0x3eae0c9e	0.33994
30	0x3e23e8c2	0.16006759
31	0xbf1b5cf8	-0.60688734
32	0xbe5dee75	-0.21672995
33	0x3eccb3b1	0.39980844
34	0x3e5398e5	0.20663793
35	0xbe4a14e6	-0.19734535
36	0x3e690d9f	0.22759102
37	0x3ea195dc	0.31559646
38	0xbcae2306	-0.021256935
39	0xbd1ca5df	-0.038244125
40	0x3e41a2a7	0.18909703
41	0x3cc9397b	0.024563542
42	0xbdb45eff	-0.088071816
43	0xbe15d10e	-0.1463053
44	0xbc67cc57	-0.0141478395
45	0xbd873406	-0.066017196
46	0xbe5a318a	-0.2130796
47	0xbdd7c159	-0.10534925
48	0x3f1cb1d2	0.6120883
49	0x3da5a07d	0.08087251
50	0xbe9894ca	-0.29801017
51	0xbda11664	-0.07865599
52	0x3e23937e	0.15974233
53	0x3df5a3df	0.119941466
54	0x3da12f97	0.07870405
55	0xbc9d3d86	-0.019194376
56	0xbe78ba27	-0.24289761
57	0x3ca70f22	0.020392958
58	0x39af09fc	0.0003338604
59	0xbdbff99c	-0.09373781
60	0xbdea75a7	-0.11448222
61	0xbd93a470	-0.07209098
62	0xbdeaf634	-0.11472741
63	0x3e6098b9	0.21933259
64	0xbdce106f	-0.10061728
65	0xbe05acf5	-0.13054259
66	0xbea07b4c	-0.31344068
67	0x3f32c98b	0.6983878
68	0xbc917f87	-0.017761005
69	0xbea06252	-0.31325012
70	0xbef361d5	-0.47535577
71	0xbce2c1aa	-0.027680237
72	0xbe32feca	-0.17480007
73	0x3f33e48c	0.7027061
74	0x3d6c5966	0.057702444
75	0xbe0134f2	-0.12617853
76	0x3ee72449	0.4514487
77	0x3e939cdc	0.28830612
78	0xbe7253d9	-0.23664798
79	0xbe957c24	-0.29196274
80	0xbea0260f	-0.31279036
81	0xbe2a7df3	-0.16649608
82	0xbe026336	-0.12733158
83	0xbda36136	-0.07977526
84	0x3d8d6ea9	0.069058724
85	0xbc9f10f8	-0.019417271
86	0xbd1f1408	-0.038837463
87	0x3d0993ae	0.033588104
88	0xbdc7617b	-0.0973539
89	0x3ccd812b	0.025086006
90	0x3db8db49	0.090262
91	0x3e0961e5	0.1341625
92	0xbda887e5	-0.08229045
93	0x3ee13e4b	0.43992838
94	0x3f0c9d92	0.54927933
95	0x3b560913	0.0032659217
96	0x3e8a54a0	0.2701769
97	0x3e352ef5	0.17693694
98	0xbd105cfe	-0.035244934
99	0xbdf95e53	-0.12176194
100	0xbd34fed5	-0.04418834
101	0x3dbaecc7	0.09127193
102	0xbdf1270c	-0.11775026
103	0xbe55102e	-0.20806953
104	0x3d80b232	0.06283988
105	0x3dca73c4	0.09885362
106	0xbebb8ec2	-0.36632353
107	0xbc842205	-0.016129503
108	0xbe51192b	-0.20419757
109	0x3e1e70eb	0.15472762
110	0xbea2360f	-0.31681868
111	0x3db0552b	0.086099945
112	0x3d996bb3	0.07491245
113	0xbe94a319	-0.29030684
114	0x3dd41637	0.103558
115	0x3e023e0e	0.12718984
116	0x3d7d96ed	0.061911512
117	0x3cb613e0	0.022226274
118	0xbe98e326	-0.298608
119	0xbe2007cf	-0.15627979
120	0xbd8032ea	-0.06259711
121	0xbdadf948	-0.08494812
122	0xbd98ff8c	-0.07470617
123	0x3e2c6a9a	0.1683754
124	0x3e5d254e	0.21596262
125	0xbdce00db	-0.10058757
126	0xbe37f6bd	-0.17965217
127	0xbe73a09c	-0.23791736
128	0xbe983890	-0.29730654
129	0xbdee94d3	-0.1164948
130	0xbe2269ac	-0.15860623
131	0x3cb511d3	0.022103226
132	0xbd7ab1c6	-0.061204694
133	0x3dc3c9b4	0.09559956
134	0xbe3e0398	-0.18556058
135	0x3e0c55c6	0.13704595
136	0xbdcb6d9d	-0.099330164
137	0xbe57e9ef	-0.21085332
138	0xbe091f7b	-0.13390915
139	0x3bde3d0a	0.0067821788
140	0x3d1e1d55	0.038602192
141	0x3e049f55	0.12951405
142	0xbd813e58	-0.06310719
143	0xbd1686db	-0.036749702
144	0xbdbcba11	-0.09215177
145	0xbc7c4415	-0.015397091
146	0xb99c6224	-0.0002982776
147	0x3e8b6e05	0.27232376
148	0x3f7b54e1	0.9817639
149	0x3f16e428	0.5894189
150	0xbe50b573	-0.20381717
151	0x3e1dfc3e	0.15428254
152	0xbd97d306	-0.074132964
153	0xbd746776	-0.05966898
154	0xbda0a9ee	-0.078449115
155	0xbdb01811	-0.0859834
156	0x3e46333e	0.19355485
157	0xbd267319	-0.04063711
158	0xbd8a093a	-0.06740041
159	0x3e32e7e7	0.17471276
160	0x39d115f2	0.00039879937
161	0x3cd08d7b	0.025458088
162	0xbd415bda	-0.047206737
163	0x3d4133cc	0.047168538
164	0xbe792e45	-0.24334057
165	0xbe77f1dd	-0.24213357
166	0xbc2d44cb	-0.010575484
167	0xbee38b9d	-0.44442454
168	0x3bb53157	0.0055295634
169	0x3d779102	0.060441025
170	0xbe33c1c6	-0.17554387
171	0xbe59cb32	-0.21268919
172	0x3e062c66	0.13102874
173	0xbd8eecc3	-0.069787525
174	0x3db8d9b8	0.090259016
175	0x3e906bd3	0.28207263
176	0xbdc59894	-0.096482426
177	0xbe4c0fa9	-0.19927849
178	0xbda69c6e	-0.08135305
179	0xbe0dbbda	-0.13841191
180	0x3d34d690	0.044149935
181	0x3d98b92c	0.07457194
182	0xbe66dd9f	-0.22545479
183	0x3d840149	0.064455576
184	0x3ebfbf55	0.37450662
185	0x3bda8595	0.0066687563
186	0xbe8201ad	-0.25391904
187	0xbd5c35b4	-0.053762153
188	0x3be622a6	0.0070231734
189	0x3c62b23a	0.013836438
190	0x3e644222	0.22290853
191	0xbdb0b103	-0.08627512
192	0x3e2e72b3	0.17035942
193	0xbdc4aed0	-0.09603655
194	0xbe814a93	-0.25252208
195	0x3e9c73dd	0.30557147
196	0x3e2abee0	0.16674376
197	0x3d3deea8	0.04637018
198	0xbd488bd1	-0.048961464
199	0xbd2b0b7d	-0.041759003
200	0x3e0f8cb7	0.14018522
201	0xbde134e8	-0.10996419
202	0x3b960a0f	0.004578836
203	0xbdaf4543	-0.085581325
204	0x3ccccb02	0.024999145
205	0x3def93fe	0.11698149
206	0x3c4a7917	0.012357972
207	0xbe06acc9	-0.1315185
208	0xbbae87e6	-0.005326259
209	0xbe8a0295	-0.26955095
210	0x3e7d14b0	0.24714923
211	0x3edbd297	0.42934105
212	0xbd25d1d7	-0.040483322
213	0x3c5897a6	0.01321975
214	0x3ebdac2e	0.37045425
215	0xbe672ea1	-0.22576381
216	0xbc118f72	-0.008884298
217	0x3ee2b005	0.44274917
218	0xbbfbd46d	-0.0076852352
219	0xbe0664f0	-0.13124442
220	0xbd262d59	-0.04057059
221	0xbc817d21	-0.015806736
222	0x3ecea9c1	0.40363887
223	0x3d91b4fb	0.071145974
224	0x3da65294	0.08121219
225	0xbbf94927	-0.0076075974
226	0xbd148c8d	-0.036266852
227	0xbe48c6c8	-0.19607079
228	0xbe08f697	-0.13375317
229	0xbcafbdc3	-0.02145279
230	0xbe2958cf	-0.16537784
231	0xbd01f2de	-0.031725757
232	0xbddfe761	-0.10932804
233	0x3cc12355	0.023576418
234	0xbd198f85	-0.037490387
235	0xbd547cee	-0.051876955
236	0x3c977ae6	0.01849122
237	0x3e4069af	0.18790315
238	0x3de1b54d	0.110209085
239	0xbbe9366a	-0.0071170824
240	0xbdf03ae3	-0.11729982
241	0x3de4ac8a	0.11165722
242	0x3d2bbc8d	0.041927863
243	0xbcc869aa	-0.024464447
244	0x3d24679b	0.04013787
245	0x3d9bfe36	0.07616846
246	0xbf019d0f	-0.5063028
247	0xbf326d50	-0.6969805
248	0xbe93a998	-0.28840327
249	0xbd6ca594	-0.057775095
250	0xbe90a8d4	-0.28253806
251	0xbea0d3eb	-0.3141168
252	0x3c61e901	0.013788463
253	0x3e92ace8	0.28647542
254	0x3e951b90	0.2912259
255	0xbe1c8f8f	-0.15289138

block1.2.bn2.weight f4 [8]
0	0x3f2124b9	0.6294666
1	0x3f5cfe66	0.8632568
2	0x3f9294d5	1.145167
3	0x3edd22f3	0.43190727
4	0x3f162a70	0.58658504
5	0x3f002eea	0.50071585
6	0x3f3d0c73	0.7384712
7	0x3f68e9ed	0.9098194

block1.2.bn2.bias f4 [8]
0	0xbdbfa44c	-0.09357509
1	0xbe24499c	-0.16043705
2	0xbf5dec66	-0.8668884
3	0x3dd093dc	0.10184452
4	0xbb9a6fa0	-0.004713014
5	0x3d26c244	0.04071261
6	0xbe594470	-0.21217513
7	0xbefb5e1d	-0.4909524

block1.2.bn2.running_mean f4 [8]
0	0xbecc5177	-0.39905903
1	0xbe9e9073	-0.3096958
2	0x3f112248	0.56692934
3	0xbfb0e42a	-1.381963
4	0x3fe1a7e6	1.7629364
5	0x3e96e953	0.29474887
6	0xbe1b94fa	-0.15193549
7	0xbf24428b	-0.64164037

block1.2.bn2.running_var f4 [8]
0	0x3ef8b8f0	0.48578596
1	0x3f924c40	1.142952
2	0x3f9c989f	1.2234076
3	0x3f3c5778	0.73570967
4	0x3fa2e0db	1.272487
5	0x3f46bd14	0.7763226
6	0x3f6250c9	0.8840452
7	0x3f0ba14b	0.5454299

block1.2.conv3.weight f4 [16, 8, 1, 1]
0	0xbebdfc87	-0.37106726
1	0xbdde5209	-0.10855491
2	0xbdccb97e	-0.09996317
3	0xbf0d75df	-0.5525798
4	0x3d460efb	0.04835413
5	0x3f276496	0.65387857
6	0xbd974638	-0.0738644
7	0x3d82777a	0.063704446
8	0x3b101a7b	0.002198844
9	0x3e57b510	0.21065164
10	0x3d5096e2	0.050925143
11	0x3c2b632d	0.010460657
12	0x3ec77162	0.38953692
13	0x3e36788f	0.17819427
14	0x3ed44e63	0.41466054
15	0x3ebe99a6	0.372266
16	0xbef0fd1f	-0.47068116
17	0xbe4a275d	-0.19741578
18	0xbecd1dbc	-0.40061748
19	0xbe4eac8a	-0.20183006
20	0xbd8bdb5e	-0.0682895
21	0x3ca60db8	0.020270213
22	0xbf1e0d2e	-0.6173886
23	0x3e4b2719	0.19839133
24	0x3c8a9d2f	0.016920654
25	0x3e8a238a	0.2698024
26	0x3e6bcdb8	0.23027694
27	0xbdeee3de	-0.11664556
28	0xbd291074	-0.041275457
29	0x3e9023cf	0.2815232
30	0x3e853631	0.26017907
31	0x3eaad409	0.33364895
32	0x3e4e817e	0.20166585
33	0x3f2ed78e	0.6829766
34	0xbe6ab80d	-0.22921772
35	0x3e37e239	0.17957391
36	0xbe2d06bd	-0.16897102
37	0x3c5e47e9	0.013566949
38	0xbdcf9744	-0.101362735
39	0xbc19b870	-0.009382352
40	0x3e9c837e	0.3056907
41	0x3d319d42	0.043362863
42	0xbda93d20	-0.08263612
43	0xbde39aef	-0.111135356
44	0xbef3c227	-0.47609064
45	0xbeb51789	-0.35369518
46	0x3cdd1b73	0.026990628
47	0x3dc45cfb	0.09588047
48	0xbebf1f2b	-0.37328467
49	0xbe96f88c	-0.294865
50	0x3d932630	0.07185018
51	0xbe90c2a7	-0.28273508
52	0xbe191768	-0.14950335
53	0xbf07f436	-0.5310701
54	0x3e493fb2	0.19653204
55	0xbe8ae81e	-0.27130216
56	0xbea3b584	-0.31974423
57	0xbd131db9	-0.035917018
58	0xbe536e15	-0.20647462
59	0xbec5ce78	-0.38634086
60	0xbeb029c4	-0.34406865
61	0xbe7cbea7	-0.24682103
62	0xbec6d071	-0.38830903
63	0xbdf88c0e	-0.12136088
64	0x3e08b23d	0.13349243
65	0x3ec7e2aa	0.39040118
66	0x3db10a34	0.08644524
67	0x3e01400e	0.12622091
68	0xbe82799d	-0.2548341
69	0xbd9b9cad	-0.07598243
70	0xbd269fbd	-0.040679682
71	0x3e512124	0.20422798
72	0xbda0bac6	-0.07848124
73	0xbd8e8702	-0.069593444
74	0xbe1ccd9a	-0.15312806
75	0xbe1d1f62	-0.15344003
76	0xbc1cddd9	-0.009574377
77	0x3d12bc2b	0.035823982
78	0x3cbbe066	0.02293415
79	0xbe258e64	-0.16167599
80	0x3e83aecc	0.25719297
81	0x3d2161df	0.039399978
82	0xbc0f86cf	-0.008760168
83	0x3e64aaec	0.22330827
84	0xbe870786	-0.26372927
85	0x3a06b10e	0.00051380775
86	0x3c21fbbd	0.009886679
87	0xbec383b1	-0.3818641
88	0x3d82c61d	0.06385443
89	0xbe4bad3e	-0.19890305
90	0xbfbd928c	-1.4810348
91	0xbe60bd36	-0.21947178
92	0x3e491f32	0.19640806
93	0xbe152757	-0.14565788
94	0xbe96e3a0	-0.2947054
95	0x3d9d7512	0.07688345
96	0xbd852e5c	-0.06502983
97	0xbe3efe4a	-0.18651691
98	0xbee17580	-0.44034958
99	0xbd646e15	-0.055769045
100	0x3d87010f	0.06591999
101	0x3e80cca0	0.25156116
102	0x3d4683ff	0.048465725
103	0xb98378e2	-0.00025076332
104	0x3e596717	0.21230732
105	0xbb702cae	-0.0036647725
106	0xbf04fa50	-0.51944447
107	0x3d805f5d	0.06268189
108	0xbccaaae3	-0.024739688
109	0x3e77c2b6	0.2419537
110	0x3e3bcee5	0.18340643
111	0xbe49f509	-0.1972238
112	0x3ba116c6	0.004916045
113	0xbf57c036	-0.84277666
114	0xbc591a92	-0.013250964
115	0xbe11f3f3	-0.14253215
116	0xbf065638	-0.5247531
117	0x3e80f4e0	0.25186825
118	0x3eaecdd2	0.34141403
119	0xbf3e687e	-0.7437819
120	0x3ef52419	0.47879103
121	0xbd48866a	-0.048956312
122	0x3e229fe7	0.1588131
123	0xbe4f9280	-0.20270729
124	0xbd3723aa	-0.044711746
125	0xbd134ad4	-0.035960034
126	0xbec97b3d	-0.39351836
127	0xbf0de96d	-0.55434304

block1.2.bn3.weight f4 [16]
0	0x3e8fd4b9	0.28091982
1	0x3eb10289	0.34572247
2	0x3ed9d00d	0.42541543
3	0x3ebcd4ab	0.36881003
4	0x3ef50dc1	0.47862056
5	0x3eb14484	0.34622586
6	0x3e9a525b	0.30140957
7	0x3f0cf232	0.5505706
8	0x3eaaa93e	0.33332247
9	0x3dbd4ee1	0.092435606
10	0x3de59e05	0.112117805
11	0x3f85ae4d	1.0443817
12	0xbe508c97	-0.20366131
13	0x3ee3d018	0.444947
14	0x3f819a5a	1.0125229
15	0x3e86db1d	0.26339045

block1.2.bn3.bias f4 [16]
0	0xbec12259	-0.37721518
1	0x3e4c8d67	0.19975816
2	0xba98d510	-0.0011660177
3	0x3db04aa0	0.086079836
4	0x3e9fdfc7	0.31225416
5	0xbf46e41c	-0.7769182
6	0xbdfbbd62	-0.12291981
7	0x3dafc1dc	0.085818976
8	0xbd481591	-0.048848692
9	0x3e0b25d6	0.13588652
10	0xbb941af8	-0.0045198165
11	0xbe11a4dc	-0.14223045
12	0xbd45f8d6	-0.04833301
13	0x3e0b51fe	0.13605496
14	0xbe57df19	-0.21081199
15	0xbd65a917	-0.05606946

block1.2.bn3.running_mean f4 [16]
0	0xbdd03c6e	-0.10167776
1	0x3ea545f0	0.3227992
2	0xbeb0c156	-0.34522504
3	0x3e714199	0.2356018
4	0x3e2192e6	0.15778694
5	0xbdffead7	-0.12495964
6	0xbeaf9ae7	-0.3429787
7	0xbed24279	-0.4106634
8	0x3dee88a5	0.116471566
9	0xbdde85da	-0.10865374
10	0xbb6099de	-0.00342714
11	0xbebb4d38	-0.3658235
12	0xbd90acaf	-0.07064187
13	0x3c13a606	0.009011751
14	0xbeba4c1f	-0.363862
15	0xbdf3bf70	-0.11901748

block1.2.bn3.running_var f4 [16]
0	0x3de86b8b	0.11348637
1	0x3e0f17d2	0.1397393
2	0x3e889bf2	0.26681477
3	0x3e36678b	0.17812936
4	0x3e2fdb37	0.17173468
5	0x3d6727e3	0.056434523
6	0x3e386100	0.18005753
7	0x3df6ec86	0.12056832
8	0x3e2034bd	0.15645118
9	0x3d2c9fdc	0.04214464
10	0x3d3ade52	0.045622177
11	0x3fc28eff	1.5199889
12	0x3e2fbab7	0.1716107
13	0x3e35ff26	0.17773113
14	0x3f49e71b	0.78868264
15	0x3e3639a1	0.17795421
