assignment1/results/trial_2/resBottleneck/ckpts/36000.pt (torch, 562436 bytes, 242 tensors)

block1.0.conv1.weight f4 [8, 16, 1, 1]
000000 41 fd 03 3e 37 13 89 bd 7b 47 4b 3d d0 24 a5 bc
       0.12889577 -0.06693118 0.049628716 -0.020159155
000010 7c 6f 87 3d ec 22 96 3d ed 5a 7c bd bb 27 b5 3b
       0.06613061 0.073308796 -0.06161015 0.005528418
000020 56 30 4a 3e d2 99 20 3d ab 8d 87 3d 80 0b 8e 3e
       0.19745001 0.039209194 0.06618818 0.2774315
000030 54 4a 8d 3e 53 b7 ab 3e f6 58 34 be 66 09 6d 3f
       0.2759577 0.33538303 -0.17612061 0.92592466
000040 d6 21 9e bc eb e0 ae be 8b 88 a8 3c e6 7c 45 be
       -0.019303244 -0.34155974 0.020572921 -0.19285926
000050 d7 e1 1f bd b6 ae 03 bd f0 13 eb be d5 1e c1 bb
       -0.039033737 -0.03214904 -0.4591365 -0.005893568
000060 28 9f c3 be 2a 6c bd 3d 6a 09 01 bf 43 77 9b be
       -0.38207364 0.09249146 -0.5040499 -0.30364427
000070 a1 03 8c be 9c fe 3b 3d 17 c8 28 3e 76 98 92 be
       -0.2734652 0.04589711 0.16482578 -0.28631943
000080 f7 90 93 be 50 03 06 be 9b 2e 93 3d d9 96 2a bf
       -0.28821537 -0.13087201 0.07186624 -0.66636425
000090 62 94 26 bc 2d a9 1e bd 0d fc d3 3e c5 64 24 3c
       -0.010167213 -0.038735557 0.41403237 0.010033791
0000a0 7e 65 a1 3d 0c c6 7a 3d ff 97 da bf 4a 3d 80 3e
       0.07880686 0.06122403 -1.7077636 0.2504676
0000b0 d3 e5 38 3e 3a 41 e3 bc 10 c8 61 be 14 99 db 3c
       0.18056421 -0.027741063 -0.22048974 0.026806392
0000c0 7a 9d d8 3d 7b 8d c8 be 71 4c 2f be c0 ea 08 bd
       0.10576911 -0.3917044 -0.17119004 -0.033427
0000d0 1a 5c 13 3e c4 e0 66 bd 4d 0e d1 be 6a 5b fe 3d
       0.14390603 -0.056366697 -0.40831223 0.124197796
0000e0 09 54 a3 be ba ec 3d 3d 50 9e 5d 3d 4e 8c 29 bf
       -0.3190005 0.04636834 0.054106057 -0.6622971
0000f0 55 77 c7 be fc 01 97 bd 7f 2e 82 3e 16 cc 22 bf
       -0.3895823 -0.07373425 0.254261 -0.6359266
000100 95 85 05 bc 03 ed 44 bf 91 de 4c bd 99 00 1b be
       -0.008149524 -0.7692415 -0.050016943 -0.15136947
000110 4d a6 61 bd ce 3f 01 be 0a 0a d4 be d2 55 a5 bd
       -0.055090237 -0.12621996 -0.4141391 -0.080730096
000120 7e d2 9c be df ac f6 bc 6a cc 04 3e 8c a8 b1 3d
       -0.30629343 -0.030111728 0.12968603 0.08674726
000130 83 17 9f 3d e4 ee 29 be e3 10 9d be 02 47 a5 bd
       0.077681564 -0.16595036 -0.30676946 -0.08070184
000140 41 ce 1a 3e 86 51 43 3e ac 22 df be 77 85 dd be
       0.15117742 0.19074067 -0.4358114 -0.43265888
000150 2d 19 5e bd cd 5f bb 3d c2 d4 44 3e 6f a3 3c 3d
       -0.05422323 0.09149132 0.19221786 0.0460543
000160 e1 ba ad 3d b2 c2 7a 3d bb c3 59 bf 72 8d d4 be
       0.0848291 0.061220832 -0.85064286 -0.41514164
000170 31 41 38 bd c4 28 2b 3d bc f1 88 be 4e 65 47 3d
       -0.044984046 0.041786924 -0.2674693 0.048680596
000180 75 86 32 be 78 a4 36 3f 0c 63 a1 3e ef 85 f7 bd
       -0.17434104 0.7134471 0.3152088 -0.12086093
000190 15 c9 f0 3d b0 ef 00 3c bf 45 05 bf 7a 93 4a 3d
       0.11757103 0.007869646 -0.5205955 0.04945705
0001a0 78 a0 01 3f e6 f5 8d bd 53 5f ad 3e e8 3a cc bd
       0.5063548 -0.06931667 0.3386179 -0.09972173
0001b0 dc 53 fd 3c 4f 6d d3 3e 1f 8f dd 3e b8 df aa 3d
       0.030923776 0.41294333 0.43273255 0.08343452
0001c0 51 7b 7d be 4e f6 40 3f c1 bb da bd 87 77 dc be
       -0.24754073 0.7537583 -0.106803425 -0.43059942
0001d0 b9 c8 ba bd 2c de c9 bd 93 60 4a be 91 d8 d6 bc
       -0.09120316 -0.09856829 -0.19763403 -0.026226314
0001e0 64 37 06 3f 6a fa fc 3b f2 34 7c 3d 2b 62 67 bc
       0.5242827 0.0077202814 0.06157393 -0.014122526
0001f0 cf cb d8 3e 58 fd 6b 3e 23 e8 de be 43 00 1c 3e
       0.42342994 0.23045862 -0.4353648 0.15234475

block1.0.bn1.weight f4 [8]
000000 0c b5 11 3f 86 4e 47 3f 04 7a 7a 3f 79 9b 22 3f
       0.5691688 0.7785419 0.9784243 0.6351848
000010 5b 1a aa be c8 18 77 3f 1b 37 4a 3f d1 f0 14 3f
       -0.33223233 0.9652219 0.78990334 0.58179957

block1.0.bn1.bias f4 [8]
000000 c0 bf 15 be 0f 55 93 be 67 b9 47 3e f3 91 3f 3e
       -0.14623928 -0.28775832 0.19504319 0.18708019
000010 95 ca 20 3f 6c d4 ba be 0a e6 f0 be f9 4d 00 3e
       0.62809116 -0.3649019 -0.47050506 0.12529744

block1.0.bn1.running_mean f4 [8]
000000 73 c6 43 40 70 15 4b c0 f2 63 36 c0 8b 4c 5c c0
       3.0589874 -3.1731834 -2.8498502 -3.4421718
000010 7b 48 d4 bf af f3 0e c0 93 a7 38 3f 24 f1 3a bf
       -1.6584619 -2.2336233 0.721307 -0.730242

block1.0.bn1.running_var f4 [8]
000000 f3 72 8a 40 89 6b 18 40 10 c1 0e 41 f9 30 a1 40
       4.326532 2.3815634 8.922134 5.037228
000010 bb af 7b 3f 01 19 75 40 21 c1 9c 40 24 78 36 40
       0.9831502 3.829651 4.8985753 2.8510828

block1.0.conv2.weight f4 [8, 8, 3, 3]
000000 04 38 87 3d 79 62 3e 3e ba 4c 16 bd d6 34 cc bc
       0.06602481 0.18592252 -0.036694266 -0.024927538
000010 65 12 95 bd fd 76 3d be 0c ef 23 bc 74 e9 dc bd
       -0.07278899 -0.18502422 -0.010005724 -0.10786715
000020 c3 1d 45 3e d6 b3 aa bc 35 77 1d 3e 93 39 f2 bd
       0.19249634 -0.020837706 0.15377505 -0.11827388
000030 67 41 3f 3e 30 24 09 3f 96 c4 55 be 73 ed 04 be
       0.18677293 0.5357084 -0.20875773 -0.12981205
000040 6c b5 0a 3d 69 5d 1c 3d f4 1e 67 3c 53 7a be bd
       0.033864424 0.03817502 0.014106501 -0.09300675
000050 b2 9d 21 be 27 86 a5 bd 03 b1 9f 3c b0 e8 68 be
       -0.15782812 -0.08082228 0.019493585 -0.22745013
000060 30 00 6b 3c ee f8 80 bd cf b9 a1 3d d9 1d 1e be
       0.014343306 -0.062974796 0.07896768 -0.15441073
000070 86 2e 36 be e9 80 73 be 29 71 0b 3f f7 3d 74 3f
       -0.17791185 -0.23779644 0.54469544 0.9540705
000080 b2 b8 94 3e 1e 1e 09 be c0 c3 f4 3d 23 70 45 be
       0.2904716 -0.13390395 0.11951399 -0.19281058
000090 f6 e9 01 bd 9a ae 3a 3e fa f9 d6 3d af 55 ac 3a
       -0.031717263 0.18230668 0.10496898 0.0013148094
0000a0 87 06 9e bd 9f 6a da bc d6 53 ad be 08 0b 9a be
       -0.07716089 -0.026662169 -0.33853024 -0.3008654
0000b0 60 1d 13 bd 1f 2d a5 bb ee 06 81 be b4 a0 f9 3d
       -0.035916686 -0.0050407792 -0.252006 0.12188855
0000c0 e4 0d 84 3c 09 50 1d 3e 70 15 23 3e 62 41 13 3d
       0.016119905 0.15362562 0.15926147 0.035951026
0000d0 b3 59 4d 3e ca 4a ea bd 43 2e cc bd e7 04 e7 3d
       0.20053749 -0.11440046 -0.09969761 0.11280232
0000e0 7d 84 70 bc 4c 9d 75 3d ff de 9d 3e 3e 5f 36 3d
       -0.014680025 0.059964463 0.30834195 0.044524424
0000f0 8b 6d d5 3d 5a b2 92 3e f8 0c 0a 3e f6 bb d3 3c
       0.10421284 0.28651696 0.1348151 0.025846463
000100 ad 9a a2 3d aa 4b a7 3e 24 5e 50 be 9d c9 f3 bd
       0.07939658 0.32674915 -0.20348412 -0.11903689
000110 67 81 1c 3e 74 47 f3 bd a9 77 b8 bc ef 6c 6c 3c
       0.15283738 -0.11878863 -0.022517996 0.014430269
000120 99 a1 14 be 8a cf 0a 3e 38 19 64 3e ce 2f da bd
       -0.1451477 0.13555732 0.22275245 -0.10653649
000130 28 53 b8 bc 1f f4 20 3e 06 45 54 3e 0b bf ce bd
       -0.02250059 0.15718125 0.20729455 -0.10095032
000140 f3 53 1d be 0b e2 81 3d 26 ad 96 3e ea 86 67 3d
       -0.15364055 0.063419424 0.29428977 0.05652515
000150 43 12 7a be 4f cc ee be 2f 7c 39 bd 42 62 59 3c
       -0.24421029 -0.4664025 -0.045284446 0.013268055
000160 bd fe b8 bc e8 db ba 3d 38 cb ea 3b 51 32 35 3e
       -0.022582406 0.09123975 0.007165339 0.17694975
000170 55 6f de bd c9 fb 59 be 5b fb 84 bf 7d a0 b6 bd
       -0.10861079 -0.21287455 -1.0389208 -0.089173295
000180 09 e6 86 3e b8 e1 1f 3f 6b c1 36 3e c6 a2 3d be
       0.26347378 0.62453794 0.1784722 -0.18519124
000190 35 3c 02 3e d1 02 0d be 24 11 36 3e e0 62 6d ba
       0.1271828 -0.13770606 0.17779976 -0.0009055566
0001a0 ab 54 9e 3d ae e7 e3 3d ca f7 8b 3e 36 fc 05 3e
       0.07730993 0.11128174 0.27337486 0.13084492
0001b0 90 1f 8e bb 8f 99 28 3e 93 1f d3 bd b0 42 08 be
       -0.0043372586 0.16464828 -0.10308757 -0.1330669
0001c0 e0 44 98 3d 2b 12 64 3d 29 4b fb 3c 06 4a a6 bc
       0.07435012 0.05568139 0.030675488 -0.020298969
0001d0 79 0e 54 bc 87 13 a7 3d 86 81 6c 3e 10 ba 91 bd
       -0.012942904 0.081580214 0.23096284 -0.07115567
0001e0 9e 74 06 bf 91 b5 c3 be c1 ec 0c 3e 80 7c 42 3e
       -0.52521694 -0.38224462 0.1376219 0.18992805
0001f0 53 39 cf 3d f2 07 65 3e c3 d6 37 bd 5a a9 29 3e
       0.101183556 0.22366312 -0.044882547 0.16568509
000200 ab 14 3e bd d7 ba c6 bc 69 1b de 3d 35 94 af bd
       -0.04640643 -0.024259014 0.10845072 -0.0857319
000210 4a ec 2b 3e 73 91 84 3d af d8 9f bd 6f b2 e2 bc
       0.16789356 0.06473055 -0.07805001 -0.027672974
000220 9e d7 62 bd 6b 44 c4 be fb d0 9e 3d 79 d8 11 3f
       -0.05538141 -0.3833345 0.077547036 0.56970936
000230 ff f6 2d 3e e1 0a ad 3e 54 dc 2b bd 30 da 62 bd
       0.16988753 0.33797362 -0.04195817 -0.05538386
000240 8b d4 87 3d 11 4b 51 3d 34 88 a8 3d 66 dd b1 3c
       0.06632336 0.05109698 0.08229104 0.021712016
000250 2c 17 cc 3c cb 78 09 bd c3 d1 40 3b be 8f 9f 3c
       0.024913393 -0.033562463 0.0029421903 0.019477721
000260 bf 51 b3 bc 6d fc 61 3d bb 7a 15 3d d4 9e 4d 3d
       -0.021889566 0.055172373 0.036493998 0.0502003
000270 ea 0b bb 3c 21 ad 8a 3c 3f c0 d7 b8 aa 05 d2 39
       0.02283283 0.016928257 -0.000102878075 0.0004005854
000280 ed f4 99 bc c0 a7 2e bc 1b 25 dc 3c ce fd da bc
       -0.018793548 -0.010660112 0.026873162 -0.026732352
000290 1c 00 57 bd 32 aa 36 3c 67 c6 4a bd 44 32 f5 bc
       -0.05249034 0.011148976 -0.049505617 -0.029931195
0002a0 bc 3d 1c bd 18 2d c5 3c bd 18 e1 bb 72 34 ae 3c
       -0.038144812 0.024069354 -0.006869404 0.021265242
0002b0 6e b1 83 3c 4e 1b f6 bc 2c b5 02 3d 81 18 91 3d
       0.016075816 -0.030042317 0.03191106 0.07084752
0002c0 1e c3 8a 3c 0f 49 7d 3d cf 3a ee 3d 73 c1 30 3c
       0.016938742 0.061837252 0.116323106 0.010788309
0002d0 44 3b 4d bd e6 48 1b bd 30 9c 01 bd 07 d1 49 3c
       -0.05010535 -0.03791132 -0.031643093 0.012317902
0002e0 be dc ba bb d0 17 5d bd 17 f8 6d bc e1 ee b7 3c
       -0.005702584 -0.053977787 -0.014524481 0.022452774
0002f0 4a 1c 25 bd 88 a5 83 3d 56 f5 9a 3c 57 bf 86 3c
       -0.04031018 0.06428057 0.018915813 0.01644866
000300 b5 aa 4e 3d c0 7a 88 3c 9b 2f 11 3c 02 1d 4a 3d
       0.050455768 0.016660094 0.008861448 0.04934407
000310 73 6c ed 3c 4d 1b 05 bc 51 8d 70 3a 63 06 2b 3c
       0.028982377 -0.008124185 0.0009176331 0.010438534
000320 60 05 c1 3c 05 54 ac 39 a6 b8 58 3d 0f f8 a9 3d
       0.023562133 0.00032868996 0.05291047 0.082992665
000330 25 45 ba 3c 9f 91 2f bd 0d 32 fd ba 6b 8c 1e 3d
       0.022738049 -0.042863484 -0.0019317284 0.03870813
000340 43 46 20 bd fd c9 3e bd 8d 9f 83 3d 2c 3b f4 3b
       -0.039129507 -0.04657935 0.06426916 0.007453343
000350 c1 f0 a8 bc b7 ce 0c 3d 1e 06 6d b9 2b 40 85 bd
       -0.020622613 0.034376826 -0.0002260436 -0.0650638
000360 b9 58 46 3e b1 7f dd bc c4 d4 17 be cb b3 52 3e
       0.19369783 -0.027038427 -0.14827257 0.20576398
000370 8f a0 89 3e 4c 11 5b 3d 7b b5 bb 3c 6a b5 31 be
       0.2688031 0.053483292 0.022913685 -0.1735436
000380 cf 9d 21 bd 21 1a 81 3d e2 86 a6 3e a6 a1 7c bc
       -0.03945714 0.06303812 0.32524782 -0.015419399
000390 9c c1 37 3d 27 f3 dc 3d c8 a2 84 be 79 25 8b bd
       0.044862375 0.10788565 -0.25905442 -0.06794257
0003a0 03 71 84 be ae 6b 7b be 20 71 20 be 63 aa 11 3f
       -0.2586747 -0.24552795 -0.15668154 0.56900615
0003b0 16 3e b7 3e 95 60 0f be e5 7d 63 bd 86 05 8e 3d
       0.35789555 -0.14001687 -0.055539984 0.06934647
0003c0 0a 2f 22 be d5 5f 9f 3e 0c 89 e3 3d 50 25 a7 3d
       -0.15838256 0.31127802 0.11110124 0.08161414
0003d0 bb d2 7f 3e 44 8f 35 3e 8a 73 34 bd 4a de b3 be
       0.24982731 0.17730433 -0.0440555 -0.3513053
0003e0 59 33 72 be 06 e7 b3 3d 61 08 ae be 0c 08 40 bd
       -0.236524 0.087842986 -0.33990768 -0.046882674
0003f0 f1 b0 37 3e 0e 37 25 bb 41 90 5f be ab 8c 48 3d
       0.17938592 -0.0025209817 -0.21832372 0.048962276

block1.0.bn2.weight f4 [8]
000000 2d ba e8 3e 85 5d 1b 3f ef 3b 14 3c 58 41 29 3f
       0.4545454 0.60689574 0.009047492 0.6611533
000010 05 c5 59 3c dd 63 8b 3f 70 4f 05 3c b7 a1 c5 3e
       0.013291602 1.0889851 0.008136615 0.3859994

block1.0.bn2.bias f4 [8]
000000 6d 22 ea 3d 87 b5 b2 bd e9 cf a0 bd 80 53 2c 3f
       0.114323474 -0.0872603 -0.07852156 0.6731491
000010 03 08 a9 bd b6 5c 1f be eb 3b 81 bd f9 42 f9 3e
       -0.08253481 -0.1556271 -0.063102566 0.4868391

block1.0.bn2.running_mean f4 [8]
000000 ea 8c 0e 3e 56 7d 9b 3e ef d9 ed 3c d5 53 b7 3f
       0.13920942 0.3036906 0.029034583 1.4322459
000010 14 04 94 bc 7d b2 17 3f d7 67 41 3e b5 e5 20 bf
       -0.01806835 0.59256727 0.18887268 -0.62850505

block1.0.bn2.running_var f4 [8]
000000 d3 77 9b 3e ca f8 d6 3e c9 f3 94 3c 1b 5e 9d 3f
       0.30364856 0.41986686 0.018182652 1.2294344
000010 04 00 b6 3c b3 6c 8a 3f 62 3a 15 3d 1b a3 eb 3e
       0.022216804 1.0814422 0.03643263 0.46022877

block1.0.conv3.weight f4 [16, 8, 1, 1]
000000 9c d7 d5 bd 9f e4 f0 bd 23 a7 dc bb 54 8e de 3c
       -0.10441515 -0.11762356 -0.0067337914 0.027167477
000010 96 ea 29 3d 92 8f a5 be 74 75 38 bd 3f e7 7a 3c
       0.041483484 -0.32336098 -0.045033887 0.015313922
000020 fb e5 b3 3e 9b 1a 9a 3e 96 bf 52 3d da ec af 3e
       0.351364 0.30098423 0.05145224 0.3436039
000030 9c 43 0b bc 99 3f ad 3e b2 46 61 3d 45 dc 7e be
       -0.008500006 0.33837584 0.05499906 -0.24888714
000040 aa 40 8a be e6 a7 e8 bd e4 1d 87 bd bc 7e a9 3d
       -0.2700246 -0.11360149 -0.06597498 0.08276126
000050 20 4d a6 3c 7a c4 ff be 97 b6 05 3d bd 50 34 be
       0.020300448 -0.49954587 0.032644834 -0.17608924
000060 0d 8e ad 3c 05 de 7e 3d f9 eb 44 bb 0d ea 80 3e
       0.0211859 0.062223453 -0.0030047877 0.25178567
000070 5a 6b 83 3c e1 ca a4 3e ea dd c8 3c ce 25 a1 3c
       0.0160424 0.32186034 0.02451988 0.019671347
000080 f8 47 c0 3b 0d b6 64 bd de e4 b4 bd d0 94 2a 3e
       0.0058679543 -0.05583768 -0.088327155 0.1665833
000090 ed c1 40 bd 6b 6b d9 bc a2 58 ab 3b 30 4b ab 3c
       -0.047059942 -0.026540479 0.0052290717 0.020909876
0000a0 b7 85 05 bd 44 bb 3b 3d 06 c1 3c bc d6 9c 09 be
       -0.032598224 0.045832887 -0.01152063 -0.13438734
0000b0 a7 04 34 3c 3b 16 b8 3e 83 9e 73 bd 57 72 49 3c
       0.010987437 0.3595446 -0.05947734 0.012295327
0000c0 a2 b6 88 bd 12 33 73 be 42 6a 62 3d 71 3c 6a bf
       -0.066754594 -0.2374995 0.055277117 -0.91498476
0000d0 5e 08 1c 3d 59 6b f5 3a d2 8a 54 3d 62 1a bb be
       0.038093917 0.0018724009 0.051890202 -0.36543566
0000e0 06 9c dc bd fe f6 e7 bd 7f 4c 3c 3c b5 4e 98 bd
       -0.107719466 -0.11326407 0.011492847 -0.07436887
0000f0 a0 79 13 3d 9c e5 ab 3b 60 f9 5a bd 11 35 9b bd
       0.036004663 0.0052458774 -0.05346048 -0.07578481
000100 b5 f4 dd 3d 2c cf 30 bd 89 38 2f bd 06 a9 48 3c
       0.1083769 -0.043166324 -0.042778526 0.01224733
000110 29 6c c6 3c 74 c3 ff 3d aa e3 65 bd 53 a6 87 3d
       0.024221497 0.124884516 -0.05612532 0.06623521
000120 ce 39 bb 3e 8f f3 42 bd 91 b6 71 3d 7e cb 68 be
       0.3656754 -0.047595557 0.059012 -0.22733876
000130 f9 45 df bc b9 9c 09 be 55 2a c6 bc 22 08 9e be
       -0.027255045 -0.13438691 -0.024190107 -0.3086558
000140 26 35 81 bd 35 8d 54 3f bf 25 83 3d ac 7c 63 be
       -0.063089654 0.83027965 0.06403684 -0.22215527
000150 0d b8 83 3d d3 8b ce bc c8 5d 52 bd 7b c9 0b 3f
       0.06431589 -0.025213158 -0.051358968 0.5460431
000160 a4 35 27 be 6c 38 24 be dc 94 05 bd 01 53 20 be
       -0.16329056 -0.16037148 -0.032612666 -0.15656663
000170 0b 18 98 bc f6 0b d5 be 4e 62 fb ba 5c 45 c3 3e
       -0.018566152 -0.41610688 -0.0019179077 0.38138855
000180 b6 22 07 3d e3 c1 0f 3e c8 86 c4 bc 75 ef 1b be
       0.032992087 0.14038806 -0.02399005 -0.15228064
000190 87 15 82 3a d0 c8 42 bf 10 20 5a 3b 1a 15 7a 3e
       0.0009924629 -0.76087666 0.003328327 0.24422112
0001a0 12 61 ee 3e b6 b2 46 be e7 e9 74 3d bd 03 e7 be
       0.46558434 -0.1940411 0.05979338 -0.4512004
0001b0 0d c8 37 3d a2 f1 82 bd 05 26 0f 3d d1 3d c6 3e
       0.044868518 -0.06393744 0.034948368 0.38719037
0001c0 93 21 5f be e4 08 3c 3e fd fd 5e 3c 32 8a 12 bf
       -0.21790151 0.18362767 0.01361036 -0.5724212
0001d0 ff 73 13 3d c3 1c 4e be d5 af dd 3c 2b 38 12 3e
       0.035999294 -0.20128159 0.027061382 0.14279239
0001e0 ea c2 ac be 87 8c 66 3d 43 32 77 bb bd 25 62 be
       -0.33742458 0.05628636 -0.0037719167 -0.22084709
0001f0 15 74 9c 3d 8a 81 6e bf 65 22 80 3c a6 51 d2 bc
       0.076393284 -0.9316641 0.0156414 -0.025673699

block1.0.bn3.weight f4 [16]
000000 bb 96 41 3d 1a c3 68 3f 2c 4f 8c 3e 82 ee b2 3e
       0.04726289 0.909227 0.27404153 0.34947592
000010 bc ad 98 3c 59 7f 9b 3b e8 7a 3f 3f a3 37 ba 3c
       0.01863753 0.0047454056 0.74796915 0.022731608
000020 fe db 98 3d 47 ef a2 3e 8d 85 e4 3e 61 3d 24 3e
       0.07463835 0.3182318 0.4463314 0.16039039
000030 ec 62 57 3f 7a 9b 3b 3f 2d 0f cf 3e 70 42 75 3f
       0.8413532 0.73284113 0.40441266 0.958045

block1.0.bn3.bias f4 [16]
000000 12 b5 da 3c 31 ac 09 bf 2e 6a 59 3d a5 d6 d2 3d
       0.02669767 -0.5377837 0.053079776 0.102948464
000010 6c 8f e5 bd 58 a8 1f 3c 0b 8d 02 3f ac a3 88 bd
       -0.11208996 0.009744726 0.50996464 -0.06671843
000020 14 cd 10 bf 9c 34 16 3e 84 ee 71 3e 54 1e e3 bc
       -0.56562924 0.14668506 0.23626143 -0.027724423
000030 3f 6f e9 3d 5b 1c 8d 3e bf d4 a6 3e 48 2a d8 bd
       0.11398172 0.27560696 0.32584187 -0.105549395

block1.0.bn3.running_mean f4 [16]
000000 59 cd f9 bd 5c b0 b9 3e 62 06 8f be e6 dd 9b 3e
       -0.1219737 0.36267364 -0.27934557 0.30442733
000010 f4 52 de 3d 9f ad bf 3c c9 30 63 bf 34 6d 0d be
       0.10855666 0.023398219 -0.88746315 -0.13811189
000020 e7 6a c8 3d 2a 20 8f be ab ec 8e 3e 5c d4 e9 bd
       0.09786015 -0.27954227 0.27914938 -0.114174575
000030 66 40 38 be 5b c1 82 bd ae 64 ce be 9a a1 04 bf
       -0.17993316 -0.06384536 -0.40311188 -0.51809084

block1.0.bn3.running_var f4 [16]
000000 86 3d a9 3d 01 2f a3 3e a4 05 28 3e a5 24 2d 3e
       0.08263688 0.318718 0.16408402 0.1690851
000010 36 af e1 3b 5a e3 94 3d 46 06 a9 3e 42 e9 ac 3b
       0.006887342 0.07269926 0.330126 0.00527683
000020 89 49 3b 3c cf 88 71 3d 78 3d ea 3d 8b 2d 8c 3e
       0.011431106 0.05896836 0.114375055 0.27378497
000030 d5 78 13 3f fd 61 58 3e 14 fc 82 3e 31 e9 52 3f
       0.5760625 0.2113113 0.25582945 0.8238707

block1.1.conv1.weight f4 [8, 16, 1, 1]
000000 f1 d0 9b 3d 20 67 be 3d 9f 75 a8 3a 0d b7 22 bd
       0.07608212 0.09297013 0.0012852437 -0.039725352
000010 22 c2 f0 3d 4b bb f9 3d bf 26 12 3e 9c a2 94 bc
       0.11755778 0.121939264 0.14272593 -0.018143944
000020 5b 76 a9 3c dd 0c 29 bd a4 46 52 be 97 6d fe bd
       0.02068632 -0.041272033 -0.2053476 -0.12423246
000030 0b 35 34 bb 24 06 a9 bd ac 6e c6 3d f7 7f 26 3d
       -0.0027497436 -0.08253124 0.09689078 0.04064938
000040 40 ed 1a bf 8a de 3a 3d 27 aa c1 3c f7 0d db bc
       -0.60518265 0.045622386 0.023640705 -0.026740057
000050 67 c6 5c bc 11 c7 08 40 b0 0a d8 3d f4 e3 09 3b
       -0.013475037 2.13715 0.105489135 0.0021040412
000060 0a 2c 28 3d ac 0b f2 3d 80 6d 2c be 52 e1 88 3d
       0.041057624 0.118186325 -0.16838646 0.066836014
000070 b6 b1 d1 bd 7a b6 68 3d d5 54 b4 be 5b 3d 6c 3d
       -0.10238974 0.05681465 -0.35220972 0.0576757
000080 b1 8c b3 3d ac 60 ed 3e 06 86 6b 3e 2f 8c 3d 3e
       0.08767069 0.46362817 0.23000345 0.18510507
000090 5f 59 83 3d c3 5c 39 3f ed fd b7 be a8 d4 0d bd
       0.064135306 0.7240717 -0.35935917 -0.034626633
0000a0 f2 89 03 3e f1 28 ea 3d 80 b9 b1 be a8 a7 03 3c
       0.1284559 0.1143359 -0.34711838 0.008035578
0000b0 6e f7 b5 bd dd e7 80 bd 68 72 df 3d 09 47 bc bd
       -0.08885084 -0.062942244 0.10910493 -0.091932364
0000c0 d4 32 56 be 2d 97 89 be ad d9 85 3e 03 ed 98 be
       -0.20917827 -0.2687315 0.26142636 -0.29868326
0000d0 95 53 7d bd 6b 3c c1 bf 96 5e a6 bd 26 80 dd bc
       -0.06184729 -1.5096563 -0.081235096 -0.027038645
0000e0 03 db 82 bd 85 5b 31 bd d6 0d 2c 3d 2f 45 8f 3d
       -0.063894294 -0.04330017 0.042005382 0.069956176
0000f0 d7 7e 02 be 36 c6 f4 bd cf 35 04 be 44 4b dd 3e
       -0.12743698 -0.11951868 -0.12911151 0.43221486
000100 d6 f0 9c 3f 37 3a 3b bc 0d 79 56 be c0 8f 79 bc
       1.2260997 -0.011427454 -0.20944615 -0.015232027
000110 76 00 86 bd 68 69 94 be 43 ae c0 3e a0 a8 66 bb
       -0.06543057 -0.2898667 0.3763295 -0.0035195723
000120 b8 4c 22 3e 1e 68 27 3d ce a3 59 be 91 ab 1d 3d
       0.15849578 0.04087078 -0.21253893 0.038493697
000130 b3 ee ac bc 75 dc f6 3d 60 af 51 be fb cc 4f be
       -0.021109914 0.120537676 -0.20477057 -0.20293038
000140 fd 0f 97 bb 8f 50 be 3d 7e d0 96 3d 8b 3e 62 bd
       -0.0046100602 0.09292709 0.073639855 -0.055235427
000150 eb 33 80 3d 64 15 a8 bd b5 6d 09 3e 63 6f e9 3d
       0.062599026 -0.08207205 0.13420756 0.113981985
000160 55 60 0c 3d ff b8 d1 3c 0e 56 2b 3d be e7 06 be
       0.034271557 0.025600908 0.041830115 -0.1317434
000170 e0 2e 52 bd 06 94 ea 3d d3 10 fe 3c 86 1c 7e 3d
       -0.051314235 0.114540145 0.031013882 0.06203892
000180 ed ed bd bc a8 fe 0b 3f 00 3e e9 bd 77 8c 00 3f
       -0.02318474 0.5468545 -0.11388779 0.5021433
000190 40 c9 96 3d 02 0b 5d 3e b0 b5 07 3e cc b0 ea bb
       0.07362604 0.2158623 0.13252902 -0.007162189
0001a0 2d 7c d4 3d 65 20 ba 3d 4c 73 2c 3f e3 9a dd bd
       0.10375247 0.0908821 0.6736343 -0.10820558
0001b0 cb 7a 64 bd 37 17 9d 3d be 36 04 be f6 92 a0 bd
       -0.055781167 0.076704435 -0.12911507 -0.078405306
0001c0 65 ed fd bf 69 e3 82 be ca af bf bd b6 81 57 be
       -1.9838072 -0.25564125 -0.09359701 -0.21045575
0001d0 9d da f3 bc 79 77 91 bf 33 45 c1 bd 61 ac 60 bd
       -0.029767329 -1.1364585 -0.09437027 -0.054851893
0001e0 fe 7f 34 be c8 3f 43 3e b9 56 b8 bd 10 38 50 3d
       -0.1762695 0.190673 -0.09000916 0.050834715
0001f0 10 46 bd bd fa 70 2c 3d 40 a3 e7 bc 4c fb da bd
       -0.09241879 0.04209993 -0.028276086 -0.10692462

block1.1.bn1.weight f4 [8]
000000 1a ff 3c 3c 50 f8 2f 3f b1 ff 40 3f 3e 81 0e 3f
       0.01153543 0.6873827 0.75390154 0.5566596
000010 10 ca c5 3e fc f4 17 3b f4 15 73 3f 15 ca 49 3f
       0.38630724 0.0023186794 0.9495537 0.7882398

block1.1.bn1.bias f4 [8]
000000 c5 77 66 bd d5 ed 8d 3f 3f d1 c7 be db 18 cd 3e
       -0.056266565 1.1088206 -0.3902683 0.40058026
000010 b4 fd 59 3f 58 30 48 bc 5e 07 35 bf 79 bc e1 3e
       0.85152745 -0.012218557 -0.70714366 0.44089106

block1.1.bn1.running_mean f4 [8]
000000 60 4d db 3e 1b 69 02 40 bc 44 98 3f 98 a7 69 c0
       0.4283247 2.0376651 1.1895976 -3.650854
000010 0b 1a 2e 40 61 e6 4a 3e 0b 76 f1 3f 6d 5c 1b c1
       2.7203395 0.19814445 1.8864149 -9.710065

block1.1.bn1.running_var f4 [8]
000000 9f e6 70 3e a4 eb 24 41 a1 e3 03 40 63 a4 83 40
       0.23525475 10.307529 2.0607684 4.1138167
000010 66 8b 63 40 1c aa c8 3d d5 a0 18 40 e2 47 af 40
       3.5553832 0.09798071 2.3848164 5.4775248

block1.1.conv2.weight f4 [8, 8, 3, 3]
000000 a9 74 a2 bd bc cd 37 bd 32 3f 6a bd 62 87 35 3b
       -0.079324074 -0.044873938 -0.057189174 0.0027699103
000010 32 8f 93 bb 7e 2e 5a bd 1b 69 8c 3c 73 e9 ff bc
       -0.004503154 -0.053266995 0.017139962 -0.031239247
000020 29 3e 32 bd fd e7 c3 bd 0c be 5d be f3 3e a9 bb
       -0.04351631 -0.09565733 -0.21654528 -0.005164975
000030 d0 74 df 3e 89 ed b0 3d a1 9a 9d bd d7 37 c8 bd
       0.43643808 0.08639056 -0.07695509 -0.097762756
000040 27 a5 0a 3e 0f dc df 3c 0a 82 75 3e 70 10 60 3e
       0.13539563 0.027326612 0.23975387 0.2188127
000050 11 62 14 3e 87 75 9b 3d b1 2e 40 be 8f 66 37 be
       0.14490534 0.07590776 -0.18767811 -0.17910217
000060 a9 96 77 be 8c 2b a6 be aa 1c 64 be a8 63 d2 3c
       -0.24178566 -0.324551 -0.2227656 0.025682285
000070 ab 87 ef 3c 7f 3c 1b bc 79 e5 55 3d 3d b5 cb 3e
       0.029239496 -0.009474873 0.052220795 0.3978671
000080 e9 6e c7 ba b9 f3 76 3c b8 54 94 bd f7 6a 91 3c
       -0.0015215549 0.015072756 -0.07242721 0.0177512
000090 22 ff a6 bc 88 12 95 be 33 ca 57 3e 84 d3 8d bd
       -0.020385329 -0.291157 0.21073227 -0.06925109
0000a0 f6 97 40 bf 97 10 b0 3e 78 51 9d 3e 55 c7 5d 3e
       -0.75231874 0.34387657 0.30726218 0.2165807
0000b0 89 35 94 3e 77 84 0b bd d2 9a 3f bd 02 0d 69 3b
       0.28947094 -0.034061875 -0.046778508 0.0035560732
0000c0 52 09 5e 3b 7c 74 fc bb 41 ff 19 3c b4 24 4f 3a
       0.0033880067 -0.0077043157 0.009399236 0.00079018925
0000d0 c6 ba 41 bd 75 a9 15 bc a6 39 16 3d b5 18 ea 3d
       -0.04729726 -0.00913464 0.03667607 0.11430494
0000e0 b9 c7 a6 bd 36 ab fe 3e 0b 8a 37 3f a5 f5 c0 3e
       -0.08143563 0.4974 0.7169501 0.37687412
0000f0 fb 72 40 bc f3 39 0b 3e b3 d8 a0 3c 64 11 1f be
       -0.0117461635 0.13596325 0.01963458 -0.15533978
000100 14 6c 54 3f 8b e2 34 bf 63 01 ee 3e 99 1a f1 3f
       0.82977414 -0.7065818 0.46485433 1.8836242
000110 cf 91 91 be 76 3b e9 be 89 cf 92 bf e0 a7 9f bd
       -0.28431556 -0.45553178 -1.1469585 -0.077956915
000120 ba ae 45 bd d6 1a 33 bd bf a1 14 3c 3f 55 11 bc
       -0.048262335 -0.043726765 0.009071766 -0.008870422
000130 8e 8a 30 bd ed 30 13 bd 04 90 89 bb 33 1d a5 bc
       -0.043100886 -0.03593533 -0.004198076 -0.020155525
000140 9a 7a e4 bb ec a8 ec bc c3 67 f4 bc 97 d4 04 bd
       -0.006972623 -0.028889142 -0.029834634 -0.032429304
000150 a9 36 32 bc 6e 23 4e bc 17 89 ad bc e0 0c a6 bb
       -0.01087729 -0.012581689 -0.021183534 -0.005067453
000160 de e3 a8 3b b7 a6 a9 3b 34 da 4a bd ff 09 43 bd
       0.005154117 0.0051773447 -0.0495245 -0.047616955
000170 f3 b9 be bc 56 f0 9b bc d0 88 30 bd f9 05 48 bd
       -0.023282027 -0.0190355 -0.043099225 -0.04883382
000180 04 74 ca 3c fa 07 05 3c 49 c2 af 3b cd 0a c7 3c
       0.024713524 0.008119578 0.005363737 0.024297142
000190 09 13 d3 bb b6 e3 5e ba 9a c5 49 3d 08 4e bf 3c
       -0.006441478 -0.00085025595 0.049260713 0.023352638
0001a0 04 4c 9d 3c f8 23 e6 3c 6b 15 90 3c 29 df cd 3c
       0.019201286 0.028093323 0.017588338 0.025130825
0001b0 c1 2d 9b bb 93 7c 70 3b 9a da fe bc 97 b2 6d bd
       -0.004735679 0.0036695346 -0.031110097 -0.058031645
0001c0 19 73 ea bc 1d ec 0f bd 61 a4 0e bc 53 9e 30 3d
       -0.028619336 -0.035137285 -0.008706183 0.04311974
0001d0 2a cd 9c 3d 01 7e 62 bc 93 3b 13 bd 65 20 bc b9
       0.076563194 -0.013823987 -0.035945486 -0.0003588229
0001e0 29 5c 54 bd ab 33 2e bd e4 4a 09 bc 2b 13 ee bc
       -0.051845703 -0.042529743 -0.008379672 -0.029061874
0001f0 47 fd 2b bd 93 c3 95 bc fe 74 13 bd af 15 c7 bc
       -0.04198959 -0.018281734 -0.036000244 -0.024302332
000200 7b ba b7 bb 4d 66 02 bd c7 fa 73 bd 30 d5 80 bc
       -0.005606947 -0.031835843 -0.05956533 -0.015726656
000210 5c 80 92 bc c7 39 f0 bc 51 e6 29 3d 16 52 62 3c
       -0.017883472 -0.029324425 0.041479412 0.013813516
000220 58 04 45 3d 20 5c 05 3d ec b2 4d 3d 53 3e 1f 3d
       0.048099846 0.03255856 0.05021946 0.038877796
000230 8e f8 8f 38 0a 6e e7 3c a3 55 de 3c 81 49 5f 3c
       6.865068e-05 0.028250713 0.027140444 0.013628365
000240 56 98 99 bc d6 83 35 3b ba 89 92 bb aa fe 8a bd
       -0.018749397 0.0027696989 -0.0044719847 -0.067868546
000250 68 23 fc bc ea 6a d0 bc 6a 1e 3d bd 2e ce 73 bd
       -0.030778602 -0.025441606 -0.046171583 -0.0595228
000260 e2 05 b5 bc 47 00 e0 bd 25 90 32 3f d0 0c 81 3e
       -0.022097532 -0.10937553 0.697512 0.25205088
000270 2b 59 20 bd 6c 5e df bf 7f 4b 7c bd 5b c5 03 3f
       -0.039147537 -1.745069 -0.061595436 0.51473016
000280 27 a0 96 be 20 bc 0d 3e 90 74 c5 bd ca 8e 85 3c
       -0.29419062 0.13841295 -0.09641373 0.016303439
000290 41 98 b7 bd f3 5b de bd 26 fd f6 be 68 0a a2 bd
       -0.08964587 -0.10857382 -0.48240012 -0.07912141
0002a0 9a 5a 6d be e9 f8 89 bd 9a be fc 3d 0c 36 d0 3c
       -0.23179093 -0.06736929 0.12341042 0.025416397
0002b0 b0 a1 24 be ce 79 96 be 6c fe 10 be 98 5b 56 3f
       -0.16077304 -0.29389805 -0.14159554 0.8373351
0002c0 3d 25 31 be 57 6b 86 be 1e 91 c7 3e 8a 9d e0 3d
       -0.17299362 -0.2625377 0.38977903 0.10967548
0002d0 ba de a0 3d 36 9b 1f bf 43 31 b0 bc 94 3a 29 bd
       0.07854982 -0.6234621 -0.021507865 -0.04131563
0002e0 04 d4 8d 3e 1f c1 83 3d ec 9a 85 be 64 5b 40 3e
       0.27700818 0.06433319 -0.2609476 0.18784863
0002f0 94 b8 82 be 36 97 ea 3c 86 38 e7 ba 82 d1 68 ba
       -0.25531447 0.028636556 -0.0017640747 -0.0008881317
000300 f0 c6 7c 3d 73 d0 b1 bb 7d 4f 38 bb 2e a4 49 3c
       0.06171316 -0.0054264604 -0.002812355 0.01230721
000310 f1 4d 84 bc 22 1c 7b 3c be 9e a4 bd 74 b1 bd bd
       -0.016150447 0.015326532 -0.0803809 -0.09262362
000320 dc d1 1f be 9f 73 b0 be ac 59 d3 be 7b 6a c8 be
       -0.15607399 -0.34463212 -0.41279352 -0.39143738
000330 6e 30 77 be 41 2e 11 be e2 f3 09 be c7 ff d0 be
       -0.24139568 -0.141778 -0.1347194 -0.40820143
000340 78 5d 77 3e c9 13 dd be a9 cb 12 be 45 59 89 3f
       0.24156749 -0.43179157 -0.14335503 1.0730368
000350 c6 66 cd 3d 6a 83 d8 bd bc b2 06 be 9d af 84 be
       0.10029368 -0.1057194 -0.13154119 -0.25915232
000360 7c bb 93 bc 5a 30 f8 3c 1a 6f 3a 3c 4d dd c7 b9
       -0.018033735 0.030296493 0.011379028 -0.0003812112
000370 b3 84 87 bb e4 35 d7 bc b7 ef 73 bb 52 74 d4 b9
       -0.004135692 -0.026270814 -0.0037221739 -0.00040522456
000380 32 8e 2d 3d 18 c8 3b 3d 52 d7 79 be 08 eb 06 bf
       0.042371936 0.04584512 -0.24398544 -0.5270238
000390 34 78 ff 3d 57 2c 80 3f a9 eb 53 be a3 0a b7 be
       0.12474099 1.0013531 -0.20695366 -0.35750303
0003a0 3c ac 9a bd 91 fa 41 be cf a5 42 be 75 8d e6 bd
       -0.07552382 -0.1894324 -0.19008563 -0.112574495
0003b0 35 bf ae 3d 50 68 73 be 21 ab c9 bd 3e 21 76 be
       0.085325636 -0.23770261 -0.098470934 -0.24036118
0003c0 6f 5b e5 bc 2f e6 31 be be 9a 92 3d dc d0 60 bc
       -0.0279977 -0.17372964 0.07158421 -0.013721671
0003d0 e3 df 42 be fa f8 c3 bc 76 5d 58 be 7a 02 07 bf
       -0.19030719 -0.023922432 -0.21129403 -0.52738154
0003e0 89 bd 88 bd 40 42 bd bc d6 3b 23 be 63 98 34 3e
       -0.06676776 -0.02310288 -0.15940794 0.17636256
0003f0 c6 3b 01 3e 14 73 fe 3e e1 41 12 3f 80 bb cf 3d
       0.12620458 0.49697173 0.57131773 0.10143185

block1.1.bn2.weight f4 [8]
000000 d8 f7 39 3f 5c 28 49 3a a8 57 25 3f 1a 37 ff 3e
       0.72643805 0.00076735555 0.6458688 0.49846727
000010 16 e6 28 bf 91 1f 7c 3c 2f 5d 53 3f d8 b3 27 3f
       -0.65976083 0.015388385 0.8256406 0.65508795

block1.1.bn2.bias f4 [8]
000000 f1 f1 4a 3f d5 50 41 bc 1e e3 5e 3f d4 3f 01 3f
       0.79275423 -0.011799057 0.87065303 0.5048802
000010 ce d5 a1 bd 05 18 6a bd 98 fd 4c be ed 62 42 3f
       -0.07902108 -0.057151813 -0.20018613 0.759322

block1.1.bn2.running_mean f4 [8]
000000 7f ac 83 3f f4 cf 21 bc 89 44 b4 bf 26 4c 1d bf
       1.0287017 -0.00987624 -1.4083415 -0.6144432
000010 c8 4c fd be 3d 4c 7a be 41 4b 58 be b4 35 92 bd
       -0.49472642 -0.24443145 -0.21122457 -0.07139149

block1.1.bn2.running_var f4 [8]
000000 50 6e b1 3f ef 79 82 3d 37 90 c4 3f 11 2e 5e 3f
       1.386179 0.06370913 1.5356511 0.8678904
000010 7d 92 cb 3f 82 8f 78 3e 5d d7 9f 3f a8 d4 f8 3f
       1.590408 0.24273494 1.2487599 1.9439898

block1.1.conv3.weight f4 [16, 8, 1, 1]
000000 37 78 e6 be e5 d9 89 ba 22 17 a4 3d 0d 99 76 bf
       -0.45013592 -0.0010517208 0.08012225 -0.96327287
000010 4d 94 66 be 87 cf 0d 3c 07 9c 8b 3e 29 f5 4d 3e
       -0.2251751 0.008655435 0.27267477 0.20113052
000020 55 66 09 3d b2 59 f6 bb 06 e8 f4 be c9 1d 57 bd
       0.033544857 -0.0075180167 -0.4783327 -0.05251864
000030 f3 d0 c8 3c 3d 61 11 bd d3 76 bc 3c 7c 26 4a be
       0.024513697 -0.035493124 0.023005879 -0.19741243
000040 f5 f9 00 bf 16 b2 b3 3d 91 ea ae ba 70 18 0e 3e
       -0.50381404 0.087742016 -0.0013345053 0.1387651
000050 a7 da 7c 3c 4c 2c b2 bc 60 2d d9 3e ac b4 1f 3e
       0.01543299 -0.021749638 0.4241743 0.15596265
000060 d4 bb ca 3e 27 5f 17 3d e5 33 3a be e0 24 f4 bd
       0.39596426 0.03695598 -0.18183859 -0.11921096
000070 38 4e cf bd cf 71 aa 3c 43 aa 8e be ed 64 81 3d
       -0.10122341 0.020806221 -0.27864274 0.06318078
000080 83 fe a1 bc 67 f2 8a 3d 1f 52 21 bf 4c c7 b4 3e
       -0.019774681 0.06784516 -0.6301593 0.353083
000090 20 ee c2 3d 73 e6 e1 bc 4c cd 0a be 2e 7a 86 3f
       0.09518075 -0.027575707 -0.13554877 1.0506036
0000a0 1d 72 4e bc 48 44 87 3d 04 24 d5 be 72 41 d3 3e
       -0.012600449 0.066048205 -0.4162904 0.41260868
0000b0 18 6e ee be e8 cd 8b bd de 0e fc bd dc 46 8d be
       -0.4656837 -0.06826383 -0.12307523 -0.27593124
0000c0 4f af d3 be 05 87 29 bd e8 22 f8 3e 75 6e 7d be
       -0.41344687 -0.04138853 0.4846413 -0.24749167
0000d0 7a 04 1d bd f8 42 69 bd 14 b7 51 3e 69 35 cf 3e
       -0.038334347 -0.056948632 0.20479995 0.40470436
0000e0 e7 33 4e bf 18 90 10 bb c5 9e f0 3e 01 80 06 3e
       -0.80547947 -0.0022058543 0.46996132 0.13134767
0000f0 c9 2d e5 bd 7a d0 25 bc 9c 9c 62 bd cb 3e 51 3e
       -0.111903735 -0.0101205055 -0.055325136 0.2043411
000100 bd 1e 2e 3f 55 3a 18 3d 7d bb 33 3f e9 a1 ec be
       0.6801565 0.037165005 0.7020796 -0.46217278
000110 f0 8c 9d bd 1a ea 47 3d ab 2e 27 bd 74 54 09 3f
       -0.07692897 0.04880724 -0.04081599 0.5364449
000120 70 fc 10 3d 96 6e d5 3c ba e0 0d 3f 8a 9e 76 bd
       0.035396993 0.026053708 0.5542103 -0.06020979
000130 0a cc 12 bf 34 db 12 3d 2e de 17 3f 55 ed 4d bf
       -0.5734259 0.03585358 0.59323394 -0.80440265
000140 c2 c5 30 bf 17 cb 1d 3d 06 dc 00 3f 83 50 dc 3d
       -0.69051754 0.03852376 0.5033573 0.10757544
000150 a9 57 9d be 02 cd 97 bd ff c5 9c bd de 8f 64 bd
       -0.30730942 -0.07412149 -0.07654952 -0.055801265
000160 c1 73 e6 be 30 bf 2d bd bd ad 24 3e de e8 23 3e
       -0.45010188 -0.04241866 0.16081901 0.160068
000170 9e 8d 9b be b0 2d 23 3d 0e 69 8f 3e dd 39 ee 3c
       -0.30381483 0.039838493 0.28009838 0.029080326
000180 84 dd 8a 3e b5 8e 31 bb 53 1f 61 bd a6 10 03 3e
       0.27122128 -0.0027093117 -0.054961514 0.1279932
000190 5a 6a 37 3e 2b d3 18 3b 22 01 6d bd f7 12 18 bd
       0.17911664 0.0023319225 -0.05786241 -0.03712746
0001a0 d0 48 76 bd d2 e0 f1 bc 6a 5e f6 3e 12 3d 28 3e
       -0.060128033 -0.029526148 0.48118907 0.16429546
0001b0 ad f9 28 3e 77 5a 28 bd b0 6c 5e bf 54 95 dd bd
       0.16501494 -0.0411019 -0.86884594 -0.10819498
0001c0 07 34 d9 3e 42 79 27 bd b8 42 33 3d 1f bd 0c bd
       0.42422506 -0.040887125 0.0437648 -0.034360047
0001d0 78 84 0d 3e 44 a8 ee 3c 3e 86 d0 be 46 87 ee be
       0.13820064 0.02913297 -0.4072742 -0.4658758
0001e0 77 8a cb be 51 8e 2c 3d be 68 0f 3d 7f 08 3d 3e
       -0.39754078 0.04212791 0.035012 0.18460272
0001f0 39 f1 ba be ba 82 be bd b6 ea 08 3e 2f ea 55 be
       -0.36512163 -0.09302278 0.13370785 -0.20890115

block1.1.bn3.weight f4 [16]
000000 de 09 c7 3e 36 cd cf 3e 28 a6 0c 3e 00 6e 53 be
       0.38874716 0.4058625 0.13735259 -0.2064743
000010 b0 d2 9a 3f f6 5c 03 3f ac db a8 3e ba 00 a3 3f
       1.2095547 0.5131372 0.32980096 1.2734597
000020 22 e6 be 3f c6 63 a1 3f 34 c7 df 3e c2 4a d0 3d
       1.4913981 1.2608573 0.43706667 0.10170509
000030 19 e1 c4 3c 9c b9 f5 3e e7 98 63 3e cf 32 f8 3d
       0.024033116 0.4799317 0.22226296 0.12119066

block1.1.bn3.bias f4 [16]
000000 b0 eb 17 be 2e 44 e5 be 8b 65 a3 3d 91 a7 e5 bd
       -0.14836001 -0.4477858 0.07978352 -0.112136014
000010 20 6d c7 3c 79 86 40 bf 11 a2 32 bd 5f 60 1d 3e
       0.024344027 -0.7520519 -0.04361159 0.15368794
000020 9c 5f 6f bd 6c 56 03 3e b9 5c 81 3d 00 36 e3 bd
       -0.05844079 0.12825936 0.063165136 -0.11094284
000030 ff 0d b3 3c aa 60 d4 3e 47 f1 d9 3d 92 b6 82 3c
       0.02185726 0.4148 0.10641723 0.015956197

block1.1.bn3.running_mean f4 [16]
000000 2c 4f 29 bf 85 36 19 bf 6b 3d 0a be 5a 54 9f 3d
       -0.6613643 -0.59848815 -0.13499992 0.07779761
000010 60 ff e7 3e 1c ed 00 bf 18 2f a5 3e ef f0 ad bc
       0.45312023 -0.503618 0.32262492 -0.02123305
000020 41 5d ad 3f a6 db 35 be e8 ea 2b be f0 4a f5 bd
       1.3544084 -0.1775957 -0.16788828 -0.11977184
000030 43 2d 74 3e 43 ac 93 3e 0c 96 5c bd 4c de cf be
       0.23845391 0.28842363 -0.053854033 -0.40599287

block1.1.bn3.running_var f4 [16]
000000 e9 61 3f 3e d2 09 9d 3d 4a 54 3b 3e 95 f5 dd 3d
       0.18689694 0.07667889 0.18293872 0.10837857
000010 d0 42 eb 3e 2f c4 bf 3d f3 6b 49 3e 2f 2e e2 3e
       0.4594941 0.09363591 0.19670086 0.4417586
000020 89 31 06 3f 1a 75 ce 3e 17 bb c4 3e 19 36 41 3e
       0.52419335 0.40323716 0.38423988 0.18868293
000030 bb bf 44 3d 6b 7b 26 3e 9f e5 46 3e b6 6d 20 3e
       0.04803441 0.16258018 0.19423531 0.15666851

block1.2.conv1.weight f4 [8, 16, 1, 1]
000000 54 0f 81 3e 5c 37 bb 3e ff 87 9f 3e 93 cf 01 3e
       0.25207007 0.36565673 0.31158444 0.1267684
000010 9f e2 6c 3d bd c9 1c bd c3 e7 c1 be 73 ea 24 3e
       0.05783331 -0.03827833 -0.37872133 0.1610506
000020 a3 f0 0f bd a6 69 16 3e e4 de 81 be 9c 45 70 3f
       -0.0351416 0.14688739 -0.25365365 0.93856215
000030 0a 29 18 3e de a6 dc be b7 c9 e3 3e e8 9c e4 bd
       0.14859405 -0.4309606 0.44489834 -0.1116274
000040 43 8b 9f 3e 66 75 cc 3a 4a a2 f7 39 04 dd 23 be
       0.31160936 0.0015598952 0.00047232426 -0.1600228
000050 72 52 d7 3d 6e 43 b7 bd 41 21 0d 3e 11 c1 4f 3c
       0.10513772 -0.08948408 0.13782217 0.012680308
000060 f5 c2 82 3e ef 1c ac 3e 3b 58 a7 bd dc fb df bd
       0.25539365 0.33615825 -0.081711255 -0.1093671
000070 ac c0 04 be 21 9b f3 3d 45 95 00 bd 9e 8a a9 bc
       -0.12964123 0.11894823 -0.031392355 -0.02069598
000080 8c bb 4d bd d4 15 84 3e d9 5b a9 be 24 26 ab 3d
       -0.050227687 0.25797904 -0.33077887 0.08356884
000090 60 f3 f3 3d ad 42 0a bd d0 8d 83 3d c2 45 15 be
       0.119116545 -0.033754993 0.06423533 -0.14577392
0000a0 d9 1c 6d bb f0 c1 51 3c e6 ff 84 be 14 a7 a6 be
       -0.0036180525 0.012802586 -0.25976485 -0.32549345
0000b0 1b cd 3f bd 69 cc 17 bd 19 56 5a 3f 80 a8 b2 3d
       -0.046826463 -0.037060175 0.85287625 0.08723545
0000c0 38 48 86 3f a5 dd 2a be fd 67 f8 3d 46 99 61 3e
       1.049079 -0.16686113 0.12129209 0.22031125
0000d0 6e 47 32 bb bd c4 22 bf e9 ab f6 bd 84 af 97 3e
       -0.002720322 -0.6358145 -0.12044508 0.29626095
0000e0 da 9b e5 be d9 b6 17 be 79 a5 c6 3d 19 c7 da 3d
       -0.44845468 -0.14815845 0.0969953 0.10682506
0000f0 e5 a5 53 3e c1 23 73 bc 33 6e 28 be c6 52 d3 bc
       0.20668752 -0.014840067 -0.16448288 -0.025796305
000100 06 d1 11 bd 36 de e4 3d f8 64 aa be 1a cd 32 be
       -0.03559973 0.11175196 -0.33280158 -0.17461053
000110 2a fe 0b 3d f6 49 ce 3d 6b ad b1 be a6 cf b1 bd
       0.034177937 0.10072701 -0.3470262 -0.08682184
000120 5a 7b 24 be bd 76 d7 3d 9f ca 11 3f 7c 98 be 3e
       -0.1606268 0.105206944 0.569498 0.3722571
000130 81 b3 f8 bd c4 71 7c 3d 82 6e 62 be f4 dd a5 bc
       -0.12143613 0.061631933 -0.22112468 -0.020247437
000140 fa 84 79 3d 0a 40 4e be 67 40 79 be 8f a2 33 bd
       0.060917832 -0.20141616 -0.24340974 -0.0438562
000150 c2 38 2d bf 22 73 55 3e b9 c4 c0 3e de be 51 3e
       -0.6766473 0.20844701 0.37650087 0.20482966
000160 56 ca 78 be 17 28 00 be 22 ce df be 31 43 4d 3e
       -0.24295935 -0.12515293 -0.43711954 0.20045163
000170 db 03 83 be ad 7b 05 3f c7 9e 10 bf f2 d0 4f 3e
       -0.2558888 0.5214184 -0.56492275 0.2029455
000180 65 77 0a bf d3 4f bd 3d 27 21 a7 be 7b 33 ee 3e
       -0.5408843 0.09243741 -0.3264248 0.4652365
000190 41 ef 98 3e 17 1f 32 3e ae e0 b3 3e 6d b5 fa bd
       0.29870036 0.17394672 0.35132354 -0.122416355
0001a0 88 06 d2 bd 9c 00 1f be fa ad 00 3e a7 9b 6c be
       -0.10255152 -0.15527576 0.12566367 -0.23106252
0001b0 1e f4 1d be 5a 06 6b 3d 8b 91 87 3d db 8b 76 be
       -0.15425155 0.057379104 0.06619557 -0.24076788
0001c0 c9 1a 56 bf dc a0 e5 be 98 34 8b 3d 35 71 93 bd
       -0.8363462 -0.44849288 0.06797141 -0.07199327
0001d0 e7 7c c5 be a6 9b 2e 3e b1 c6 35 be 2f 99 c8 bd
       -0.38571855 0.17051563 -0.17751576 -0.097948425
0001e0 b1 cb a8 3e e1 2f c2 be bd 16 b3 be 27 96 da 3e
       0.32967904 -0.37927154 -0.34978285 0.42692682
0001f0 88 f3 8f 3e a1 ed 41 be 14 62 03 bf 76 51 86 bd
       0.28115487 -0.18938304 -0.5132153 -0.06558506

block1.2.bn1.weight f4 [8]
000000 e4 38 2f 3f 6b 26 09 3f fa e4 31 3f e2 c7 1c 3f
       0.68446183 0.53574246 0.69490016 0.61242497
000010 96 cf 18 3f 4b 20 11 3f 61 13 29 3f 79 ca 37 3f
       0.5969175 0.566899 0.66045195 0.71793324

block1.2.bn1.bias f4 [8]
000000 d2 22 45 3e 3a 24 68 be 1a 36 14 bd 29 44 bf 3e
       0.19251564 -0.2267007 -0.036184408 0.3735669
000010 bb c4 ef bd 1a ea 95 3e 32 e7 b4 be 9f 73 61 3e
       -0.11707445 0.29280168 -0.35332638 0.22016762

block1.2.bn1.running_mean f4 [8]
000000 a8 b9 14 40 bc 69 4c 3f 87 4c f7 3d 5c 2b 1e 40
       2.3238316 0.7984884 0.12075143 2.4713964
000010 cd 00 e7 be 13 29 44 bf 21 cc b6 bf af c2 6f c0
       -0.45117798 -0.76625174 -1.4281045 -3.7462575

block1.2.bn1.running_var f4 [8]
000000 66 28 a4 40 4e 21 ef 3e ee 37 37 40 c7 83 5e 40
       5.1299314 0.46705097 2.8627887 3.476793
000010 52 ed bd 3f 6e e7 7d 40 03 b9 d1 3f f6 4a 67 40
       1.483805 3.9672503 1.6384586 3.6139503

block1.2.conv2.weight f4 [8, 8, 3, 3]
000000 f6 28 56 be 0e 9b db bb 7f d2 74 bc 0c 8c ac be
       -0.20914063 -0.0067018336 -0.014942764 -0.33700597
000010 21 65 29 be 0e ef f4 bd 84 af bb 3c 62 a2 c9 bd
       -0.16542484 -0.119596586 0.02291084 -0.09845425
000020 cc dd fe bd 93 3f 87 3d c7 da 4d 3d d5 49 7f 3d
       -0.12444648 0.06603923 0.05025747 0.06232627
000030 f4 13 5f 3e 36 cf 0c 3b 88 91 1d bd 51 bf 2d 3e
       0.21784955 0.0021485812 -0.038468868 0.16967513
000040 e7 b5 cb 3d c9 11 b4 bd 98 30 97 bd e5 9d 02 3c
       0.099468045 -0.08792455 -0.073823154 0.007972215
000050 86 4e 79 3c cd a4 2e 3d 20 ac 76 3e ae 76 e2 bc
       0.015216475 0.042637635 0.24089098 -0.027644482
000060 6a ec 82 3d b8 be 74 3b e3 88 38 3c 0c ee 9a be
       0.06392749 0.0037345123 0.011263105 -0.3025974
000070 43 48 cd 3b a6 73 4d 3e 69 0d 3b 3e 7e 5e 1d bf
       0.006264718 0.20063648 0.18266834 -0.6147231
000080 e7 8d 94 be 00 7e 96 3e 28 f0 76 3e a3 3a 54 be
       -0.29014513 0.29393005 0.2411505 -0.20725493
000090 9f 20 92 3e 8a f6 95 3e 3f 50 ea bd f8 c9 82 bd
       0.28540513 0.29289657 -0.11441087 -0.06386179
0000a0 45 50 1f 3e 8b a7 36 3d 34 06 ba bd 3c 8e 30 be
       0.15557964 0.044593375 -0.090832144 -0.17241758
0000b0 c3 22 6f 3d 31 5c 97 bd ec 64 15 be 7d b5 cf bd
       0.05838276 -0.07390631 -0.1458928 -0.10142038
0000c0 fc fd 11 3f bc 74 23 3e 12 22 3e be d3 e1 e6 bd
       0.57028174 0.159625 -0.18567684 -0.11273541
0000d0 6c f2 22 3e ce 90 f9 3d ac 24 05 bd cc da 44 bd
       0.15912789 0.121858224 -0.032505676 -0.048060223
0000e0 b2 c7 2b be 88 16 fa bc cf 3f 36 3c 88 f9 0b bb
       -0.16775396 -0.030528322 0.011123612 -0.002135845
0000f0 ee 47 62 bd 84 24 47 bd 76 d6 83 bd 16 c1 8a 3e
       -0.05524438 -0.04861881 -0.064373896 0.27100438
000100 25 b0 8d bd b7 6e bf bd b7 73 a8 be 27 f8 25 3f
       -0.069183625 -0.09347289 -0.32900783 0.64831775
000110 99 1e fb 3d 4a 79 7d be 0d f8 ff be 7d 9c 7f bd
       0.122616954 -0.247533 -0.49993935 -0.0624051
000120 e0 95 0d be a3 d7 18 3f 78 06 1e 3e dc 81 40 be
       -0.13826704 0.59704036 0.15432155 -0.18799537
000130 59 bf be 3e 1b a2 97 3e c9 23 6b be 71 45 8d be
       0.37255362 0.29615864 -0.2296287 -0.27592042
000140 7c 2c 92 be 7d e8 36 be f8 b9 cd bd ec dc 0d be
       -0.28549564 -0.17862125 -0.10045236 -0.13853806
000150 de fb 81 3d 3b 7e cc bb 63 63 c4 bd 60 93 06 3d
       0.06346868 -0.006240634 -0.09589269 0.03285539
000160 41 be 6d bd be 10 f5 bc 42 68 28 3d db 60 d4 3d
       -0.05804277 -0.02991521 0.041115053 0.10370036
000170 b1 e6 99 bd f4 80 ba 3e 3a e7 1b 3f 2a 13 33 bd
       -0.07514704 0.36426508 0.608997 -0.04371945
000180 3d 84 86 3e 02 74 4c 3e f7 a4 a0 bc a5 24 f4 bd
       0.26272765 0.19966128 -0.019609911 -0.11921052
000190 d5 8e 38 bd c5 17 24 3e 39 a3 51 bc d8 cf 2b be
       -0.04505809 0.16024692 -0.012795263 -0.16778505
0001a0 d2 d8 5a 3d a1 81 f5 3d c0 b8 98 be 3b ad aa 3c
       0.053429432 0.119876154 -0.29828453 0.020834556
0001b0 74 82 0b be 57 6b 22 3e c1 4d ac be 0b 6e 42 3e
       -0.13623983 0.1586126 -0.33653072 0.1898729
0001c0 ba 20 00 3d 6d 81 92 be 82 df ad 3d 9e 06 8d 3d
       0.03128121 -0.2861437 0.08489896 0.06886028
0001d0 68 b2 65 bc 38 5c 09 3e 20 a8 a2 be 10 b9 11 be
       -0.014019586 0.13414085 -0.31768894 -0.14230752
0001e0 82 00 1b bd 6b da c1 bc c3 0a d5 bd fb 80 87 3e
       -0.03784228 -0.02366372 -0.10402443 0.26465592
0001f0 81 2b 71 3e 35 0d 01 be 12 d3 99 bd fa 20 ff bd
       0.23551752 -0.12602694 -0.075109616 -0.12457462
000200 c5 47 5c be e3 48 04 be 95 37 3e be 8b eb 45 3c
       -0.21511753 -0.12918429 -0.1857589 0.012080084
000210 48 dc a6 bc a5 8d fc 3d 79 63 20 be ba bb d8 3d
       -0.02036871 0.12331704 -0.15662946 0.10582681
000220 b5 15 8f 3c 18 34 17 be 8b 3f 38 be 1d 09 17 3b
       0.017466405 -0.14765966 -0.1799299 0.0023046203
000230 5d d3 ad bc fa fc 13 3e d2 b1 0c bd 43 36 ea bd
       -0.02121895 0.14451972 -0.03434927 -0.11436131
000240 ed 94 17 be 9f 97 aa bd 5b f7 8c bd f6 4e 9d 3e
       -0.14802904 -0.08329701 -0.06883117 0.30724305
000250 0d bc 76 3f 01 5f f1 3e 9c 3d 86 bd 5e 74 63 3e
       0.9638069 0.47142795 -0.0655472 0.2221236
000260 e3 af 3f be df 1e b0 bd 0d a9 cf bd 82 85 eb bd
       -0.18719439 -0.08599638 -0.10139666 -0.11500074
000270 71 36 21 3e 2b 3f 53 bd 8d 61 14 bd e0 4b 05 3e
       0.15743424 -0.051573914 -0.036225844 0.13017225
000280 0a d8 17 bd 84 82 11 3d 1d 6f b9 bc 2e fa 52 3d
       -0.037071265 0.03552486 -0.02263599 0.05150812
000290 34 76 76 be 66 e9 53 be 80 2a d1 3c 39 99 d7 be
       -0.24068528 -0.20694503 0.02553296 -0.42109087
0002a0 12 49 8c 3d c4 94 8e 3d c5 bb 1c be 45 71 e1 bd
       0.068498746 0.069619685 -0.15306003 -0.110079326
0002b0 d1 76 38 3e 2b f5 b0 ba bd 6c 59 3d ad 48 83 3e
       0.18014075 -0.00135008 0.053082217 0.25641385
0002c0 94 b4 0a be 4c fa 3f be 7c c7 c2 bc 33 c9 e9 bd
       -0.13545448 -0.18747824 -0.023776762 -0.11415329
0002d0 35 68 24 bd fb 95 e6 3d 5a 63 72 be 04 77 6e 3d
       -0.040138442 0.11259075 -0.23670712 0.05821897
0002e0 0d ae a2 3e da b1 60 ba b5 8f 31 be 3f f5 35 3d
       0.31773415 -0.0008571424 -0.17339976 0.044423338
0002f0 c2 de d1 bd 33 a5 3d bd af bc 33 3e 5f ca 68 3d
       -0.10247566 -0.046300124 0.17552446 0.05683362
000300 a6 f8 1e 3e 82 63 93 3c 75 29 43 be ae 9f 38 3e
       0.1552454 0.017991785 -0.19058783 0.18029663
000310 cf 88 2c 3e 44 c1 21 3e 16 68 84 bd 96 9c af bc
       0.16849063 0.15796381 -0.06465165 -0.02143697
000320 20 d9 2c 3e 41 8f 62 be 0f 44 3d bd b9 b4 68 bd
       0.16879702 -0.2212496 -0.046207484 -0.056812976
000330 78 43 bb 3c 3a 9b e5 3d 43 75 04 3d f8 4f 7c be
       0.02285932 0.11211248 0.032338392 -0.2463988
000340 ce 81 c3 3d 90 24 74 be df e4 00 3e b6 2a bb 3e
       0.09546243 -0.23842072 0.12587307 0.36556023
000350 95 8e af 3b 5b 2f 32 bd 95 e0 ae 3e 6d c8 4e be
       0.0053575733 -0.043502193 0.34155717 -0.20193644
000360 b3 a8 0d be 3e 61 bd 3e 49 a4 31 bd b5 6c 03 be
       -0.13833885 0.36988252 -0.043369565 -0.12834437
000370 3d 59 a2 bc 73 29 af bc fb ae b4 3e 45 de b6 3d
       -0.019817943 -0.02138207 0.3528975 0.08929113
000380 38 bd 42 3d 56 54 a4 bc b6 1a 42 3c b4 95 20 be
       0.047543734 -0.020059746 0.011847189 -0.15682107
000390 22 df c2 bd f0 1b 64 3d c3 8a 20 be ff 22 ca bd
       -0.095152155 0.055690706 -0.15677933 -0.09869956
0003a0 6e e5 0b be 6e eb 5b bc bc f6 90 bc dd cf 09 bd
       -0.13661739 -0.01342283 -0.017695777 -0.0336455
0003b0 14 8c e2 bc 73 b9 f9 3d 35 cd 5d 3d b3 87 4e bd
       -0.027654685 0.12193575 0.05415078 -0.05042238
0003c0 8b 27 09 be cb 1a 49 3d e8 0d 8b 3c 75 a9 1e bd
       -0.1339399 0.049097817 0.016974404 -0.038735826
0003d0 a8 54 92 3d 3f 29 c0 3b 1d 5e 06 bf af 3f 2b bf
       0.07145053 0.005864292 -0.52487355 -0.6689405
0003e0 10 f4 9a be 79 10 bd bd 47 39 5c be 3a 1f a1 be
       -0.3026433 -0.092316575 -0.21506225 -0.31469136
0003f0 fd 3b d7 3d a0 59 a6 3e 7c 7b 90 3e d5 fa 94 bd
       0.10509489 0.32490253 0.2821921 -0.07274405

block1.2.bn2.weight f4 [8]
000000 5e f7 22 3f f0 9c 46 3f ea d5 85 3f aa 33 03 3f
       0.636587 0.7758322 1.0455906 0.5125071
000010 dd da 02 3f d8 bf 00 3f c9 dc 2f 3f 3f 90 4b 3f
       0.5111521 0.5029273 0.68696266 0.7951698

block1.2.bn2.bias f4 [8]
000000 6d 9e 1d be 1d c7 c1 bd 7a f4 5d bf 62 82 29 3e
       -0.15392466 -0.09461806 -0.86701167 0.16553643
000010 04 db 0c 3d 4f 77 24 bd f3 17 40 be b5 f7 f8 be
       0.034388557 -0.040152844 -0.18759136 -0.48626485

block1.2.bn2.running_mean f4 [8]
000000 a0 46 b0 be d2 23 3d bd 13 e9 1d 3f 82 03 a9 bf
       -0.34428883 -0.04617674 0.6168377 -1.3204195
000010 81 4b b5 3f 0b a2 c7 3e 6c a3 3e bd 09 ce 18 bf
       1.4163667 0.38990816 -0.04654257 -0.59689385

block1.2.bn2.running_var f4 [8]
000000 66 f3 cb 3e da a0 42 3f 24 74 69 3f 78 60 12 3f
       0.39834136 0.7602669 0.9119284 0.5717845
000010 27 15 75 3f e7 05 fd 3e 82 3b 4a 3f 32 2d 03 3f
       0.957354 0.49418566 0.7899705 0.5124084
