assignment1/results/trial_2/resBottleneck/ckpts/37000.pt (torch, 562432 bytes, 242 tensors)

block1.0.conv1.weight f4 [8, 16, 1, 1]
00000000: 40b6 193e ed3f 7bbd 10a7 053c 22b8 31bd
00000010: 2b17 843d 6782 1c3c 6af8 98bd 63ae b03b
00000020: 55e8 513e 76a2 1c3d fba5 433d d937 a93e
00000030: 4199 8a3e 2eaf a43e 6bf6 70be f900 633f
00000040: ec53 39bd 89a8 98be c1f4 873d 6178 fcbd
00000050: fbee 1bbd a195 3e3d 281e 02bf ee59 bcbb
00000060: 15ee bbbe a4be b83d 6707 05bf 5d2c 64be
00000070: 7294 99be 827f 503d 0d76 023e f9a0 9dbe
00000080: 75db 63be 069c 1fbe 047c 8f3d 2949 25bf
00000090: 3a77 22bc 08a9 04bd 38bd c93e 7a55 203c
000000a0: 6248 9c3d 9d94 743d b650 d8bf 42e2 9c3e
000000b0: ae43 303e ae8e b0bc 564c 9bbe f295 70bd
000000c0: b42e ac3d d36c a6be d4be 29be 4bea 44bd
000000d0: 7ab8 0f3e 4e4a 6fbd 9353 dfbe 4d13 f83d
000000e0: 2515 9cbe f73b 393d e038 aa3d e98c 2abf
000000f0: 1da1 d5be e74e 88bd 16b4 7e3e 6eec 20bf
00000100: e135 f33c dde6 41bf e042 02bc 7780 24be
00000110: b213 5cbd ba11 a1bd a947 e0be 8a40 a1bd
00000120: a522 9abe 5a95 f0bc ca2b bc3d af28 713d
00000130: d4ba 8e3d 3c24 2bbe baa0 a6be 865d 8dbd
00000140: 80cc 133e 71ae 643e 33f2 dfbe 157a d4be
00000150: 0a9d 58bd d0c9 283d 736f 423e c7fa 373d
00000160: fece e23d 5891 743d 9033 57bf 73e4 d1be
00000170: 8587 c7bc 9863 323d 5650 8ebe 0137 a03d
00000180: fd1d 38be 965a 343f c2c5 9a3e 9c3c e5bd
00000190: d4d6 ea3d 20c5 62bb ec8f 02bf c092 453d
000001a0: d538 fe3e 7174 8abd 9e08 9e3e ccad f8bd
000001b0: 97a9 273d 772c d43e 317b ec3e c95b 573d
000001c0: 9f61 8dbe f78d 3a3f 1917 0abe 624c f7be
000001d0: cc2b b6bd dcf9 f7bd e155 59be 408a d1bc
000001e0: 235b 073f 0fbb f63b 4ccb 22bc 2b06 3abd
000001f0: b812 c63e cf87 7f3e 2013 c8be 5b90 153e
0.15010929 -0.06134026 0.008157507 -0.043388493 0.064497314 0.009552575 -0.07469256 0.0053918823
0.20498784 0.038240872 0.047765713 0.3305042 0.27070048 0.32164901 -0.23531501 0.8867336
-0.04524605 -0.29816082 0.0663848 -0.12327648 -0.038069706 0.046529416 -0.50827265 -0.005748025
-0.3670508 0.09020737 -0.5196442 -0.22282548 -0.29996067 0.05090285 0.12740345 -0.30786875
-0.22251685 -0.15586862 0.07006076 -0.6456476 -0.009916121 -0.032387763 0.39402175 0.009786004
0.076309934 0.05971204 -1.6899631 0.3064137 0.17213318 -0.02155241 -0.30331677 -0.05873675
0.084073454 -0.325049 -0.16576701 -0.048075 0.14035216 -0.05842047 -0.4361845 0.12113056
-0.30484882 0.045223203 0.08311629 -0.6662126 -0.41724482 -0.066556744 0.24873385 -0.62860763
0.029688777 -0.75742894 -0.007950515 -0.1606463 -0.05372972 -0.07864709 -0.43804672 -0.07873638
-0.30104557 -0.029368091 0.091880396 0.05887669 0.069692284 -0.16713041 -0.325445 -0.06902604
0.1443348 0.22332169 -0.4373947 -0.4149939 -0.05288414 0.04120809 0.18987827 0.044916894
0.11074637 0.059708923 -0.84063053 -0.40994605 -0.024356613 0.04355201 -0.27795666 0.07822991
-0.1798019 0.70450723 0.30229002 -0.11193201 0.114667565 -0.003460236 -0.5100086 0.048235655
0.49652734 -0.06760491 0.3086595 -0.12142524 0.040933218 0.41440174 0.46187738 0.052577768
-0.2761354 0.7287287 -0.13485374 -0.48300463 -0.08895072 -0.12108204 -0.21224166 -0.025578618
0.5287344 0.0075296233 -0.009936165 -0.04541604 0.38686156 0.2495415 -0.3907709 0.14605848

block1.0.bn1.weight f4 [8]
00000000: 5058 163f 67a3 433f 6e1e 773f 2e5f 223f
00000010: 7b40 a8be e9f0 6f3f d9b9 503f c12a 0b3f
0.58728504 0.7642121 0.96530807 0.6342648 -0.32861695 0.93726975 0.8153358 0.5436211

block1.0.bn1.bias f4 [8]
00000000: aac7 e3bd db3f a5be 8ac4 273e 5efa 0d3e
00000010: 7716 1c3f 5b02 d7be 886a eebe 8dfb ff3d
-0.11122067 -0.3227528 0.16383567 0.13865039 0.6097178 -0.41993985 -0.46565652 0.124991514

block1.0.bn1.running_mean f4 [8]
00000000: 30c7 2e40 dbaf 40c0 4a11 2fc0 784d 5fc0
00000010: f3b7 c4bf a629 0dc0 2682 0a3f d71f 9abf
2.7309074 -3.0107334 -2.7354302 -3.4891033 -1.5368637 -2.205667 0.5410484 -1.2040967

block1.0.bn1.running_var f4 [8]
00000000: 8ac0 6440 948d 1b40 3c66 1d41 ee5c 9840
00000010: e7ac 753f 0d48 6f40 0b02 9340 3584 1a40
3.5742517 2.4305162 9.83746 4.761344 0.95966953 3.7387726 4.5939994 2.4143193

block1.0.conv2.weight f4 [8, 8, 3, 3]
00000000: f8d2 803d fd80 3c3e e6da c2bc 2ef0 2fbc
00000010: eef2 afbd d937 41be 896c 05bc ca64 e7bd
00000020: 3944 383e 47f2 f2bc 2394 1f3e ff48 0bbe
00000030: 8555 393e f9c3 093f f12a 4cbe 426d d3bd
00000040: 6dbb 813d f05b 893d 2613 1b3d c601 f4bd
00000050: 30cc 25be 09d7 e1bd 83fc 683c 9783 51be
00000060: 65c3 1b3d da23 4fbd cf9b a23d 3d3a 3bbe
00000070: 4629 41be 86de 72be 108d 023f 045b 723f
00000080: 2300 9f3e f4c4 f5bd 45d7 293e 1fcd 16be
00000090: 65c4 593c 04ea 443e ac8d b13d d456 523d
000000a0: a8ca a9bd a390 c4bc ad6d 99be 9bf4 92be
000000b0: 1421 c2bc f03f 40bc 6f69 92be e145 b13d
000000c0: df26 8abb d12b 0e3e 5988 213e 4526 353d
000000d0: a4d4 553e b52a c3bd c46e 96bd 7ed1 f73d
000000e0: 0fa1 b2bc 8f12 8a3d 3eea 9a3e e282 5f3d
000000f0: 7eb1 d33d e297 913e 70b7 143e f636 463d
00000100: 3236 cd3d e293 a93e 72ec 34be b246 a1bd
00000110: ec81 283e 5a4b c9bd 2ad9 eebb 9c0d 55ba
00000120: 7734 2cbe 406c aa3d 785a 5f3e 2173 dfbd
00000130: b5de 3fbd 36d5 123e cddd 433e eb5d 0dbe
00000140: 7ec7 05be 7ee2 7a3d 82d1 9f3e bdbc 643d
00000150: b092 65be 19b6 eabe efe4 6abd 12f1 343d
00000160: 87d5 bdbc 36c1 5a3d 9e7e 4fbc 431a 723e
00000170: 5b4a 81bc f014 52be 7d92 81bf 585a 2bbd
00000180: b7f3 a63e 2365 1c3f f443 333e 6a0a 51be
00000190: ced0 f63d 472a 19be 2d70 563e a0ed e23c
000001a0: 32e3 403d 54da 183e 7072 903e e66b 9a3d
000001b0: e88a 55bb 2f8b 323e 74db ccbd 326a dabd
000001c0: 589d 8a3d b1d5 7e3d 9789 403d 8f0e 17bc
000001d0: 3338 9e3c c4c3 da3d 42f5 693e 66d7 a7bd
000001e0: ac32 00bf 9c6c c7be f0a3 fc3d ddcd 713e
000001f0: effa c93d 3ae8 513e ff0f f7bc 7280 283e
00000200: 6026 a6bd 3c30 d9ba 174c bd3d 06ee febd
00000210: 12f3 2c3e 5275 833d edd2 a9bd 4200 e2bc
00000220: e584 a4bd ea32 bdbe 22ac 8d3d b8e7 0c3f
00000230: 7aae 2c3e 2e12 b73e a6a5 74bc f95d dfbc
00000240: dc79 843d d31f 4c3d b15e a43d f478 ad3c
00000250: ed0c c73c ae13 06bd ba0e 3c3b 0b9f 9b3c
00000260: 07e4 aebc ba67 5c3d b3c9 113d d68a 483d
00000270: 6e6d b63c 6140 873c 456c d2b8 dbd5 cc39
00000280: 9e27 96bc 9057 2abc 54b5 d63c 5295 d5bc
00000290: d9b0 51bd 6427 323c 72c4 45bd 1c24 efbc
000002a0: ef61 18bd 844e c03c a389 dbbb 1de7 a93c
000002b0: c570 803c 6107 f0bc abf5 fe3c 3483 8d3d
000002c0: e255 873c c007 773d b658 e83d f163 2c3c
000002d0: ca29 48bd 3a73 17bd a7d1 fcbc 17d5 443c
000002e0: 5c3f b6bb 07a2 57bd 9817 68bc 1364 b33c
000002f0: 7c08 21bd 3465 803d a221 973c 696b 833c
00000300: 2090 493d f11b 853c ba99 0d3c 3b1f 453d
00000310: 638f e73c c3d1 01bc 7a9c 6a3a 21cd 263c
00000320: 0841 bc3c 8812 a839 7c5e 533d 85c5 a53d
00000330: 85ab b53c a13b 2bbd 4cf1 f6ba 03a2 1a3d
00000340: 0351 1cbd d113 3abd 645f 803d 1833 ee3b
00000350: b2c4 a4bc 8854 093d a82b 67b9 c9f5 81bd
00000360: d562 363e dd13 053c 40b4 16be b239 353e
00000370: ab7d 843e ef0c a83d 6e26 483d e141 36be
00000380: 18e5 4bbd c97c 883d 0fb1 a83e df2f 85bc
00000390: 0ade 543d 3d51 c83d a901 87be 9a70 1fbd
000003a0: 9734 6abe 5da0 82be 14ad 13be bdc6 093f
000003b0: 25a4 bf3e c490 17be 24c5 a8bd ea12 cf3d
000003c0: 5e2d 0cbe 5e2b 9f3e 05bf e33d 078f dc3d
000003d0: e0c8 7e3e 72f6 4a3e 1274 2fbc 2c75 b5be
000003e0: 4a60 50be d134 c53d d5ae a5be 034c c2bc
000003f0: d7ca 353e 0383 dabb 99de 5ebe 44ff 433d
0.06290239 0.1840858 -0.02378602 -0.010738416 -0.08591257 -0.1886896 -0.008143553 -0.11298521
0.17994775 -0.029656542 0.15583853 -0.13602065 0.1809903 0.53814656 -0.19938256 -0.10323574
0.06334577 0.06706989 0.03786006 -0.11914401 -0.16191173 -0.11027343 0.01422036 -0.20460354
0.03802814 -0.0505713 0.079398744 -0.18283935 -0.18863401 -0.23717698 0.50996494 0.9467013
0.31054792 -0.120004565 0.16586025 -0.14726685 0.013291453 0.19229895 0.086696 0.051352337
-0.08290607 -0.02399475 -0.29966488 -0.28702244 -0.023697414 -0.011733994 -0.28596064 0.086559065
-0.0042160596 0.13883902 0.15774669 0.04422595 0.20881897 -0.0952963 -0.073453456 0.12100504
-0.021805314 0.06741821 0.30256838 0.05456818 0.10336588 0.2843619 0.14523101 0.04839226
0.100201026 0.33120638 -0.17668322 -0.07874812 0.16455811 -0.09828825 -0.0072890716 -0.0008127333
-0.16816889 0.08321428 0.21811855 -0.10910631 -0.04684325 0.14339146 0.19127579 -0.13805358
-0.13064381 0.061251156 0.3121453 0.055844057 -0.22419238 -0.45842054 -0.057347234 0.044175215
-0.023173107 0.053406917 -0.012664465 0.2364283 -0.015782526 -0.205158 -1.012283 -0.041834205
0.32607815 0.6109182 0.17506391 -0.20414129 0.12051545 -0.14957534 0.20941229 0.027701199
0.04709167 0.14927036 0.2821231 0.07540111 -0.0032584015 0.17435907 -0.10002795 -0.106647864
0.06768292 0.06221551 0.047006216 -0.00921978 0.019313907 0.106818706 0.22847465 -0.08195381
-0.5007732 -0.3895005 0.12335956 0.23613687 0.09862315 0.20498744 -0.030158995 0.16455248
-0.08112788 -0.0016570161 0.092430286 -0.12447743 0.16889599 0.064188614 -0.08292184 -0.027588014
-0.0803316 -0.36952907 0.06917597 0.55041075 0.16863433 0.35756058 -0.014932072 -0.02726649
0.06468555 0.049835037 0.080258735 0.021175839 0.024298156 -0.03273361 0.00286953 0.018996736
-0.021348966 0.05380986 0.035592746 0.04896053 0.022268977 0.01651019 -0.00010033747 0.00039069247
-0.018329438 -0.010396853 0.02620951 -0.026072178 -0.051194046 0.010873649 -0.048283048 -0.029192023
-0.03720277 0.02347494 -0.006699757 0.020740086 0.015678773 -0.029300394 0.031123003 0.06909791
0.016520444 0.060310125 0.11345045 0.010521875 -0.04886798 -0.036975123 -0.030861689 0.012013695
-0.0055617522 -0.052644756 -0.014165781 0.021898305 -0.039314732 0.06269303 0.018448655 0.016042428
0.049209714 0.016248675 0.008642608 0.048125487 0.028266614 -0.007923546 0.00089497084 0.0101807425
0.022980228 0.00032057264 0.05160378 0.080943145 0.022176513 -0.041804913 -0.0018840223 0.037752163
-0.038163196 -0.045429055 0.06268194 0.0072692744 -0.020113323 0.03352788 -0.0002204614 -0.06345708
0.17811139 0.008122412 -0.14717197 0.1769779 0.25877127 0.08205592 0.048864774 -0.17798568
-0.049779028 0.06664426 0.32947585 -0.016258178 0.051969565 0.0978112 -0.26368454 -0.038925745
-0.22871624 -0.25512972 -0.14421493 0.53818876 0.3742992 -0.14801317 -0.082407266 0.101110294
-0.13689181 0.31087774 0.111204185 0.10769468 0.24881315 0.19820574 -0.010708826 -0.35440958
-0.20349231 0.096292146 -0.3235995 -0.023717886 0.17753159 -0.00666845 -0.21764602 0.047850862

block1.0.bn2.weight f4 [8]
00000000: 293a 013f 9803 163f c792 103c add6 213f
00000010: 11b0 533c 7782 8b3f b504 023c f444 b73e
0.5047937 0.58599234 0.008824057 0.63218194 0.0129203955 1.089919 0.007935693 0.35794795

block1.0.bn2.bias f4 [8]
00000000: 7c94 d73d c07f 40bd 4bd7 9cbd 3a70 243f
00000010: 51de a4bd 3985 e4bd ca15 7cbd ca5e 073f
0.10526368 -0.046996832 -0.076582514 0.64233744 -0.08050216 -0.11158223 -0.061544217 0.5287901

block1.0.bn2.running_mean f4 [8]
00000000: adc5 653e c9d4 cf3e d495 943c c7f8 b73f
00000010: 1a81 cfbb 7311 0a3f 24dc 333e 56da f7be
0.22438689 0.4059203 0.01813785 1.4372796 -0.006332529 0.53932875 0.17564446 -0.48408765

block1.0.bn2.running_var f4 [8]
00000000: 4e33 913e 5d8d a53e 5b4b 6d3c ada8 8d3f
00000010: bd6d ad3c 0b75 873f 5cab 143d 0374 bf3e
0.28359455 0.32334414 0.014483298 1.1067101 0.021170491 1.0582594 0.036296234 0.37393197

block1.0.conv3.weight f4 [16, 8, 1, 1]
00000000: 7b18 f2bd cc35 f2bd 2834 d7bb 5ce5 073d
00000010: b3b7 253d 8fb8 9fbe 4ce7 33bd e6c9 1b3d
00000020: ddd4 bf3e 3d9c a63e 3b8b 4d3d 96da 9f3e
00000030: d3cf 07bc 52ad 953e 7ab6 5b3d 1048 8bbe
00000040: 7cbd 85be e68d 0ebe bac7 83bd 8b72 3e3d
00000050: 0a33 a23c 5c2b 00bf 3669 023d d54c 2fbe
00000060: 9c5b 85bc cd8e 9f3d 030f 40bb e850 843e
00000070: b82a 803c 0ea6 9e3e 04e8 c33c c9bb ef3c
00000080: 052c bb3b 7d0d 5fbd 476d b0bd 865e 263e
00000090: 4bff 3bbd b90c d4bc 5d1d a73b ea0d a73c
000000a0: 0500 17bd a2fd 8a3d b217 38bc 178f cdbd
000000b0: 2292 2f3c 5633 b73e 4d9a 6dbd a386 0e3c
000000c0: 013f ccbd 34b6 52be d4d2 5c3d 7613 68bf
000000d0: a52d 183d e8bd 783d 1a4b 4f3d c80e bcbe
000000e0: 4e29 d7bd 773c e2bd 17a6 373c c98b 94bd
000000f0: 45d5 0f3d dda6 a73b ff90 55bd dd5f 97bd
00000100: b2cb de3d 00f6 39bd c4e4 2abd de0d a33c
00000110: bf85 c13c 3204 f23d 4036 60bd f212 823d
00000120: 796e b83e 79e8 73bd 66be 6b3d f374 7dbe
00000130: 14c2 d9bc ece4 06be 8145 c1bc a20a 94be
00000140: e1df a8bd 6bfe 493f 3ad1 7f3d 2ab0 60be
00000150: 3f77 803d 2b59 04bd d22b 4dbd 0fd7 173f
00000160: ad0d 39be 5d73 20be 4148 02bd 4aa7 0bbe
00000170: 2556 94bc 0266 dbbe 032d f5ba 4c97 b13e
00000180: 6356 513d e389 023e 4fac bfbc 1383 28be
00000190: 4907 7e3a 03a1 44bf 0ebd 543b 3f82 5d3e
000001a0: a5a0 f03e 72b9 3fbe 82dd 6e3d da26 e0be
000001b0: 183e 333d 2392 adbd 109d 0b3d 52c5 c33e
000001c0: f75e 80be 1c12 513e 347c 593c 5133 0fbf
000001d0: 44cf 0f3d 8280 14be 4c36 d83c 5b57 163e
000001e0: 68e6 a7be a9d2 723d 7417 71bb 7880 24be
000001f0: 7796 983d 41f3 6fbf 97f0 793c 4c87 cdbb
-0.118210755 -0.11826667 -0.006567497 0.03317772 0.040458392 -0.31195495 -0.043921754 0.038034342
0.3746709 0.32541075 0.05018161 0.31221455 -0.008289295 0.29233795 0.05364082 -0.27203417
-0.26121128 -0.13921317 -0.06434579 0.046495955 0.019799728 -0.5006616 0.03183862 -0.17119153
-0.016279034 0.07790909 -0.0029305823 0.25842977 0.01564537 0.30986065 0.023914345 0.029264348
0.0057120346 -0.054456223 -0.08614593 0.16246995 -0.045897763 -0.025884973 0.005099936 0.020392377
-0.036865253 0.06786658 -0.011236118 -0.10037058 0.010715993 0.35781354 -0.05800848 0.008699092
-0.099729545 -0.20577317 0.053912 -0.90654695 0.037152905 0.060727984 0.05060873 -0.36730027
-0.10505925 -0.11046689 0.0112090325 -0.072532244 0.0351155 0.005116327 -0.052140232 -0.07391331
0.108786955 -0.04540062 -0.041722074 0.019904073 0.023623345 0.118172064 -0.054739237 0.0635127
0.36021784 -0.059547875 0.057554625 -0.24751644 -0.026581801 -0.13173264 -0.023592712 -0.28914362
-0.082458265 0.78903836 0.062455393 -0.21942201 0.062727444 -0.0323116 -0.05009062 0.5931253
-0.18071623 -0.15669008 -0.031807188 -0.13638034 -0.018107483 -0.42851263 -0.0018705431 0.34685743
0.051107775 0.12747912 -0.023397593 -0.16456251 0.00096904166 -0.76808184 0.0032461318 0.21631716
0.46997562 -0.18723086 0.058316715 -0.4377964 0.04376039 -0.08475139 0.034085333 0.3823648
-0.25072452 0.20417064 0.013274241 -0.5593768 0.035109773 -0.14502147 0.026393078 0.14681761
-0.32792974 0.059282932 -0.003678766 -0.16064632 0.07450574 -0.9373055 0.015255115 -0.006272232

block1.0.bn3.weight f4 [16]
00000000: ba2a abbb d5d2 6a3f 9835 913e 8a9c 973e
00000010: de1e 943c 6130 91bd eb9e 433f 509e b53c
00000020: 83f1 6c3d f1a7 9c3e 6d6a ea3e 4ad1 393e
00000030: 254d 423f 949d 343f feef c83e 6af6 743f
-0.0052235993 0.91727954 0.283612 0.29611617 0.018081125 -0.07089306 0.76414365 0.022170216
0.05784751 0.3059688 0.4578432 0.18146244 0.75898963 0.70552945 0.392456 0.956885

block1.0.bn3.bias f4 [16]
00000000: fe69 2b3c 6991 f7be 3d03 8c3d 3d7f 143e
00000010: f1eb dfbd 54f9 7a3c d46c 013f c443 85bd
00000020: b1f0 10bf 04f1 2e3e c886 713e 191d 093d
00000030: afea e73d f077 8a3e f39e a63e 2961 09be
0.010462282 -0.48353127 0.06836555 0.14501663 -0.10933674 0.0153182335 0.50556684 -0.06507066
-0.56617266 0.17084128 0.23586571 0.033475015 0.11324059 0.2704463 0.32543144 -0.1341597

block1.0.bn3.running_mean f4 [16]
00000000: 4eac dfbd e92b 9f3e 7afa a3be 4686 963e
00000010: f676 ce3d 4097 633d ec1e 58bf 4750 0bbe
00000020: b603 d53d 5827 90be f7ec 983e e346 eabd
00000030: 9271 4abe a379 32bc 5fb6 babe 773c f2be
-0.109215364 0.31088188 -0.32027036 0.29399318 0.10081284 0.055564165 -0.84422183 -0.13604842
0.104010984 -0.28155017 0.2986829 -0.11439302 -0.19769886 -0.010893258 -0.36467263 -0.47311756

block1.0.bn3.running_var f4 [16]
00000000: 926b a53d 420a 8f3e 0a25 423e 3331 273e
00000010: 228a ca3b e984 ae3d db6b 8b3e e82b be3b
00000020: 79fb 443c 9ca4 7a3d 1cd6 ee3d b9a0 893e
00000030: 972e 1a3f 65b5 2e3e c53b 5c3e 9a3e 523f
0.08077158 0.27937514 0.18959442 0.16327362 0.0061810175 0.08521444 0.27230725 0.005803574
0.012022846 0.06119214 0.11661932 0.26880434 0.6022734 0.17061384 0.21507175 0.8212677

block1.1.conv1.weight f4 [8, 16, 1, 1]
00000000: 0af6 973d 2ab3 b93d 3745 a43a 37b2 1ebd
00000010: 0ed0 ea3d d58d f33d 768b 0e3e eaf6 90bc
00000020: 0147 a53c 09e0 24bd dc15 4dbe 6025 f8bd
00000030: e1c7 2fbb aad9 a4bd 6288 c13d 5763 223d
00000040: d2db 11bf b88b c53c c7e8 383a 9e55 85bc
00000050: 7951 57bc 001b 0840 666a 313e 237c 063b
00000060: be06 043d fe76 ec3d 5db1 26be ed30 623d
00000070: c6d5 81bc 0cc1 d03c 04cc a7be 57fd ef3d
00000080: 23f1 c83d 523f e33e 4196 543e 6afc 323e
00000090: 161b 803d 2f42 383f e803 c7be 0454 0abd
000000a0: a6ba 013e 3f40 e53d 356c adbe b6c4 01bd
000000b0: c8d6 ccbd 5628 a1bd 5de8 e73d 3719 6fbd
000000c0: 0ba4 55be 2750 71be f87c 8d3e 6fdd b9be
000000d0: 0812 77bd eb56 bebf 7c7e e8bd c907 d8bc
000000e0: 4518 6abd 5196 f4bc 924d a93d 1866 eabb
000000f0: b667 1dbe d2ca b1bd d001 53be 0a3c c83e
00000100: 37ea 9b3f 69a6 d13c 0cb7 30be 8ec1 9fbc
00000110: 74b1 82bd 1d5a 95be 2659 963e 58f6 60bb
00000120: 91db 243e c8aa fe3c a0d6 6dbe 7f79 1b3d
00000130: 0041 10be f108 0d3e 5fe4 37be c053 8abe
00000140: 1b55 93bb 509d b93d e216 933d 62a8 5cbd
00000150: cf12 7a3d b6ee a3bd ca08 063e 9cab e33d
00000160: d2e8 083d 208b cc3c c41a 273d ed92 03be
00000170: 19fe 4cbd 01c9 e43d e4c9 f73c c6d5 773d
00000180: ad6a d1bb 8e54 073f 96bf e5bd 0072 f63e
00000190: 1b10 933d 28b8 323e 0950 153e 15e5 e4bb
000001a0: 4d5e cf3d f309 c13d 93ed 333f c8c7 0dbe
000001b0: 3383 e1bc 8b71 c13d 1bdd d1bd 9d81 34bd
000001c0: 7e31 f9bf 9c6c 7abe c6fd 66bd 9122 12be
000001d0: 08d5 edbc 9d9f 95bf fd0d aabd f91f 5bbd
000001e0: 9f84 38be ff59 6f3e 41c0 95bd de25 553d
000001f0: 253c c73c 7855 0f3d 969a 14bd a0be 0239
0.07419975 0.09067376 0.0012532835 -0.038744178 0.114654645 0.11892287 0.13920388 -0.017695863
0.020175459 -0.04025272 -0.2002787 -0.12116504 -0.0026822018 -0.080493286 0.09449841 0.03964552
-0.56976044 0.024114475 0.00070537295 -0.016276177 -0.013141983 2.126648 0.17325744 0.0020520769
0.032232992 0.115461335 -0.16278596 0.05522244 -0.015849005 0.025482677 -0.3277284 0.117182426
0.09811618 0.44384247 0.20760442 0.17479101 0.06255166 0.7197599 -0.38870168 -0.03377153
0.12668857 0.111938946 -0.33871618 -0.03168174 -0.10001904 -0.078690216 0.11323617 -0.058373656
-0.20863359 -0.23565732 0.27634406 -0.36301753 -0.06031993 -1.4870275 -0.1135225 -0.0263709
-0.05715205 -0.029856833 0.082667485 -0.007153284 -0.15371594 -0.08681263 -0.2060616 0.39108306
1.2180852 0.025592046 -0.17257327 -0.019501474 -0.06381503 -0.29170313 0.2936489 -0.003432652
0.16099383 0.031087294 -0.23226404 0.037957665 -0.14087296 0.13772942 -0.1795821 -0.2701702
-0.0044962293 0.09063208 0.07182099 -0.05387152 0.061053094 -0.08004515 0.1308929 0.11116716
0.03342516 0.024968684 0.04079701 -0.12849016 -0.050047014 0.11171151 0.030247636 0.060506605
-0.0063908906 0.52863395 -0.11218183 0.4813385 0.07180806 0.17453063 0.14581312 -0.0069853165
0.10125408 0.09425726 0.70284384 -0.13845742 -0.027528381 0.09445485 -0.10247251 -0.04406892
-1.9468229 -0.24455494 -0.05639436 -0.14270999 -0.029032245 -1.1689335 -0.08303449 -0.05349729
-0.18019341 0.23374175 -0.0731206 0.052038066 0.024320671 0.03499362 -0.036280237 0.0001246878

block1.1.bn1.weight f4 [8]
00000000: 53fa 363c 079f 2e3f 0a0b 493f 4755 0d3f
00000010: 4cb3 e53e e8f6 0f3b a5ec 6d3f 0451 4a3f
0.01116808 0.68211406 0.7853247 0.5520825 0.44863355 0.0021967236 0.92939216 0.7902987

block1.1.bn1.bias f4 [8]
00000000: e3d6 60bd b62d 8b3f b12c aebe 426c cb3e
00000010: caa0 5b3f d76d 43bc 7a2d 34bf 99cf b63e
-0.054892432 1.0873325 -0.34018472 0.39731032 0.8579222 -0.011928043 -0.7038189 0.3570526

block1.1.bn1.running_mean f4 [8]
00000000: 55ae d03e d9de 2240 78e7 8e3f fe92 82c0
00000010: bbff 0d40 c753 2b3e 5742 0440 6a78 10c1
0.40758005 2.5448515 1.1164389 -4.0804434 2.2187335 0.16731177 2.066549 -9.029398

block1.1.bn1.running_var f4 [8]
00000000: 5d62 673e 20c4 1441 0a09 0140 a922 7240
00000010: bb13 6140 3ab4 b63d 9640 1c40 4f62 a240
0.22596116 9.297882 2.0161767 3.7833655 3.5168293 0.08921094 2.441442 5.0745006

block1.1.conv2.weight f4 [8, 8, 3, 3]
00000000: 6071 9ebd b242 33bd 6275 64bd f10a 313b
00000010: e1e9 8fbb 4dca 54bd bff1 883c 7497 f9bc
00000020: fad6 2dbd cc7b b3bd 9e74 45be 8280 fe3c
00000030: fb0b c43e 4cb0 b03d 155f afbd 7825 b9bd
00000040: 2a00 d63d 3f7e c83b c7cb 763e 68ba 4b3e
00000050: a02e 073e 409a 9d3d 8f03 39be f0e4 56be
00000060: 3816 6abe 6065 9dbe 1ee0 73be ee39 2bbd
00000070: aafc cb3c 8301 9ebc f171 933c c500 cc3e
00000080: f43d 3d3c c532 dfbb 14f4 94bd 6be8 353c
00000090: 6bb7 a2bd 4390 b1be a3af 383e 96af 81bd
000000a0: 67ac 38bf e681 c43e fd1d a23e ae4f 843e
000000b0: 041c ac3e 7612 08bd 73df 3abd 934b 633b
000000c0: 768d 583b 4138 f6bb b331 163c ca02 4a3a
000000d0: 06f2 3cbd 49f7 11bc 026a 7e3d 5c3c 9c3d
000000e0: 559f aebd c36e 013f 7498 343f 6089 c73e
000000f0: 2502 603c 019c fa3d 200d 8e3c 54e9 43be
00000100: 5cfa 473f 6869 35bf 15e5 d13e 1e00 ec3f
00000110: 0ef5 97be 543e 03bf af61 96bf ca76 eabd
00000120: f3cc 40bd 8eae 2ebd 13f6 103c 69be 0dbc
00000130: 742e 2cbd 5b8e 0fbd 642a 86bb 5e09 a1bc
00000140: 28d6 debb b6d0 e6bc 9c5e eebc d18c 01bd
00000150: f7cf 2dbc 260c 49bc fa3f a9bc 0af3 a1bb
00000160: 22b8 a43b 2776 a53b c6d7 45bd f338 3ebd
00000170: 3104 babc 8416 98bc c22c 2cbd 6315 43bd
00000180: 0c74 c53c e2be 013c 1e6b ab3b 7020 c23c
00000190: 8fdc cdbb 9262 59ba f1c9 443d 9e94 ba3c
000001a0: 8669 993c fc74 e03c 7986 8c3c a5c9 c83c
000001b0: b858 97bb 298c 6a3b 618f f8bc ddd3 67bd
000001c0: dfa8 e4bc 395e 0cbd 991e 0bbc c041 2c3d
000001d0: cded 983d 18e6 5cbc bd98 0fbd 087b b7b9
000001e0: 8c1d 4fbd 59e6 29bd d7e6 05bc fc31 e8bc
000001f0: f0bd 27bd c210 92bc c0d0 0fbd 0e2b c2bc
00000200: e430 b3bb da5b febc 4ff4 6dbd 644d 7bbc
00000210: 27e2 8ebc 0e4b eabc 2fb4 253d 3fbb 5c3c
00000220: c726 403d 1111 023d 749e 483d 7f4f 1b3d
00000230: 5b6a 8c38 ebb6 e13c 02d8 d83c d9c5 593c
00000240: 44cd 95bc 180a 313b 57ea 8ebb e28f 87bd
00000250: 3ee9 f5bc 3445 cbbc 5472 38bd afc8 6dbd
00000260: 108e b0bc 2943 08be 1fc0 3a3f eab7 843e
00000270: dbc1 89bd 7d9c dabf 5876 bbbd d3b0 fa3e
00000280: 778b 8fbe d374 b63d 14ed 10be 133e 283a
00000290: d387 01be af5f 13be f978 f4be 516b c2bd
000002a0: 3dbd 85be 378d 89bd d991 d03d 4457 ad3c
000002b0: 6a8f 17be e314 8bbe d395 44be 2ff3 513f
000002c0: 6379 28be 83d9 99be 45c0 c33e 9340 ec3d
000002d0: d865 793d 0617 17bf 7735 a53c ab1b 4abd
000002e0: 9506 923e ddb2 e93d 1826 87be 806d 383e
000002f0: 402c 76be 20cc e43c d882 e1ba a311 63ba
00000300: dd88 763d 7e6c adbb 37c2 33bb 63a9 443c
00000310: 3909 81bc 9ae8 743c cc5e e1bd c3b2 e8bd
00000320: 95bd 0bbe 159e afbe 2c91 cfbe 7523 c4be
00000330: 24b4 7fbe 8847 03be 017f f8bd 8a00 c2be
00000340: 11bb 8d3e f3f7 c7be 1b18 e5bd 358b 8b3f
00000350: 27cb 173e 9ba2 0ebe 0896 d3bd 41f0 50be
00000360: c315 90bc 6f0f f23c c6d3 353c 9e03 c3b9
00000370: c22e 84bb 8ae5 d1bc 00f0 6dbb e144 cfb9
00000380: f144 293d 7639 833d ad56 83be 2db8 0ebf
00000390: b037 f53d 886a 833f 0281 3cbe aee9 b5be
000003a0: 239c 1dbd 93a4 edbd a2ad 10be 6c09 d2bd
000003b0: ed8f bd3d 1460 65be 25c7 adbd dc1b 6ebe
000003c0: 1d2f 50bd 7de2 32be a2df a83d e3a2 28bb
000003d0: b0f6 48be f480 58bc d483 46be 7db0 0abf
000003e0: 684a 36bd 2425 97bc b734 37be a0e1 2e3e
000003f0: 904e f13d 975e ec3e 665c 0e3f dddb b23d
-0.07736468 -0.043764777 -0.055776007 0.0027014578 -0.004391894 -0.05195074 0.016716836 -0.030467726
-0.042441346 -0.08763847 -0.19282767 0.031067137 0.3829039 0.08627376 -0.08563057 -0.0904035
0.1044925 0.0061185653 0.24101172 0.19895327 0.1320138 0.076954365 -0.18067764 -0.2098577
-0.22860038 -0.30741405 -0.23815963 -0.041803293 0.024900753 -0.01928783 0.017998667 0.39844337
0.011550415 -0.006811472 -0.07273117 0.011102776 -0.079451405 -0.34680375 0.1803575 -0.063323185
-0.72138065 0.38380355 0.31663504 0.2584204 0.33615124 -0.03322073 -0.045623254 0.0034682497
0.0033043302 -0.00751403 0.009167123 0.0007706104 -0.04612925 -0.008909055 0.062112816 0.076287
-0.08526484 0.50559634 0.70545125 0.38971996 0.013672386 0.12236787 0.017340243 -0.19131976
0.78116393 -0.7086396 0.40995088 1.8437536 -0.2967915 -0.5126698 -1.1748561 -0.114484385
-0.047070455 -0.042646937 0.008847731 -0.008651354 -0.04203649 -0.03504787 -0.004094409 -0.019657787
-0.0068004318 -0.028175693 -0.029097848 -0.031628434 -0.010608665 -0.012270963 -0.02066039 -0.0049423026
0.005026833 0.0050494852 -0.04830148 -0.04644103 -0.022707077 -0.018565424 -0.042034872 -0.047627818
0.024103187 0.007919045 0.005231275 0.023697108 -0.006282396 -0.0008292581 0.04804415 0.022775944
0.018727075 0.027399532 0.017153965 0.024510214 -0.0046187304 0.0035789108 -0.030341806 -0.056598533
-0.027912555 -0.034269545 -0.008491182 0.04205489 0.07467232 -0.013482593 -0.035057772 -0.00034996145
-0.050565287 -0.041479442 -0.008172712 -0.028344147 -0.040952623 -0.017830256 -0.03511119 -0.02370217
-0.0054684747 -0.031049658 -0.05809432 -0.015338276 -0.017441822 -0.028600242 0.04045504 0.013472377
0.04691198 0.031754557 0.048979238 0.03791761 6.6955305e-05 0.027553042 0.026470188 0.013291799
-0.018286355 0.0027014073 -0.0043614316 -0.0661924 -0.030018445 -0.024813272 -0.045030907 -0.058052715
-0.021552116 -0.1330687 0.72949404 0.25921565 -0.06726428 -1.7079006 -0.09153432 0.4896303
-0.2803609 0.08909001 -0.14152938 0.0006417941 -0.12649469 -0.14391969 -0.47748545 -0.09493125
-0.2612094 -0.06716388 0.10184068 0.021159776 -0.14800802 -0.27164373 -0.19197778 0.82011694
-0.16452555 -0.3004876 0.38232628 0.11535754 0.06088814 -0.59019506 0.020167096 -0.049342792
0.28520647 0.114110686 -0.2639625 0.18010521 -0.24040318 0.027929366 -0.0017205132 -0.0008661991
0.060189117 -0.0052924743 -0.0027428993 0.012003276 -0.015751468 0.014948035 -0.11004409 -0.11362221
-0.13646539 -0.34300295 -0.40540445 -0.38308302 -0.24971062 -0.12820256 -0.12133599 -0.37891036
0.27681783 -0.39056358 -0.111862384 1.0901858 0.1482359 -0.13929217 -0.103313506 -0.2040415
-0.017588502 0.029548375 0.011097854 -0.00037195993 -0.0040338943 -0.025622148 -0.0036306381 -0.00039533435
0.041325513 0.06407444 -0.25652066 -0.5574978 0.11973512 1.0266886 -0.18408588 -0.35529846
-0.03847898 -0.11603656 -0.14128736 -0.10255703 0.09255967 -0.22399932 -0.084852494 -0.23252815
-0.05082618 -0.17469211 0.082457796 -0.0025731854 -0.19625354 -0.013214339 -0.19386226 -0.5417555
-0.044504553 -0.018450327 -0.17891203 0.17078257 0.11782563 0.46165916 0.5560974 0.08733342

block1.1.bn2.weight f4 [8]
00000000: 9564 3e3f 9530 443a 3723 243f 3fb0 f23e
00000010: 1c9e 3bbf 89e2 833c 7dad 513f 2c41 1e3f
0.74372226 0.0007484046 0.64116234 0.4740009 -0.7328813 0.016099231 0.8190535 0.61818194

block1.1.bn2.bias f4 [8]
00000000: 06be 4b3f ac8a 3cbc d76b 593f ef2c 053f
00000010: a122 a7bb fb42 63bd 3059 60be e150 303f
0.7958683 -0.011507671 0.84930176 0.5202169 -0.0051005636 -0.0554838 -0.21909022 0.6887341

block1.1.bn2.running_mean f4 [8]
00000000: 5c10 463f 20e9 eebc 6e5b b5bf 1a59 0ebf
00000010: 3c71 42bf 6ea3 3abe 56f5 83be 5c64 b0be
0.7736871 -0.029163897 -1.4168527 -0.5560471 -0.7595403 -0.18226406 -0.25773114 -0.34451568

block1.1.bn2.running_var f4 [8]
00000000: 62ec af3f f792 7d3d f11e ef3f 5469 4d3f
00000010: 5892 c93f 03c9 6c3e 39cd 9d3f 4c02 fb3f
1.3744013 0.061907735 1.8681318 0.8023884 1.5747786 0.23123555 1.2328254 1.9610076

block1.1.conv3.weight f4 [16, 8, 1, 1]
00000000: be09 f2be 5972 86ba 6c8b a73d bb03 6fbf
00000010: 5d15 79be f583 093c b6f1 903e 6591 553e
00000020: c104 37bd 3d44 f0bb 885d edbe 94c5 80bd
00000030: 240d 3a3d 6ed5 0dbd 35f1 953d 5496 64be
00000040: 3ada ffbe 1242 af3d 2674 efba ed49 db3d
00000050: 5110 af3a dce3 adbc 754c d03e 069f 433e
00000060: 91e3 d43e 2aa2 133d f84d 38be a687 a0bd
00000070: edd4 c2bd 5640 a63c f788 87be b834 c43c
00000080: 817b 343c fd83 873d ab3a 25bf 1918 9b3e
00000090: bfdc 743d b14f dcbc 28f8 21be d5d9 843f
000000a0: a30f 1e3d 22ed 833d 7022 d8be 1c87 f03e
000000b0: 1800 e7be 365d 88bd 5b23 cebd 9b57 3fbe
000000c0: 7427 d7be 4157 25bd 22c6 f83e 66c1 73be
000000d0: b5f0 03bd 2591 63bd c2d2 1d3e c012 d33e
000000e0: d9c9 50bf 27fe 0cbb 5391 d33e a4ac 473e
000000f0: 2e9d 17be 97b6 21bc 976b d5bc e43b 423e
00000100: 9068 293f f677 143d b625 3e3f 5340 f8be
00000110: 03a4 bdbd 2f05 433d 1a46 58ba a14c ea3e
00000120: 35ff 893d 4029 d03c 5380 f73e b94a 5cbc
00000130: 0a86 22bf 983f 0f3d 84e3 1c3f 626e 46bf
00000140: ea06 2abf 88e5 193d ed3b 053f 0bd4 e33d
00000150: 3c63 a3be 2b10 94bd 517e 62bd a661 edbb
00000160: ce0e e1be bb74 29bd b76a 393e 0b03 233e
00000170: 67dd a0be 7c14 1f3d 06cb 7c3e a6df db3c
00000180: f117 8e3e 282c 2dbb bd8e 4dbd 5312 e73d
00000190: a288 313e af46 143b c509 8fbd 8caa 19bc
000001a0: 4a09 42bd a1e7 ebbc 2318 e43e 454f 133e
000001b0: 47c1 2a3e e11c 24bd f2c1 60bf d059 2ebe
000001c0: cec7 e23e 7f56 23bd bbdf 873c 504a c9bc
000001d0: 6684 133e e4be e83c e11d c7be fdc4 ebbe
000001e0: b0bc c7be 664b 283d aa57 2e3d 1349 513e
000001f0: ad3b b4be 38d2 b9bd 0987 1c3e 0e99 46be
-0.47273058 -0.0010257467 0.081808895 -0.9336507 -0.24324556 0.008393277 0.2830941 0.20856245
-0.044682268 -0.0073323534 -0.4636042 -0.06287685 0.045422688 -0.03462737 0.07321397 -0.2232297
-0.4997118 0.08557524 -0.0018268868 0.107074596 0.0013356303 -0.021226816 0.40683332 0.19103631
0.4157987 0.036043324 -0.17998493 -0.07838373 -0.095132686 0.02029435 -0.26471683 0.02395092
0.011015774 0.06616972 -0.64542645 0.30291823 0.059780832 -0.026893469 -0.1581732 1.0378977
0.03858913 0.06441714 -0.42213774 0.4697808 -0.4511726 -0.066584036 -0.10065337 -0.18685763
-0.42022288 -0.040366415 0.48588663 -0.23804244 -0.032211978 -0.055558342 0.15412429 0.41225243
-0.81557995 -0.0021513791 0.4132181 0.19499451 -0.14806053 -0.009870193 -0.02605228 0.18968159
0.66175175 0.036247216 0.7427629 -0.48486575 -0.092597984 0.047612365 -0.0008250192 0.45761588
0.0673813 0.025410295 0.4834009 -0.01344555 -0.6348578 0.034972757 0.6128466 -0.7751218
-0.664168 0.037572414 0.52044564 0.11124428 -0.31911647 -0.07229646 -0.055296246 -0.0072443066
-0.43956608 -0.04137109 0.18107115 0.1591913 -0.31418917 0.038837895 0.24686822 0.026840042
0.2775264 -0.0026424024 -0.050184954 0.11282792 0.17337278 0.0022625139 -0.06984285 -0.00937904
-0.04737214 -0.028796973 0.44549665 0.14385708 0.16675292 -0.040066604 -0.8779594 -0.17026448
0.44293064 -0.03987741 0.016586175 -0.024571568 0.14405975 0.028411336 -0.38889983 -0.46048728
-0.39011145 0.04108753 0.04256407 0.20438032 -0.3520178 -0.09073299 0.15285887 -0.19394323

block1.1.bn3.weight f4 [16]
00000000: a493 c73e cc82 b83e c105 f03d ab08 d9bd
00000010: 9fed 9c3f add2 0e3f 2dd3 803e 18db 9c3f
00000020: c424 bc3f 79ac 953f d3f3 d53e b1f5 913d
00000030: ce01 9d3c 0e83 033f a43f 633e 5e88 8e3d
0.38979828 0.3603729 0.117198475 -0.105973564 1.2260016 0.55790216 0.25161114 1.2254362
1.469872 1.169326 0.41787586 0.0712694 0.0191659 0.5137185 0.22192246 0.06959604

block1.1.bn3.bias f4 [16]
00000000: ca4d 22be 0de6 dbbe 3904 da3d 06b3 b6bd
00000010: 9332 0d3b 14c5 3dbf 3253 1abd 5675 c63d
00000020: 39e6 d8bd 5681 a23d 6c0d 233d 9d11 3abd
00000030: 202d ac3c dfe5 b63e 21bb da3d b35c 6bbc
-0.15849987 -0.42948952 0.10645337 -0.08920865 0.0021545037 -0.7412884 -0.037676997 0.09690349
-0.105907865 0.07934825 0.039807722 -0.045426954 0.021017611 0.35722253 0.10680223 -0.014365363

block1.1.bn3.running_mean f4 [16]
00000000: 4964 34bf bad0 20bf ad6c 0bbe b893 af3d
00000010: c9bb bd3e 7a16 b4be 9c58 913e 933e a1bd
00000020: 65b3 9e3f 67f3 35be 3057 dbbd bb51 00be
00000030: 8dd2 8a3e bdf3 6d3e f542 6e3b 18cb c0be
-0.70465523 -0.6281849 -0.13615675 0.08573097 0.3705733 -0.35173398 0.28387916 -0.07873263
1.2398497 -0.17768632 -0.10709989 -0.12531178 0.27113762 0.2323751 0.0036355827 -0.37654948

block1.1.bn3.running_var f4 [16]
00000000: 30cd 673e 2043 ac3d ceec 343e 4603 db3d
00000010: be77 bd3e 3655 b13d ca4d 5c3e 227b f13e
00000020: f791 043f eb59 ae3e 2319 c93e 1e03 443e
00000030: 99c8 5d3d ef09 1b3e 70e2 4d3e b610 1d3e
0.22636867 0.084112406 0.17668459 0.10693984 0.3700542 0.08658831 0.21514049 0.47164255
0.51785225 0.34052977 0.3927699 0.19141814 0.054146383 0.15140508 0.2010591 0.15338406

block1.2.conv1.weight f4 [8, 16, 1, 1]
00000000: ba0e 9f3e 7c59 cb3e 13b5 a33e 0cf9 0b3e
00000010: e961 d43c f645 eabd 9329 c5be 0992 223e
00000020: 60e0 dbbc 8f23 e33d 68bc 88be cf81 663f
00000030: 3d7b 323e cf0c dcbe af90 c33e 3feb ddbd
00000040: 926a 9f3e dee9 08bc 8302 19bd 56e8 18be
00000050: 3960 ef3d 13c8 efbd 6777 1a3e dbaf c13b
00000060: 62af 833e cb52 983e a382 87bd 5120 f9bd
00000070: 048a 0cbe 37c6 173e cd87 93bd 9115 4bbd
00000080: 10d4 a7bc 2e4b a03e 7718 8dbe 9d87 a13c
00000090: ff11 d23d 14f1 1fbd 0acf 2ebc 67b3 12be
000000a0: 5c4b e7bc 4d9b babc f0eb 58be 481a a3be
000000b0: 121f ae3b 9806 9ebd d5df 5f3f 69c9 bf3d
000000c0: 68d7 843f 8032 3dbe 0105 143e 0caa 723e
000000d0: ad66 89bc 17c2 20bf 450a adbd 52a7 943e
000000e0: 1ed5 ccbe 4b3d fabd db15 3e3e 43a7 eb3d
000000f0: 6962 6a3e 2d5b 55ba 252e 31be c590 cb3c
00000100: ff93 933c e492 d93d 8166 87be 90cf 6cbe
00000110: 79ee aa3c e30b 893d b359 c6be 8ac9 b3bd
00000120: 67f0 3abe fd92 083e 14cc 073f 4cb3 cb3e
00000130: 8c5f fdbd 7bd8 db3c c091 67be 58c6 a1bc
00000140: 9f15 733d 6ead 42be d2dd 93be 0477 29bd
00000150: ae16 2cbf 2b11 7e3e 4e90 9c3e a506 523e
00000160: 33bf 79be ad08 f5bd 069e c6be 6067 343e
00000170: 0983 89be 789c 0b3f c7c0 15bf 6fc7 183e
00000180: f79c 02bf bf34 a93d 3c37 99be e540 e43e
00000190: 7147 be3e d66b 6b3e 2220 ae3e 8d42 e4bd
000001a0: 7e60 debd 2431 2dbe 151b 543e 0273 78be
000001b0: c5be 86bd 99e7 403d 2bf7 013d a2d7 40be
000001c0: 393b 51bf fcc3 e7be 1ce9 c73d df27 09be
000001d0: f381 cabe c1c3 123e cf0d 50be 819d 91bd
000001e0: 1668 b03e 1fa5 a3be f744 c1be 7e34 c23e
000001f0: e58f 8f3e d3a7 49be ad30 07bf b1c5 59bd
0.31065923 0.3971671 0.31974086 0.13669223 0.025925593 -0.11439125 -0.3850828 0.1587602
-0.026840389 0.11090767 -0.26706243 0.9004182 0.17429824 -0.42978522 0.38196322 -0.10835885
0.31135994 -0.0083565395 -0.03735591 -0.14932379 0.11688275 -0.11708083 0.15084611 0.005910856
0.25719744 0.29750666 -0.06616714 -0.12164367 -0.13724524 0.14821707 -0.07203636 -0.049581114
-0.020486861 0.31307358 -0.27557728 0.019717986 0.10257339 -0.03904827 -0.010669479 -0.14326249
-0.028234176 -0.022779131 -0.21183753 -0.31855989 0.0053137625 -0.077161014 0.87450916 0.09364588
1.0378237 -0.18476295 0.14455034 0.2369768 -0.016772592 -0.6279616 -0.084492244 0.29033905
-0.40006346 -0.12218722 0.18563025 0.11506512 0.22889103 -0.00081388914 -0.17302759 0.024849305
0.018014906 0.1062372 -0.26445392 -0.23126054 0.020865666 0.0669172 -0.3874031 -0.08778675
-0.18255769 0.13337322 0.53045774 0.3978523 -0.1237174 0.026836624 -0.22614193 -0.019747898
0.05934679 -0.1901147 -0.28880173 -0.041373268 -0.67222106 0.24811237 0.30578846 0.20510347
-0.24389343 -0.119645454 -0.38792437 0.1761756 -0.26857784 0.5453563 -0.5849728 0.14919828
-0.5102076 0.08262014 -0.29924953 0.4458076 0.3716388 0.22990355 0.3400889 -0.11145506
-0.10858248 -0.16913277 0.20713456 -0.24262622 -0.06579355 0.04709587 0.03172986 -0.18832257
-0.8173099 -0.45266712 0.09761259 -0.13394116 -0.39552268 0.14332487 -0.20317768 -0.071101196
0.3445441 -0.31961915 -0.37747929 0.37930673 0.2803947 -0.19692926 -0.5280865 -0.05316705

block1.2.bn1.weight f4 [8]
00000000: dd13 333f 2ceb 013f 2011 323f 1e6a 173f
00000010: fc85 153f bae0 263f 7ade 1f3f 8401 2a3f
0.69952184 0.5074947 0.6955738 0.59146297 0.5840757 0.65186656 0.6244885 0.6640856

block1.2.bn1.bias f4 [8]
00000000: 2060 073e f2fb 68be f1a9 d0bd 6814 b23e
00000010: b935 12be b39e 883e 0de7 c2be 8909 8c3e
0.13220263 -0.2275236 -0.10188664 0.34781194 -0.14278306 0.26683578 -0.38066903 0.27351025

block1.2.bn1.running_mean f4 [8]
00000000: 13ad 1840 2d77 0e3f e4f5 943e 530b 3340
00000010: 762f edbe d7b0 82bf d5e4 5dbf 7c85 6bc0
2.3855636 0.556506 0.2909385 2.7975662 -0.46325272 -1.0210217 -0.86677295 -3.6800222

block1.2.bn1.running_var f4 [8]
00000000: 5401 8940 0cae 0e3f 7187 3c40 c861 4440
00000010: c00a c03f 5e74 6640 90c6 bb3f 431e 5240
4.281412 0.55734324 2.9457667 3.068468 1.5003281 3.6008525 1.4669971 3.283097

block1.2.conv2.weight f4 [8, 8, 3, 3]
00000000: dd0c 43be e263 823d fa1b b03c 20a2 b3be
00000010: f28b eebd b4d4 b5bd 6d64 853c e2b5 63bc
00000020: 7542 c7bd 02cf 093d 9d9a d53c 24f6 7b3d
00000030: c2b3 553e 430d eb3b d77c f0bc 985d 2b3e
00000040: daa3 ac3d 43cb c3bd 3903 94bd 21b4 6bbc
00000050: 2c23 633c 6dbe 073d 2032 7d3e b2e3 f4bc
00000060: cfbd 703d 2295 9e3b b9fa 8a3c d9f1 8cbe
00000070: 01a9 af3c df70 4a3e 22fa 4c3e 5241 17bf
00000080: 1b18 84be 0c52 a53e ea40 7e3e 6b92 2abe
00000090: b25d 803e d570 9e3e 83f7 d3bd 47cc a6bd
000000a0: b84f 113e f286 333d 1c67 97bd c013 30be
000000b0: 4b71 263d 9af8 6dbd 22b8 2fbe d65c 1abe
000000c0: 74cd 133f fda5 1e3e 06b1 71be 254d 0ebe
000000d0: 585b 1e3e 5d4c 013e d138 0cbd 3c9d 48bd
000000e0: 0d4f 22be 2191 1cbd f09c 82bc a20c d3bc
000000f0: 0a26 21bd 3a59 0bbd 1b42 77bd aefa 8c3e
00000100: c3d4 99bd dd80 0dbe 0ce0 9cbe ddca 283f
00000110: 1e23 a63d c8e1 85be 3d45 02bf ec86 babd
00000120: 5f22 0ebe b47f 1b3f 8451 f73d 4207 2ebe
00000130: e210 b93e ccf9 943e 1729 50be ec57 94be
00000140: ac56 a0be 86c6 33be bde9 c7bd b09d 20be
00000150: 95cd 873d baf0 9cbb f582 f3bd fec7 973c
00000160: ae9f 73bd 8138 13bd 3255 083d 1467 ab3d
00000170: f531 a2bd 9a0c ab3e a7a4 1d3f 3f25 67bd
00000180: c4d6 623e 73b9 3d3e d2eb 9dbc 015d 11be
00000190: 5f03 6cbd bf2d 153e bfe0 06bd 4b84 31be
000001a0: c72e 803c 6a1c ac3d 14d7 a3be ca36 21bd
000001b0: 8633 00be c589 2f3e ee4e aabe 08af 3d3e
000001c0: bc4d 373d 1a01 82be a949 a93d 1792 953d
000001d0: c14c dbbc afad 0c3e 0d06 abbe 4518 0fbe
000001e0: 612f 25bd a35a 1bbd 8f85 e9bd 52fa 813e
000001f0: 0be1 673e 8b37 e4bd 214a c4bd 757a 2abe
00000200: 6cfa 54be 5ac4 04be e447 49be 903d cc3c
00000210: ed01 b2bc ab51 0f3e e741 0fbe 34d8 ce3d
00000220: 19b2 8c3c e1ba 0bbe 9c88 ffbd f3f5 01bc
00000230: 59cf 85bc fcb0 2f3e f666 2abc 6200 b4bd
00000240: e79e 0bbe c0a2 3ebd e95d 69bd 3074 ac3e
00000250: 57b2 753f 1273 dd3e 8c86 99bc c01b 103e
00000260: 8e6d 35be 71c0 b7bd 5564 acbd 59f4 06be
00000270: 1f6c 143e 33b8 0dbd 0742 f6bc b4c5 d73d
00000280: 8e00 c0bc 1aa8 243d 1d11 28bd 7e16 ac3d
00000290: c358 60be 635e 54be 6f7f 14bc e2e4 e5be
000002a0: de8c 583d 68d5 b73d 6a55 1dbe 699e bcbd
000002b0: 86db 373e 1157 c2bc 541e ab3d 5c10 963e
000002c0: 5776 eabd 11dc 2fbe ffd5 cabc 0800 e5bd
000002d0: 2fe5 c9bc 638b c73d acce 6bbe 0487 2a3d
000002e0: 64c1 933e 902f 913c 24bc 19be 93f2 503d
000002f0: 3f26 f1bd 8fe0 953c 987a 5e3e b8eb 8e3c
00000300: bdbd 5f3e 7a32 4d3d 50f8 47be ad9b 423e
00000310: 6436 2f3e a7bf 3e3e 7806 abbc b1ad babc
00000320: 9526 3d3e 37eb 49be 1440 72bd 666c 81bd
00000330: 3727 4a3d 32ec fc3d 62da 633d 6f62 52be
00000340: 994b be3d 22ca 8dbe daa6 113e 51c8 b43e
00000350: 5cbd b13b a7cd 1abd 265a 993e 4e39 5fbe
00000360: 661a 03be 7cce cc3e 66ae 68bd eee3 f3bd
00000370: 72aa c13c e00a 22bd 741b ac3e b22e d73d
00000380: 7542 133d 1c39 e9bc 0f0c 5b3a d9ef 2bbe
00000390: 5335 c6bd bc6c 5a3d ed17 2dbe e42d f0bd
000003a0: b6d5 11be df73 89bc 7803 c6bc 1e11 79bd
000003b0: 0607 0bbd a991 1b3e efee 8b3d 68aa 3ebd
000003c0: a920 d1bd 0f12 493d 91f6 6c3a 5ed5 11bd
000003d0: 12e3 4f3d fdb2 09bc 57ca 05bf 2479 2bbf
000003e0: 3f09 90be eb84 dcbd 786f 4ebe 444c 89be
000003f0: d1bd 9e3d 813b 9e3e a89b 873e 3693 abbd
-0.19047876 0.063667074 0.021497715 -0.3508463 -0.11647786 -0.088784605 0.016283238 -0.013898345
-0.097294725 0.033644684 0.026074702 0.061514035 0.20869353 0.007173212 -0.029356403 0.16734922
0.0842969 -0.095602535 -0.07227177 -0.014386208 0.013863366 0.03314059 0.24726152 -0.02989373
0.058774766 0.0048395554 0.016965257 -0.27528265 0.021442892 0.1976962 0.20017293 -0.59084046
-0.2579964 0.3228916 0.2482945 -0.16657417 0.25071484 0.3094546 -0.103499435 -0.081444316
0.14190567 0.043829866 -0.073927134 -0.17195034 0.04063539 -0.058098413 -0.17160085 -0.15074477
0.5773537 0.15493007 -0.23602685 -0.13896616 0.15464532 0.12626787 -0.03423387 -0.048978075
-0.15850468 -0.038224343 -0.015943974 -0.02576286 -0.039342918 -0.03402064 -0.060365777 0.27535003
-0.07511284 -0.13818689 -0.30639684 0.65934545 0.08112167 -0.2614882 -0.508869 -0.091077656
-0.13880299 0.60741735 0.12076095 -0.16994956 0.36145693 0.2909683 -0.20328175 -0.2897333
-0.31316125 -0.175562 -0.09761379 -0.15685153 0.066310085 -0.004789439 -0.118902124 0.01852798
-0.059478454 -0.03594256 0.033284374 0.0836927 -0.07919685 0.33408052 0.61579365 -0.056432005
0.22152239 0.18527775 -0.019277487 -0.14195634 -0.057620402 0.14568232 -0.03292918 -0.17335622
0.015647305 0.08403857 -0.3200003 -0.03935889 -0.12519655 0.17142399 -0.33263344 0.185238
0.044751868 -0.25391465 0.08266003 0.07303255 -0.026769998 0.1373813 -0.33403054 -0.13974102
-0.040328387 -0.037928235 -0.114024274 0.25386292 0.22644441 -0.111434065 -0.095844515 -0.16648276
-0.20798653 -0.12965527 -0.1965633 0.024931699 -0.021729434 0.13995998 -0.13989983 0.10099831
0.017174767 -0.13645507 -0.12477228 -0.007932174 -0.016334223 0.17157358 -0.010400524 -0.087891355
-0.13634835 -0.04654193 -0.056974325 0.33682394 0.9597525 0.43251854 -0.018740915 0.14073086
-0.17717573 -0.08972252 -0.08417574 -0.13179149 0.1449437 -0.034599494 -0.030060781 0.10535756
-0.023437764 0.040199377 -0.041031945 0.084027275 -0.2190886 -0.2073913 -0.009063586 -0.44901186
0.052868716 0.08976251 -0.15364614 -0.09209902 0.17954835 -0.023723157 0.08355394 0.29309356
-0.11448353 -0.17173792 -0.024760244 -0.111816466 -0.024645416 0.09743383 -0.23028058 0.041632667
0.28858483 0.017722875 -0.15013176 0.051012587 -0.11774873 0.018295554 0.21726453 0.017446384
0.21849723 0.050096966 -0.19528317 0.19004698 0.17110592 0.18627797 -0.020877108 -0.0227879
0.18471749 -0.19718634 -0.05914314 -0.063195035 0.049353804 0.12349738 0.055628188 -0.20545362
0.09291763 -0.27693278 0.14223805 0.3530908 0.0054241847 -0.03779378 0.2995159 -0.21799204
-0.12803039 0.40001285 -0.056806944 -0.119087085 0.023640845 -0.039561152 0.33614695 0.10506953
0.03595205 -0.028469615 0.0008355984 -0.16790713 -0.096781395 0.053326353 -0.16903658 -0.11727503
-0.1424168 -0.016778884 -0.024171576 -0.06080734 -0.033942245 0.15192284 0.06832682 -0.04654923
-0.102113076 0.049089488 0.0009039427 -0.035603873 0.05075366 -0.008404491 -0.5226187 -0.6698172
-0.28132054 -0.107675396 -0.2015971 -0.26816 0.07751048 0.30904773 0.26485944 -0.08377688

block1.2.bn2.weight f4 [8]
00000000: 284f 1d3f cdda 4d3f 981f 803f c714 f43e
00000010: fe73 eb3e 304a 013f d463 363f 3ef5 533f
0.6144891 0.8041199 1.0009642 0.47672102 0.45986933 0.50503826 0.71246076 0.82796085

block1.2.bn2.bias f4 [8]
00000000: d66a 12be b4f4 ddbd 7eb5 5abf 1d4c e33d
00000010: 41ae f53c dea8 85bc 583d 4fbe 90be fcbe
-0.14298567 -0.10837689 -0.85433185 0.11098502 0.029990317 -0.016315874 -0.20238245 -0.49364138

block1.2.bn2.running_mean f4 [8]
00000000: 899a 90be 7983 18be 5084 3c3f 7564 a1bf
00000010: e33d b53f 02ba 753e e91e 04bc 2725 1ebf
-0.282429 -0.14893903 0.7363939 -1.2608782 1.4159511 0.23996738 -0.00806401 -0.6177544

block1.2.bn2.running_var f4 [8]
00000000: 7c8f ae3e 6257 423f 5061 5a3f 7748 0e3f
00000010: f316 803f 4c29 f73e 146b 303f 155e eb3e
0.34093845 0.75914586 0.8530474 0.5557932 1.0007004 0.48273695 0.6891339 0.45970216

block1.2.conv3.weight f4 [16, 8, 1, 1]
00000000: ec25 8dbe e00b debb 1f40 6fbd 056f 13bf
00000010: e4ce 58bd 933e 1f3f 513c 0cbc 6180 cc3d
00000020: aec2 afbd 4aa7 463e 8348 d13d eb3f d33c
00000030: 48cd ac3e 792f 0b3e 42c3 c43e 63d5 a83e
00000040: 59a6 d0be 61f2 52be 4c19 73be 41c3 8dbe
00000050: 04f1 d9bd 10af 233d 532d 1dbf 5b0f 273e
00000060: b9f1 d83d 1807 5e3e f92b 5f3e 500d 05be
00000070: 2568 32bc 7aff a23e 3f16 4b3e 610f 5a3e
00000080: cafa 7f3e 0df6 1f3f 5521 b8bd b42d 6e3e
00000090: 076a c6bd d1f6 a6bc 0ac7 92bd a3ed e2bb
000000a0: 952a a63e 827f 493d afc8 89bd a570 f039
000000b0: 6557 abbe aa82 c6be 14a3 0ebd 71cc 0c3e
000000c0: 6182 b0be 712c abbe f9a7 dc3d a865 13be
000000d0: d0a8 06be fb55 ebbe 004f 5e3e 9039 9abe
000000e0: 2c29 69be dadb 563c dfd4 98be bda0 a2be
000000f0: c885 82be 0ebc 92be 062f c8be e00f d6bd
00000100: d235 f63c d3a5 a03e 34c9 fc3d 49fb 303e
00000110: ce0f 8bbe 7fdd fcbd 98b8 85bd 9b32 353e
00000120: b194 83bd 89d0 cc3c 0812 35be 9356 4bbe
00000130: e1f4 02bd 6cda 01bc d4f0 ee3c a8e8 ebbd
00000140: 1b31 a63e 47ab a33d bd36 86bd 3a55 e03d
00000150: 8020 38be 2b99 b03d 7a5a f13c f798 c2be
00000160: f730 433d 5080 3cbe 2499 b1bf 5802 2cbe
00000170: f1b1 6c3e 8e95 cabd 62e4 81be 7a9e 0e3e
00000180: 311b de3a 64c5 4bbe 2c0a d1be 070e b03b
00000190: 08f9 c83d 6151 673e e972 1c3d 8da0 cabd
000001a0: efcb 2c3e b4ed 88bc 4bc3 fcbe a692 263e
000001b0: e27f 18be 3965 193e f661 293e 22e8 53be
000001c0: f387 753c 1f98 4cbf 48c1 e13c 3d7b e7bd
000001d0: 513d efbe 0939 893e ca61 d33e 8cd5 34bf
000001e0: ceff 013f d999 94bd 408c df3d 0a18 73be
000001f0: c839 e1bc 1d3a 96bd d8bd c4be a793 04bf
-0.27567995 -0.006776318 -0.05841076 -0.5759128 -0.05293168 0.62204856 -0.008559302 0.09985424
-0.08582054 0.19399753 0.10218909 0.025787314 0.33750367 0.13592328 0.3843022 0.329753
-0.40751913 -0.20600273 -0.23740119 -0.2768803 -0.10641673 0.039961874 -0.61397284 0.16314451
0.1059298 0.21682394 0.21794118 -0.1299336 -0.010889088 0.31835538 0.19832705 0.21294929
0.24998012 0.6248482 -0.089907326 0.23259622 -0.09688192 -0.020381363 -0.0716687 -0.006925301
0.32454363 0.049193867 -0.067277305 0.00045860294 -0.33465114 -0.38771564 -0.034823492 0.13749863
-0.3447447 -0.33432344 0.10774226 -0.14394248 -0.13150334 -0.45964035 0.21709824 -0.30122042
-0.22769612 0.01311394 -0.29849908 -0.3176326 -0.25492692 -0.286591 -0.39098376 -0.10452247
0.03005496 0.31376514 0.12343064 0.17283358 -0.27160496 -0.123469345 -0.06529349 0.17695086
-0.06424845 0.025001781 -0.1768266 -0.19857244 -0.031971816 -0.007925611 0.02916757 -0.11518985
0.3245934 0.07991653 -0.06553409 0.10953756 -0.17981148 0.086229645 0.029462088 -0.38007328
0.04765412 -0.18408322 -1.387486 -0.16797769 0.23114754 -0.098918065 -0.25369555 0.13927642
0.001694536 -0.19899517 -0.40828073 0.005372766 0.09813124 0.22589637 0.038195524 -0.09893904
0.1687467 -0.016714908 -0.49367747 0.1626688 -0.14892533 0.1498002 0.16541275 -0.2069402
0.014986026 -0.7991962 0.027557984 -0.11302803 -0.46726468 0.26801327 0.41285545 -0.70638347
0.5078095 -0.072559066 0.109154224 -0.23739639 -0.027493373 -0.07335303 -0.3842609 -0.517878

block1.2.bn3.weight f4 [16]
00000000: 0f6b 9a3e f2ce c03e a78b 9d3e 0090 423e
00000010: b0f3 ac3e 0fff a23e 4022 a93e d442 043f
00000020: e6b2 973e 4742 8d3d 5f68 213e fc17 863f
00000030: 7411 29be 88b3 c13e 576d 743f ac83 8d3e
0.30159804 0.37657887 0.3077061 0.19000244 0.3377967 0.3183522 0.33033943 0.5166447
0.29628676 0.06897407 0.1576247 1.047607 -0.16510564 0.37832284 0.9547934 0.2763952

block1.2.bn3.bias f4 [16]
00000000: ea82 cfbe 8b91 313e 04fb 963d 17dd 903d
00000010: 9e48 9a3e a490 2bbf eb84 0abe c805 353e
00000020: 89ff 363d 735d eb3d ec9b 8c3a 2e83 fcbd
00000030: 65be 8ebc 4c29 d63d 38d5 17be 8956 dbbd
-0.40529567 0.17340676 0.07372096 0.070734195 0.30133528 -0.6701758 -0.13527267 0.17677987
0.04467729 0.114924334 0.0010727621 -0.12329708 -0.017424772 0.104570955 -0.1482743 -0.10709865

block1.2.bn3.running_mean f4 [16]
00000000: ab37 b1bd d840 873e 444d a8be 664b 433e
00000010: 9c24 4e3e cf58 80bd 7344 87be b854 b0be
00000020: 9bff 9c3d c795 c4bd 9146 cd3c b5d8 86be
00000030: 0446 4ebd 77bb ccb9 7295 90be 8bfc 0bbe
-0.08653196 0.2641666 -0.3287145 0.19071731 0.20131153 -0.06266939 -0.2641941 -0.34439635
0.076659404 -0.0959888 0.025058063 -0.2633721 -0.05035974 -0.00039049584 -0.28239018 -0.13670556

block1.2.bn3.running_var f4 [16]
00000000: 5fc7 b03d c1ae d33d ab1d 2e3e 5670 c73d
00000010: b283 1b3e 8b41 363d 5c42 1b3e 35be f43d
00000020: 7963 f63d 3bef c53c 16d0 173d b690 853f
00000030: c076 093e bc45 d83d 8d72 1b3f 8326 0d3e
0.08631777 0.10336066 0.17003505 0.09738223 0.15186957 0.0444961 0.15162033 0.119503416
0.12030692 0.024161926 0.03706368 1.0434787 0.13424206 0.10560176 0.60721666 0.13784222

block1.3.conv1.weight f4 [8, 16, 1, 1]
00000000: dd8f b6be b690 8dbe 5c75 9fbe b885 c8be
00000010: d3be f43d 4a37 6cbe 3336 8abf 5321 89bd
00000020: 805e 30bb 4d59 99bd abf0 663d fb8b c3be
00000030: 8395 6bbe d37f ce3e fb94 b33e 3c46 89be
00000040: ce1e 663e 2410 1bbe 35b5 69bd 419b a83c
00000050: 72a8 6bbe cde4 173e d7bc 1cbe 77be fabd
00000060: b1f4 d3bd c633 713e 0688 1bbf bf5a 89be
00000070: cf2c dabe bbdb b03b a1ef 4a3f 0540 823e
00000080: d011 61bf 33c4 b2be d445 c3be a340 87be
00000090: 68f7 c4be 8596 0ebe 9707 5ebd c672 21be
000000a0: 839a 27bd a632 bebe 63f7 4dbe b632 6ebe
000000b0: fae8 1cbe 9805 0c3d c590 d2be af65 ee3d
000000c0: f023 88be 6d09 8f3e f6e4 2a3f c02e 5abe
000000d0: 118d d8be f766 0ebf d68f 2ebb f5a5 02bd
000000e0: aeda 61bd b99a 733e 7d48 02be f9e4 9f3b
000000f0: 3bd3 c03d 630b 91bc 1144 cfbe 8cb4 7c3c
00000100: 3a34 fb3d a134 c3be 2ac0 cfbe a32b febe
00000110: 8bfd c5be 1d45 57be b510 febc f97b 923e
00000120: 1de2 b73e 1995 eb3e f053 443d 1e6a 6a3c
00000130: 7b1c b4be d247 453d 2605 f8be 98e8 dbbe
00000140: 00d7 00be 0cad 783c 851f a2bc 863c 56bd
00000150: d1e5 e53a 646a 84be 785c ccbd c8a7 2a3e
00000160: bdd8 973d e4da ac3d 4ec9 423f 4e65 9fbe
00000170: 857d 773e 7ead 8abd 6d11 6abd 9a08 57be
00000180: 317f f1bc 7979 2f3f d65f d33d 547c 8f3e
00000190: 3ba5 253d 815a 5bbc 8aad c5bd 9ad9 c7bd
000001a0: a6d3 893e a613 29bd 96c9 1a3e 952b 4ebe
000001b0: 9d7c e3be 5e90 82bd d5d1 d03c 4899 a8be
000001c0: a6d9 b53e 29a0 ad3c 86c3 e0be c806 87be
000001d0: a599 55bd d107 b9bd cb8d 32be beac 8c3e
000001e0: 851f 16be 9838 07be 193b 253e 1fc1 76bd
000001f0: a806 e0be b761 26be a81c 39be 5c16 543f
-0.35656634 -0.27649468 -0.31144226 -0.3916452 0.11950459 -0.23067966 -1.079779 -0.06695809
-0.0026911795 -0.07487736 0.056381863 -0.38192734 -0.23006253 0.40331897 0.350746 -0.26811397
0.22472689 -0.15142876 -0.057057578 0.020581843 -0.23013476 0.14833374 -0.15306412 -0.122433595
-0.103494056 0.23554906 -0.6075443 -0.26827046 -0.4261231 0.0053972877 0.79271895 0.25439468
-0.87917805 -0.34915313 -0.38139212 -0.264165 -0.38470006 -0.13924606 -0.054206457 -0.15766439
-0.04091884 -0.37148017 -0.20113902 -0.23261532 -0.15323249 0.034185022 -0.41126075 0.11640488
-0.26589918 0.2793688 0.66755617 -0.21306896 -0.42295125 -0.5562586 -0.0026636026 -0.03189655
-0.05514019 0.23789491 -0.12722965 0.0048795906 0.09415289 -0.017705625 -0.40481618 0.015423905
0.12265821 -0.3812609 -0.40576297 -0.49642667 -0.3867 -0.21022458 -0.031013826 0.2861021
0.35914698 0.4601219 0.04793161 0.014307527 -0.3517798 0.048164196 -0.48441428 -0.42950892
-0.12582016 0.015177976 -0.01979042 -0.052303813 0.0017539804 -0.2586242 -0.099785745 0.16665566
0.074143864 0.084401876 0.76088417 -0.31131977 0.24168976 -0.06771372 -0.057145525 -0.20999375
-0.029479595 0.6854473 0.10321014 0.28024542 0.04044078 -0.013388277 -0.096522406 -0.09758301
0.26919287 -0.041278504 0.15115961 -0.20133813 -0.4443101 -0.06375192 0.02549068 -0.32929444
0.35517615 0.021194534 -0.43899173 -0.2637236 -0.05214848 -0.09034694 -0.17436902 0.27475542
-0.14660461 -0.13205183 0.16135825 -0.06024277 -0.43755078 -0.16248213 -0.18077338 0.8284662

block1.3.bn1.weight f4 [8]
00000000: b12f 213f c284 333f 8b5b 233f dc29 243f
00000010: 917d 093f f4eb 313f d74a 7a3f c9d2 e33e
0.62963396 0.7012445 0.6381156 0.6412637 0.53707224 0.6950066 0.97770447 0.44496754

block1.3.bn1.bias f4 [8]
00000000: 749e c83e 5390 50be ff35 623e 8fcc 4e3e
00000010: 1672 a73e d4ef 8bbe 68e8 1fbf d6e6 b83e
0.3918339 -0.20367555 0.2209091 0.2019522 0.32704228 -0.27331412 -0.62464 0.36113614
