assignment1/results/trial_2/resBottleneck/ckpts/38000.pt (torch, 562437 bytes, 242 tensors)

block1.0.conv1.weight f4 [8, 16, 1, 1]
00000000: e0c9 e03d e397 3cbd 0fb1 563d d453 cdbd
00000010: 26d4 803d 5e7b 313c 18b5 00be 6551 ac3b
00000020: 8e81 593e 30c4 183d f966 323d 7c3f a03e
00000030: 16b5 8c3e 5be8 a53e 38a9 1fbe b10b 643f
00000040: dcd1 4f3c 83c3 91be 37fa e43d eba4 05be
00000050: 3115 18bd 293a 163d 7640 05bf 2bb3 b7bb
00000060: 8167 bdbe a82e b43d 01a4 04bf bf89 38be
00000070: f801 a0be 3a21 663d 1de6 a33d c663 a2be
00000080: 54ce 45be 1214 28be 5d15 113c e8fb 20bf
00000090: 1574 1ebc aaef 65bd eb7e b13e d25f 1c3c
000000a0: ddc9 9d3d 598a 6e3d 2619 ddbf a6ee 463e
000000b0: 4b6f 023e abb5 de3a b718 4bbe 244e 58bd
000000c0: c7f5 7d3d 2cce b9be 9e07 62be bf04 123c
000000d0: e62b 0c3e c100 21bd b10b d0be edf2 f13d
000000e0: caf7 a0be f1a8 343d 2df2 133d 0864 28bf
000000f0: 72e7 d3be 061f 69bd 24b7 843e aa99 1bbf
00000100: ced6 a53c 2a03 41bf c146 033c 2570 0ebe
00000110: 59a4 56bd a789 efbd d2bc debe 1345 9dbd
00000120: 7232 9abe 53a4 eabc b32b 213e 9ad1 d83c
00000130: e939 c93d 5eaa 2abe c01c aabe 8d25 0abc
00000140: 7a05 073e 1497 693e 53f9 c9be 44d5 e0be
00000150: 9243 53bd d9d5 fb3c 8790 323e b26f 333d
00000160: d9f9 e93d 2987 6e3d 154e 53bf 4ed7 d4be
00000170: 7ad0 f0bc d733 393d 14f0 9cbe 278e 6e3c
00000180: ce89 1fbe 6171 2c3f 699c a23e 6fbc b9bd
00000190: 1e0a e53d e76d c03c 9afe fdbe abb1 403d
000001a0: cd29 fb3e 1609 87bd 6914 973e 38da 3cbe
000001b0: bac7 003d 06e3 cc3e 5ffc fd3e 2fa0 413d
000001c0: b96f 9abe 0925 3a3f b74b 2dbe b497 e9be
000001d0: 23ac b1bd 3a80 edbd aaa4 31be 8a5d ccbc
000001e0: 849a 043f 30a3 f03b f18e 903d cb38 9ebc
000001f0: 4117 d23e 60f9 8a3e 809c c3be 4867 023e
0.109760046 -0.046043288 0.05241495 -0.100257546 0.06290464 0.010832636 -0.12569082 0.0052587264
0.21240827 0.037296474 0.043555234 0.31298435 0.27481908 0.32403836 -0.15591896 0.8908034
0.012684312 -0.28469476 0.11180537 -0.13051192 -0.037129585 0.03667656 -0.52051485 -0.0056060753
-0.3699303 0.087979615 -0.5181275 -0.18021296 -0.31251502 0.05618403 0.08002875 -0.31716746
-0.19316989 -0.16413906 0.008855191 -0.6288438 -0.009671231 -0.056136765 0.34667143 0.00954433
0.07704518 0.058237407 -1.72733 0.19426975 0.12737767 0.0016991397 -0.19833647 -0.052808896
0.06200197 -0.3629011 -0.22073218 0.008912264 0.13688621 -0.03930736 -0.4063392 0.118139125
-0.31439048 0.044106428 0.03611963 -0.65777636 -0.41387516 -0.056914352 0.25920975 -0.6078135
0.020244028 -0.7539545 0.0080124745 -0.13909967 -0.052402828 -0.11696177 -0.43503433 -0.076791905
-0.30116612 -0.028642809 0.15739326 0.026467133 0.098254986 -0.16666552 -0.3322506 -0.008431804
0.13185683 0.22811538 -0.39448032 -0.4391271 -0.051578112 0.030741619 0.17437945 0.043807693
0.11424608 0.058234368 -0.8254102 -0.41570514 -0.029396284 0.045215454 -0.30651915 0.014560259
-0.15579912 0.673605 0.31759956 -0.09069144 0.1118357 0.023489906 -0.49608308 0.047044437
0.4905533 -0.0659353 0.2950776 -0.18442619 0.031440474 0.40016955 0.49606606 0.047271904
-0.30163363 0.7271276 -0.16923414 -0.45623553 -0.086754106 -0.11596723 -0.1734797 -0.024946947
0.5179827 0.007343672 0.07058514 -0.01931419 0.41033366 0.27143383 -0.38205338 0.12734711

block1.0.bn1.weight f4 [8]
00000000: a930 063f 7872 4a3f 9328 673f b946 273f
00000010: c595 b2be 6d84 763f 4267 4f3f 376f 1c3f
0.52418 0.79080915 0.90296286 0.6534229 -0.3487989 0.96295816 0.81016934 0.611072

block1.0.bn1.bias f4 [8]
00000000: 9b42 a0bd 42a7 96be ff88 343e 0ce7 3b3e
00000010: cdd3 113f 5f01 d3be a154 e2be 48f3 da3d
-0.07825204 -0.29424483 0.17630385 0.18349856 0.5696381 -0.41211984 -0.44205192 0.106909335

block1.0.bn1.running_mean f4 [8]
00000000: 6373 2c40 c105 32c0 7a75 41c0 a61e 64c0
00000010: e002 aebf 7d7e 18c0 902e 263f 341a 86bf
2.6945426 -2.7816012 -3.0227952 -3.5643706 -1.3594627 -2.3827202 0.649148 -1.0476747

block1.0.bn1.running_var f4 [8]
00000000: 9ee9 8040 ae80 1240 1f18 0e41 902c a140
00000010: 24ce 463f 8ff7 6d40 b16b 8e40 7cc9 1e40
4.0285177 2.289104 8.880889 5.0366898 0.77658296 3.7182348 4.450646 2.4810476

block1.0.conv2.weight f4 [8, 8, 3, 3]
00000000: 82b4 ce3c 7311 163e ccb7 3fbd d920 48bc
00000010: 2e07 aabd c8b5 52be 15c7 ad3b 55c2 d0bd
00000020: 9d03 2c3e fe14 c2bc a1cd 2b3e bf07 16be
00000030: b6f8 583e 8411 0b3f f90a 42be c8b3 c1bd
00000040: 04b3 363d 0d28 123d c080 943d cc57 efbd
00000050: b33f 2fbe 42fb bfbd ac92 0e3d de00 11be
00000060: cb24 b13c adb8 8abd bca0 a03d 6d4f 25be
00000070: 0734 2dbe 1ee3 88be 4236 083f 9562 733f
00000080: 0c34 823e 9dcf 0dbe fde9 023e ad51 4dbe
00000090: e8ad 14b9 d0a7 263e 237e 213d e7bf 483d
000000a0: db57 a7bd 643c 8bbc 0a12 97be 4e5f a1be
000000b0: 3794 64bd f85a a4bc 5b10 8fbe 05a6 943d
000000c0: 0d3e 47bc 0a3a 193e c63c 213e 4d73 f73b
000000d0: 5412 4d3e e1fd e8bd 9665 aabd 3146 ef3d
000000e0: dab4 00bd 278f 653d fb09 9e3e 390c 993d
000000f0: 806a d13d 94ea 8c3e f0ab 053e fe61 143d
00000100: 2126 d73d d828 8d3e 39d2 59be 3439 a3bd
00000110: cdd0 d83d 6a4c eebd e199 633b 5e0b 13bd
00000120: 50c2 14be e8c8 cf3d b907 4e3e 5d9b cabd
00000130: 1706 acbc f5a4 ab3d d6e7 323e 10e4 07be
00000140: 6d1f 1fbe 54a4 683d 9cb6 a93e f92a 003d
00000150: 9b58 74be d145 edbe 4280 acbd ebe4 5e3d
00000160: 7433 92bb 33e8 913d 7083 143d 305b 803e
00000170: ebd4 21bd 365b 5bbe 42ca 81bf 7bc7 f2bd
00000180: 380d 973e 2cc5 143f 50b5 2d3e d435 6abe
00000190: 9b13 b13d 32b3 2fbe 9abb 193e 41eb 14bc
000001a0: 8d78 403d 9d52 153e 9bd4 8a3e bb62 9b3d
000001b0: 0b79 2cbd 78f2 1c3e 1f9e c7bd 9427 b3bd
000001c0: 6b6e 423d 4824 a93d b865 183c 3455 e5bc
000001d0: 7378 753c e754 0d3e 24f2 663e ba09 c7bd
000001e0: 4b4b f2be 636a d0be 5253 9b3d 6ce3 773e
000001f0: c788 cd3d 6815 443e d9ec 5abd ce76 fc3d
00000200: 70b8 9dbd 0d04 f83b e15b fc3d 816c 00be
00000210: 6782 183e dbbf 443d e77b c0bd 705a b13c
00000220: b37d 1abd b348 a4be c341 c93d 7a00 173f
00000230: 251d 3f3e a0bc b93e adf9 8639 0a81 8ebc
00000240: 4e34 813d 5c15 473d 8a4f a03d 3c30 a93c
00000250: 8222 c23c 06c4 02bd c469 373b 29c7 973c
00000260: 5492 aabc 4bf6 563d 0230 0e3d f496 433d
00000270: 0dec b13c 54e9 833c ee39 cdb8 d8c6 c739
00000280: 5272 92bc a022 26bc e867 d13c fc4e d0bc
00000290: 2b83 4cbd 10c1 2d3c 21e2 40bd 373c e9bc
000002a0: 839e 14bd b28e bb3c b11d d6bb f6b4 a53c
000002b0: a689 7a3c e219 eabc bca9 f83c 8704 8a3d
000002c0: 41fe 833c feed 703d c39b e23d 1122 283c
000002d0: 5538 43bd bfb5 13bd 5093 f6bc b3f8 3f3c
000002e0: 2cbf b1bb c54e 52bd 4d5c 62bc ebf5 ae3c
000002f0: 5e0e 1dbd 0873 7a3d 2166 933c 9b2c 803c
00000300: d595 443d 66d2 813c 7a1a 0a3c ff40 403d
00000310: 7ad7 e13c 1c3a fdbb 46d1 643a 94ae 223c
00000320: eb9a b73c f9eb a339 3426 4e3d 84ad a13d
00000330: f62e b13c 1601 27bd 18d8 f0ba 71d0 163d
00000340: c274 18bd 5e7b 35bd af67 7a3d 2c51 e83b
00000350: f8b2 a0bc 39f0 053d 1e76 61b9 4780 7dbd
00000360: 50da 173e 44da 873c b976 0cbe ca8e 3c3e
00000370: 27f5 873e d1ab ba3d 0605 353d ccbd 1ebe
00000380: c83c d4bc ff50 3b3d ea17 ae3e 0e13 cc3a
00000390: fc54 273d 2c89 053e b74d 88be 2bc9 2cbd
000003a0: 22f9 3cbe 34a6 7ebe 8097 20be 7da9 083f
000003b0: 723b b93e 5e9f e9bd 3e99 2cbd b884 e43d
000003c0: c032 21be 2fb1 a03e 2ec4 e53d 3618 a63d
000003d0: 341d 783e becf 383e 55f5 05bd 9994 adbe
000003e0: 50b2 4abe 125d a03d 522a 9ebe 0d55 90bb
000003f0: 36a3 353e 97de 18bd 3000 4dbe ce9e 633d
0.025232557 0.14655094 -0.04680614 -0.012214863 -0.08302151 -0.20577157 0.0053032734 -0.10193316
0.16798253 -0.02369165 0.1677766 -0.14651392 0.21188626 0.543236 -0.18949498 -0.09458119
0.044604316 0.035682727 0.072511196 -0.11686668 -0.17114143 -0.093740955 0.034807846 -0.14160487
0.02162399 -0.06773505 0.07843158 -0.1614358 -0.16914378 -0.26735777 0.5320779 0.950723
0.25430334 -0.1384873 0.12784572 -0.20050688 -0.00014179165 0.16274953 0.039426934 0.049011137
-0.08171054 -0.01699657 -0.2950595 -0.31518024 -0.05580541 -0.020062909 -0.27942166 0.07258228
-0.01216079 0.14963546 0.1574584 0.0075515867 0.20026523 -0.113765486 -0.08320157 0.1168331
-0.031422473 0.056044724 0.3086699 0.074730344 0.102253914 0.2752272 0.1305387 0.036226265
0.105053194 0.27570224 -0.212716 -0.07969895 0.105867006 -0.116356686 0.003472917 -0.035899512
-0.1452725 0.10145742 0.20120133 -0.098929144 -0.020998998 0.083810724 0.17471251 -0.13270593
-0.15539332 0.05679734 0.33147132 0.031290982 -0.23861925 -0.46342328 -0.08422901 0.054417532
-0.0044617 0.071243666 0.03625816 0.2506957 -0.039509695 -0.21421513 -1.0139849 -0.11854454
0.29502273 0.5811336 0.16963696 -0.22872096 0.086463176 -0.17158201 0.1501297 -0.009089292
0.046989966 0.14582296 0.2711533 0.07587191 -0.042107623 0.1532687 -0.09746956 -0.08747783
0.047468584 0.08258873 0.009301595 -0.02799473 0.014982331 0.13801919 0.22553307 -0.09718652
-0.4732307 -0.40706167 0.075842515 0.24207848 0.10035854 0.19148791 -0.05344853 0.12327348
-0.07701194 0.0075688423 0.12322212 -0.12541391 0.14893495 0.04803453 -0.093986325 0.02164957
-0.037717532 -0.32086715 0.09826996 0.589851 0.18663462 0.36276722 0.00025744495 -0.017395515
0.063088045 0.048604354 0.07827671 0.020652883 0.023698095 -0.031925224 0.0027986625 0.018527584
-0.020821728 0.052480977 0.034713753 0.047751382 0.021719003 0.01610247 -9.785952e-05 0.00038104388
-0.017876778 -0.010140091 0.025562242 -0.025428288 -0.04992978 0.010605112 -0.047090653 -0.028471095
-0.03628398 0.02289519 -0.006534301 0.02022789 0.015291607 -0.028576795 0.030354373 0.06739145
0.016112449 0.058820717 0.110648654 0.010262028 -0.047661144 -0.036062 -0.030099541 0.011717009
-0.005424401 -0.05134465 -0.0138159515 0.021357497 -0.03834378 0.06114486 0.017993035 0.01564627
0.047994453 0.015847396 0.008429164 0.046936985 0.027568568 -0.0077278744 0.0008728694 0.009929318
0.022412738 0.00031265596 0.050329402 0.078944236 0.021628838 -0.04077252 -0.0018374948 0.03681988
-0.037220724 -0.044307105 0.061134037 0.0070897546 -0.019616589 0.032699797 -0.00021501674 -0.061889913
0.14829373 0.01658357 -0.13717164 0.18413845 0.26554224 0.09114803 0.044194244 -0.1550209
-0.025907889 0.04573154 0.3400262 0.0015569644 0.04085253 0.13040608 -0.26621792 -0.042184036
-0.18454412 -0.24868089 -0.15682793 0.5338362 0.36178166 -0.1140735 -0.04213833 0.111581266
-0.15742016 0.3138518 0.11219059 0.081100866 0.2422989 0.18047997 -0.03270467 -0.33902434
-0.19794583 0.07830252 -0.30891663 -0.00440467 0.17738041 -0.037321653 -0.20019603 0.05557137

block1.0.bn2.weight f4 [8]
00000000: def7 f73e bec3 133f c500 0d3c e137 313f
00000010: 9909 4f3c d89c 873f 659d fd3b 5735 c33e
0.48431295 0.57720554 0.0086061405 0.6922589 0.012636566 1.059474 0.00773971 0.38126633

block1.0.bn2.bias f4 [8]
00000000: 5e69 913d 299b 09bd b1f7 98bd d273 243f
00000010: d8c8 a0bd 5703 79bd 13dc 75bd 1c90 003f
0.07100175 -0.033595238 -0.074691184 0.6423923 -0.07850808 -0.0607942 -0.060024332 0.50219893

block1.0.bn2.running_mean f4 [8]
00000000: eda9 1b3e dedf a33e 5846 0b3d 3ae5 bc3f
00000010: 7820 c0bb 4e0f 013f 0182 333e 4ba1 1bbf
0.1520154 0.32006735 0.034002632 1.4757454 -0.0058632456 0.5041398 0.17530061 -0.6079299

block1.0.bn2.running_var f4 [8]
00000000: 165a 873e b30c c63e d472 703c d834 8d3f
00000010: 3d7f b73c 4cba 6c3f e7f1 143d 63e4 b03e
0.26435918 0.38681564 0.014675815 1.1031752 0.02239954 0.92471766 0.03636351 0.34549245

block1.0.conv3.weight f4 [16, 8, 1, 1]
00000000: a4b5 b9bd fe21 fdbd a2e3 d1bb 3622 963b
00000010: 11a0 213d dfcd a2be e075 2fbd 7001 473d
00000020: 0f8b b13e 099c 9d3e b577 483d 7186 b03e
00000030: 5073 04bc e5b2 883e 6849 563d 6028 9cbe
00000040: 7cd7 83be ab9b 07be 8c86 80bd 4ee1 0a3d
00000050: a731 9e3c bf6a 02bf 8861 fe3c 824f 10be
00000060: 8a29 8ebc 6565 a73d cf50 3bbb 1cdf 773e
00000070: a600 7a3c 8a37 a33e 7711 bf3c 757c dc3c
00000080: 8523 b63b bb7b 59bd e211 acbd ad43 223e
00000090: b25a 37bd 3eeb cebc d9fc a23b 17e8 a23c
000000a0: 1f3f 7ebd ae70 813d d98b 33bc 158f 0abe
000000b0: 353c 2b3c 63d3 ad3e 27bc 67bd 5d72 edbc
000000c0: 9859 98bd dc5b 28be c25e 573d a70b 6dbf
000000d0: 786b 143d 9554 b93b 8e2c 4a3d d51e aabe
000000e0: 0fd9 d1bd 27a6 dcbd fb1c 333c a9e0 90bd
000000f0: f647 0c3d f682 a33b c54a 50bd daa2 93bd
00000100: 7b48 da3d 7692 30bd 59ac 26bd 6f88 ea3c
00000110: 41be bc3c 44b3 ee3d c3ac 5abd f6f0 683d
00000120: 54a0 ad3e a032 bfbd 02ec 653d f4a7 8fbe
00000130: 9f61 d4bc a4d4 d7bd a07f bcbc 4ddf 8dbe
00000140: e719 efbd 410f 453f ed7f 793d cd2f 8abe
00000150: 3196 7a3d ff72 96bc b61a 48bd 8b69 143f
00000160: 2023 30be 14db 1dbe 5121 febc 3ea9 05be
00000170: 34ac 90bc c444 d7be fb1e efba 49ff b33e
00000180: f965 313d d116 263e 7ff0 babc b2b9 18be
00000190: 27c7 773a 1c9e 3cbf 207c 4f3b ce93 963e
000001a0: 80bc fc3e d469 64be 66f7 683d 1b76 d3be
000001b0: fed0 2e3d 218a afbc 6b2a 083d 15d4 b83e
000001c0: af7c 55be d163 613e 3d1d 543c f7c3 0dbf
000001d0: 3d42 0c3d e955 58be 5cdf d23c 4e9f f63d
000001e0: d22e acbe acbb 743d 3723 6bbb 07c0 37be
000001f0: 76d1 943d 4efa 6bbf 6cc4 733c c144 54ba
-0.09067848 -0.12359999 -0.00640531 0.004581715 0.03945929 -0.31797692 -0.042837024 0.048585355
0.34676406 0.30783108 0.048942287 0.3447757 -0.008084133 0.26698986 0.0523161 -0.30499554
-0.2575034 -0.13242976 -0.06275663 0.033906274 0.019310785 -0.5094413 0.031052366 -0.1409283
-0.017353792 0.08173636 -0.0028582101 0.24206203 0.015258944 0.3187831 0.023323758 0.026914814
0.0055584335 -0.053096514 -0.084018484 0.15846129 -0.04476423 -0.025258657 0.0049739894 0.01988606
-0.062071916 0.0632032 -0.010958635 -0.13531144 0.010451366 0.33950338 -0.05657592 -0.028985197
-0.07438964 -0.16441292 0.052580602 -0.92595905 0.036235303 0.005655835 0.049358897 -0.33226648
-0.10246479 -0.107738785 0.010932202 -0.070741005 0.034248315 0.004989977 -0.050852556 -0.07208796
0.10658356 -0.043108426 -0.040691707 0.02862951 0.023039939 0.11655286 -0.053387415 0.056870423
0.33911383 -0.09335828 0.056133278 -0.28057826 -0.025925456 -0.10538605 -0.023010075 -0.27709427
-0.11674862 0.769764 0.060913015 -0.26989594 0.06117839 -0.018365381 -0.0488536 0.57973546
-0.17200899 -0.15415603 -0.031021746 -0.13052842 -0.017660238 -0.42044652 -0.0018243486 0.35155705
0.04331014 0.16219641 -0.022819756 -0.14914587 0.0009451978 -0.73678756 0.0031659678 0.2940964
0.49362564 -0.22305995 0.056876563 -0.41301045 0.04267978 -0.02142817 0.033243578 0.36099306
-0.20848344 0.22010733 0.012946424 -0.55377144 0.034242857 -0.21126522 0.025741272 0.12042104
-0.3362947 0.05974929 -0.0035879144 -0.17944346 0.07266514 -0.9217881 0.014878374 -0.00080974033

block1.0.bn3.weight f4 [16]
00000000: 2cf0 ac3d caff 6e3f 0e73 553e 5ec5 bf3e
00000010: 1f48 8a3c a123 2cbe 675d 423f 1c22 b13c
00000020: e526 723d 8873 ad3e eea3 b63e 2dd7 543e
00000030: 6384 3c3f 63c2 313f 9c68 b43e be86 6a3f
0.08444247 0.93359053 0.20844671 0.37455267 0.016880093 -0.16810466 0.7592377 0.02162271
0.059119124 0.33877206 0.35671943 0.20785208 0.73639506 0.69437236 0.3523606 0.9161185

block1.0.bn3.bias f4 [16]
00000000: 52d9 be3c 7124 f4be e458 423d 84fb 183e
00000010: 5ea3 dabd d6d5 0e3d 9d18 013f 4ef9 81bd
00000020: d453 12bf 7137 453e 4b21 5b3e f92e cabb
00000030: 148c c03d a962 883e 0001 a33e d755 e4bd
0.023296986 -0.47684053 0.047448054 0.14939696 -0.10675691 0.0348719 0.5042818 -0.06346379
-0.5715916 0.1925943 0.21399419 -0.0061701504 0.09401718 0.26637772 0.318367 -0.11149185

block1.0.bn3.running_mean f4 [16]
00000000: e8c2 fcbd a0f5 9a3e 238a 9dbe 8a15 963e
00000010: 225e c83d 06c3 0c3c e6c7 57bf e8b4 05be
00000020: 9d2e d23d 41bc 9dbe 0768 873e 4a9c e2bd
00000030: 28b8 14be c605 aabc ff68 c1be 0b96 f4be
-0.12341863 0.30265522 -0.30769452 0.29313308 0.097835794 0.008591419 -0.84289396 -0.13057292
0.10262797 -0.3080769 0.26446554 -0.11064966 -0.14523375 -0.020754706 -0.37775418 -0.47770724

block1.0.bn3.running_var f4 [16]
00000000: 16f7 af3d 9672 8e3e 72f7 413e f385 2a3e
00000010: 94ba d83b 423d 803d 37fc b73e 68cd a53b
00000020: b636 483c f0f9 973d f5d3 e93d b113 783e
00000030: a7a5 023f 1607 243e 13ec 7e3e 41cb 433f
0.0859205 0.27821797 0.18942049 0.1665266 0.0066140387 0.06261684 0.35934612 0.0050598867
0.012220075 0.07420719 0.11417381 0.24226262 0.51034015 0.16018328 0.24894743 0.76482016

block1.1.conv1.weight f4 [8, 16, 1, 1]
00000000: c534 943d 2c1d b53d 4538 a03a 04c7 1abd
00000010: 8703 e53d 5189 ed3d 5606 0b3e 7662 8dbc
00000020: 2f32 a13c 9dcd 20bd 5a05 48be bc04 f2bd
00000030: e66f 2bbb 81c7 a0bd f7c0 bc3d 4161 1e3d
00000040: 21d7 00bf 8e83 a03c 34f9 fdbc 5513 a5bd
00000050: 6dff 51bc 2468 0740 48fd 533d f529 033b
00000060: 48f0 c93c 80a0 c43d 132d 58be 8d11 9d3c
00000070: 4d6d a9bd 944e 47bc d78a c3be 4f9b 233d
00000080: 220e 383e a965 e43e 131b 533e f723 3e3e
00000090: d0e2 793d aa00 383f 9e87 aabe 84e9 06bd
000000a0: 8c93 fa3d 9894 d93d 2d12 a8be 80a4 93bd
000000b0: f567 9abd a20b 9abd b0a9 203e 30f4 113b
000000c0: d906 71be f081 7cbe 2bad a03e e200 babe
000000d0: f1f7 70bd 2f58 babf 1aad b9bc fdb1 d2bc
000000e0: c948 61bd ef4e 4dbc 129f ac3d be34 ca3d
000000f0: c25c b8bd 5ef0 b1bd 3dae 55be 0ac3 d13e
00000100: eb44 9a3f 4d9a bf3c eb20 f2bd e875 023c
00000110: 3aee 7ebd b8eb a7be b6e2 b33e 1568 5bbb
00000120: 2f98 263e 43fa 013d cfdc 7bbe 51ca 733c
00000130: e8af dfbd 8c56 0f3e 5ae3 f3bd c8ca 64be
00000140: 6eb1 8fbb d707 b53d 2175 8f3d 3135 57bd
00000150: cce5 733d 55e2 9fbd b2b9 023e 400c de3d
00000160: 4f87 053d fa7d c73c 3efa 223d 2b53 00be
00000170: f3ed 47bd 8722 df3d efaa f13c 1cb7 713d
00000180: 4597 de3c 64a7 083f 3f35 e7bd 1be9 ec3e
00000190: 286e 8f3d 773d 623e 53be 033e f83d dfbb
000001a0: ac3c cc3d 2c02 cc3d 587d 2f3f 969f ccbd
000001b0: be45 1abd c825 cf3d cb96 f6bd 3090 98bd
000001c0: 1cc2 f7bf ec15 85be 805a 7cbd e740 e5bd
000001d0: caf5 e7bc 9ad0 91bf dee5 b9bd a1b6 55bd
000001e0: 9413 32be 8e94 7a3e a060 edbd 411b 203e
000001f0: 9a35 5cbd e19b 873d dcc3 16bd 7b9b 27bd
0.072366275 0.08843455 0.0012223801 -0.037787452 0.111823134 0.11598457 0.13576636 -0.017258864
0.01967725 -0.039258588 -0.19533291 -0.11817309 -0.0026159226 -0.07850552 0.092164926 0.038666967
-0.5032826 0.01959398 -0.031002618 -0.08060328 -0.012817246 2.1157312 0.05175522 0.0020014022
0.024650708 0.096009254 -0.21110944 0.019173408 -0.082728006 -0.012164731 -0.38191864 0.039943036
0.17974141 0.4460881 0.20615797 0.18568407 0.06100732 0.71876013 -0.33306593 -0.03293754
0.122351736 0.10624045 -0.32826367 -0.0720911 -0.075393595 -0.0752175 0.1568973 0.0022270791
-0.23537768 -0.24658942 0.31382117 -0.363288 -0.058830205 -1.4558161 -0.02266555 -0.025719637
-0.055001054 -0.012531026 0.08428778 0.09873341 -0.09002067 -0.086884245 -0.20867248 0.40969115
1.2052282 0.023389006 -0.11822685 0.007962681 -0.06223891 -0.32797027 0.35133904 -0.0033478786
0.16268991 0.03173281 -0.2459595 0.014879779 -0.10922223 0.13997859 -0.11908598 -0.2234298
-0.004385165 0.08839386 0.070047624 -0.05254096 0.059545323 -0.07806841 0.1276615 0.1084218
0.032599743 0.024352062 0.03978943 -0.12531726 -0.04881091 0.108952574 0.029500453 0.059012517
0.02717174 0.5338042 -0.11289453 0.46271595 0.070034325 0.2209376 0.12865572 -0.006812807
0.0997251 0.09961352 0.68550634 -0.09991376 -0.037664168 0.10114628 -0.1204048 -0.074493766
-1.9356112 -0.25993288 -0.061609745 -0.1119402 -0.028315444 -1.1391785 -0.09077047 -0.05217612
-0.17390281 0.24470732 -0.115906954 0.15635397 -0.053762056 0.066215284 -0.03680788 -0.040919762

block1.1.bn1.weight f4 [8]
00000000: 0f2a 323c 6f34 383f 852d 473f dda7 083f
00000010: 355e ea3e 2792 0d3b 588f 723f 0e08 503f
0.010874285 0.7195501 0.7780383 0.5338114 0.45775 0.0021602006 0.94749975 0.8126229

block1.1.bn1.bias f4 [8]
00000000: 6d4d 5bbd 4b68 853f a36c b2be 9d84 cd3e
00000010: e92d 523f 5d8c 3ebc 5686 2ebf c9a7 af3e
-0.053540636 1.0422453 -0.34848508 0.40140238 0.82101303 -0.011630145 -0.6817373 0.34307697

block1.1.bn1.running_mean f4 [8]
00000000: aa6d d23e 5061 0040 cda6 d93f 2dca 5ec0
00000010: 1363 1c40 12e8 2b3e 62df 0340 33c4 0ec1
0.41099292 2.0059395 1.7004029 -3.4810898 2.443547 0.16787747 2.0605092 -8.9229

block1.1.bn1.running_var f4 [8]
00000000: 20a9 493e ebd3 0c41 62b3 e33f 65fc 6a40
00000010: 300e 5e40 41bf a93d 56ec 0a40 6a37 a540
0.19693422 8.801738 1.7789118 3.671655 3.469616 0.08288432 2.1706748 5.1630144

block1.1.conv2.weight f4 [8, 8, 3, 3]
00000000: 9287 9abd 45d5 2ebd 2ad1 5ebd 23af 2c3b
00000010: 905b 8cbb 1f89 4fbd 5490 853c 456d f3bc
00000020: 248c 29bd 195c 07be fdfb 2abe 73fb 303c
00000030: e833 b23e e930 043e 33c2 44bd 7fcb 8dbd
00000040: b8bd 053e 64aa a33c c25b 4c3e dfb5 353e
00000050: ebd5 013e 85b6 8e3d 390a 44be 7188 53be
00000060: dce5 6fbe 91a5 8dbe 4218 6fbe 95c6 0bbd
00000070: 4076 8b3b 5346 eebc 843e 4dbc 4be4 b03e
00000080: b962 61bc 2758 f6bc a3ad aebd 0495 813c
00000090: c963 8ebd 4159 9fbe 0f41 483e 2f5e d8bd
000000a0: c368 3cbf acab b83e cea2 b13e 5a4f 8c3e
000000b0: 802c b93e 1cb6 04bd 0142 36bd 9eae 5d3b
000000c0: 3034 533b 8c23 f0bb 297c 123c 6802 453a
000000d0: 8947 38bd 745c 0ebc 795c 5b3d a1aa 933d
000000e0: 69bf b4bd fcb8 003f 3baf 333f c667 be3e
000000f0: 7b85 34bd b64b 8f3d b148 78bc c86a 21be
00000100: 7ee9 513f a150 30bf aeea d23e bf8e ee3f
00000110: ecd7 9cbe ae9b e7be d617 93bf 1661 8dbd
00000120: 0a0a 3cbd 335e 2abd a561 0d3c 3f3e 0abc
00000130: e6ed 27bd ba02 0cbd 1dda 82bb 3d0f 9dbc
00000140: 5b55 d9bb 7a1d e1bc a27b e8bc a3b3 fcbc
00000150: 1985 29bc 2015 44bc ec11 a5bc 38f3 9dbb
00000160: bca6 a03b 0660 a13b fcf4 40bd 5a86 39bd
00000170: 266c b5bc 0255 94bc 3eec 27bd 0f44 3ebd
00000180: ba93 c03c 4f15 fd3b 632f a73b 2055 bd3c
00000190: 19c7 c8bb 3304 54ba d2ed 3f3d 08f9 b53c
000001a0: ab9f 953c ede9 da3c 060e 893c 3bd4 c33c
000001b0: e29b 93bb 58c1 643b f36b f2bc 2d1a 62bd
000001c0: 3703 dfbc c1e6 08bd 05af 07bc b600 283d
000001d0: f326 953d 8a71 57bc dc0c 0cbd 0cf3 b2b9
000001e0: 2d00 4abd 37b4 25bd 5c98 02bc 0d76 e2bc
000001f0: 7499 23bd 4975 8ebc 8f43 0cbd 7a5f bdbc
00000200: 02c4 aebb b913 f8bc e613 68bd 9b18 75bc
00000210: c95a 8bbc c681 e4bc a29c 213d c047 573c
00000220: f867 3b3d 8cb5 fd3c 1aaa 433d a779 173d
00000230: 93f2 8838 ea23 dc3c 147d d33c 0f65 543c
00000240: 301a 92bc 4dab 2c3b dc63 8bbb cd36 84bd
00000250: 7bd6 efbc 5a40 c6bc 32e4 33bd 62e9 67bd
00000260: 7e32 acbc c6f6 bfbd f6e7 3f3f 2fad 843e
00000270: 85c9 98bd aab6 d7bf 9a9e c0bd d1c4 fe3e
00000280: 7726 86be b400 c23d 022c 09be 4bd7 99bb
00000290: b2f6 e4bd a4fd 28be 7a15 fcbe b5e1 e4bd
000002a0: cc03 8ebe 27bc abbd 735b 533d 573e a33c
000002b0: 30ae 21be b26c 8ebe 9b2b 28be f20a 523f
000002c0: dd00 2dbe b3fb 8fbe b1e2 c03e 3996 ed3d
000002d0: b33b 6d3d 54cb 12bf f85e 893c f224 99bd
000002e0: 49f8 913e ef33 193e e5ee 9abe 2edc 2d3e
000002f0: 1c98 49be a125 df3c 40f1 dbba 1576 5dba
00000300: 4272 703d 1b24 a9bb c651 2fbb 21ce 3f3c
00000310: c9b2 7bbc 3ddc 6e3c 163f e6bd 9916 0cbe
00000320: 54f7 13be d17f a1be 0613 bfbe 1095 bbbe
00000330: ba26 61be 1d16 ebbd f67f 09be d01b cabe
00000340: 4f45 7c3e ac5b d2be d9cf 15be 85a4 883f
00000350: 4bee 0d3e ee79 d4bd e38f 02be 11cd 66be
00000360: b686 8cbc 1215 ec3c 2f56 313c 8519 beb9
00000370: 77eb 80bb 87b6 ccbc 6d0d 68bb 4b2c cab9
00000380: c816 253d 26c2 713d 3b23 86be 7b0d 06bf
00000390: c215 f23d 0cd3 803f 9d65 29be 5543 bbbe
000003a0: 5284 81bd ee36 ffbd 7de4 18be 2e8d f5bd
000003b0: d860 8e3d fa29 52be 4e93 a0bd 48f3 61be
000003c0: 0f2a 52bd b930 3dbe c614 8c3d 2f6e a339
000003d0: 3aea 4abe 957a 08bd 51ea 4fbe d84a 0bbf
000003e0: 78ac 54bd ee42 8cbb 94f3 26be cf1a 243e
000003f0: af53 da3d e3a4 ec3e 0558 103f 1d42 b63d
-0.07545389 -0.04268386 -0.054398693 0.0026349507 -0.004283376 -0.05066788 0.016304173 -0.02971519
-0.041393414 -0.13218726 -0.16697688 0.010802138 0.34805226 0.12909283 -0.048036765 -0.069235794
0.13060653 0.01997871 0.19956878 0.1774516 0.1267926 0.069684066 -0.19144525 -0.20657517
-0.23427528 -0.2766538 -0.23349097 -0.03412493 0.00425604 -0.029086268 -0.012527112 0.34549174
-0.0137564475 -0.030071331 -0.08529212 0.015818126 -0.06952626 -0.31122783 0.19556068 -0.10564839
-0.73597354 0.36068475 0.34694523 0.2740429 0.36166763 -0.032400236 -0.04449654 0.0033826004
0.003222715 -0.0073284563 0.008940735 0.0007515312 -0.044990096 -0.008689035 0.053554986 0.07210279
-0.08825571 0.50282264 0.70189255 0.37188548 -0.04407261 0.069968626 -0.01515405 -0.1576339
0.81996906 -0.6887303 0.4119467 1.8637313 -0.30633485 -0.45235962 -1.1491649 -0.06903283
-0.04590801 -0.04159374 0.008629237 -0.008437692 -0.040998362 -0.034182288 -0.0039932863 -0.019172305
-0.0066324896 -0.027479876 -0.028379265 -0.030847376 -0.010346674 -0.011967927 -0.020150147 -0.0048202537
0.004902689 0.004924777 -0.047108635 -0.045294143 -0.022146296 -0.018106941 -0.040996782 -0.046451624
0.023507942 0.0077234874 0.0051020845 0.02311188 -0.00612725 -0.0008087784 0.046857662 0.022213474
0.018264612 0.026722873 0.01673032 0.02390491 -0.0045046667 0.003490528 -0.02959249 -0.055200744
-0.027223213 -0.03342319 -0.008281474 0.041016303 0.072828196 -0.013149628 -0.03419195 -0.0003413189
-0.049316574 -0.04045507 -0.007970896 -0.027644182 -0.039941266 -0.01738991 -0.034244116 -0.023116816
-0.0053334245 -0.030282842 -0.0566596 -0.01495948 -0.017011063 -0.027893912 0.039456017 0.013139665
0.04575345 0.030970357 0.047769643 0.03698125 6.530168e-05 0.026872594 0.025816478 0.012963547
-0.017834753 0.002634722 -0.0042538475 -0.06455765 -0.029277077 -0.024200607 -0.043918796 -0.056619056
-0.02102017 -0.0937324 0.7496332 0.2591338 -0.07460312 -1.685262 -0.09405251 0.49759534
-0.2620122 0.0947279 -0.13395694 -0.0046948544 -0.11179866 -0.16503006 -0.49235135 -0.11175863
-0.27737272 -0.083854966 0.051600885 0.019927187 -0.15789104 -0.27817303 -0.16422884 0.8204795
-0.1689486 -0.2812172 0.37672952 0.11600918 0.05791826 -0.57341504 0.016768917 -0.0747775
0.2850974 0.14961217 -0.30260387 0.16978523 -0.19686931 0.027239623 -0.0016780272 -0.00084480766
0.058702715 -0.005161775 -0.0026751622 0.01170686 -0.01536245 0.014578876 -0.112425014 -0.13680495
-0.14449817 -0.3154283 -0.373192 -0.36637163 -0.2198743 -0.11478827 -0.1342772 -0.39474344
0.24635814 -0.41085565 -0.14630069 1.0675207 0.13860433 -0.10374819 -0.12750201 -0.22539164
-0.017154079 0.02881864 0.01082377 -0.00036258638 -0.0039343196 -0.02498938 -0.0035408393 -0.00038561443
0.04030493 0.059023045 -0.26198754 -0.5236432 0.11820556 1.0064406 -0.16542669 -0.36574808
-0.06324066 -0.12461649 -0.14930911 -0.119898185 0.06952065 -0.20523825 -0.07840596 -0.2206546
-0.05130964 -0.18475617 0.068399 0.00031171876 -0.19815913 -0.03332003 -0.20304228 -0.5441108
-0.05192229 -0.0042804396 -0.16303855 0.16025852 0.10660493 0.4621955 0.5638431 0.08899329

block1.1.bn2.weight f4 [8]
00000000: fd0d 393f 4158 3f3a aca6 183f 4d8f f83e
00000010: 5afe 38bf ffb8 8e3c 0331 573f 689e 143f
0.7228697 0.00072992226 0.5962932 0.4854683 -0.7226311 0.017422197 0.8405916 0.5805421

block1.1.bn2.bias f4 [8]
00000000: 0249 4e3f a7e2 37bc 03c2 533f 3172 073f
00000010: 29ab 17bd ceeb 5bbd f06f 3dbe b223 393f
0.8058015 -0.011223472 0.82717913 0.5290862 -0.037028465 -0.053691678 -0.18499732 0.7232009

block1.1.bn2.running_mean f4 [8]
00000000: f462 643f 006c debc e703 a7bf 2d54 28bf
00000010: a4b1 07bf d914 39be 3a24 4dbe a604 05bf
0.8921349 -0.027151108 -1.3048066 -0.6575344 -0.53005433 -0.18074359 -0.2003335 -0.5196022

block1.1.bn2.running_var f4 [8]
00000000: d253 bc3f 13b6 7b3d 64f8 ea3f b8f8 6c3f
00000010: d622 dc3f f99e 6c3e 71a9 a33f 9072 f73f
1.471308 0.061452936 1.8357053 0.92567015 1.7198131 0.23107518 1.2786084 1.9331837

block1.1.conv3.weight f4 [16, 8, 1, 1]
00000000: b884 e5be 6520 83ba 7b43 2e3d 057f 73bf
00000010: d85e 7dbe 6dc9 053c 2a1d 8b3e 77b8 203e
00000020: 86af efbb 4155 eabb cff9 e4be 6649 98bd
00000030: 7ed4 0a3d db61 0abd 26c5 babc c78a 88be
00000040: 2388 f7be 14ee aa3d f58f 3d3b 0f38 ee3d
00000050: 8d31 9b3c 36ab a9bc 6f72 cf3e 7b59 473e
00000060: 24f1 d43e cefc 0f3d a55d 4fbe 042e 86bd
00000070: 43d5 b7bd 6e29 a23c d2c2 71be 5fb7 723d
00000080: a0f4 a83b 2e2b 843d 1795 1dbf d510 a03e
00000090: 8f3e 703d 26d9 d6bc 39c8 5fbe 246d 833f
000000a0: 9aec 503b 15ab 803d 5928 d6be efc7 ec3e
000000b0: c8ae e7be 1f1d 85bd 9428 98bd 6c99 52be
000000c0: f840 dcbe ed41 21bd e48a f63e 8d05 87be
000000d0: b107 21bd 72fe 5dbd 057f e53d a33f c73e
000000e0: 57ac 4abf bc82 09bb a222 e33e 71c2 423e
000000f0: 5507 3cbe 89dd 1dbc 0d40 d7bc d316 223e
00000100: 4971 393f 54cd 103d 46e7 303f 89b9 e9be
00000110: df80 bdbd ea34 3e3d 814d 633d b8ad e33e
00000120: a5db cabb 3505 cb3c b1fd 033f ae65 5ebd
00000130: 6083 15bf cbb5 0b3d 48e5 153f ee57 4cbf
00000140: 953c 24bf 9618 163d 81e0 063f 9e43 c13d
00000150: a119 a9be 1f66 90bd 2c3f 85bd 6faa 203d
00000160: 66b3 dbbe 6d45 25bd f85d 253e d431 103e
00000170: 391f a5be 8027 1b3d 8956 803e cf57 553c
00000180: 8a67 8b3e 55e5 28bb d40e 67bd ba83 d13d
00000190: 33ee 393e 2e07 103b 2f68 b0bd 617c a2bb
000001a0: dbfb 9ebd 3c14 e6bc 581e c53e 8126 083e
000001b0: 37ec 393e 0a25 20bd 24cf 65bf b8e2 2cbe
000001c0: cc12 de3e e24d 1fbd 3fbd 1c3d 7532 dbbc
000001d0: e69c 1d3e c332 e33c da7c cdbe a256 e1be
000001e0: d312 bebe 6e23 243d 786d 263d 2a37 453e
000001f0: 81ea b8be 1431 b5bd e21f 263e 11d4 40be
-0.4482782 -0.0010004161 0.042544823 -0.9511569 -0.24743211 0.008165699 0.27170688 0.15695368
-0.007314625 -0.0071512763 -0.4472184 -0.07435875 0.033894055 -0.03378473 -0.022799086 -0.2666838
-0.48346052 0.08346191 0.0028924916 0.11631786 0.018944526 -0.020711523 0.40516993 0.19467728
0.41590226 0.035153203 -0.20250566 -0.065517455 -0.08976223 0.019795146 -0.23609474 0.059256908
0.0051561147 0.06453548 -0.6155562 0.31262842 0.05865341 -0.026226591 -0.21853723 1.0267682
0.0031879307 0.06282631 -0.41827658 0.46246287 -0.45250535 -0.06499695 -0.07429615 -0.20566338
-0.43018317 -0.039369512 0.4815284 -0.26371422 -0.039313976 -0.054197736 0.11205868 0.38915738
-0.7916922 -0.0020982465 0.4436236 0.19019486 -0.18362172 -0.009635338 -0.026275659 0.15829019
0.72438484 0.035352066 0.69102895 -0.45649365 -0.09253096 0.04643718 0.055493835 0.44468474
-0.0061907344 0.024782756 0.5155898 -0.054296188 -0.5840359 0.03410892 0.5855298 -0.7982167
-0.6415494 0.03664454 0.52686316 0.09436725 -0.33027366 -0.07050728 -0.0650619 0.03922504
-0.42910308 -0.040349413 0.16149127 0.14081508 -0.32250383 0.037879467 0.2506602 0.0130214235
0.27227432 -0.0025771458 -0.056410626 0.10230203 0.18157272 0.0021976936 -0.086136214 -0.004958675
-0.07762881 -0.02808582 0.38499713 0.13295938 0.18156515 -0.039097823 -0.89769197 -0.16883361
0.43373716 -0.038892634 0.038266417 -0.026757458 0.15391883 0.027734166 -0.40134317 -0.44011408
-0.37123737 0.04007285 0.04063174 0.19259325 -0.36116412 -0.088472515 0.162231 -0.18830897

block1.1.bn3.weight f4 [16]
00000000: 4a3e ec3e a376 ac3e a4fc 123e 1836 49be
00000010: 42c2 983f 202b fc3e 6733 923e ea1d 993f
00000020: f75c bc3f a2b1 953f 9604 d53e ef3f 553d
00000030: de39 963c 7736 093f b0da 203e ef62 f83d
0.46141273 0.33684263 0.14354187 -0.19649541 1.1934283 0.49251652 0.28554842 1.1962254
1.4715871 1.1694834 0.4160506 0.052062925 0.01833814 0.5359873 0.15708423 0.12128245

block1.1.bn3.bias f4 [16]
00000000: 7138 12be f001 e4be b193 b33d 47a9 a4bd
00000010: be4f a53c c333 3bbf bf7c d6bc 00bc 0b3e
00000020: a600 47bd 3c0a 903d 1249 033d 60c1 6cbd
00000030: 09b2 6f39 f3fa a63e 3af6 a23d 25f2 153c
-0.14279343 -0.44532728 0.08768404 -0.080400996 0.020179626 -0.7312586 -0.02618253 0.13645935
-0.048584603 0.07033202 0.032052107 -0.057801604 0.0002285914 0.32613334 0.0795712 0.00915197

block1.1.bn3.running_mean f4 [16]
00000000: 2707 45bf 2154 23bf d131 d4bd e1c6 dc3d
00000010: 7595 cf3e 8ffd c3be 3a20 673e 24e9 a3bd
00000020: 44fe a13f 4cac 69be 5158 98bd 9019 1fbe
00000030: 06f0 843e 948f d03d b101 5d3b 8170 b9be
-0.7696404 -0.63800246 -0.10361064 0.10780121 0.40543714 -0.38279387 0.22570887 -0.080034524
1.2655721 -0.22819632 -0.0743872 -0.15537095 0.25964373 0.10183635 0.0033722932 -0.36218646

block1.1.bn3.running_var f4 [16]
00000000: f395 543e 56a6 8c3d 6c05 273e a7a6 d53d
00000010: 8e58 b63e 1245 af3d d3f4 443e 2c09 e93e
00000020: 7c4b e33e 864a b53e b1a4 c33e 92c5 403e
00000030: 41d5 623d 1259 283e 555a 403e cdaf 1a3e
0.20760326 0.068676636 0.16310662 0.10432177 0.35614437 0.08558096 0.19234018 0.4551481
0.44393528 0.3540842 0.38211587 0.18825367 0.055379156 0.16440228 0.18784459 0.15106125

block1.2.conv1.weight f4 [8, 16, 1, 1]
00000000: 6f2d 803e 35c6 ae3e fb8c 8a3e 67a3 1a3e
00000010: 4fb8 5f3d 9fa1 a4bd 47ca bdbe 51c3 253e
00000020: 8b69 58bc e3cb e63d 237c 4abe 4ab0 743f
00000030: ae03 333e 8924 d6be 6fe7 c63e c576 01be
00000040: 942c ab3e 19a2 01bd a9ba 4bbd 2062 37be
00000050: 2f78 be3d 0e1c f0bd 7ae8 ed3d e55b bf3c
00000060: 025f 593e fe27 933e fae8 66bd 4c00 24be
00000070: 9ed6 0ebe 3edb 3e3e 13b3 e8bc 0d9d 6ebd
00000080: 15e7 12bc d200 8e3e 949c 79be b234 213d
00000090: 2a43 cf3d d197 48bd 330b f23c fe82 02be
000000a0: 0c65 e1bb 20e9 e23b 86f7 91be 254e 75be
000000b0: d9d9 34bd cd66 3bbd 52ac 653f e1ac 843d
000000c0: 744d 843f 0036 46be 1fd0 4d3e d8c7 f53d
000000d0: 510b 2fbd 831a 25bf 0dc0 6cbd 2cbf 8e3e
000000e0: 9c75 bdbe 3d75 30be 1fb5 0a3e 8d29 6a3d
000000f0: ae03 863e f816 ca3c 2d68 4abe 9e44 423d
00000100: 9cae 37bd 59df ac3d b91a 98be fcf5 75be
00000110: 2fe2 8f3d 2115 593d 36c7 bdbe fc60 dfbd
00000120: 1390 26be 23da 013e 1589 063f 9a25 c63e
00000130: ae4c 0cbe 8bea 493d ddac 51be b882 83bd
00000140: f697 863d f58e 45be 482a 91be fee9 0ebd
00000150: 8360 31bf 0924 4c3e 7730 9b3e 37c1 593e
00000160: 01a5 76be a73d d3bd d9e2 c0be c89a 3e3e
00000170: ceaf 81be edf7 0e3f 81ff 0bbf 3038 103e
00000180: 4190 fbbe fb22 ac3d 034a afbe 17f3 ef3e
00000190: b69e a23e 0dbe 373e 86d4 b83e f8df d4bd
000001a0: 9d7f ecbd c290 4abe 2f64 133e dd87 5abe
000001b0: a445 0fbe eb51 983d 33bd 2f3d c64c 52be
000001c0: d370 55bf ac0c e2be 111f a83d 66f3 05be
000001d0: fe30 bebe 7455 1d3e b296 5ebe 216c 9cbd
000001e0: c9f1 b43e ee0b a6be a432 90be 1e8a e33e
000001f0: dc5d 883e 9e40 69be 6dcf f3be 77de b3bd
0.25034663 0.34135595 0.27060685 0.15101396 0.05461913 -0.08038639 -0.37068388 0.16187789
-0.013208757 0.11269357 -0.19773917 0.95581496 0.17481872 -0.4182475 0.38848445 -0.12642963
0.33432448 -0.03164873 -0.04973856 -0.17908525 0.09300267 -0.11724101 0.11616607 0.023359248
0.21227649 0.2874145 -0.056374528 -0.16015738 -0.13949057 0.18638322 -0.028405702 -0.058255244
-0.008966227 0.27735 -0.24376136 0.039356895 0.101202324 -0.04897291 0.029546356 -0.12745282
-0.006878501 0.0069247633 -0.28509158 -0.23955591 -0.04415307 -0.045752335 0.89716065 0.064782865
1.0336137 -0.19356537 0.20098923 0.12001008 -0.0427354 -0.6449358 -0.05780034 0.27880228
-0.3700379 -0.17232223 0.13545655 0.057168532 0.26174682 0.024669155 -0.19766302 0.04742872
-0.044844255 0.08441038 -0.29707888 -0.24019617 0.07025563 0.052998666 -0.37066048 -0.1090717
-0.16265897 0.12680869 0.5255292 0.38700563 -0.13701126 0.049295943 -0.20476098 -0.06421417
0.06571953 -0.19292815 -0.2835257 -0.03489112 -0.6928789 0.19935621 0.30310413 0.21265112
-0.24086381 -0.103144936 -0.3767307 0.18613732 -0.2532944 0.55847055 -0.54686743 0.14083934
-0.49133494 0.084051095 -0.34236154 0.4686515 0.31761712 0.17943592 0.36099643 -0.10394281
-0.11547778 -0.19781783 0.14393686 -0.2134089 -0.1399141 0.074374996 0.042905044 -0.20537099
-0.8337528 -0.44150293 0.082090504 -0.1308113 -0.37146753 0.15364629 -0.21737173 -0.076378115
0.35340717 -0.32430977 -0.28163636 0.44441313 0.2663411 -0.22778556 -0.4761919 -0.08782666

block1.2.bn1.weight f4 [8]
00000000: 4e4b 313f 5f39 f53e aefe 2f3f f1f0 063f
00000010: 17ce 183f e91e 1e3f cf0d 353f 102d 363f
0.6925553 0.47895333 0.68747985 0.527114 0.5968947 0.61765915 0.70724195 0.7116251

block1.2.bn1.bias f4 [8]
00000000: 6b3c 3a3e b9f3 34be 90ec e0bc b300 b43e
00000010: 4759 0ebe cdf9 983e 0252 99be 31fc 673e
0.1818711 -0.17671098 -0.027456552 0.35156783 -0.13901244 0.29878083 -0.2994538 0.22654797

block1.2.bn1.running_mean f4 [8]
00000000: f37d 1740 d4c4 023f 01aa b63e 3add 2740
00000010: 2a15 4abf f330 61bf e350 92bf 7743 5bc0
2.3670623 0.51081586 0.35676578 2.6228776 -0.78938544 -0.87965316 -1.1430935 -3.4259927

block1.2.bn1.running_var f4 [8]
00000000: dd9a 9140 bdef fd3e 8dd3 3340 06c5 4d40
00000010: 3fc5 af3f 71a8 6540 b934 be3f a594 5440
4.550154 0.49596968 2.809787 3.2151504 1.373207 3.5884058 1.485984 3.3215725

block1.2.conv2.weight f4 [8, 8, 3, 3]
00000000: 9aeb 53be 5c8a 753d 0714 a6bc 4f84 c1be
00000010: f686 e2bd 7ab3 01be 22b7 a8bc 8059 07bd
00000020: 9b46 f4bd 23b7 04bc 019b db3a 52fc 243d
00000030: 1b01 2a3e 9e06 31bc ab09 5fbd bc58 293e
00000040: 98e3 023e ea2e 91bd 80ed aebd 86c1 06bd
00000050: 795a b4bc a869 c53c 8270 643e bd64 a5bc
00000060: e36e 573d 4f3d 19bc 9429 533b 3ecf 8cbe
00000070: e981 ae3c fec9 343e d138 573e ce64 16bf
00000080: c668 82be a48c a83e 259a 7c3e 1eab 2cbe
00000090: c829 533e 3c40 8f3e 0f9e e2bd 5506 f8bd
000000a0: 4c5e 103e 2f06 153d 09af e3bd 1fb1 6cbe
000000b0: 6ca1 253d e27a 54bd feaa 13be 188e dfbd
000000c0: 5ab8 0f3f a4bb 243e f474 5abe 66c0 d7bd
000000d0: 7ee3 763e 89a9 293e 6c8c 75bc 3e13 64bb
000000e0: 2e9e 05be 1e0b b5bc 02e7 373c 2410 a3bc
000000f0: b9c3 23bd 5a02 1fbd a408 76bd ed0d 903e
00000100: 29ea 3bbd f406 a3bd e405 91be 4514 2d3f
00000110: 42e4 db3d 9ded 66be 0c64 03bf bf02 a1bd
00000120: f29c f6bd 96e7 103f 42c8 de3d 6eb6 28be
00000130: 22aa c53e 373f ad3e 2cf1 59be f902 92be
00000140: ba68 97be ec9f 21be 6d69 dbbd 135a 2cbe
00000150: d1ee 7f3d c5a5 e7bb 1472 00be d37b 1d3c
00000160: 365c 16bd 6035 a6bc 74d8 2cbc 7386 803d
00000170: 4b12 a9bd e0c5 c93e e17e 1d3f 5ff9 60bd
00000180: 6265 703e 2da1 413e 3620 63bc 1db7 1dbe
00000190: c8ea 35bd ac2c 013e c116 50bd 7e89 23be
000001a0: 3180 413b fc3e 893d 2032 9bbe 6711 cebc
000001b0: 01e5 fdbd dce0 0e3e 2a20 afbe e1fc fd3d
000001c0: 4878 94ba 2a87 8cbe acc9 8f3d d027 0b3d
000001d0: 1480 72bd de9f 1c3e c8b8 9dbe e2cc d0bd
000001e0: 011f f1bc 65e0 2cbc bfbf d6bd 8cd4 6c3e
000001f0: cf74 673e 0765 c4bd 3b3a c6bd 8763 19be
00000200: 138a 42be 4413 05be 16c6 41be 812d e23c
00000210: c475 10bd 5efa f83d 0ac5 1fbe 41ba d53d
00000220: f5f3 db3c 2b54 10be 02d9 13be 6954 57bc
00000230: a358 cebc 6a1a 1d3e 2ec6 dcbc c16c e2bd
00000240: 16a2 11be e338 33bd d71e 51bd 8fd4 9a3e
00000250: 0b04 793f 4a43 cf3e af54 a8bd efa7 f43d
00000260: 3b37 3bbe 0598 f4bd deea c5bd e041 1ebe
00000270: b989 ee3d 9d71 3abd 8cc0 f5bc c105 d63d
00000280: 87ed 68bc b43c 1c3d 1507 ffb9 172e d13d
00000290: 7099 4fbe cbbc 48be 685c 1d3c ea99 d9be
000002a0: 904b 653d 5a71 a13d 4c67 20be 884d 0fbe
000002b0: 1b0b 0e3e e555 b0bc 453b 0a3d 01a0 843e
000002c0: 4673 e2bd 231a 3dbe 1379 90bc 3f7f 0bbe
000002d0: e298 1cbd 5071 d13d e4c7 76be e14a 1b3d
000002e0: e5d2 af3e dbf6 0b3d 8555 28be 501c 3e3d
000002f0: d153 edbd 4bcb 1dbd 75cc 4f3e 3efb b4bb
00000300: a90f 1a3e 63aa 123d 3df5 5fbe e377 463e
00000310: e439 373e 1ebc 203e 95cd b2bb 1533 03bd
00000320: ac75 463e c618 40be a825 7dbd 18e5 25bd
00000330: 2518 043d 2d6f e03d 365c 863d 5599 72be
00000340: 6b17 bd3d cfa2 94be ff0b fb3d d3b1 af3e
00000350: d9b5 0fbd 8642 95bd d6de 913e 4e0b 4dbe
00000360: 0954 d0bd 2048 b23e 9b82 d3bd 8e2e a3bd
00000370: b8bf c43c cbb7 87bd ca8d bc3e 0834 bd3d
00000380: f453 b03c a631 1fbc 61e4 a3bb 9854 2ebe
00000390: 14ff cebd 52d3 423d 565c 35be 2afa 08be
000003a0: 5e96 18be 6181 a2bc 35ae 51bd 5190 23bd
000003b0: ee64 12ba 0a59 2b3e bd6d 8e3d bba2 9dbb
000003c0: 9904 c7bd c6d1 813d b80e 473c 8820 b6bc
000003d0: fd6e 463d 0654 8bbd cd44 02bf f685 28bf
000003e0: 07e6 a1be 19be f1bd b138 1fbe d369 6fbe
000003f0: 8bc1 fe3d e83b ae3e e8dd 733e 0e00 65bd
-0.20695344 0.059946403 -0.020273222 -0.37796256 -0.11060898 -0.12666121 -0.020595137 -0.03304434
-0.119275294 -0.008100304 0.0016754569 0.040279694 0.16601984 -0.0108048 -0.05445258 0.16537756
0.12782133 -0.07089026 -0.08541393 -0.032899402 -0.022015797 0.024098232 0.22308543 -0.020189637
0.052595984 -0.009352996 0.0032220827 -0.27501863 0.02130218 0.17655179 0.21017767 -0.58747566
-0.2547056 0.329198 0.24668176 -0.16862151 0.20621407 0.27978694 -0.110653035 -0.12110583
0.14098471 0.03638285 -0.1111737 -0.23114441 0.040437147 -0.051875003 -0.14420697 -0.10915774
0.56140673 0.16087204 -0.21333677 -0.10534744 0.24110219 0.16568579 -0.014987092 -0.0034801508
-0.13048622 -0.022100028 0.01122451 -0.019905157 -0.039981578 -0.038820602 -0.060066834 0.28135625
-0.04587761 -0.079603106 -0.28324807 0.67609054 0.10736896 -0.2255158 -0.51324534 -0.07861852
-0.12041654 0.5660337 0.1087804 -0.16475841 0.38606364 0.33837292 -0.21283406 -0.28517893
-0.29572088 -0.15783662 -0.10713468 -0.16831236 0.062483612 -0.007069322 -0.12543517 0.0096120415
-0.036709033 -0.020289123 -0.010549653 0.06275644 -0.08255442 0.3940878 0.61521727 -0.05492532
0.23476174 0.1890914 -0.01386266 -0.15401883 -0.044413358 0.12614697 -0.05080295 -0.15970418
0.002952587 0.067014664 -0.3031168 -0.025154782 -0.12397195 0.13952965 -0.34204227 0.124017484
-0.001132735 -0.27446872 0.07020888 0.033973515 -0.059204176 0.1529536 -0.3080504 -0.10195328
-0.02943373 -0.010551547 -0.104857914 0.23127955 0.22603153 -0.09589582 -0.09679075 -0.14979373
-0.18997984 -0.1299563 -0.1892322 0.027609589 -0.03526856 0.12157129 -0.15602508 0.10435916
0.026849726 -0.14094608 -0.1443825 -0.013142684 -0.02518875 0.15342107 -0.026949968 -0.110558994
-0.14221987 -0.043755423 -0.0510548 0.30240294 0.97271794 0.40481025 -0.08219277 0.11946093
-0.18282788 -0.11943058 -0.09663938 -0.15454817 0.11647362 -0.045518506 -0.02999904 0.10450316
-0.014216787 0.03814383 -0.00048642667 0.10213869 -0.20273376 -0.19603269 0.009604551 -0.4250024
0.055980265 0.07882948 -0.15664405 -0.1399442 0.13871424 -0.021525333 0.03374793 0.25903323
-0.11057143 -0.18467002 -0.017635858 -0.1362276 -0.038231738 0.10226691 -0.2409969 0.037913207
0.34340587 0.034170967 -0.16438873 0.04641372 -0.11588252 -0.038523953 0.20292838 -0.0055231145
0.15045036 0.035807025 -0.21870895 0.1938167 0.17893177 0.15696761 -0.005456636 -0.032031137
0.19380826 -0.1875945 -0.06180349 -0.040501684 0.03224959 0.10958705 0.065605566 -0.23691304
0.09232982 -0.29030463 0.122581474 0.34315357 -0.035085533 -0.07288079 0.28490323 -0.20023844
-0.101722784 0.34820652 -0.103276454 -0.07967864 0.0240172 -0.066268526 0.36826926 0.0923844
0.021524407 -0.009716427 -0.00500159 -0.17024457 -0.10107246 0.047564812 -0.17711005 -0.1337668
-0.1490111 -0.019837083 -0.051191527 -0.039932553 -0.00055844977 0.16733184 0.06954525 -0.0048106587
-0.09717674 0.06338839 0.012149505 -0.022232309 0.04844569 -0.068031356 -0.5088623 -0.6582941
-0.3162081 -0.118038364 -0.1554897 -0.23380212 0.12439259 0.3403008 0.2381512 -0.055908255

block1.2.bn2.weight f4 [8]
00000000: 5eab 163f a852 463f e215 7b3f 0bff e83e
00000010: b5c6 043f 55f3 f63e caca 303f 822c 663f
0.58855236 0.77469873 0.98080266 0.45507082 0.518657 0.48232523 0.6905943 0.89911664

block1.2.bn2.bias f4 [8]
00000000: afc2 17be 3b81 03be be01 55bf 385d f13d
00000010: 466f 9f3d 1162 92bb 1e5a 34be 21e4 e5be
-0.1482036 -0.12842266 -0.83205783 0.11785358 0.077848956 -0.004467257 -0.17612502 -0.4490061

block1.2.bn2.running_mean f4 [8]
00000000: 7c03 4ebe 185e 24be 09e1 fc3e 0012 94bf
00000010: 8d78 b43f 911e b73e eb01 70be 0f55 11bf
-0.20118517 -0.16051519 0.49390438 -1.1567993 1.4099289 0.35765508 -0.23438232 -0.56770414

block1.2.bn2.running_var f4 [8]
00000000: 70f4 df3e a4d3 4a3f 04f3 5b3f 4d55 073f
00000010: c173 6c3f eb7a 073f 5fac 303f eac3 0a3f
0.4374118 0.7922919 0.8591769 0.52864534 0.92364126 0.5292193 0.6901302 0.5420519

block1.2.conv3.weight f4 [16, 8, 1, 1]
00000000: 6054 96be 3877 c8bc 2c4c bbbd e20a 11bf
00000010: 5635 83bd c3b8 1d3f 5189 a6bc 92db 243d
00000020: 92d9 66bd 132e 583e 110d 903d 7c98 073d
00000030: 61cb ab3e aab8 083e 4fe0 b13e 8711 b73e
00000040: 26e6 cfbe 6e81 5fbe 2fc0 6abe 3c85 92be
00000050: 7e0f 63bd 1f3c fe3c 95cd 17bf 05bb 543e
00000060: 9ef2 e93d 5c51 583e 0b31 803e 97f9 0fbe
00000070: 3c80 acba 3453 9c3e c895 4a3e cd31 2a3e
00000080: 347a 6b3e d8d0 193f 7b25 c9bd b070 7d3e
00000090: 5746 d4bd 1acc 8fbd 848f c8bd c0f7 9ebd
000000a0: dc1c ac3e 215e 5b3c 928e 60bd ddaf cfbc
000000b0: f518 c1be ea86 b5be 9d14 1dbd bcca 543d
000000c0: 3b8a 9abe 2266 9fbe fd0c 193e a8a3 09be
000000d0: 3b73 11be 5cd6 e4be 6a67 3e3e 866a bbbe
000000e0: 9a4b 78be 939f 0d3c 1b4f 82be 08fb a9be
000000f0: a1ea 79be 8a7a 99be 6de5 c7be 7e9d b8bd
00000100: 7c92 ae3c 8fe2 a73e b7ba 783d d5b7 193e
00000110: ab8c 8dbe 47f2 e3bd e884 3fbd a59c 463e
00000120: 7dfe 6fbd 35bd e23c beb2 2abe d76a 49be
00000130: 2c63 17bd 4f09 babc 95e0 623d d052 f0bd
00000140: a491 a43e 1b36 943d 4b18 6fbd 782b d43d
00000150: 485d 23be ef53 763d 6aac 293d 364e c9be
00000160: 6b2d 413d 920f 58be a693 aebf bf02 46be
00000170: a704 6f3e 4606 1cbe 6828 89be 0f03 103e
00000180: 20cc 7dbc a42c 5fbe 52a0 cbbe 6499 053b
00000190: 2836 c03d 21e7 5a3e 3106 173d 98dc e4bd
000001a0: c4bb 343e 4dac 04bd e5de fdbe 95a2 013e
000001b0: d262 18be 1156 253e 4f9f 343e f62c 3cbe
000001c0: 1356 99bd 82e7 46bf 5797 55bc 3ab6 a9bd
000001d0: 5f62 ffbe 4e6f 913e c6dc bd3e 0130 34bf
000001e0: 55b8 f53e c89c 35bd 46d1 c33d 7178 3abe
000001f0: 273d 11bd de58 a0bc 63f9 d5be f488 0cbf
-0.29361248 -0.02447091 -0.09145388 -0.5665723 -0.064066574 0.6161005 -0.02032915 0.04024846
-0.056359835 0.21111326 0.07033742 0.033104405 0.33553603 0.13351694 0.34741446 0.3575556
-0.40605277 -0.21826717 -0.22924875 -0.28617275 -0.055434696 0.031034527 -0.5929807 0.20774467
0.11423229 0.21124786 0.25037417 -0.14060055 -0.0013160775 0.3053223 0.197837 0.1662056
0.22995836 0.60084295 -0.09821602 0.24750018 -0.10364979 -0.07021351 -0.097929984 -0.07762098
0.33615768 0.013389141 -0.054823466 -0.025352413 -0.37714353 -0.35454494 -0.038349736 0.051951155
-0.30183586 -0.3113261 0.14946361 -0.13441336 -0.14204113 -0.44694793 0.18594137 -0.36604708
-0.2424759 0.0086440025 -0.25450978 -0.33199334 -0.2440591 -0.29976302 -0.39042225 -0.09014414
0.021310084 0.32790038 0.06072494 0.15011533 -0.27646384 -0.11130195 -0.04675761 0.19395693
-0.05859231 0.027678112 -0.16669747 -0.19669662 -0.036959812 -0.022709517 0.05538996 -0.11734545
0.32142365 0.07236882 -0.058372777 0.103598535 -0.15953553 0.06013864 0.041424192 -0.39317483
0.047162455 -0.2109969 -1.3638809 -0.19336985 0.23341618 -0.15236768 -0.2678864 0.14063667
-0.015490562 -0.21794373 -0.39770752 0.0020385617 0.093853295 0.21377231 0.03687114 -0.111748874
0.17649752 -0.03239088 -0.49584118 0.12659676 -0.14881447 0.16146113 0.17638896 -0.18376526
-0.074871205 -0.77697 -0.0130365705 -0.0828671 -0.4987974 0.2840523 0.370825 -0.7038575
0.47992197 -0.04433897 0.095614 -0.18210007 -0.03545871 -0.019573625 -0.4179183 -0.54896474

block1.2.bn3.weight f4 [16]
00000000: 622c a33e e3ec 653e 206d ac3e 676b 633e
00000010: b499 cf3e 925c bb3e 5974 ac3e 6d0b 083f
00000020: 27f6 513e e2b4 f83d b4c7 d33d f06f 723f
00000030: fa23 34be 7517 ba3e daf0 663f 93cb ab3e
0.318698 0.22453646 0.33677006 0.2220894 0.40546954 0.36594063 0.33682516 0.53142434
0.20504056 0.12143876 0.10340825 0.94702053 -0.17591849 0.3634602 0.9021126 0.33553752

block1.2.bn3.bias f4 [16]
00000000: 6fa5 c6be 4697 3d3e 9e83 6b3d 186d 563d
00000010: 3b40 8e3e 4b06 2abf f7ae d8bd a546 363e
00000020: f604 9d3d 4666 ea3d a9c1 9fbc f1ff fbbd
00000030: 3312 2bbd 20ba a83d 4d9d 2dbe 99fe a1bd
-0.3879809 0.18514737 0.057498567 0.052350134 0.2778338 -0.6641585 -0.10580247 0.17800386
0.07666962 0.11445288 -0.019501524 -0.12304676 -0.041765403 0.082386255 -0.16954537 -0.07909889

block1.2.bn3.running_mean f4 [16]
00000000: 147e c7bd e86e 933e d3f1 99be 5825 3e3e
00000010: dc19 1b3e e400 e2bd d6cf 89be bdbd b2be
00000020: 418b 773d a6e3 c1bd a613 e0ba 7a79 8bbe
00000030: f44f 5abd f09d 8cbc c957 a4be 6b4b 18be
-0.09740844 0.28795552 -0.3006731 0.18568933 0.15146583 -0.11035326 -0.2691638 -0.34910384
0.060435537 -0.094672486 -0.00170957 -0.27241117 -0.053298905 -0.017165154 -0.32098225 -0.1487252

block1.2.bn3.running_var f4 [16]
00000000: 917e a03d 643a ed3d b519 1f3e 3f95 b73d
00000010: 13d9 ec3d d717 0a3d 61ae 313e 5094 d23d
00000020: 1449 023e cc0f bf3c 9560 393d 706b 863f
00000030: 8fe1 0d3e 6de2 e53d be4f 263f d154 213e
0.078366406 0.11583403 0.1553715 0.08964013 0.11564841 0.03371414 0.17351677 0.102821946
0.1272319 0.023322962 0.045258123 1.0501537 0.13855575 0.11224828 0.64965427 0.15755011

block1.3.conv1.weight f4 [8, 16, 1, 1]
00000000: dab3 adbe d3b3 78be 2cf3 a3be 23d7 d0be
00000010: 351d 3b3e 7092 5fbe f755 8cbf b979 7fbd
00000020: cf4f eabc 9738 1dbd 2764 3b3d e3fd b4be
00000030: d8c2 64be a8e2 c33e f8ea a93e 870d 98be
00000040: e5a5 2e3e e5bd 0fbe 37a0 2abd 066f 57bb
00000050: fa95 78be 07bb b43d bb21 13be 332a 01be
00000060: 72b5 b8bd 323d 7d3e 064b 1dbf b295 92be
00000070: 2196 c3be 5c35 6b3c 1658 513f faca 5a3e
00000080: f35e 6bbf 78bc 9ebe 893c debe 8093 72be
00000090: eff1 8ebe 736c 30be dca9 e8bd 160f 5abe
000000a0: 708c 9ebc 3318 ccbe 31ce 1abe aab6 04be
000000b0: 4669 33be 176a 303d 04bb c6be 55be 5b3d
000000c0: 6c93 4cbe 0ed1 ad3e c365 263f 0aa5 64be
000000d0: f206 cdbe 3cfe 11bf 2f33 1bbd fc9a 23bd
000000e0: 3b43 90bd 17ca 3c3e aa87 2cbe 16e7 8cbc
000000f0: e1ab fd3c b769 0dba 8553 d5be 273f df3a
00000100: 156a ef3d 2837 c0be 713f ccbe d476 02bf
00000110: b8b8 c5be 4116 7ebe b0bd 86ba a7ab 863e
00000120: d53a a23e c096 ea3e d87e 393c a54c 1a3c
00000130: 6112 a8be 0538 823d 5882 02bf e47a ccbe
00000140: 0ac0 c2bd 969a 3c3c 7ea6 b0bb a350 16bc
00000150: 595f 433d e193 88be 3097 c5bd 0ee6 1d3e
00000160: 6547 ca3d 39a2 983d 21dd 493f a0da 7abe
00000170: 03c0 6c3e fc28 c3bd 46a0 9a3b d9a3 41be
00000180: 5980 4ebd 826d 303f 4ac6 a73d 3b4d 883e
00000190: dd91 d43c 802c 14bc 08fe ddbd 941a cabd
000001a0: a11f 933e 5b9d 81bc e7cb 113e 3b02 61be
000001b0: 8143 d3be f263 8cbd 4f99 08bd 0243 aabe
000001c0: ba90 af3e 7924 af3c bf7d cbbe ef7a 91be
000001d0: 046f 2abd e15e 94bd a81d 06be 8c42 843e
000001e0: c068 0cbe 1dde fabd 481c 0a3e 73b4 9cbc
000001f0: ae46 02bf c508 35be 6b42 f7bd 4905 563f
-0.33926278 -0.24287347 -0.32021463 -0.40789136 0.1827286 -0.21833205 -1.0963734 -0.062371943
-0.028602509 -0.038384046 0.04574981 -0.3534995 -0.22339952 0.38258862 0.3318708 -0.2969782
0.17055471 -0.14037283 -0.0416567 -0.0032872572 -0.24275962 0.08824735 -0.14368336 -0.12613754
-0.09018983 0.24730375 -0.614426 -0.28629833 -0.38200477 0.014355984 0.81775033 0.21366492
-0.91941756 -0.31003165 -0.4340556 -0.2368908 -0.27918956 -0.1722887 -0.11360523 -0.21294817
-0.019354075 -0.39862213 -0.15117718 -0.12960306 -0.17520627 0.043069925 -0.38814557 0.05364831
-0.19978112 0.3394856 0.64999026 -0.22328582 -0.4004436 -0.57028556 -0.03789061 -0.039942726
-0.07044073 0.18436466 -0.16848627 -0.017200034 0.030965747 -0.0005394476 -0.41665283 0.0017032371
0.116901554 -0.3754208 -0.39892152 -0.5096257 -0.38617492 -0.24813177 -0.001027992 0.26302835
0.3168551 0.45818138 0.011321746 0.009417688 -0.32826522 0.06358341 -0.5098014 -0.39937508
-0.09509285 0.011511466 -0.005390941 -0.009174499 0.047698352 -0.26675323 -0.09647977 0.1541979
0.09876899 0.074528165 0.7885304 -0.24497461 0.23120122 -0.095293015 0.004718813 -0.18910159
-0.05041537 0.68917096 0.081921175 0.26621422 0.02594846 -0.009043813 -0.10839468 -0.098683506
0.28735068 -0.015822103 0.14237939 -0.21973507 -0.4126244 -0.068550006 -0.03334933 -0.33254248
0.34290105 0.021379696 -0.39744374 -0.28414103 -0.04160978 -0.07244659 -0.1309725 0.2583202
-0.13711834 -0.12249396 0.13487351 -0.019129014 -0.508891 -0.17679127 -0.12073215 0.83601815

block1.3.bn1.weight f4 [8]
00000000: 7012 253f 2347 343f 68aa 1a3f fd3b 233f
00000010: 4fed 0f3f 6134 3f3f e631 7c3f 1b3d d83e
0.6448126 0.70421046 0.6041627 0.6376341 0.5622148 0.746893 0.9851364 0.4223412

block1.3.bn1.bias f4 [8]
00000000: ae12 c23e 8bc3 51be 21f8 753e 4610 f73d
00000010: 1f3a a53e 20a9 8abe 378e 17bf 6cac 9a3e
0.37904876 -0.2048475 0.24020435 0.12063651 0.32270905 -0.27082157 -0.5920138 0.30209672
