assignment1/results/trial_2/resBottleneck/ckpts/4000.pt (torch, 562440 bytes, 242 tensors)

block1.0.conv1.weight f4 [8, 16, 1, 1]
0	0x3e319a61	0.17344047
1	0x3e998e80	0.2999153
2	0x3f5f3615	0.871919
3	0xbf25fcde	-0.6483897
4	0x3f25185a	0.6449028
5	0x3ed7dea1	0.4216204
6	0x3f7abffe	0.97949207
7	0x3d584e5c	0.052809104
8	0x3f84f5ca	1.0387509
9	0x3ebfc363	0.37453756
10	0x3e060920	0.13089418
11	0x3a94f488	0.001136438
12	0x3da9b6a0	0.08286786
13	0x3f611325	0.8791984
14	0x3f06f134	0.52711797
15	0x3f94b882	1.1618807
16	0x3cb71a07	0.022351278
17	0x3ee32a1d	0.44368067
18	0xbec8249a	-0.39090425
19	0x3e2f52e2	0.17121461
20	0xbed23c32	-0.4106155
21	0x3f2b7ade	0.66984355
22	0xbe5c003c	-0.21484464
23	0xbd6697ec	-0.056297228
24	0xbf3c3fcd	-0.7353485
25	0x3f622d86	0.88350713
26	0xbf4e4ff0	-0.80590725
27	0xbf31df92	-0.69481766
28	0x3e94f4d9	0.29093054
29	0xbe060568	-0.13088
30	0x3ef1a0e3	0.4719306
31	0xbeedfbe7	-0.4648125
32	0x3ed77606	0.42082232
33	0x3d81fe94	0.06347385
34	0x3dd33ce4	0.10314348
35	0xbe0ca803	-0.13735966
36	0xbe1cb8f4	-0.15304929
37	0x3eb718e4	0.35761178
38	0x3f9cb572	1.2242873
39	0x3dc44ae0	0.09584594
40	0x3f2d0b99	0.6759582
41	0x3f15b74f	0.5848283
42	0xbfa87304	-1.31601
43	0x3edca1a6	0.43092078
44	0x3c1bc42f	0.009507223
45	0xbf844f4d	-1.0336701
46	0xbebe243b	-0.37137017
47	0x3c74783a	0.014921242
48	0x3d88a140	0.06671381
49	0xbd66a0d4	-0.05630572
50	0xbf1ec360	-0.6201687
51	0xbeddd562	-0.4332686
52	0x3fb5556d	1.4166695
53	0xbeea3f0a	-0.4575122
54	0x3dee69e5	0.116412915
55	0x3f97db17	1.1863736
56	0xbca65997	-0.020306392
57	0x3ee2c6fb	0.44292435
58	0xbf7e68ef	-0.99378866
59	0xbfa6e5ff	-1.3038939
60	0xbf3af3d4	-0.730283
61	0x3e485345	0.19563015
62	0x3d48f8e0	0.04906547
63	0xbf62e4f1	-0.88630587
64	0xbf057e2a	-0.52145636
65	0xbfa4c629	-1.2872974
66	0xbf41ffac	-0.7578075
67	0xbde824c0	-0.113351345
68	0xbf08540a	-0.53253233
69	0x3f41ab3e	0.7565192
70	0xbf839d4c	-1.0282378
71	0xbf456a98	-0.77115774
72	0xbf3b999b	-0.7328126
73	0xbe934522	-0.28763682
74	0xbf3f9403	-0.7483522
75	0x3f8dfd5b	1.1092943
76	0x3e881806	0.26580828
77	0xbeca2014	-0.394776
78	0xbef3a2a4	-0.47585022
79	0xbef63f16	-0.48095006
80	0x3f4c7ea0	0.79880714
81	0x3e0569b2	0.13028601
82	0xbf197195	-0.5993894
83	0xbf7aa455	-0.97907
84	0xbf0707ae	-0.52746093
85	0xbeb98402	-0.36233526
86	0x3e53dbbf	0.20689295
87	0x3ee13dc6	0.43992442
88	0x3f9947a6	1.197499
89	0x3f15b567	0.58479923
90	0xbfa2a967	-1.2707947
91	0xbf9d9fbb	-1.2314371
92	0xbeda4333	-0.42629394
93	0x3f004d11	0.50117594
94	0xbf3d983d	-0.7406042
95	0xbedd2daf	-0.43198916
96	0xbd5bd810	-0.05367285
97	0x3f381383	0.7190477
98	0x3fac3fc3	1.3456959
99	0xbf24ed61	-0.6442471
100	0x3f914a60	1.1350822
101	0xbf245cae	-0.6420392
102	0x3eb8586a	0.36004955
103	0x3ef1e20a	0.47242767
104	0x3f87b53b	1.0602182
105	0xbf2981aa	-0.66213477
106	0x3f51d993	0.81972617
107	0xbe4d51ba	-0.20050707
108	0xbdd47d6d	-0.103754856
109	0x3ede196f	0.4337878
110	0x3f614ed0	0.88010883
111	0x3fa4c215	1.2871729
112	0x3ef3c5a0	0.47611713
113	0x3f62dc23	0.8861715
114	0x3ca2d979	0.01987909
115	0x3ea9231e	0.33034605
116	0xbf5b962f	-0.85776037
117	0x3d9f51be	0.07779263
118	0xbc72fedb	-0.01483127
119	0xbe80445b	-0.2505215
120	0x3f85f1bb	1.0464395
121	0x3d97085d	0.07374642
122	0xbe8aee37	-0.27134869
123	0xbf6e0e77	-0.9299082
124	0x3f1039ad	0.56338006
125	0xbef702b6	-0.48244256
126	0xc018a5d0	-2.3851204
127	0x3ea448df	0.32086846

block1.0.bn1.weight f4 [8]
0	0x3fba7c80	1.4569244
1	0x3f12a3bf	0.57281107
2	0x3f06a216	0.52591074
3	0x3f865f5f	1.0497855
4	0xbef27ed0	-0.47362375
5	0x3f78a8e9	0.97132736
6	0x3f95d6e5	1.1706206
7	0x3f8fdb40	1.1238785

block1.0.bn1.bias f4 [8]
0	0xbf506df7	-0.81417793
1	0xbca3ffe6	-0.020019483
2	0x3f3c8d0b	0.73652714
3	0x3f7a9558	0.9788413
4	0x3f31f0f3	0.69508284
5	0xbe850539	-0.25980547
6	0xbf178602	-0.59188855
7	0x3f0b54e5	0.54426414

block1.0.bn1.running_mean f4 [8]
0	0x41046995	8.275777
1	0xc069d7ff	-3.6538084
2	0x3f6982c4	0.9121516
3	0xc122090a	-10.127207
4	0xc08447eb	-4.133779
5	0xc10ba9d7	-8.728965
6	0x40f5659e	7.6686544
7	0xc0c14f65	-6.0409417

block1.0.bn1.running_var f4 [8]
0	0x41390d1a	11.565699
1	0x414877e2	12.529268
2	0x414feaa4	12.994785
3	0x421b29b3	38.79072
4	0x41c9e0ab	25.234701
5	0x420c1c0a	35.02738
6	0x41c7d1b3	24.977392
7	0x424d9e8f	51.404842

block1.0.conv2.weight f4 [8, 8, 3, 3]
0	0x3eb79d60	0.35862255
1	0x3db19cbc	0.08672473
2	0xbeb7b0ee	-0.35877174
3	0xbd9df8b1	-0.0771345
4	0xbe1c51d2	-0.15265587
5	0xbf373190	-0.7156
6	0x3e817a03	0.252884
7	0x3b1ebde4	0.002422207
8	0xbe31e5d5	-0.1737283
9	0x3c36effa	0.011165613
10	0x3dde5250	0.108555436
11	0x3ed04f06	0.4068529
12	0xbc79bbf1	-0.015242563
13	0x3e683462	0.22676232
14	0xbd05ba13	-0.032648157
15	0xbe8f92d2	-0.28041703
16	0xbf3378e3	-0.70106333
17	0xbde40af4	-0.11134902
18	0xbe063ebd	-0.1310987
19	0xbe9b3839	-0.30316332
20	0xbf407e09	-0.75192314
21	0xbe4aefc3	-0.19818024
22	0xbe97da49	-0.29658726
23	0xbf3bc803	-0.7335207
24	0x3e934124	0.28760636
25	0x3e203cf1	0.15648247
26	0xbdccf8e4	-0.100084096
27	0x3eb9ede2	0.36314303
28	0x3f26c4a1	0.6514378
29	0x3e3876d9	0.18014087
30	0x3f61eb49	0.8824964
31	0x3f799f14	0.9750836
32	0x3f2c7233	0.67361754
33	0xbe09c9ad	-0.1345584
34	0x3dc745f4	0.097301394
35	0x3e38a79a	0.18032685
36	0xbc502bf0	-0.012705788
37	0x3eb1201e	0.34594816
38	0x3e22f316	0.15913042
39	0xbd8b0d78	-0.06789678
40	0x3de07416	0.10959642
41	0x3e2fd8b7	0.17172514
42	0xbd230756	-0.039801918
43	0xbf022224	-0.50833344
44	0x3dbc149c	0.091836184
45	0x3ef0f18d	0.4705929
46	0x3f38717d	0.7204817
47	0x3ee40386	0.44533938
48	0x3e59c56f	0.21266721
49	0x3f006e8f	0.501687
50	0x3f52dc2e	0.8236722
51	0xbe42a2d4	-0.19007427
52	0x3cf0a3b2	0.029374931
53	0x3f023c93	0.5087368
54	0xbddfd758	-0.109297454
55	0x3e959ffd	0.29223624
56	0xbe6f3ccf	-0.2336304
57	0x3e6c8a57	0.23099647
58	0xbde1f686	-0.11033349
59	0xbea824b7	-0.3284051
60	0x3e8d6fca	0.2762435
61	0x3ede6384	0.434353
62	0xbea14abc	-0.3150233
63	0x3e19c211	0.15015437
64	0x3e5a2e1a	0.21306649
65	0x3f3a8667	0.7286133
66	0xbe4b05e0	-0.1982646
67	0x3d37ddc3	0.044889223
68	0x3c7d2c73	0.015452492
69	0xbe925b2c	-0.28585184
70	0x3e2e9c08	0.17051709
71	0x3f4ef5cf	0.80843824
72	0xbe9925b9	-0.29911593
73	0x3f6217e7	0.8831772
74	0x3f9e358f	1.2360095
75	0xbedbeefa	-0.42955762
76	0xbd31daeb	-0.043421667
77	0x3d73327b	0.059374314
78	0xbf09ca14	-0.5382397
79	0x3ebb03b8	0.36526275
80	0xbe93e5bc	-0.2888621
81	0x3ed357bd	0.41277876
82	0x3f3f7259	0.74783856
83	0x3bdd01f0	0.0067446157
84	0xbe7125c8	-0.23549569
85	0x3de7a46d	0.113106586
86	0xbf12ca40	-0.5733986
87	0xbc9af82c	-0.018917166
88	0xbc977eb2	-0.01849303
89	0x3c24534f	0.010029628
90	0xbe3731df	-0.17890118
91	0x3ddd36f7	0.10801499
92	0x3e4b3af3	0.19846706
93	0xbf52a8e8	-0.8228898
94	0xbf749b82	-0.95549786
95	0xbdc49b31	-0.09599913
96	0xbe29159f	-0.16512154
97	0x3e2cd336	0.16877446
98	0x3f0c729f	0.548624
99	0x3ea29fb7	0.31762478
100	0x3f1ad771	0.6048499
101	0x3fafa7f6	1.3723133
102	0x3e7d8ed6	0.24761519
103	0x3f031f84	0.51219964
104	0x3f7f58f2	0.99745095
105	0x3e49c29d	0.19703145
106	0x3f0f5e4f	0.5600328
107	0x3ed67928	0.4188931
108	0x3ea22130	0.31665945
109	0x3c35986f	0.011083706
110	0x3f03013d	0.51173764
111	0x3e35a116	0.1773723
112	0xbe0e75f4	-0.13912183
113	0x3e5df47a	0.21675292
114	0x3e089cd3	0.13341074
115	0xbd40819f	-0.046998616
116	0x3e190598	0.1494354
117	0x3e3b366c	0.18282479
118	0x3e1ee24e	0.15516016
119	0x3e0c821c	0.13721508
120	0xbd7e5ccb	-0.062100213
121	0x3e7fa577	0.24965464
122	0x3eadfe9b	0.3398331
123	0xbe5654b1	-0.20930745
124	0x3d84a2b6	0.06476347
125	0xbda9ee1e	-0.082973704
126	0xbe4b3348	-0.19843781
127	0x3c9e4aca	0.019322772
128	0x3e47d952	0.19516495
129	0x3e00bdc3	0.12572388
130	0xbd80fb91	-0.062979825
131	0x3f0f00f1	0.5586081
132	0xbe950f50	-0.29113245
133	0xbec45605	-0.38346878
134	0x3e1c4e13	0.15264158
135	0xbd91c70d	-0.07118044
136	0xbe9f4143	-0.31104478
137	0xbe94dd0a	-0.2907489
138	0x3e9fc4e2	0.31204897
139	0x3ed00083	0.4062539
140	0x3e84149a	0.25796968
141	0xbebd1bfd	-0.36935416
142	0xbef28ab8	-0.4737146
143	0xbf39717e	-0.724388
144	0x3f222ffd	0.63354474
145	0x3ef9e791	0.48809484
146	0x3f493bef	0.78607076
147	0x3e54612c	0.20740193
148	0x3e73b10d	0.23798008
149	0xbea4255b	-0.3205975
150	0x3ce63fea	0.028106648
151	0x3e3e85c4	0.18605715
152	0xbe561d06	-0.20909509
153	0x3f06eb07	0.52702373
154	0x3eb27bd1	0.3486009
155	0x3ef584ac	0.47952783
156	0x3e5f5715	0.21810563
157	0x3e2595a6	0.16170368
158	0xba80d74f	-0.0009829792
159	0x3b7ac1bb	0.0038262445
160	0xbe37d474	-0.17952138
161	0xbdd08b94	-0.101828724
162	0x3e836e3c	0.2567004
163	0xbe82bdda	-0.2553547
164	0xbf005c13	-0.50140494
165	0x3dda1bb9	0.10649819
166	0xbef21ef9	-0.47289255
167	0xbe926317	-0.28591225
168	0xbeba8ee0	-0.3643713
169	0x3e6b6f5e	0.22991702
170	0xbd86631f	-0.065618746
171	0x3e5001ba	0.20313159
172	0x3e1d3ede	0.15356013
173	0xbe92ee3f	-0.28697392
174	0x3e9c11aa	0.30482227
175	0x3f2d3fce	0.67675483
176	0x3e25afa0	0.16180277
177	0x3f173738	0.5906863
178	0x3f8e3a52	1.1111548
179	0x3dd30d5c	0.103052825
180	0xbef50dcb	-0.47862086
181	0xbeb96a60	-0.3621397
182	0xbe9ac249	-0.30226353
183	0x3df0f9e3	0.11766412
184	0xbd5f1eb2	-0.054472633
185	0xbf03ff1b	-0.51561135
186	0xbe0e1277	-0.13874231
187	0x3e5b9fa8	0.21447623
188	0xbec525f0	-0.38505507
189	0x3f1d30bf	0.61402506
190	0x3e390687	0.18068896
191	0x3e20e4c8	0.15712273
192	0x3ef6c48b	0.48196825
193	0x3e22f614	0.15914184
194	0x3dad5b51	0.08464683
195	0x3ef15478	0.47134757
196	0x3e8dbf0c	0.2768482
197	0xbd9eef47	-0.07760482
198	0x3c0f9df5	0.008765687
199	0x3dcc35f8	0.09971231
200	0x3e667986	0.22507295
201	0x3b4dbdd1	0.0031393657
202	0x3f0162f3	0.5054161
203	0x3f4af323	0.7927725
204	0x3e5e6a09	0.21720137
205	0xbed1a2b9	-0.4094446
206	0xbc9728e5	-0.018452117
207	0x3ebd503a	0.3697527
208	0xbebf5fa2	-0.3737765
209	0xbee3ced9	-0.4449375
210	0x3f1d29d2	0.6139194
211	0x3d91cf6b	0.0711964
212	0xbe49b847	-0.19699202
213	0x3ea82140	0.32837868
214	0xbb0d83df	-0.0021593494
215	0xbf1f1b11	-0.62150675
216	0x3ea4a197	0.32154533
217	0x3e926f08	0.28600335
218	0xbf58cf16	-0.8469099
219	0x3e10d94e	0.14145395
220	0x3f473041	0.77808005
221	0xbde9e8d1	-0.11421359
222	0x3f5d3830	0.8641386
223	0x3f8e7784	1.1130223
224	0x3ef312e7	0.4747536
225	0xbf1159ff	-0.5677795
226	0xbf0dc0e2	-0.5537244
227	0xbf443976	-0.7665018
228	0x3e42b9b9	0.1901616
229	0x3e729a90	0.23691773
230	0xbe936683	-0.28789148
231	0x3e6610c9	0.2246734
232	0xbe0a6f15	-0.13518937
233	0xbeb81ce2	-0.35959536
234	0xbeac476e	-0.33648247
235	0x3f34b2a5	0.7058509
236	0x3eda88f5	0.42682615
237	0xbd99850e	-0.07496081
238	0xbda3ccf9	-0.0799808
239	0xbde57672	-0.11204232
240	0x3e410b12	0.18851879
241	0x3e72b966	0.23703536
242	0x3f04cbc9	0.5187345
243	0x3f2bbbf3	0.6708366
244	0x3f3b2323	0.7310049
245	0x3ef70a14	0.48249876
246	0xbe27cb40	-0.16386127
247	0xbf8dcc84	-1.1078038
248	0xbf0c6920	-0.5484791
249	0xbdda793a	-0.106676534
250	0xbf2fc4fa	-0.6865994
251	0xbe98d504	-0.29850018
252	0x3f028d33	0.509967
253	0xbe1f620d	-0.15564747
254	0xbec850f2	-0.39124256
255	0x3ddaeb93	0.106894635

block1.0.bn2.weight f4 [8]
0	0x3f6cca34	0.9249604
1	0x3f143d54	0.5790608
2	0x3db12776	0.08650105
3	0x3f966c4c	1.17518
4	0x3e218d9a	0.15776673
5	0x3fa0555a	1.2526047
6	0x3d9f2d7a	0.07772346
7	0x3f35d029	0.7102075

block1.0.bn2.bias f4 [8]
0	0x3eb5ae25	0.35484424
1	0x3d846daf	0.06466233
2	0xbf40037a	-0.75005305
3	0x3fd0fe6f	1.6327647
4	0xbf485749	-0.78258187
5	0xbef95f2f	-0.48705432
6	0xbf1a4f6f	-0.60277456
7	0x3f89ce21	1.076603

block1.0.bn2.running_mean f4 [8]
0	0x408f64e5	4.481066
1	0x40a21ea8	5.066242
2	0x401acf71	2.4189112
3	0x3f235fe8	0.63818216
4	0xbf1f7d9f	-0.6230106
5	0xc04cbfdd	-3.1992104
6	0x40688531	3.6331294
7	0xc144ca21	-12.299348

block1.0.bn2.running_var f4 [8]
0	0x41304820	11.017609
1	0x4143445b	12.204188
2	0x40b2e0d9	5.589947
3	0x415946d4	13.579792
4	0x410426d4	8.2594795
5	0x42049f6a	33.155678
6	0x4122da75	10.178334
7	0x41d725e6	26.893505

block1.0.conv3.weight f4 [16, 8, 1, 1]
0	0xbf51295c	-0.81703734
1	0x3e37614a	0.17908207
2	0xbd83bbd4	-0.0643231
3	0x3e9f600e	0.3112797
4	0x3ecaeff7	0.39636204
5	0xbef3931f	-0.47573182
6	0xbedc4023	-0.43017682
7	0x3ef0aa13	0.47004756
8	0x3e98222a	0.29713565
9	0xbe3d84d2	-0.18507698
10	0x3efba40a	0.4914859
11	0x3ea6f91c	0.3261193
12	0xbda607ab	-0.08106931
13	0x3f57e0fb	0.8432767
14	0x3f067e77	0.5253672
15	0x3da204f8	0.07911104
16	0xbf0eb06b	-0.5573794
17	0xbf16979a	-0.58825076
18	0xbf215592	-0.63021195
19	0xbf627e22	-0.88473713
20	0x3e466e9d	0.19378133
21	0xbeb85d65	-0.36008754
22	0x3e9fa8ad	0.31183377
23	0x3ddd5138	0.10806507
24	0xbe86d435	-0.26333776
25	0x3e28e8bf	0.16495036
26	0xbceb2256	-0.028702896
27	0x3f204889	0.6261068
28	0x3e1cf1d5	0.15326627
29	0xbea61e0f	-0.32444808
30	0x3e6fd7b0	0.23422122
31	0x3f26b184	0.6511462
32	0xbb9172f0	-0.0044387504
33	0xbe794a89	-0.24344839
34	0xbf57fe86	-0.84372747
35	0x3f43c8f6	0.7647852
36	0xbee62a9c	-0.44954383
37	0x3e3d4992	0.18485096
38	0x3d4c97f2	0.049949594
39	0x3f1136c5	0.56724197
40	0xbca7ac2f	-0.020467846
41	0xbf115b28	-0.5677972
42	0xbde16113	-0.110048436
43	0x3ed8bc9e	0.42331403
44	0x3dd72cd9	0.10506601
45	0x3f3009c6	0.68764913
46	0xbf1171f1	-0.56814486
47	0x3ef1360c	0.47111547
48	0x3ecc69f3	0.39924583
49	0xbf3ec15d	-0.745138
50	0x3f072c8d	0.52802354
51	0xbfa72c01	-1.3060304
52	0x3eba3271	0.3636661
53	0x3ded2ab3	0.1158041
54	0x3efdc8a3	0.49567136
55	0xbe96d508	-0.29459405
56	0xbf83eeb7	-1.0307225
57	0xbf8a7787	-1.0817727
58	0x3de0d611	0.1097833
59	0xbf3449f3	-0.7042534
60	0x3eb01751	0.3439279
61	0x3d54d999	0.05196533
62	0xbf02bb62	-0.51067173
63	0xbf3a3cc6	-0.7274898
64	0xbeb01dbc	-0.34397686
65	0x3eac667a	0.33671933
66	0xbed1387f	-0.40863416
67	0x3ee71174	0.45130503
68	0x3e6cd064	0.2312637
69	0x3f278433	0.65436095
70	0xbf093f88	-0.53612566
71	0x3edc53cf	0.4303269
72	0x3f72e10e	0.94874656
73	0xbe28001c	-0.16406292
74	0x3f104ebc	0.5637014
75	0x3e983419	0.29727247
76	0xbe857c8a	-0.26071578
77	0xbedf7330	-0.4364257
78	0xbe6c9dd1	-0.23107077
79	0x3e8dcc5b	0.27694973
80	0x3e9ae8d1	0.3025575
81	0x3e9402cd	0.28908387
82	0x3f1c982f	0.61169714
83	0xbf477585	-0.77913696
84	0x3f1d3f12	0.6142436
85	0xbf338c01	-0.70135504
86	0xbefb2f57	-0.49059555
87	0x3f053598	0.520349
88	0xbe242fd7	-0.16033874
89	0x3e665cd6	0.22496352
90	0xbe9f8059	-0.3115261
91	0xbe31bc53	-0.17356996
92	0xbe35b0ba	-0.17743197
93	0xbf8b2765	-1.0871397
94	0xbc9614c5	-0.01832045
95	0x3efd4198	0.49464107
96	0xbf075969	-0.52870804
97	0x3e7e5d1e	0.24840209
98	0xbe6aa8e4	-0.22915989
99	0xbf5b7ae5	-0.857344
100	0x3c1fbc7d	0.009749529
101	0x3e52bdd9	0.20580234
102	0x3d023997	0.031793203
103	0x3f8891cc	1.0669494
104	0x3fa1e54b	1.26481
105	0xbebb6df7	-0.36607334
106	0x3f1237bd	0.571163
107	0xbf4ec11b	-0.80763406
108	0x3edb5919	0.42841414
109	0xbd3c9c4f	-0.046047505
110	0x3eaaeca8	0.3338368
111	0x3e6254c8	0.22102654
112	0x3e93395f	0.28754708
113	0x3f2c64ae	0.67341125
114	0x3e052164	0.13001019
115	0xbf2d0b2e	-0.67595184
116	0x3eb009c5	0.34382454
117	0x3ead862f	0.33891436
118	0x3e8459fc	0.25849903
119	0xbeefed8b	-0.46860918
120	0x3ed10000	0.40820312
121	0x3effd8de	0.49970144
122	0xbd1394a0	-0.03603041
123	0xbf1888f6	-0.59583986
124	0x3f3affda	0.7304665
125	0xbed54725	-0.4165584
126	0x3e18ff36	0.14941105
127	0xbf8a65f6	-1.0812366

block1.0.bn3.weight f4 [16]
0	0x3db0c843	0.08631947
1	0x3f914d38	1.135169
2	0xbf478089	-0.77930504
3	0x3eaf4360	0.3423109
4	0x3f50bfaf	0.81542486
5	0xbdfa68a8	-0.12226993
6	0x3f88309c	1.0639834
7	0x3e99f82c	0.30072153
8	0x3e0ba09a	0.13635483
9	0x3f3ca1d7	0.7368445
10	0x3f2ae5e2	0.66757023
11	0x3ddff10a	0.109346464
12	0x3d82b46b	0.06382068
13	0x3f918287	1.1367959
14	0x3e1b76ee	0.15182087
15	0x3f8b27c2	1.0871508

block1.0.bn3.bias f4 [16]
0	0x3e63591c	0.22201961
1	0xbe9a670a	-0.30156738
2	0xbf037765	-0.51354057
3	0xbc4b9df9	-0.0124278
4	0x3d803110	0.06259358
5	0x3d122b2a	0.035685696
6	0x3f84c4f7	1.0372609
7	0xbf1a4012	-0.60254014
8	0xbf7091bd	-0.9397238
9	0xbeb4235b	-0.35183224
10	0x3f15d9ab	0.5853526
11	0x3d95fdb2	0.07323779
12	0xbecdf39c	-0.40224922
13	0x3d546514	0.051854208
14	0x3e0b1687	0.13582812
15	0xbef70796	-0.48247975

block1.0.bn3.running_mean f4 [16]
0	0x3efeb536	0.49747628
1	0x3f7f62be	0.99760044
2	0xbff4100d	-1.9067398
3	0x3fc6b8dc	1.5525165
4	0x3ff17512	1.8863852
5	0x3fa11e86	1.258744
6	0xc01bab44	-2.4323282
7	0xc034e247	-2.8263109
8	0x3fa84364	1.3145566
9	0x3f947f84	1.1601415
10	0xbf2ee1aa	-0.68313086
11	0xbdafdcc5	-0.0858703
12	0xbeca3d26	-0.39499778
13	0xbef6cf6a	-0.4820512
14	0xbf9907e3	-1.1955532
15	0xbffb5162	-1.9634211

block1.0.bn3.running_var f4 [16]
0	0x3f33dfcc	0.7026336
1	0x3f4deaf2	0.80436623
2	0x3fad1a6c	1.3523688
3	0x3f3dbe3d	0.74118406
4	0x3fa819c0	1.3132858
5	0x3f9b1581	1.2115937
6	0x4018ef99	2.3896239
7	0x3f592f3e	0.8483771
8	0x3f91ccb6	1.1390598
9	0x3e91e2be	0.28493303
10	0x400582c0	2.0861053
11	0x3f7f2de7	0.99679416
12	0x3f80020d	1.0000626
13	0x4001747b	2.0227344
14	0x3f874c47	1.0570153
15	0x401423bb	2.3146808

block1.1.conv1.weight f4 [8, 16, 1, 1]
0	0x3f3a6fab	0.7282664
1	0x3f601224	0.8752768
2	0x3b88a666	0.004170227
3	0xbec37991	-0.38178685
4	0x3f8f99cf	1.1218814
5	0x3f95fc18	1.1717558
6	0x3fadcd5a	1.3578293
7	0xbe31788d	-0.17331143
8	0x3e475e34	0.1946953
9	0xbec7e423	-0.39041242
10	0xbffb5123	-1.9634136
11	0xbf986e46	-1.1908653
12	0xbcf3d64d	-0.029765273
13	0xbf4aed3c	-0.7926824
14	0x3f6b9aa8	0.9203286
15	0x3ecc5b2a	0.39913303
16	0xbf4a11e2	-0.78933537
17	0x3d8237fe	0.06358336
18	0xbe6f9d02	-0.23399737
19	0x3f374d62	0.7160245
20	0x3d981ff7	0.07427972
21	0x3ff5a12a	1.9189808
22	0x3f00f5da	0.5037514
23	0x3c8f729b	0.017510703
24	0x3f02aa08	0.510407
25	0x3d841d18	0.06450862
26	0x3c02771f	0.007962971
27	0xbdfc14a0	-0.123086214
28	0x3ed9e3d0	0.4255662
29	0xbc43e89f	-0.011957317
30	0x3d71d69c	0.059042558
31	0x3d6b8752	0.0575021
32	0xbe356016	-0.17712435
33	0x3cd6e089	0.026230114
34	0x3f1583e2	0.5840436
35	0x3fb462b8	1.4092627
36	0x3ec35c0c	0.38156164
37	0x3f38364b	0.71957844
38	0x3ea74fd2	0.32678086
39	0xbea840f0	-0.32862043
40	0x3d134b23	0.035960328
41	0x3f18a563	0.5962736
42	0xbf3de09f	-0.7417087
43	0xbe5e0fa4	-0.21685654
44	0xbebc3b2d	-0.36763898
45	0xbe751382	-0.23933223
46	0x3e7c1350	0.24616742
47	0xbe82eb92	-0.2557035
48	0xbeb4fd11	-0.35349324
49	0xbef995a2	-0.48746973
50	0xbf2c8f1a	-0.67405856
51	0xbe581e01	-0.21105196
52	0xbc26f192	-0.010189431
53	0xbecc90d1	-0.39954236
54	0xbe18c88e	-0.14920256
55	0xbe8454c4	-0.2584592
56	0xbe617396	-0.22016749
57	0xbd9010ab	-0.07034429
58	0xbf2e6166	-0.6811737
59	0x3f8e93e5	1.1138884
60	0x3dbc64d5	0.0919892
61	0xbf461b96	-0.7738584
62	0xbf864b29	-1.0491687
63	0xbf0808a6	-0.53138196
64	0x3fb46629	1.4093677
65	0x3e1e0c65	0.15434416
66	0xbeb66872	-0.3562656
67	0x3ed2e078	0.4118688
68	0xbf483304	-0.78202844
69	0x3ee300d0	0.44336557
70	0x3fabed3b	1.3431772
71	0xbd0b9477	-0.034077134
72	0x3e84de4e	0.25950855
73	0xbd206596	-0.03915938
74	0xbea9d327	-0.3316891
75	0x3d4b5771	0.049643937
76	0x3efdc990	0.49567842
77	0x3f5cfe1d	0.86325246
78	0xbe2716a8	-0.16317236
79	0xbf8c251b	-1.0948824
80	0xbd344640	-0.044012308
81	0x3f63559e	0.88802516
82	0x3f343d28	0.7040582
83	0xbf071387	-0.5276417
84	0x3f191bd1	0.5980807
85	0xbf48abe0	-0.7838726
86	0x3fa41553	1.2819008
87	0x3f8b5d73	1.0887893
88	0x3ea7a8fe	0.32746118
89	0x3e7a55ab	0.24446742
90	0x3ecc8e1c	0.3995217
91	0xbfa107d8	-1.2580519
92	0xbefadcbb	-0.4899653
93	0x3f8c096c	1.0940375
94	0x3e977ebd	0.2958888
95	0x3f17cab5	0.5929368
96	0xbec844c6	-0.3911497
97	0x3f612542	0.87947476
98	0x3eaea761	0.34112075
99	0xbe20efcb	-0.15716474
100	0x3eeadfc0	0.45873833
101	0x3dfcc31b	0.12341901
102	0x3ead9c2a	0.33908206
103	0xbd8be750	-0.06831229
104	0x3f01ba9a	0.50675356
105	0xbe7b2bc5	-0.24528416
106	0x3f91604e	1.1357515
107	0xbd5f5473	-0.054523896
108	0x3a34b3b3	0.00068932323
109	0xbd3cc309	-0.046084438
110	0x3f06b056	0.5261282
111	0xbd55bbeb	-0.052181166
112	0xbfdb658c	-1.7140365
113	0x3ebd4919	0.36969832
114	0xbe91fc84	-0.28512967
115	0xbcfb67e8	-0.030689195
116	0xbedfa1ca	-0.43678123
117	0xbf7c8068	-0.9863343
118	0x3e05ab16	0.13053545
119	0xbf06ccca	-0.52656233
120	0xbeaff2ad	-0.34364834
121	0xbe015b84	-0.12632567
122	0x3e94ca0c	0.290604
123	0xbe683ab9	-0.22678651
124	0xbf8f3aa9	-1.1189777
125	0xbd82f981	-0.06395245
126	0x3ea4ebe3	0.32211217
127	0x3f03408f	0.51270384

block1.1.bn1.weight f4 [8]
0	0x3e1ade36	0.15123829
1	0x3f786cc6	0.97040975
2	0x3f2f8e92	0.6857692
3	0x3f468fed	0.77563363
4	0x3f65d59e	0.8977908
5	0x3d312998	0.043252558
6	0x3fac8707	1.3478707
7	0x3f9bc426	1.2169235

block1.1.bn1.bias f4 [8]
0	0xbefeca0c	-0.49763525
1	0x3fa722a9	1.3057452
2	0x3e88675b	0.26641354
3	0x3f27c835	0.65539867
4	0x3f8e9484	1.1139073
5	0xbddd361d	-0.10801337
6	0xbf04bf0c	-0.51854014
7	0x3f099a66	0.5375122

block1.1.bn1.running_mean f4 [8]
0	0x3fa508cd	1.2893311
1	0x400ff784	2.2494822
2	0xbee8372e	-0.453546
3	0xc0c33d1e	-6.1012106
4	0x40caf115	6.341929
5	0x401b2d94	2.4246569
6	0x40addc94	5.433176
7	0xc0d0fac5	-6.5306115

block1.1.bn1.running_var f4 [8]
0	0x424c0526	51.005028
1	0x4130e6c6	11.056341
2	0x40ebf41e	7.3735495
3	0x41c8d357	25.103193
4	0x418e740a	17.80666
5	0x420c082b	35.007977
6	0x40db8af3	6.8607116
7	0x411ecb03	9.924563

block1.1.conv2.weight f4 [8, 8, 3, 3]
0	0xbf4398be	-0.7640494
1	0xbedef484	-0.43545926
2	0xbf0c96b0	-0.5491743
3	0x3ce2d80a	0.027690906
4	0xbd3039d5	-0.043023903
5	0xbf01785e	-0.5057429
6	0x3e31ea89	0.17374624
7	0xbe972c33	-0.2952591
8	0xbecd2b15	-0.4007193
9	0xbea55f47	-0.32299253
10	0xbeb1cb7d	-0.34725562
11	0xbe6722da	-0.22571889
12	0xbe25dcd2	-0.16197518
13	0x3ded4653	0.11585679
14	0xbf27d66c	-0.65561557
15	0x3e2acb3a	0.16679087
16	0x3d34cc10	0.04413992
17	0x3ede3bdb	0.4340504
18	0xbed927ec	-0.4241327
19	0xbf09c2bd	-0.5381277
20	0xbe9bf794	-0.30462325
21	0x3e258671	0.16164567
22	0xbe2b90f8	-0.1675452
23	0xbdddf05c	-0.108368605
24	0x3eb778d2	0.35834366
25	0xbde926d1	-0.11384357
26	0xbe1ee7f0	-0.15518165
27	0x3ef9c83e	0.48785585
28	0x3f019a59	0.5062614
29	0xbd4d1549	-0.050069127
30	0x3ed4d269	0.4156678
31	0x3f2200e7	0.63282627
32	0x3f115c08	0.56781054
33	0xbe9527c1	-0.29131892
34	0x3e51633e	0.20448014
35	0xbdcc6473	-0.09980097
36	0x3e42c3df	0.19020031
37	0xbf0d1c80	-0.5512161
38	0x3e7fe6f0	0.2499044
39	0x3ee4160c	0.4454807
40	0xbf223307	-0.6335911
41	0xbe40e990	-0.18839097
42	0x3ec29f6f	0.38012263
43	0x3e6b42cf	0.22974704
44	0x3ea32eff	0.31871793
45	0xbea6b7bd	-0.32562056
46	0xbee4d1b2	-0.44691235
47	0x3d0aee5b	0.03391872
48	0x3d03975e	0.032126777
49	0xbd96da33	-0.07365837
50	0x3db7c61e	0.08973335
51	0x3bf3e4e2	0.0074430564
52	0xbee7543a	-0.45181447
53	0xbdb2de61	-0.08733822
54	0x3e93a811	0.28839162
55	0x3f03061c	0.511812
56	0x3edc861b	0.43071064
57	0x3ee29350	0.44253016
58	0x3d4f8bc2	0.050670393
59	0x3e9a86f6	0.30181092
60	0x3eb21de3	0.34788427
61	0x3d5c42da	0.053774692
62	0x3ec24eba	0.3795069
63	0x3f437170	0.76344967
64	0x3f844cab	1.0335897
65	0xbd8cd679	-0.06876845
66	0x3e827907	0.25482962
67	0x3fa2aa56	1.2708232
68	0x3d2c3096	0.042038523
69	0xbf88d4a8	-1.0689898
70	0xbeac594f	-0.33661887
71	0xbf1e1700	-0.61753845
72	0xbeec0a2b	-0.46101508
73	0xbed5db76	-0.41768998
74	0x3db1792b	0.08665689
75	0xbdad87d5	-0.084731735
76	0xbed2cbff	-0.41171262
77	0xbeafbffc	-0.3432616
78	0xbd243ba6	-0.040095948
79	0xbe45277f	-0.19253348
80	0xbd886b99	-0.066611476
81	0xbe950046	-0.2910177
82	0xbe931895	-0.28729692
83	0xbea47806	-0.3212282
84	0xbdfe001e	-0.12402366
85	0xbe04015d	-0.12891145
86	0xbe5c0781	-0.21487238
87	0xbd9bb1b3	-0.07602253
88	0x3c93893c	0.018009774
89	0x3c8bdbd6	0.0170726
90	0xbef2c28e	-0.47414058
91	0xbeec1eb9	-0.4611719
92	0xbe672336	-0.22572026
93	0xbe3f4ecd	-0.18682404
94	0xbed3996f	-0.41327998
95	0xbef1fa82	-0.47261435
96	0x3e6b1d14	0.22960311
97	0x3d8e927a	0.06961532
98	0x3d20a31b	0.03921805
99	0x3e716f88	0.23577702
100	0xbd7a5979	-0.061120484
101	0xbc19430a	-0.009354362
102	0x3eef2e4a	0.46715003
103	0x3e654e71	0.22393204
104	0x3e3eb8cd	0.18625183
105	0x3e88814d	0.2666115
106	0x3e270a42	0.16312507
107	0x3e72257d	0.23647113
108	0xbd48f5bf	-0.049062487
109	0x3cfa5efc	0.03056287
110	0xbe959e25	-0.29222217
111	0xbf0fc73a	-0.5616337
112	0xbe8bdf9b	-0.27319035
113	0xbeb02ecf	-0.34410712
114	0xbdbdc556	-0.092661545
115	0x3ec9fce7	0.39450762
116	0x3f36abb0	0.71355724
117	0xbe07382a	-0.13205019
118	0xbeafcd1b	-0.3433617
119	0xbb60ad92	-0.0034283143
120	0xbefd90d6	-0.49524564
121	0xbed00103	-0.40625772
122	0xbda3ef4b	-0.08004626
123	0xbe8e2291	-0.27760747
124	0xbecd5cba	-0.40109807
125	0xbe32d365	-0.17463453
126	0xbeaf28a0	-0.34210682
127	0xbe6ff327	-0.23432599
128	0xbd609308	-0.05482772
129	0xbe944442	-0.28958327
130	0xbf0fa452	-0.5611011
131	0xbe135264	-0.14386898
132	0xbe27ade7	-0.16374932
133	0xbe8b16ca	-0.27165824
134	0x3ecd462a	0.40092593
135	0x3e0dfe78	0.13866603
136	0x3ee99e71	0.45628694
137	0x3e9ba33b	0.30397972
138	0x3ef90553	0.48636875
139	0x3ebd7a0c	0.37007177
140	0x3ae386d0	0.0017358903
141	0x3e8c41a2	0.27393824
142	0x3e88dd9a	0.2673157
143	0x3e12ecee	0.14348194
144	0xbe3ecfcf	-0.1863396
145	0x3cd3a906	0.025837433
146	0xbd2acfb1	-0.041701976
147	0xbf26c459	-0.6514335
148	0xbe92ef18	-0.2869804
149	0xbe75c3a4	-0.24000412
150	0xbee516d6	-0.44743985
151	0xbf13223a	-0.574741
152	0xbe562024	-0.20910698
153	0x3e0aff81	0.1357403
154	0xbe992315	-0.29909578
155	0x3e0fd6e2	0.14046815
156	0xbf6394d1	-0.8889895
157	0xbfa10137	-1.2578496
158	0xbecd37e0	-0.40081692
159	0xbea06fd8	-0.3133533
160	0xbea53722	-0.32268625
161	0x3dee8896	0.116471455
162	0x3e07fdf3	0.13280468
163	0xbdc75f41	-0.09734965
164	0xbd5f70a0	-0.054550767
165	0x3e93b1cb	0.28846583
166	0xbe861f2d	-0.2619566
167	0xbef27a6c	-0.47359025
168	0x3f5681f8	0.83792067
169	0x3ec03953	0.37543735
170	0xbdb7cc08	-0.08974463
171	0x3f73a719	0.95176846
172	0x3e52804f	0.20556758
173	0x3e578d13	0.2104991
174	0x3e6491a1	0.22321178
175	0x3d8da3bd	0.06915996
176	0xbdff20f4	-0.12457457
177	0x3c61b570	0.013776168
178	0x3e794e96	0.24346384
179	0x3d933216	0.071872875
180	0xbf070164	-0.52736497
181	0xbee2fefe	-0.4433517
182	0xbd58c6c8	-0.052923948
183	0xbf3ae566	-0.73006284
184	0xbf20addd	-0.62765294
185	0xbc18782c	-0.009305995
186	0xbe9d49c9	-0.30720356
187	0xbee0812f	-0.4384856
188	0xbc90315a	-0.017601658
189	0x3e8c06b5	0.27348867
190	0xbc89f6ca	-0.016841311
191	0xbc0c0710	-0.008546606
192	0x3f16e938	0.58949614
193	0xbd5447c5	-0.051826257
194	0xbcdc48f8	-0.026890263
195	0x3df0c047	0.11755424
196	0xbe1dee6a	-0.15422979
197	0x3e15d4fd	0.1463203
198	0xbf3e9a48	-0.74454165
199	0xbec3a3ea	-0.38210994
200	0xbe567a57	-0.20945106
201	0xbf82671c	-1.0187716
202	0xbeee067a	-0.46489316
203	0x3e1b04e5	0.15138586
204	0xbfa527db	-1.2902788
205	0xbf270d80	-0.65254974
206	0xbf0e8ada	-0.5568062
207	0x3de9c3a9	0.11414272
208	0x3f5e0c79	0.8673778
209	0x3cd308a9	0.025760965
210	0xbe80a2a7	-0.25124094
211	0x3da50c1a	0.08058949
212	0xbd8eb437	-0.06967967
213	0xbe89c940	-0.26911354
214	0x3f1b9a40	0.6078224
215	0x3e60f4e3	0.21968417
216	0xbe314b07	-0.17313777
217	0x3e93e5c6	0.2888624
218	0x3ddfccf1	0.10927761
219	0x3a0f7614	0.0005472612
220	0xbd1bce5f	-0.038038608
221	0xbe7cc4c9	-0.24684443
222	0xbd1b0a57	-0.037851658
223	0xbbbef928	-0.0058280416
224	0x3eccdfa5	0.40014377
225	0xbe208d0c	-0.15678805
226	0x3cf4e209	0.029892938
227	0xbd69c0a5	-0.057068486
228	0xbe5f7a1f	-0.21823929
229	0xbde12ac3	-0.10994484
230	0xbe9f7790	-0.31145906
231	0xbe1de736	-0.15420231
232	0x3e45c901	0.19314958
233	0xbd36df8f	-0.044646796
234	0xbe5287ab	-0.20559566
235	0xbe7e5f77	-0.24841104
236	0xbd4c2a89	-0.049845252
237	0x3f00dbcf	0.503354
238	0xbe30980b	-0.172455
239	0xbe8ed073	-0.2789341
240	0x3ec6baab	0.3881429
241	0x3d85d1a6	0.06534128
242	0x3e362caa	0.17790475
243	0xbe25e249	-0.16199602
244	0xbe1383e6	-0.14405784
245	0x3d122161	0.035676364
246	0xbe020680	-0.12697792
247	0x3e744e83	0.23858075
248	0x3da3b265	0.079930104
249	0xbe681a94	-0.22666389
250	0xbe2060dd	-0.1566195
251	0xbdd6a5e1	-0.10480858
252	0xbda0ec5a	-0.078575805
253	0x3f038d37	0.5138735
254	0x3f293d2c	0.66108966
255	0x3eaa1937	0.33222362

block1.1.bn2.weight f4 [8]
0	0x3f95c325	1.1700178
1	0x3db08804	0.08619693
2	0x3f5cf74f	0.8631486
3	0x3ef00e6d	0.46886006
4	0xbe33f3cb	-0.17573468
5	0x3e1d94fe	0.15388867
6	0x3fb9f4d9	1.4527847
7	0x3f8a99a8	1.0828142

block1.1.bn2.bias f4 [8]
0	0x3f518c7b	0.8185498
1	0x3db71206	0.089389846
2	0x3f9d9880	1.2312164
3	0x3f030b6d	0.5118931
4	0x3f3ffbe8	0.74993753
5	0xbf0758ce	-0.5286988
6	0xbf0dbcdb	-0.55366296
7	0x3f98c58a	1.1935284

block1.1.bn2.running_mean f4 [8]
0	0x3ffcf757	1.9762982
1	0xbec520f4	-0.38501704
2	0xc0c2c057	-6.085979
3	0xbf02969d	-0.5101107
4	0xc10c8ea9	-8.784829
5	0xc04289ec	-3.039668
6	0x3e94a293	0.29030284
7	0xbf81a671	-1.0128919

block1.1.bn2.running_var f4 [8]
0	0x40fe9d48	7.9566994
1	0x4118098c	9.502331
2	0x419390c6	18.44569
3	0x40ef3528	7.475239
4	0x416f1eb9	14.945001
5	0x4200e084	32.219254
6	0x40c8744e	6.2641973
7	0x40f806df	7.7508388

block1.1.conv3.weight f4 [16, 8, 1, 1]
0	0x3dfaad37	0.12240069
1	0xbba457a6	-0.0050153313
2	0x3c47385f	0.012159436
3	0xbe461a39	-0.1934594
4	0xbf52ddea	-0.82369864
5	0x3da92e80	0.08260822
6	0x3ed39c27	0.41330072
7	0xbf4e73b1	-0.8064528
8	0x3e2eea85	0.1708165
9	0xbd7f2429	-0.062290344
10	0xbea9dce1	-0.3317633
11	0xbede7690	-0.4344983
12	0xbe00641a	-0.12538186
13	0xbeae306d	-0.3402132
14	0xbf715079	-0.94263417
15	0x3e9ba0f8	0.30396247
16	0xbdf4cb32	-0.11952819
17	0x3f60d542	0.87825406
18	0x3e9a76de	0.30168813
19	0x3cf2b6a8	0.029628113
20	0x3f07d5f9	0.5306087
21	0xbe52b738	-0.20577705
22	0x3f84fa2a	1.0388844
23	0xbe9b05a7	-0.3027775
24	0x3ed81ee7	0.42211077
25	0x3eb42b03	0.35189065
26	0xbf18ff8d	-0.5976494
27	0xbf03231c	-0.5122545
28	0xbf159876	-0.5843576
29	0x3e50ef07	0.20403682
30	0xbea93831	-0.33050683
31	0x3ec3798f	0.3817868
32	0x3e709119	0.2349285
33	0x3f375818	0.71618795
34	0x3e7bec53	0.2460187
35	0x3d969db8	0.07354301
36	0x3e52cd6f	0.20586179
37	0xbe8420b7	-0.2580621
38	0xbd9c62fd	-0.07636068
39	0x3fc43a77	1.5330342
40	0xbec0c27e	-0.37648386
41	0x3f216688	0.63047075
42	0xbf227df2	-0.6347343
43	0xbe8fcab8	-0.2808435
44	0xbef9bc94	-0.48776686
45	0xbf25f02d	-0.64819604
46	0xbe27ce71	-0.16387345
47	0xbebddad2	-0.3708101
48	0xbf1b7434	-0.60724187
49	0xbed119be	-0.40839952
50	0x3f9b8f4e	1.2153108
51	0xbeb42869	-0.3518708
52	0xbe6f374f	-0.23360942
53	0xbf0c088a	-0.5470053
54	0xbe23082d	-0.15921088
55	0x3e681d9c	0.22667545
56	0xbf29a35f	-0.6626491
57	0x3c6c826a	0.01443539
58	0x3f4d399e	0.8016604
59	0x3e97e0f9	0.29663828
60	0xbe88d413	-0.267243
61	0xbdc28c1c	-0.0949938
62	0xbf1c4a73	-0.610511
63	0x3f2deb94	0.6793759
64	0x3f33d0c1	0.7024041
65	0x3eb32ba1	0.34994224
66	0x3f6f3d39	0.93452793
67	0xbee330b4	-0.44373095
68	0xbe739baa	-0.2378985
69	0x3eeed172	0.4664417
70	0xbd8fe5f6	-0.070262834
71	0x3e5347ce	0.2063286
72	0x3d60f5c4	0.05492188
73	0x3e9341e9	0.28761223
74	0x3f375b83	0.7162401
75	0x3ec8a1ef	0.39186046
76	0xbe78fb35	-0.24314578
77	0x3eb10228	0.34571958
78	0x3f698a10	0.9122629
79	0xbf2815b0	-0.6565809
80	0xbf249584	-0.6429064
81	0x3eced398	0.40395808
82	0x3f0d852a	0.5528132
83	0xbce53c35	-0.02798281
84	0x3f02c29d	0.51078206
85	0xbf359250	-0.7092638
86	0x3ee537b3	0.44769058
87	0xbf1d5653	-0.61459845
88	0xbfba87a6	-1.4572647
89	0xbed7e689	-0.42168072
90	0x3cfaa805	0.030597696
91	0x3eb65845	0.3561422
92	0xbe028da2	-0.12749341
93	0x3ec25527	0.3795559
94	0x3f02dcf4	0.511184
95	0xbed827dd	-0.42217913
96	0x3f3d944a	0.74054396
97	0xbce729aa	-0.02821811
98	0x3f6dbe2c	0.92868304
99	0xbe2e0666	-0.16994628
100	0xbebb0ad9	-0.36531714
101	0x3cc58d0f	0.024115114
102	0x3e217d9f	0.15770577
103	0xbd896304	-0.06708339
104	0xbe5c0f8f	-0.2149031
105	0xbe99694b	-0.29963145
106	0x3e8e8442	0.2783528
107	0x3f2b8a3d	0.6700781
108	0xbdb9afe8	-0.090667546
109	0xbeceb108	-0.4036944
110	0xbf9b943a	-1.215461
111	0xbf2b5064	-0.6691954
112	0xbf5e7d67	-0.869101
113	0xbec27727	-0.3798153
114	0x3f0f7c3f	0.5604896
115	0xb970d4fc	-0.00022967526
116	0xbb3551e1	-0.0027667212
117	0x3e8c4110	0.2739339
118	0xbda50f41	-0.0805955
119	0xbf1b950a	-0.6077429
120	0xbf89c9ee	-1.0764749
121	0x3ed84cc1	0.4224606
122	0xbe93809f	-0.28809068
123	0xbef88793	-0.48540935
124	0xbe099e12	-0.13439205
125	0xbf634d85	-0.8879016
126	0x3f283b5e	0.6571559
127	0xbed558b8	-0.4166925

block1.1.bn3.weight f4 [16]
0	0x3e2bc60c	0.16774768
1	0x3ec70379	0.38869837
2	0x3ee110ce	0.43958133
3	0x3e07b81b	0.13253824
4	0x3fc6b03d	1.5522534
5	0x3adfa26b	0.0017061954
6	0x3eeecd6b	0.46641096
7	0x3f88a9a8	1.0676775
8	0x3fd46833	1.6594299
9	0x3f52d4bb	0.8235585
10	0x3ee631cd	0.4495987
11	0x3e03cc62	0.12870935
12	0x3ed78d5a	0.4210003
13	0x3f1c06c4	0.60947824
14	0x3e7fee56	0.24993262
15	0x3eeccf0b	0.4625171

block1.1.bn3.bias f4 [16]
0	0xbc82baf6	-0.01595829
1	0xbe7967d3	-0.24356012
2	0xbcf429dd	-0.029805118
3	0xbef0b9de	-0.47016805
4	0xbe2d896b	-0.16946952
5	0xbf4da8d1	-0.8033572
6	0x3e5780ac	0.21045178
7	0xbe511c8f	-0.2042105
8	0xbd626bd1	-0.055278603
9	0x3f01d908	0.5072179
10	0x3dd13c9b	0.10216638
11	0xbdfe6616	-0.12421815
12	0xbefcd5c9	-0.49381855
13	0x3edfefae	0.4373755
14	0xbdb51e5b	-0.088436805
15	0x3e9da730	0.30791616

block1.1.bn3.running_mean f4 [16]
0	0xbfc0e579	-1.507003
1	0xbeea596a	-0.45771343
2	0x3f31ca35	0.6944917
3	0xbf22ef66	-0.63646543
4	0x402f1fb2	2.7363095
5	0xc00a3ff2	-2.160153
6	0x3f4f7ed5	0.81052905
7	0x3f889682	1.0670931
8	0x3fdf67d8	1.7453566
9	0x3ef06c8b	0.46957812
10	0xbe2193c0	-0.15779018
11	0xbfde022a	-1.734441
12	0x3fc0be26	1.5058029
13	0xbf42b717	-0.7606062
14	0xbf7b8ea2	-0.98264515
15	0xc0064cc7	-2.098436

block1.1.bn3.running_var f4 [16]
0	0x3f16b560	0.58870506
1	0x3f1255e7	0.57162327
2	0x3f166fe6	0.58764493
3	0x3ef5dbf8	0.48019385
4	0x40098c64	2.1491938
5	0x3ee779a3	0.4520999
6	0x3f810d90	1.0082264
7	0x3f8568ee	1.0422647
8	0x3fb1c830	1.3889217
9	0x3f81beb4	1.0136323
10	0x3f603fa6	0.8759712
11	0x40198e16	2.3992972
12	0x3f9cd21f	1.2251624
13	0x3f7e6215	0.9936841
14	0x3f8ff3c7	1.124627
15	0x3fbce0e7	1.4756135

block1.2.conv1.weight f4 [8, 16, 1, 1]
0	0x3f0f5c0f	0.55999845
1	0x3f765011	0.9621592
2	0x3e2675eb	0.1625592
3	0xbdd5385d	-0.10411141
4	0x3d4aff9b	0.04956017
5	0xbe07a994	-0.13248283
6	0xbdec0415	-0.11524216
7	0xbf1be789	-0.6090017
8	0x3e1db3c0	0.154006
9	0x3e83620f	0.2566075
10	0xbed67af8	-0.41890693
11	0x3fdf9d69	1.7469913
12	0xbe1acc76	-0.15117058
13	0xbec75e2e	-0.3893904
14	0x3efc17eb	0.49236998
15	0xbe8aa24f	-0.27076957
16	0xbdcba666	-0.09943847
17	0xbd37dc36	-0.044887744
18	0xbea60a78	-0.32429862
19	0xbeb12546	-0.3459875
20	0xbe2f8081	-0.17138864
21	0xbf37a407	-0.7173466
22	0x3f300143	0.68751925
23	0xbef568bf	-0.47931477
24	0x3e08a0cb	0.13342588
25	0x3e9623ee	0.29324287
26	0x3e1bf85a	0.15231457
27	0xbe6eb5fd	-0.2331161
28	0xbec6ce0b	-0.38829073
29	0x3f702f17	0.93821853
30	0xbe689b6a	-0.22715536
31	0xbe480aca	-0.19535366
32	0xbf82a906	-1.0207832
33	0x3c3ffcff	0.011718034
34	0xbe73611e	-0.23767516
35	0x3cf80820	0.030277312
36	0xbec25738	-0.37957168
37	0xbeaa6595	-0.33280626
38	0x3e82ced6	0.25548428
39	0x3ece4436	0.40286416
40	0xbd0d9783	-0.03456832
41	0x3ec9399a	0.3930176
42	0xbf0d9559	-0.5530601
43	0xbe4d6c1a	-0.20060769
44	0xbdddb78c	-0.108260244
45	0x3ec32d89	0.38120678
46	0x3eece3b9	0.4626749
47	0xbe7d0ede	-0.24712703
48	0x3f2faad3	0.6862003
49	0xbe430b18	-0.190472
50	0x3e651bf3	0.22373943
51	0x3dd901c9	0.105960436
52	0xbd46db5a	-0.048549034
53	0xbf9abe95	-1.2089411
54	0x3f347a1d	0.7049883
55	0x3e83d383	0.25747308
56	0x3da189b8	0.07887596
57	0x3ec51e84	0.38499844
58	0x3e4494c5	0.19197376
59	0x3f03b498	0.5144744
60	0xbe2f5600	-0.1712265
61	0x3ef5fd83	0.48044977
62	0xbc88be08	-0.016692176
63	0xbdf50938	-0.11964649
64	0xbeb40dea	-0.35166866
65	0x3e53f853	0.20700197
66	0xbc51f27a	-0.012814159
67	0x3df3709e	0.118867144
68	0xbda0d16c	-0.07852444
69	0x3e01887e	0.12649724
70	0x3ebae023	0.36499128
71	0xbe5734e7	-0.21016274
72	0xbeef9924	-0.46796525
73	0x3cd7b2ca	0.02633037
74	0x3f75c393	0.9600155
75	0x3d1f3c3e	0.03887581
76	0xbf19f072	-0.60132515
77	0x3e8cd03e	0.27502626
78	0xbed544a4	-0.4165393
79	0x3d9feea6	0.078091905
80	0xbe450754	-0.19241077
81	0x3e358d49	0.17729677
82	0xbe35d5f5	-0.177574
83	0x3e2deb24	0.1698423
84	0xbf13e8f6	-0.57777345
85	0x3f19476b	0.598746
86	0x3f404bf5	0.751159
87	0xbe840b92	-0.25790077
88	0x3e0fda88	0.14048207
89	0x3dc9137e	0.09818171
90	0xbf835e44	-1.0263143
91	0x3b11d8ce	0.002225447
92	0x3df9ebc3	0.12203171
93	0x3f8f0899	1.1174499
94	0xbef02a63	-0.46907339
95	0xbe6bed18	-0.23039663
96	0xbe909b20	-0.2824335
97	0x3f04401a	0.5166031
98	0xbed659d2	-0.41865402
99	0x3e5220af	0.2052028
100	0x3e2c5e4b	0.16832845
101	0xbeda16c5	-0.42595497
102	0x3f23b7f3	0.6395256
103	0x3f02555a	0.50911486
104	0x3d7def5c	0.06199585
105	0xbeb2e99e	-0.3494386
106	0x3b71a6e0	0.0036873147
107	0xbf197873	-0.59949416
108	0xbe1ceff2	-0.15325907
109	0xbdbeb589	-0.09311969
110	0xbee9616a	-0.45582134
111	0xbe32a537	-0.17445837
112	0xbd89b7ee	-0.06724535
113	0xbe4c2962	-0.19937661
114	0xbeea9369	-0.4581559
115	0x3d5b1674	0.05348821
116	0x3ebb9f54	0.36644995
117	0x3eb09bad	0.3449377
118	0xbec32864	-0.38116753
119	0xbebdf125	-0.3709804
120	0x3ed32de6	0.41245955
121	0x3ebf52ef	0.3736796
122	0x3e3f44de	0.18678614
123	0x3e6be46b	0.23036353
124	0x3d845161	0.06460834
125	0xbf11e975	-0.5699685
126	0xbf4f0cb7	-0.80878776
127	0xbf241150	-0.64088917

block1.2.bn1.weight f4 [8]
0	0x3fc985dc	1.5743976
1	0x3f042007	0.5161137
2	0x3f43a482	0.76422894
3	0x3f6b2e7d	0.9186781
4	0x3f25a695	0.6470731
5	0x3f59271a	0.8482529
6	0x3ecd4e41	0.40098765
7	0x3f17063e	0.589939

block1.2.bn1.bias f4 [8]
0	0x3eeb72f9	0.45986155
1	0xbf4833e1	-0.7820416
2	0x3d879124	0.0661948
3	0x3ea28f8f	0.31750152
4	0xbec3fca6	-0.38278693
5	0x3f6ea077	0.932136
6	0xbe9e7c2d	-0.30954114
7	0x3f04b809	0.51843315

block1.2.bn1.running_mean f4 [8]
0	0x40c9bd6c	6.304373
1	0x3d7a68a7	0.06113496
2	0xc0a1b7e9	-5.0537
3	0x40bfef6f	5.9979777
4	0x40140387	2.3127153
5	0xc00f5f32	-2.2401853
6	0xc051f3ad	-3.2804978
7	0xc05466a7	-3.3187654

block1.2.bn1.running_var f4 [8]
0	0x4240402e	48.062675
1	0x4115df44	9.367008
2	0x40f1178a	7.5341234
3	0x41295cdd	10.585172
4	0x40b1d10d	5.556769
5	0x412c00c2	10.750185
6	0x4123bb56	10.233236
7	0x4107ceb6	8.487967

block1.2.conv2.weight f4 [8, 8, 3, 3]
0	0xbe64c59a	-0.22341004
1	0xbf0e1406	-0.55499303
2	0xbd02b6e2	-0.031912692
3	0xbebdea2c	-0.3709272
4	0xbf626df0	-0.88449
5	0xbea729f7	-0.32649204
6	0xbebafe7b	-0.36522278
7	0xbdba5e52	-0.091000214
8	0x3d8e6c28	0.06954223
9	0x3ee17a6f	0.44038722
10	0x3ec33d3b	0.38132653
11	0x3e58ffbe	0.21191308
12	0x3ed8507f	0.42248914
13	0xbebb2de2	-0.36558443
14	0xbf1360d4	-0.57569623
15	0x3f0341d9	0.5127235
16	0xbd47c141	-0.048768286
17	0x3e17df63	0.14831309
18	0x3ed402b1	0.41408303
19	0x3f26f25b	0.65213555
20	0xbe015167	-0.12628709
21	0xbd3cf84a	-0.046135224
22	0x3e1a8cd9	0.15092792
23	0xbee3f408	-0.4452212
24	0x3dfc31be	0.12314175
25	0xbe553516	-0.20821032
26	0xbeacb7ec	-0.3373407
27	0x3ed59837	0.41717693
28	0x3f09c531	0.53816515
29	0x3e1d3bac	0.15354794
30	0x3eb34f2d	0.35021344
31	0xbe92741c	-0.2860421
32	0xbea001c5	-0.3125135
33	0x3efe6ed3	0.49693927
34	0x3b2b2852	0.0026116562
35	0xbe80af7d	-0.25133887
36	0x3ecc319b	0.39881596
37	0xbdab9c90	-0.08379471
38	0xbe2a12fa	-0.16608801
39	0x3e803e35	0.2504746
40	0x3e4ebfcc	0.20190352
41	0xbd97e167	-0.07416039
42	0xbdffe076	-0.124939844
43	0xbe9de4c1	-0.30838588
44	0xbe17aba1	-0.14811565
45	0x3eef28ec	0.46710908
46	0xbe869d14	-0.26291716
47	0xbeeef570	-0.4667163
48	0x3f9a44c4	1.2052236
49	0xbdf9ad17	-0.121912174
50	0xbf211863	-0.62927836
51	0x3f3db331	0.7410155
52	0xbe3e7a3d	-0.18601318
53	0xbe92bbfc	-0.28659046
54	0x3eb59767	0.35467073
55	0x3d114d7b	0.03547428
56	0xbd7d78a6	-0.061882637
57	0x3e846903	0.25861368
58	0x3ca61f7a	0.020278681
59	0xbcf84e84	-0.030310877
60	0x3df4e60e	0.11957942
61	0x3e1b734f	0.15180705
62	0xbe9c62aa	-0.30544025
63	0xbe0931fe	-0.13397977
64	0xbea27a8b	-0.31734118
65	0xbd7a5ea1	-0.0611254
66	0xbda7c21d	-0.08191321
67	0x3eccb1e1	0.3997946
68	0x3e6360b7	0.22204863
69	0x3d0b2590	0.03397137
70	0x3e905db6	0.28196496
71	0x3e8db0db	0.27673993
72	0xbea1ebcc	-0.3162521
73	0x3f27d014	0.6555188
74	0x3cbb9d97	0.022902293
75	0x3f19e126	0.60109174
76	0x3f791997	0.9730467
77	0x3f1a395c	0.60243773
78	0xbf24bf36	-0.64354265
79	0xbf35435b	-0.708059
80	0xbf49460b	-0.786225
81	0xbe5edf89	-0.2176496
82	0xbe27ab46	-0.1637393
83	0xbe9371ec	-0.28797853
84	0x3e34f7da	0.17672673
85	0xbe80c7bc	-0.25152385
86	0xbe6588f4	-0.22415525
87	0xbd882275	-0.06647197
88	0xbf35a95d	-0.7096155
89	0xbeffe16f	-0.4997668
90	0xbf0096db	-0.5023019
91	0xbe73f472	-0.23823717
92	0xbf03d907	-0.5150303
93	0x3c3f9b93	0.011694807
94	0x3ea70de4	0.32627785
95	0xbe1feac5	-0.15616901
96	0x3eb28189	0.34864452
97	0x3eaa8601	0.33305362
98	0x3ebcdede	0.36888784
99	0xbe915078	-0.28381705
100	0xbd4ba17e	-0.049714558
101	0xbd0e79c2	-0.034784086
102	0xbdd72abe	-0.10506199
103	0xbe8d973b	-0.27654442
104	0x3ece4f14	0.40294707
105	0x3d9f339e	0.07773517
106	0xbc3b106a	-0.011417488
107	0xbe3c74c8	-0.18403924
108	0xbe4cecf9	-0.20012273
109	0x3f1d2e38	0.6139865
110	0xbe17afcd	-0.14813156
111	0x3da90689	0.082531996
112	0x3eebb479	0.46036127
113	0xbe8fb3b2	-0.28066784
114	0x3da5a39d	0.080878474
115	0x3f264391	0.6494685
116	0x3ec719eb	0.3888696
117	0x3ea324b5	0.31863943
118	0x3ea43c67	0.32077333
119	0x3e4de49b	0.20106737
120	0x3e365061	0.178041
121	0xbf3bffdf	-0.73437303
122	0xbeff6e5b	-0.49888882
123	0x3e12909d	0.14312978
124	0x3dd8b4cb	0.105813585
125	0xbec5a26e	-0.38600487
126	0xbe833182	-0.2562371
127	0x3dc28ac5	0.094991244
128	0xbc0a0891	-0.008424894
129	0xbe3167eb	-0.17324798
130	0xbc813dc7	-0.015776528
131	0x3ddd2711	0.10798467
132	0x3d98a78a	0.074538305
133	0x3d1ccf8d	0.038283873
134	0xbd554f46	-0.052077554
135	0x3cdeb748	0.027187005
136	0xbf41688c	-0.7555015
137	0xbe4d14a6	-0.20027408
138	0xbe9af14d	-0.30262223
139	0x3db6905a	0.089142516
140	0xbe361f20	-0.17785311
141	0xbe12f34d	-0.14350624
142	0xbe94fb40	-0.2909794
143	0xbe878273	-0.26466712
144	0xbbc17adc	-0.0059045386
145	0x3ec6cbca	0.38827354
146	0xbe421757	-0.18954216
147	0x3eb44ce6	0.3521492
148	0x3fd39b30	1.6531734
149	0x3e8d5e8b	0.27611193
150	0xbe245973	-0.16049747
151	0x3f104daa	0.56368506
152	0xbdb22178	-0.0869779
153	0xbeda4510	-0.42630816
154	0xbac595fd	-0.0015074607
155	0xbe2375e1	-0.15962936
156	0xbde7441e	-0.11292289
157	0x3da574ec	0.08078942
158	0xbe0a0818	-0.1347965
159	0xbe439d76	-0.19103035
160	0xbdbce08b	-0.09222516
161	0xbe1b3f70	-0.15160918
162	0xbe97b69f	-0.29631516
163	0xbdae70b0	-0.08517587
164	0xbeaefb0e	-0.34175915
165	0xbe73b595	-0.23799737
166	0x3ccc9c61	0.024976911
167	0xbde6de35	-0.112728514
168	0xbe2bbe50	-0.16771817
169	0x3d205c07	0.039150264
170	0xbc3f1573	-0.011662829
171	0xbe501824	-0.20321709
172	0xbeffe881	-0.49982074
173	0xbee17216	-0.44032353
174	0x3dfe85e2	0.1242788
175	0x3e9a75f3	0.30168113
176	0x3df535cb	0.11973151
177	0x3eb4f2c0	0.35341454
178	0x3e564189	0.20923437
179	0xbe55bc91	-0.20872714
180	0xbd9aea31	-0.075642
181	0x3cf9b44d	0.030481482
182	0xbdef4646	-0.116833255
183	0xbe1c9a04	-0.15293127
184	0xbde23a83	-0.110463165
185	0x3c0fbb47	0.008772678
186	0xbdb98779	-0.090590425
187	0x3f11fb06	0.57023656
188	0x3e7d0ad6	0.24711165
189	0x3e8d16da	0.27556497
190	0x3eba90e0	0.36438656
191	0xbe9eae38	-0.30992293
192	0x3da1d234	0.07901421
193	0xbed6ecdc	-0.41977584
194	0xbe6f552c	-0.23372334
195	0x3ec8e979	0.39240626
196	0x3e75735c	0.23969787
197	0xbde43b14	-0.11144081
198	0xbda00f96	-0.07815473
199	0x3d8fcfc8	0.07022053
200	0x3dffab7b	0.12483879
201	0xbb609994	-0.0034271227
202	0xbcf0b993	-0.029385364
203	0xbeb1bd72	-0.34714848
204	0xbe88477a	-0.26617032
205	0xbec19b7c	-0.37813938
206	0x3d9c198b	0.076220594
207	0x3eab667a	0.3347662
208	0x3b925dca	0.004466747
209	0xbd269996	-0.040673815
210	0x3ea9f853	0.3319727
211	0x3eef32d1	0.46718457
212	0x3cfe4b75	0.03104184
213	0xbdb9bf18	-0.09069651
214	0x3e21a44b	0.15785329
215	0x3dd27065	0.10275344
216	0xbf1d0a46	-0.613438
217	0x3f50ba16	0.81533945
218	0x3e66f001	0.22552492
219	0xbf15f59c	-0.58577895
220	0xbecfce51	-0.40587094
221	0xbe87e6b6	-0.26543206
222	0x3e1dc40e	0.1540682
223	0x3eb980a7	0.36230966
224	0x3f5f3a0c	0.8719795
225	0xbe36b6e6	-0.17843208
226	0x3e247318	0.1605953
227	0xbeb618b4	-0.35565722
228	0xbf1a8a9f	-0.6036777
229	0x3c21f050	0.009883955
230	0xbed91942	-0.42402083
231	0xbda29caf	-0.07940041
232	0xbea13520	-0.31485844
233	0xbe4bc396	-0.19898829
234	0xbeb673a1	-0.35635093
235	0x3c11f811	0.008909241
236	0x3e267502	0.16255572
237	0x3ec442a9	0.38332108
238	0x3acb39dc	0.0015504914
239	0x3dbe71d8	0.09299058
240	0xbccb13a8	-0.024789646
241	0xbe19349d	-0.14961477
242	0x3d201028	0.039077908
243	0xbeaeab5c	-0.34115112
244	0xbed17761	-0.4091139
245	0xbe51b261	-0.20478202
246	0xbedcf840	-0.4315815
247	0xbf5d177a	-0.8636395
248	0xbf178c65	-0.591986
249	0xbef72473	-0.48269996
250	0xbea749ff	-0.32673642
251	0xbf51ed1a	-0.82002413
252	0x3e314cd1	0.1731446
253	0x3f3a13b5	0.7268632
254	0x3f13a83c	0.5767858
255	0xbeeedf3c	-0.4665469

block1.2.bn2.weight f4 [8]
0	0x3f81a38d	1.0128037
1	0x3f945ecb	1.1591429
2	0x3fcf6af1	1.6204511
3	0x3ef46aa8	0.47737622
4	0x3f6e5f79	0.9311443
5	0x3f036843	0.51330966
6	0x3f874c20	1.0570107
7	0x3f3705c5	0.7149318

block1.2.bn2.bias f4 [8]
0	0x3d890fb8	0.06692451
1	0x3e8db8b1	0.2767997
2	0xbed26b70	-0.41097593
3	0x3f30ae3f	0.6901588
4	0xbd2391f2	-0.039934106
5	0xbd3e948f	-0.046528395
6	0xbda7e513	-0.08197989
7	0xbe9e9941	-0.30976298

block1.2.bn2.running_mean f4 [8]
0	0xbeecd18e	-0.46253628
1	0xbf9e28de	-1.2356222
2	0x40192c8a	2.3933434
3	0xc09c8c5f	-4.892135
4	0x4043e18d	3.0606415
5	0x3dcfb7e8	0.10142499
6	0xbf453188	-0.77028704
7	0xbfb85567	-1.4401063

block1.2.bn2.running_var f4 [8]
0	0x40cd4566	6.4147215
1	0x4090004f	4.5000377
2	0x41726530	15.149704
3	0x410d825d	8.844327
4	0x40f40267	7.6252933
5	0x4000d5d9	2.0130522
6	0x40781796	3.8764396
7	0x40abec74	5.372614

block1.2.conv3.weight f4 [16, 8, 1, 1]
0	0xbf0be38d	-0.5464409
1	0xbdf4cb26	-0.1195281
2	0xbe8a28c2	-0.2698422
3	0xbf6bccac	-0.9210918
4	0x3e91b8ee	0.28461403
5	0x3f01ce6f	0.5070562
6	0xbe1c8f1b	-0.15288965
7	0xbe8edb78	-0.27901816
8	0x3ea53639	0.3226793
9	0xbd4bc18a	-0.04974512
10	0xbef93b0e	-0.48677868
11	0x3e0a3291	0.13495852
12	0x3f76e29a	0.96439517
13	0xbe205a7e	-0.1565952
14	0x3eb4130d	0.35170785
15	0x3dd879cf	0.10570108
16	0xbe9aff92	-0.3027311
17	0x3e187086	0.14886674
18	0xbee74242	-0.45167738
19	0xbefd2b5d	-0.49447146
20	0xbed381bd	-0.4130992
21	0xbdf19fa8	-0.1179803
22	0xbedd679b	-0.43243107
23	0xbcdf5001	-0.027259829
24	0xbddf4624	-0.1090205
25	0x3f0e1505	0.55500823
26	0xbe7b7fe9	-0.24560513
27	0x3e64f714	0.22359878
28	0xbf0d485c	-0.55188537
29	0xbe062429	-0.13099732
30	0xbe69d8ce	-0.2283661
31	0x3f481c42	0.7816812
32	0xbc44b559	-0.012006127
33	0x3fa511c5	1.2896048
34	0xbd9ab028	-0.075531304
35	0xbe3a1dfc	-0.181755
36	0xbec841f9	-0.39112833
37	0xbdbdf75d	-0.092756964
38	0x3e50d042	0.20391944
39	0xbe2d50e9	-0.16925396
40	0x3f3150c6	0.69263875
41	0xbe395f27	-0.18102704
42	0xbec59f55	-0.38598123
43	0xbe500b0d	-0.20316716
44	0xbdc2b5d7	-0.095073394
45	0xbe63aaab	-0.22233073
46	0x3e53e260	0.20691824
47	0x3d67b64d	0.05657034
48	0xbf2492d3	-0.64286536
49	0xbe6f5829	-0.23373474
50	0xbc1fd213	-0.009754675
51	0xbef91257	-0.48646805
52	0xbf4c0bce	-0.7970551
53	0xbf373389	-0.7156301
54	0x3f06db27	0.5267815
55	0x3e3fa460	0.18715048
56	0xbeb4ce4d	-0.35313645
57	0xbd8dd035	-0.06924478
58	0x3ead8c83	0.33896264
59	0x3f060435	0.5235017
60	0x3d6f6b19	0.058451746
61	0x3ef0eb97	0.4705474
62	0xbeadd45c	-0.3395108
63	0xbe99147d	-0.29898444
64	0x3ddc3f8a	0.107543066
65	0x3e7dd249	0.24787249
66	0x3f076dc9	0.52901894
67	0xbd2c84ce	-0.04211884
68	0xbde171d4	-0.11008039
69	0x3e542122	0.20715764
70	0xbf478334	-0.77934575
71	0x3e9e97c8	0.30975175
72	0x3f0086b2	0.5020553
73	0x3e627708	0.2211572
74	0xbf0bfde7	-0.546843
75	0xbd74ca45	-0.05976321
76	0x3ed7ec04	0.42172253
77	0x3e5dc962	0.21658853
78	0x3f14ca9b	0.5812165
79	0xbdfc274f	-0.12312185
80	0x3e0b6d73	0.1361597
81	0xbef0abb4	-0.47006
82	0x3e93d544	0.28873646
83	0x3f8d1286	1.1021278
84	0xbdceb2dd	-0.10092709
85	0x3dbf535c	0.093420714
86	0x3f21a209	0.6313787
87	0xbee6c95a	-0.45075494
88	0xbe13a301	-0.1441765
89	0xbec543de	-0.3852834
90	0xbfc73a30	-1.5564632
91	0xbed42cb7	-0.41440365
92	0xbd3a03fa	-0.04541395
93	0x3ce34383	0.027742153
94	0xbebdc33c	-0.37063015
95	0xbcd34a61	-0.025792303
96	0x3f551b32	0.8324462
97	0xbe902aed	-0.2815775
98	0xbed221b5	-0.4104134
99	0x3e0d1649	0.13778032
100	0xbe71cec9	-0.23614039
101	0x3c5bc1b4	0.013412882
102	0x3f0a0aed	0.5392292
103	0x3f10d776	0.5657877
104	0xbeceb060	-0.40368938
105	0x3e40be86	0.18822679
106	0xbf220833	-0.6329376
107	0x3ed97dec	0.42478883
108	0xbf706472	-0.9390327
109	0xbe7f5713	-0.2493556
110	0x3efcd825	0.49383655
111	0xbf48dd35	-0.78462535
112	0xbdc44838	-0.09584087
113	0xbf955b29	-1.1668445
114	0xbf08f78f	-0.53502744
115	0xbedc37ea	-0.4301141
116	0xbf36c3f4	-0.7139275
117	0xbe21ad15	-0.15788682
118	0x3ed9e42e	0.425569
119	0xbe75825b	-0.23975508
120	0xbf5b602b	-0.85693616
121	0x3c8b03b4	0.01696954
122	0x3f62164b	0.88315266
123	0xbe14baab	-0.14524333
124	0xbe353784	-0.17696959
125	0xbea63bd7	-0.3246753
126	0xbee02232	-0.4377609
127	0x3e1a01db	0.1503977

block1.2.bn3.weight f4 [16]
0	0x3ee50e10	0.4473729
1	0x3f589d00	0.84614563
2	0x3f1d220e	0.6138009
3	0x3f459f7b	0.7719647
4	0x3f50b996	0.8153318
5	0x3f2646a2	0.6495153
6	0x3f26a83d	0.6510046
7	0x3d98c076	0.07458584
8	0x3ed23b2b	0.41060767
9	0x3d57e489	0.052708182
10	0x3dfae153	0.122500084
11	0x3fec6b7f	1.8470305
12	0x3f013347	0.5046887
13	0x3f0a8f95	0.5412534
14	0x3f85874d	1.0431916
15	0x3f32894d	0.69740754

block1.2.bn3.bias f4 [16]
0	0xbe8775ff	-0.2645721
1	0xbe466a4d	-0.19376488
2	0x3d45da2b	0.048303764
3	0xbca1db12	-0.019757781
4	0x3eded2c2	0.4352017
5	0xbf800f37	-1.0004643
6	0x3cdcbcce	0.026945498
7	0xbe29820b	-0.16553514
8	0x3db91613	0.090374134
9	0x3e70ca7e	0.23514745
10	0xbdc64103	-0.09680369
11	0xbd47e519	-0.04880247
12	0xbf0bd084	-0.54615045
13	0xbde2dcdb	-0.11077281
14	0x3e178b83	0.14799313
15	0x3e13b007	0.14422618

block1.2.bn3.running_mean f4 [16]
0	0xbf72bc79	-0.94818836
1	0x3ef130ff	0.47107694
2	0xbf6661c3	-0.8999292
3	0x3e0b1694	0.13582832
4	0x3ed5fe0e	0.4179539
5	0xbddbebd1	-0.10738338
6	0xbf6ff8d3	-0.9373905
7	0x3e892c37	0.26791546
8	0x3dfc80f2	0.12329282
9	0x3ee6c9c0	0.45075798
10	0x3f5842bc	0.8447683
11	0xbfa55e24	-1.2919354
12	0x3e9da577	0.30790302
13	0xbea28109	-0.3173907
14	0xbfaf988b	-1.3718427
15	0xbeb05723	-0.3444148

block1.2.bn3.running_var f4 [16]
0	0x3f2421cc	0.6411407
1	0x3f3e5a15	0.74356204
2	0x3f22062b	0.6329066
3	0x3f21a7f3	0.63146895
4	0x3fa75687	1.3073281
5	0x3efc360b	0.49259982
6	0x3f09a3ff	0.53765863
7	0x3e37da68	0.17954409
8	0x3f0e41d1	0.5556918
9	0x3ef54368	0.4790299
10	0x3f0c9996	0.54921854
11	0x40bc6073	5.8867736
12	0x3ec9a974	0.39387095
13	0x3f650949	0.89467293
14	0x40101ff6	2.2519507
15	0x3fc0c1ce	1.5059144
