assignment1/results/trial_2/resBottleneck/ckpts/9000.pt (torch, 562437 bytes, 242 tensors)

block1.0.conv1.weight f4 [8, 16, 1, 1]
00000000: f83b 73be b98b a23e ba2d 683e 9740 1ebe
00000010: b113 c43e 83c5 723e 6f3e de3e 4622 033d
00000020: fe8c 443f 8a82 683e a220 a1be f192 da3c
00000030: 05ef 583d fe34 403f f4ba 013e 1f31 9b3f
00000040: 5917 c53d 9e7a 923e e431 cebd 84a4 3b3e
00000050: 2978 67be d8de a33e 97ba 10be a4cb 0bbd
00000060: f445 f2be 5b1e 093f 68c9 02bf ba33 c3be
00000070: 3307 f33d a41c 72bd 2b51 5c3e 7d62 46bf
00000080: 17a3 843d 382a fe3d 6317 933e 3a17 7ebe
00000090: 8a2a 71bd 1739 e6bc f748 123f 5d00 6e3d
000000a0: e5bd 003f 4c87 b53e 37d3 abbf 37ea ab3d
000000b0: e1a9 d6bd 779c 22bf 5ad8 30bf 5b79 4a3e
000000c0: ce98 2e3d 6173 75be f2c4 6bbf 7a83 94be
000000d0: 3d57 553f a1e5 f4be 71b7 8d3e 6e1f 383f
000000e0: 2a71 64be 677b 893e c055 3abf e6a0 27bf
000000f0: 6b9a d1be d771 9ebd 1d0c b03e efa0 0dbf
00000100: 647b 5fbe fcd6 6ebf db06 f8be bf38 f6bd
00000110: a857 a3be 58d0 9e3d 83ee 0ebf 385d efbe
00000120: 9ab7 0dbf fe8f 32be dc42 b9be ae1e 133f
00000130: eb88 4c3e 3f66 9fbe e5e0 14bf 0b87 173c
00000140: 7380 a13e 981a cebc 311d 41bf 5374 23bf
00000150: 7ec5 a0be 3a87 f63c 2f1b de3d 078d 883e
00000160: 27ad 193f ed84 b53e de83 81bf 4e60 35bf
00000170: 9149 1abe b000 363e b3ea 2fbf b4be 983d
00000180: 9d5b 75be a941 5a3f 0d27 383f 1219 dabe
00000190: 704c 2e3f af4b febd 8759 89be c4a3 923e
000001a0: ac0c 5f3f 2686 cdbe 8fad cd3e b09d c0be
000001b0: af3e 62be 4b56 0c3f a024 973e 673c 063f
000001c0: b719 5c3e 23c4 133f d051 b23d 6919 233e
000001d0: 5135 07bf 524c 2d3d 368d d8bd 9185 1bbe
000001e0: 7779 273f ec1f 373d f380 bcbe cb02 98be
000001f0: fb22 c63e f93f 9bbe ab40 bcbf 98f6 a43e
-0.23753345 0.31747225 0.22673693 -0.15454327 0.38296273 0.23708157 0.43407008 0.032015108
0.76777637 0.22706047 -0.3147021 0.026681395 0.05296232 0.7508086 0.12668973 1.2124366
0.09623594 0.28609174 -0.1006811 0.18324476 -0.22604431 0.32005954 -0.14133678 -0.034129754
-0.47318995 0.53561944 -0.5108857 -0.38125402 0.118666075 -0.059109345 0.21515338 -0.7749403
0.064764194 0.12410396 0.2872878 -0.24813548 -0.05887846 -0.028103394 0.57142586 0.058105815
0.50289756 0.35454786 -1.3423833 0.08394282 -0.104816206 -0.63519996 -0.69080126 0.19772856
0.042626195 -0.23969795 -0.9209739 -0.2900656 0.8333624 -0.47831443 0.27679017 0.7192296
-0.22308794 0.2685196 -0.72787094 -0.65479887 -0.40938124 -0.07736557 0.34384242 -0.5532369
-0.21824414 -0.9329679 -0.4844273 -0.12022542 -0.31902814 0.07754582 -0.5583269 -0.46750808
-0.5535828 -0.17437741 -0.36183822 0.5746869 0.19974105 -0.31132695 -0.5815566 0.009248505
0.3154331 -0.025159165 -0.7543517 -0.6384937 -0.31400675 0.030093778 0.108450286 0.26670095
0.60029835 0.35452977 -1.0118368 -0.70850074 -0.15067126 0.177737 -0.687175 0.07458249
-0.23960729 0.8525644 0.71934587 -0.42597252 0.68085384 -0.12416779 -0.26826116 0.28640568
0.8712871 -0.4014141 0.40171477 -0.37620306 -0.22094224 0.5481917 0.2952013 0.52435917
0.21494184 0.57721156 0.08707011 0.15927662 -0.5281573 0.042309113 -0.10573809 -0.1518767
0.65419716 0.044708177 -0.3681713 -0.2968963 0.38698563 -0.30322245 -1.4707235 0.32219386

block1.0.bn1.weight f4 [8]
00000000: 5971 6b3f 173b 533f f136 4e3f f947 453f
00000010: 547e 72be 5184 743f 4bec 863f 3f6d 2a3f
0.9196983 0.8251204 0.80552584 0.77062947 -0.23681003 0.955144 1.0540861 0.66572946

block1.0.bn1.bias f4 [8]
00000000: f5bb 2ebf 11b8 cdbe ad89 bd3e e3c3 203f
00000010: 34b5 183f 9afd debe dbce 0abf deb5 3f3d
-0.6825555 -0.40179494 0.370191 0.627989 0.59651494 -0.43552858 -0.54221886 0.0468043

block1.0.bn1.running_mean f4 [8]
00000000: b597 8740 5429 44c0 3744 32c0 6960 f0c0
00000010: 0f95 85c0 376a c9c0 072c 2340 216b 0dc0
4.237269 -3.0650225 -2.7854135 -7.511769 -4.1744456 -6.2942157 2.5495622 -2.2096636

block1.0.bn1.running_var f4 [8]
00000000: 9118 2741 6213 bc40 674f 1741 888e b941
00000010: d7a3 f640 8975 8741 ab87 7e41 31d1 7541
10.443498 5.877366 9.456885 23.194595 7.7075 16.93239 15.908122 15.363572

block1.0.conv2.weight f4 [8, 8, 3, 3]
00000000: 2bd3 9e3e 085c 543d 8d00 50be ce5a a53d
00000010: 9e65 1ebe 9ee5 d5be e299 3e3e 18fb 1b3d
00000020: 29a0 57bc 527f 443e 6b0f 9d3e 553e b23e
00000030: f614 4b3e 378a b83e 8b72 d53d 7b65 53be
00000040: ce5a e7be 59a3 703d df66 f7bc e2c4 28be
00000050: 2c5b f9be a34e 51be 0b9e 7ebe 6d1c eebe
00000060: 3aab 353d cdf3 353e caf1 bf3d dbdb 073e
00000070: dc56 cc3e 9eed 20be 3a22 263f 30ad 463f
00000080: 65fb d13e 2823 66be 1d0c 393d 7599 92bc
00000090: 78ba 193d 205d 703d f394 973d 4a5b 92bc
000000a0: 87f4 3cbc 52c5 5b3d 8358 a3bd f2e3 dbbe
000000b0: f8c9 bf3d 9f59 263e 8ce9 903e 722e b63d
000000c0: 5877 b63d d7c4 c73e aa43 0d3f 09a7 6ebe
000000d0: 45f4 533e e783 bc3e 6dab 25bc 3a02 363e
000000e0: 2c30 4abd 4306 073e be18 c2bd d1b7 a2bd
000000f0: 078b 5f3e 7edc 8f3e 6040 15bd 2e43 1b3c
00000100: a740 3ebd 1b70 b23e b3d3 efbe 822d d0bd
00000110: a86d abbc b913 91be 15e6 5c3e 565a 043f
00000120: c386 3cbe 04a1 d63e 2afe 223f 4296 8abe
00000130: 1751 09be e9ac 08be ed21 a7be 4a08 e83d
00000140: 49e2 7bbe c7b3 953e e4f8 dc3e a9a1 13be
00000150: b16f e4bd b541 d2bd bd11 edbe b12b 203d
00000160: 4502 bb3c 58b4 e83b 9890 0dbe a4bf 9c3b
00000170: b929 b1bc c136 1bbf 5a44 4abf 13cd c9bd
00000180: 6d34 913d 5020 e13d 2fa1 b03e 4d4f 783e
00000190: 7513 653e 5b7f 2b3f c84e 353e ffd9 20bd
000001a0: efbe 0c3f c8ee bb3e 3a88 d43e ad2d 9c3e
000001b0: 7783 453e 9a79 533d d75b bc3e 5455 d43c
000001c0: 6f68 c8bc 028d 343e dc29 983d 6a77 9ebd
000001d0: a2ff 103e c779 743e 5af2 c13d eea8 943c
000001e0: b738 2dbe 2fea 483d 19dd 1e3e 3f48 4abd
000001f0: dbd3 bfbc 3de1 20bd 0594 24be 9bb1 22bc
00000200: 7778 b73d be31 f3bc 4b9d dfbc b29d 833e
00000210: 099d 84be bfbb 95be eaf6 663d 468f 8dbd
00000220: 640a 40be 8b71 34be 9afa 643e 8594 c63e
00000230: 5eb0 4c3e 1517 f5bd f7ab a5be 4d13 fbbe
00000240: 51a6 c43e b680 973e 47fe f33e e3c0 003e
00000250: 6ebc 133e 3b06 47be 3d96 8b3c 6e01 e73d
00000260: efcd 01be 0096 a33e 9a68 583e fad7 943e
00000270: f065 073e c4c4 c83d bf37 1cba f704 183b
00000280: 13e4 debd 9edb 7cbd 8a5b 1f3e ad85 1ebe
00000290: 4ca2 9bbe f639 843d b5c8 92be e57d 31be
000002a0: df32 62be 12bb 0e3e 3df1 22bd 5c34 fc3d
000002b0: 69a8 be3d a026 32be 333b 3d3e e50f d23e
000002c0: 54e4 c83d c658 b73e e372 2c3f bde5 7f3d
000002d0: dc8f 94be 42d0 60be 8ca4 3bbe 0417 923d
000002e0: c543 07bd 330b a0be 9642 acbd 1e25 053e
000002f0: 0c0a 6fbe 5097 be3e 2f57 e03d b914 c33d
00000300: de99 953e 8096 c53d 3f31 523d ed4d 923e
00000310: 76dd 2b3e b0b4 40bd 2222 ae3b 1f9a 773d
00000320: 35b9 0b3e 5875 f93a 11e1 9c3e be12 f63e
00000330: 35d6 063e fe2d 7ebe 6747 37bc 178a 653e
00000340: 9f09 68be 5f1b 8abe e38e be3e ecca 303d
00000350: 0e95 f4bd ceda 4b3e bd95 abba cee9 c0be
00000360: a925 bd3d 57ff 343e a8f3 14bf 2213 b23e
00000370: dc56 2d3f 7b5e c7bd 318b e73e 993e ea3e
00000380: 84c9 403d b405 04be 92ba 0fbe 5bc7 f7be
00000390: 3db8 883e 72c5 883e f2c0 a0be b757 ad3e
000003a0: 79a7 6c3d 94d0 b5bd 2a6a 16be c0ab 643f
000003b0: 0dd1 4f3e a155 4c3d cfbc dfbe 01cf 7c3d
000003c0: 0a50 c53d fcf2 dcbd c924 423e 4637 623e
000003d0: dceb 5a3f b891 0a3f 7997 8b3a 9052 76bf
000003e0: 21ea 33be 8199 033e 7263 17bf 4c4c efbd
000003f0: 4029 043b 23c3 c9be ceaa 8abe f49f cfbc
0.31020483 0.05184558 -0.2031271 0.0807396 -0.15468451 -0.41776747 0.18613389 0.03808126
-0.013160744 0.19189194 0.30675825 0.3481318 0.19832215 0.3604295 0.10422238 -0.2064418
-0.45186466 0.05874953 -0.03020042 -0.16481355 -0.4870237 -0.20440154 -0.24864976 -0.46506062
0.044352747 0.17768784 0.093722895 0.13267462 0.39910018 -0.15715644 0.64895976 0.77608013
0.4101211 -0.22474349 0.045177568 -0.01789544 0.037531346 0.05868256 0.07401457 -0.017865796
-0.011532909 0.053654976 -0.07975867 -0.42947346 0.09364694 0.16245125 0.28303182 0.088955775
0.08909482 0.39017364 0.5518137 -0.23305906 0.2069865 0.36819384 -0.010111672 0.17774287
-0.049362347 0.13185982 -0.094773754 -0.079452164 0.21830378 0.2809791 -0.036438346 0.009476466
-0.046448376 0.34851155 -0.468412 -0.1016493 -0.020926312 -0.2833536 0.21572144 0.5170034
-0.18410783 0.4191972 0.63669074 -0.27067763 -0.1340984 -0.1334721 -0.3264307 0.11329706
-0.2459804 0.29238722 0.43158638 -0.14417137 -0.11154116 -0.10266439 -0.46302596 0.039104167
0.02282823 0.007101577 -0.1382469 0.0047835875 -0.02162634 -0.6063042 -0.79010546 -0.09853568
0.070900775 0.10992491 0.34497973 0.24249001 0.22370704 0.66991204 0.17705834 -0.039270397
0.5497884 0.36705613 0.41510183 0.30503598 0.19288431 0.05162964 0.36788818 0.025919594
-0.02446386 0.17631915 0.07429859 -0.0773762 0.14160016 0.2387458 0.09470053 0.018146958
-0.16916166 0.04905146 0.1551403 -0.049385305 -0.02341645 -0.039277304 -0.1607209 -0.00993004
0.08958524 -0.029686805 -0.027296683 0.2570625 -0.25901058 -0.292448 0.05638782 -0.06912093
-0.18753964 -0.17621438 0.22361222 0.38785186 0.19989154 -0.11967293 -0.3235776 -0.49038163
0.3840814 0.29590386 0.47654936 0.1257358 0.14427349 -0.1943597 0.017039413 0.112795696
-0.12676214 0.31950378 0.21133652 0.29071027 0.1322248 0.09803155 -0.00059592345 0.0023196319
-0.108833455 -0.06173288 0.15562263 -0.15480681 -0.3039726 0.06456368 -0.28668752 -0.17333181
-0.22089718 0.13938549 -0.039780844 0.12314674 0.093094654 -0.17397547 0.18479614 0.41027752
0.09809175 0.35809916 0.67362803 0.062474955 -0.29016006 -0.21954444 -0.18324488 0.07133296
-0.033023614 -0.31258544 -0.08411138 0.1300244 -0.23343676 0.37224817 0.10954129 0.09525437
0.29218954 0.09647846 0.051316496 0.28575078 0.167837 -0.047047317 0.0053141275 0.060449716
0.1364487 0.0019032164 0.30640462 0.48061174 0.13167651 -0.24822232 -0.011186457 0.22415958
-0.2265992 -0.26974007 0.3721839 0.04316227 -0.119424924 0.19907686 -0.001309089 -0.3767838
0.09235699 0.1767553 -0.5818429 0.34780222 0.6771066 -0.097348176 0.45223382 0.45750883
0.04706718 -0.128928 -0.14036015 -0.48394284 0.26703063 0.2671314 -0.31397206 0.33855984
0.057776902 -0.08877674 -0.14688936 0.8932457 0.2029459 0.04988635 -0.43698737 0.06172085
0.09634407 -0.10788533 0.18959345 0.22091398 0.8551614 0.541286 0.0010650001 -0.9621973
-0.17569782 0.12851526 -0.59136117 -0.11684474 0.0020166188 -0.3940669 -0.2708344 -0.025344826

block1.0.bn2.weight f4 [8]
00000000: 84e2 143f d122 e53e eecb 563d 46a5 643f
00000010: 402b b33d c5f9 9d3f 2000 413d c025 ec3e
0.58158135 0.44753125 0.052440576 0.8931469 0.08748484 1.2341849 0.04711926 0.4612255

block1.0.bn2.bias f4 [8]
00000000: 9266 1d3f 2ebf 813e 46d0 e8be f4f6 963f
00000010: caa8 f3be 7380 53bd 4d19 bbbe 3260 6e3f
0.61484635 0.2534117 -0.454714 1.1794114 -0.47589713 -0.05163617 -0.3654274 0.9311553

block1.0.bn2.running_mean f4 [8]
00000000: ea90 923f 24d2 e13f 4ba1 543f 69bc 923f
00000010: 75af 723e c276 ffbe aa40 b13f e3ae 80c0
1.1450474 1.7642255 0.83058614 1.1463748 0.23699744 -0.49895293 1.3847859 -4.0213485

block1.0.bn2.running_var f4 [8]
00000000: 4e33 9f3f 010a d73f d358 603f 071d 3440
00000010: 70b1 913f 1e7c ae40 6404 ed3f 9448 ae40
1.2437532 1.6799928 0.87635535 2.8142717 1.1382275 5.452651 1.8516965 5.4463596

block1.0.conv3.weight f4 [16, 8, 1, 1]
00000000: 71a5 15bf 514d ad3e 9db9 1fbd 5600 9aba
00000010: 5704 763e d552 06bf 7886 85be ef6e 3f3e
00000020: 33e7 5d3e 95e8 da3d 258e 983e 4d7c c73e
00000030: 54d6 48bd 1d7f 0e3f 6412 a33e a539 3ebe
00000040: 6d82 b2be 11d4 a5be 859d c3be 6e58 08bf
00000050: 68c5 f03d bba9 4dbe 7295 413e f9d5 a13e
00000060: 882a 85be 96bc 483d 548c 8ebc 55ef 023f
00000070: 2e3e be3d 9e59 99bd 1067 113e e6f5 923e
00000080: e779 5b3e 65f0 a6bd e9f1 02bf a088 1c3f
00000090: 5b88 8bbe 34e6 09bc 1011 f83c 9ae5 9e3e
000000a0: 0a0c 8dbd 741f aabe 6ca2 88bd da89 1cbe
000000b0: c273 823d 1214 353f 8e59 b0be 04a5 4d3e
000000c0: ebc1 e63d f472 9ebe 7ce5 a33e d8e5 9bbf
000000d0: 91da 613e 68d4 8e3d bbda 993e 2bc3 81be
000000e0: 4bdf 1fbf 6fde 27bf 274e 883d fa49 dcbe
000000f0: e781 553e 1ed5 fc3c a682 9ebe bd84 e0be
00000100: cccb d9bd 2b25 893e 3fad 7dbe 484e 913e
00000110: 9b98 0f3e 45a9 e43e 3d69 a6be 4696 2c3e
00000120: 5876 643f aed3 6bbd 73f8 ae3e 78bb 153e
00000130: fcdb 21be 22a9 e7be 7072 0fbe ca54 87bc
00000140: 16cb 923d b1d6 083f 4bde bd3e 15b3 48bd
00000150: 7796 be3e f768 00bf 6747 98be 4ea2 453f
00000160: 3c00 b8be cfdf 7ebc 9a64 41be 2a69 603e
00000170: f144 dcbd ddad 50bf 8cf8 35bc fe3d 653e
00000180: de9f a7be 6248 543e b842 0ebe 49e6 febe
00000190: 3471 c13b ec4a 6a3a 53e5 9d3c 08f0 293f
000001a0: 9dba 673f d845 48be 6749 b13e e47e 33bf
000001b0: c2fb 843e 23c6 b7bd 4d3e 4f3e 6fd4 bd3d
000001c0: 4fe3 18ba 42df 883e 2b6b a13d 25b2 26bf
000001d0: 2b71 553e 98e9 23bd 5679 203e bf31 a8bd
000001e0: ac08 453e 514e b83e 6af0 b2bc fb0a 00bf
000001f0: 8ba2 e23e 8f87 29bf ac81 b93d 4141 57bf
-0.5845557 0.3384805 -0.038995374 -0.0011749368 0.24025093 -0.5247014 -0.26079154 0.18694662
0.21670227 0.10688893 0.29795948 0.3896202 -0.049032524 0.5566271 0.31849968 -0.18576677
-0.34865132 -0.32388356 -0.38206115 -0.53259933 0.11756402 -0.20084278 0.18904665 0.3160856
-0.2600901 0.049007975 -0.017400898 0.5114644 0.092892036 -0.07487796 0.14199471 0.2870323
0.21433221 -0.0815132 -0.51150376 0.61145973 -0.27252468 -0.008416701 0.030281574 0.31034547
-0.06887062 -0.33227122 -0.066716045 -0.15286961 0.06369735 0.7073375 -0.34443325 0.2008248
0.11267456 -0.30947077 0.3201102 -1.2179518 0.22056033 0.06974107 0.3004969 -0.25344214
-0.62450093 -0.6557378 0.066555314 -0.4302519 0.20850335 0.030863341 -0.30959052 -0.4385127
-0.10634574 0.2678617 -0.2477312 0.28380036 0.14023058 0.44660392 -0.32502165 0.168542
0.8924308 -0.05757492 0.34173927 0.14622295 -0.15806574 -0.45246226 -0.14008498 -0.016519923
0.07167642 0.53452593 0.3708366 -0.04899891 0.3722417 -0.50160164 -0.29741976 0.7720078
-0.3593768 -0.01555629 -0.18886033 0.21915117 -0.10755337 -0.81515294 -0.0111066215 0.2238693
-0.32739156 0.20730737 -0.13892639 -0.4978507 0.0059033874 0.0008937556 0.01927439 0.66381884
0.90519124 -0.19557893 0.34626314 -0.70115495 0.25973326 -0.089733385 0.2023861 0.09269034
-0.00058322115 0.26732832 0.07881769 -0.65115577 0.20843951 -0.040017694 0.15671286 -0.08212613
0.1924159 0.3599725 -0.021843154 -0.50016755 0.44264635 -0.6622247 0.09057936 -0.84083945

block1.0.bn3.weight f4 [16]
00000000: 0ced ee3d 3cb8 c83f 4668 38be 70fb 6e3e
00000010: 8641 c93e a1ba 5ebe d01a 793f 2368 1a3e
00000020: 85f9 eb3e 88cd 1b3f 098a 013f 0513 443e
00000030: 5d13 e43d 33e8 6d3f b949 7c3c 8559 353f
0.11666307 1.5681224 -0.18008527 0.23338103 0.39307803 -0.21750881 0.9730654 0.15078788
0.46088806 0.6086049 0.5060125 0.1914788 0.11136506 0.9293243 0.015398436 0.7083972

block1.0.bn3.bias f4 [16]
00000000: ab0d 7f3d 5def abbe 04c6 cbbe f970 1bbe
00000010: 7b52 be3c 8719 2ebd 9a2e 4a3f cc05 c2be
00000020: 4db5 45bf c691 f73c d4ef 923e b665 ad3d
00000030: 5bfb e23d 6071 303e 4a2e 143d 6610 80bd
0.062268894 -0.33581057 -0.3979951 -0.15179814 0.02323269 -0.042504814 0.7897736 -0.37895048
-0.7722977 0.030220877 0.286986 0.084666654 0.110830985 0.17230749 0.036176957 -0.06253128

block1.0.bn3.running_mean f4 [16]
00000000: bf18 99be 0e0f 333f d4cc 43bf eaab 363f
00000010: 4b0a 933f 689c b83d e0e1 dcbf 1e49 c7bf
00000020: 1f05 343f 379f 103f e312 313f 9eb3 a9bd
00000030: 12eb ddbd 028c 8cbe 3c34 4bbf c85c b7bf
-0.29901692 0.69944847 -0.7648442 0.7135607 1.1487516 0.09014207 -1.7256432 -1.5569189
0.70320314 0.5649294 0.69169444 -0.082862124 -0.10835852 -0.27450567 -0.7937658 -1.432519

block1.0.bn3.running_var f4 [16]
00000000: 25c2 983e e72b 163f 8f9b ba3e 9f31 5c3e
00000010: a002 823e 79a4 c73e 6e8e 7d3f 8764 5d3e
00000020: c05b b53e 9c35 c83e f0c3 f33e ca9c e43e
00000030: 3b72 893e 85d5 4b3f 7c9b bc3e 3fd5 973f
0.2983562 0.5866074 0.36446807 0.21503304 0.25392628 0.3899267 0.99045455 0.2162038
0.35421562 0.391034 0.47610426 0.4465087 0.26844963 0.7962268 0.36837375 1.1861953

block1.1.conv1.weight f4 [8, 16, 1, 1]
00000000: 90cc e13e b5e2 093f 7ced fe3b 1b4a 6bbe
00000010: 024f 2e3f a7b9 343f 7f89 533f ed2f d7bd
00000020: 2e3e f53d 50da 74be 9d24 98bf 7207 38bf
00000030: 6abe 84bc 98c0 f4be 2b15 103f 4313 713e
00000040: 3d05 51bf 4275 283d a1e6 01bf ae2d 313f
00000050: 5ecb 0c3e 59e9 0740 2ed5 ca3e 06a9 433c
00000060: 2d95 be3e cfa4 6e3d 7c06 88be a347 acbb
00000070: b7db 013f 1d1c c6bc 7470 a1be 86c5 a43e
00000080: 084b 7ebd 74ae 4d3c abea 4c3e fc62 8e3f
00000090: e23f 8f3e e12c f23e 1887 0b3e bb48 4dbe
000000a0: d9e9 493d bc1d f53e 4504 fcbe 13bf 83bd
000000b0: 5832 4ebe 65a0 17be 0443 303e a426 7abe
000000c0: 83bf aebd 7847 eebe abfb c5bd 6145 c5be
000000d0: 55fe 25be 9628 9dbf abcf 8abe 465c 20be
000000e0: 5e93 1ebe e35f e8bd a68f 00be 2c0a 243f
000000f0: 4de3 14be 0d73 08bf 7108 0cbf fbcb 973e
00000100: cea1 bb3f fe2c dcbd 2b87 82be 4f3e 7e3e
00000110: 9fee d2be cf1e cb3d 1be5 5a3f 8613 a7bc
00000120: ed7f 443e c4a4 6b3e 6a3b 13bf 8a7c 9b3d
00000130: e131 603c f1fe 0c3f 4dfd 4a3d 27f2 40bf
00000140: f5c5 dabc 3bc5 093f fd64 da3e 8ac7 a3be
00000150: 349b b93e 8f58 f3be 4dfa 463f 59fa 283f
00000160: 773c 4b3e 8bcd 173e b5fd 773e e64a 43bf
00000170: 9c18 98be 74cd 293f 85d5 373e fbf4 b73e
00000180: 8796 be3d 80e3 f23e 4c1e ccbd bb13 a43d
00000190: 1a4b ad3e 11eb 833e 80ad 9f3e 42e9 29bd
000001a0: ef2c df3e 0f80 62bd 6e5d 943f bbe3 8dbd
000001b0: f5c3 03be 93b4 ff3c 7d23 0b3f ac47 e23b
000001c0: 40f1 e3bf 8a13 c1be ffbc 00bd 5d5d 4abe
000001d0: d7db 1dbe 7681 afbf 60a1 a13e 1792 a2be
000001e0: 0b75 b0be ecd2 1bbe 4124 113e bb04 23be
000001f0: d96e 23bf 126e 06be c8dd ba3e 2fd0 da3e
0.4410138 0.5386155 0.007779775 -0.22977488 0.68089306 0.70595783 0.8263168 -0.10507188
0.119747505 -0.23911405 -1.1886173 -0.7188636 -0.016204078 -0.47803187 0.562823 0.23542504
-0.8164862 0.04112745 -0.50742537 0.69210327 0.13749453 2.1236174 0.39615768 0.011942154
0.37223187 0.058262642 -0.26567447 -0.005257563 0.50725883 -0.024183327 -0.31531107 0.32181948
-0.062083274 0.0125538 0.20011394 1.1123958 0.27978426 0.47299865 0.13625753 -0.20047276
0.04929528 0.47874248 -0.49222007 -0.06432929 -0.20136392 -0.1480728 0.17213064 -0.24428803
-0.08532622 -0.465389 -0.096671425 -0.38529494 -0.16210301 -1.2278011 -0.27111563 -0.156602
-0.15485904 -0.11346414 -0.12554798 0.6407802 -0.14539833 -0.53300554 -0.5470038 0.29647812
1.4658754 -0.10750769 -0.2549375 0.24828456 -0.41197678 0.09917986 0.8550584 -0.020395052
0.19189425 0.23012072 -0.57512534 0.07592113 0.013683767 0.5507651 0.049557973 -0.75369495
-0.026705721 0.53816575 0.42655173 -0.31988174 0.36251223 -0.47528502 0.7772568 0.66007
0.19847284 0.14824502 0.24217875 -0.7628616 -0.29706275 0.6632912 0.17952545 0.35929093
0.093060546 0.47439194 -0.09966716 0.08011576 0.3384636 0.2576528 0.31187057 -0.041482218
0.4358897 -0.055297907 1.1591012 -0.06928202 -0.1286772 0.031214034 0.54351026 0.0069055166
-1.7807999 -0.3771022 -0.03143024 -0.19762178 -0.15415893 -1.3711383 0.31568432 -0.31752083
-0.34464297 -0.15217179 0.14173986 -0.15919773 -0.63841015 -0.13127926 0.3649733 0.42736956

block1.1.bn1.weight f4 [8]
00000000: 6528 cc3d ccd6 813f 116b ce3e a4d6 5e3f
00000010: b017 3a3f de03 803c 4aaa 9c3f e18f 7f3f
0.09968642 1.0143676 0.4031606 0.87046266 0.72692394 0.015626844 1.2239468 0.99828917

block1.1.bn1.bias f4 [8]
00000000: d382 a2be a1e1 a53f 0a00 173d 25eb af3e
00000010: 18d7 8d3f 3681 8ebd f9fc 31bf 82a6 e73e
-0.31740436 1.2959481 0.03686527 0.3435909 1.1081266 -0.06958239 -0.6952663 0.45244223

block1.1.bn1.running_mean f4 [8]
00000000: 1839 ff3f 8362 1e40 515b 243c b832 8cc0
00000010: 5faa 8940 3b3a 1840 5bb3 d440 366c 03c1
1.9939299 2.4747627 0.010031537 -4.3811913 4.3020473 2.378554 6.646894 -8.213919

block1.1.bn1.running_var f4 [8]
00000000: ffa2 8141 421b 8641 dd72 5d40 9a3b 1341
00000010: 890d 8241 16c1 0f41 d14f f440 83bc 3341
16.204588 16.76331 3.4601357 9.202051 16.256609 8.98464 7.634743 11.233523

block1.1.conv2.weight f4 [8, 8, 3, 3]
00000000: 7934 ebbe 1219 85be 6895 a9be 176f 823c
00000010: 031f d7bc 0ff6 9dbe 9d6a cb3d e34b 39be
00000020: 41fb 80be e16d 9abd c905 c0bc 2f28 e93d
00000030: ffe1 943c b8fd 273e 7f70 a2be dcbb 103e
00000040: 4158 ce3d a566 7b3e fffd aebc c022 89be
00000050: d03c 75be ac83 103d b0e1 74be 4168 6fbd
00000060: 0091 bc3d 27a9 c9bd 1bb5 be3d 10a2 f0bd
00000070: 6c59 f83e feaf 73be d430 ac3e b0dd 423f
00000080: da43 f73e 6a26 71be 1ed2 5fbe 6cd4 aebe
00000090: e771 e73c 3af2 14bf 192c 3abe fe4d 093f
000000a0: ec1b 10bf b199 ae3d 19c1 cb3e e851 4fbd
000000b0: 8631 863e 8d14 4abe 60b8 8abe a89d a83c
000000c0: 8d59 a03c 32c8 36bd 7ff0 5e3d 2dee 953b
000000d0: 823d 8cbe f89d 58bd 62a5 b43e 9b04 a33e
000000e0: e8e8 a13e 909c 0f3f 5531 943e 3a01 923e
000000f0: 6243 c23e 64b2 983e 7147 39bb 82d8 963e
00000100: 7657 a93f d0e2 31bf 4387 253e 8526 dd3f
00000110: 5610 bbbd 0188 79bf 22b0 28bf 6cc2 3fbf
00000120: 0b19 8fbe 5ba6 81be a42e 573d c467 52bd
00000130: 8f96 7fbe 8718 55be 2828 c7bc 3b0b efbd
00000140: e263 25bd e14f 2bbe 4ceb 30be 264e 40be
00000150: 2101 81bd e137 95bd 693c fbbd 4566 f0bc
00000160: bb82 f43c c59c f53c 12d7 92be 1a2f 8dbe
00000170: fb0f 0abe c0c2 e1bd fb93 7fbe bdca 90be
00000180: 0c8d 123e 9e98 403d 7f74 fe3c e714 103e
00000190: a3ca 18bd 3558 a1bb c40e 923e 0c7b 0a3e
000001a0: 20ba e33d d397 263e e698 d03d 7806 153e
000001b0: eea8 e0bc 1715 ae3c 867b 38be 4810 acbe
000001c0: 53b6 29be 235d 50be a182 4ebd 20b3 7f3e
000001d0: 4d02 e33e bdf3 a3bd 1928 55be 252e 08bb
000001e0: dfb8 99be 8e33 7cbe fcc3 46bd 1756 2cbe
000001f0: 7cff 78be 49d2 d8bd 097b 55be da1c 10be
00000200: 17ff 04bd 48c9 3cbe 499c b0be 7184 babd
00000210: df18 d4bd a3e4 2dbe 07f9 753e eed3 a33d
00000220: 8f9d 8e3e 7512 413e 88e6 943e 788b 663e
00000230: 0c6f d039 c486 273e 59f1 203e d4a1 a13d
00000240: 277f debd 4924 833c 5cd8 d4bc 4552 c9be
00000250: 3baf 36be 1ced 16be 17e0 88be ab7a b0be
00000260: 85f0 02be bba5 f03d fef9 213e 39a1 0b3f
00000270: 3aa9 49bf 72db cbbf 177d c5be 5e0a 033f
00000280: 952a 5ebe 44a9 543e b313 043e 75f8 f43c
00000290: 0f26 ed3b ecc8 0f3d 44ab b5be 078b 8cbe
000002a0: 8278 7f3e eaf0 09bd 99ae 053d 8c4a 993e
000002b0: 05b2 c9bd e640 4abc 3996 66bd 3c13 b33c
000002c0: eb83 61be 84a2 1bbe 845d 9a3e 151f c43d
000002d0: 166e edbd 2f7f b3be 5cea 23bd 07b2 b0be
000002e0: b814 fdbe 3150 85bd c856 8bbe 3ff9 78bd
000002f0: a8d2 0d3e 49d8 293e c852 27bc d28a a8bb
00000300: 99ff b63e 19b2 00bd ff67 85bc a700 923d
00000310: d483 bfbd 6fc1 b53d a043 f9be ed13 d6be
00000320: b602 90be bfe5 44bf baf2 01bf 1964 84be
00000330: 1f48 2fbf 7a91 8cbe 451e c5be e424 9fbd
00000340: 6573 823f b0ce 1abe 662e 81be 46ef 2b3f
00000350: e9c9 59bd 9c77 00bf d309 483e 9b00 b9be
00000360: aec9 d5bd d3b2 333e a408 873d 3e74 0ebb
00000370: 69c5 c3bc 60be 1bbe a9f8 b0bc d74a 22bb
00000380: b72c 7b3e 456d 9f3d f3fe e7bd b5d8 3bbe
00000390: 687d 02be 8d96 013e d687 63be 7f17 83be
000003a0: 2243 8b3d 9119 22be 8f2a 56be 7434 64be
000003b0: 08a8 04be 0a0a 6a3e 1c60 0abe 6c0d d0be
000003c0: 7d60 163e 1403 d5bd 1d44 12bc 803c 943d
000003d0: 6359 c03c 36ad 2b3e 809a a9bd d5fd 09be
000003e0: d91c 8c3c 33d7 903d da7a 5e3c 8baa f53d
000003f0: dbdb f2bb 4c68 bd3e 9ccf dc3e 9150 6e3e
-0.4593847 -0.2599569 -0.331218 0.015922112 -0.026259905 -0.3085179 0.09932444 -0.18095355
-0.25191692 -0.07540489 -0.023440259 0.113846175 0.01817417 0.1640538 -0.31726453 0.14134163
0.10075427 0.24550875 -0.02136135 -0.26784325 -0.2394898 0.035281822 -0.23914218 -0.058449034
0.09207344 -0.098467164 0.09311887 -0.11749661 0.48505723 -0.23797604 0.33631003 0.7611952
0.48293954 -0.2354981 -0.21857497 -0.3414644 0.028252555 -0.5818211 -0.18180884 0.5363463
-0.56292605 0.08525408 0.3979576 -0.05061522 0.26209658 -0.19734402 -0.27093792 0.020582989
0.019573951 -0.044624515 0.054428574 0.004575512 -0.27390677 -0.052885026 0.35282427 0.3183945
0.31623006 0.5609827 0.28943887 0.2851656 0.37942034 0.298236 -0.0028271342 0.29462057
1.3229816 -0.69486713 0.1616488 1.727738 -0.09133975 -0.9747315 -0.6589376 -0.7490604
-0.27948794 -0.25322232 0.052534714 -0.05136849 -0.24959777 -0.20810138 -0.02431114 -0.11672064
-0.04037846 -0.1672969 -0.17277259 -0.18779811 -0.062990434 -0.07286049 -0.12267382 -0.02934564
0.029847493 0.02998198 -0.2867971 -0.27574998 -0.13482659 -0.11023474 -0.24958794 -0.28279677
0.14311618 0.047020547 0.031061409 0.14070474 -0.037302624 -0.004923845 0.2852689 0.13523501
0.11119485 0.16268854 0.10185413 0.14553249 -0.027424302 0.02125029 -0.1801587 -0.33606172
-0.16573457 -0.20348029 -0.050417546 0.24970675 0.44337693 -0.08005474 -0.20816077 -0.0020779457
-0.30023858 -0.24629042 -0.04852675 -0.16829716 -0.2431621 -0.10586984 -0.20847715 -0.14073506
-0.032469835 -0.18436158 -0.34494236 -0.091072924 -0.10356306 -0.16981749 0.24020778 0.07999407
0.27854583 0.18854697 0.2908213 0.2251414 0.00039755588 0.16360003 0.15717067 0.078921944
-0.10864096 0.016008513 -0.025982074 -0.3932058 -0.17840283 -0.14738888 -0.26733467 -0.34468588
-0.12787063 0.117503606 0.1581802 0.5454288 -0.78773844 -1.5926344 -0.38571998 0.51187694
-0.21695931 0.20767695 0.1289814 0.02990363 0.007237203 0.035103723 -0.35482228 -0.2744982
0.24948314 -0.03367702 0.032637212 0.29939687 -0.09848408 -0.012344575 -0.056295607 0.021859758
-0.22022979 -0.15198714 0.30149472 0.09576241 -0.11593263 -0.3505797 -0.040018424 -0.34510824
-0.4942987 -0.06509436 -0.27214646 -0.060784575 0.1384989 0.16586412 -0.010212608 -0.005143502
0.3574188 -0.031419847 -0.01628494 0.07129031 -0.09351316 0.08874785 -0.48684406 -0.41812077
-0.28127068 -0.76913065 -0.50760996 -0.25857618 -0.68469423 -0.2745474 -0.38499656 -0.07770708
1.0191466 -0.15117908 -0.25230712 0.6716198 -0.053171072 -0.5018251 0.19534998 -0.36133274
-0.10438858 0.17548685 0.06593445 -0.0021736766 -0.023897843 -0.15209341 -0.021602945 -0.0024763846
0.24528776 0.077845134 -0.113279246 -0.18344386 -0.12743151 0.12655087 -0.22219786 -0.25603864
0.06799914 -0.15830065 -0.20914672 -0.22285634 -0.12954724 0.22855392 -0.13513225 -0.4063524
0.14685245 -0.10400978 -0.008927372 0.07238102 0.023480123 0.16765293 -0.08281422 -0.13475735
0.0171036 0.07072296 0.013579095 0.11995419 -0.0074114627 0.36993635 0.43127143 0.23272921

block1.1.bn2.weight f4 [8]
00000000: 8311 483f fa9c 913b 8829 7f3f 505f e43e
00000010: 56ad 4dbe b6e1 bd3d da4f a03f d1e9 393f
0.7815172 0.004443762 0.99672747 0.44603968 -0.20085654 0.092715666 1.2524369 0.726224

block1.1.bn2.bias f4 [8]
00000000: 02e2 823f bbef 8bbd d360 8e3f 83b3 bc3e
00000010: 0734 e93e f036 a4be 2f9e 80be f00e 903f
1.0225222 -0.06832834 1.1123298 0.36855707 0.45547506 -0.32073164 -0.25120685 1.1254559

block1.1.bn2.running_mean f4 [8]
00000000: 14fb d53f 543e 63be 5e9a 7bc0 e83e 72bf
00000010: db0d 9cc0 c2de afbf 5384 da3e 6962 31bf
1.6717248 -0.22191745 -3.9312968 -0.9462724 -4.8766913 -1.3739855 0.4267908 -0.69290787

block1.1.bn2.running_var f4 [8]
00000000: f9f2 6040 23d5 3440 af9e b340 73b2 3740
00000010: 3003 7e40 eaff 2141 6dcd a940 09d9 ca40
3.5148299 2.8255088 5.6131206 2.8702667 3.9689445 10.124979 5.3063264 6.3389935

block1.1.conv3.weight f4 [16, 8, 1, 1]
00000000: cffa 8e3e ed92 c7bb c0af 673e 0c04 2bbf
00000010: e842 b3be 2efd 4c3d 038a 0abd c33a fcbe
00000020: fd2e 223e b053 32bd 9d9d 09bf 1916 e9be
00000030: 5555 0d3d 1f2e 53be 5df1 9ebe 224e 363d
00000040: 626c ce3c d613 023f efbf 4fbe 87bc 973d
00000050: e9d4 9c3e b753 ffbd 831c 8a3f ce2b 563d
00000060: 96f5 0e3e ed25 5b3e a784 d7be e4f8 a4be
00000070: e02c b8be 2b54 fd3d c39c 20be 7c91 883e
00000080: 2f7e 303e 1e29 c93e 0f29 a5be af09 233e
00000090: 8c78 453d 7049 20be eb1c 983d b42f c23f
000000a0: e808 a2be 15d5 c33e ee70 9cbe eb72 bcbd
000000b0: 9350 adbe 0438 c9be 7ccf 0ebe b5bd 6bbe
000000c0: 2d4b 11bf 036f 75be 443a 5d3f 673d bcbe
000000d0: 5c3d 3bbe f6c8 a9be be68 63bc 43f2 623e
000000e0: 5042 18bf 664a 51bc 8da5 153f a240 5f3e
000000f0: 146b 39be 14d9 6bbd 348e babe 0cb8 ee3e
00000100: d05e 753f 8263 5c3e 31a0 7d3f a7d3 f8be
00000110: cd52 0fbe e2ca 903e 9aa1 aebe 2b0c 553e
00000120: 5c08 bd3e 887f 1a3e 632b 4e3f 0ffc 253e
00000130: 9ffc a8bd 009f 563e 56dc 6b3f 51db 4bbf
00000140: 5376 56bf f971 643e cc64 4e3f a9d2 05be
00000150: 050d 4e3e c926 dcbe 0d53 e63d 4d60 c7be
00000160: 74e6 75bf db8a 7bbe fd3e dc3e a897 6d3e
00000170: 4578 76be 7f99 6b3e 7f87 553e 85a6 74be
00000180: bf0f b73e 8a87 80bc a795 293f 9bed 5cbd
00000190: a75d a5be 2079 6f3c d1f3 29be c27d b53d
000001a0: 586f b8be e416 2fbe 42b8 b43e 1364 003f
000001b0: d5b8 02be 3398 7abe 3e81 55bf 2a89 20bf
000001c0: 8f40 27bf e675 72be 9661 b93e 04a6 ad3e
000001d0: 5b35 d43c 6b08 2a3e cb1c 8ebe 90fe cebe
000001e0: 8e17 4bbf 6ad1 793e 216a 71be c68e d5be
000001f0: 398e aabb 48cc 09bf fef3 163f 62b9 9cbe
0.27925727 -0.006090513 0.22625637 -0.6680305 -0.35011983 0.05004614 -0.033823024 -0.49263582
0.15838237 -0.043536842 -0.53756124 -0.45524672 0.034505207 -0.20623063 -0.3104352 0.044508107
0.025198165 0.5081152 -0.2028806 0.074090056 0.30631188 -0.12467139 1.0789951 0.05228787
0.13960871 0.21401186 -0.42093393 -0.32221138 -0.35971737 0.123695694 -0.156848 0.26673496
0.17235635 0.39289182 -0.32257888 0.15921663 0.048210666 -0.15653014 0.07427391 1.5170808
-0.3164742 0.38248506 -0.3055491 -0.09201606 -0.33850536 -0.3930055 -0.13946337 -0.23021586
-0.56755334 -0.23968129 0.8641703 -0.36765596 -0.18285125 -0.33161134 -0.013879953 0.22162728
-0.59476185 -0.012774086 0.58455735 0.21801999 -0.18107253 -0.05758007 -0.36436617 0.46624792
0.958478 0.21522334 0.9907256 -0.48598978 -0.1399643 0.28279787 -0.34107667 0.20805423
0.3692044 0.15087712 0.8053495 0.16209434 -0.08251309 0.20959091 0.9213308 -0.79631525
-0.837743 0.22309102 0.80622554 -0.13068642 0.20122154 -0.4299834 0.112463094 -0.3894066
-0.9605477 -0.24564688 0.43016806 0.23202384 -0.24069317 0.23007773 0.20852469 -0.23891647
0.357542 -0.01568963 0.66243976 -0.053937536 -0.32298014 0.014616281 -0.16596915 0.08861877
-0.3602245 -0.17098576 0.35296828 0.501527 -0.1276582 -0.24472122 -0.8340033 -0.62709296
-0.65332884 -0.23677787 0.36207265 0.33915722 0.025904348 0.16604774 -0.27756342 -0.4042859
-0.79332817 0.24396291 -0.23575641 -0.4171049 -0.0052049425 -0.53827333 0.5896605 -0.30610186

block1.1.bn3.weight f4 [16]
00000000: a6d4 803e 354a a73e e8d5 0a3f 64ae 173e
00000010: 1cf3 c93f b0ba 103e 630c cf3e ed3b 7f3f
00000020: 9516 f83f d209 9e3f 6f85 093f f569 9e3d
00000030: 8492 ba3e de9f 2c3f b3ae 6e3e d408 5f3e
0.25162238 0.32673803 0.54232645 0.14812618 1.5777316 0.14133716 0.40439138 0.99700814
1.9381891 1.2346747 0.5371923 0.077350534 0.36439908 0.6743144 0.2330883 0.21780711

block1.1.bn3.bias f4 [16]
00000000: dc1f f1bd 63c2 19be 4577 dbbd 18fb bdbe
00000010: b4b9 02be 0c0b 71bf 413e b63d 604c 85bc
00000020: f8f8 093e 9f0b 063f 77ce 813c 2f35 2f3d
00000030: abee 8ebe b6eb 843e 5b51 84bd 06d5 873e
-0.11773655 -0.15015559 -0.10716108 -0.37105632 -0.12766153 -0.9415748 0.08898593 -0.01627177
0.1347388 0.5236148 0.01584552 0.04277533 -0.27916464 0.25961083 -0.0646083 0.2652971

block1.1.bn3.running_mean f4 [16]
00000000: 26fb edbe 7d35 35bf 9f6e a13e 273e cabe
00000010: 495e d73f a8e6 9abf 8b38 ef3e 93e3 023f
00000020: c907 0540 c885 4c3f 1b61 92be 5366 39bf
00000030: 7715 873f 0f0b 48bf a2f3 2bbf 5280 bbbf
-0.46480674 -0.7078474 0.3152971 -0.39500543 1.6825649 -1.2101641 0.46722826 0.511285
2.0786002 0.79891634 -0.2858971 -0.7242176 1.0553426 -0.78141874 -0.6716863 -1.4648535

block1.1.bn3.running_var f4 [16]
00000000: 230b 813e 109e 893e 4a56 033f 20a2 1e3e
00000010: ed0f 663f 578e fc3d 7581 293f 59bf 253f
00000020: 9a7b b03f 0e1f 8e3f bbb6 473f 221b 453f
00000030: 9d91 cb3e 560d f03e 2125 d43e 6929 1a3f
0.2520381 0.26878405 0.5130354 0.15491533 0.8986805 0.12331837 0.6621316 0.647451
1.378772 1.1103227 0.780132 0.76994526 0.39759532 0.46885175 0.41434577 0.60219437

block1.2.conv1.weight f4 [8, 16, 1, 1]
00000000: 4dac d53e b4a5 3f3f 67b8 f93b 0387 adbd
00000010: a17e c6bd c18e 883d dc3c 83bc 78bd c7be
00000020: b7db 813d 0da4 0b3e 85ff 56bd c23d cf3f
00000030: 58de 3a3e cf09 92be d3c3 063f 0759 e2bd
00000040: 1617 6c3d 116b d7bc 427e 45be 45c4 5abe
00000050: dc15 d2bd 9358 dbbe b9c1 bf3e 6c0a 91be
00000060: c2bc f23c 1e7f 3a3e 2913 fb3d 450d 19be
00000070: 327c 79be 6870 163f d119 2ebe 87cd 1bbe
00000080: 27c6 40bf bfbc 373e 81f4 c2bd 1913 963e
00000090: c6f1 7f3c e04c 78bd 9003 443e 64c0 813e
000000a0: 37aa be3d d450 9c3c 7c06 dcbe 656e 7abe
000000b0: 2274 acbd a813 9a3e e1d1 313f 977c 38be
000000c0: fcd5 283f 9b42 93bd 807b f83d 97f6 ad3e
000000d0: e367 483d 449b a5bf b672 bc3e 3be4 953e
000000e0: 3243 afbe d8c9 e1bd 5b16 2b3e ef8b dd3e
000000f0: 90c7 20bd cc1a a83e 8ae7 61be 2dcf 1e3e
00000100: 6173 4ebe f0e1 0c3d f556 0ebe 1839 d13a
00000110: 2121 403e 6443 a2bd 06bb 7a3e 7288 83bb
00000120: cb32 babd 9f41 dfbd 2e41 783f 06a3 10be
00000130: a304 f5be f8a2 55bd 8307 75be c1d0 6ebe
00000140: d0e9 a0be e865 fcbd 32ac 15bf ee15 b93d
00000150: 1bdc 0bbf f2d1 b93e 9a01 273f 35f0 debd
00000160: f356 7cbb 94af 8f3d dadd 58bf ad71 553d
00000170: 744d 46be d8c4 853f a9fa cbbe c589 98bd
00000180: 3ac6 38be 4d53 a43e 1bdf 86be 9d41 053e
00000190: 2202 1e3e 41f1 3abe c21c b53e c499 9d3e
000001a0: 3f67 5ebd 445c 83be 1cff de3d 643f b0be
000001b0: 0612 e8bd 616e 9cbd f151 8abe 5d33 2dbe
000001c0: f8f5 02bf 5ce9 6fbe bf58 c0bd d071 113e
000001d0: 986f e3bc 588d d33e f080 afbe d285 73bd
000001e0: da4f b83d 26ab d13d 7301 f73d cb22 b33e
000001f0: ce4c b73e 2784 60be bd49 6bbf 983d 8abe
0.41733018 0.7486222 0.0076208594 -0.08473017 -0.09692121 0.06667853 -0.016020231 -0.3901174
0.063407354 0.13636799 -0.052489776 1.6190722 0.1824888 -0.28523108 0.52642554 -0.11052137
0.057639204 -0.02629617 -0.19286445 -0.21363933 -0.102580756 -0.42841014 0.37452486 -0.28328264
0.029631022 0.18212554 0.12259514 -0.14946468 -0.24363783 0.5876527 -0.17002036 -0.15215121
-0.75302356 0.17943095 -0.09519292 0.29311445 0.015621608 -0.06062019 0.19141984 0.25342095
0.0930981 0.01908151 -0.42973697 -0.24456175 -0.08420588 0.30093122 0.69460875 -0.18016277
0.65951514 -0.07190438 0.12132931 0.33977196 0.0489272 -1.2938008 0.36806267 0.2927569
-0.34230953 -0.11024827 0.16707747 0.43270823 -0.039252818 0.32832944 -0.22060981 0.15508719
-0.20161201 0.03439516 -0.13900359 0.001596245 0.18762638 -0.0792301 0.24485406 -0.0040140683
-0.09091719 -0.10901188 0.96974456 -0.14124689 -0.478551 -0.052157372 -0.23928647 -0.23321821
-0.31428385 -0.123241246 -0.58465874 0.09037386 -0.5463273 0.36292988 0.6523682 -0.108856596
-0.0038503974 0.07015911 -0.8471352 0.052110363 -0.19365484 1.0450697 -0.39839676 -0.074481525
-0.18044367 0.32094803 -0.2634209 0.1301331 0.15430501 -0.18256094 0.35373503 0.30781376
-0.054297682 -0.2565633 0.10888502 -0.34423363 -0.11331563 -0.076382406 -0.2701564 -0.16914125
-0.5115657 -0.23428863 -0.09391927 0.14203572 -0.027763173 0.41318774 -0.3427806 -0.059453793
0.089996055 0.10237722 0.12060823 0.34987482 0.35800785 -0.21925412 -0.9190939 -0.27000117

block1.2.bn1.weight f4 [8]
00000000: 7c3e 943f ea5d 873e e863 603f 310d 6b3f
00000010: 65e1 453f dce2 3e3f f2c1 873e ecaa 5e3f
1.1581569 0.26438838 0.87652445 0.91817003 0.7729705 0.7456491 0.26515156 0.86979556

block1.2.bn1.bias f4 [8]
00000000: b1fd cd3d 98a1 09bf ffa6 3cbe a1ae 0a3e
00000010: c28e 53be 92f1 303f bcce 59be ca32 ea3e
0.100581534 -0.537622 -0.18423079 0.13543178 -0.20659927 0.6911861 -0.21270269 0.45741874

block1.2.bn1.running_mean f4 [8]
00000000: 95a5 d440 f121 73be 0851 28c0 9af6 5440
00000010: c9e7 0e3f 8971 36c0 436e f1bf b1ac 66c0
6.6452127 -0.23743416 -2.6299458 3.3275514 0.55822426 -2.8506796 -1.8861774 -3.6042902

block1.2.bn1.running_var f4 [8]
00000000: 112a d541 021e 5d40 ce9e b440 41cb 0b41
00000010: 9b7d b040 8993 6441 27b1 4b40 1713 1741
26.64554 3.4549565 5.6443853 8.737123 5.5153327 14.286019 3.1826875 9.442161

block1.2.conv2.weight f4 [8, 8, 3, 3]
00000000: 9680 6e3e b5fe 21bf 1a0a 99be 03bb fdbe
00000010: 3e7d 04bf ab93 7abe 8832 c6bd befb af3d
00000020: 5da0 1bbe 2937 843e bbc7 6b3e debe e33d
00000030: 56ec 813e 0d35 66be cfb6 b3be 9272 9c3e
00000040: f27d 09bd 0389 963d 381a ae3e c69d cf3e
00000050: 54b4 64be 8b11 6ebd c3b8 a23e f7e8 8abe
00000060: 8606 7bbd f177 5cbe ad44 89be 69cb 5a3e
00000070: 9172 5a3e 869a 873e 62de fb3d 41ed 1fbf
00000080: 12a5 03be c99d 9b3e a273 083d 1694 463d
00000090: 9fd9 c33e 6bdf 1a3e 6d35 a4bd aceb 7b3d
000000a0: ab51 973e 5f6f 383d 30bc 4e3e 1a54 12bd
000000b0: 749b 40be 6a95 1c3e ec84 c3bd aff8 adbe
000000c0: fad5 623f 7a1c 303d 4129 c0be eabf 873e
000000d0: d665 66be d8ca 0dbd e7c1 533e 0680 a73a
000000e0: b3cb 86bd b0ce 233e de63 573c e0e1 03bd
000000f0: c16d a03d c59c c13d bd05 48be c141 f23c
00000100: 972d 8ebe 565d 81be a855 cabe e3fb 493f
00000110: 59fa 5fbd 05cd 62be 6570 6bbe 84bc 66bc
00000120: 8ee2 a7be 66ce 4a3f edc8 8f3e 6432 943e
00000130: 9311 7b3f a1d3 803e d51f b4be a426 51bf
00000140: a0df 16bf 2634 09be b2f3 c4bd 06e6 37be
00000150: 56c9 dc3d 16ea 14be 7777 08be 13c5 2fbd
00000160: f489 dcbe 496c 9cbe 4fdb 44be 0b37 9b3c
00000170: 042a b8be 6afb 453e a50d ac3e 74e4 f63c
00000180: b614 a63e df62 833e 9a14 203e 6fe6 423e
00000190: 5009 803d e96e 8bbe 37f0 633d 5f9f 46bd
000001a0: b2a5 133e 8efc e73d 92e0 6dbe de8b 9abe
000001b0: 17b2 1ebe 6521 b43e 24a2 abbe 0423 75bc
000001c0: 4d76 393e 6f16 1bbe 5c11 aa3d 86cd e43e
000001d0: 351b 9e3e 8320 bd3e a807 433e 2d61 f7bd
000001e0: 7fed 623e e7e2 0ebf 292f 07bf ba88 a13e
000001f0: 61e3 6a3e 5808 f7be 1bda 43be 63ba 0b3d
00000200: 1133 93bc aec2 fcbd 394a 96bb ab93 b93d
00000210: b913 333c 4ea1 39bc 32f2 99bd 040e 703d
00000220: af58 c4be fd52 d7bc f3f6 89be fb59 1f3e
00000230: bbf6 33be 3758 5cbe f7c6 f5bd a5f5 9bbd
00000240: 81ab 08be 14da 2a3e 1d5c 31be 8249 d63e
00000250: c9b3 a33f 0ebf 033f 0c24 85be 1039 2e3f
00000260: 65ff b3bd 8db4 87be ab37 223c 6ed8 b4bd
00000270: 1a9c 9fbd db40 633d 15f1 a2bd db20 15be
00000280: 6fd1 85bd 2db3 cbbd 9e6f 8ebe b620 76be
00000290: 1b26 c5be 9f28 b1be c5b4 a9bd 7f22 3a3e
000002a0: f96c eebd 460c 0f3e f28b 113e d950 fbbd
000002b0: a8ab 92be 72da 9ebe 292e 013d c46f 183f
000002c0: 9d83 2d3d 4b5d df3c 41f3 cb3d aaf0 b6bd
000002d0: 40b9 9cbd 6a66 f4bc 0e73 01be b7bd 03be
000002e0: 4e53 ba3d a496 223e 72d0 dbbe 7ff7 433e
000002f0: 2aa2 ea3d 3985 b13e 0179 bd3e 2ad1 34be
00000300: f888 2ebc 511a 6ebe fd51 8abe eb5e c53e
00000310: dc57 583e 956d 97bd d258 7ebd 418b 773d
00000320: d8a0 b63d d2ed 5abc 7b69 56bc b3da 3fbe
00000330: 6756 0dbe be54 64be f45c 563d 05b7 1a3e
00000340: a25c 173e 4f84 d7be 9c19 003e 4308 233f
00000350: c589 b2be 8aa7 88be 3f4f 2a3e 23c8 10be
00000360: 0fc8 94be 7165 3d3f 1b77 1e3e 38e6 1cbf
00000370: c20d 06be 165b 20be bd50 0c3f f19d 023f
00000380: 4012 d43e 1f1e e3bd 43fa bf3d 238d 63be
00000390: 2d6c bebe bd74 ed3a b9b5 85be 9f4d 4bbd
000003a0: 0c17 47be ce27 00be 4a2f 54be 9313 b7bc
000003b0: 7f3b c1be ac96 d83e 7e55 743e 2182 04bd
000003c0: 4cac 85bd 8874 6ebe 0959 b0bd 0765 a7bc
000003d0: 9b48 8cbd f74c 163e c04c b0be a1b4 4bbf
000003e0: 65ab 81be 1ef3 aabe 2a3b 19be 5efe abbe
000003f0: 6745 193e de37 fe3e deb0 973e b714 7dbe
0.23291239 -0.6327928 -0.2989052 -0.4955674 -0.51753604 -0.24470393 -0.09677607 0.08592938
-0.15197892 0.25823334 0.2302541 0.111203894 0.25375623 -0.22481175 -0.3510041 0.3055616
-0.033567376 0.07350352 0.34004378 0.4055006 -0.22334415 -0.0581222 0.31781587 -0.27130863
-0.061285518 -0.21530129 -0.26810208 0.21366657 0.21332766 0.2648508 0.122982755 -0.62471396
-0.12855938 0.30393818 0.0333134 0.04848107 0.3825197 0.1512429 -0.08018003 0.06150405
0.29554495 0.045028087 0.20188975 -0.035724737 -0.188093 0.15291372 -0.09546837 -0.33978793
0.8860775 0.042995907 -0.37531474 0.26513606 -0.22499785 -0.034617275 0.20679437 0.0012779243
-0.06581821 0.15996814 0.013146369 -0.032197833 0.07833434 0.094537295 -0.19533439 0.02957237
-0.27769157 -0.25266522 -0.39518476 0.78899974 -0.05468211 -0.22148521 -0.22992094 -0.014083032
-0.32790035 0.7922119 0.28082982 0.28944695 0.9807369 0.2516146 -0.35180536 -0.81699586
-0.58934975 -0.133988 -0.09616794 -0.1795884 0.10780589 -0.14542422 -0.13326822 -0.042912554
-0.43074 -0.30551365 -0.19224285 0.018947145 -0.35969555 0.19334188 0.3360416 0.030138232
0.32437676 0.2566137 0.15632859 0.19033216 0.06251776 -0.27233055 0.05564901 -0.048491832
0.14418676 0.11327468 -0.23230198 -0.30184835 -0.15497623 0.35181728 -0.3352214 -0.014961962
0.18111534 -0.15145276 0.08304092 0.44688052 0.30880132 0.36938867 0.1904589 -0.12079082
0.2216091 -0.55814976 -0.52806336 0.31549627 0.229383 -0.48248553 -0.1912617 0.0341133
-0.017968686 -0.1234182 -0.0045864847 0.090613686 0.010929995 -0.011329962 -0.07516898 0.058607116
-0.3834891 -0.02628469 -0.2694622 0.15561669 -0.17574589 -0.21518026 -0.1200084 -0.07615212
-0.13346674 0.16684753 -0.17320295 0.41852957 1.2789241 0.514634 -0.26004064 0.6805582
-0.08788947 -0.26504937 0.009900968 -0.08830343 -0.07793446 0.055481773 -0.07956139 -0.14563315
-0.06534087 -0.099462844 -0.27819532 -0.24035916 -0.38505635 -0.34601304 -0.08286432 0.18177222
-0.11641879 0.13969526 0.14213541 -0.1227128 -0.28646588 -0.31026036 0.031538162 0.5954554
0.042361844 0.027266165 0.099585064 -0.08932622 -0.07652521 -0.029833991 -0.12641546 -0.12865339
0.0909792 0.15877777 -0.4293247 0.19137381 0.114567116 0.34671953 0.3700638 -0.17657915
-0.010652773 -0.23252226 -0.27015677 0.3854898 0.21127266 -0.07393948 -0.062096424 0.060435537
0.08917397 -0.013362365 -0.013086672 -0.18735771 -0.13802491 -0.22297952 0.05233474 0.15108879
0.1478143 -0.4209313 0.12509769 0.6368448 -0.34870735 -0.26690322 0.16631792 -0.14138846
-0.29058883 0.7398291 0.15475123 -0.61288786 -0.13091186 -0.15659747 0.54810697 0.5102225
0.41420174 -0.110897295 0.093739055 -0.22221808 -0.37191907 0.0018116456 -0.26115206 -0.049634572
-0.19442385 -0.12515184 -0.20721164 -0.0223482 -0.37740704 0.42302454 0.23860738 -0.032350663
-0.06527004 -0.2328664 -0.08610732 -0.020433916 -0.06849786 0.14677797 -0.34433556 -0.7957249
-0.25326076 -0.3338861 -0.14963976 -0.33592504 0.14967881 0.49651998 0.29627126 -0.24714933

block1.2.bn2.weight f4 [8]
00000000: 4ec2 4a3f 9950 8f3f 8992 b53f 6c69 103f
00000010: a2ef 4d3f 8dc2 203f e233 343f e583 3c3f
0.79202735 1.1196471 1.4185344 0.5641086 0.80443776 0.6279686 0.70391667 0.73638755

block1.2.bn2.bias f4 [8]
00000000: 13a4 323e eda8 71be 60ec 2ebf e55a ac3e
00000010: 87db 14be f882 1bbd b11a 9c3d 6369 b7be
0.17445402 -0.23599596 -0.6832943 0.33663097 -0.14536868 -0.0379667 0.076222785 -0.3582259

block1.2.bn2.running_mean f4 [8]
00000000: df43 3cbf 7515 f0be ac6b 9d3f d0c9 03c0
00000010: 202f 1340 66fb 1c3f 418d 68bf 6379 65bf
-0.73541063 -0.4689137 1.2298484 -2.0591927 2.2997513 0.61321104 -0.90840536 -0.89638346

block1.2.bn2.running_var f4 [8]
00000000: 054f 0c40 ae59 3240 bde5 ca40 129a 0940
00000010: d17c 3640 90c4 b43f 369e 2240 ef61 c23f
2.192323 2.7867236 6.340544 2.1500287 2.8513682 1.4122486 2.5409064 1.5186137

block1.2.conv3.weight f4 [16, 8, 1, 1]
00000000: dfa8 dbbe 635b 2a3e 5455 9ebe 3b7a 5dbf
00000010: d2a1 ba3e 8b6c f93e b9c7 703d f492 28be
00000020: bd49 783e c5f0 033e 3a3d f8be 7f75 a0be
00000030: defb 293f 9437 73be bcba a63e 1b0e aa3e
00000040: 250d 9cbe 1417 49bb 173b 15bf c17a 88be
00000050: e8df 5cbd b310 69be d0fd 0cbf 72ba b7bd
00000060: b351 18be 5f02 123f 7c28 2dbd a454 83bd
00000070: 3668 90be ca20 a53d a651 173c fb69 483f
00000080: 46fc 8c3e 1fde 8a3f d13a 1cbe f5ce dbbd
00000090: d142 33be e0f0 c73d 990e 453e 2439 b0bd
000000a0: e739 233f 147a 4c3d 336c f7bc 7d01 5cbe
000000b0: 6748 80be 85d5 51bd 52cf a53d 7479 9ebd
000000c0: 7254 06bf 3e07 07be 57b0 b33d bd76 05bf
000000d0: ca5f 3abf 9f5c 21bf 025f 1c3f 741a 053e
000000e0: f79b 99be bf29 453d c3fc 5d3d 6d2b d73e
000000f0: d88f 06be f6c4 883e a478 3cbe e6f8 3cbe
00000100: 1ee7 4f3e a08f 1a3e ab1e 013f d379 843d
00000110: 980e 20be 3f41 e73d 5e3e b0be 96e0 313e
00000120: d641 703e 7909 68bc 0e63 fabe 095a 96bd
00000130: 5306 093e 7473 3b3e a6b5 743e f805 a5be
00000140: dd5b 8d3d 8574 67be ee6e b33e 3548 2e3f
00000150: 2ffa 7ebc e360 d83d 89b0 b43e fa2e 90be
00000160: bad5 3d3d c235 e8be 35a2 d0bf 0cc1 4fbe
00000170: c277 16ba a381 1dbe 0e99 b5be c0cf 213e
00000180: 1036 0a3f 1b9e 7cbe 75c8 a4be 86fc c33d
00000190: 3b91 21be fecb 463d ba4e 643e 9ca6 913e
000001a0: 5e51 74be 7799 a4bb 4a0b 12bf 5523 a43e
000001b0: cbf9 32bf 85eb aabd edbc b63d 8916 14bf
000001c0: 80cb 653d faa8 8ebf 15fa 06be 43b5 3ebe
000001d0: 4562 29bf 5ea3 a33e 4ce8 d33e bf35 9cbc
000001e0: 3b8e 21bf 329b 8e3e 7881 363f 4357 b0bd
000001f0: 96cc 7cbe 1a9b 06bf e27f d3be a653 01bd
-0.42902276 0.16636424 -0.30924475 -0.86514634 0.36451584 0.48715624 0.05878422 -0.16462308
0.24246879 0.12884815 -0.48484212 -0.31339642 0.66399944 -0.2375167 0.32564342 0.33213887
-0.30478778 -0.0030683922 -0.5829329 -0.26656154 -0.05392447 -0.22760276 -0.5507479 -0.089711085
-0.14874916 0.5703487 -0.042274937 -0.06412628 -0.28204507 0.08062895 0.009235775 0.78286713
0.2753622 1.0849036 -0.15256812 -0.10732833 -0.17505957 0.0976274 0.1924385 -0.08604649
0.63760227 0.04992111 -0.03020296 -0.21484943 -0.2505524 -0.05122902 0.08096184 -0.07738009
-0.52472603 -0.13186356 0.087738685 -0.52134305 -0.7280241 -0.63031954 0.6108247 0.12998372
-0.30001804 0.048135515 0.05419613 0.4202532 -0.1314081 0.2671277 -0.18405396 -0.18454322
0.20303008 0.15093851 0.5043742 0.064685486 -0.15630567 0.112917416 -0.34422582 0.17370829
0.23462614 -0.014162415 -0.48903698 -0.073413916 0.13381319 0.1830576 0.23897418 -0.32231116
0.06902287 -0.22603042 0.3504557 0.6807893 -0.015562578 0.10565355 0.35290936 -0.2816084
0.046346404 -0.45353514 -1.6299502 -0.20288485 -0.0005739891 -0.15381484 -0.35468334 0.15801907
0.5398874 -0.24669687 -0.32184187 0.095696494 -0.15778057 0.048534386 0.22295657 0.28447425
-0.23859164 -0.0050231772 -0.57048476 0.32058206 -0.69912404 -0.08345703 0.089227535 -0.57846886
0.056102276 -1.1145318 -0.13181336 -0.18623833 -0.6616557 0.31960577 0.41388166 -0.019068597
-0.6310765 0.2785278 0.71291304 -0.08610394 -0.24687418 -0.52580416 -0.41308504 -0.031573914

block1.2.bn3.weight f4 [16]
00000000: a3dc ed3e 7a14 2a3f db83 1e3f 07fd 623f
00000010: 28f0 163f 24ec b53e d368 063f 45d6 033d
00000020: ca82 993e 0120 453e a7f6 fe3b 970c c03f
00000030: f9c1 99bd bcfb 1b3f 3992 3d3f f37c 053f
0.46457395 0.66437495 0.61919945 0.8866734 0.589602 0.35531723 0.525037 0.032186765
0.29982597 0.1925049 0.007780868 1.5003842 -0.075077005 0.6093099 0.74051243 0.5214378

block1.2.bn3.bias f4 [16]
00000000: a59c b1be 8040 663e 6918 c6bc bd7f 7dbc
00000010: 62c2 e73e 8710 99bf 7284 23bd 0439 78be
00000020: e5c9 fcbd faf6 6e3e 5650 01be e942 413c
00000030: 936b a0be 5855 1fbe 11b3 1d3e ddad 3abd
-0.34689823 0.22485542 -0.024181562 -0.01547235 0.4526549 -1.1958169 -0.03992123 -0.242405
-0.12343196 0.23336402 -0.12628302 0.011795738 -0.31332073 -0.155599 0.1540034 -0.045575965

block1.2.bn3.running_mean f4 [16]
00000000: 18be c1be 76d9 d83d d865 1dbf 3e2d 0d3e
00000010: 3cd5 bb3e a99d df3d 6dd3 0fbf 1de5 183d
00000020: 7c1a 553e ba0d 643c 841c d33e f34a 40bf
00000030: a02e 283e 52ce b5be 64c2 d8be fe11 94be
-0.37840343 0.105883524 -0.61483526 0.1378679 0.36686122 0.10918743 -0.56181985 0.037327874
0.20810884 0.013919288 0.41232693 -0.75114363 0.16424036 -0.35508972 -0.42335808 -0.28919977

block1.2.bn3.running_var f4 [16]
00000000: 0ef4 c23e 264c a53e 8423 483f 6e13 b83e
00000010: 81dc 053f 66ba 8f3d 2151 ac3e b7b9 963d
00000020: e0ae 9d3e d12b a53e 5180 ba3e f5a2 9840
00000030: a188 6b3e 807b d63e aa0e 7f3f 480d 703f
0.38076824 0.3228466 0.7817919 0.35952324 0.5228959 0.070179746 0.33655646 0.07359641
0.30797482 0.32259992 0.36426023 4.769892 0.23001339 0.41891098 0.9963175 0.93770266

block1.3.conv1.weight f4 [8, 16, 1, 1]
00000000: 26c0 aabe f162 8e3d a3fd 57be 9087 b9be
00000010: 9348 963e 522e 5e3e ab49 eabe 8b97 083c
00000020: 9ad2 b23e d001 f63d 7dcc 143e b436 4bbf
00000030: 9d8b 92bd b658 a03d 6027 8a3e 0ac2 70bf
00000040: 2281 3b3e 2336 23bf d622 8fbe b91e 23bf
00000050: a4be a4be 0d53 b0bb 1bc1 e83d 6f11 80be
00000060: 60b5 debd 9ba1 e73e ccdc cfbe 619b 3ebe
00000070: c37f 1bbd 54da 9d3d 4d73 753f 9492 a1bd
00000080: 4787 a1bf 6ebc 58be de97 cabe 94be dbbd
00000090: a315 f13c ac6e 90be 73b3 0bbe 3c86 d3be
000000a0: 2a18 a4bd 013c 6e3d 8b9f 78be 75fb 9bbd
000000b0: a8e3 04bf db98 433e 9488 38be ea08 c4be
000000c0: 1d7f 82be 47bc aa3e 7551 083f 49a0 a5bd
000000d0: 4f92 16bf 1f54 2bbf d76c edbd 2194 df3c
000000e0: f922 c0be 27aa f9bd e405 883e a555 35be
000000f0: 157d 43be 9f74 e33d dab9 06bf cb68 d73e
00000100: d43a 1fbe 0cb8 dc3b 0b4c ccbe 5bb5 22bf
00000110: 9c79 1bbf 59bf 833d d0d6 203f 7ac5 43bd
00000120: 37be 64bd 4e73 e63e c71a f03e a62c 263f
00000130: 0c5b a63e 0fab e13e ed8d 60bf cfd4 14bf
00000140: 53d3 c6be 774a 0abe da98 863e bfb5 0abe
00000150: b55b 2d3e 4606 31be a43f 98bd 5e24 663e
00000160: 1e81 45bd 5ec9 5fbe 67f0 723f 3983 91be
00000170: 1a8b 02be 3639 203d 5d49 cd3d e381 973e
00000180: 872f 38be c98d 9c3e f29e 973e ff05 e03d
00000190: 3a9c 80be b251 71bc 9385 ab3c 014f 933e
000001a0: 76bb d53e 02b2 32be fe5c d93e eb45 483d
000001b0: af48 9dbd 6076 133e c7c1 5e3e c12a 2a3c
000001c0: 6f3b 2c3f e8a0 56be 57d1 9b3c e416 b43d
000001d0: a321 a9be 21fc b7be d76f 86be d8df 25be
000001e0: e635 92bd eced b0be 8175 433d 6245 0d3f
000001f0: 47c7 41be 938b a0be bafd 873e d0d1 693f
-0.33349723 0.06952465 -0.21092848 -0.36236238 0.29352245 0.21697357 -0.4575933 0.008336912
0.349263 0.120120645 0.14531131 -0.79380345 -0.07155535 0.0782942 0.26983166 -0.9404608
0.18310979 -0.6375448 -0.27956265 -0.63718754 -0.32176697 -0.005380994 0.11364957 -0.250133
-0.10874438 0.45240483 -0.40598142 -0.1861396 -0.03796364 0.077076584 0.9587906 -0.07889286
-1.2619408 -0.2116563 -0.3956899 -0.10729709 0.029429263 -0.28209436 -0.13642673 -0.4131335
-0.080124214 0.058162693 -0.24279611 -0.07616321 -0.51909876 0.19101278 -0.1802085 -0.3828805
-0.25487605 0.3334677 0.53249294 -0.080872126 -0.58817 -0.66925234 -0.11593025 0.027292313
-0.37526682 -0.12190657 0.26566994 -0.17708452 -0.19090684 0.11106228 -0.52627337 0.42072138
-0.15549785 0.0067358073 -0.39901766 -0.63557976 -0.60732436 0.06432981 0.6282778 -0.04779575
-0.055845466 0.45009845 0.4689543 0.6491188 0.32491338 0.4407582 -0.8771656 -0.5813722
-0.38833103 -0.13504969 0.2628849 -0.13545893 0.16929515 -0.1728755 -0.074340135 0.2247481
-0.04821884 -0.21854159 0.94898075 -0.28420427 -0.12748376 0.03911706 0.100237586 0.29591283
-0.1798688 0.30576923 0.29613453 0.10938644 -0.2511919 -0.01472895 0.020937717 0.28771213
0.41744584 -0.17450717 0.4245376 0.048894804 -0.07679879 0.14400625 0.21753608 0.01038617
0.6727819 -0.20959818 0.01902072 0.087934285 -0.33033475 -0.35934547 -0.26257202 -0.16198671
-0.071391866 -0.3455652 0.047719482 0.55183995 -0.18923675 -0.31356487 0.26560766 0.91335773

block1.3.bn1.weight f4 [8]
00000000: 0f55 663f f7ff 5a3f b82b 663f 2be6 673f
00000010: 774d 963f 5e03 1f3f aa69 f83e 33d8 183f
0.8997354 0.8554682 0.8991046 0.90585583 1.174239 0.6211451 0.48518115 0.59704894

block1.3.bn1.bias f4 [8]
00000000: 4df3 b63e 690f 66be 9c1f bfbd 895f eebd
00000010: e62d 3b3e 0b72 1b3e fd6f 4dbe b760 0f3f
0.357325 -0.22466816 -0.09332201 -0.11639316 0.18279228 0.15180223 -0.20062251 0.5600695

block1.3.bn1.running_mean f4 [8]
00000000: 4fe1 b0c0 418a 2bbe 095d 03c1 0e3c 97bf
00000010: 70a2 3a3e 8b34 df3f 42aa 1440 34f3 8b40
-5.5275035 -0.16751958 -8.210214 -1.1815202 0.18226027 1.743791 2.3228917 4.373438

block1.3.bn1.running_var f4 [8]
00000000: b4b2 ed40 4899 1041 d6de 0041 ce1f b340
00000010: 8d10 7041 4590 a440 f0b5 1d40 09e8 a740
7.4280643 9.037422 8.054403 5.5976324 15.004041 5.142611 2.4642296 5.2470746
