assignment1/results/trial_2/inception/ckpts/1000.pt (torch, 689139 bytes, 467 tensors)

block1.0.conv1_1.weight f4 [4, 16, 1, 1]
00000000: 5954 b13e 290a b93f f9c8 dcbd e83b abbe
00000010: 3746 42bf d702 dcbd 55a4 413e cf5c 1c3e
00000020: ed0a aa3e df52 9dbe 4d05 ffbe 5657 f5be
00000030: 7e97 89bf 3f14 103f 1108 963f c5a8 a5bf
00000040: 0a9d cdbf 8a16 8fbf 863e dc3d 3bdb 713f
00000050: fed9 b0be c436 d4be 0ca5 1bbe be87 653f
00000060: 4f77 3a3e 48ad 1fbf f4f3 64bf 432b e1be
00000070: 4ac1 91bf 14fd 7cbc c88d f93f a3c0 b5bf
00000080: a65d 163e d13b b03f 0603 cbbf 8445 11bf
00000090: e2bd a33d 111d 5c3f aa9b 0e3f 7cea 5abe
000000a0: ce48 633f caf2 083f 76e7 c63e 32d6 853e
000000b0: 0d3d 733f a030 6bbf 5a9f 00bf ae5d 78bd
000000c0: 302b 3e3f 2653 d03e adbf 213e dba0 713f
000000d0: b25a 0ebf 03fe 4240 45b0 043d 9014 dcbf
000000e0: 7abe 66bf 2424 c43e 4f0a 34bf 1ce2 083f
000000f0: 1bbf 2c40 1411 0840 ae6a 3ac0 b86c f63e
0.34634665 1.4456226 -0.1078052 -0.33444142 -0.7588839 -0.10742729 0.18910344 0.15269779
0.3321146 -0.30727288 -0.49808732 -0.47918195 -1.0749357 0.56280893 1.1721212 -1.2942129
-1.606355 -1.1178753 0.10754113 0.94475144 -0.34541315 -0.41448033 -0.15199679 0.8966025
0.18209575 -0.6237378 -0.8943474 -0.4397832 -1.1387112 -0.015441198 1.9496393 -1.4199413
0.14684162 1.3768255 -1.5860298 -0.567467 0.07995202 0.8598185 0.55706275 -0.21378511
0.88782966 0.53495467 0.38848466 0.2613998 0.9501503 -0.9187107 -0.5024315 -0.060636215
0.7428465 0.40688437 0.15795775 0.9438607 -0.5560714 3.0467536 0.032394666 -1.7193775
-0.90134394 0.38308823 -0.7032823 0.53470016 2.6991642 2.1260424 -2.9127612 0.4812982

block1.0.bn1_1.weight f4 [4]
00000000: 36c8 f83f 7fbe ba3f 9c92 b23f 4b2b f73e
1.94361 1.4589385 1.3950992 0.48275217

block1.0.bn1_1.bias f4 [4]
00000000: a6eb b23d 0d38 d93e bc5b 6e3f dbc9 473f
0.087363526 0.42425576 0.93108726 0.7804238

block1.0.bn1_1.running_mean f4 [4]
00000000: 1836 2240 e3b5 44c0 6de5 1b40 117b 0b41
2.5345516 -3.0736015 2.435878 8.7175455

block1.0.bn1_1.running_var f4 [4]
00000000: 4c56 5941 bf1a 0842 5284 5a42 53ff 6442
13.583569 34.02612 54.62922 57.24934

block1.0.conv2_1.weight f4 [8, 16, 1, 1]
00000000: 4989 55bf 48f0 15bf a5dc 2840 ff0a 0f3f
00000010: 4d2a f43f 662c d2bf 3271 033e 16dc 96be
00000020: 95ac b9be fce2 8abd 173f 183d 58b1 d7be
00000030: 7912 c4be a118 13bf afbd b83e ecae 4abf
00000040: 05da 94bf 2ee4 03c0 d090 b43f 5561 c8bf
00000050: fcaf 8fbe 1b6d acbf 36c6 2dbf 6c77 b2bf
00000060: a84a 30bf e680 6bbe c816 54bf 673d c8be
00000070: 6b89 8dbf 52f3 893f b8de 7ebf cd37 0bbf
00000080: ee4b 39bf 6a61 f9be 79e1 b8bf a111 d2bf
00000090: 00d3 07bf 9fe6 57bd 10f3 2bbe aafc f93e
000000a0: 5648 0dbf 40ea 86be 965d c0be 0c94 85bc
000000b0: 59a8 d9be 0db9 b13e 0792 c13f 0f8b f4bf
000000c0: a993 b03e ebf1 9cbf 38c0 883f 8e9c 21c0
000000d0: 437f 8d3f 184e eabf 5759 2040 64e7 683f
000000e0: 8cca 563f 0983 64be e3d8 2bbe 36a9 35be
000000f0: c558 16bf a7b6 17c0 4483 0cbe 0039 04be
00000100: 4992 3f3f f3e7 333f c836 a23f 0616 c53f
00000110: ea13 933e 833c 923f d186 b13e 68d6 5bbf
00000120: ccc1 c53e 6d7d 43be 53ea 353e eef2 413f
00000130: 35a4 f13e 4d56 0b3f 9996 62bf dfeb ae3f
00000140: 04d8 81bf fca1 eabf fa5c a23f d051 d83e
00000150: 50ef 533f 3b37 02bf 8739 b1bf 9d8d a93f
00000160: 6364 b6bf a16f 41be 3bb7 66be 2250 2dbf
00000170: ddab 0fbe 60a3 8dbf b064 d53f af42 6dbc
00000180: e194 613f 348b 97bf b630 1abf 8a48 81bd
00000190: 6765 663e 9aa5 52be 7be2 09bd 8101 e5be
000001a0: 3230 aebe ed20 efbe 8eb6 283f c0e6 243f
000001b0: f03f 463f 33e7 483f 489b afbe 9bb3 7dbf
000001c0: 1574 79be d99a 85bf ddd8 823f b61e be3f
000001d0: 8875 823f f13f e9be da68 5bbf 7ca5 8e3f
000001e0: e2c2 1dbf 8611 623e 8e7c 84be da2b 853f
000001f0: 058d 1f3f df22 08bf f189 133f 0d3f 7d3e
-0.83412606 -0.58569765 2.638467 0.55876154 1.9075409 -1.6419799 0.1283615 -0.29464787
-0.36264482 -0.06781575 0.037169542 -0.4212749 -0.38295344 -0.57459456 0.36082217 -0.7917316
-1.1629034 -2.060802 1.4106693 -1.5654703 -0.28063953 -1.3470796 -0.6788057 -1.3942695
-0.68863916 -0.2299839 -0.8284726 -0.39109346 -1.1057562 1.077738 -0.9955859 -0.5438202
-0.72381485 -0.48707134 -1.4443809 -1.641163 -0.53056335 -0.05271017 -0.1679194 0.4882558
-0.551885 -0.26350594 -0.375714 -0.016305946 -0.42511252 0.34711495 1.5122689 -1.9104937
0.34487656 -1.2261328 1.068366 -2.5251803 1.1054462 -1.8305082 2.5054529 0.90978074
0.8390281 -0.22315611 -0.16781954 -0.1774033 -0.587292 -2.3705232 -0.13721949 -0.12912369
0.7483259 0.702758 1.2672968 1.5397346 0.2872613 1.1424717 0.3467317 -0.8587403
0.38624418 -0.19090815 0.17765169 0.75761306 0.47195593 0.5442856 -0.88511044 1.3665732
-1.0144048 -1.8330684 1.2684624 0.42249918 0.82787037 -0.50865525 -1.3845681 1.3246342
-1.4249386 -0.1889024 -0.22530834 -0.677004 -0.14030404 -1.1065483 1.6671352 -0.014481231
0.88117796 -1.1839356 -0.60230577 -0.06312664 0.2249962 -0.20570984 -0.033663254 -0.4472771
-0.34021145 -0.46704808 0.65903556 0.64414597 0.7744131 0.7847778 -0.34298158 -0.9910218
-0.24360688 -1.0437881 1.0222431 1.4853122 1.0192118 -0.45556596 -0.85706866 1.1144252
-0.6162549 0.22076997 -0.25876278 1.0404007 0.62324554 -0.5317821 0.57632357 0.24731083

block1.0.bn2_1.weight f4 [8]
00000000: b603 bb3f 4862 6a3f 4b71 753f 17f7 fa3f
00000010: ea1c a73e 9a54 e43e 0a39 a23f 0c5b d93f
1.4610507 0.91556215 0.95875996 1.9606656 0.32639247 0.44595796 1.2673657 1.698091

block1.0.bn2_1.bias f4 [8]
00000000: 92ab a83e eaeb 053f 9b9a 1e3e 0b0e 443e
00000010: 040c c5bf aa2d 573f 846d 66bf d8bf b03f
0.32943398 0.523131 0.15488665 0.19145982 -1.5394292 0.8405405 -0.9001086 1.3808546

block1.0.bn2_1.running_mean f4 [8]
00000000: f248 37c0 d43d 55c1 0e41 0ec1 ceea d2c0
00000010: 9516 3741 9a03 d4c0 3e1d 10c0 09f6 d53e
-2.8638272 -13.327595 -8.8908825 -6.5911627 11.443013 -6.6254396 -2.2517848 0.41789272

block1.0.bn2_1.running_var f4 [8]
00000000: 255d 5f42 5a82 aa42 6c9b 6d41 194c 4642
00000010: 1a6d b241 112f cd42 b444 ef40 a080 4642
55.84096 85.25459 14.850445 49.574314 22.303272 102.59193 7.4771366 49.62561

block1.0.conv2_2.weight f4 [8, 8, 3, 3]
00000000: 6c23 c2be 8ddf 8fbf 0ba4 5bbf fc7a 8fbe
00000010: f5c8 59bf b486 53bf 1d99 733f 6442 1f3f
00000020: b22d a13b a181 1e3d 7e39 56bf 55d9 25bf
00000030: 6edb 00be bf88 edbe f225 f6be bf83 2cbe
00000040: b3a1 083e cd50 bebe cb7b b13d 7762 abbd
00000050: 4345 283f 4b39 51be 1767 c2bc 587a a73e
00000060: 75f6 13be 4fa5 9ebe 3a82 e0bd fbdc 0bbf
00000070: c098 12bf cfb3 68bf 5114 0bbe e8c6 5abe
00000080: ec71 a0be 3608 483e 68bc 9e3e 6f4e 49be
00000090: c0bc 503f c23f 863f 803b 1a3f e389 40be
000000a0: 5e13 623e 1fbd c63e 82c0 69be 07fa b53c
000000b0: 911a ed3e 2264 773f 78f5 083f 658f 123e
000000c0: 8ebe cc3e 7d97 153e d021 313e 5099 1b3e
000000d0: a2cc dfbe fe22 08bf e802 403f a8a4 563f
000000e0: b9eb 003f dc7a 943e f656 903e 5a9d 93bd
000000f0: 119e 0cbe 3710 c13e e4bf c7bd 865a 833f
00000100: 129e d33f 9409 743e c8df 583e ea83 353f
00000110: 50d1 0e3e 5161 8dbf 339e c2be 822d 08bf
00000120: 5701 01bf 49d4 86be 276f f03e a394 bbbf
00000130: ceae 9cbe 352d 50be 6922 953e 6d91 943e
00000140: cd61 85be d623 d6be b9d1 81be a6ab eabe
00000150: 7fc5 8c3e 594f e9be e016 1dbf 22b0 03bf
00000160: 38e5 77bf bdb5 2ebf b2eb 083d 1915 403e
00000170: 0338 403e d4ab 3c3f 0a46 963e ad99 5abe
00000180: 7a5a 163f 295b 1d3f a999 833f 734f f2be
00000190: 574c 17bf c564 3fbf 0bdc 773f 33c4 44be
000001a0: d10c 663e 5fe8 27bf 1ef4 e6bf a707 73bf
000001b0: a339 cd3e 146c c63e 7632 2cbe 7d6c 57bf
000001c0: 19e8 20bf 8ed2 27bf af9e c3be cfd6 7fbe
000001d0: dc67 56be 1954 dd3e ffe0 a0be 5db6 683e
000001e0: e719 b1be 3a6d 44bf 43be 29bf ffd7 9ebd
000001f0: 57f9 37bf 1b34 e8be 2b5f d4be c4ea 4dbf
00000200: 6ad2 d7be a059 053e b779 05bf c3c8 96be
00000210: 152b ecbe db48 69bf b954 20bf 57cc 1d3e
00000220: 927b fdbe bfd4 ac3e 38f5 7ebf cd11 ccbf
00000230: 8065 52bf e167 3d3e 59fc 16be d202 383e
00000240: a96b 9b3e 187c b1bf d88c f6be 6476 173b
00000250: a953 8bbf bdac 46be ab7e 25bf 616e b1be
00000260: 5563 6f3f 14e3 55bf 171c bfbf cbc6 27bf
00000270: abee e1bf 4371 e4bf ce72 f8bf 5990 6abf
00000280: d816 c3bf 76eb f9bf cf85 59bf 63ee 5c3d
00000290: 1dcd 9cbe b4bb b3be 641e 17bf 07ca c1be
000002a0: 1e66 a4bf 217b b9bf 18fc a4bf 4574 973f
000002b0: 352d e33e a6d7 aa3e b304 febe b602 b8be
000002c0: 8de5 4fbf 82dc 8c3f ea11 113f ad61 843e
000002d0: 3311 cb3e e395 abbe 82c8 d43d 9c73 9ebd
000002e0: b78a 56be cf89 09be 1377 b13e 5a20 393e
000002f0: 2b4c cf3e d316 99bf a224 d1bf f5bb 66bf
00000300: bd53 c0be d64c bdbe afdf 92bf 696b 36bf
00000310: fa18 d5bf 310f debf ee0e a63f 318c 943f
00000320: f818 d83e 1cfe 943c f847 143f 808d 96be
00000330: 8e62 9c3f c5ad b33f 9a65 653f 8e7b efbe
00000340: 405d e43d 3d70 48bf 45d8 aabd 3e7a 603e
00000350: bc33 06bf 5c55 6bbf ecba 22bf 6a4e 32bf
00000360: 506c 13c0 d668 ffbd 1e49 f23f d306 08c0
00000370: 6dd4 e8bf a737 b63f 7571 223f 558c e7bd
00000380: 3fb6 723e eb3e 8c3e 1fe6 0e3f 860c 983f
00000390: f92c b1be 9e28 df3e 5d56 183f 702d 803f
000003a0: 1e82 343f d332 d13f fe95 673f 1dce e53f
000003b0: 83e0 b1bf 7ebf ad3f 2977 d43f ce09 92be
000003c0: 7e59 0e3f 048b 973f 6703 49bf da52 e5be
000003d0: 332c 5fbf c723 ddbd b5bd d8be 72bb 42bf
000003e0: 300e c2be 93c0 87be d2d1 b2bf 6207 66bf
000003f0: eeeb 503e 7c32 2f3f 0389 aabd 8545 03bf
-0.3791765 -1.1240097 -0.85797185 -0.28023517 -0.8507226 -0.82627416 0.9515551 0.6221068
0.0049187774 0.038697843 -0.83681476 -0.6478475 -0.12583706 -0.4639339 -0.48075825 -0.16847132
0.13342933 -0.3717102 0.0866619 -0.0836839 0.65730685 -0.20432012 -0.023730798 0.32710528
-0.14449485 -0.30985495 -0.10962339 -0.54634064 -0.5726433 -0.90899366 -0.13581969 -0.21364939
-0.31336915 0.19534382 0.31003118 -0.19658826 0.8153801 1.0488207 0.6024704 -0.188026
0.220777 0.38816163 -0.22827342 0.022213949 0.4630933 0.96637166 0.53499556 0.14312513
0.39989132 0.1460857 0.17298055 0.15195203 -0.4371081 -0.53178394 0.75004435 0.83844995
0.50359684 0.28999984 0.28191346 -0.07207747 -0.13732173 0.37707683 -0.09753397 1.0262
1.6532614 0.23831779 0.21179116 0.7090441 0.13947034 -1.1045324 -0.3801132 -0.5319444
-0.5039267 -0.26333836 0.46959803 -1.4654735 -0.30602115 -0.20329745 0.29127815 0.290172
-0.2605118 -0.41824216 -0.25355318 -0.45834082 0.27494428 -0.4556835 -0.6136303 -0.5144063
-0.96834135 -0.6824606 0.0334279 0.18758048 0.18771367 0.7369969 0.2935031 -0.21347685
0.58731806 0.61467224 1.0281268 -0.4732624 -0.5910086 -0.7476314 0.96820134 -0.19215469
0.22465827 -0.65588945 -1.8043249 -0.9493355 0.40083036 0.38754332 -0.16816124 -0.84149915
-0.6285415 -0.65555656 -0.38207003 -0.24984287 -0.20938057 0.43228224 -0.31421658 0.22725816
-0.34590074 -0.76729167 -0.6630594 -0.07756042 -0.7186484 -0.45352253 -0.41478857 -0.8043635
-0.4215272 0.1302247 -0.5213885 -0.29450044 -0.4612662 -0.91126794 -0.62629277 0.1540998
-0.4950834 0.33756062 -0.99592924 -1.5942932 -0.82186127 0.18496658 -0.147447 0.17969826
0.30355576 -1.3865995 -0.4815433 0.0023111338 -1.0884906 -0.19401832 -0.64646405 -0.34654525
0.93510944 -0.8354962 -1.4930447 -0.6553771 -1.7650961 -1.7847065 -1.9410036 -0.9162651
-1.5241346 -1.9524982 -0.849698 0.05393828 -0.3062524 -0.35104144 -0.5903075 -0.37849447
-1.2843664 -1.4490701 -1.2889433 1.1832358 0.44370428 0.33367652 -0.4961296 -0.35939568
-0.8120964 1.1004794 0.5666796 0.2585577 0.3966156 -0.33512792 0.10389806 -0.077368945
-0.20951353 -0.13431476 0.3466116 0.18078747 0.404878 -1.196009 -1.6339304 -0.9013055
-0.37563887 -0.36972684 -1.1474513 -0.71257645 -1.6648247 -1.7348386 1.2973306 1.1605283
0.4220655 0.018187575 0.57922316 -0.2940483 1.2217577 1.4037405 0.89608157 -0.46773952
0.111505985 -0.7829626 -0.083420314 0.21921632 -0.5242269 -0.91927123 -0.6356647 -0.696509
-2.3034859 -0.12471168 1.8928564 -2.1254165 -1.8189827 1.4235734 0.6345437 -0.11306063
0.23702334 0.27391753 0.55819887 1.1878822 -0.34604624 0.43585676 0.5950678 1.0013866
0.70511043 1.6343635 0.90463245 1.7953526 -1.389664 1.3574064 1.6598865 -0.28523105
0.55605304 1.1839299 -0.78520817 -0.44789773 -0.8717682 -0.107978396 -0.42332235 -0.7606727
-0.3790145 -0.2651411 -1.3970282 -0.89855015 0.204025 0.6843641 -0.08326914 -0.51277953

block1.0.bn2_2.weight f4 [8]
00000000: e23c 8c3f c2ed 20be 8cb5 a23f b648 90bf
00000010: 418f 583e a5e9 b63f 6251 d83f 9fb6 f73f
1.095608 -0.15715697 1.2711654 -1.127219 0.21148397 1.4290053 1.6899836 1.9352607

block1.0.bn2_2.bias f4 [8]
00000000: 6a46 0dbe bc2b 5c3e 9847 5c3f 76e8 1c3f
00000010: 9526 453f 904b 583d 5cc5 5a3f fb02 903f
-0.13796392 0.21501058 0.86046743 0.6129221 0.77011997 0.052806437 0.85457397 1.125091

block1.0.bn2_2.running_mean f4 [8]
00000000: 1b9c b3bf cd42 60c1 6662 c3c1 5caf ddc0
00000010: fc15 4840 0e19 ab40 8911 b7c1 c504 f740
-1.4032015 -14.016309 -24.423046 -6.927656 3.1263418 5.3468084 -22.883562 7.719332

block1.0.bn2_2.running_var f4 [8]
00000000: 35ed c041 8400 b742 fb66 4c43 7a23 cb42
00000010: e269 1b42 8fd3 8241 92dc 1f43 885b e442
24.115824 91.50101 204.40227 101.56929 38.8534 16.3533 159.8616 114.17877

block1.0.conv3_1.weight f4 [2, 16, 1, 1]
00000000: 48ac b33e 76c6 c940 6b79 bb3f 59f9 f83f
00000010: d0b5 bb3e 01da 0b40 f75e 9a3e b80a 0b40
00000020: 58b5 bebe 79bd 5a3f 3383 4f3d c113 0f3f
00000030: 13cb 4b40 56fc 5bbf 60bf 86be cd04 9b40
00000040: 897c e93e 8aaf d73d 918a 54bf e549 a9be
00000050: cca4 5c3e 5c84 ed3f 0ce8 023f 5fa3 553e
00000060: 6a9c 893f 4b8b fe3e ef66 7cbc 5d93 2bbd
00000070: 2a31 743f a6c7 9f3f e731 843f 8894 80bf
0.35092378 6.305476 1.4646429 1.9451095 0.3666215 2.185181 0.30150577 2.1725292
-0.3724773 0.8544536 0.05066223 0.5588952 3.1842697 -0.8593191 -0.26317883 4.844336
0.45602825 0.10531528 -0.83023936 -0.3306419 0.2154724 1.8556018 0.51135325 0.20863102
1.0750859 0.49715647 -0.015405401 -0.041888583 0.9538752 1.2482803 1.0327729 -1.0045328

block1.0.bn3_1.weight f4 [2]
00000000: 3df9 623f 0edf ad3f
0.8866156 1.3583696

block1.0.bn3_1.bias f4 [2]
00000000: ca9e 263f 1a18 b53e
0.6508604 0.3536995

block1.0.bn3_1.running_mean f4 [2]
00000000: cbd8 c041 f3b1 d240
24.105856 6.5842223

block1.0.bn3_1.running_var f4 [2]
00000000: 1e21 3a43 a665 7842
186.12936 62.099266

block1.0.conv3_2.weight f4 [2, 2, 5, 5]
00000000: 0160 6c3f d73b 6c3f e0f1 2b3f 48dd 1dbf
00000010: 2114 27be 863c 183f 094d 743c cc2c 93bf
00000020: 8657 e8be 8936 743e 44ff 0440 fc25 4f3e
00000030: 29c0 27bf dd5f ab3f e4a0 213e a834 623f
00000040: b359 8c3e 240c e53d 3c34 a53e 6b82 f03b
00000050: 4c74 993e 8aac 96be f2ab bbbe 01da 7e3f
00000060: d92d 6cbf 80a6 323f ada1 a83f d8dd 9b3f
00000070: be28 2f3f 5b95 c23f 1813 18bf 5baf 033e
00000080: 125e 61be 341c 21bf 99fc 75be 3ae4 c1bf
00000090: 9ddd f1be 13a0 10bf bf7d 8cbe 5866 1ebf
000000a0: 2d71 ab3d 734b bcbe 62fa 5a3e 0733 953e
000000b0: e3ea fb3e d3d5 073d 777c 0a3e 10f3 7f3e
000000c0: ae06 223e 8418 913f db4c 53bf 926d 02bf
000000d0: 3e0d 4ebf efd7 513e b21e f53e 06e3 88bd
000000e0: f820 49be dcdd 9f3e 57b7 c03f c059 373e
000000f0: 25e1 76be 086a 593d 42d6 d93d 21f0 603f
00000100: 8712 de3d 42c2 25be 6f73 a3be 12a1 1ebd
00000110: c74c f3be 7101 e4be 6142 afbe 7485 0e3d
00000120: dcee 17bf 4a91 bc3d 701e 393f 8f7a eb3f
00000130: ada5 553f 52f8 0f3f 6126 a53f 71a8 ab3f
00000140: f8d4 d73f 60d8 b43f ecec a03f f27e 993f
00000150: e1b3 db3f 7618 a63f 7f60 af3f 1cf7 a6bd
00000160: a65f d03c d07e ebbe ffbd 963f 3b99 823f
00000170: 0507 bf3e 09f4 833e 89fd 1a3f b89e 383f
00000180: e712 313f b65e 453f 8f94 8f3e e647 7b3d
0.9233399 0.9227881 0.67165947 -0.61665773 -0.16316272 0.5946735 0.014910945 -1.1498046
-0.45379275 0.23848929 2.0780802 0.20229334 -0.6552759 1.338863 0.15784031 0.883616
0.27412185 0.11183956 0.32266414 0.007339766 0.2997154 -0.29428512 -0.3665462 0.995514
-0.9225746 0.6978531 1.317434 1.2177076 0.6842154 1.520183 -0.59404135 0.12859862
-0.22008541 -0.6293366 -0.2402214 -1.5147774 -0.4723939 -0.56494254 -0.27439687 -0.61874914
0.08371196 -0.36776313 0.21384576 0.29140493 0.49202642 0.033162903 0.13524042 0.24995065
0.1582286 1.1335607 -0.8253915 -0.5094844 -0.80488956 0.20492528 0.4787498 -0.06683926
-0.19641483 0.31223953 1.5055951 0.1790533 -0.24109323 0.053079635 0.106365696 0.8786641
0.108433776 -0.16187385 -0.31924006 -0.038727827 -0.47519514 -0.4453235 -0.3423033 0.03479524
-0.59348845 0.09207399 0.7231207 1.8396777 0.83455926 0.5623828 1.2902337 1.3410779
1.6861868 1.4128532 1.2572303 1.1991866 1.716427 1.2976215 1.3701323 -0.08152601
0.025436234 -0.45995188 1.1776732 1.0203012 0.37310043 0.25772122 0.60543114 0.72117186
0.6916947 0.7709764 0.2804303 0.061347865

block1.0.bn3_2.weight f4 [2]
00000000: 417b 7a3f 62df 693f
0.9784432 0.9135648

block1.0.bn3_2.bias f4 [2]
00000000: 5d0c 583f 8b0e 7a3f
0.84393865 0.9767844

block1.0.bn3_2.running_mean f4 [2]
00000000: e6f4 8140 3b80 3b41
4.061145 11.718806

block1.0.bn3_2.running_var f4 [2]
00000000: ce17 e541 2bd2 f742
28.636623 123.910484

block1.0.conv4_1.weight f4 [2, 16, 1, 1]
00000000: f752 fdbe c4c4 6fbf 41ec e73e 6c6b 2dbf
00000010: 5717 6c3e 305d f4be 868e a03e 7e51 0c3e
00000020: ba23 6c3e 4bfd e23e e087 a33e 9f5e c7be
00000030: 6a2a 333d e76a bbbe 2e82 25bf 2614 17bd
00000040: f6f7 00c0 0b59 7abf 5bf3 98bf 696e 34be
00000050: 7e1f e5be 3d1a b5bb 3107 e8be c505 5f3f
00000060: 8da0 b0bf 71b5 ffbe 33a6 0ebf 3936 0fbf
00000070: 189b b73d 3bb9 21be 779b 0bbd 8cc5 923d
-0.4947736 -0.93659616 0.45297435 -0.6774204 0.23055778 -0.47727346 0.31358737 0.13702962
0.23060504 0.44333872 0.31939602 -0.38939378 0.04374162 -0.36604998 -0.64651763 -0.03688445
-2.0151343 -0.9779212 -1.1949266 -0.17620243 -0.4475059 -0.0055268095 -0.45317987 0.8711818
-1.3798996 -0.49943116 -0.5572235 -0.5594211 0.08965129 -0.15793316 -0.03408381 0.07166585

block1.0.bn4_1.weight f4 [2]
00000000: 5ff7 1d3e 1e95 0c40
0.15426396 2.1966014

block1.0.bn4_1.bias f4 [2]
00000000: db1f babe 2085 c23e
-0.3635243 0.3799219

block1.0.bn4_1.running_mean f4 [2]
00000000: df73 ddc0 eb5a 89c1
-6.9203944 -17.169394

block1.0.bn4_1.running_var f4 [2]
00000000: bc27 2c41 7a09 7342
10.759701 60.759254

block1.1.conv1_1.weight f4 [4, 16, 1, 1]
00000000: 12d5 43be 024d 8d3f 5e1f 80bf 67ee 5cbe
00000010: 00fc a03e f55c 8fbe 688f d93e 4078 613f
00000020: 57ab 443e 936f 8d3f a18b 6abe d09f aabe
00000030: 5fbe 80bf d6dd 8a3f 851c 983c f827 b7bc
00000040: 9d14 64bd f26b a83e a680 79be 655a d3be
00000050: 4afc 003f 246a e0be ffe3 e9be 5553 513e
00000060: 8658 93bf 9ceb b9bd bbbd 8a3f 00c8 f4be
00000070: 33f7 603f 6f78 59be a1a2 91bf e5fd 5c3e
00000080: 48de d13f dd8b c4bd 95cd a23e 66c6 cabe
00000090: b812 2e3e 9198 d4be 6b6a 803f 81fe a1be
000000a0: 85d1 c33e ef89 173f 9d9a b1be d156 543f
000000b0: 85d1 ad3f b8f7 553f 2340 14be 92e0 183e
000000c0: 864e 93be 7132 81bf f0d4 a93d ee6b ed3e
000000d0: ea25 36bf eaa3 1abf 6f36 90bf a49e 0fbf
000000e0: 6d02 6c3f dea6 a6bf ee98 32bf d3e1 0d3f
000000f0: eb5a 173f bd66 c23c b66b 343f cd7f 62be
-0.19124249 1.1039126 -1.0009573 -0.21575318 0.3144226 -0.28000608 0.42492223 0.8807411
0.19205986 1.1049675 -0.22904827 -0.33325052 -1.0058097 1.0848949 0.018568287 -0.022357926
-0.05568372 0.32894856 -0.24365482 -0.41279903 0.5038496 -0.4383098 -0.4568176 0.20441945
-1.151139 -0.09078142 1.0839151 -0.47808838 0.87877196 -0.21237348 -1.1377755 0.21581228
1.639596 -0.09596989 0.31797472 -0.3960449 0.16999328 -0.4152265 1.0032476 -0.31639484
0.38245788 0.59194845 -0.34688273 0.8294497 1.3579565 0.83581114 -0.14477591 0.14929417
-0.28770846 -1.0093518 0.08292568 0.46371406 -0.711516 -0.60406363 -1.1266612 -0.5610144
0.921912 -1.3019674 -0.697646 0.55422705 0.59123105 0.02373063 0.70476854 -0.22119065

block1.1.bn1_1.weight f4 [4]
00000000: ddbf 933f 7247 4f3f b13f 583f 7f5b 8c3f
1.1542927 0.8096839 0.84472185 1.0965422

block1.1.bn1_1.bias f4 [4]
00000000: ce22 963f f1a0 753d 3a27 82bc 1cc2 903f
1.1729372 0.05996794 -0.015887845 1.1309237

block1.1.bn1_1.running_mean f4 [4]
00000000: 4af5 683f 72b3 a6bd d215 b840 218b 29c0
0.9099928 -0.08139695 5.7526636 -2.6491168

block1.1.bn1_1.running_var f4 [4]
00000000: ca67 1941 e130 5940 14b0 3e41 df07 0b41
9.587839 3.3936083 11.917988 8.689422

block1.1.conv2_1.weight f4 [8, 16, 1, 1]
00000000: 78ea 05bf a8ea 95be 5665 a03e e87f 55be
00000010: 4806 c6bd 7f07 6fbf be2a 843f 7f4f 84bf
00000020: ce4b f2be b088 cb3e 3047 b13d 9dd4 75bf
00000030: 8a26 0abf 1b98 2e3f d974 31bf 6d94 debf
00000040: e847 9dbc 24b8 583f a8e4 e6bd e0bf 84bf
00000050: 23bd 513f 406f aebe 7f37 60bf 39e2 2fbe
00000060: 1664 883e 5c8a ed3e 5c2c 2bbd d51a 91bd
00000070: e0a1 ae3f 6e80 913f 614d a43e ea2b e53f
00000080: b4cb cf3e 4905 e2bf f2c4 b63e afbb 433d
00000090: 9e60 993f 7178 38be 560e 85bf 88bd 57bf
000000a0: a047 0f3e b290 ffbd 7cdd c53f 2722 2640
000000b0: cf41 223f 2e6f 653f 0da5 2fbf 8cbd f43e
000000c0: 8b2a 8e3f d44e 193f 5fb1 0ebf 8128 cabe
000000d0: 0364 62be a92d 0e3e cf3f acbf 2da6 52bd
000000e0: 9847 c63e 179f a53f 4e18 44be dc9e a6bf
000000f0: d7f9 07be a52f 403f 3889 5ebd c5a1 b3bd
00000100: 5e2f 51bd 17ea f73e b1c0 af3f c296 ca3f
00000110: bdf2 84be 2c12 05bd 6745 363f 79a0 28bf
00000120: dd89 2ebf dbab 493f 235c e73f 43d9 1ebf
00000130: 83dd c6be 2019 14bf 1778 5fbf 53e4 07bf
00000140: 0d1d 67bf e8cc 22be 5d3a 873d 547e 72bf
00000150: 13e3 8c3f 32b5 c3be 606f a53e 8e3e 9e3f
00000160: 14c4 93be 644c 903f b47d 64bf fa39 023f
00000170: 2699 bd3e 1877 3dbf ecd7 9c3f c124 e93f
00000180: 28ab 8c3e a9d8 4cbf 6c71 b73f 562e cb3f
00000190: 9ce5 bbbe 134e 7fbd e0b9 21bf 9dfe b23e
000001a0: 0fee 023f 7d23 653f 5374 eb3e 06b9 23bf
000001b0: e91d a23e b65c bebe ecd7 eebe 303d 6cbf
000001c0: a398 d83e 2694 8c3f e90f 6d3e 4ec8 27bf
000001d0: 0877 2abf 5cb5 033f 45e6 393f 3ab2 b4bf
000001e0: a0a1 cbbf a1fe 8abe d601 513f bf4f af3e
000001f0: e910 53bf c86e e23d fe73 a6be 96b8 4abf
-0.52310896 -0.2928059 0.31327313 -0.20849574 -0.09669167 -0.93370813 1.0325544 -1.033676
-0.4732346 0.39752722 0.08656156 -0.9602755 -0.53965056 0.68200845 -0.6931892 -1.7389046
-0.019199327 0.84655976 -0.112740815 -1.0371056 0.81929225 -0.34069252 -0.8758468 -0.17176141
0.2663886 0.46394622 -0.04179035 -0.07085196 1.364315 1.1367319 0.32090285 1.7904027
0.405851 -1.7657863 0.35697132 0.04778641 1.198261 -0.18014695 -1.0395 -0.84273577
0.13992167 -0.1247877 1.5458217 2.5958345 0.63381666 0.8962277 -0.6861122 0.47800863
1.1106733 0.5988591 -0.55739397 -0.39484027 -0.22108464 0.13884605 -1.3456973 -0.05142801
0.38726497 1.2939175 -0.19149897 -1.301723 -0.132789 0.750727 -0.05433008 -0.087710895
-0.051070563 0.48420784 1.373068 1.5827258 -0.25966445 -0.032488033 0.7119965 -0.6586986
-0.6817911 0.78777856 1.8074993 -0.62050265 -0.38840875 -0.5785084 -0.8729262 -0.5308277
-0.902787 -0.15898478 0.06602929 -0.9472401 1.1006798 -0.3822418 0.32311535 1.236284
-0.28860533 1.1273313 -0.8925431 0.50869715 0.37030905 -0.7400985 1.2253394 1.8214341
0.27474332 -0.800181 1.4331489 1.5873516 -0.36698616 -0.062330317 -0.6317425 0.3495988
0.511445 0.89507276 0.45987186 -0.639542 0.31663445 -0.37180108 -0.4664911 -0.92280865
0.42303953 1.0982711 0.231506 -0.65540016 -0.6658788 0.5144861 0.7261699 -1.411689
-1.5908699 -0.2714739 0.81643426 0.3424053 -0.8244768 0.11056286 -0.3251037 -0.79187906

block1.1.bn2_1.weight f4 [8]
00000000: c026 773f 20d6 d13f cbc0 743f 26e2 963e
00000010: ed80 863f da45 dd3f 1da5 a03e 65b3 893f
0.965435 1.6393471 0.9560668 0.29469413 1.0508095 1.7286942 0.3137597 1.0757872

block1.1.bn2_1.bias f4 [8]
00000000: a99e bbbd e0ec 643f bbba 21bf 523a 89bf
00000010: 8248 89be c753 6e3f 139f 39bf e3d7 b63c
-0.091611214 0.8942394 -0.63175553 -1.0720923 -0.26813132 0.93096584 -0.72508353 0.02231974

block1.1.bn2_1.running_mean f4 [8]
00000000: 01a5 55c0 4df4 5340 a2cd ab40 ad21 bbbf
00000010: 6d6e 4640 a85b c93f 77c4 bc3f 4e17 54bf
-3.338196 3.311786 5.3688517 -1.4619652 3.1004899 1.5731096 1.4747456 -0.8284806

block1.1.bn2_1.running_var f4 [8]
00000000: ef4f 8441 11ad 5941 d18f d841 5b57 fd40
00000010: 5587 e741 8a4d ef41 8f3c 4241 fc7d 0a41
16.53903 13.604753 27.070223 7.9169135 28.94108 29.91286 12.139785 8.655758

block1.1.conv2_2.weight f4 [8, 8, 3, 3]
00000000: 0a28 09bf 92bc 8ebf 6e91 043e d7a7 04bf
00000010: 2072 1fbf 360f c0be 40ce c4be b607 83be
00000020: fa8e fcbe 5f12 033d 51a5 173f d76f a8be
00000030: 2d6a bb3e 343c c83e 5dc3 99be c036 6f3f
00000040: 0f47 c63f b218 143f d5c8 2ebf d381 473e
00000050: 1066 90be 42fd 21be d55a 8bbc 2a77 ca3d
00000060: 6adc 03bf bfd5 313e 95c7 8abd 0183 9e3f
00000070: 2f6f 4f3f db42 a33d 55b8 a03f 0e67 333f
00000080: b438 953e fa8a 0240 107e 213f ea60 a2bd
00000090: 20ae c0be a40f 673e 9464 4a3f e97a d3be
000000a0: 6432 8f3f 6b09 9f3f 449f 713d 73a6 ab3f
000000b0: a164 3b3f 9f81 c6be cc10 84be f35b bd3e
000000c0: 1f9a 7bbd a62f 803f 31f6 c63d 5be9 223f
000000d0: d847 4c3f 4ebb 5c3f 9151 5dbe 15a9 28bd
000000e0: 89d6 663e 73f8 c03e a760 f83e f25d b23c
000000f0: bb30 9e3e 026a da3e e7df 273f 05f4 a03d
00000100: 2a0e 2e3f a055 28be 39e9 d0be faee e63b
00000110: a7b9 33bf e0fd 25be b49e 34bf aa37 e4be
00000120: 2c88 f4be 54aa 863e 9024 debd 278e ee3e
00000130: 8fe2 c33f e883 0f3f 9ac2 6d3e 91ed 233e
00000140: 22b2 103f 4c5d 56be 83d4 27be 421e 48be
00000150: 82f1 83bd 166a 873c e1e2 17be 8849 9b3e
00000160: 624b 85bd 3071 5ebe 01c9 803f 81ac 283f
00000170: e6af 923f cac7 e4be f8ea b63e d06d 2a3f
00000180: 3969 f4be 365a 3ebf 0b44 6bbd d2c7 fbbe
00000190: 3e98 9fbe 2800 973e d732 38bf 9399 babe
000001a0: b972 7ebe 16ac 323f 7b35 2b3f c0a5 a63e
000001b0: ea4f 7c3e 4be0 59bf 477d 2cbf 2152 463f
000001c0: cf74 2c3f 4c62 01bf 1870 bf3e c6bf c7bd
000001d0: cd4c 63be fd93 0f3f 8399 683f bf4b 963d
000001e0: c71d 5bbe f1a1 3e3f 42f7 513d 9be7 27bf
000001f0: 87e5 cebe 3847 8b3d cb50 cb3e 07f8 34bc
00000200: 95a7 453d 1074 aebb 04a1 e53e 23d4 f53e
00000210: 9cd9 0abd b5e6 2ebf a55c e83d 100f 6bbd
00000220: cab7 49be e953 af3e 59ee 623f c349 743e
00000230: 0e16 2abe 9be1 313f c22a 9c3f 2535 b73d
00000240: 61ce 6d3e 1f6a cbbe a7ef cebd 22f0 91bd
00000250: c9a8 1bbf 7f99 6cbf 4d57 f93e d620 173f
00000260: af23 543f 1bfc fabe 2a55 25bf d3d0 aabe
00000270: ca03 81be 8c84 c1be bef0 c7be 31a1 ec3d
00000280: 5e23 6f3e 0c7a 1d3f d32d 603e a465 db3e
00000290: d3e8 4c3f b512 1f3f 037c 793f f823 bd3f
000002a0: 0dfb 973e c29b e03e 264c b83e 10ba c73d
000002b0: d6ad a63d e665 b4be 264b 18bf 537e 6a3e
000002c0: 7370 063e a6f1 7fbd 7bff 5f3e a244 233e
000002d0: 8083 4e3e 4358 d3bd 21f6 da3e bfb9 24be
000002e0: 30fb 2fbe 0ff0 7abe 5d40 8cbd a5df c43e
000002f0: 7563 7c3e d335 123e 580f 32be ce06 663f
00000300: ad98 d43e b511 ad3e f8fd 273f 217e e73b
00000310: 81cd 87bf 4bea 92be 7cad 2a3f 7c02 683f
00000320: 4f04 663f 42b2 8f3d 78bb 553e 3109 1e3f
00000330: 2b37 1a3f 562a 9f3e 2ef6 463e d51d 593e
00000340: b3f7 65bd 393e 9bbe 8e0e f63d 2dc0 1b3f
00000350: 28e3 9cbe ff3b aabe a583 893d 99ce efbc
00000360: 0fda 1bbf c2c2 7abf 8007 17bf 230a 82bf
00000370: 76f6 8abf d263 c9be 3e4d 87bf 2144 73bf
00000380: fe3f 34bf 54e7 7f3e 5f49 333e 7b96 e93c
00000390: 5023 4f3f cbdd 943e 18a1 a83e c03e 933f
000003a0: 043e 903e 46bf 183e d6ab 34bd b4e6 cc3e
000003b0: ad7f 9e3f 1374 0f3f c901 553f 5236 6c3f
000003c0: b617 9bbd 9e8e b53e 06cf 783e 1a07 95be
000003d0: 8fe6 583f 5d1e 073f 95e3 6ebf d1f0 26be
000003e0: 776e aa3e 8949 82bd c2b6 273f 85ca 303f
000003f0: cd6a cdbe 885c 813d 808e 4c3f e838 b4bd
-0.5357672 -1.1151297 0.12946102 -0.51818603 -0.62283516 -0.37511605 -0.38438606 -0.2559182
-0.49327832 0.031999942 0.5923663 -0.32897827 0.36604443 0.3910843 -0.30031863 0.93442917
1.5490435 0.5785018 -0.68275195 0.19483118 -0.28202868 -0.15819266 -0.017011086 0.0988601
-0.515082 0.17366694 -0.067763485 1.2383729 0.8102903 0.07971736 1.2556254 0.70079124
0.29144824 2.0397325 0.6308298 -0.07928641 -0.37632847 0.2256456 0.7905972 -0.4130471
1.1187253 1.2424749 0.05898978 1.3410171 0.7320042 -0.38770768 -0.25794065 0.36984214
-0.06142628 1.0014541 0.09714926 0.6363732 0.79797125 0.86223304 -0.21613146 -0.041176874
0.22542776 0.37689552 0.4851124 0.021773312 0.30896553 0.42659003 0.6557602 0.07859043
0.6799036 -0.16438913 -0.40802935 0.007047531 -0.7020516 -0.16210127 -0.7055466 -0.44573718
-0.4776014 0.26301825 -0.108468175 0.4659283 1.5303515 0.5606065 0.23218766 0.16008593
0.5652181 -0.20934027 -0.1638966 -0.19542792 -0.06442548 0.016530078 -0.14832641 0.30329537
-0.06508519 -0.21722865 1.0061342 0.6588822 1.145993 -0.44683677 0.35726142 0.6657381
-0.4773653 -0.743564 -0.057437938 -0.49175888 -0.3117084 0.29492307 -0.71952575 -0.36445293
-0.2484845 0.6979383 0.6687848 0.32548332 0.2463986 -0.8510787 -0.6737866 0.7746907
0.67365736 -0.50540614 0.37390208 -0.09753375 -0.22197266 0.5608519 0.9085924 0.07338666
-0.21398078 0.7446585 0.051261194 -0.65587777 -0.4040949 0.06800693 0.39710078 -0.011045462
0.04825552 -0.0053238943 0.44849408 0.4801341 -0.033898935 -0.6832078 0.113457955 -0.05738741
-0.19699016 0.34243706 0.8864494 0.23856263 -0.16609976 0.6948487 1.2200549 0.089456834
0.23223259 -0.397294 -0.10104304 -0.0712588 -0.6080442 -0.92421716 0.48699418 0.5903448
0.8286695 -0.49020466 -0.64583075 -0.33362445 -0.25198203 -0.37796438 -0.3905086 0.11554182
0.23353335 0.61514354 0.2189248 0.42850983 0.8004276 0.6213792 0.9745485 1.4776602
0.29683724 0.43868834 0.35995597 0.097522855 0.08138625 -0.35233992 -0.5948967 0.22899751
0.13128833 -0.062486313 0.21874802 0.1594415 0.20167351 -0.10319569 0.42765906 -0.16086482
-0.17185664 -0.24505638 -0.06848214 0.38451877 0.24647315 0.14278345 -0.17388666 0.89854133
0.41522732 0.33802572 0.656219 0.0070645963 -1.060959 -0.28694376 0.66670966 0.9062879
0.89850324 0.07016422 0.20872295 0.61732775 0.6024043 0.31086987 0.19429848 0.21202786
-0.056144428 -0.3032091 0.12014495 0.6084011 -0.30642056 -0.33248898 0.06714562 -0.029273318
-0.60879606 -0.97953427 -0.5899582 -1.0159343 -1.0856464 -0.3933397 -1.0570447 -0.9502583
-0.70410144 0.24990588 0.17508458 0.028514137 0.8091326 0.29075465 0.32935405 1.1503525
0.28172314 0.14916715 -0.044109188 0.40019763 1.2382714 0.5603649 0.8320585 0.92270386
-0.07572882 0.3546037 0.24297723 -0.2910698 0.84726804 0.52780706 -0.9331601 -0.16302802
0.33287403 -0.06361682 0.6551324 0.6905902 -0.40120545 0.06316477 0.7990494 -0.087999165

block1.1.bn2_2.weight f4 [8]
00000000: cd73 843f 30ae 843f b74f 633f 4f9c ad3f
00000010: 7a31 b13f e121 ab3e 7d85 5c3f f12d 3e3f
1.034784 1.0365658 0.8879351 1.3563327 1.3843224 0.33424285 0.86141187 0.7428885

block1.1.bn2_2.bias f4 [8]
00000000: 4cc1 473f 4704 0ebe 490e 5cbf 6146 303e
00000010: 0a07 a03e 016c 193f bf2f be3e b57f 53bf
0.7802932 -0.13868819 -0.859593 0.17214347 0.3125537 0.59930426 0.37145802 -0.8261674

block1.1.bn2_2.running_mean f4 [8]
00000000: 245f e340 42bd 5140 4a47 6d3e 3808 1041
00000010: 440d c2c0 ac24 4cc0 d4a5 c93f 6cbe b5c0
7.105364 3.2771764 0.23171726 9.002007 -6.0641193 -3.1897383 1.5753732 -5.679495

block1.1.bn2_2.running_var f4 [8]
00000000: 0de4 8a42 676f 1341 db87 cb40 9f02 c642
00000010: 8565 9d41 ca5e 9942 a300 8342 0312 8e42
69.44541 9.214698 6.360334 99.00512 19.67457 76.685135 65.50124 71.03518

block1.1.conv3_1.weight f4 [2, 16, 1, 1]
00000000: d8a2 0b3f 4dc2 d93e 3051 adbe 5666 a8be
00000010: 8779 14bf 3468 a0be e1ed 82bd a117 86be
00000020: e766 91be 877a 1d3e b561 9abd 9e96 0fbf
00000030: f11b 8b3f 2889 5dbf 3e6e e5bb d72e 963e
00000040: e542 b2be b394 cebc a916 c13f ed96 243f
00000050: a703 1abe 8bf8 b3bf 747d 8d3f db7f 3dbf
00000060: d2ec 5abf b075 733b 8cc7 e43e 9e36 f93e
00000070: a711 153d 3fd7 083f 4616 69be 76d8 7dbf
0.54545355 0.42531052 -0.33851004 -0.32890576 -0.57997936 -0.313295 -0.06393028 -0.26189902
-0.2839882 0.15378772 -0.075381674 -0.560892 1.0867902 -0.8653741 -0.0070016673 0.2933261
-0.3481666 -0.02521739 1.508504 0.64292794 -0.15040456 -1.4060224 1.105391 -0.74023217
-0.8551761 0.0037149005 0.44683492 0.48674482 0.036393788 0.5345344 -0.22762403 -0.9915842

block1.1.bn3_1.weight f4 [2]
00000000: 1be4 933f 533b 6c3f
1.1553987 0.9227802

block1.1.bn3_1.bias f4 [2]
00000000: 31bb 0fbf f411 1bbf
-0.56145006 -0.6057427

block1.1.bn3_1.running_mean f4 [2]
00000000: 8a0c 54bf 99ad 0c40
-0.82831633 2.1980956

block1.1.bn3_1.running_var f4 [2]
00000000: d7f6 0f40 1306 b141
2.249441 22.127966

block1.1.conv3_2.weight f4 [2, 2, 5, 5]
00000000: 3ed9 f6bd 7a17 893e 3d5c 9abe 24d6 33be
00000010: 152e 0f3e 0cc6 edbe b8f7 793e 275d 2dbf
00000020: 2aa7 93bb 987e 8e3e 7509 05bf 3960 04be
00000030: 3c79 6cbe 2ddd c8be e5be 263d 777f 13be
00000040: b328 b0be efcd c7be e24b 43be f83f 21be
00000050: c8a3 cbbd 5dc5 3b3e 3386 f5be 71f6 58be
00000060: 9615 de3e cdf6 97be eb74 ac3d 4ded a7bd
00000070: 5c01 d73d 8309 1ebf a244 e0bc 4ae8 2abf
00000080: 98e1 733e 493a 5cbe 7fc3 bcbe be28 65be
00000090: 9291 8f3d 850e c43e 5c25 abbe e814 06bf
000000a0: acd7 3a3e a6bf 80be 7f8a 6d3e 9145 23be
000000b0: 4213 6bbe db5d 843d af0e a9be d689 433e
000000c0: 71a4 f03e 72c7 cfbe 80f3 8bbe cecb dcbe
000000d0: 08c8 2cbf 79a4 7dbe f638 a1bd 2c2d 43be
000000e0: 2883 9ebe 24e8 a1be af7d 80bd 617b c9be
000000f0: fac6 403f e01a 17be 4098 303d eea4 803e
00000100: 2864 463f ae4b 803e 5942 efbe 84b3 0bbf
00000110: b329 afbe 1880 0fbf c31b 4f3f 74fe 87bd
00000120: 4dfe d3bd d516 063e b567 a7be 6468 0fbf
00000130: c48c 1b3e 1619 003f 671d f73e 30cc d03e
00000140: 218f 49be bddb aeba 757f 2a3e 10ce 5c3f
00000150: 0f47 c93e 0f8c 8abe 7b1d 0abf 7a92 9cbd
00000160: 8ee3 4a3f 9ea4 7a3e 2890 813e ccb9 0e3e
00000170: f1b3 cb3e 33a3 933f 83b7 683f 226d 093f
00000180: f75a 753e 31e8 883e 66f3 2f3d 2a8a 8b3e
-0.120531544 0.26775724 -0.30148497 -0.17562157 0.13982423 -0.4644016 0.24410903 -0.67720264
-0.0045060115 0.27830958 -0.51967555 -0.12927331 -0.23093122 -0.39231244 0.040709395 -0.14404093
-0.3440605 -0.39024302 -0.19071916 -0.15747058 -0.09943348 0.18337007 -0.47953948 -0.2118776
0.43375844 -0.29680482 0.08420738 -0.081995584 0.10498306 -0.61733264 -0.027376477 -0.66760695
0.23816526 -0.21506609 -0.36867902 -0.22378823 0.07010187 0.38292328 -0.3342694 -0.5237565
0.18246335 -0.25146216 0.23197363 -0.15944506 -0.22956565 0.06463214 -0.33019015 0.19095549
0.4700046 -0.40581852 -0.27334213 -0.4312424 -0.67492723 -0.24769773 -0.078721926 -0.190602
-0.3095944 -0.31622422 -0.06273972 -0.39351943 0.75303614 -0.14756346 0.043113947 0.2512583
0.77496576 0.2505774 -0.46730307 -0.54570794 -0.342115 -0.5605483 0.80901736 -0.0664033
-0.103512384 0.13094647 -0.3269631 -0.5601866 0.15190417 0.5003828 0.4826462 0.40780783
-0.19683506 -0.0013340634 0.16650183 0.86251926 0.39312026 -0.2705998 -0.53951234 -0.07645126
0.7925347 0.24476859 0.25305295 0.13938063 0.39785722 1.153418 0.90905017 0.5368215
0.23960482 0.26739648 0.042956732 0.27253848

block1.1.bn3_2.weight f4 [2]
00000000: a677 1a3f dbd1 6e3f
0.6033882 0.93288964

block1.1.bn3_2.bias f4 [2]
00000000: 87fb 68bc 3217 39bf
-0.014220125 -0.7230102

block1.1.bn3_2.running_mean f4 [2]
00000000: 8fca 87bf 5314 673d
-1.0608691 0.056415867

block1.1.bn3_2.running_var f4 [2]
00000000: a7eb f73f 4834 5440
1.936879 3.315691

block1.1.conv4_1.weight f4 [2, 16, 1, 1]
00000000: 6551 f13f 05e9 9a3d 6ac8 a33e dbd8 233f
00000010: 0348 a6be c37c 893e 6d3c 18bf 91f9 acbe
00000020: 445c d8bc 6185 9d3e 95ff 263f 5480 abbe
00000030: 132a b03c d155 30bf 2eb3 51be 9786 c23e
00000040: a59c 353e 7ce9 15bf 16f9 3b3e e8fd 2fbf
00000050: 78b7 85be f7d0 a63e 8bb9 0fbd 7e99 94be
00000060: f87d 3cbf cfd2 febe 9cad b73e 2d3e 223e
00000070: 7b4e b33e e2fa 713f 672a ca3e 26ea d33f
1.8852965 0.07563976 0.3198884 0.6400277 -0.32476816 0.26852998 -0.594672 -0.33784154
-0.026411183 0.30765823 0.6523374 -0.33496344 0.021504438 -0.68880945 -0.20478508 0.3799331
0.17735536 -0.58559394 0.18356737 -0.68746805 -0.26116538 0.32581303 -0.035089057 -0.29023355
-0.73629713 -0.4977021 0.3587464 0.1584403 0.35020813 0.9452344 0.39485475 1.6555831

block1.1.bn4_1.weight f4 [2]
00000000: 0299 ab3f 8f57 5c3f
1.3406069 0.86071104

block1.1.bn4_1.bias f4 [2]
00000000: 1bdb dabe 85b0 be3f
-0.4274529 1.489762

block1.1.bn4_1.running_mean f4 [2]
00000000: d58c 5740 d663 3a40
3.3679707 2.9123435

block1.1.bn4_1.running_var f4 [2]
00000000: b2b5 0c41 e5e7 b740
8.794359 5.7470574

block1.2.conv1_1.weight f4 [4, 16, 1, 1]
00000000: 4636 a23e 0dfb 14bf 37ca ab3e 43db 913d
00000010: 0083 1d3e dd9f 8bbd 456b 28bf 570d 833f
00000020: 1bef 053d 241c 103f 14a2 423e 4236 ca3e
00000030: 6296 923d cc68 11bf 756d 18bf 6778 823f
00000040: aa8d 54be 2d6f 3c3d cf18 96be b825 1e3f
00000050: 4c18 9b3e 87e4 1a3e fb07 2bbf 00b1 b13f
00000060: 0cf7 0e3e 8c9e 303f 2710 7bbf 23ce febe
00000070: 1a18 703d ad02 bdbe 09cb c0be 0dc0 9a3f
00000080: 458c cf3f 4f8d 033f f395 b33d 82d7 a1bf
00000090: cebc 763f 43fb 0cbf 996b 14bf 9ec8 38be
000000a0: ff8f 9dbe b4f7 3c3d 736c be3e ba20 cebd
000000b0: 8dcd 31bf cbbf 0a3f 8064 143d 5c08 b5bd
000000c0: d34e f13d 252e f6be c0b6 98be ff9b 71bf
000000d0: 7540 c93e dde0 043e 722f 053f 6ac6 3ebf
000000e0: 117e 453f e0b5 a53e b559 11bf 2342 27be
000000f0: 34f7 893e 1d83 e8be 9246 7ebe 0d2c f83d
0.31682032 -0.58195573 0.33552715 0.07121899 0.15382004 -0.06817601 -0.6578868 1.0238446
0.032698732 0.5629294 0.1900714 0.3949452 0.071575895 -0.5680053 -0.5954202 1.0192994
-0.20757166 0.046004463 -0.29315802 0.61776304 0.30291975 0.15126239 -0.6680905 1.3882141
0.13961428 0.68991923 -0.9807152 -0.49766645 0.058616735 -0.36916104 -0.37654904 1.2089859
1.6214682 0.51387495 0.08768835 -1.2643893 0.96381843 -0.55070895 -0.5797668 -0.1804528
-0.30773923 0.046134666 0.37192115 -0.10064836 -0.6945427 0.541989 0.036228657 -0.08839485
0.11782613 -0.4808208 -0.29826927 -0.94378656 0.3930699 0.12976404 0.5202552 -0.74521506
0.7714549 0.32365322 -0.5677751 -0.16333823 0.26946414 -0.45412531 -0.24831608 0.12117777

block1.2.bn1_1.weight f4 [4]
00000000: e55e 9f3f e3cb 313d 9a41 c63f ac26 2e3f
1.2450835 0.043407332 1.548877 0.6802776

block1.2.bn1_1.bias f4 [4]
00000000: a690 87be 3bcb 9fbe dd7a b43f ad5c 053e
-0.26477545 -0.3120974 1.4099995 0.13023634

block1.2.bn1_1.running_mean f4 [4]
00000000: 1958 3440 9c1b 4840 4898 5b3f 7ea0 4dbf
2.817877 3.1266851 0.8577924 -0.80323017

block1.2.bn1_1.running_var f4 [4]
00000000: 693b f33f dae0 9240 5b3a 4341 4c1c 7c3f
1.9002506 4.5899477 12.201747 0.9848068

block1.2.conv2_1.weight f4 [8, 16, 1, 1]
00000000: 754d 93bd e74a 51ba 9664 78be a889 49be
00000010: 34f4 353f e8dc 133f 5d94 9bbe 7a56 83be
00000020: 9ce6 1dbf 2c35 463f da7e 6c3f 573c 213f
00000030: c4f1 143f fb95 283f c4c2 753e 8a85 ffbd
00000040: b77e 323f 8da7 f8be 8b02 b7bd 9798 da3e
00000050: d0e2 783f 811a 44bf 0152 fd3e 1ec2 083e
00000060: 8853 6c3e f7f6 b0be a3c2 683e 0e40 0b3e
00000070: 5920 9d3e 105f e93e 7684 a63e 4f90 473e
00000080: 9771 98bf 6c5d 17bd b0a9 8f3e 6d9d 303e
00000090: 5931 cbbe 18f7 f13e e61c 783f 6ea5 1dbe
000000a0: c602 a8be f6e9 3e3f 73e1 203e 9e54 d2be
000000b0: b539 f53e 7803 2abf 1c3c e7be 04cb 86bf
000000c0: 3bff 09be c821 283c 12ad c43e f331 82be
000000d0: 0d6e 7bbf 1b7f 643f 398f 293e 4ac8 13bf
000000e0: 19be b13f 7023 493f f78c 803f e8e2 323f
000000f0: 3c23 823e 3fc6 91be ffc2 673f f05d 4cbf
00000100: 5d0e efbe 6408 5ebf acfb f03e 8d17 263f
00000110: 1eee 8d3a 67de 7d3f 322a 693e d24e bbbe
00000120: e81b 923e 7e59 0abf 12c4 08bf f22f f83d
00000130: fe56 683d c989 27bf 491c 843f 734b a13e
00000140: 285b bebe 20fa 0bbf 2461 f83e 38f3 e83e
00000150: 5392 943f b4f4 533f 1e89 ea3d 5e69 51bf
00000160: 9714 45be 0c6d 0b3e 8782 b13e 710e 77be
00000170: 71cb b83e 7c70 00bf a5f1 2e3f 4fd0 b4be
00000180: e566 58bf e449 d7be bbe2 893f f4cf a33f
00000190: 1a16 0dbf f2a6 483e 5a10 56be 8bae 3fbd
000001a0: bcb8 f73e 2eb8 b5be 85dc 12be 87ef 49bf
000001b0: 1ca2 1abe 04ca 733f ee0e 35bd 504f c83e
000001c0: 9650 68bf 69ef 053f 4cdd 94be 8f13 553e
000001d0: af4c cd3e 9785 193f a43b 3f3d 26a3 f93e
000001e0: 87a6 b4be caac 513e 1d19 883f 0069 2abf
000001f0: 1f4a f83e 1fb6 7f3f 83e8 39be 890e 453f
-0.07192508 -0.00079838786 -0.2425712 -0.19681418 0.7107575 0.5775895 -0.3038663 -0.25651914
-0.61680007 0.77424884 0.9238106 0.62982696 0.58181405 0.6585385 0.24000078 -0.124766424
0.697246 -0.4856533 -0.08936032 0.42694542 0.9722109 -0.7660294 0.49476627 0.133553
0.2307874 -0.3456342 0.22730498 0.13598654 0.30688742 0.4558034 0.32522935 0.19488643
-1.1909665 -0.03695433 0.2805915 0.17247553 -0.39686087 0.4725883 0.96919096 -0.15395138
-0.32814616 0.74575746 0.15711002 -0.41080183 0.4789559 -0.6641154 -0.45163047 -1.0530705
-0.13476269 0.01026196 0.38413292 -0.25428733 -0.982148 0.8925645 0.16558541 -0.5772749
1.3886138 0.785697 1.0043019 0.6987748 0.25417507 -0.28471562 0.90531915 -0.7983084
-0.46690646 -0.86731553 0.4706701 0.64879686 0.0010828411 0.99167484 0.22770002 -0.36583573
0.28536916 -0.54042804 -0.5342418 0.1211852 0.056723587 -0.6544462 1.0321132 0.31502876
-0.37178922 -0.54678535 0.48511612 0.4549806 1.1607155 0.8279526 0.11451934 -0.818014
-0.19246136 0.13615817 0.34669897 -0.24126603 0.36092713 -0.5017164 0.6833747 -0.35315177
-0.84532005 -0.42048562 1.0772318 1.2797837 -0.5511185 0.19594935 -0.20904675 -0.046797317
0.4838313 -0.3549208 -0.14341934 -0.78881115 -0.15100902 0.95230126 -0.04420369 0.3912301
-0.90747964 0.52318436 -0.29075086 0.20808242 0.40097567 0.59969467 0.046687737 0.48757285
-0.352833 0.2047607 1.0632664 -0.6656647 0.4849405 0.9988727 -0.18155102 0.76975304

block1.2.bn2_1.weight f4 [8]
00000000: 65d7 1d3e e9c3 543f 861e 9f3f 8fee e23f
00000010: bd83 953f ea66 d7bd a2d9 dc3f 94d4 bb3e
0.15414198 0.83111435 1.243119 1.7729052 1.1680828 -0.10517676 1.7253916 0.36685622

block1.2.bn2_1.bias f4 [8]
00000000: 3237 16bf a820 dabe 8c5d 303e 94c7 713f
00000010: c107 96be dbab 9fbf 629b ab3f 47b5 65bf
-0.5867797 -0.4260304 0.17223185 0.9444516 -0.2930279 -1.2474321 1.3406794 -0.8972973

block1.2.bn2_1.running_mean f4 [8]
00000000: d49e 5e3f 8d5c 1e40 0105 2bc0 46ab d93d
00000010: 52d1 1d3f f42b 3d3f df67 7d3f 9cfb f03f
0.869611 2.4743989 -2.6721804 0.10628371 0.6164752 0.7389519 0.9898662 1.8826785

block1.2.bn2_1.running_var f4 [8]
00000000: 7254 e23f a63b 2040 af10 8440 6830 4a41
00000010: 22ba 8140 22c1 b43f ddc1 f140 357e 4240
1.7682021 2.5036407 4.1270366 12.636818 4.0539713 1.412144 7.554915 3.038953

block1.2.conv2_2.weight f4 [8, 8, 3, 3]
00000000: 02ae d03e 5038 4a3f 4954 56be ca83 0d3d
00000010: 2228 b13f 3015 273e 6329 623e 33f3 d73e
00000020: 3896 bebc d744 9c3e 5f68 563d f9e2 cebc
00000030: ac4e 88bd c250 c03e 7061 87bd 53ad 0e3f
00000040: f24a 4a3f 2ef4 99be 0ff3 913f b670 1e3f
00000050: 262b e13e 8ed8 4f3e e1af 333d 71d0 b13d
00000060: 00f0 833c 71b8 13bf c4b1 643e 3e47 3c3f
00000070: f6c5 b03f fa90 6d3f 9343 ce3e c717 0f3f
00000080: 784a f03d 0b5b 38bf 3dad 02bf 7f91 b13d
00000090: d2a2 c43e 3741 f23c 02ae 933d d90b 93be
000000a0: 75f7 60bd 885f a1bd 60dc 66be c5fc 14be
000000b0: 2c73 9cbd 39a7 083f e76a 7c3f 4fd0 8e3d
000000c0: 5fef 323e eaa6 403f d5a1 d53e fea5 ccbd
000000d0: e2ac 0dbf a907 a53d 3168 a83c 5e35 b63e
000000e0: e63c bebe 456f 12be d78c 0cbe ef35 f4be
000000f0: 5bb6 353d fa20 053e 978a 32be 1ea3 263f
00000100: 3605 3f3f 2f65 a43e 0c85 78bd 7957 8fbd
00000110: a055 163f 6154 523d e96c 403f 2e01 923f
00000120: 31b4 30be 0491 31bf 7625 003e ab6e 06be
00000130: 84ee a1be f11d c33e e5c9 483d 3e17 ce3e
00000140: 3ddd 21bf 9f63 1ebf 3ee5 5dbe 0b4a 35be
00000150: 98f3 b2bd 9ed8 44bf 64e5 18bf 8c9e 31bf
00000160: 98c3 25bf afa0 4dbf 8c7a 16bf 29eb 3f3e
00000170: a297 773c 62a5 aa3e 5ad7 333f c9cd d03e
00000180: dfee 753d 0ba8 77bb ec43 db3e 5227 83bf
00000190: 8ab4 babe 23a2 b9be 2219 2abf 413a a03c
000001a0: 2d04 7ebe 5bca 4dbf 55d1 253f 9caa a03d
000001b0: 1460 11bf f221 7abd 9bf4 80bf e23b 353f
000001c0: f236 8cbe e6b4 94bc 8583 1abe 5b7e c9be
000001d0: 750c 623e 167b ebbe ebb5 edbe 57f1 99bf
000001e0: b935 963e ba38 2ebe c6a7 21be 4f76 9ebe
000001f0: cb0a 11bf e90c d7bd b2b8 a2bf b430 6fbf
00000200: 037b 9dbf 6959 b5be b7ff 8fbf 5cb3 91bf
00000210: f329 c9be 7e41 1dbf be8e b5be ce7a 23bf
00000220: 47be 3cbf faee 64bf 5a35 84bd 64a3 803d
00000230: f171 41be 4b74 5ebf d4eb 69bf 43cd 6bbe
00000240: fcf3 fabd 7ce7 ddbd 996c 74be 09c0 c63e
00000250: 6c2e 6a3e cb3b 223d c16d f13e 655c 46bd
00000260: 7c91 003e bbba 113f b8b3 8e3e 6df7 ee3c
00000270: 67b9 5dbd 57ac 71be 07ce 43be 5c1d 673e
00000280: b54a 173e 5498 4b3c 86d4 e63d 3745 f7bd
00000290: b549 d4be 656a 0a3e a164 c0be 33ed 8cbe
000002a0: feb5 06be 069e 0c3e 5f8c fb3d ef75 f13e
000002b0: 7562 563f 5c68 e13e aaec 093f 1cb8 dc3e
000002c0: 0726 08bc 6bcb cf3e 877a 933e 7da4 0c3f
000002d0: 4fb0 d2bd bdba 073e 6f84 813c 286a de3e
000002e0: 571c 8c3e ec9d 983d 5879 b4be 82f5 f13d
000002f0: aa6c c23d 27d6 9abb b5a9 e4bc 3fd0 9ebe
00000300: 2d78 943e 4d60 cb3e fffa 54bd 7d60 d9be
00000310: bd59 ac3e ee5b 14be e6d2 293f d96a 393f
00000320: 8618 883e a7b2 643c 5cf8 803f 8179 5c3e
00000330: 9f25 f6be 08d3 ed3e 3ea6 3c3f aa78 063e
00000340: 1e14 ae3e 8e5b ea3e e036 de3e 51ac 093e
00000350: 3b63 033e d47f cd3e f66c 063f df5d 0c3f
00000360: 3f2c 90be 2e12 f13e 7a02 48be 3438 05bf
00000370: 9eef b1bf 572e 903e 3f3a 72bf 6e8c 60bf
00000380: 30c5 30bf 32d7 49bc 3ba1 a4be 72b0 92be
00000390: 6f09 81bf c4c0 bfbe 3f7f 353e d15b 1dbe
000003a0: fff4 32bf 0991 a1be 8979 36bf 3378 3abf
000003b0: 4666 253e 277b 39bf a7c7 07bf 0980 18bf
000003c0: 2e1c 17bf e934 dabd 4fdd d1bd b622 57be
000003d0: e513 6ebe 72dd 00bf 0527 35bf 138c 46bf
000003e0: 49f7 843d e931 42bf c586 74bf 8de2 53bf
000003f0: a3e1 97be 47ed d93e 4510 903f d327 18bf
0.40757757 0.78992176 -0.2093059 0.034549512 1.3840373 0.16316676 0.220861 0.42177734
-0.02326499 0.3052127 0.05234563 -0.025254713 -0.066556305 0.37561613 -0.066103816 0.5573322
0.7902061 -0.30069107 1.1402301 0.61890733 0.43978232 0.20297453 0.043868903 0.08682335
0.016105652 -0.5770331 0.22333437 0.73546207 1.3810413 0.9279934 0.4028593 0.55895656
0.11732954 -0.7201392 -0.5104559 0.08670329 0.38405472 0.029572112 0.07210924 -0.28719977
-0.054923493 -0.07879549 -0.22545004 -0.14549549 -0.07639155 0.5338016 0.9860062 0.069733255
0.17474125 0.7525469 0.4172503 -0.09992598 -0.55341923 0.08058102 0.020557495 0.3558759
-0.37155837 -0.14300258 -0.13725601 -0.47697398 0.04436336 0.13000861 -0.1743568 0.6509265
0.74617326 0.32108447 -0.06067376 -0.06999106 0.58724403 0.05135 0.75166184 1.140661
-0.17256238 -0.693619 0.1251429 -0.13128154 -0.31627285 0.3810878 0.049020667 0.40252107
-0.6322821 -0.6187076 -0.2166948 -0.17704026 -0.08737868 -0.7689303 -0.5972502 -0.6938255
-0.6475158 -0.8032331 -0.5878074 0.1874205 0.015111836 0.33329302 0.70250475 0.40782002
0.06004226 -0.003778937 0.42825258 -1.0246375 -0.36465865 -0.36256513 -0.664446 0.019559028
-0.2480628 -0.80386895 0.6477254 0.07845041 -0.5678723 -0.06106753 -1.0074648 0.707945
-0.2738567 -0.018152665 -0.15089233 -0.39354214 0.22075064 -0.45992345 -0.46427855 -1.2026776
0.29337862 -0.17013827 -0.15786657 -0.30949637 -0.56657094 -0.10500509 -1.2712615 -0.9343369
-1.2303165 -0.35419777 -1.1249913 -1.1382861 -0.39289817 -0.6142806 -0.35460466 -0.6385926
-0.7372784 -0.8942715 -0.064554885 0.06281164 -0.18891121 -0.868962 -0.9137547 -0.2302752
-0.122535676 -0.10835168 -0.23869552 0.38818386 0.22869271 0.039607804 0.47154048 -0.048427958
0.12555498 0.56925553 0.2787149 0.029170716 -0.05413189 -0.23600899 -0.19121562 0.22569793
0.14774592 0.012426455 0.112710044 -0.120737486 -0.41462484 0.13517149 -0.37576774 -0.2752472
-0.13155362 0.13732156 0.12282633 0.4716029 0.83743984 0.44024932 0.53876746 0.43109214
-0.008309848 0.40584883 0.28804418 0.5493849 -0.102875344 0.13254829 0.01581022 0.43440366
0.27365372 0.07451996 -0.35248828 0.11814405 0.09493382 -0.004725236 -0.027912954 -0.31018254
0.28997937 0.3972191 -0.05199718 -0.42456427 0.33662215 -0.14488193 0.6633743 0.7242866
0.2658121 0.01395861 1.0075793 0.21530725 -0.48075578 0.46450067 0.73691165 0.13131967
0.33999723 0.45772976 0.4340124 0.1344464 0.12830822 0.40136588 0.5251001 0.54830736
-0.28158757 0.47084183 -0.19532195 -0.52038884 -1.390125 0.28160354 -0.94620126 -0.8771428
-0.69050884 -0.012319373 -0.3215426 -0.28650242 -1.0081004 -0.37451756 0.17724322 -0.15367056
-0.69905084 -0.31555966 -0.712792 -0.7283966 0.16152295 -0.7245354 -0.5303902 -0.59570366
-0.59027374 -0.10654623 -0.102472894 -0.21009335 -0.23249777 -0.503379 -0.70762664 -0.77557486
0.064924784 -0.75857407 -0.9551814 -0.82767564 -0.29664335 0.4256384 1.1254965 -0.59435767

block1.2.bn2_2.weight f4 [8]
00000000: 4b65 a33f 9d0a bc3e 6194 4b3f 2e2b 243e
00000010: bb7c 033f c841 b13f 82dc 8d3f 2584 443f
1.2765287 0.36726847 0.79523283 0.16032097 0.513622 1.38482 1.1082919 0.76764137

block1.2.bn2_2.bias f4 [8]
00000000: 834b d03e 9fb9 193f 3377 6cbe e448 8fbf
00000010: 7fcc cfbe 5659 583e 8a14 733f 3d15 413f
0.4068261 0.6004886 -0.23092346 -1.119412 -0.40585706 0.21127829 0.94953215 0.7542303

block1.2.bn2_2.running_mean f4 [8]
00000000: 9325 7e40 1c2a 68c1 d859 1f41 00ef 93c0
00000010: 776d 31c1 ce78 acc0 278b c4c0 6e35 49c1
3.9710433 -14.510281 9.9594345 -4.622925 -11.089225 -5.3897467 -6.1419864 -12.575544

block1.2.bn2_2.running_var f4 [8]
00000000: 9b0a da41 5293 9942 df60 1942 ee01 d041
00000010: abf8 4642 28a9 d441 e20c bd41 cec1 8942
27.255178 76.787735 38.3446 26.000942 49.74284 26.582596 23.63129 68.878525

block1.2.conv3_1.weight f4 [2, 16, 1, 1]
00000000: 1efe b03f f8db 82bf fcc4 a4be 3681 81bf
00000010: 6936 3ebe a17a 38bf 7e04 a9be eaaa 8bbf
00000020: c7c6 703f 4c37 0fbf b78c 953e 5da4 3a3e
00000030: ae4e b6be 1fd7 aebe 9bc3 843e d31d 383d
00000040: bc92 163f d207 45bf 9f61 b7be 6d25 153e
00000050: 33f6 25bf a6fc 88bd e1d6 5a3d 21e4 a8be
00000060: 4f4b bc3e db3c 0cbf 0a8a 8b3f 490e 9cbe
00000070: ef94 a83d 8f3e 123e 3a02 96bf c96b 66bf
1.382755 -1.0223379 -0.32181537 -1.0117557 -0.18575443 -0.72062117 -0.3301124 -1.0911534
0.9405331 -0.5594375 0.2920892 0.18226762 -0.35606903 -0.341485 0.25930485 0.044950318
0.5881765 -0.7696506 -0.35816666 0.14565058 -0.64828795 -0.06688814 0.05342758 -0.3298655
0.36776206 -0.5478036 1.0901501 -0.3047965 0.08231532 0.14281677 -1.171943 -0.9000822

block1.2.bn3_1.weight f4 [2]
00000000: 5261 313f ef86 7e3f
0.69289124 0.9942464

block1.2.bn3_1.bias f4 [2]
00000000: 0dd1 08bf 19cb 9b3f
-0.53443986 1.2171355

block1.2.bn3_1.running_mean f4 [2]
00000000: e4e5 25bf 78b4 c1bf
-0.6480391 -1.51332

block1.2.bn3_1.running_var f4 [2]
00000000: 72b0 6240 82bd 1540
3.5420194 2.3396916

block1.2.conv3_2.weight f4 [2, 2, 5, 5]
00000000: 1468 cd3e 4542 ae3e c2a2 dcbe 51b0 c73e
00000010: a112 9ebd 92f0 683d 20a0 a8bd 5a79 8abe
00000020: ee2f ca3e b5c8 193f c666 45be f295 ed3d
00000030: 3d4e 513c 916d 0a3f 7d02 6c3f 5ae4 2dbc
00000040: 2f24 e83e a331 39be 1d75 7a3e 60c4 613d
00000050: 65c4 cfbe 9ef3 ddbe 64dc 37bf 6d5e 0dbe
00000060: af67 ff3d 5c01 ea3d 27ad b53e eb25 47bd
00000070: 08b6 35bb 1ab0 d6be 056b 5f3e 0be4 1c3e
00000080: 9ec2 70bf 4ea1 47bf 0ae7 b4be 0829 dbbe
00000090: 9929 bc3d 2d3b 83bf 50ca 8b3e a12f 4ebe
000000a0: 11bd b3be f4bb b33d 3cb4 0dbf b9bb bb3e
000000b0: b485 dbbe a5f2 10bf b2c1 f73d 8f47 83bf
000000c0: 4664 82be 7c22 b03d 95e7 403d 18a4 84be
000000d0: 25cc 42bf 28ed aabe cf20 76be 23ea a03e
000000e0: 749c 913f 8b7a 193e 6218 bc3e 0687 a7bd
000000f0: d891 a13e 8003 fb3e 9a63 18be 17f5 e23d
00000100: 1ace 66be 7175 e83e 161b f93e 0428 65be
00000110: 01d1 9c3e 9264 a8be dcdf d53e 3615 8b3e
00000120: 3646 03bf 3838 3abe 2413 39bd d5cd edbe
00000130: cced 19bf eca6 46bf 1203 1abf c876 88bf
00000140: 122a cdbe 2687 a23e 51a7 2abd 59cd 00bf
00000150: 6c00 0abe 9711 d03d e9f1 90be 9d00 073f
00000160: 8924 183e be30 543e 6751 b7bb abaf 0fbf
00000170: 2c56 6cbe b808 ae3c 5911 473e e4a6 5dbe
00000180: ca39 05be 705c 93bf db09 d6be 7506 d7be
0.40118468 0.34034935 -0.43092924 0.39001706 -0.07718397 0.05687005 -0.082336664 -0.2704571
0.39489692 0.6007188 -0.19277486 0.116008654 0.012775001 0.54073435 0.92191297 -0.010613525
0.45340106 -0.18085341 0.24458738 0.05511892 -0.40579525 -0.43349928 -0.71820664 -0.13805552
0.12470948 0.114260405 0.35483667 -0.048620146 -0.0027726907 -0.4193123 0.21818168 0.15321366
-0.9404696 -0.77980506 -0.3533252 -0.42804742 0.091876216 -1.0252434 0.2730279 -0.20135356
-0.35105184 0.087760836 -0.5535314 0.3666666 -0.42875445 -0.56620246 0.12097491 -1.0256213
-0.25467128 0.086003274 0.047095854 -0.25906444 -0.7609275 -0.3338406 -0.24035953 0.31428632
1.1375871 0.14988153 0.36737353 -0.081800506 0.31556582 0.49026108 -0.14881745 0.110819034
-0.22539559 0.454021 0.48653477 -0.22378546 0.30628207 -0.3288923 0.41772354 0.2716462
-0.5127901 -0.18185508 -0.04518427 -0.464461 -0.60128474 -0.7759845 -0.60160935 -1.0661249
-0.4007116 0.31743735 -0.04166347 -0.50313336 -0.13476723 0.10159605 -0.28309563 0.5273531
0.14857687 0.20721719 -0.0055944207 -0.56127423 -0.23079747 0.021244392 0.19440211 -0.21645695
-0.13010326 -1.1512585 -0.41804394 -0.41997114

block1.2.bn3_2.weight f4 [2]
00000000: c6f1 a93f c5dc 553f
1.3276908 0.8353999

block1.2.bn3_2.bias f4 [2]
00000000: ba28 30bc 0f56 d33c
-0.0107518975 0.025797872

block1.2.bn3_2.running_mean f4 [2]
00000000: c0b2 c6c0 7f33 d9c0
-6.20932 -6.787536

block1.2.bn3_2.running_var f4 [2]
00000000: ff72 6f41 c647 a041
14.965575 20.035046
