assignment1/results/trial_2/inception/ckpts/11000.pt (torch, 689134 bytes, 467 tensors)

block1.0.conv1_1.weight f4 [4, 16, 1, 1]
000000 e2 3d c5 3e b7 50 96 3f e1 f8 bb 3d 96 2e bb 3e
       0.38523775 1.1743382 0.09178329 0.3655898
000010 9d a4 0d 3f 27 bb 2e 3f 02 bb 7c 3f c8 81 4c 3e
       0.55329305 0.6825432 0.9872285 0.19971383
000020 fc 0f 16 3f 6f 10 5a be 48 7c 3b be 37 79 2a be
       0.5861814 -0.21295331 -0.18309128 -0.16647802
000030 87 4a ca be 89 23 41 be bc 15 69 3f 0a 90 95 be
       -0.39509985 -0.18861212 0.9104879 -0.29211456
000040 e5 a0 23 c0 a7 3d 5c bf 99 43 f7 3c fb 4b 83 3e
       -2.5566952 -0.86031574 0.0301836 0.25643906
000050 f3 86 f3 bd 38 a9 30 be 0a 6b 87 3e 68 20 9a 3e
       -0.11890974 -0.17252052 0.26448852 0.3010285
000060 f3 33 11 3f 61 6c 6e be c6 8b a7 be d7 92 a9 3d
       0.56719893 -0.23283531 -0.32723826 0.082799606
000070 e4 31 d4 be f3 be d9 3c 9f 28 ae 3d 5b fa a0 be
       -0.41444314 0.02658031 0.085038416 -0.31441006
000080 e8 68 b2 bd 35 a6 0e bb 11 a9 1b bf 83 fe 8b bf
       -0.087114155 -0.0021766548 -0.6080485 -1.0937046
000090 47 8a 28 3f 30 4a ad 3f d1 dc ca 3f 1b ef cb bc
       0.65835994 1.3538265 1.5848638 -0.024894288
0000a0 56 b3 1f 3f 86 f2 92 3d 03 3b 12 3e dc 0e b1 3d
       0.6238302 0.07175164 0.14280324 0.08645412
0000b0 d5 02 b3 3e 2d 19 a3 be f9 f8 13 be 1b a8 ba 3d
       0.34963098 -0.31855145 -0.14450444 0.09114095
0000c0 9a 5e 72 3e fc 3d 4b 3e ad f5 1c bf 69 fa 75 3f
       0.236689 0.19847864 -0.6131237 0.9608522
0000d0 08 ea 0c 3d b9 b4 f8 3f 87 ee 18 bf a7 45 20 bf
       0.034402877 1.9430152 -0.59738964 -0.6260628
0000e0 6c 7c 08 3f 74 3e 3a bd 5b 46 84 be 86 dc 27 3e
       0.5331485 -0.045469716 -0.25834927 0.16392717
0000f0 1b 0a 7e 3f fe 23 4c 3f 1a 32 88 bf f8 a8 23 3d
       0.9923417 0.7974242 -1.064029 0.039956063

block1.0.bn1_1.weight f4 [4]
000000 35 37 75 3f 17 34 ec 3f 72 66 84 3f 86 5d 5c 3f
       0.95787364 1.8453397 1.0343764 0.86080205

block1.0.bn1_1.bias f4 [4]
000000 b4 eb af 3f 70 77 a5 3e 7a 27 14 40 18 95 2a 40
       1.3743806 0.32317686 2.3149095 2.66535

block1.0.bn1_1.running_mean f4 [4]
000000 eb 15 f3 40 d6 34 0d c0 ac 0c a1 40 11 b0 db 40
       7.5964255 -2.2063498 5.032797 6.8652425

block1.0.bn1_1.running_var f4 [4]
000000 52 0e 9d 40 14 60 22 41 b9 ab 58 41 cb 0f cb 40
       4.907998 10.148457 13.541924 6.345678

block1.0.conv2_1.weight f4 [8, 16, 1, 1]
000000 42 7b 13 bf e1 ee d3 be d4 29 9c 3f 67 85 d4 3e
       -0.5760995 -0.41393188 1.2200265 0.41508028
000010 c5 74 e9 3e 13 23 ae bd 20 d2 27 bf a3 b2 84 bd
       0.455969 -0.085027836 -0.65555 -0.06479385
000020 ba fb a0 3e ae 16 0d bf 62 e8 58 3c eb 38 28 be
       0.31442052 -0.5511273 0.013238998 -0.16427962
000030 6d ac 11 be 24 6a a3 3f 8c 5c ea 3d 45 7c 16 bf
       -0.14225931 1.2766767 0.11443433 -0.5878337
000040 30 b5 b0 3e b9 f6 36 bf c2 be 93 3f a0 80 8b bf
       0.34513235 -0.7147022 1.154259 -1.0898628
000050 d6 59 ac be 55 75 88 be 45 5f c4 be 90 40 ee be
       -0.3366229 -0.26652017 -0.38353935 -0.46533632
000060 ec 4b 55 bf 1a 0d c8 3e c8 d9 9b be c1 29 f6 bd
       -0.8331897 0.39072496 -0.3043959 -0.12019683
000070 06 7e cf be 41 cf 3d 3f f9 15 93 be a8 56 3e 3c
       -0.40525836 0.7414437 -0.287277 0.01161734
000080 1c 6e 17 be 27 8f 8e bf 38 21 13 bf 5e 04 d8 be
       -0.14788097 -1.1137437 -0.5747256 -0.42190832
000090 01 20 48 be c9 b3 45 3e 1f 78 09 3f e7 be 3a 3e
       -0.19543459 0.19306864 0.53698915 0.18236886
0000a0 54 1d 47 bf 64 bb bc 3e e8 61 0d be 8b ef 98 bc
       -0.77779126 0.36861718 -0.1380688 -0.01866891
0000b0 40 9e 20 be 31 33 49 bf 5e 6c ba 3e 46 d3 0a bf
       -0.15685368 -0.78593737 0.36410803 -0.5422863
0000c0 54 43 96 be 41 40 55 bf c0 9d 56 3e ff cf 1f bf
       -0.29348242 -0.8330117 0.20958614 -0.6242675
0000d0 dd 0b 52 3e 8c 65 3b bf c1 6e b2 3f dd 2f a1 3e
       0.20512338 -0.73201823 1.394005 0.3148183
0000e0 9d aa c0 3f ad a8 de be ca c9 7c bd a7 96 a5 bd
       1.5052067 -0.43488064 -0.06171588 -0.08085375
0000f0 75 91 5c be 16 2c 8f bf 59 ef 91 3e d3 c9 13 3e
       -0.21539862 -1.1185329 0.2850292 0.14432459
000100 41 90 8b 3e 44 7f 85 3e 02 14 ee 3e 7b 71 10 3f
       0.27258494 0.26073658 0.4649964 0.5642316
000110 00 5a d9 3d d1 04 d8 3e 0a d2 03 3e 8a 85 a1 be
       0.10612869 0.42191175 0.12873092 -0.31547195
000120 bf 6f 12 3e d2 e1 91 bd 1d b8 85 3d e0 8e 8e 3e
       0.1430044 -0.0712315 0.065292574 0.2784338
000130 35 9f 31 3e b0 4b 4d 3e 6a d8 a6 be 8f 7b 00 3f
       0.17345889 0.20048404 -0.32586986 0.50188535
000140 44 32 ed be db 53 0f bf 77 96 fe 3e b5 82 26 be
       -0.46327412 -0.5598733 0.4972417 -0.16260798
000150 6d 7c 95 3e a9 6f 50 be 4b d7 0e bf 9a 96 f7 3e
       0.29196492 -0.20355095 -0.5579726 0.48357087
000160 e1 a2 08 bf 4d da c1 bd 5d df a8 bd fc 43 7a be
       -0.53373533 -0.09465466 -0.08245728 -0.24439996
000170 50 56 51 bd 80 dd e9 be dd 0e 19 3f fc 8f 86 bb
       -0.051107705 -0.45676804 0.59788305 -0.0041065197
000180 55 f9 cf 3e de 20 11 bf 5c 90 1a bf cf 3c 4f bd
       0.40619913 -0.56690776 -0.60376525 -0.0505951
000190 c5 a4 09 3e 4a 6a 8f be 12 28 62 be 71 85 2a be
       0.13441761 -0.2801078 -0.22085598 -0.16652466
0001a0 46 a0 bd b9 91 1d be 3d 3d 0c 78 3e 93 a2 7c 3e
       -0.00036168302 0.09282983 0.24223419 0.24671392
0001b0 6f d5 91 3e a7 c2 3d 3d 59 e6 85 3e a6 bd 2b be
       0.2848315 0.046328213 0.26152304 -0.16771564
0001c0 d2 92 29 be 65 9f 81 be 9b fb 8f 3e 4b a2 e3 3f
       -0.16559914 -0.2531692 0.28121647 1.7783903
0001d0 4d 94 2b 3e 03 80 14 be e5 49 f5 be c8 cc c2 3e
       0.16755791 -0.14501958 -0.4790794 0.3804686
0001e0 c9 63 ca 3e a4 cb d4 3e 55 75 be bd 34 00 ef 3e
       0.39529255 0.41561615 -0.09299723 0.46679842
0001f0 f9 4d 6f 3e 84 0a d8 be 0f 66 09 3f cb ca c0 3d
       0.23369588 -0.42195523 0.53671354 0.0941368

block1.0.bn2_1.weight f4 [8]
000000 d1 28 8d 3f 3d d3 39 3f 32 70 84 3f cc 0e 9a 3f
       1.1028081 0.7258795 1.0346739 1.2035766
000010 c1 58 88 3d 59 d4 87 3e ba b7 09 3f 1c 98 c0 3f
       0.066575535 0.26529196 0.5379597 1.504642

block1.0.bn2_1.bias f4 [8]
000000 ba 3f 10 3f d8 2a ac 3f 90 f5 e1 3e e8 d1 0c 3f
       0.5634724 1.3450575 0.44132662 0.5500779
000010 4b 43 13 bf 76 24 c3 3e df 3b c1 be 43 96 d4 3f
       -0.57524556 0.38113755 -0.3774099 1.6608356

block1.0.bn2_1.running_mean f4 [8]
000000 44 ab 9a 3f 72 a3 57 c0 d6 84 74 c0 6c 5a 91 3d
       1.2083516 -3.369351 -3.8206077 0.07097325
000010 03 d1 80 40 fb 79 8c c0 e1 26 06 c0 9f c8 fe 3f
       4.025514 -4.38989 -2.096123 1.9904975

block1.0.bn2_1.running_var f4 [8]
000000 5c 66 44 40 22 f3 55 40 7b f6 a3 3f 62 bb 7d 40
       3.0687475 3.3429646 1.2809595 3.964562
000010 34 47 0c 3f e7 f0 5c 40 a9 3a 15 3f a8 2b d4 40
       0.5479615 3.4522035 0.58292633 6.630329

block1.0.conv2_2.weight f4 [8, 8, 3, 3]
000000 1c bd 39 be f4 78 0f be a0 c2 86 3d a9 91 ad be
       -0.18138546 -0.14010984 0.065800905 -0.33900192
000010 0c dc 9d bc c1 6f c1 be 9d d5 bd 3e 32 5e d5 3e
       -0.019269966 -0.37780574 0.37077036 0.41673428
000020 2d d3 4a bd fe 2f 68 3e 72 55 4c be de 02 31 bd
       -0.0495178 0.22674558 -0.1995447 -0.043215625
000030 f2 9e c2 3d 6a 08 2f bf cc 18 02 bf c1 38 97 3e
       0.09502973 -0.68372214 -0.5081909 0.29535487
000040 18 32 8b be dd b9 a8 be 71 e5 8a 3e ab 50 2a 3e
       -0.27186656 -0.32954302 0.27128175 0.16632335
000050 24 fb 34 3e 32 e0 20 3e 2b 7f 7b 3c 9b 8f 61 3e
       0.17673928 0.15710524 0.015350143 0.22027437
000060 ce 28 c0 3e 9f 3b a7 3c f2 63 8c bc 99 94 ac be
       0.37531132 0.020414172 -0.017137501 -0.3370712
000070 48 4c d3 3d b7 d0 9b be 4d d6 45 bd 90 06 7a be
       0.10317284 -0.30432674 -0.048300076 -0.24416566
000080 68 e9 e0 be 4b 84 dd 3d 41 4d 66 be 8a 92 9d be
       -0.43928075 0.108162485 -0.22490408 -0.30775863
000090 e5 83 99 3e ea 6c c5 3e f3 be 62 3e b3 a0 8d bd
       0.2998344 0.38559657 0.22143154 -0.069154166
0000a0 d2 03 a6 3d be 15 12 3e 50 14 ac bd 8f 96 04 3c
       0.081061974 0.14266106 -0.08402312 0.008092537
0000b0 d1 54 2e 3e ac b9 be 3e 44 af 34 3e cd b5 f3 3d
       0.17024542 0.3725103 0.17644984 0.1189991
0000c0 31 3c 40 3e 9f d2 e0 3d 60 e2 0c 3e c0 0b 33 3e
       0.18772961 0.10977673 0.1375823 0.17484951
0000d0 39 bc 51 be aa 46 2a be 29 8b 38 3e 12 54 80 3e
       -0.20481957 -0.16628519 0.18021835 0.2506414
0000e0 3c 95 83 bc 92 97 3b 3d 4b 31 fd bc 44 50 5d be
       -0.016062371 0.045798846 -0.030907294 -0.2161265
0000f0 52 42 2c be 2c 19 42 bc 54 6b 05 be 37 34 c0 3d
       -0.16822174 -0.011846822 -0.13029224 0.09384959
000100 f4 44 28 3f fb bf 92 bd 44 ef e4 bc e8 bb 84 3f
       0.65730214 -0.071655236 -0.027946122 1.0369844
000110 a0 a4 77 3e d0 33 e8 be 73 17 8d 3d e9 22 10 be
       0.24183893 -0.4535203 0.06889238 -0.14075817
000120 05 7a 85 be c3 91 78 be 9b d0 06 be 1b 5e e3 be
       -0.26069656 -0.24274354 -0.13165514 -0.44407734
000130 73 a9 eb 3d 36 fb 0c bf 1d e3 f0 3d c9 6d 84 3d
       0.11506929 -0.5507082 0.117620684 0.06466252
000140 9d 28 5d be 4c 2b 72 be 10 31 cd 3e 9e c3 19 be
       -0.21597524 -0.23649329 0.40076494 -0.15016028
000150 68 5e 40 3e 63 fa a6 3e d9 d4 e7 be 46 95 1d 3d
       0.18786013 0.32612905 -0.45279577 0.038472436
000160 93 fa f7 be 85 53 6f be ba 34 bc 3b 9a 8d 08 3f
       -0.4843336 -0.23371704 0.00574359 0.53341067
000170 ae b6 17 bd 53 9b b4 3e a8 33 c5 3e 97 5e b7 3e
       -0.03703945 0.35274753 0.38515973 0.35814354
000180 f2 14 8d 3e 96 2a 63 be 3c 85 89 3d 64 b0 b1 bd
       0.27555043 -0.22184214 0.067148656 -0.08676222
000190 6c f0 62 be 02 52 7f be 1e 20 e8 3e 78 0c 52 3d
       -0.22162026 -0.24933627 0.45337003 0.051281422
0001a0 d2 cb 6e 3d 4a 50 aa be d8 29 ff be 19 9b 2d bf
       0.058299847 -0.3326438 -0.49836612 -0.67814785
0001b0 96 f2 16 3e 36 f5 11 3e ac 15 7d bd fa 4b 9e be
       0.14740977 0.14253697 -0.061788246 -0.3091734
0001c0 b8 ba 6c be 27 c6 76 be 2d b7 0f be 3e 48 bc bd
       -0.23118103 -0.24099027 -0.1403472 -0.091934666
0001d0 55 a3 9d bd a2 4b 01 3e b9 55 2f be 85 75 91 3c
       -0.07697169 0.12626508 -0.17122544 0.017756233
0001e0 56 e9 32 be 26 6a 20 be 81 37 47 be 84 e2 4e bd
       -0.17471823 -0.15665492 -0.19454767 -0.05050899
0001f0 24 51 c3 be 87 88 30 be 2f e6 37 be 85 18 8f be
       -0.38147843 -0.17239581 -0.17958902 -0.27948394
000200 ef 82 2d be 61 2f d7 bc dd 3c 91 be 27 98 75 be
       -0.16944478 -0.02626771 -0.28366747 -0.23983823
000210 af 97 5b be b4 fe ac be b6 a2 2e be 18 29 00 3e
       -0.21444581 -0.33788073 -0.17054257 0.12515676
000220 89 3f 13 bf bb d3 f5 3b 13 93 30 bf de b2 bf be
       -0.5751882 0.007502047 -0.6897442 -0.37441152
000230 ae 01 07 be 87 10 03 be a6 fb b5 be 46 32 1c 3e
       -0.13184234 -0.12799273 -0.35543555 0.15253553
000240 d0 a7 8c bc 66 b2 af be 15 36 01 3e 2c f4 6f be
       -0.017169863 -0.34315795 0.12618287 -0.23432988
000250 d1 41 c0 be 05 a0 9d 3d 75 2f 70 be c4 e6 ba bd
       -0.37550214 0.07696537 -0.23455603 -0.09126046
000260 7c 5a fe 3e 7f aa 56 be fd 94 1a bf 51 35 93 3d
       0.4967841 -0.20963477 -0.6038359 0.07187904
000270 03 c8 42 bf ca 42 72 bf 29 2a 3a bf 43 ae ca be
       -0.76086444 -0.9463316 -0.7272058 -0.39586076
000280 28 8c 36 bf cb 53 42 bf f8 56 d0 bd d3 ee 0c be
       -0.7130761 -0.7590911 -0.10172838 -0.13762979
000290 b6 14 7f bd 08 b0 3c bd 43 77 ba be fa cf 00 be
       -0.06227561 -0.046066314 -0.36419114 -0.12579337
0002a0 75 30 6f be c1 29 b0 be 2a c6 9d be da 79 f6 3e
       -0.23358329 -0.34406856 -0.3081525 0.4813984
0002b0 46 12 66 3d 4d db 03 3e 8f 40 83 bd 8e 17 d4 be
       0.05616977 0.12876625 -0.06408798 -0.4142422
0002c0 88 b1 91 be f5 ea 04 3f 91 b6 16 3e fb 0e 4a 3e
       -0.28455758 0.51921016 0.14718081 0.19732277
0002d0 dc 48 15 3e 90 3e fc bd ee 5e 1c 3d ec 6a e8 bc
       0.14578575 -0.1231662 0.03817647 -0.028371297
0002e0 08 c0 9d bd 48 92 4a bd 3a 67 02 3e 5c d4 87 3d
       -0.07702643 -0.04945591 0.1273469 0.06632301
0002f0 9b 53 18 3e 6e a8 d2 be a2 32 18 bf 4c f1 8e be
       0.14875643 -0.41144127 -0.5945226 -0.2791847
000300 44 b8 0b be a5 1a 0b be 28 2f c9 be 81 6c 4f be
       -0.1364451 -0.13584383 -0.3929379 -0.20256235
000310 37 47 11 bf e4 a1 12 bf 66 0e f7 3e 1b af eb 3e
       -0.5674929 -0.57278275 0.48253173 0.46032032
000320 b8 49 ef 3d 0f 31 be 3d ad 56 89 3e 0c db b9 bd
       0.116839826 0.09286701 0.2682394 -0.09074983
000330 fd 65 d9 3e 7b 6c e2 3e ab 68 8e 3e 87 18 96 be
       0.42460623 0.4422339 0.2781423 -0.29315588
000340 c7 e2 20 3e 49 a5 84 be fa 4b ae bd 11 a9 bc 3e
       0.15711509 -0.25907353 -0.08510585 0.36847737
000350 39 8e cc bd 82 0c 98 be bf 30 58 bd ce 11 9a bd
       -0.09988064 -0.29697043 -0.052780863 -0.07522927
000360 7b 9d a2 be 68 25 5d 3e bc 09 1d 3e c2 c3 c6 be
       -0.31760773 0.215963 0.15335745 -0.38821226
000370 1b 6f 8b bf 9b 13 7f 3f be 12 84 3e e1 84 c2 bc
       -1.0893282 0.9963929 0.2579555 -0.023745002
000380 2d f8 43 3d fa 32 ff 3e cf 92 05 3e 36 3f 42 3e
       0.0478441 0.4984358 0.13044284 0.18969426
000390 a6 b6 6d 3e 47 d2 f0 3d 85 3d 18 3f ce 11 85 3e
       0.23214206 0.11758857 0.5946887 0.25990146
0003a0 3a 31 ec 3e d6 2e 20 3e c6 99 7b 3d a3 82 08 bc
       0.46131307 0.15642866 0.061425947 -0.0083319275
0003b0 ed d7 f0 be f3 e5 fa 3e 6e 69 de 3e f8 41 1e bf
       -0.47039738 0.49003562 0.4343981 -0.6181941
0003c0 d6 c0 93 3d 43 06 f8 3e 0f 6a 2f be f9 39 6a bd
       0.07214515 0.48442277 -0.17130302 -0.057184193
0003d0 09 cf a8 3d 2e a9 ef 3d e1 14 65 bf da 97 88 bf
       0.08242614 0.1170219 -0.89484984 -1.0671341
0003e0 f2 9b 4c bf 71 95 30 3d 4b 82 47 bf 0a 5c 54 bd
       -0.79925454 0.04311127 -0.77933186 -0.051845588
0003f0 a0 73 99 3d 7d bc 80 3e ef b4 fa bc 9f f3 40 be
       0.07492757 0.25143805 -0.030603854 -0.18842934

block1.0.bn2_2.weight f4 [8]
000000 06 fa 58 3f 8c 43 25 bf 2a bd 0f 3f 65 14 76 bf
       0.84756505 -0.64556193 0.56148016 -0.9612487
000010 a2 2e 1c 3f 67 7a 48 3f db cb 5b 3f 0e e0 1f 3f
       0.61008656 0.7831177 0.85857934 0.62451255

block1.0.bn2_2.bias f4 [8]
000000 25 6b b0 3e 19 73 2b 3f 15 0d 87 3e 03 3c 7f 3e
       0.34456745 0.669725 0.26377168 0.24925236
000010 ee 89 31 3e be 97 84 3f 03 4e 34 be df 94 8c 3f
       0.17337772 1.0358808 -0.17607884 1.0982932

block1.0.bn2_2.running_mean f4 [8]
000000 de a1 58 3e 7f 4b b3 c0 56 3a 19 c1 1f 7f c0 bf
       0.21155497 -5.602966 -9.576742 -1.5038794
000010 85 50 9b bf e3 be 39 c0 ab 8e 9c c0 b8 2f 89 be
       -1.2133948 -2.9022758 -4.8924155 -0.2679422

block1.0.bn2_2.running_var f4 [8]
000000 eb 08 1c 41 45 32 1d 41 76 74 8a 41 eb 14 96 41
       9.752177 9.824773 17.306866 18.760214
000010 07 49 a5 40 b0 00 41 41 eb 2f f4 40 31 5f 02 41
       5.1651645 12.062668 7.6308494 8.14824

block1.0.conv3_1.weight f4 [2, 16, 1, 1]
000000 ad 5a 38 3f 30 cf 0c 40 d1 b0 37 3f e0 95 c0 3e
       0.7201336 2.2001457 0.71754175 0.37614346
000010 21 1b a0 3e 1a 39 8d 3f f1 04 a5 3e c0 c3 4c 3f
       0.31270698 1.1033051 0.32230332 0.7998619
000020 c9 75 e8 3c 57 31 ce 3e af 92 9a 3c 8d 46 56 3e
       0.028376477 0.40272018 0.018868772 0.2092535
000030 2a d2 95 3f fd f4 cc bd 15 fc ee bd 09 a0 d5 3f
       1.1704762 -0.10007665 -0.116691746 1.6689464
000040 de 79 06 3e 33 2d da be ae 63 22 bf 18 94 09 be
       0.13132426 -0.4261261 -0.6343335 -0.134354
000050 a4 cd 8c 3e 36 ce 75 3f 87 a9 a7 bc 43 ed e7 3d
       0.2750064 0.9601778 -0.02046658 0.11324551
000060 8d 00 04 3f 30 bd 27 bc c8 ca ba bb 40 ef 9a bc
       0.5156334 -0.010237977 -0.005700443 -0.018912911
000070 e7 46 b3 3e a2 70 cd 3e 2f cc 05 3f 67 85 91 be
       0.35015032 0.40124995 0.52264684 -0.2842209

block1.0.bn3_1.weight f4 [2]
000000 6c b5 47 3f 96 d8 fd 3e
       0.780112 0.49579304

block1.0.bn3_1.bias f4 [2]
000000 b0 48 fa be 64 a5 82 3f
       -0.4888358 1.0206723

block1.0.bn3_1.running_mean f4 [2]
000000 24 b7 12 41 8e 3c 23 40
       9.169712 2.550571

block1.0.bn3_1.running_var f4 [2]
000000 66 fd c3 40 51 6f 02 40
       6.1246824 2.0380442

block1.0.conv3_2.weight f4 [2, 2, 5, 5]
000000 35 ea 3e 3d 38 93 8f 3e 4e e4 64 3c 5c a2 89 be
       0.046610076 0.28042006 0.013970448 -0.26881683
000010 21 3c 34 bc c9 1b ae bc cd 58 09 3e 36 57 bf be
       -0.011000664 -0.021253483 0.13412781 -0.37371224
000020 f4 55 88 be ec c7 ce bd a1 43 44 3f 5c 78 99 3e
       -0.26628077 -0.10096726 0.76665694 0.2997464
000030 5e d5 71 bd ed f3 14 3f c6 3c d5 3e 5d 6c 9d 3e
       -0.059041373 0.581847 0.4164793 0.30746737
000040 8f 9b 87 3e c3 4d 6c bc b9 d7 7c 3e 5c 10 63 3e
       0.2648587 -0.014422837 0.24691667 0.2217421
000050 92 4e 7c 3e 1b e5 48 3e 9a f6 5c 3d 9a 3a 06 3f
       0.24639347 0.19618647 0.053946115 0.5243317
000060 2b 78 3a be 2c 79 20 bc 6f 2d a2 3e 19 08 12 3d
       -0.18209903 -0.009794515 0.31675288 0.035652254
000070 1c 41 97 3d 05 2d c3 3e 71 aa 25 3e 57 bd bc be
       0.073854655 0.38120285 0.161783 -0.36863205
000080 79 d0 68 bf 7e b0 42 bf cc dd b7 bd 71 c8 19 3d
       -0.90943104 -0.76050556 -0.08977851 0.03754467
000090 64 85 eb be 35 8a 81 3e f1 f1 7a bd 67 a4 26 bf
       -0.46000206 0.25300756 -0.06126589 -0.6509461
0000a0 04 3c c8 bc 1c 26 95 bc 13 3a c2 be e5 36 73 bd
       -0.02444268 -0.018206649 -0.37934932 -0.059378523
0000b0 59 d5 e5 bd ea 70 91 3c 31 13 88 3e 0f 0e 02 bf
       -0.112223335 0.017754037 0.26577142 -0.508027
0000c0 e2 db e7 be e0 d9 f3 3d e2 76 85 be 89 95 6b be
       -0.45284945 0.11906791 -0.26067263 -0.23006262
0000d0 7d 17 9a be 44 c8 65 bd 9a 2b b4 3c 9a 38 b4 bd
       -0.30096045 -0.05609919 0.021993447 -0.087998584
0000e0 23 43 83 be 50 09 be bd b9 1a b7 3e 85 e4 bf bc
       -0.2563716 -0.0927912 0.35762575 -0.023424396
0000f0 7a 9b af bd 18 6d 5b bd e4 38 3d bd 20 25 7f 3e
       -0.08574577 -0.053570837 -0.046196833 0.24916506
000100 a1 ff 75 bd 8c ef 11 be a9 08 6f be 59 78 b9 bc
       -0.06005824 -0.14251536 -0.23343147 -0.022640394
000110 c9 84 81 be 60 bf a0 be 38 5e db bd 45 a5 80 3c
       -0.2529662 -0.31396008 -0.1071133 0.015703807
000120 cc 42 4d be 09 05 e3 ba 62 0c 42 3e 4f cb 2d 3f
       -0.20045012 -0.0017320226 0.18950036 0.6788835
000130 f5 a9 59 3e 48 8c 54 3e 9e 4a bc 3e ef 1b 85 3e
       0.2125624 0.20756638 0.36775678 0.25997874
000140 1d 33 2d 3f e1 05 21 3f c1 d2 2e 3f 85 74 dd 3e
       0.6765612 0.62899595 0.68290335 0.4325296
000150 bf 6e e3 3e 32 ae 03 3f 47 5f 27 3f b2 60 ea bd
       0.4442043 0.51437676 0.65379757 -0.114442244
000160 59 ef d5 bd 11 7f 0d be 52 1d 11 3f 76 c7 75 3e
       -0.104460426 -0.13818003 0.56685364 0.2400187
000170 e4 c5 29 3e eb 47 bc bd 4f d4 05 3d e7 e3 bb 3e
       0.16579396 -0.09193405 0.032673176 0.36697313
000180 c4 e5 af 3d 3a 2e 9c 3e 81 a4 ce bc e7 ec 99 be
       0.08588746 0.30504018 -0.025224926 -0.30063555

block1.0.bn3_2.weight f4 [2]
000000 9f 75 16 3f af ce d8 3e
       0.58773226 0.42345187

block1.0.bn3_2.bias f4 [2]
000000 28 3d 1a 3f 0d 99 40 3f
       0.6024957 0.75233537

block1.0.bn3_2.running_mean f4 [2]
000000 7f eb 26 c0 b5 dc b0 40
       -2.6081235 5.526942

block1.0.bn3_2.running_var f4 [2]
000000 fe c0 12 40 19 f8 bd 40
       2.2930293 5.9365354

block1.0.conv4_1.weight f4 [2, 16, 1, 1]
000000 6b d7 88 be 53 26 a5 be c6 fd f5 3d 93 b4 8c be
       -0.2672685 -0.32255802 0.12011294 -0.27481517
000010 e9 6b c7 3d 2e 62 3a be 49 13 a0 3d b4 49 63 3d
       0.09737379 -0.18201515 0.07816178 0.05549021
000020 94 13 55 3c 64 61 2e 3e d6 68 f0 3d c0 3a 11 be
       0.013005156 0.17029339 0.11738746 -0.14182568
000030 5d aa 83 3c 18 ed 04 be 58 d5 59 be e9 8e f5 3a
       0.016072446 -0.12981069 -0.2127279 0.0018734607
000040 65 9e cc bf f9 dd 89 bb 72 3c 55 bf 76 d1 df be
       -1.5985838 -0.0042073694 -0.8329536 -0.43714494
000050 e7 0d 9f be 8d 61 2c 3f c8 71 0f be 91 86 72 3e
       -0.31065294 0.6733635 -0.14008248 0.23684146
000060 0c 6c 93 bf 2f 7d 57 ba 01 74 53 be 63 d2 76 be
       -1.1517348 -0.0008220253 -0.2064972 -0.24103694
000070 35 2b b9 3c 14 41 b1 3e 7b 6a 7c 3e b6 2f 2c 3f
       0.02260361 0.34619963 0.24649994 0.672603

block1.0.bn4_1.weight f4 [2]
000000 f3 a8 84 3d 83 45 72 3f
       0.06477537 0.94637316

block1.0.bn4_1.bias f4 [2]
000000 92 32 5c be 51 a1 1e 3f
       -0.21503666 0.619649

block1.0.bn4_1.running_mean f4 [2]
000000 00 a6 03 c0 f3 c4 b3 c0
       -2.0570068 -5.6177917

block1.0.bn4_1.running_var f4 [2]
000000 1a 6e d2 3e 71 b6 f5 40
       0.41099626 7.6785207

block1.1.conv1_1.weight f4 [4, 16, 1, 1]
000000 ff 8e a4 bf f1 37 94 bd d8 7c 18 c0 95 a6 0f bf
       -1.2856139 -0.072372325 -2.3826199 -0.5611356
000010 da 45 d6 bc 5d 0c 3c bf 5e 1b e7 3d 53 f9 86 3f
       -0.026156355 -0.73456365 0.11284517 1.0544838
000020 71 59 05 3f 46 70 4a 3f dc d3 ae 3e 9b f5 11 bf
       0.520896 0.79077566 0.3414601 -0.5701539
000030 21 2d c6 be 28 fe fc 3e 98 80 a8 bc 1d 96 80 3e
       -0.38706306 0.49412656 -0.02056913 0.25114527
000040 dd 61 cb 3e 08 06 e5 3e 9d 16 10 bf b2 18 ac 3f
       0.397231 0.44731164 -0.56284505 1.3445036
000050 5b 4e 6c 3f 4c 92 ea bd d3 3c 28 3e 8f ca ea be
       0.9230706 -0.11453685 0.16429453 -0.45857665
000060 f7 7e 28 bf 24 a6 4e 3c ae bc 22 3f cf 54 5a bf
       -0.6581873 0.012612853 0.6356915 -0.8528566
000070 68 08 64 3e e2 16 0d bf a8 e6 d1 be 1e ee 0e 3e
       0.22268832 -0.5511304 -0.4099629 0.13958022
000080 31 53 3e 3f 65 15 0f bd 62 c3 99 3f 6b 88 10 3e
       0.7434569 -0.034932513 1.2012751 0.1411454
000090 0d d2 11 3e 3a 0b 17 be 86 64 02 3f b2 06 f9 be
       0.14240284 -0.14750376 0.50934637 -0.4863792
0000a0 70 5d 99 bd d8 f7 7e be 40 34 a8 bc 05 8e a1 3d
       -0.07488525 -0.24899232 -0.020532727 0.07888416
0000b0 0b 71 a8 3e 8b d5 3e 3e 6c 5e 2a bd e1 ee e8 3e
       0.32898745 0.18636148 -0.041593954 0.4549475
0000c0 a2 05 4e bf ca 41 4a bf a9 04 3b bb 7f 47 d9 be
       -0.80477345 -0.79006636 -0.0028536713 -0.4243736
0000d0 89 ac 45 bf 59 66 19 bf ca 11 80 be 72 ae 9e be
       -0.7721639 -0.59921795 -0.25013572 -0.30992466
0000e0 d5 93 f1 3e 4d 91 b8 bf 46 d6 d0 be c5 4d 87 3e
       0.471831 -1.4419342 -0.40788478 0.2642652
0000f0 2f 73 89 3e 16 50 b8 3d 3d f1 7e 3e c5 64 b0 3e
       0.2684569 0.0899965 0.24896713 0.3445188

block1.1.bn1_1.weight f4 [4]
000000 ce ef a4 3f 1b 4e 65 3f 7b 5f bb 3f 1c 1c 35 3f
       1.2885683 0.89572304 1.4638513 0.70746017

block1.1.bn1_1.bias f4 [4]
000000 bf bd 19 40 3e ba 24 3f 97 f8 51 bf c1 b3 c3 3f
       2.4022062 0.64346683 -0.82019943 1.5289232

block1.1.bn1_1.running_mean f4 [4]
000000 fe 6d fa c0 be 38 13 40 34 4a 91 40 f4 84 98 c0
       -7.825927 2.3003383 4.540308 -4.7662296

block1.1.bn1_1.running_var f4 [4]
000000 69 2c 7e 41 c9 29 41 40 cd 79 98 40 2d 9f 77 40
       15.885842 3.0181754 4.7648683 3.8690903

block1.1.conv2_1.weight f4 [8, 16, 1, 1]
000000 f2 66 cd bd 28 39 07 bf e7 24 89 3e 28 b3 f2 bd
       -0.10029401 -0.5282159 0.26785967 -0.118505776
000010 57 56 c5 bd 7e 02 2d bf c1 16 20 3f bb 32 42 bf
       -0.09635609 -0.6758193 0.6253472 -0.7585866
000020 12 a0 e5 bc 37 b6 8f be df d4 b4 3c 58 ea fa be
       -0.028030429 -0.28068706 0.022074161 -0.49006915
000030 4d 84 16 bf 31 40 26 3e cf 07 82 be ea 51 ba bd
       -0.58795625 0.16235425 -0.25396582 -0.09097655
000040 c5 5e 3e bf 12 4c 11 40 cb 35 4f 3e 98 d2 18 bf
       -0.74363357 2.270268 0.20235364 -0.5969634
000050 d0 85 79 3e 44 5b cc 3c 2c ca d1 be 7c c1 1d bf
       0.24367452 0.024945863 -0.40974557 -0.6162336
000060 dd 1d 03 3e 92 70 1d bf 75 75 b4 be a8 dd 63 3e
       0.1280436 -0.61499894 -0.35245863 0.22252524
000070 40 05 7b be 12 fd 78 be 5a ed b9 3d e6 9f 01 3f
       -0.24513721 -0.24315289 0.09078474 0.5063461
000080 0c d9 ff 3e 12 be a7 be 7b b5 69 3e 44 da 0f bf
       0.4997028 -0.327622 0.22823136 -0.5619242
000090 6b 9c c7 3e e6 7e 19 bd 3d ae 19 be 9c 42 33 3e
       0.38986525 -0.037474535 -0.15007873 0.17505878
0000a0 83 a7 ed 3d 0f 18 8a be 91 60 62 3f 30 b3 97 3f
       0.11604216 -0.2697148 0.884286 1.1851559
0000b0 2c 4e 81 3e 2c d0 db 3e ed 14 84 be 63 53 a0 be
       0.25254953 0.4293226 -0.25797215 -0.3131362
0000c0 cb 6c c7 3e 57 3f 83 3e 3d b2 3e be d8 0d 1d be
       0.3895019 0.25634262 -0.1862268 -0.15337312
0000d0 6a 90 9c bd d6 c0 2e 3d a2 d9 fa be d7 5d 5f bd
       -0.07644732 0.04266437 -0.48994166 -0.054532852
0000e0 3e be 2c 3e 2f 5c 03 3f e9 83 82 bd a5 cf ee be
       0.16869447 0.51312536 -0.06372816 -0.46642795
0000f0 e8 bc 1a bd 58 69 82 3e 24 7e a3 bc 1b 54 a8 bb
       -0.03777781 0.25470996 -0.01995761 -0.0051369793
000100 65 c6 ad bc 84 57 5a 3e b2 ea 01 3f 01 81 10 3f
       -0.021212766 0.21322447 0.5074874 0.56446844
000110 6a 3a c8 bd d2 31 cf ba 60 46 94 3e cb 1d 3b be
       -0.097767666 -0.0015807694 0.28959942 -0.18273084
000120 b9 ec 76 be 88 7f 8d 3e c8 11 34 3f 4e 8c 54 be
       -0.2411374 0.2763636 0.7033963 -0.20756647
000130 45 4c 66 bd d5 29 69 be 80 42 a4 be 39 0e 4c be
       -0.05622508 -0.22769864 -0.32081985 -0.199273
000140 9f 2c 83 3e 3f de b5 be 78 e9 8a be a4 a6 19 c0
       0.2561998 -0.35521123 -0.27131248 -2.400796
000150 74 b0 08 3f 62 cb f4 be 95 be b8 bd e1 0c 4f 3e
       0.53394246 -0.4781142 -0.09020726 0.20219757
000160 56 63 db 3c 16 26 35 bd 72 8a 41 bd cc 97 47 3f
       0.026780766 -0.044225775 -0.047251172 0.77966
000170 f8 d9 37 bf 22 3b 02 3f ca cc d7 3e 44 6d 41 3d
       -0.7181697 0.5087148 0.4214843 0.047223344
000180 a0 88 cf 3d b2 6b 97 be 4a c9 06 3f 4b 5c 15 3f
       0.10133481 -0.29574353 0.5265089 0.5834395
000190 09 39 0a be 06 aa be bc 70 bb 6c be 0e 75 01 3e
       -0.1349832 -0.023274433 -0.23118377 0.12642309
0001a0 28 d9 40 3e 19 22 a8 3e 70 f0 2d 3e c1 c9 6f be
       0.18832839 0.32838514 0.16986251 -0.23416807
0001b0 2a 6b ee 3d 83 70 0b be c7 91 2f be aa 15 ae be
       0.11641534 -0.13617139 -0.17145453 -0.34000903
0001c0 20 52 37 3e fc ac 9b 3e 49 d5 cf 3d 0d f7 40 be
       0.17902422 0.30405414 0.10148103 -0.18844242
0001d0 72 9f 83 be 86 e9 2e 3e a6 f8 8c 3e a7 8a 18 bf
       -0.25707585 0.1708127 0.27533454 -0.59586567
0001e0 c5 85 12 bf 4f 74 00 be 08 67 b3 3e 1d da 43 3e
       -0.57235366 -0.12544368 0.35039544 0.19126172
0001f0 75 8d a1 be c2 4d 01 bd 7d df f2 bd 98 30 60 be
       -0.31553236 -0.031568296 -0.11859033 -0.21893537

block1.1.bn2_1.weight f4 [8]
000000 ea 90 2f 3f 83 bf 6e 3f c2 bd 74 3f 6f 9b 91 3d
       0.68580496 0.93260974 0.9560205 0.07109725
000010 da a9 31 3e ae b9 9e 3f 5f 1e 8a 3d 1b 39 21 3d
       0.1734995 1.2400415 0.06744074 0.0393611

block1.1.bn2_1.bias f4 [8]
000000 3d 9f 53 bd 0f dc b3 3f 75 49 05 bf d4 ab dd be
       -0.051665533 1.4051532 -0.5206521 -0.43295157
000010 6f 95 ca be 26 3f 63 3f 3d 79 90 be c7 a9 0e be
       -0.39567134 0.8876823 -0.28217497 -0.13931952

block1.1.bn2_1.running_mean f4 [8]
000000 52 49 05 c0 22 66 77 bf d6 79 92 3f c0 c4 69 bd
       -2.0826 -0.9664022 1.1443431 -0.0570724
000010 b2 45 25 40 b3 b5 c5 c0 65 38 1d 40 a7 d5 d3 be
       2.5823789 -6.17843 2.456567 -0.4137394

block1.1.bn2_1.running_var f4 [8]
000000 ea c3 cb 3f 9f 4a ad 40 20 81 9e 3f 7d b5 a0 3e
       1.5919163 5.415359 1.2383156 0.31388465
000010 17 d8 8a 3f aa f8 4c 40 e5 69 8b 3f d0 ad c4 3e
       1.0847195 3.2026772 1.0891691 0.38413858

block1.1.conv2_2.weight f4 [8, 8, 3, 3]
000000 b3 45 da be 2d 2b fc be da 24 ec bc 77 69 8d 3a
       -0.426313 -0.4925169 -0.028826166 0.0010788877
000010 7d e8 67 be 2c a9 c6 3d 24 2f 25 3e c6 80 49 3e
       -0.22647281 0.09700236 0.16131264 0.1967803
000020 63 0a 7d 3e de 82 49 be a8 f6 63 bd be b8 8b be
       0.24710993 -0.19678828 -0.05565515 -0.27289385
000030 aa f0 c0 3e a4 fd 12 40 9d 01 a1 3e f5 27 84 3e
       0.37683612 2.296731 0.31446543 0.25811735
000040 cc 49 4b 3f 97 df 25 3d df b2 bf be c6 8b ee bd
       0.7940948 0.040496435 -0.37441155 -0.116477534
000050 bd 7a 09 be 23 c6 9f bd 04 fa 36 3e a5 1e 10 be
       -0.13425727 -0.078014635 0.17868811 -0.1407419
000060 4e ff 9b bd 12 b2 2c 3d f9 52 c1 bd e4 5d f1 3e
       -0.07617055 0.04216201 -0.09439654 0.47141945
000070 f6 68 8c 3e f9 e1 a5 3c 8f 43 d4 3e c8 19 5e 3e
       0.2742383 0.020249354 0.41457793 0.21689522
000080 08 61 b0 3d 65 bc 3a 3f 17 73 6d 3e a7 48 0a bc
       0.08612257 0.7294372 0.23188435 -0.008440173
000090 06 51 29 be 1e a2 86 3d 63 1c 83 3e 75 9a 02 be
       -0.16534814 0.0657389 0.25607595 -0.12754233
0000a0 f4 f5 d3 3e ea cd e9 3e 23 da 68 3d fa d7 00 3f
       0.41398585 0.45664912 0.056848656 0.50329554
0000b0 f0 34 90 3e ef 96 c7 3a 08 62 5f be 21 6c 7a 3d
       0.28165388 0.0015227477 -0.2181474 0.061138276
0000c0 e9 7e 07 bf 68 b2 8b 3f a6 9b 0d bf 94 1d 1d 3e
       -0.52928025 1.091382 -0.55315626 0.15343314
0000d0 ba 16 0a bf 7d f4 b0 be 2a b1 a1 bd 97 1f 6d bc
       -0.5394093 -0.3456153 -0.078951195 -0.014472864
0000e0 53 d3 aa 3d 68 c3 0d 3e 17 90 36 3e 09 03 03 3c
       0.08341088 0.13844073 0.17828403 0.007996329
0000f0 02 7c e8 3d 24 7f 20 3e 88 c8 76 3e 5f 02 05 3d
       0.113517776 0.156735 0.24099934 0.032472964
000100 4f cf 61 3e de db a4 bd e1 9a 18 be 47 cf d8 bc
       0.22051738 -0.08049749 -0.14902832 -0.026466025
000110 f9 87 80 be a1 9c 1a bd c5 f7 83 be 03 5f 11 be
       -0.2510374 -0.03774703 -0.2577497 -0.141964
000120 0a d0 8c be f8 2f 8a bd 22 99 35 be cc b2 3b bd
       -0.2750247 -0.067474306 -0.17734197 -0.04582481
000130 aa 4c b6 3e 26 60 7c 3d f7 f3 b6 3d 77 51 3f 3d
       0.35605365 0.06161513 0.08933251 0.04670855
000140 1a aa 01 3e 8e b4 87 be 0b 65 54 bb 47 fc 60 3e
       0.12662545 -0.2650494 -0.003240886 0.21971236
000150 31 5f 04 3d a5 d5 12 be c5 c9 47 3d e6 c5 15 bc
       0.032317344 -0.14339311 0.048776407 -0.009141421
000160 29 51 d5 bc e3 3b 6f 3e 0c e0 c0 3e e0 2c d5 3e
       -0.026039677 0.23362689 0.37670934 0.416358
000170 1b 32 92 3e 8f 4a 2b be f7 9d db 3d f1 97 d0 3d
       0.28553852 -0.1672766 0.10723489 0.101852305
000180 34 b1 15 be cc 85 02 bf 56 09 09 be a0 d4 2b be
       -0.14618379 -0.5098541 -0.13382468 -0.16780329
000190 04 84 e3 bd 98 65 e7 3d 7f 48 7a be bf 54 e8 bd
       -0.11109164 0.11298674 -0.24441718 -0.11344289
0001a0 9a ee b3 bd 95 35 8b 3e df 33 82 3e 9d 9a 02 3e
       -0.08785744 0.27189317 0.254302 0.12754293
0001b0 62 69 2b 3d b4 de b0 be c1 16 95 be 49 fb 8a 3e
       0.041848548 -0.3454491 -0.29118922 0.2714484
0001c0 47 8e 85 3e 97 bb 39 be 02 b3 a2 3d 5c 4d 61 bd
       0.26085111 -0.18137966 0.07944299 -0.055005416
0001d0 95 82 cf bd c4 12 8d 3e c1 9a 53 3f 7f 80 20 3e
       -0.101323284 0.2755338 0.8265801 0.15674017
0001e0 3f 30 e4 3e 0a e6 24 be bb 1b e8 3b 4d 8c 32 bf
       0.4456806 -0.16103378 0.007083384 -0.6974533
0001f0 d9 99 69 bf 6d ee cf be 38 7c 15 3e ce e7 83 bb
       -0.9125038 -0.40611592 0.14598167 -0.004025436
000200 1d f9 90 3c 4f 40 e6 ba 5a d1 28 3e e4 ac 34 3e
       0.017696911 -0.0017566773 0.16486111 0.17644078
000210 4d 7b 48 bc 2a 6f 80 be df 88 2b 3d 4b 7b 8f bd
       -0.012236428 -0.2508481 0.041878577 -0.07005938
000220 74 bb ef bd 7f eb aa 3d f0 f9 8e 3e 9d 62 69 3d
       -0.11705676 0.083456986 0.27925062 0.05697881
000230 8a 01 9d bd 76 d3 46 3e c1 fa c9 3e 7f bd a7 bb
       -0.07666309 0.19416603 0.39449123 -0.0051190252
000240 95 32 33 be 74 ec b4 be 02 41 e9 bd 1b 42 96 be
       -0.17499764 -0.3533665 -0.113893524 -0.2934731
000250 46 10 bd be bb 2d 8c be 92 b3 d1 bb 59 1c 55 3e
       -0.36926478 -0.2737864 -0.0063995803 0.20811595
000260 74 4f 6b 3e 2a 50 b1 be 0e 67 7b be 08 06 81 be
       0.22979528 -0.34631473 -0.24551031 -0.25199914
000270 d8 e2 a8 3d f5 b2 10 3e e2 a8 23 3e 68 c7 b3 3e
       0.08246392 0.14130767 0.15982392 0.35113072
000280 e0 4b d7 3e e2 c6 1c 3f 4f 04 5d be ee 68 c8 3e
       0.42050076 0.6124097 -0.21583675 0.39142555
000290 50 09 fb 3e fc f1 f3 bb 24 75 f6 3e 45 a4 2b 3f
       0.49030542 -0.0074446183 0.48136246 0.6704753
0002a0 30 7f c0 be 1f 74 f4 be f5 32 4e bd 95 2a 80 3d
       -0.37597036 -0.47744843 -0.050341565 0.06258122
0002b0 57 0f 75 3d 03 23 ca bd c5 99 4f be e0 7d 9e 3d
       0.059829082 -0.09869959 -0.20273502 0.077388525
0002c0 cd bb 16 3d ce ce de bb e4 72 96 3d 20 a0 5c 3d
       0.036800195 -0.0067995554 0.073461324 0.053863645
0002d0 03 8f 7c 3d 89 23 39 bd 2c 6d 16 3e af 0a cc bd
       0.061659824 -0.045199905 0.14690083 -0.09962975
0002e0 2b 10 aa bd 5d 51 e9 bd 42 b4 1e be c6 51 53 3d
       -0.08303865 -0.11392472 -0.1549845 0.051591657
0002f0 2c a0 75 3c 3d 7e 91 3d e2 68 2f 3f 89 25 af 3e
       0.014991801 0.07104156 0.68519413 0.34208325
000300 20 5c 0a 3e a7 69 15 bf 4b 63 38 3f 5a 08 0e be
       0.13511705 -0.5836434 0.7202651 -0.13870373
000310 a5 5b 90 bf 9c e1 bf 3d ea 9e 7a 3e 0d 6f aa 3e
       -1.1277968 0.093692034 0.24474683 0.3328785
000320 54 2f a9 3e ea 1d d3 3c 8b 11 9d 3d 86 4f 68 3e
       0.3304392 0.0257711 0.07669362 0.22686586
000330 de ab 62 3e 8e df e9 3d e8 3c 92 3d 2f e1 6d 3d
       0.22135875 0.11419593 0.07140523 0.05807608
000340 b9 ea ff bc 33 c1 0f be b0 db 32 3b 0a 57 35 3e
       -0.031239854 -0.14038543 0.0027291588 0.17708984
000350 34 ee 10 be 91 de 4a be 1f 85 6c bd 94 7f 5b bd
       -0.14153367 -0.19811465 -0.05774414 -0.053588465
000360 db f7 b0 be 63 67 e0 be 03 ad 28 be 78 47 b0 be
       -0.345641 -0.43828878 -0.16472249 -0.34429526
000370 95 7c c9 be c3 d8 bc bd 77 bb 97 be 8d e0 ae be
       -0.3935286 -0.092210315 -0.29635212 -0.34155694
000380 d9 4c 93 be 57 4e 98 bc 49 7c 9a 3d 1c e6 ba bc
       -0.28769568 -0.018592043 0.07543237 -0.022814803
000390 fc 92 9e 3e 58 ca 5b 3f 27 e5 ad 3e eb 90 17 bd
       0.30971515 0.8585563 0.33963892 -0.03700344
0003a0 11 d1 b3 3d e0 d9 f5 3d 72 16 4b bd 3b 8a 03 bd
       0.087801106 0.12004447 -0.049581952 -0.03211425
0003b0 84 1c a8 3e f6 ec 75 3e 4b 4b da 3e b2 0f 92 3e
       0.32834256 0.24016175 0.4263557 0.285276
0003c0 04 b0 21 3d f6 af 13 3e 39 8c d3 3d f1 a9 db bd
       0.039474502 0.14422593 0.1032948 -0.10725773
0003d0 21 7d 99 3e cd 86 43 3e f7 2e b4 be 4a 6c 8b bd
       0.29978278 0.19094391 -0.3519208 -0.06807764
0003e0 a4 a4 f7 3d 4a 6e 0e bd b7 6c 78 3e fd 52 85 3e
       0.120919496 -0.03477315 0.24260221 0.26039878
0003f0 4f e0 2a be bc 8f 15 3b 0e e3 8a 3e 19 67 08 bd
       -0.1668713 0.0022821268 0.27126354 -0.033301447

block1.1.bn2_2.weight f4 [8]
000000 be a4 55 3f 3b 96 26 3f c2 6f 49 3f 21 69 82 3f
       0.834545 0.65072984 0.78686154 1.0188333
000010 44 6c 34 3f 9b 22 9e 3e 4e 3b 5d 3f 2c 1c 7c 3e
       0.704777 0.30885777 0.86418617 0.24620122

block1.1.bn2_2.bias f4 [8]
000000 39 bf b2 3f 25 a7 2f be e9 3c a9 bc 81 55 d4 be
       1.3964607 -0.17153604 -0.020658927 -0.41471484
000010 4c 4e 2d 3f 3f f0 fe 3e 27 b8 6c 3e ea f4 a9 be
       0.67697597 0.49792668 0.23117124 -0.33194667

block1.1.bn2_2.running_mean f4 [8]
000000 f2 52 74 40 fc 59 a3 be ad 7a a5 3f 05 c6 1f 40
       3.8175626 -0.3190459 1.2928063 2.4964612
000010 59 30 bd bf 6e 85 15 c0 a6 28 da be fb 55 2d c0
       -1.478038 -2.336269 -0.42609137 -2.7083728

block1.1.bn2_2.running_var f4 [8]
000000 20 86 f5 40 7c 9c 21 40 0b 85 35 40 42 c4 92 40
       7.6726227 2.525176 2.8362453 4.5864573
000010 fb 52 a0 40 2f 0c 3a 40 60 81 d7 40 48 17 3a 40
       5.0101295 2.9069936 6.734543 2.907671

block1.1.conv3_1.weight f4 [2, 16, 1, 1]
000000 a2 13 2f 3f ef 09 0c 3d c6 93 b5 3d e5 6c bf bd
       0.6838933 0.03418916 0.08866076 -0.09346942
000010 9a 8b 17 bd 23 23 a9 3e 85 be d4 3d 93 01 d6 be
       -0.03699837 0.3303462 0.10387901 -0.41798076
000020 a9 2f 91 3e 92 ec 74 3f fc 51 33 3e bf d7 03 3d
       0.28356674 0.9567348 0.17511743 0.032188173
000030 a9 da 12 3f 1c 63 56 be 79 c3 1a bc 0d 5e 3f 3e
       0.573649 -0.20936245 -0.009446018 0.18688221
000040 91 5a c4 3b 77 fb 61 bd 6f 17 3c 3f 36 10 5d 3e
       0.0059922417 -0.055171456 0.73473257 0.21588215
000050 d4 b9 1b be ba b9 02 bf f1 fb 8c 3e c5 2a 6e be
       -0.15207607 -0.51064646 0.27535966 -0.23258503
000060 4c a2 8d be 18 4c 85 3d 3a 72 98 3e ed 9f c9 3d
       -0.27662885 0.06508654 0.29774648 0.098449565
000070 9c ea 37 3e 52 8b 15 3e 74 9e ab bd 5f 1f 96 be
       0.1796059 0.14603928 -0.08379832 -0.2932081

block1.1.bn3_1.weight f4 [2]
000000 23 10 09 3f 6b 25 12 3f
       0.5354025 0.57088345

block1.1.bn3_1.bias f4 [2]
000000 56 d5 9b 3e c8 21 2b bf
       0.304362 -0.6684842

block1.1.bn3_1.running_mean f4 [2]
000000 2a 8f 21 40 81 bd f6 3f
       2.524363 1.9276582

block1.1.bn3_1.running_var f4 [2]
000000 20 f6 86 3f 08 4d dd 3f
       1.0543861 1.7289133

block1.1.conv3_2.weight f4 [2, 2, 5, 5]
000000 cb c7 54 be 31 14 4d bd a3 8c f1 be 85 78 8f bd
       -0.2077934 -0.050068084 -0.4717761 -0.07005409
000010 33 ca 48 3e d0 6b be be a6 5f 8a 3e 40 8d f9 3e
       0.19608383 -0.3719163 0.270261 0.48740578
000020 e7 41 48 be 3a 57 05 be 3d 71 86 bc e9 5f d2 3c
       -0.1955639 -0.13021556 -0.016411418 0.0256805
000030 01 89 eb bd e5 02 85 be 00 73 14 be a1 8c 3e 3d
       -0.11500741 -0.2597877 -0.14496994 0.046520833
000040 83 f6 1a be 41 81 97 be 12 da d7 be be 91 37 be
       -0.151331 -0.295908 -0.42158562 -0.1792669
000050 17 ac f4 bd ab 67 d2 3d 68 88 7e be 13 6f 00 be
       -0.11946886 0.10273679 -0.24856722 -0.12542371
000060 31 28 d3 bd 0c ca e6 bd 0f 88 d2 3c cd 57 17 be
       -0.103104 -0.11269006 0.025699643 -0.14779587
000070 a0 8b d9 bc 91 6b 11 be d3 06 20 3d 1a bf 26 be
       -0.026555836 -0.1420119 0.039069008 -0.16283837
000080 bd 94 db 3c 42 9c 4d be e0 b1 ca bd d9 eb 6a bd
       0.026804322 -0.20079139 -0.09897208 -0.057353828
000090 15 7d 5f 3e b4 d9 d1 3e 52 57 ca bd a8 6f 8b be
       0.21825059 0.40986407 -0.09879936 -0.27233624
0000a0 2d 7d 03 3b 07 29 83 bd 4b aa 64 3e c0 dd 6e 3c
       0.0020063624 -0.0640431 0.22330587 0.0145792365
0000b0 5b ad 24 be b7 dc 29 3d 1a 82 8c bd b4 90 c7 3d
       -0.16081755 0.041470256 -0.068607524 0.09744397
0000c0 6a 7f 71 3e f1 9a ae bd e7 f4 9d bd c7 61 19 be
       0.23583761 -0.085256465 -0.07712727 -0.14978705
0000d0 47 8b 89 be 02 ac b6 bc d2 01 f9 3c b5 3c c5 bd
       -0.26864073 -0.022298817 0.030396376 -0.096307196
0000e0 9b 3a 1c be 8e c3 0c be 25 58 c0 bd 95 71 19 be
       -0.15256731 -0.13746473 -0.09391812 -0.14984734
0000f0 d5 72 9b 3e 42 9e 65 3e e3 2d ac 3e c0 ee 9a 3e
       0.30361047 0.22423652 0.3362876 0.30260277
000100 fc 79 0a 3f a5 cb 0b 3e da e4 c0 3d 51 8d 17 3e
       0.54092383 0.13651903 0.0941865 0.14800002
000110 88 8c 25 3e 96 1f 1a bc 66 8d f6 bd 4a 10 90 be
       0.1616689 -0.009406945 -0.12038688 -0.28137428
000120 80 59 1d be fa ea c5 bd 93 f4 30 be 0c db 8c be
       -0.15366173 -0.09663959 -0.17280798 -0.2751087
000130 0e 5e ca bc db dc c9 3d 7a 22 53 3d 81 ee 85 3d
       -0.024703052 0.09856578 0.05154655 0.06539632
000140 b5 d8 ab bd bb b1 73 bc 09 89 05 3d d8 68 51 3e
       -0.08390943 -0.014873917 0.03260139 0.20450151
000150 11 3e d3 3d 18 1b a2 bc 46 75 c4 bd 94 7d 94 3d
       0.103145726 -0.01978831 -0.09592681 0.072505146
000160 fc 67 95 3e 92 43 3b 3e e8 93 70 3e 5f 1e 23 3e
       0.29180896 0.18287495 0.23493922 0.15929554
000170 28 59 54 3e 74 39 dc 3e ae c2 e3 3e 58 6f 7c 3e
       0.20737135 0.43012583 0.44484466 0.2465185
000180 ac 12 04 3e 28 54 0c 3e 6a 92 fb bb 2b ca d5 3d
       0.12897748 0.13703978 -0.007677366 0.10438951

block1.1.bn3_2.weight f4 [2]
000000 eb c2 d1 3e 31 2d 83 3f
       0.40969023 1.0248166

block1.1.bn3_2.bias f4 [2]
000000 c5 d3 25 3e 4e eb 65 bf
       0.16194065 -0.8981217

block1.1.bn3_2.running_mean f4 [2]
000000 9b a1 3e bf 59 c1 80 3e
       -0.7446534 0.25147513

block1.1.bn3_2.running_var f4 [2]
000000 d6 e4 b1 3e 50 87 33 3f
       0.347449 0.70128345

block1.1.conv4_1.weight f4 [2, 16, 1, 1]
000000 86 26 81 3f 81 95 73 be db 2a eb 3d 36 1b a3 3e
       1.0089881 -0.237875 0.114827834 0.31856698
000010 48 62 22 bf e1 c5 e6 bd dd 12 49 bf 55 6c 8a bd
       -0.63431215 -0.11268211 -0.7854441 -0.06758944
000020 15 82 95 3c ad 97 89 be af 60 44 be 5d 14 2c be
       0.018250505 -0.26873532 -0.19177507 -0.16804643
000030 d4 07 fc 3d a0 f6 05 bf d4 37 b4 bd 78 fc 51 be
       0.123061806 -0.52329445 -0.08799711 -0.20506465
000040 36 f1 7e be 30 88 25 bf 57 c5 11 3f 0a 83 39 3e
       -0.24896702 -0.6466093 0.5694174 0.18116394
000050 5a 6f d6 bc c6 98 82 be 1c d8 64 3e 7a 36 bd 3e
       -0.026176143 -0.25507182 0.22348064 0.36955625
000060 a8 81 c5 3e cb 77 f1 3c 8c fc 7a 3e c0 11 36 3e
       0.38575482 0.029476067 0.24510401 0.17780209
000070 c4 0a 0a 3f 4d 24 d2 3e 66 b2 1f 3e 9f f0 11 40
       0.5392268 0.4104332 0.15595397 2.2803113

block1.1.bn4_1.weight f4 [2]
000000 74 7f 8e 3f c7 23 2d 3f
       1.1132646 0.67632717

block1.1.bn4_1.bias f4 [2]
000000 c8 ab 61 be 9a fe af 3f
       -0.22038186 1.3749573

block1.1.bn4_1.running_mean f4 [2]
000000 45 67 6a 3e 59 f7 a7 40
       0.22890957 5.248944

block1.1.bn4_1.running_var f4 [2]
000000 97 98 bf 3f 4c 95 f4 3f
       1.4968442 1.9108062

block1.2.conv1_1.weight f4 [4, 16, 1, 1]
000000 53 19 c2 3e 9e 12 bc 3d 1f f5 5b be 5e 60 93 3d
       0.37909946 0.091832384 -0.21480225 0.07196115
000010 f6 52 d2 3f 5e cd ca be 0a 73 08 3e 83 d9 02 3f
       1.6431568 -0.39609808 0.13325134 0.51113147
000020 72 b4 0b bf 71 9f 4f 3e 7d 16 89 bf 3e d3 0f 3e
       -0.5457221 0.20275666 -1.0709988 0.14045426
000030 b1 63 80 3b 6e ef 16 be 90 15 8b be 04 77 af 3f
       0.003918134 -0.14739773 -0.27164888 1.3708196
000040 38 3d 9c bd a1 82 8a 3c f2 a8 dc bd bc 7e 68 3e
       -0.07628864 0.016907992 -0.10774411 0.22704595
000050 0c 02 e4 3d f6 b5 63 3d aa 6f 7b be 1f 9d 02 3f
       0.11133203 0.055593453 -0.24554315 0.51021
000060 e5 2c 52 3d 59 d3 81 3e d6 8b b8 be 0e 4c 3b be
       0.051312346 0.25356558 -0.36044186 -0.18290731
000070 bd 7b b0 3c 0e ef 0a be d4 b6 0d be 3f 80 e3 3e
       0.021543378 -0.13567755 -0.13839275 0.44433782
000080 18 8f 31 40 17 f4 2b 3f 6d 13 ef be a9 df 52 bf
       2.7743587 0.67169327 -0.46694508 -0.8237253
000090 03 a0 22 be 58 e4 48 bd 11 d7 73 3e c1 ac a5 3e
       -0.15881352 -0.04904589 0.2381251 0.32358363
0000a0 16 2b a9 3d 60 0e e5 3d 5d b1 95 3e 01 f4 75 bc
       0.08260171 0.111843824 0.2923688 -0.015011788
0000b0 e8 d1 a8 be 04 54 d9 be fe 44 92 3d 50 6c aa bd
       -0.32972646 -0.4244691 0.071420655 -0.0832144
0000c0 ab f3 3c be 98 22 8b 3f 61 17 c2 be 9b 31 83 be
       -0.18452327 1.0869932 -0.37908462 -0.25623783
0000d0 52 e7 6c be 0c f4 32 3f a1 69 2c 3f 02 fe d0 be
       -0.23135117 0.69903636 0.67348677 -0.40818793
0000e0 a4 15 92 3f bd 08 92 3e 86 46 1a be de 1a 24 bd
       1.1412854 0.28522292 -0.15065965 -0.040064685
0000f0 bf 5c 81 be 64 ec c4 be 7c ca 93 be 94 35 2d 3e
       -0.25266072 -0.38461602 -0.2886542 0.1691497

block1.2.bn1_1.weight f4 [4]
000000 f5 18 7b 3f d2 b0 82 3c 00 9d bb 3f ba a6 47 3f
       0.98084956 0.015953455 1.4657288 0.7798878

block1.2.bn1_1.bias f4 [4]
000000 bf c0 cc 3f 78 ea ea bd 0e 6a 15 40 96 b2 42 3f
       1.5996321 -0.114705026 2.334598 0.7605375

block1.2.bn1_1.running_mean f4 [4]
000000 de 12 8d 40 90 bf 6a 3f 49 c1 b6 40 9b 26 52 3f
       4.408553 0.9169855 5.7110944 0.8209016

block1.2.bn1_1.running_var f4 [4]
000000 f7 21 c5 40 23 af 79 3e a7 f2 76 41 de 05 0e 40
       6.160396 0.24383216 15.434241 2.219108

block1.2.conv2_1.weight f4 [8, 16, 1, 1]
000000 5a 33 dc bc 58 3f 63 ba 61 2b b5 bd 28 52 95 bd
       -0.026879955 -0.0008668802 -0.088461645 -0.07291061
000010 ac 06 86 3e 17 36 59 3e 82 74 e5 bd 4f 67 c1 bd
       0.26176965 0.2121204 -0.11203863 -0.09443533
000020 30 dd 68 be ec 16 92 3e 84 d7 ad 3e 34 17 6d 3e
       -0.22740626 0.28533113 0.33953488 0.23153383
000030 b3 d8 5a 3e 5e 60 75 3e 0e 6f b6 3d fe 27 3a bd
       0.21371727 0.23962542 0.08907901 -0.045448296
000040 2d 39 ba ba e4 96 00 bf 2d 53 8c be 28 2a 3f 3f
       -0.0014207714 -0.5023024 -0.27407208 0.746737
000050 ff 59 53 3f cf a5 ca be e0 17 14 bf c7 d3 29 3e
       0.825592 -0.39579627 -0.5784893 0.16584693
000060 5c b3 ec 3e 83 3c 69 be 10 f2 9d be e3 c1 6e 3d
       0.4623059 -0.2277699 -0.30848742 0.058290374
000070 c2 15 a4 bd 4e 49 86 3d c2 1e 6f bd 45 e4 47 bd
       -0.080119625 0.065569505 -0.058378942 -0.04880168
000080 3b ee 60 bf 3a 9b 9e 3e 38 a9 90 3e 4a a8 af be
       -0.8786351 0.30977803 0.28254104 -0.34308082
000090 5f 1e 17 3d e7 af 6d 3e 4f 69 00 3f 25 8e be bd
       0.0368942 0.23211633 0.5016069 -0.09304456
0000a0 73 bc 02 be 5e 0e 7b 3e 20 84 97 3e 82 fc 45 be
       -0.127672 0.245172 0.2959299 -0.19334605
0000b0 1c 77 05 3f db 0c 21 bf d7 28 04 bf 9b a8 c6 be
       0.5213487 -0.6291024 -0.51624817 -0.3880051
0000c0 7a 79 c1 be a8 92 18 be 5b f3 44 3f 25 c9 c5 bf
       -0.37787992 -0.14899695 0.7693383 -1.545201
0000d0 94 e2 96 bd af be 8b 3e f4 95 45 3e 54 79 a3 bc
       -0.07367435 0.27293918 0.19295484 -0.019955315
0000e0 7a 69 1f 3f 9a 12 bb 3d e3 8d f6 3e a0 b7 38 3e
       0.6227032 0.09134407 0.48155126 0.18038797
0000f0 84 07 8d 3e 79 d9 e6 be 80 c9 8f bd fd 2e 57 3d
       0.27544796 -0.45087793 -0.07020855 0.052535046
000100 fb 87 19 bf fa 97 ce be b3 40 a6 3e 8c 3c 01 3c
       -0.59973115 -0.40350324 0.32471237 0.007887971
000110 2d 1b d9 3e 6b 17 94 3c 0b 08 82 3e 68 81 03 3f
       0.42403546 0.018077573 0.2539676 0.51369333
000120 89 cb 85 be a1 58 fc be 50 65 e0 be ee 44 2d 3d
       -0.26131848 -0.49286368 -0.43827295 0.042302065
000130 d1 42 ac 3e 5a b1 ad bd cf c0 67 3e 43 29 14 be
       0.33644727 -0.08481093 0.22632144 -0.14468865
000140 3c ec 0b be 69 c8 4d be ce 92 36 3e 75 3b 2b 3e
       -0.13664335 -0.20095982 0.17829439 0.167219
000150 ec 6a da 3e cd cc 9b 3e c0 65 2c 3d 0e ee 99 be
       0.426597 0.30429688 0.042089224 -0.30064434
000160 97 dd 90 bd 07 f9 4c 3d eb 7a 02 3e e3 99 b5 bd
       -0.07073515 0.05004218 0.12742202 -0.08867242
000170 c0 d5 07 3e 3d d2 3c be 20 98 80 3e ab e8 04 be
       0.13265133 -0.18439575 0.25116062 -0.12979381
000180 76 2e a3 bf 79 36 0d 3d 8a 7a 22 3f 23 01 01 bf
       -1.2748554 0.034475777 0.6346823 -0.5039236
000190 dd bd 30 3f c4 a3 c3 3c 6a df eb 3c 35 47 44 3f
       0.6903971 0.0238818 0.028793056 0.76671153
0001a0 d7 fb 80 3e c7 f5 fd be bd fb bb bb 35 a4 6e be
       0.2519214 -0.49601576 -0.0057367967 -0.23304828
0001b0 a4 35 3a be 26 e4 ed 3e 39 53 18 bf b2 e0 c7 3e
       -0.18184525 0.46463126 -0.5950199 0.39038616
0001c0 8b f5 b8 be 39 19 47 3e 3d fe be bd a2 2a a7 3d
       -0.36124834 0.19443215 -0.09325836 0.081624284
0001d0 ec 9f 0e 3e 21 01 6a 3e 04 d1 dd 3c c7 08 39 3e
       0.13928193 0.22851993 0.027077205 0.18069755
0001e0 37 6e 0a be f5 06 9e 3d 62 60 c9 3e 26 dc 79 be
       -0.13518606 0.07716171 0.39331347 -0.24400386
0001f0 d7 45 36 3e 70 3a b1 3e 7a 60 5f bd 2f 95 8b 3e
       0.1780008 0.34614897 -0.054535367 0.27262256

block1.2.bn2_1.weight f4 [8]
000000 99 db b3 3c c3 2a 77 3f e9 58 60 3f 0d bf 1c 3f
       0.021955298 0.96549624 0.87635666 0.6122902
000010 81 a7 58 3f 42 55 1e bd 7c 50 68 3f 02 a1 8c 3d
       0.8463059 -0.038655527 0.9074781 0.06866647

block1.2.bn2_1.bias f4 [8]
000000 00 0b 64 be 8d 75 e0 3e 41 62 9f 3e c4 d7 9c 3f
       -0.22269821 0.43839684 0.3112965 1.2253346
000010 df a1 e5 bd 54 bc ea be 02 ad 79 3f 38 6f b9 be
       -0.11212515 -0.45846808 0.97529614 -0.36217666

block1.2.bn2_1.running_mean f4 [8]
000000 96 95 a3 3e 69 fb d2 3f 57 d9 27 c0 45 7f 1a c0
       0.31950063 1.6482974 -2.6226404 -2.414018
000010 30 70 c8 bf 88 16 b4 3e 4b 61 0e c0 e9 99 5f 3e
       -1.5659237 0.3517344 -2.2246883 0.21836056

block1.2.bn2_1.running_var f4 [8]
000000 24 4a b7 3d 7c 50 9c 3f 3a 08 a8 3f 4e 97 09 40
       0.08949688 1.2212062 1.312751 2.14986
000010 cb 4d 89 3f 08 90 5e 3e 39 b0 2f 40 c3 9c 68 3e
       1.0726866 0.21734631 2.7451308 0.2271605
