assignment1/results/trial_2/inception/ckpts/14000.pt (torch, 689120 bytes, 467 tensors)

block1.0.conv1_1.weight f4 [4, 16, 1, 1]
0	0x3ee6b542	0.45060164
1	0x3f7e981c	0.9945085
2	0x3e825c1d	0.25460902
3	0x3e56ed81	0.20989038
4	0x3f4d967e	0.8030776
5	0x3f4e685f	0.8062801
6	0x3f836872	1.0266249
7	0x3e17759a	0.14790955
8	0x3ef736d7	0.48284027
9	0xbe2f3ec7	-0.17113791
10	0xbe0ada69	-0.1355988
11	0xbdfc8bf7	-0.12331384
12	0xbe95d156	-0.29261273
13	0xbdb9083c	-0.09034774
14	0x3f75f660	0.96079063
15	0xbee752c8	-0.45180345
16	0xc02c1c34	-2.6892214
17	0xbf300e58	-0.68771887
18	0x3d10eff1	0.035385076
19	0x3cd0ff22	0.025512282
20	0x3bf9c0b4	0.007621849
21	0x3d94ca53	0.07265153
22	0xbd57283c	-0.052528605
23	0x3e644b59	0.22294368
24	0x3f166029	0.5874048
25	0xbee678e5	-0.4501411
26	0xbe782be4	-0.24235493
27	0x3d7b5726	0.061362408
28	0xbe9d272b	-0.30693945
29	0xbd81fe6a	-0.06347354
30	0xbc548033	-0.012970018
31	0xbe8b9e54	-0.27269232
32	0xbe267086	-0.16253862
33	0xbd019168	-0.03163281
34	0xbf192278	-0.5981822
35	0xbfa50d88	-1.2894754
36	0x3f2910c3	0.660412
37	0x3fbc5486	1.4713295
38	0x3face059	1.3505965
39	0xbc9708fb	-0.0184369
40	0x3f0463cb	0.5171477
41	0x3ec6358b	0.38712725
42	0x3dd89944	0.10576108
43	0x3d82ff14	0.063963085
44	0x3e8493ac	0.25893915
45	0xbe3387b4	-0.17532235
46	0xbdbc5a2e	-0.09196888
47	0xbe80c3c4	-0.25149357
48	0x3e2d513a	0.16925517
49	0xbe0ac60b	-0.1355211
50	0xbf71fd54	-0.94527173
51	0x3f2924b8	0.66071653
52	0x3e463f4b	0.19360082
53	0x40012398	2.0177975
54	0xbf59b7bf	-0.85046
55	0xbeed65ac	-0.46366632
56	0x3ef29484	0.47378933
57	0x3e66bba8	0.22532523
58	0xbe43ed31	-0.1913345
59	0x3df8a9fc	0.12141797
60	0x3f3c24bb	0.73493546
61	0x3f5ac145	0.85451156
62	0xbf525fe7	-0.82177585
63	0xbe4fb63b	-0.20284359

block1.0.bn1_1.weight f4 [4]
0	0x3f44db6b	0.76897305
1	0x3fcf9371	1.621687
2	0x3f7ce94b	0.98793477
3	0x3f7785d0	0.96688557

block1.0.bn1_1.bias f4 [4]
0	0x3fc96e5b	1.5736803
1	0x3f384923	0.719866
2	0x4012f890	2.296421
3	0x403754be	2.8645473

block1.0.bn1_1.running_mean f4 [4]
0	0x40fa7494	7.8267307
1	0xc0379f43	-2.8690956
2	0x40a40177	5.125179
3	0x40b389a6	5.610553

block1.0.bn1_1.running_var f4 [4]
0	0x409ed69f	4.963699
1	0x4126b036	10.41802
2	0x414c39c9	12.764108
3	0x410c6d9d	8.776761

block1.0.conv2_1.weight f4 [8, 16, 1, 1]
0	0xbee1d444	-0.44107258
1	0xbebdf7fd	-0.37103263
2	0x3f35a2d5	0.70951587
3	0x3e4a7cea	0.19774213
4	0x3e89ebac	0.26937616
5	0xbec19fc6	-0.3781721
6	0xbf3c456e	-0.7354344
7	0xbd448dc5	-0.047986764
8	0x3eadfbc8	0.33981156
9	0xbf4faa79	-0.81119496
10	0x3c20a237	0.0098043
11	0xbdf930c1	-0.12167502
12	0xbdd7c6d8	-0.10535973
13	0x3fa41e25	1.2821699
14	0xbe03a52f	-0.12855981
15	0xbf0df0d5	-0.55445606
16	0x3eb3dcdf	0.3512945
17	0xbea17e62	-0.31541735
18	0x3f72fa16	0.9491285
19	0xbf878d21	-1.0589944
20	0xbe9752d2	-0.29555374
21	0xbd67eec3	-0.056624185
22	0xbec82c60	-0.39096355
23	0xbeb07385	-0.34463134
24	0xbf48a465	-0.78375846
25	0x3de186d0	0.110120416
26	0xbe66d91e	-0.22543761
27	0xbdb65aae	-0.089040145
28	0xbe99abb7	-0.3001382
29	0x3f7245e7	0.9463791
30	0xbec1ac6d	-0.37826863
31	0xbcc563e8	-0.02409549
32	0xbf02c6d5	-0.51084644
33	0xbf8f9478	-1.1217184
34	0xbed9b423	-0.42520246
35	0xbdd453bb	-0.10367533
36	0xbe080307	-0.13282405
37	0x3ed3b3f1	0.41348222
38	0x3f10c25a	0.56546557
39	0x3e0a4e1b	0.13506357
40	0xbf0508e9	-0.5196672
41	0x3f3cab00	0.73698425
42	0xbdd16ae0	-0.10225463
43	0xbc61fa47	-0.013792581
44	0xbdede86e	-0.11616598
45	0xbf591e72	-0.8481208
46	0x3e806f30	0.2508483
47	0xbec4f724	-0.38469803
48	0xbe6f5a56	-0.23374304
49	0xbf39357f	-0.72347254
50	0xbd9f2c24	-0.07772091
51	0xbf2dbb4a	-0.67863905
52	0x3c8b2db4	0.016989566
53	0xbf112f6a	-0.56712973
54	0x3fbc2b40	1.4700699
55	0x3e6ec09e	0.23315665
56	0x3fbe1fdb	1.4853472
57	0xbeaaacea	-0.33335048
58	0xbd3b376e	-0.04570716
59	0xbd7561e0	-0.059907794
60	0xbe235aa9	-0.15952553
61	0xbf22e49a	-0.6363007
62	0x3e9dac0e	0.3079533
63	0x3de51341	0.11185313
64	0x3e4ebb43	0.20188622
65	0x3e45bb34	0.19309694
66	0x3eb054fe	0.34439844
67	0x3ed5f4ca	0.41788322
68	0x3da0f3bf	0.07858991
69	0x3e9ff742	0.3124333
70	0x3dc330e4	0.095308095
71	0xbe6f3f7d	-0.23364063
72	0x3dd8e2e5	0.10590152
73	0xbd58230f	-0.05276781
74	0x3d461114	0.04835613
75	0x3e5328b8	0.20621002
76	0x3e038c4f	0.12846492
77	0x3e181246	0.14850721
78	0xbe7721b7	-0.24133955
79	0x3ebe4fbc	0.37170208
80	0xbeb2fe98	-0.34959865
81	0xbe9d4024	-0.30712998
82	0x3ebf9b87	0.37423345
83	0xbeab0117	-0.3339927
84	0x3e4f668a	0.2025396
85	0xbdcc63d1	-0.09979976
86	0xbed50eff	-0.41613004
87	0x3eb75d9b	0.35813603
88	0xbebed2a5	-0.37270084
89	0xbe73f2e4	-0.23823124
90	0xbd7a22ce	-0.06106835
91	0xbe395bc3	-0.1810141
92	0xbd1b0969	-0.03785077
93	0xbecd38e5	-0.4008247
94	0x3effbc25	0.4994823
95	0xbcd7c4c9	-0.026338952
96	0x3ec13b6c	0.37740648
97	0xbed46192	-0.4148069
98	0xbebbe0ce	-0.3669495
99	0xbcec3e55	-0.028838316
100	0x3dfe1e3e	0.12408112
101	0xbee046aa	-0.43803912
102	0xbe8d91da	-0.27650338
103	0xbdfc940f	-0.123329274
104	0x3d3d02ec	0.046145365
105	0x3c4e055c	0.01257452
106	0x3e37b4db	0.17940085
107	0x3e3b197f	0.18271445
108	0x3e580307	0.21094905
109	0xbdddd441	-0.108315
110	0x3eb02c3f	0.34408757
111	0xbbc87743	-0.0061177327
112	0xbdafd40a	-0.08585365
113	0xbe462ba6	-0.19352588
114	0x3eeb2617	0.45927498
115	0x3fcece69	1.6156741
116	0x3e43f74d	0.19137307
117	0xbeae1b21	-0.34005073
118	0xbee9d26c	-0.45668352
119	0x3e904524	0.2817775
120	0x3f45a02f	0.77197546
121	0x3f051036	0.5197786
122	0xbd8d0e3a	-0.06887479
123	0x3eb10486	0.34573764
124	0x3e313b66	0.17307815
125	0xbe898fec	-0.26867616
126	0x3ef7a654	0.48369086
127	0x3da5d12b	0.08096536

block1.0.bn2_1.weight f4 [8]
0	0x3f2ba916	0.6705488
1	0x3f5733b0	0.84063244
2	0x3f741db3	0.9535782
3	0x3fb6b4c7	1.4273919
4	0x3d4fe865	0.050758738
5	0x3ee27314	0.44228423
6	0x3f1d7aa3	0.61515254
7	0x3fa81272	1.3130629

block1.0.bn2_1.bias f4 [8]
0	0x3f7de0d8	0.9917121
1	0x3f72941e	0.9475726
2	0x3f194bd8	0.59881353
3	0x3f3667a1	0.71251875
4	0xbeda0b4d	-0.42586747
5	0x3eef4b00	0.46736908
6	0xbea4982a	-0.32147342
7	0x3fa9892e	1.3244989

block1.0.bn2_1.running_mean f4 [8]
0	0xbf6677ab	-0.9002635
1	0xc029bb7b	-2.652068
2	0xc0177b02	-2.3668828
3	0x4000e506	2.0139785
4	0x40472ef4	3.1122408
5	0xc06f9bb8	-3.7438793
6	0xc00dd3a6	-2.216043
7	0x403147ce	2.7700076

block1.0.bn2_1.running_var f4 [8]
0	0x40184314	2.3790941
1	0x400f156e	2.235683
2	0x3fa3a198	1.278369
3	0x4076be03	3.8553474
4	0x3e95e642	0.29277235
5	0x3f87dc65	1.0614134
6	0x3f11cf37	0.5695681
7	0x40a01933	5.003076

block1.0.conv2_2.weight f4 [8, 8, 3, 3]
0	0xbe3f914d	-0.18707772
1	0xbe223804	-0.15841681
2	0x3e0e3898	0.13888776
3	0xbed49e2a	-0.4152692
4	0xbda417e7	-0.080123715
5	0xbef8018c	-0.4843868
6	0x3e55ab0d	0.20866032
7	0x3efcbba9	0.49361923
8	0xbdc13098	-0.09433097
9	0x3e58db97	0.21177517
10	0xbe88d7f6	-0.26727265
11	0x3d8981b9	0.06714196
12	0xbba14b23	-0.004922287
13	0xbf4217ef	-0.7581777
14	0xbee816d3	-0.45329913
15	0x3e9ae1e2	0.3025046
16	0xbe0c539a	-0.13703766
17	0xbe99d369	-0.30044106
18	0x3dd1e460	0.10248637
19	0x3dd0e283	0.10199454
20	0x3c4a117c	0.01233327
21	0xbdbd16fb	-0.09232899
22	0xbe2c3f24	-0.16820961
23	0x3e9c5ef8	0.30541205
24	0x3e1a2880	0.15054512
25	0x3c16ee5e	0.009212105
26	0xbde12db4	-0.10995045
27	0xbe66cc32	-0.22538832
28	0x3ee11960	0.43964672
29	0xbe52e622	-0.20595601
30	0xbe0dba7b	-0.13840668
31	0xbe71df1d	-0.23620267
32	0xbea8668f	-0.32890746
33	0xbddcc48d	-0.107796766
34	0xbef5f2cc	-0.48036802
35	0xbe85af53	-0.26110324
36	0x3e6364ad	0.22206374
37	0x3e923730	0.2855773
38	0x3e27edf3	0.16399364
39	0xbd51c698	-0.051214784
40	0x3d75e73f	0.060034987
41	0x3dd86182	0.10565473
42	0xbd7ee2dd	-0.062228072
43	0x3bc46bbb	0.005994288
44	0x3e011cef	0.12608694
45	0x3e87553f	0.26432225
46	0x3dc6d9c7	0.097095065
47	0x3e5512ee	0.20808002
48	0x3e4948c2	0.19656661
49	0x3daa17c8	0.08305317
50	0x3e1ad681	0.15120889
51	0x3e20b6ef	0.15694784
52	0xbdf1b511	-0.11802114
53	0xbe02cd94	-0.12773734
54	0x3e6764e5	0.22597082
55	0x3e85babd	0.26119033
56	0xbd84c605	-0.06483082
57	0x3e0b2b7a	0.13590804
58	0x3d5df280	0.054186344
59	0xbe1b21e7	-0.15149651
60	0xbe5c74a0	-0.21528864
61	0xbdc2ca25	-0.09511212
62	0xbe812959	-0.25226858
63	0xbdd2e596	-0.10297696
64	0x3edfe5a5	0.43729892
65	0xbe928c95	-0.2862288
66	0xbe612708	-0.21987545
67	0x3f856c8d	1.0423752
68	0x3d413d8f	0.047177847
69	0xbf0e5441	-0.5559731
70	0x3e2b807b	0.1674823
71	0xbe57096b	-0.20999686
72	0xbe07b68a	-0.13253227
73	0xbe68e415	-0.22743256
74	0x3e1f35b1	0.15547825
75	0xbe8dd2fc	-0.2770003
76	0x3e298796	0.16555628
77	0xbea85689	-0.3287852
78	0x3ddb6847	0.10713249
79	0xbd81667e	-0.06318377
80	0xbe08296d	-0.13297053
81	0xbe3afce2	-0.1826053
82	0x3ebeef7b	0.37292084
83	0xbe51cc9a	-0.20488206
84	0x3e1983bc	0.14991659
85	0x3f1af928	0.6053643
86	0xbed9c408	-0.42532372
87	0x3dc13b68	0.09435159
88	0xbea905d9	-0.33012274
89	0xbe6e9d7b	-0.23302262
90	0xbc0a055a	-0.0084241275
91	0x3f2ce1f9	0.67532307
92	0xbe0beaa9	-0.13663734
93	0x3ea412fb	0.3204573
94	0x3e8d5415	0.27603212
95	0x3ea56561	0.32303908
96	0x3e655334	0.2239502
97	0xbe74a467	-0.2389084
98	0xbe5fa81c	-0.21841472
99	0xbd99e8d9	-0.07515115
100	0xbe55c668	-0.20876467
101	0xbd8c29a5	-0.068438806
102	0x3e3f3e4e	0.18676111
103	0x3cd77a9e	0.026303586
104	0xbe37bd32	-0.17943266
105	0xbeb8b383	-0.36074457
106	0xbebc5790	-0.36785555
107	0xbef05a02	-0.4694367
108	0x3ddf9698	0.10917395
109	0x3dd831d0	0.10556376
110	0xbd3b6f98	-0.04576072
111	0xbe6a78ae	-0.22897598
112	0xbe2f52fb	-0.17121498
113	0xbe36c372	-0.17847994
114	0xbdd4df90	-0.10394204
115	0xbd8b7108	-0.068086684
116	0xbd697e71	-0.05700535
117	0xbbe8e76b	-0.0071076653
118	0xbe599f01	-0.21252061
119	0xbcc98209	-0.024598138
120	0xbe51fae8	-0.2050587
121	0xbc818690	-0.015811235
122	0xbe0dde69	-0.13854374
123	0xbd62ba01	-0.05535317
124	0xbe925e74	-0.28587687
125	0xbde48170	-0.11157501
126	0xbe0841b6	-0.13306317
127	0xbdb089f0	-0.086200595
128	0xbdbe054f	-0.09278356
129	0x3e02d597	0.1277679
130	0xbe064f06	-0.13116083
131	0xbdadd664	-0.084881574
132	0xbe19ffc3	-0.15038972
133	0xbe7e0e44	-0.2481013
134	0xbdc8d246	-0.098057315
135	0xbddf3aec	-0.1089991
136	0xbeda1d51	-0.42600492
137	0x3e7b67ad	0.24551268
138	0xbf4a02e1	-0.7891064
139	0xbe8539af	-0.26020572
140	0x3d271dee	0.040800028
141	0xbd034b9e	-0.032054536
142	0xbe793c78	-0.24339473
143	0x3c8444a5	0.016146014
144	0xbd892f73	-0.06698503
145	0xbe4ee6e3	-0.20205264
146	0x3ddda563	0.10822561
147	0xbeaaa9f1	-0.3333278
148	0xbebd115f	-0.36927316
149	0xbdb74257	-0.089482
150	0xbe8a2c7a	-0.26987058
151	0xbd8c21cb	-0.06842383
152	0x3e8a3f4a	0.2700141
153	0xbdeae3a8	-0.11469203
154	0xbeeef00c	-0.46667516
155	0x3df6fe97	0.12060278
156	0xbf1dd317	-0.6165022
157	0xbf40c532	-0.75300896
158	0xbf0385af	-0.5137586
159	0xbe9e2815	-0.30889955
160	0xbefca95d	-0.49347964
161	0xbf0bdef7	-0.5463709
162	0xbc30e586	-0.01079691
163	0xbe9a08f2	-0.3008495
164	0xbe10ef2f	-0.14153741
165	0x3d9597df	0.07304358
166	0xbeaf53cc	-0.3424362
167	0xbd7de889	-0.06198934
168	0xbd2e8987	-0.042611625
169	0xbe835d85	-0.25657287
170	0xbd35a501	-0.044346813
171	0x3e83b658	0.25725055
172	0xbe5d0d27	-0.21587048
173	0xbdf28ed8	-0.118436515
174	0x3da9c258	0.08289021
175	0xbedda08e	-0.43286556
176	0xbe7fdace	-0.24985811
177	0x3eeceb28	0.4627316
178	0x3d272aaa	0.040812172
179	0x3e63e0a6	0.22253665
180	0x3ddd1fc8	0.107970774
181	0xbdbad065	-0.09121779
182	0x3ce79e50	0.028273731
183	0xbcac2103	-0.021011835
184	0xbd69a927	-0.057046082
185	0xbd16069d	-0.0366274
186	0x3dc127b9	0.094314046
187	0x3d4931de	0.049119823
188	0x3de1a0cc	0.11016998
189	0xbe90f363	-0.2831069
190	0xbee18c8f	-0.4405255
191	0xbe3753e3	-0.17903094
192	0xbd9e12cf	-0.07718431
193	0xbdfa4c65	-0.12221602
194	0xbe97f146	-0.29676265
195	0xbdc4aa81	-0.096028335
196	0xbecd1592	-0.4005552
197	0xbed0ea97	-0.40803978
198	0x3ebcdf87	0.36889288
199	0x3ead0767	0.3379471
200	0x3dc16c31	0.09444464
201	0x3dadca1c	0.08485815
202	0x3e51212f	0.20422815
203	0xbd5fcbd1	-0.054637734
204	0x3eb05663	0.34440908
205	0x3eac34e1	0.33634093
206	0x3e4fcbc4	0.20292574
207	0xbe59b208	-0.2125932
208	0x3da0cf86	0.07852082
209	0xbe398a4c	-0.18119162
210	0xbd140a76	-0.03614279
211	0x3e4f66a0	0.20253992
212	0xbe222881	-0.15835764
213	0xbe48501e	-0.19561812
214	0xbd267874	-0.040642217
215	0xbc52541f	-0.012837439
216	0xbdf7f3f9	-0.12107081
217	0x3e01aa04	0.12662512
218	0xbe11bfdc	-0.14233345
219	0xbe9699c4	-0.2941419
220	0xbf51f79c	-0.82018447
221	0x3f523604	0.8211367
222	0x3d0d268d	0.034460593
223	0x3ddb26c1	0.10700751
224	0xbca8f04d	-0.020622397
225	0x3eadab1e	0.33919615
226	0xbc148cc2	-0.009066762
227	0x3d28351d	0.041066278
228	0x3e9202d8	0.28517795
229	0x3db067eb	0.08613571
230	0x3f0c19cf	0.5472688
231	0x3e5cc014	0.21557647
232	0x3f0902d2	0.5351993
233	0x3c74be9e	0.014938025
234	0x3dae49e9	0.08510191
235	0xbe19dc71	-0.15025498
236	0xbe817c4f	-0.25290152
237	0x3e6d755a	0.23189297
238	0x3e731fd2	0.23742607
239	0xbf4699e6	-0.7757858
240	0x3e087991	0.13327624
241	0x3eb024de	0.34403127
242	0x3e3065ea	0.17226377
243	0x3de7176e	0.11283766
244	0x3e732369	0.23743977
245	0x3e02d04b	0.1277477
246	0xbf1b43b2	-0.6065017
247	0xbf95dd33	-1.170813
248	0xbf174b04	-0.5909884
249	0x3d2df201	0.04246712
250	0xbf3e9d54	-0.74458814
251	0x3dbbe20c	0.091739744
252	0x3d634b81	0.055491928
253	0x3e3eb033	0.18621902
254	0xbcb9acdc	-0.022665434
255	0xbe0ee678	-0.13955104

block1.0.bn2_2.weight f4 [8]
0	0x3f3e81b3	0.74416655
1	0xbebee13b	-0.37281212
2	0x3f45988b	0.7718589
3	0xbf662f32	-0.89915764
4	0x3f1ed340	0.6204109
5	0x3f666924	0.9000418
6	0x3f354605	0.70809966
7	0x3f078ea9	0.5295206

block1.0.bn2_2.bias f4 [8]
0	0x3cc9fbca	0.024656195
1	0x3f60b80f	0.8778085
2	0x3e561cf2	0.2090948
3	0x3e82479d	0.25445262
4	0x3e2613d9	0.16218509
5	0x3f30de6b	0.6908938
6	0xbe77f4f7	-0.2421454
7	0x3fa865ba	1.3156044

block1.0.bn2_2.running_mean f4 [8]
0	0xbff4e850	-1.9133396
1	0xc078bbed	-3.88647
2	0xc0de4bf1	-6.94677
3	0xc031a41c	-2.7756414
4	0xbff524a4	-1.9151807
5	0xbf5c2624	-0.859957
6	0xc0120f23	-2.2821739
7	0x3fbec1f7	1.4902943

block1.0.bn2_2.running_var f4 [8]
0	0x40b22a01	5.5676274
1	0x40e3d5f7	7.1198688
2	0x40bdf8f4	5.93664
3	0x4196297e	18.77026
4	0x40bd791d	5.9210343
5	0x412ca017	10.789084
6	0x40ae7321	5.451554
7	0x40e8eaff	7.278686

block1.0.conv3_1.weight f4 [2, 16, 1, 1]
0	0x3f320389	0.69536644
1	0x3fce244d	1.6104828
2	0x3edf630a	0.43630248
3	0x3dd4ae72	0.10384835
4	0x3ef97d4d	0.4872841
5	0x3f6e90fb	0.9318997
6	0x3e61176d	0.21981592
7	0x3f17a664	0.59238267
8	0x3d233039	0.03984091
9	0x3e854afa	0.26033765
10	0x3c64f4ad	0.013974351
11	0x3e1eb29d	0.15497823
12	0x3f5deabe	0.86686313
13	0x3d2ae518	0.041722387
14	0xbdc72c4c	-0.09725246
15	0x3f926d02	1.1439517
16	0x3e7a012c	0.2441451
17	0xbf19b1de	-0.6003703
18	0xbf61c665	-0.8819335
19	0x3e01f558	0.12691247
20	0x3d9165f7	0.070995264
21	0x3f2fd2d4	0.68681073
22	0x3e71ce60	0.23613882
23	0x3dabc441	0.08387042
24	0x3efe4451	0.49661496
25	0x3db8249f	0.0899136
26	0xbb8a54f9	-0.0042215553
27	0xbc657aca	-0.014006326
28	0x3e84c60e	0.25932354
29	0x3e140afe	0.14457318
30	0x3f084c90	0.53241825
31	0xbe0b6128	-0.13611281

block1.0.bn3_1.weight f4 [2]
0	0x3f68378e	0.9070977
1	0x3eed29cd	0.46320954

block1.0.bn3_1.bias f4 [2]
0	0xbef2dbed	-0.47433415
1	0x3f61c6e9	0.8819414

block1.0.bn3_1.running_mean f4 [2]
0	0x40ed48dd	7.4151444
1	0x40297300	2.647644

block1.0.bn3_1.running_var f4 [2]
0	0x409ebf5f	4.9608607
1	0x3fb3edc3	1.4056934

block1.0.conv3_2.weight f4 [2, 2, 5, 5]
0	0xbda6068e	-0.08106719
1	0x3e9b12b6	0.30287713
2	0xbc67ca09	-0.01414729
3	0xbe8371ed	-0.25672856
4	0xbdba9cd3	-0.09111943
5	0xbe79711e	-0.24359557
6	0x3e83a9a7	0.25715372
7	0xbe76fb04	-0.24119192
8	0xbe04c404	-0.12965399
9	0xbe1e22c4	-0.1544295
10	0x3f0b362e	0.54379547
11	0x3ee9b578	0.45646262
12	0x3c826d2d	0.0159212
13	0x3f11a4bb	0.56891984
14	0x3efc9c72	0.49338108
15	0x3ea17c8d	0.31540337
16	0x3ea420f8	0.32056403
17	0x3e07e8d3	0.13272409
18	0x3e3d35d0	0.18477559
19	0x3e268b55	0.16264088
20	0xbc043894	-0.00807013
21	0x3e224f8b	0.15850656
22	0x3ca2ed62	0.019888584
23	0x3e38d69b	0.18050615
24	0xbdeb0444	-0.11475423
25	0xbd196a9c	-0.037455186
26	0x3e70e4c4	0.23524767
27	0x3e0205e3	0.12697558
28	0x3d9729fd	0.073810555
29	0x3e157f73	0.145994
30	0x3d5767f5	0.052589376
31	0xbe9aab3e	-0.30208772
32	0xbf71a8dd	-0.9439829
33	0xbebcd3d1	-0.36880353
34	0xbe475269	-0.1946503
35	0x3e2e9e48	0.17052567
36	0xbeeee9b0	-0.46662664
37	0x3e93a3b5	0.28835836
38	0xbd2788fe	-0.04090213
39	0xbf1f85fd	-0.62313825
40	0xbe0b678c	-0.13613719
41	0xbdcb40c5	-0.09924463
42	0xbef0e1e5	-0.47047344
43	0xbc93cdba	-0.018042434
44	0x3c3b9fc6	0.011451667
45	0x3e3e60a2	0.1859155
46	0x3e794abd	0.24344917
47	0xbea98c4b	-0.33114848
48	0xbe76fca9	-0.2411982
49	0xbda3837b	-0.07984062
50	0xbe2344ba	-0.15944186
51	0xbe6f4944	-0.23367792
52	0xbe18afc3	-0.14910798
53	0xbddb9143	-0.10721066
54	0x3dce59ae	0.10075699
55	0xbd896683	-0.06709006
56	0xbea7f123	-0.3280116
57	0xbddc218c	-0.10748586
58	0x3d1b0114	0.037842825
59	0xbcae9056	-0.02130906
60	0xbcad1b05	-0.021131048
61	0xbdf6068f	-0.1201297
62	0xbd0d60a1	-0.03451598
63	0x3e08e7eb	0.1336972
64	0x3d212d25	0.039349694
65	0xbe71f4f1	-0.23628594
66	0xbe9b2539	-0.30301836
67	0xbd666b0d	-0.056254435
68	0xbe6c3d93	-0.23070364
69	0xbe48c897	-0.19607769
70	0xbd992e35	-0.074795164
71	0xbd8ab43f	-0.067726605
72	0xbe58a489	-0.21156515
73	0xbd759f77	-0.05996653
74	0x3d9c8ad2	0.076436654
75	0x3ec4bc9b	0.38425145
76	0x3dc65c15	0.09685532
77	0xbbaa822b	-0.0052035055
78	0x3dfbe0e1	0.122987516
79	0x3e70f9a6	0.23532733
80	0x3ed1346d	0.4086031
81	0x3f0117a2	0.50426686
82	0x3f195b61	0.5990506
83	0x3d640064	0.055664435
84	0x3ec58e8b	0.38585314
85	0x3eaf8965	0.3428451
86	0x3f37d865	0.71814567
87	0xbe5ae90b	-0.21377961
88	0xbe1e5700	-0.15462875
89	0x3d280934	0.0410244
90	0x3eff828c	0.49904287
91	0x3e8f8aa6	0.28035468
92	0x3e851688	0.25993752
93	0xbda0306a	-0.07821734
94	0xbc0f902d	-0.0087624015
95	0x3e36f5e7	0.17867242
96	0x3e0ce36e	0.13758633
97	0x3ea3ddb0	0.32005072
98	0xbd96dd2c	-0.07366404
99	0xbc3c61d1	-0.011497931

block1.0.bn3_2.weight f4 [2]
0	0x3ee2f995	0.4433104
1	0x3edc04c1	0.42972377

block1.0.bn3_2.bias f4 [2]
0	0x3ec11ece	0.37718815
1	0x3f458d7b	0.7716901

block1.0.bn3_2.running_mean f4 [2]
0	0xbfdf9947	-1.7468652
1	0x4051e2d3	3.2794693

block1.0.bn3_2.running_var f4 [2]
0	0x3fe8cfec	1.8188453
1	0x401712e9	2.3605292

block1.0.conv4_1.weight f4 [2, 16, 1, 1]
0	0xbe4bc54d	-0.19899483
1	0xbe74995b	-0.23886625
2	0x3db4e3e2	0.08832528
3	0xbe502920	-0.20328188
4	0x3d939464	0.07206038
5	0xbe09ae3d	-0.13445373
6	0x3d6aeb96	0.05735358
7	0x3d2854b8	0.04109642
8	0x3c1474dd	0.0090610655
9	0x3e011ad8	0.12607896
10	0x3db20c8c	0.086937994
11	0xbdd71dae	-0.10503708
12	0x3c43064e	0.011903359
13	0xbdc4c2b7	-0.096074514
14	0xbe215b91	-0.15757586
15	0x3aadcee7	0.0013260514
16	0xbfa49755	-1.2858683
17	0xbdd4a052	-0.10382141
18	0xbf464bf2	-0.77459633
19	0xbee858e6	-0.45380324
20	0xbe6ac777	-0.22927652
21	0x3eeeba55	0.46626535
22	0x3e8693e7	0.26284716
23	0x3e339dbd	0.17540641
24	0xbfb5487d	-1.4162747
25	0x3e5fe5f8	0.2186507
26	0xbe1c9a76	-0.15293297
27	0xbe36bc78	-0.17845333
28	0x3c892637	0.016741855
29	0x3dcd557b	0.1002607
30	0x3ebbc7cc	0.3667587
31	0x3f3ad85c	0.7298639

block1.0.bn4_1.weight f4 [2]
0	0x3d1b59c3	0.0379274
1	0x3f4eeb2a	0.8082758

block1.0.bn4_1.bias f4 [2]
0	0xbe26a43e	-0.16273591
1	0x3f13949c	0.57648635

block1.0.bn4_1.running_mean f4 [2]
0	0xbfbcf0bc	-1.4760966
1	0xc09e9606	-4.9558134

block1.0.bn4_1.running_var f4 [2]
0	0x3e57a363	0.21058421
1	0x405862a6	3.381021

block1.1.conv1_1.weight f4 [4, 16, 1, 1]
0	0xbf9e1d4b	-1.235269
1	0x3e08a8c9	0.13345636
2	0xc01c29ee	-2.4400592
3	0xbf13a4ba	-0.5767323
4	0x3e02a942	0.12759879
5	0xbf05b66b	-0.5223147
6	0x3e131d98	0.14366758
7	0x3f87e8aa	1.0617878
8	0x3f1e3fe0	0.61816216
9	0x3f6483d2	0.8926364
10	0x3ebca9b9	0.36848238
11	0xbf0a8838	-0.54114103
12	0xbe4c340d	-0.19941731
13	0x3e9902fd	0.29885092
14	0xbc7fafee	-0.01560591
15	0x3dd29e3c	0.10284087
16	0x3e99a236	0.3000657
17	0x3e61db34	0.22056276
18	0xbf0e8f5a	-0.5568749
19	0x3fbbd9c6	1.4675834
20	0x3f8d0fe2	1.1020472
21	0xbe1bc7ab	-0.15212886
22	0x3d64ba2a	0.055841602
23	0xbedbf68f	-0.42961547
24	0xbeec93a2	-0.46206385
25	0x3de5af91	0.11215127
26	0x3edd21ab	0.4318975
27	0xbf38ce0b	-0.72189397
28	0x3e11d430	0.142411
29	0xbf02c4ef	-0.51081747
30	0xbe9b7113	-0.30359706
31	0x3e4d02ed	0.20020647
32	0x3f0c26ca	0.5474669
33	0x3e0afab3	0.13572197
34	0x3f90a8ec	1.1301551
35	0x3e83ee03	0.25767526
36	0x3ce8232f	0.02833709
37	0xbe65d401	-0.22444154
38	0x3ec82b33	0.39095458
39	0xbedc1659	-0.429858
40	0x3cbfab6e	0.023397174
41	0xbeb013fa	-0.3439024
42	0xbe093cb4	-0.13402063
43	0x3e4fd76d	0.20297022
44	0x3e8f00de	0.2793035
45	0x3d124db5	0.03571864
46	0xbcfba620	-0.030718863
47	0x3ec10209	0.37696865
48	0xbf8405ea	-1.0314305
49	0xbf4f204f	-0.80908674
50	0xbe5d170e	-0.21590826
51	0xbf2461fa	-0.64212
52	0xbee562c3	-0.44801912
53	0xbef7b479	-0.48379877
54	0xbd7c9713	-0.061667513
55	0xbe608091	-0.21924044
56	0x3ed78f0b	0.4210132
57	0xbf9f66c4	-1.2453237
58	0xbe30d455	-0.17268498
59	0x3edb8238	0.42872787
60	0x3ec6d54b	0.38834605
61	0x3d05f85a	0.03270755
62	0x3e3cba6c	0.1843049
63	0x3edfef20	0.43737125

block1.1.bn1_1.weight f4 [4]
0	0x3fa9294f	1.3215731
1	0x3f5177fd	0.8182371
2	0x3fb0bd37	1.3807744
3	0x3f314eb9	0.69260746

block1.1.bn1_1.bias f4 [4]
0	0x4011f7ba	2.280745
1	0x3f41fcbe	0.7577628
2	0xbf70491c	-0.93861556
3	0x3fd7a163	1.6846126

block1.1.bn1_1.running_mean f4 [4]
0	0xc1054efc	-8.331783
1	0x401b964a	2.431048
2	0x4090173e	4.502837
3	0xc0abf803	-5.374025

block1.1.bn1_1.running_var f4 [4]
0	0x4193ed74	18.490944
1	0x401bb2d6	2.4327903
2	0x40815fd7	4.042949
3	0x402fb3ef	2.7453573

block1.1.conv2_1.weight f4 [8, 16, 1, 1]
0	0xbe592dfb	-0.21208946
1	0xbed1dc1c	-0.40988243
2	0xbb9ecc5b	-0.0048461384
3	0xbcb615c4	-0.022227176
4	0xbc963297	-0.01833467
5	0xbf2b436a	-0.6689974
6	0x3f21a507	0.63142437
7	0xbf75817d	-0.9590071
8	0x3e09ec58	0.13469064
9	0xbed5a415	-0.41726747
10	0xbd27918f	-0.0409103
11	0xbeb19f0c	-0.34691656
12	0xbed19c86	-0.4093973
13	0x3bb6e1bc	0.005581109
14	0xbe409b56	-0.18809256
15	0x3c1a3143	0.009411159
16	0xbf49830f	-0.78715605
17	0x4017cef8	2.3720074
18	0x3ed7c44c	0.4214195
19	0xbf2a38ed	-0.6649311
20	0x3e7125d6	0.2354959
21	0xbd7d79d0	-0.061883748
22	0xbecce76a	-0.40020305
23	0xbea875a7	-0.32902262
24	0x3cbbd170	0.022927016
25	0xbed920f6	-0.4240796
26	0xbec38997	-0.3819091
27	0x3eaf6713	0.34258327
28	0xbe930b18	-0.287194
29	0xbc67e6d3	-0.014154154
30	0x3d89676c	0.06709179
31	0x3f45508a	0.7707602
32	0x3f14624a	0.5796248
33	0xbf08bb4a	-0.5341078
34	0x3ed49dc2	0.4152661
35	0xbf0ee49d	-0.55817586
36	0x3ec59a05	0.3859407
37	0xbe391e79	-0.1807803
38	0x3ca72fb1	0.020408483
39	0x3dbae8f4	0.091264635
40	0x3deec1e3	0.11658075
41	0xbe892478	-0.26785636
42	0x3f62557f	0.88411707
43	0x3f5f4875	0.87219936
44	0xbc4c8cb5	-0.012484719
45	0x3e8c7a20	0.27436924
46	0xbe437d99	-0.1909088
47	0xbe8fd8ba	-0.28095037
48	0x3e939fa1	0.28832725
49	0x3e427753	0.18990831
50	0xbe0d66ff	-0.13808821
51	0xbde8bfbb	-0.11364695
52	0xbd67473b	-0.056464415
53	0x3d014d5a	0.03156791
54	0xbeb9cd7c	-0.36289585
55	0xbd25e95d	-0.040505756
56	0x3dffde14	0.1249353
57	0x3ec2818e	0.37989467
58	0xbd4148f4	-0.047188714
59	0xbeb0ed7a	-0.3455618
60	0xbce4f90a	-0.027950782
61	0x3e412797	0.18862759
62	0xbc722ae9	-0.014780738
63	0xbb75add0	-0.0037487634
64	0xbc607188	-0.013698943
65	0x3e353f42	0.17699912
66	0x3ec5a01b	0.38598713
67	0x3ef08b42	0.46981245
68	0xbdc544e0	-0.096322775
69	0x3c05f730	0.00817661
70	0x3e40f245	0.18842418
71	0xbe0da334	-0.13831788
72	0xbe41147e	-0.18855473
73	0x3e49b696	0.19698557
74	0x3ef3727a	0.47548276
75	0xbe012ea4	-0.12615448
76	0xbd371b5b	-0.044703823
77	0xbe4affd8	-0.19824159
78	0xbe7350f3	-0.23761348
79	0xbe40a690	-0.18813539
80	0x3f3323c3	0.69976443
81	0xbedd2ccf	-0.4319825
82	0xbea61e9b	-0.32445225
83	0xc01ccbca	-2.4499383
84	0x3e95a180	0.29224777
85	0xbed7aa45	-0.42122093
86	0x3e0cc9e2	0.13748887
87	0x3d8fb1c5	0.07016329
88	0xbd93a42e	-0.07209049
89	0xbd6e62d9	-0.058199737
90	0x3e430bda	0.1904749
91	0x3f5d88c6	0.86536825
92	0xbf36e883	-0.71448535
93	0x3f2fd902	0.686905
94	0x3e9fd782	0.31219107
95	0x3d8b3acb	0.06798323
96	0x3d99b532	0.075052634
97	0xbe604225	-0.21900232
98	0x3ec7a6da	0.38994485
99	0x3edd3b7f	0.43209454
100	0xbdccbae9	-0.09996588
101	0xbc8d1377	-0.017221196
102	0xbe2f567c	-0.17122835
103	0x3dbfd305	0.09366421
104	0x3e0ed217	0.1394733
105	0x3e790ae7	0.24320565
106	0x3e00d4c2	0.1258116
107	0xbe3194e1	-0.17341949
108	0x3db092ab	0.08621725
109	0xbdce88fd	-0.10084722
110	0xbe020729	-0.12698044
111	0xbe80ed8f	-0.25181243
112	0x3e07d029	0.13263
113	0x3e65c6d8	0.22439134
114	0x3d9a3792	0.075301304
115	0xbe0e6d0a	-0.13908783
116	0xbe432683	-0.1905766
117	0x3e0148e2	0.12625459
118	0x3e50b9f8	0.20383441
119	0xbee26f78	-0.4422567
120	0xbed905ba	-0.42387182
121	0xbdbe62c2	-0.0929618
122	0x3e846fb5	0.25866476
123	0x3e11282a	0.14175478
124	0xbe6f63e2	-0.23377946
125	0xbcbf240f	-0.023332624
126	0xbdb3e005	-0.08782963
127	0xbe260f2c	-0.16216725

block1.1.bn2_1.weight f4 [8]
0	0x3f4125ae	0.7544812
1	0x3f6a2d0d	0.9147499
2	0x3f780fde	0.9689921
3	0x3d474c4f	0.048656758
4	0x3e32aae6	0.17448005
5	0x3f8e40a4	1.1113477
6	0x3d4e2439	0.050327513
7	0x3c982a70	0.018574923

block1.1.bn2_1.bias f4 [8]
0	0xbd43418e	-0.04766994
1	0x3fb7eb2e	1.4368646
2	0xbe99ca6c	-0.30037248
3	0xbea47cb6	-0.32126397
4	0xbea78568	-0.32718968
5	0x3f9cbc34	1.2244935
6	0xbe55e9bd	-0.20889945
7	0xbdd98ba3	-0.10622337

block1.1.bn2_1.running_mean f4 [8]
0	0xc021181b	-2.5170963
1	0x3f0517d0	0.5198946
2	0x3f527a49	0.8221784
3	0xbe1a488b	-0.15066735
4	0x4005a330	2.0880852
5	0xc0bec16b	-5.9611106
6	0x3fe00436	1.7501285
7	0xbd8bb7b0	-0.06822145

block1.1.bn2_1.running_var f4 [8]
0	0x3fa7f08b	1.3120283
1	0x40d07684	6.5144672
2	0x3fc7669f	1.5578192
3	0x3e634f8c	0.22198313
4	0x3ee5beac	0.44872034
5	0x404e87f1	3.2270472
6	0x3f0d54db	0.55207604
7	0x3ddac6ab	0.10682424

block1.1.conv2_2.weight f4 [8, 8, 3, 3]
0	0xbeab2282	-0.33424765
1	0xbf03efd8	-0.5153785
2	0x3d387cb1	0.04504079
3	0xbde2064d	-0.11036358
4	0xbe87ff3e	-0.26561922
5	0x3d592666	0.053015135
6	0x3d8a1f7d	0.06744287
7	0x3ea9226a	0.33034068
8	0x3e1ee4fb	0.15517037
9	0xbe49d32e	-0.19709465
10	0xbd249f77	-0.04019114
11	0xbe86ffcd	-0.26367036
12	0x3e12451e	0.14284179
13	0x40262092	2.595738
14	0x3ee3de8b	0.44505724
15	0x3e397fe2	0.1811519
16	0x3f2b4545	0.6690257
17	0x3e24a371	0.16077973
18	0xbe8d9f70	-0.27660704
19	0xbe2c3a6d	-0.16819163
20	0xbcef99db	-0.029248169
21	0xbe0adfe5	-0.13561971
22	0x3e89e180	0.26929855
23	0xbe3bb063	-0.18329005
24	0xbd6f9c5d	-0.05849873
25	0xbbc2818b	-0.005935853
26	0xbd3e0965	-0.046395678
27	0x3eb2c37c	0.34914768
28	0x3e4ff864	0.20309597
29	0x3c75bf31	0.014999197
30	0x3e9d3452	0.3070398
31	0x3e247d9b	0.1606354
32	0x3d82a051	0.06378234
33	0x3f0a4b3f	0.54021066
34	0x3e2fd9aa	0.17172876
35	0xbbccb85d	-0.0062475638
36	0xbdd44217	-0.10364168
37	0x3d5c6742	0.05380941
38	0x3e36a11f	0.178349
39	0xbd85d264	-0.065342695
40	0x3e938356	0.2881114
41	0x3eaaeb3e	0.333826
42	0x3d80ba7e	0.062855706
43	0x3eada42e	0.33914322
44	0x3e452bc2	0.19254974
45	0x3ecee409	0.40408352
46	0xbf1dcf26	-0.6164421
47	0x3cd80465	0.026369283
48	0xbf388274	-0.72074056
49	0x3fc2eb6f	1.5228099
50	0xbf3818d6	-0.71912897
51	0xbda97c57	-0.08275669
52	0xbed68e4f	-0.41905448
53	0xbe4a540a	-0.19758621
54	0xbd6f7fdd	-0.05847155
55	0xbc2fa0a9	-0.010719457
56	0x3d7d076f	0.061774667
57	0x3dd1fa31	0.10252798
58	0x3e0734a8	0.1320368
59	0x3bc20e9a	0.005922151
60	0x3dac2e01	0.08407212
61	0x3dedbb7e	0.11608027
62	0x3e36c4fb	0.1784858
63	0x3cc482b2	0.023988102
64	0x3e27398c	0.16330546
65	0xbd743883	-0.059624206
66	0xbde20f93	-0.11038127
67	0xbca00fe2	-0.019538824
68	0xbe3e4b05	-0.18583305
69	0xbce5bc89	-0.028044002
70	0xbe438120	-0.19092226
71	0xbdd762d9	-0.105169006
72	0xbe9d8491	-0.30765203
73	0xbdda88f0	-0.1067065
74	0xbd5ba79e	-0.05362665
75	0x3a45678e	0.00075303845
76	0x3e7a72b4	0.24457818
77	0x3e001c63	0.12510829
78	0x3e3c26d9	0.18374194
79	0xbd5364a1	-0.05160964
80	0x3de77ea9	0.113034554
81	0xbe00599b	-0.12534182
82	0x3d41021b	0.04712115
83	0xbd3170f3	-0.043320607
84	0x3d9a4cd4	0.07534185
85	0xbea268c2	-0.3172055
86	0x3e2f5d8c	0.17125529
87	0xbe073f89	-0.1320783
88	0x3e8985c9	0.26859882
89	0x3d37f094	0.044907168
90	0x3ece635b	0.40310177
91	0x3f067cc2	0.52534115
92	0x3e5a0b9a	0.21293488
93	0xbdadfd3f	-0.084955685
94	0xbe27d04c	-0.16388053
95	0xbdb72450	-0.08942473
96	0xbe104ec6	-0.1409255
97	0xbf031b1e	-0.5121325
98	0xbdb48aaa	-0.088155106
99	0xbdfe8430	-0.124275565
100	0xbda87fc9	-0.08227498
101	0x3dab5fb4	0.08367863
102	0xbe395c86	-0.18101701
103	0xbdac10e2	-0.08401658
104	0xbd85427d	-0.06506822
105	0x3e4e32de	0.20136592
106	0x3e40dba0	0.1883378
107	0x3dc170d1	0.09445346
108	0x3cf95328	0.03043516
109	0xbe81c6b2	-0.25346905
110	0xbe57e5c9	-0.2108375
111	0x3e4284c3	0.18995957
112	0x3e59786e	0.21237347
113	0xbe06b25d	-0.13153978
114	0x3d60c6a1	0.054876927
115	0xbcafc48f	-0.021456031
116	0xbd9bb949	-0.076037
117	0x3e9d5492	0.30728585
118	0x3f88fd48	1.0702295
119	0x3e7fdb9f	0.24986123
120	0x3e83410b	0.2563556
121	0xbf27f283	-0.6560442
122	0x3cd7a741	0.02632487
123	0xbf2ab07c	-0.66675544
124	0xbf063d10	-0.52436924
125	0xbf16a7a1	-0.5884953
126	0x3ddd6b72	0.10811509
127	0xbb433c3f	-0.0029790548
128	0x3c56bc70	0.01310645
129	0xbaaa5587	-0.001299546
130	0x3dfa0e4a	0.12209757
131	0x3e05cf30	0.13067317
132	0xbc14785b	-0.009061898
133	0xbe3e3d1f	-0.18578003
134	0x3cfe143f	0.031015513
135	0xbd546950	-0.051858246
136	0xbdb1748d	-0.086648084
137	0x3d7d3163	0.061814677
138	0x3e53cd73	0.20683841
139	0x3d2c9c65	0.042141337
140	0xbd68c695	-0.056830008
141	0x3e134efb	0.14385597
142	0x3e958f39	0.29210833
143	0xbb776c3d	-0.0037753724
144	0xbdf16c28	-0.11788207
145	0xbe567e78	-0.20946681
146	0xbdee18b0	-0.116258025
147	0xbe6f3fea	-0.23364225
148	0xbe508c29	-0.20365967
149	0xbd8dd7bc	-0.06925914
150	0x3e1bfab1	0.1523235
151	0x3e1cd8c6	0.15317068
152	0x3e2ffe8b	0.17186944
153	0xbcff089b	-0.031132033
154	0xbe256c85	-0.16154678
155	0xbe12af4d	-0.14324684
156	0xbd101c34	-0.035183147
157	0x3e155d5f	0.145864
158	0xbc3599c9	-0.0110840285
159	0x3ee695a8	0.45036054
160	0x3f0fd4e4	0.5618422
161	0x3ea71a2f	0.32637164
162	0xbdd621d9	-0.10455675
163	0x3f0c5240	0.54813004
164	0x3e4bfdc0	0.19921017
165	0xbdc8387a	-0.09776397
166	0x3ef2f50f	0.4745259
167	0x3f0e5aae	0.55607116
168	0xbf002457	-0.5005545
169	0xbefa6be3	-0.48910436
170	0xbc6d3e89	-0.014480242
171	0x3d3dd99e	0.046350114
172	0x3d357dc5	0.044309396
173	0xbd95b511	-0.07309926
174	0xbe19c013	-0.15014677
175	0x3d6ac2a8	0.057314545
176	0x3cdf3f70	0.027251929
177	0xbba4fe0e	-0.0050351685
178	0x3d5ed927	0.05440631
179	0x3d2363a9	0.039889965
180	0x3d554658	0.05206904
181	0xbb867284	-0.004103007
182	0x3e0295d1	0.12752463
183	0xbd870293	-0.06592288
184	0xbce76c0a	-0.02824976
185	0xbd90302b	-0.07040437
186	0xbde0c5c2	-0.10975219
187	0x3d99c886	0.0750895
188	0x3ca69d4b	0.020338675
189	0xbdec06c1	-0.11524726
190	0x3f25092f	0.6446714
191	0x3eb2366e	0.34807152
192	0xbe712ddd	-0.23552652
193	0xbeffbdf6	-0.49949616
194	0x3f54ddd5	0.8315099
195	0xbebce530	-0.36893606
196	0xbf8bd2d6	-1.0923717
197	0x3d724f24	0.059157506
198	0x3e399e04	0.18126684
199	0x3e7c7397	0.24653469
200	0x3e7a994e	0.24472544
201	0x3c9c62ec	0.019090138
202	0x3d68a709	0.056799922
203	0x3e2c0cf7	0.1680182
204	0x3e27e049	0.16394152
205	0x3dad34d7	0.08457344
206	0x3d589c0e	0.0528832
207	0x3d304706	0.043036483
208	0xbcbd05a5	-0.02307398
209	0xbdd4d65c	-0.10392448
210	0x3b06d8cb	0.0020575996
211	0x3e0653c6	0.13117895
212	0xbdd696ba	-0.104779676
213	0xbe162cd4	-0.14665538
214	0xbd2f264f	-0.042761143
215	0xbd225784	-0.039634243
216	0xbea7c705	-0.32769027
217	0xbed9b0a7	-0.42517588
218	0xbcb77d8a	-0.022398729
219	0xbe9a9e02	-0.30198675
220	0xbeae8e17	-0.3409278
221	0xbdbdc541	-0.09266139
222	0xbe3ddf06	-0.18542108
223	0xbe907936	-0.28217477
224	0xbe7ad04e	-0.24493524
225	0x3e5bfc89	0.21483053
226	0x3def1d96	0.11675565
227	0x3e13cec9	0.14434351
228	0x3ed4f2e0	0.4159155
229	0x3f69e8b2	0.9137069
230	0x3efe420b	0.49659762
231	0xbd730377	-0.059329476
232	0xbcf3ed21	-0.029776158
233	0x3dc24993	0.094866894
234	0xbe466371	-0.19373871
235	0xbc8b6ac2	-0.01701868
236	0x3e99e496	0.3005721
237	0x3e3a3f47	0.18188201
238	0x3f087307	0.5330052
239	0x3e362a8c	0.17789668
240	0x3e3ddc7e	0.18541142
241	0x3e9daaf8	0.307945
242	0x3d937f35	0.07201997
243	0xbda2ae04	-0.07943347
244	0x3e6358c0	0.22201824
245	0x3e10cf46	0.14141569
246	0xbe85720c	-0.26063573
247	0xbd4e81ca	-0.050416745
248	0x3db7674a	0.08955248
249	0xbcd2fbb6	-0.02575479
250	0x3e37fbad	0.179671
251	0x3e457be0	0.19285536
252	0xbdf08ecc	-0.11745986
253	0x3c0a9195	0.008457561
254	0x3e4df00a	0.20111099
255	0xbcc6ae67	-0.024253083

block1.1.bn2_2.weight f4 [8]
0	0x3f468872	0.7755195
1	0x3f3fca16	0.74917734
2	0x3f496486	0.7866901
3	0x3f81954c	1.0123687
4	0x3f17b86e	0.5926579
5	0x3e80bb1d	0.25142756
6	0x3f57b97d	0.8426741
7	0x3eabbc36	0.3354203

block1.1.bn2_2.bias f4 [8]
0	0x3fd7882a	1.6838429
1	0xbe0d2dbf	-0.13786982
2	0xbe2bb72a	-0.1676909
3	0x3db9d170	0.0907315
4	0x3f3211c8	0.6955838
5	0x3ebbd30a	0.36684448
6	0x3e1127ed	0.14175387
7	0xbe317471	-0.17329575

block1.1.bn2_2.running_mean f4 [8]
0	0x40761c0d	3.845462
1	0xbeeded74	-0.46470225
2	0x3f5fbb51	0.873952
3	0x408f4d16	4.47816
4	0xbe9bf7eb	-0.30462584
5	0xc02f6f5a	-2.7411714
6	0xbf55af49	-0.8347059
7	0xc00b18a4	-2.173379

block1.1.bn2_2.running_var f4 [8]
0	0x41123fe4	9.140598
1	0x403c3e4d	2.9413025
2	0x402f6b2c	2.7409163
3	0x40cdb986	6.428897
4	0x40831dd1	4.0973897
5	0x400a08be	2.1567836
6	0x40884de3	4.2595077
7	0x3fb2fcaf	1.3983363

block1.1.conv3_1.weight f4 [2, 16, 1, 1]
0	0x3f2e2910	0.68031406
1	0xbd2fcbf3	-0.04291911
2	0xbdb366b8	-0.087598264
3	0xbec66643	-0.38749894
4	0x3e37bfea	0.17944303
5	0x3e8440b2	0.2583061
6	0x3d3b89a5	0.045785565
7	0xbf154bc2	-0.5831872
8	0x3e3a8ebd	0.18218513
9	0x3f59bd63	0.85054606
10	0x3cb9e539	0.02269231
11	0xbc655f5a	-0.013999784
12	0x3efcbd99	0.49363402
13	0xbdfb3f62	-0.12267949
14	0xbbe7a30f	-0.0070689986
15	0x3e28300a	0.16424575
16	0x3e04b2be	0.1295881
17	0xbe2384ca	-0.15968624
18	0x3f0e33ad	0.555476
19	0x3e3b47f6	0.1828917
20	0xbd2914fb	-0.041279774
21	0xbec73d8c	-0.38914144
22	0x3e140fa7	0.14459096
23	0xbe7ba398	-0.24574125
24	0xbdc25191	-0.09488214
25	0x3ddc88b9	0.10768265
26	0x3e397490	0.18110871
27	0xbd86f5ec	-0.065898746
28	0x3ed3ad87	0.41343328
29	0x3d6cfe7a	0.057859875
30	0xbd7e273f	-0.062049147
31	0xbea7ae11	-0.3274999

block1.1.bn3_1.weight f4 [2]
0	0x3ecba6dc	0.3977574
1	0x3f303cd6	0.6884283

block1.1.bn3_1.bias f4 [2]
0	0x3eb1178f	0.34588286
1	0xbf347877	-0.70496315

block1.1.bn3_1.running_mean f4 [2]
0	0x3f3acbce	0.7296723
1	0x3fb501f7	1.4141225

block1.1.bn3_1.running_var f4 [2]
0	0x3f0f8756	0.5606588
1	0x3f826135	1.0185915

block1.1.conv3_2.weight f4 [2, 2, 5, 5]
0	0xbe7b4fe7	-0.24542199
1	0xbe0c9f92	-0.13732746
2	0xbedbc0d2	-0.42920548
3	0xbcba0948	-0.022709504
4	0xbd930e30	-0.071804404
5	0xbea1099c	-0.31452644
6	0x3e588b10	0.21146798
7	0x3ee75198	0.4517944
8	0xbc47b972	-0.01219021
9	0x3d33d299	0.043902013
10	0xbdca5f6b	-0.09881481
11	0xbd3f90c3	-0.046768915
12	0xbdb6d4ca	-0.08927305
13	0xbe41c054	-0.18921024
14	0x3b645f27	0.0034846754
15	0x3bac5f5a	0.00526039
16	0xbd4058ec	-0.046959803
17	0xbea15343	-0.31508836
18	0xbeca0a07	-0.39460775
19	0xbe3b9d98	-0.18321836
20	0xbeaf84f9	-0.34281138
21	0xbd121fb1	-0.035674755
22	0xbe4921eb	-0.19641845
23	0xbd80a307	-0.06281095
24	0xbe15aa8c	-0.1461584
25	0xbe017fcc	-0.12646407
26	0x3d7cda00	0.06173134
27	0xbe1827d2	-0.1485894
28	0xbd39e64a	-0.045385636
29	0xbdc16c40	-0.09444475
30	0x3da8b513	0.08237662
31	0xbc804681	-0.015658619
32	0x3d65563c	0.055990443
33	0xbd670139	-0.05639765
34	0x3d495104	0.04914953
35	0xbd10e1bc	-0.035371527
36	0x3e84f04d	0.25964585
37	0x3eb52aec	0.3538431
38	0x3c5e6b04	0.013575319
39	0xbdecde6d	-0.11565862
40	0x3c52dfd7	0.01287075
41	0x3d6d4f27	0.057936814
42	0x3e4ff18e	0.2030699
43	0x3db3f95d	0.08787797
44	0xbdbba67e	-0.09162615
45	0xbd1f5f34	-0.038909152
46	0xbcc2ff60	-0.023803413
47	0x3d807209	0.062717505
48	0x3e21c8b9	0.15799226
49	0xbd32f930	-0.043694675
50	0xbd01cb43	-0.031687986
51	0xbdc1fade	-0.09471677
52	0xbe086c58	-0.1332258
53	0xbd5bdf8b	-0.053679984
54	0xbb3e72d8	-0.0029060151
55	0xbcb2a977	-0.021809323
56	0xbd904184	-0.07043746
57	0xbce9d139	-0.028542148
58	0xbd806460	-0.06269145
59	0xbe403067	-0.18768464
60	0x3ee401bd	0.44532576
61	0x3e68897b	0.22708695
62	0x3e324401	0.17408754
63	0x3de7e861	0.1132362
64	0x3edc5c06	0.43038958
65	0xbe01ea9c	-0.12687153
66	0xbd27b425	-0.040943284
67	0x3d276798	0.04087028
68	0x3dc59baf	0.09648835
69	0x3d9f602e	0.07782017
70	0xbe569c3d	-0.20958038
71	0xbe9a07b6	-0.30084008
72	0xbe5dd8d5	-0.21664746
73	0xbd8fb4d8	-0.07016915
74	0xbe246d91	-0.16057421
75	0xbe26726d	-0.16254587
76	0x3cf89e25	0.030348847
77	0x3dd8857b	0.105723344
78	0x3d7cabc6	0.061687253
79	0xbc103192	-0.008800881
80	0xbd7be4f1	-0.061497632
81	0xbd213951	-0.0393613
82	0xbc938419	-0.018007325
83	0x3dbbbf99	0.09167404
84	0xbd440cb1	-0.047863666
85	0x3e59fd60	0.21288061
86	0x3e08f4d5	0.13374646
87	0x3e5709e9	0.20999874
88	0x3ea2db3f	0.31807896
89	0x3e3bfe8a	0.18358818
90	0x3eab1c69	0.33420113
91	0x3e6622ad	0.22474165
92	0x3e5ec784	0.21755797
93	0x3eb793ef	0.35855052
94	0x3eb4f9b1	0.3534675
95	0x3e34fa75	0.17673667
96	0x3d91d399	0.07120437
97	0x3dcea937	0.10090869
98	0x3bbb16f7	0.0057095247
99	0x3d82238b	0.063544355

block1.1.bn3_2.weight f4 [2]
0	0x3edcc103	0.43116006
1	0x3f598836	0.84973466

block1.1.bn3_2.bias f4 [2]
0	0x3ea17b65	0.31539455
1	0xbf701aa6	-0.9379066

block1.1.bn3_2.running_mean f4 [2]
0	0xbf38a2b2	-0.72123253
1	0x3dd8c38e	0.10584174

block1.1.bn3_2.running_var f4 [2]
0	0x3ea67deb	0.32517943
1	0x3ee774b2	0.4520622

block1.1.conv4_1.weight f4 [2, 16, 1, 1]
0	0x3f1b8bba	0.6076008
1	0xbe50e283	-0.20398907
2	0x3e1dbb5e	0.15403506
3	0x3ee6997c	0.45038974
4	0xbeabaa14	-0.33528197
5	0xbe79922b	-0.24372165
6	0xbf865d3b	-1.0497202
7	0x3d860958	0.06544751
8	0x3e15fbfb	0.14646904
9	0xbe887f8e	-0.26659817
10	0xbe17c4a1	-0.14821102
11	0xbec0be76	-0.3764531
12	0x3d6b0032	0.057373233
13	0xbf459e54	-0.77194715
14	0xbd8580f7	-0.06518739
15	0xbe00de4a	-0.12584797
16	0xbe111670	-0.14168715
17	0xbf226be3	-0.6344587
18	0x3ec54828	0.38531613
19	0x3e5f35a4	0.21797806
20	0xbd0eb9a1	-0.034845
21	0xbf0341bd	-0.51272184
22	0x3e36a75e	0.17837283
23	0x3e4a699d	0.19766851
24	0x3f06cc52	0.5265552
25	0xbd90d306	-0.070714995
26	0x3e99516e	0.29944938
27	0x3d80aa4a	0.0628248
28	0x3eed7638	0.46379256
29	0x3f022380	0.5083542
30	0x3dec69f5	0.11543647
31	0x3ffe7571	1.987959

block1.1.bn4_1.weight f4 [2]
0	0x3f893445	1.0719076
1	0x3efad5c3	0.48991212

block1.1.bn4_1.bias f4 [2]
0	0xbed7ced9	-0.4215
1	0x3f878aae	1.0589197

block1.1.bn4_1.running_mean f4 [2]
0	0xbf30e77f	-0.69103235
1	0x406416fb	3.5639026

block1.1.bn4_1.running_var f4 [2]
0	0x3faf728c	1.3706832
1	0x3fe44c56	1.7835796

block1.2.conv1_1.weight f4 [4, 16, 1, 1]
0	0x3f2197c2	0.6312219
1	0xbe8f0df7	-0.27940342
2	0xbee9f1c9	-0.4569228
3	0x3d6f38cf	0.058403786
4	0x3ff147a2	1.8849986
5	0xbecb30d5	-0.39685693
6	0x3e9c6c69	0.3055146
7	0x3ee0890e	0.43854564
8	0xbf1ed98c	-0.620507
9	0x3e4ef3e8	0.2021023
10	0xbf79ce86	-0.97580755
11	0x3e2f854b	0.17140691
12	0x3ccbf420	0.024896681
13	0x3dad435e	0.08460115
14	0xbe80bd26	-0.2514431
15	0x3f8f13b1	1.1177884
16	0xbd6767d0	-0.056495488
17	0x3c4d1572	0.01251732
18	0xbda36c5b	-0.079796515
19	0x3e2c316f	0.16815732
20	0x3da8e154	0.08246103
21	0x3d28a3c4	0.041171804
22	0xbe3a3719	-0.1818508
23	0x3ec175b2	0.37785107
24	0x3d1ba890	0.03800255
25	0x3e404c16	0.18779024
26	0xbe88ad9d	-0.26694956
27	0xbe0ab6b1	-0.13546254
28	0x3c82af93	0.015952861
29	0xbdcdcc6a	-0.100487545
30	0xbdd1e963	-0.10249593
31	0x3ea87e4c	0.32908857
32	0x4034442c	2.816661
33	0x3f1bfc8b	0.60932225
34	0xbef0424c	-0.4692558
35	0xbef53a44	-0.47896016
36	0xbe110b97	-0.14164577
37	0xbddd5a0b	-0.1080819
38	0x3e75985a	0.23983899
39	0x3eb781c4	0.3584119
40	0x3ea212aa	0.31654865
41	0xbd239f36	-0.039946757
42	0x3ef26187	0.47340032
43	0x3d6a7cd8	0.057247967
44	0xbf1328de	-0.57484233
45	0xbea26f0a	-0.3172534
46	0x3e8df319	0.2772453
47	0xbd854907	-0.065080695
48	0xbe856bc4	-0.2605878
49	0x3f950d34	1.1644654
50	0xbecd4178	-0.4008901
51	0xbec1776f	-0.37786433
52	0xbaf32de6	-0.0018553108
53	0x3f5e9d3d	0.86958677
54	0x3f379e0d	0.7172554
55	0xbe8175b8	-0.25285125
56	0x3f84c47e	1.0372465
57	0x3e87d304	0.2652818
58	0xbee7c3f0	-0.45266676
59	0xbc931e59	-0.017958807
60	0x3b2f3c11	0.0026738683
61	0xbeb572e2	-0.3543921
62	0xbe8ccb6d	-0.27498952
63	0x3dd79f59	0.1052844

block1.2.bn1_1.weight f4 [4]
0	0x3f6bbda5	0.9208625
1	0x3c33de31	0.0109782675
2	0x3fb6b2d0	1.4273319
3	0x3f650e6f	0.8947515

block1.2.bn1_1.bias f4 [4]
0	0x3ffe695f	1.9875907
1	0xbdae36d3	-0.08506551
2	0x4011be6a	2.277247
3	0x3f5c3b36	0.8602785

block1.2.bn1_1.running_mean f4 [4]
0	0x409d861c	4.922621
1	0x3f3859ee	0.7201222
2	0x40c70332	6.21914
3	0x3f1aebc1	0.6051598

block1.2.bn1_1.running_var f4 [4]
0	0x40e14d2e	7.0406713
1	0x3e1f5745	0.15560634
2	0x41844d0d	16.537622
3	0x401497b5	2.3217595

block1.2.conv2_1.weight f4 [8, 16, 1, 1]
0	0xbca2848c	-0.019838594
1	0xba11ca7d	-0.0005561484
2	0xbd8628eb	-0.06550773
3	0xbd5d600c	-0.054046676
4	0x3e46b9df	0.19406842
5	0x3e20d72b	0.1570708
6	0xbda9ed62	-0.0829723
7	0xbd8f20ed	-0.06988702
8	0xbe2c8977	-0.16849314
9	0x3e58783f	0.2113962
10	0x3e809db9	0.25120333
11	0x3e2f9790	0.1714766
12	0x3e2217e5	0.15829428
13	0x3e35b348	0.17744172
14	0x3d87433d	0.066046216
15	0xbd0a2a14	-0.033731535
16	0x3e543e47	0.20726882
17	0xbe9fbf17	-0.31200477
18	0xbd6b9c35	-0.057522018
19	0x3f942b88	1.1575785
20	0x3f23723a	0.6384617
21	0xbeb3a384	-0.3508569
22	0xbef5bc7b	-0.47995362
23	0x3e12febe	0.14354989
24	0x3f02c1d6	0.5107702
25	0xbe9f3367	-0.31093904
26	0xbe199086	-0.14996538
27	0x3d843b52	0.06456627
28	0x3dc9b451	0.09848846
29	0xbc7ee9a8	-0.015558638
30	0x3d35a4e2	0.044346698
31	0xbeb2dfce	-0.34936374
32	0xbf416a95	-0.75553256
33	0x3e7acaab	0.24491374
34	0x3e4d2f1c	0.20037502
35	0xbe9b68a2	-0.30353266
36	0xbd40ccae	-0.047070198
37	0x3e92d83c	0.286806
38	0x3eb5f35c	0.3553723
39	0xbebf9552	-0.3741861
40	0xbc8cfd18	-0.017210528
41	0x3e3a9af8	0.18223178
42	0x3e83c441	0.25735667
43	0xbe33db1a	-0.1756405
44	0x3f04f7b7	0.5194048
45	0xbecedc94	-0.40402663
46	0xbf016cab	-0.5055644
47	0xbe064ea4	-0.13115937
48	0xbdfe9c8e	-0.12432204
49	0xbd8f7e33	-0.070064925
50	0x3f14fa3e	0.5819434
51	0xbfc6fd7a	-1.5546105
52	0xbc6ba2a2	-0.014382036
53	0x3d506412	0.050876684
54	0x3e952dea	0.29136592
55	0xbeb841f3	-0.35987815
56	0x3f01c070	0.5068426
57	0xbd3e7a02	-0.046503074
58	0x3e8ebc9c	0.27878273
59	0x3dc1a005	0.094543494
60	0xbce4f94a	-0.027950902
61	0xbf0d0b11	-0.5509501
62	0xbe528cf0	-0.20561576
63	0x3df9b1f8	0.12192148
64	0xbf011460	-0.50421715
65	0xbebe61e4	-0.3718406
66	0x3e4cb082	0.19989207
67	0x3d963c61	0.07335735
68	0x3eab80a7	0.3349659
69	0x3e4b5809	0.19857801
70	0x3e134ef6	0.1438559
71	0x3f438940	0.763813
72	0xbe43a39e	-0.19105384
73	0xbef38601	-0.47563174
74	0xbe7e71b5	-0.24848063
75	0x3c5aa486	0.0133448895
76	0x3deeeacc	0.11665878
77	0xbd056b34	-0.03257294
78	0xbd298da3	-0.04139484
79	0xbeb27680	-0.34856033
80	0xbdcf4167	-0.101198964
81	0xbe18677a	-0.14883223
82	0x3e073711	0.132046
83	0x3dfda1b3	0.12384357
84	0x3ea1c2f3	0.31594047
85	0x3e66c5e9	0.22536434
86	0x3cff5b80	0.03117156
87	0xbe6400c6	-0.2226592
88	0xbd5693b0	-0.05238694
89	0x3d17cde4	0.037061587
90	0x3dc144dd	0.09436963
91	0xbd867ebc	-0.065671414
92	0x3dc93357	0.098242454
93	0xbe0bd7a3	-0.13656478
94	0x3e3e79bc	0.18601125
95	0xbdc4ddc4	-0.09612611
96	0xbfa0ffb3	-1.2578033
97	0x3d7467bc	0.05966924
98	0x3f0079a2	0.50185597
99	0xbf1e4147	-0.61818355
100	0x3f4bcd26	0.79609907
101	0xbe8ff0ad	-0.2811331
102	0xbd0e40f3	-0.03472991
103	0x3ef283c3	0.4736615
104	0x3e3fae4f	0.18718837
105	0xbebe2fa8	-0.37145734
106	0xbdacfff5	-0.084472574
107	0xbe2a91fc	-0.16657251
108	0xbe607c1a	-0.21922341
109	0x3ee3a243	0.44459733
110	0xbeb19b6a	-0.34688884
111	0x3e8a68af	0.27032992
112	0xbe898128	-0.2685635
113	0x3e124cda	0.14287129
114	0xbd8e18be	-0.06938313
115	0x3d79fcd4	0.06103213
116	0x3dd2f629	0.103008576
117	0x3e2d3968	0.1691643
118	0x3ca2c00b	0.019866964
119	0x3e097822	0.13424733
120	0xbdcd1e02	-0.10015489
121	0x3d6a348b	0.057179015
122	0x3e957561	0.29191115
123	0xbe390db5	-0.18071635
124	0x3e072e32	0.13201216
125	0x3e825124	0.2545253
126	0xbd262e8d	-0.040571738
127	0x3e4f10d0	0.20221257

block1.2.bn2_1.weight f4 [8]
0	0x3c6987b0	0.014253542
1	0x3f498978	0.78725386
2	0x3f665a30	0.89981365
3	0x3f278e4c	0.654515
4	0x3f304b3f	0.68864816
5	0xbcea8665	-0.028628537
6	0x3f4160a4	0.75538087
7	0x3d3812a2	0.044939645

block1.2.bn2_1.bias f4 [8]
0	0xbe292325	-0.16517313
1	0x3f177903	0.59169024
2	0x3dc39bbc	0.09551188
3	0x3f97d9fb	1.1863397
4	0xbde7d397	-0.113196544
5	0xbeadd8c6	-0.33954448
6	0x3f902c9d	1.1263615
7	0xbe8a2d0b	-0.2698749

block1.2.bn2_1.running_mean f4 [8]
0	0x3e8e4cf9	0.277931
1	0x40430dae	3.04771
2	0xc0089ca0	-2.1345596
3	0xc01db7d9	-2.4643462
4	0xbf8fc1ee	-1.1231058
5	0x3eb0aafe	0.34505457
6	0xc00aa59f	-2.1663587
7	0x3e3f996b	0.18710868

block1.2.bn2_1.running_var f4 [8]
0	0x3d315ca2	0.043301232
1	0x3fbe5988	1.4871073
2	0x3fd219bb	1.6414102
3	0x3fcb5450	1.5885105
4	0x3f6ae9f2	0.9176322
5	0x3dbf3aba	0.09337373
6	0x401d3082	2.4560857
7	0x3e1cd425	0.15315302

block1.2.conv2_2.weight f4 [8, 8, 3, 3]
0	0x3de3c6a5	0.11121873
1	0x3e5ccbe4	0.21562153
2	0xbd665c2c	-0.056240246
3	0x3c1666d7	0.009179792
4	0x3ec0a884	0.37628567
5	0x3d3440e3	0.044007193
6	0x3d74ac7d	0.05973481
7	0x3dea2f4f	0.11434805
8	0xbbdb2150	-0.006687321
9	0xbdfea5e4	-0.12433985
10	0xbf3b3da3	-0.73140925
11	0xbe73b245	-0.23798473
12	0x3eb5d1de	0.35511678
13	0xbe19e81c	-0.15029949
14	0xbccac1fd	-0.024750704
15	0x3efa3569	0.48868874
16	0x3f459a09	0.77188164
17	0x3ee05abc	0.43819225
18	0xbe15d711	-0.14632823
19	0x3f2b21be	0.6684836
20	0x3e68579b	0.22689669
21	0x3e0d30fe	0.1378822
22	0xbdbf3854	-0.093369156
23	0x3e424baa	0.18974176
24	0x3d6e1a58	0.058130592
25	0xbef9c3ac	-0.48782098
26	0xbe84211f	-0.2580652
27	0xbdc6bb5b	-0.09703704
28	0x3fa4d67f	1.2877959
29	0xbad94a6b	-0.0016577964
30	0xbec4833a	-0.38381368
31	0x3f02ff18	0.5117049
32	0xbd9bb493	-0.07602801
33	0xbeb54bf7	-0.3540952
34	0xbeca3393	-0.39492473
35	0xbeb20be7	-0.34774706
36	0xbd4eee24	-0.050520077
37	0xbe08f691	-0.13375308
38	0xbe290646	-0.165063
39	0x3eab3d24	0.33445084
40	0xbf17187c	-0.59021735
41	0x3db27b00	0.08714867
42	0x3e2b1cdf	0.16710232
43	0x3dddaf55	0.108244576
44	0xbd26b0e4	-0.04069604
45	0x3e14c902	0.14529803
46	0x3e8969e2	0.26838595
47	0x3c9b7e11	0.018981012
48	0x3d42d21a	0.04756365
49	0x3e51c166	0.20483932
50	0x3de89938	0.11357349
51	0xbcded133	-0.027199363
52	0xbe1a40c6	-0.15063772
53	0x3cb3ae5e	0.02193373
54	0xbd8154a6	-0.063149735
55	0x3f13bc2b	0.57708997
56	0xbd9b39e6	-0.075794026
57	0x3ec3c563	0.38236532
58	0xbf049ca9	-0.51801544
59	0x3d9a0cd2	0.075219765
60	0x3e519aa8	0.20469153
61	0x3d27e26c	0.040987417
62	0x3c852434	0.016252615
63	0x3e354401	0.17701723
64	0x3e505975	0.20346625
65	0x3db3c52d	0.08777843
66	0xbc8b2fd4	-0.01699058
67	0xbca7da0d	-0.020489717
68	0x3e2236fa	0.15841284
69	0x3c4f2ceb	0.012644987
70	0x3e4ffa2e	0.2031028
71	0x3e9e6763	0.30938253
72	0xbd40113f	-0.046891447
73	0xbe414023	-0.18872122
74	0x3d0bedb7	0.03416225
75	0xbd11f8dc	-0.03563772
76	0xbdaffcae	-0.08593117
77	0x3dd4b6cb	0.103864275
78	0x3c59a050	0.01328285
79	0x3de06d1a	0.109583095
80	0xbe30356e	-0.17207882
81	0xbc3c2652	-0.011483746
82	0x3e1d038c	0.15333384
83	0x3d257311	0.04039294
84	0x3c9ca857	0.01912324
85	0xbcf18a88	-0.029485002
86	0x3ba17183	0.0049268617
87	0xbe46c7b1	-0.19412114
88	0x3c8121dd	0.015763218
89	0xbdd690d8	-0.104768455
90	0xbe72144a	-0.23640552
91	0x3bb44016	0.0055008037
92	0xbbf8b405	-0.0075898194
93	0xbdcf565d	-0.10123894
94	0x3d4196f6	0.04726311
95	0x3d9ce933	0.07661667
96	0x3d955a39	0.07292599
97	0x3cb6f4a0	0.022333443
98	0x3ec02afa	0.3753279
99	0xbed096bf	-0.4074001
100	0xbe93e7ef	-0.2888789
101	0xbd47aa95	-0.048746664
102	0xbe13c60c	-0.14431018
103	0xbe7c0378	-0.24610698
104	0xbdbd10fb	-0.092317544
105	0x3dd458dd	0.10368512
106	0x3e3c02d7	0.18360458
107	0x3e507c78	0.20359981
108	0xbd084616	-0.033269964
109	0x3e0c048c	0.1367361
110	0xbdb9e30f	-0.09076511
111	0x3beda1d0	0.0072519556
112	0xbe10f921	-0.14157535
113	0x3c9a4a6d	0.018834317
114	0xbe0c33ad	-0.13691588
115	0xbe1a8c1d	-0.15092511
116	0x3e30775c	0.17233032
117	0xbe00318e	-0.12518904
118	0xbe016848	-0.12637436
119	0xbea79c13	-0.32736263
120	0x3da38ba8	0.07985622
121	0xbd3db056	-0.046310745
122	0xbd3001d1	-0.042970482
123	0xbdac87c0	-0.0842433
124	0xbe1deb42	-0.15421775
125	0xbcea2484	-0.028581865
126	0xbeea8cd0	-0.45810556
127	0xbea7e318	-0.32790446
128	0xbed9a590	-0.42509127
129	0xbeb23d13	-0.3481222
130	0xbf0fe6f8	-0.56211805
131	0xbf08e777	-0.5347819
132	0x3d992905	0.07478527
133	0xbe3bbd90	-0.18334031
134	0x3e0d495c	0.13797516
135	0xbe31453e	-0.1731157
136	0xbe4d0bb6	-0.20023999
137	0xbe78c5cb	-0.24294202
138	0xbc8fd54b	-0.01755776
139	0x3c8c3b6b	0.017118176
140	0xbd524fe9	-0.05134574
141	0xbe725cd0	-0.23668218
142	0xbe7ed732	-0.24886778
143	0xbd803fe7	-0.062621884
144	0xbd0817f7	-0.03322598
145	0xbcf04a47	-0.029332293
146	0xbd84df4e	-0.064879045
147	0x3dd8abbe	0.10579632
148	0x3d7f487b	0.062324982
149	0x3c31efeb	0.010860424
150	0x3e0364d0	0.12831426
151	0xbc5a15e6	-0.013310885
152	0x3d0ac7a5	0.033881802
153	0x3efc2121	0.49244025
154	0x3d1209dc	0.035653934
155	0x3c297ded	0.010344964
156	0x3eb456ce	0.35222477
157	0x3e1ff7ac	0.15621823
158	0xbe8d1803	-0.27557382
159	0x3eedef3f	0.46471593
160	0x3df8ce4c	0.12148723
161	0xbf01503e	-0.50513065
162	0x3eccc953	0.39997348
163	0x3e1ce7bc	0.15322775
164	0x3e9f1b7e	0.31075662
165	0x3d4049c9	0.046945367
166	0x3ead4f66	0.3384964
167	0x3df346aa	0.118787125
168	0xbe3209b5	-0.17386515
169	0x3e554951	0.20828749
170	0x3c8467ed	0.016162837
171	0x3e69019c	0.2275452
172	0x3ecaf290	0.39638186
173	0x3d81c9f9	0.06337351
174	0x3e3fcab0	0.18729663
175	0x3ec44b7c	0.3833884
176	0x3dbb8a6f	0.091572635
177	0xbe8abc5d	-0.27096835
178	0xbb1cec12	-0.002394442
179	0x3e78fe14	0.24315673
180	0xbe603900	-0.21896744
181	0x3c2ca6aa	0.010537783
182	0xbe76bf72	-0.24096468
183	0xbda60f15	-0.081083454
184	0x3e8d6ff8	0.27624488
185	0xbe8b7f0a	-0.2724536
186	0xbddc2b44	-0.1075044
187	0x3cd9632e	0.02653655
188	0xbe725f04	-0.23669058
189	0xbaa8952d	-0.0012861841
190	0xbbf8f6a6	-0.007597762
191	0xbdace9ab	-0.08443006
192	0x3da1a676	0.07893078
193	0x3ddd6e76	0.108120844
194	0xbc67e374	-0.01415335
195	0xbdecace1	-0.115564115
196	0x3dbba6e5	0.09162692
197	0xbd2187c4	-0.039436117
198	0x3e074592	0.13210133
199	0x3e9abd3e	0.30222505
200	0x3ee9037d	0.45510474
201	0xbebf2d6b	-0.3733934
202	0x3eef18f5	0.46698728
203	0xbd8fa14e	-0.07013188
204	0xbe5cba1b	-0.21555369
205	0x3dc84a6a	0.09779818
206	0xbd3aba3c	-0.045587763
207	0x3d104ca7	0.03522935
208	0x3dbbd8e5	0.09172229
209	0x3dfe4232	0.124149695
210	0x3defeff6	0.11715691
211	0x3d12b1d2	0.035814114
212	0x3d0b3b9c	0.033992395
213	0x3ddfdd09	0.10930831
214	0x3e11bdb0	0.14232516
215	0x3e18b615	0.14913209
216	0xbd9cf8f1	-0.07664669
217	0x3e033c8c	0.12816066
218	0xbd59c429	-0.05316559
219	0xbe110c04	-0.1416474
220	0xbec1bba5	-0.37838474
221	0x3d9cfb4a	0.07665117
222	0xbe83ddbf	-0.25755116
223	0xbe747bee	-0.238754
224	0xbe4076c5	-0.18795307
225	0xbb5b43ee	-0.0033457237
226	0xbdb33756	-0.08750789
227	0xbd9fb2ea	-0.07797797
228	0xbe8c7dc6	-0.27439708
229	0xbdd0c097	-0.101929836
230	0x3d459b98	0.04824409
231	0xbd2b5301	-0.041827206
232	0xbe42d6a7	-0.19027196
233	0xbdafe3b2	-0.08588351
234	0xbe46af4d	-0.1940281
235	0xbe4b0937	-0.19827734
236	0x3d341515	0.043965418
237	0xbe49f3c9	-0.19721903
238	0xbe13d6a0	-0.14437342
239	0xbe260941	-0.16214468
240	0xbe248835	-0.16067584
241	0xbceda95f	-0.029011426
242	0xbce48d47	-0.027899398
243	0xbd6a4021	-0.057190064
244	0xbd81a427	-0.06330138
245	0xbe0c4f3a	-0.13702098
246	0xbe453b75	-0.19260962
247	0xbe582fe4	-0.21112019
248	0x3c90cb20	0.017674983
249	0xbe537152	-0.20648697
250	0xbe851fc0	-0.26000786
251	0xbe66b452	-0.22529724
252	0xbda55b11	-0.0807401
253	0x3ded3ba9	0.11583645
254	0x3e9cd890	0.30633974
255	0xbe25a8bc	-0.16177648

block1.2.bn2_2.weight f4 [8]
0	0x3f1ecdb6	0.6203264
1	0x3ee58aac	0.4483236
2	0x3f7652cb	0.9622008
3	0x3d2f527b	0.04280327
4	0x3f42429d	0.75882894
5	0x3f244c8c	0.641793
6	0x3f1af373	0.60527724
7	0x3f0c34d4	0.5476811

block1.2.bn2_2.bias f4 [8]
0	0x3f44f96f	0.76943105
1	0x3f311f63	0.6918852
2	0xbdee8197	-0.11645811
3	0xbe9c105a	-0.30481225
4	0xbea7f5af	-0.3280463
5	0x3f18a28f	0.59623045
6	0x3f756d59	0.95869976
7	0x3f3f5dad	0.7475231

block1.2.bn2_2.running_mean f4 [8]
0	0x3fc2927a	1.5200951
1	0xc06ba8d0	-3.6821785
2	0x4051ed8b	3.2801235
3	0xbfdbf9c6	-1.71856
4	0xc06891f6	-3.6339087
5	0xbee5f742	-0.44915205
6	0xbd24ce96	-0.04023608
7	0xbf9c4bde	-1.2210653

block1.2.bn2_2.running_var f4 [8]
0	0x405f0fa9	3.4853308
1	0x4039034d	2.8908265
2	0x4024cca2	2.5749898
3	0x3ed805fc	0.42192066
4	0x3fdd0da4	1.7269788
5	0x402b4e77	2.676664
6	0x400489bd	2.0709069
7	0x4005e364	2.0920038
