assignment1/results/trial_2/inception/ckpts/22000.pt (torch, 689120 bytes, 467 tensors)

block1.0.conv1_1.weight f4 [4, 16, 1, 1]
0	0x3f1c70bf	0.61109537
1	0x3f5dbe80	0.86618805
2	0x3f020784	0.5079272
3	0x3ea4270e	0.32061046
4	0x3f44e1c4	0.7690699
5	0x3f08a3c7	0.53374904
6	0x3f8341c1	1.0254441
7	0x3d9a24a5	0.07526521
8	0x3f2dbbdf	0.67864794
9	0xbe1a0423	-0.1504064
10	0xbd8d503e	-0.069000706
11	0xbd6cf491	-0.057850424
12	0xbe1aa145	-0.15100582
13	0xbeac7d79	-0.33689478
14	0x3f4cddef	0.80026144
15	0xbf1717e3	-0.59020823
16	0xc0214bd3	-2.520253
17	0xbf5a0f9a	-0.85180056
18	0xbd0bf6e4	-0.034171
19	0x3e1e42b7	0.15455137
20	0xbe2f7b92	-0.17136982
21	0x3db4bef4	0.08825484
22	0x3dde60ae	0.10858284
23	0x3de856e7	0.113447
24	0x3f174699	0.590921
25	0xbeca958c	-0.3956722
26	0xbdfc9196	-0.12332456
27	0x3d4fc851	0.050728146
28	0xbe076317	-0.13221394
29	0x3db7a426	0.08966856
30	0xbc693662	-0.014234157
31	0x3e13f12f	0.14447473
32	0xbf01498e	-0.5050286
33	0xbec35bd8	-0.3815601
34	0xbe7e6861	-0.24844505
35	0xbf8badfe	-1.0912473
36	0x3f03d690	0.5149927
37	0x3f9c9e81	1.2235872
38	0x3fab9d27	1.3407334
39	0xbc19b61c	-0.009381797
40	0x3e6c1582	0.2305508
41	0x3f09e6a3	0.5386755
42	0x3d5c6fd3	0.05381758
43	0x3cc57f74	0.024108626
44	0x3e0449d6	0.12918791
45	0xbe8cdb37	-0.27510998
46	0xbed80860	-0.4219389
47	0xbf4db9e9	-0.803618
48	0x3e0afba2	0.13572553
49	0x3c1bb141	0.00950271
50	0xbf79cda9	-0.9757944
51	0x3eb1f667	0.34758303
52	0x3dfca528	0.123361886
53	0x40024626	2.0355315
54	0xbf322e94	-0.6960232
55	0xbe719a98	-0.23594129
56	0x3ec26b7b	0.37972626
57	0x3d553f77	0.052062478
58	0xbdc765ea	-0.097362354
59	0x3d1f8248	0.038942605
60	0x3ead17c3	0.3380719
61	0x3f09e320	0.5386219
62	0xbee38220	-0.44435215
63	0xbf1dd6f7	-0.61656135

block1.0.bn1_1.weight f4 [4]
0	0x3f758a49	0.9591413
1	0x3fa113d9	1.2584182
2	0x3f88dbf7	1.0692128
3	0x3f6314aa	0.88703406

block1.0.bn1_1.bias f4 [4]
0	0x3fbc94a5	1.4732863
1	0x3f36dac3	0.71427554
2	0x400b3882	2.175324
3	0x40308f05	2.7587292

block1.0.bn1_1.running_mean f4 [4]
0	0x40da2c12	6.8178797
1	0xbfa5449e	-1.2911565
2	0x4017c9f0	2.3717003
3	0x4063539e	3.5519786

block1.0.bn1_1.running_var f4 [4]
0	0x406b08ec	3.6724195
1	0x40d9a08e	6.800849
2	0x41048380	8.2821045
3	0x40df425b	6.97685

block1.0.conv2_1.weight f4 [8, 16, 1, 1]
0	0xbec9c7d1	-0.3941026
1	0xbef8eae9	-0.48616722
2	0x3e4256a9	0.1897837
3	0xbdd0331f	-0.101660006
4	0x3de0f732	0.10984649
5	0xbf048111	-0.5175944
6	0xbf6486fe	-0.8926848
7	0xbcc80955	-0.024418512
8	0x3eb13ede	0.34618276
9	0xbeb8abe6	-0.36068648
10	0x3ba37ac0	0.004988998
11	0xbd61e5b6	-0.05515071
12	0xbd6c665e	-0.057714812
13	0x3f9b87ba	1.2150795
14	0x3e10742c	0.14106816
15	0xbea4180a	-0.3204959
16	0x3d53d192	0.051713534
17	0xbe8e35d7	-0.27775452
18	0x3f4c9ca9	0.79926544
19	0xbf35c9b7	-0.7101092
20	0xbe5d118c	-0.21588725
21	0xbea7b71a	-0.32756883
22	0xbece0248	-0.40236115
23	0xbe3393ef	-0.17536901
24	0xbf8d5cae	-1.1043909
25	0xbd2b2c4c	-0.04179029
26	0xbdeaf03e	-0.11471604
27	0xbd42e9f0	-0.04758638
28	0xbe16de0c	-0.14733142
29	0x3f1e4497	0.6182341
30	0xbe37866b	-0.1792237
31	0x3dd38e15	0.10329834
32	0xbed7b58f	-0.42130706
33	0xbf97ad27	-1.1849717
34	0xbea88ebb	-0.32921395
35	0x3c19ca10	0.009386554
36	0x3b9b2cbd	0.004735558
37	0x3ec4e110	0.3845296
38	0x3ecf176f	0.40447566
39	0x3d8cc17b	0.06872841
40	0xbe29d26d	-0.16584177
41	0x3f8c64fd	1.0968319
42	0xbd5520e3	-0.052033316
43	0xbb84377f	-0.004034936
44	0xbd54dc80	-0.051968098
45	0xbf299d1e	-0.66255367
46	0x3dd8c729	0.10584862
47	0xbb0ab7ad	-0.0021166608
48	0x3d4bd5aa	0.049764313
49	0xbf056118	-0.5210128
50	0x3dc2c4f4	0.09510222
51	0xbf83fd0e	-1.0311601
52	0xbe991c98	-0.29904628
53	0xbf27b31c	-0.65507674
54	0x3f8ff610	1.1246967
55	0x3df2fbab	0.11864408
56	0x3fa9c912	1.3264487
57	0xbe9e4187	-0.30909368
58	0xbcbe88a4	-0.023258515
59	0xbcd46162	-0.025925342
60	0xbd8b893f	-0.06813287
61	0xbe0b6486	-0.13612565
62	0x3ed81ecd	0.42211
63	0x3e87ad06	0.26499194
64	0x3dd26d6c	0.10274777
65	0x3dc93bc2	0.09825851
66	0x3e337321	0.17524387
67	0x3e59c245	0.21265514
68	0x3d23cbb8	0.039989203
69	0x3e22c724	0.15896279
70	0x3d46b58b	0.048512977
71	0xbdf37caa	-0.11889012
72	0x3d5cb404	0.053882614
73	0xbcdbc1b1	-0.026825758
74	0x3cc9938e	0.024606492
75	0x3dd6e68f	0.10493194
76	0x3d85e14d	0.06537113
77	0x3d9ad1d8	0.07559556
78	0xbdfb851c	-0.12281248
79	0x3e41acfa	0.18913642
80	0xbe9b0f14	-0.3028494
81	0x3da09e4b	0.07842692
82	0xbe8a1141	-0.2696629
83	0xbebd1a7e	-0.36934274
84	0x3dae886b	0.085221134
85	0xbe2008d8	-0.15628374
86	0xbdee7f62	-0.1164539
87	0x3e3a9d62	0.182241
88	0xbe73d3f4	-0.23811322
89	0xbf345b15	-0.7045148
90	0xbcfe916b	-0.0310752
91	0xbdb393e0	-0.08768439
92	0xbc6eb1f0	-0.014568791
93	0xbf6bb41c	-0.920717
94	0x3e94be44	0.2905141
95	0xb8b3e21a	-8.5775e-05
96	0x3f143f45	0.5790904
97	0xbc48d8c0	-0.0122587085
98	0xbedc9038	-0.4307878
99	0xbe3a44ba	-0.1819028
100	0x3d8d4b5c	0.06899139
101	0xbec1b2ba	-0.3783167
102	0xbe98c90b	-0.29840884
103	0xbd8086e3	-0.062757276
104	0x3eb7cb74	0.3589741
105	0xbf0bc6d6	-0.54600275
106	0x3dbaf624	0.09128979
107	0x3dc76359	0.09735746
108	0x3dc9a4e5	0.09845904
109	0xbe0301ac	-0.12793607
110	0x3eaa17c2	0.3322125
111	0xbd174597	-0.0369316
112	0xbe3f550a	-0.18684784
113	0xbe57866d	-0.21047373
114	0x3ef9a86e	0.48761314
115	0x3fb67235	1.4253603
116	0x3ddfa792	0.109206334
117	0xbe8a8c01	-0.2705994
118	0xbf1b0ac3	-0.60563296
119	0x3e12d396	0.14338526
120	0x3f6184cd	0.8809326
121	0x3e89fef7	0.26952335
122	0xbd0f8e1c	-0.035047635
123	0x3e401053	0.18756227
124	0x3daaaee7	0.08334141
125	0x3d53a64c	0.051672265
126	0x3ee23583	0.4418145
127	0x3e14f5d6	0.14546904

block1.0.bn2_1.weight f4 [8]
0	0x3f597d9e	0.849573
1	0x3f5c1382	0.85967267
2	0x3f6c81af	0.9238538
3	0x3f8cc419	1.0997344
4	0x3cdb6a0c	0.026783966
5	0x3f87fa10	1.0623188
6	0x3f6fa817	0.9361586
7	0x3f7a931b	0.97880715

block1.0.bn2_1.bias f4 [8]
0	0x3f2efb27	0.6835198
1	0x3f39a29c	0.7251375
2	0x3e5820f7	0.21106325
3	0x3f1882eb	0.59574765
4	0xbe5dcbdf	-0.21659802
5	0xbe3d9aed	-0.18516131
6	0xbeb2f016	-0.34948796
7	0x3fa92405	1.3214117

block1.0.bn2_1.running_mean f4 [8]
0	0xc00f7350	-2.241413
1	0xc07ad6fa	-3.9193711
2	0xbf2de37f	-0.67925256
3	0x3fd8d39d	1.6939579
4	0x3fd449ef	1.6585063
5	0xc080871b	-4.0164924
6	0xbfcca19f	-1.5986823
7	0x40564e0b	3.3485134

block1.0.bn2_1.running_var f4 [8]
0	0x3ffed154	1.9907632
1	0x3fff4b3a	1.9944832
2	0x3f9ce97d	1.2258755
3	0x40288dc6	2.6336532
4	0x3d918f5b	0.07107421
5	0x3f8bf6a7	1.0934647
6	0x3eee66f0	0.4656291
7	0x40753fb1	3.8320124

block1.0.conv2_2.weight f4 [8, 8, 3, 3]
0	0x3d34976c	0.04408972
1	0x3da4b00a	0.08041389
2	0x3ebaddf8	0.36497474
3	0xbe76933b	-0.24079601
4	0x3cea077c	0.028568022
5	0xbea0498e	-0.31306118
6	0x3e808704	0.2510301
7	0x3e861838	0.26190352
8	0xbbb1ab35	-0.005422021
9	0x3e767911	0.2406962
10	0x3d3a700e	0.04551702
11	0x3eca26e7	0.39482805
12	0xbe745b59	-0.23862971
13	0xbf8220d2	-1.0166266
14	0xbeb71a8f	-0.3576245
15	0x3ece10b1	0.4024711
16	0xbd302543	-0.043004286
17	0xbda354d6	-0.079751655
18	0x3e940592	0.289105
19	0x3e6fb8eb	0.23410384
20	0xbd6a5fdf	-0.057220336
21	0xbeae9bf3	-0.34103355
22	0xbdf25d13	-0.11834159
23	0x3df79c71	0.12090386
24	0xbd2d9ba9	-0.042384777
25	0x3ee1db22	0.44112498
26	0x3e38b832	0.18039015
27	0x3e2585c7	0.16164313
28	0x3e9bab74	0.30404246
29	0xbe888ab5	-0.26668325
30	0x3e0e10f9	0.13873662
31	0xbf0980a7	-0.5371193
32	0xbf089c0f	-0.53363127
33	0x3e80c55e	0.2515058
34	0xbe9f6f1f	-0.31139466
35	0xbe25cb56	-0.16190848
36	0x3de76ad0	0.1129967
37	0x3e14ce5b	0.14531843
38	0x3daae7e9	0.083450146
39	0xbcd580ec	-0.026062451
40	0x3cfa37a7	0.030544115
41	0x3d5c3932	0.053765483
42	0xbd01b30f	-0.031664904
43	0x3b480e7d	0.0030526214
44	0x3d8365c4	0.06415895
45	0x3e084949	0.13309206
46	0xbead44cd	-0.33841553
47	0x3ea8ce83	0.32970056
48	0x3ea6f9fd	0.326126
49	0xbd043593	-0.032277655
50	0xbb16b800	-0.0022997856
51	0x3e94af2d	0.290399
52	0xbe0bd201	-0.13654329
53	0x3c235639	0.009969288
54	0x3ec81bd5	0.39083734
55	0x3e907503	0.28214273
56	0x3cd14e9e	0.025550183
57	0x3e84db41	0.25948527
58	0xbdcc927b	-0.099888764
59	0xbe29e829	-0.16592468
60	0xbe553a9e	-0.20823142
61	0xbe8a78f6	-0.2704541
62	0xbe8e79ac	-0.27827203
63	0xbe1ea390	-0.15492082
64	0x3ee3e87a	0.44513303
65	0xbe5d8731	-0.21633603
66	0xbd62100e	-0.055191092
67	0x3f908512	1.129061
68	0xbd966ec6	-0.07345347
69	0xbeb49e90	-0.35277224
70	0xbd21179e	-0.039329164
71	0xbeaad33a	-0.33364278
72	0xbe3248f8	-0.17410648
73	0xbead68fa	-0.33869153
74	0x3ebb9208	0.3663485
75	0xbdd35ee9	-0.10320837
76	0x3e02b9f8	0.12766254
77	0xbe425c0d	-0.18980427
78	0x3e26fa3f	0.16306399
79	0xbddee56c	-0.108836025
80	0xbd8b9c16	-0.068168804
81	0xbe2ec2ed	-0.17066546
82	0x3e972b24	0.295251
83	0xbe83fae8	-0.25777364
84	0x3d9bdb96	0.07610242
85	0x3f81d8d2	1.0144293
86	0xbe32f6e1	-0.1747699
87	0x3c94941c	0.01813703
88	0xbf0091d3	-0.5022251
89	0xbe3b0f3b	-0.18267529
90	0x3def6830	0.11689794
91	0x3ed02477	0.4065282
92	0xbe93ad28	-0.28843045
93	0x3e905a85	0.2819406
94	0x3d0ca9f2	0.03434176
95	0x3e4b2ec1	0.19842054
96	0xbd8bc38e	-0.068244085
97	0xbe8de548	-0.2771399
98	0xbe60e9ad	-0.2196414
99	0x3eab9afe	0.33516687
100	0xbe2c04ee	-0.16798756
101	0xbced53a6	-0.02897055
102	0xbd6c55c7	-0.05769899
103	0x3cea0c7f	0.028570412
104	0xbee084d8	-0.43851352
105	0xbe3e8340	-0.18604755
106	0xbebfe5e4	-0.3748008
107	0x3d9f3990	0.07774651
108	0x3d638c83	0.055553924
109	0x3d5c05eb	0.05371658
110	0xbcbec2b5	-0.023286203
111	0xbdeea033	-0.11651649
112	0xbdb26e6d	-0.08712468
113	0xbdba010c	-0.09082231
114	0xbd58a560	-0.05289209
115	0xbd0de8db	-0.034645896
116	0xbced9cdc	-0.02900546
117	0xbda836ce	-0.08213578
118	0xbe399bbd	-0.18125816
119	0xbdfacfc7	-0.12246662
120	0xbe952413	-0.29129085
121	0x3eed1d16	0.46311253
122	0x3d2f1afa	0.042750336
123	0xbe60898d	-0.21927471
124	0xbea67d76	-0.32517594
125	0xbd9b5564	-0.07584646
126	0xbd93bf73	-0.072142504
127	0x3e0dd8a9	0.1385218
128	0x3dd332df	0.10312437
129	0x3e2bab30	0.16764522
130	0xbe5914c9	-0.21199335
131	0x3d802da4	0.06258705
132	0xbe1f7964	-0.1557365
133	0xbe69d391	-0.22834612
134	0x3c9a26ca	0.018817324
135	0xbe4ff1e0	-0.20307112
136	0xbf098398	-0.5371642
137	0x3db02a70	0.08601844
138	0xbf1e31d4	-0.6179478
139	0xbe5d59d3	-0.21616296
140	0xbe0ef1d0	-0.13959432
141	0x3ebab19b	0.36463627
142	0xbdcd65dc	-0.10029194
143	0xbe3bf981	-0.18356897
144	0x3db801ba	0.08984704
145	0x3dd35613	0.10319152
146	0x3e2d88e6	0.16946754
147	0xbe9323dd	-0.287383
148	0xbec61150	-0.38685083
149	0xbce8fc1f	-0.028440533
150	0xbe754e90	-0.2395575
151	0xbea4ac4a	-0.32162696
152	0x3dc73405	0.09726719
153	0xbd2c5d22	-0.042081006
154	0xbeabd897	-0.33563682
155	0xbbe98b80	-0.0071272254
156	0xbef6a533	-0.48172912
157	0xbf2aea32	-0.66763604
158	0xbe9de17f	-0.30836102
159	0xbe81980f	-0.25311324
160	0xbec2aec4	-0.3802396
161	0xbea67e40	-0.32518196
162	0x3e07f863	0.13278346
163	0xbe961f98	-0.2932098
164	0xbd8d45ad	-0.06898055
165	0x3a9af3b8	0.0011821901
166	0xbe871b13	-0.26387843
167	0xbd8517c8	-0.064986765
168	0xbd190323	-0.037356507
169	0xbe638a25	-0.22220667
170	0xbe5a1510	-0.21297097
171	0x3db345ea	0.087535694
172	0xbe93857e	-0.28812784
173	0xbd1d8118	-0.03845319
174	0xbd7238a7	-0.05913606
175	0xbe43a946	-0.19107541
176	0xbe174c2a	-0.14775148
177	0x3dc00dc2	0.09377624
178	0xbc8365d0	-0.016039759
179	0x3e669b45	0.22520168
180	0x3d610ac5	0.05494191
181	0xbd3e1fe9	-0.04641715
182	0x3c6bbc03	0.014388087
183	0xbc2f2ebf	-0.0106922975
184	0xbcedd4d0	-0.029032141
185	0xbc98ac3c	-0.018636815
186	0x3d44941e	0.047992818
187	0x3cccbe80	0.024993181
188	0x3d65a505	0.056065578
189	0xbd801069	-0.0625313
190	0xbda31568	-0.07963067
191	0x3c4e9886	0.012609607
192	0xbc6f50a5	-0.0146066295
193	0xbdc7f76d	-0.097639896
194	0xbe593c9c	-0.21214527
195	0x3d114fcf	0.035476502
196	0xbea0496b	-0.31306013
197	0xbe89f93d	-0.26947966
198	0x3d9104a7	0.070809655
199	0x3cd6b54e	0.0262095
200	0xbdc44b2b	-0.0958465
201	0xbc2bf82a	-0.010496179
202	0x3d96dfae	0.07366882
203	0x3d887a62	0.06663968
204	0x3db2c75a	0.087294295
205	0x3d95926e	0.0730332
206	0x3dc52abf	0.09627294
207	0x3e162742	0.14663413
208	0x3e4547b7	0.19265638
209	0xbdd6bb86	-0.10484986
210	0x3e78359c	0.242392
211	0x3e05e5fc	0.13076013
212	0xbe50a565	-0.20375593
213	0x3e6d9226	0.23200282
214	0xbcd71af4	-0.02625797
215	0xbc76c0e5	-0.015060638
216	0xbea780f8	-0.32715583
217	0x3e89d58b	0.26920733
218	0xbcff5f2f	-0.031173317
219	0xbdcbc874	-0.09950343
220	0xbf3bd323	-0.73369044
221	0x3f56b231	0.8386565
222	0xbd376d9f	-0.044782277
223	0x3e857cfb	0.26071915
224	0x3e43875b	0.19094603
225	0x3e247f61	0.16064216
226	0x3e639b88	0.22227299
227	0xbdebb079	-0.11508269
228	0x3ec797ba	0.38982946
229	0xbb71f7bd	-0.0036921345
230	0x3f02cfcf	0.5109834
231	0x3ca22f96	0.019798081
232	0x3edaf725	0.4276668
233	0x3da3f494	0.08005634
234	0x3d752e36	0.059858523
235	0xbe8a678d	-0.27032128
236	0x3d22997d	0.03969716
237	0x3d6fe7a8	0.058570534
238	0x3ee0cd0c	0.43906438
239	0xbf3527af	-0.7076368
240	0x3c97a551	0.018511446
241	0x3e6f9998	0.23398435
242	0x3e48b713	0.19601087
243	0x3db7e63c	0.089794606
244	0x3ea359a3	0.31904325
245	0xbdc23e6a	-0.09484561
246	0xbf146a88	-0.57975054
247	0xbf9572db	-1.1675676
248	0xbefe20ea	-0.49634486
249	0x3dd852ff	0.10562705
250	0xbea3b537	-0.31974193
251	0xbced9de5	-0.029005954
252	0x3ce7538c	0.02823808
253	0x3dc21155	0.09475962
254	0xbc3cf6f8	-0.011533491
255	0xbd916f34	-0.071012884

block1.0.bn2_2.weight f4 [8]
0	0x3f1a313b	0.6023137
1	0xbee53287	-0.44765112
2	0x3f379474	0.71710896
3	0xbf4beadb	-0.79655236
4	0x3ef2ad2c	0.47397745
5	0x3f4a4d05	0.7902377
6	0x3f30445c	0.6885431
7	0x3eecf59c	0.46281135

block1.0.bn2_2.bias f4 [8]
0	0x3ecee164	0.40406334
1	0x3f7074b5	0.9392808
2	0x3e8d91b0	0.27650213
3	0x3ea623ce	0.32449192
4	0x3ee2aae1	0.44270995
5	0x3f2c4a17	0.6730055
6	0xbe7f66fc	-0.24941629
7	0x3fae6f37	1.362769

block1.0.bn2_2.running_mean f4 [8]
0	0x3e0f9bc6	0.14024267
1	0xc036067d	-2.844146
2	0xc038bcfd	-2.886535
3	0xbfcf9944	-1.6218648
4	0xbf80e38a	-1.006944
5	0xbf03035e	-0.5117701
6	0xbe404bbd	-0.18778892
7	0xbd605198	-0.054765314

block1.0.bn2_2.running_var f4 [8]
0	0x40287444	2.6320963
1	0x405b8b8d	3.4303925
2	0x408dec2e	4.4350805
3	0x40febafd	7.9603257
4	0x3facff81	1.3515474
5	0x40a66abd	5.2005296
6	0x403f5911	2.9898112
7	0x408add3f	4.3395076

block1.0.conv3_1.weight f4 [2, 16, 1, 1]
0	0x3e9dab37	0.3079469
1	0x3f1a96b6	0.60386217
2	0x3e168f2c	0.14703053
3	0xbd45aa3f	-0.048258062
4	0x3ee07385	0.43838134
5	0x3f4f03dc	0.80865264
6	0x3ec500a9	0.38477066
7	0x3e9a5653	0.30143985
8	0xbde11b7c	-0.1099157
9	0x3e29b196	0.1657165
10	0x3be90341	0.0071109836
11	0x3da2a67d	0.07941911
12	0x3ee0ccdd	0.43906298
13	0x3ebd3874	0.36957133
14	0xbd9d4043	-0.076782726
15	0x3ec8f395	0.39248338
16	0x3e0769d0	0.13223958
17	0xbe8094bf	-0.25113484
18	0xbf8bee9c	-1.0932193
19	0xbdeb7cf6	-0.11498444
20	0x3e27cdf2	0.16387156
21	0x3f14b0a7	0.5808205
22	0x3d245841	0.040123228
23	0x3d2ecf6e	0.04267829
24	0x3d00bc09	0.031429324
25	0x3d692032	0.05691547
26	0xbb0cc878	-0.0021481793
27	0xbc069cd7	-0.0082161045
28	0x3e0be9bd	0.13663383
29	0x3bdd21e6	0.006748426
30	0x3e795209	0.243477
31	0xbebd5d51	-0.36985257

block1.0.bn3_1.weight f4 [2]
0	0x3f6cc14d	0.92482454
1	0x3eff2efd	0.49840537

block1.0.bn3_1.bias f4 [2]
0	0xbf0d081e	-0.5509051
1	0x3f209de2	0.6274091

block1.0.bn3_1.running_mean f4 [2]
0	0x40950296	4.6565657
1	0xbf174350	-0.59087086

block1.0.bn3_1.running_var f4 [2]
0	0x4001dfce	2.029285
1	0x3fbef287	1.4917763

block1.0.conv3_2.weight f4 [2, 2, 5, 5]
0	0xbe5f783d	-0.21823211
1	0x3e31bad8	0.17356431
2	0x3d854ce0	0.06508803
3	0xbe4f475f	-0.2024207
4	0xbd2a8932	-0.041634746
5	0xbeca054b	-0.39457163
6	0x3dfa38b6	0.12217848
7	0xbebdda7d	-0.37080756
8	0xbc8491ce	-0.016182806
9	0xbe23c2a7	-0.15992223
10	0x3e8dd0f0	0.2769847
11	0x3e9a6a92	0.30159432
12	0xbd92ea19	-0.07173557
13	0x3ec7dcc4	0.39035618
14	0x3ecc9ce1	0.3996344
15	0x3de67674	0.11253062
16	0x3e350f81	0.17681696
17	0xbb8dbae0	-0.0043252558
18	0x3e9496b2	0.2902122
19	0x3dfb5afa	0.12273212
20	0xbe33e9d4	-0.17569667
21	0x3cfa0a5c	0.030522518
22	0x3d753ad0	0.05987054
23	0x3d6af2dd	0.05736052
24	0xbd9d8d34	-0.07692948
25	0x3d667d83	0.05627204
26	0x3e0e6ca0	0.13908625
27	0x3e7321c8	0.23743355
28	0xbd5beeef	-0.05369466
29	0xbc6460fb	-0.013939138
30	0x3e04bd10	0.12962747
31	0xbe5b67a1	-0.2142625
32	0xbf1ea612	-0.61972153
33	0xbe384aad	-0.17997237
34	0xbb453bb6	-0.0030095405
35	0x3e0ecc01	0.13945009
36	0xbe8ac859	-0.27105978
37	0x3eabf4a0	0.33585072
38	0xbe2ea44d	-0.17054863
39	0xbecc0f20	-0.3985529
40	0x3c9fa3ff	0.01948738
41	0xbe02695d	-0.12735505
42	0xbe19a349	-0.15003695
43	0xbe41e045	-0.18933208
44	0x3d7a8249	0.061159406
45	0x3db4ca86	0.08827691
46	0x3dcd259b	0.10016938
47	0xbddf2d18	-0.10897273
48	0xbe5d0383	-0.21583371
49	0xbe114af0	-0.14188743
50	0xbe0a885b	-0.13528578
51	0xbe3d5122	-0.18487981
52	0xbe0c31c9	-0.13690867
53	0x3d44335e	0.04790055
54	0xbd7171af	-0.058946308
55	0xbd1ae02b	-0.03781144
56	0xbed65777	-0.41863605
57	0xbe490d2f	-0.19633935
58	0xbedd0e21	-0.43174842
59	0xbdbec041	-0.09314013
60	0xbdef65fd	-0.116893746
61	0xbea8f137	-0.32996532
62	0xbe63ec47	-0.22258101
63	0xbde940ab	-0.113892876
64	0x3d6664ee	0.056248598
65	0xbe38a528	-0.18031752
66	0xbe8d5d75	-0.27610365
67	0x3d475d46	0.048672937
68	0xbe530f87	-0.20611392
69	0x3d7584f8	0.059941262
70	0x3c45730b	0.012051354
71	0xbe1f8bf6	-0.15580735
72	0xbe35d3be	-0.17756554
73	0xbdd4b716	-0.10386483
74	0xbe1604e7	-0.14650308
75	0xbda6e308	-0.081487715
76	0x3da55981	0.08073712
77	0xbdd5b6fc	-0.10435292
78	0xbd3893c0	-0.04506278
79	0x3e604a25	0.21903284
80	0x3df813c1	0.12113143
81	0x3ed52ec6	0.41637248
82	0x3ee0431b	0.43801197
83	0xbd7badb0	-0.06144494
84	0x3d00f356	0.031482063
85	0x3e28767b	0.16451447
86	0x3f34c2d6	0.70609796
87	0xbf1b6a27	-0.6070885
88	0xbec8d79f	-0.39227006
89	0x3eac0d73	0.3360401
90	0x3ec32791	0.38116124
91	0x3f1fbe0e	0.62399375
92	0xbe02db91	-0.1277907
93	0xbe7e3518	-0.24824941
94	0xbd180ece	-0.037123494
95	0x3e22a50e	0.15883276
96	0x3e1c7c5d	0.15281816
97	0x3e127b08	0.14304745
98	0xbd4b9470	-0.049702108
99	0x3cc6e5f3	0.02427957

block1.0.bn3_2.weight f4 [2]
0	0x3ebe3103	0.37146768
1	0x3ed34eb4	0.41270983

block1.0.bn3_2.bias f4 [2]
0	0x3f13ba63	0.5770628
1	0x3f36c618	0.7139602

block1.0.bn3_2.running_mean f4 [2]
0	0xbf3b2f1e	-0.7311877
1	0x3f398d2e	0.7248105

block1.0.bn3_2.running_var f4 [2]
0	0x3f07e4db	0.5308358
1	0x3f88a5b6	1.0675571

block1.0.conv4_1.weight f4 [2, 16, 1, 1]
0	0xbdcf66f0	-0.10127056
1	0xbdf8f0cd	-0.12155304
2	0x3d381641	0.044943098
3	0xbdd3d9c5	-0.103442706
4	0x3d1631c9	0.036668573
5	0xbd8c1db5	-0.06841604
6	0x3ceef417	0.029169125
7	0x3cab5041	0.020912291
8	0x3b966567	0.004589725
9	0x3d835edb	0.064145766
10	0x3d35343e	0.044239275
11	0xbd5aedae	-0.053449325
12	0x3bc679a9	0.0060569835
13	0xbd483b28	-0.04888454
14	0xbda4389d	-0.080186106
15	0x3a305d36	0.00067277567
16	0xbf41d482	-0.75714886
17	0xbe84cb7f	-0.25936505
18	0xbf43b1b3	-0.7644302
19	0xbf1d18c0	-0.6136589
20	0xbe10a1af	-0.14124177
21	0x3e005a1e	0.12534377
22	0x3eae7dc5	0.3408033
23	0x3db6cc75	0.08925716
24	0xbfbc24c0	-1.4698715
25	0x3ea68d28	0.3252957
26	0xbd9f60d4	-0.077821404
27	0xbda69dec	-0.0813559
28	0x3cb27264	0.021783061
29	0xbdf96244	-0.12176946
30	0x3c0859d5	0.008322199
31	0x3f2cbfb1	0.6748

block1.0.bn4_1.weight f4 [2]
0	0x3c9c93b7	0.019113405
1	0x3f2f60ae	0.68506896

block1.0.bn4_1.bias f4 [2]
0	0xbda9b1bf	-0.082858555
1	0x3f0aa1ae	0.54152954

block1.0.bn4_1.running_mean f4 [2]
0	0xbf230a49	-0.6368757
1	0xc0bce8b9	-5.9034085

block1.0.bn4_1.running_var f4 [2]
0	0x3d35ca7f	0.04438257
1	0x3ff8e7ce	1.9445741

block1.1.conv1_1.weight f4 [4, 16, 1, 1]
0	0xbf6bc8b0	-0.921031
1	0x3e18d5a5	0.14925249
2	0xc0140393	-2.3127182
3	0xbf1774c7	-0.59162563
4	0x3e6c2a83	0.23063092
5	0xbf1a3f4a	-0.6025282
6	0x3dd6c3db	0.10486575
7	0x3f7b16cf	0.9808168
8	0x3ec2a021	0.38012794
9	0x3f2fd394	0.6868222
10	0x3f18fec9	0.5976377
11	0xbf2f5d65	-0.68501884
12	0xbed024fc	-0.40653217
13	0x3e6c249b	0.23060839
14	0xbc024914	-0.0079519935
15	0xbc3948ac	-0.01130883
16	0x3e2b60f3	0.16736202
17	0x3e4d52b1	0.20051076
18	0xbecd73c7	-0.40127394
19	0x3fd7f194	1.6870599
20	0x3f3ae287	0.73001903
21	0x3d88ed07	0.066858344
22	0xbd1e2c0a	-0.038616218
23	0xbe796d85	-0.24358185
24	0xbefcb580	-0.49357224
25	0x3e817812	0.2528692
26	0x3e2a3375	0.16621192
27	0xbe8e9e3e	-0.27855104
28	0x3e190399	0.14942779
29	0xbf2b12bb	-0.66825455
30	0xbe1e3232	-0.15448835
31	0x3e21a295	0.15784676
32	0x3f07e374	0.5308144
33	0x3e3414ab	0.17586009
34	0x3f871bf2	1.0555403
35	0xbdadd68a	-0.08488186
36	0x3dea177a	0.11430259
37	0xbdb5699e	-0.088580355
38	0x3ea4ee7c	0.322132
39	0xbed0b94a	-0.40766364
40	0x3e6376cb	0.22213285
41	0xbeb60a6a	-0.3555482
42	0xbe59bc47	-0.21263228
43	0x3e0027ec	0.12515229
44	0xbd14bae5	-0.03631105
45	0xbc76e6d3	-0.015069681
46	0xbc800dc4	-0.015631564
47	0x3e3628e2	0.17789033
48	0xbf8256a2	-1.0182688
49	0xbf06db7d	-0.5267866
50	0xbe41bc2e	-0.18919441
51	0xbf1fce99	-0.6242462
52	0xbf2e98be	-0.68201816
53	0xbf2a6015	-0.6655286
54	0x3d073d7e	0.033017628
55	0xbe0f5c7d	-0.14000125
56	0x3e95ebd5	0.29281488
57	0xbf91dcb0	-1.1395473
58	0xbd037972	-0.03209824
59	0x3ec9b5ac	0.39396417
60	0x3e59cdcd	0.21269913
61	0xbd5d8345	-0.054080267
62	0x3dc012f0	0.09378612
63	0x3ef6d7b1	0.48211434

block1.1.bn1_1.weight f4 [4]
0	0x3fa1cc88	1.2640543
1	0x3f3a231e	0.72709835
2	0x3fabdfd8	1.3427687
3	0x3f203668	0.6258302

block1.1.bn1_1.bias f4 [4]
0	0x4006682a	2.1001077
1	0x3f61b4c0	0.8816643
2	0xbf4ad8ce	-0.7923707
3	0x3fb996be	1.4499128

block1.1.bn1_1.running_mean f4 [4]
0	0xc0ffdda8	-7.9958076
1	0x40747307	3.8195207
2	0x4040e0c6	3.013719
3	0xc09c9755	-4.893473

block1.1.bn1_1.running_var f4 [4]
0	0x41841052	16.507969
1	0x400d3672	2.206448
2	0x404301f8	3.0469952
3	0x401f7a20	2.491829

block1.1.conv2_1.weight f4 [8, 16, 1, 1]
0	0xbcc7dcd8	-0.024397299
1	0xbea7b2eb	-0.3275369
2	0xbe26c7fa	-0.16287223
3	0xbd6c86e7	-0.05774584
4	0xbec9d254	-0.3941828
5	0xbf14f1a7	-0.5818123
6	0x3f1aa031	0.6040068
7	0xbf8964e5	-1.0733916
8	0x3ecbc6ed	0.39800206
9	0xbe9cdd59	-0.30637625
10	0x3b1b5fa5	0.0023708132
11	0xbe8fe51f	-0.28104493
12	0xbec3abd2	-0.38217026
13	0x3cb60e1a	0.022223521
14	0xbdc4050e	-0.095712766
15	0xbe87f6cb	-0.26555476
16	0xbf93719f	-1.151905
17	0x40147e25	2.3201993
18	0x3eef6d38	0.46763015
19	0xbe88e08d	-0.2673382
20	0x3e7a5a5d	0.24448533
21	0xbd25c7ac	-0.040473625
22	0xbe8a5396	-0.27016896
23	0xbdf40a08	-0.11915976
24	0xbe16b8d7	-0.14718948
25	0xbe505f98	-0.20348966
26	0xbe9e45a7	-0.30912516
27	0x3eed6006	0.46362323
28	0xbdf405d9	-0.11915178
29	0x3ddb2810	0.10701001
30	0x3d0bd861	0.034141902
31	0x3f0ba7e6	0.5455307
32	0x3ece22d5	0.4026095
33	0xbe5e12da	-0.21686879
34	0x3f1bebec	0.60906863
35	0xbf4487d3	-0.7676975
36	0x3d3198db	0.043358665
37	0xbedcf8fc	-0.4315871
38	0xbdf1b751	-0.11802543
39	0xbea407d9	-0.32037237
40	0x3d2ccce8	0.0421876
41	0xbe8e381a	-0.27777177
42	0x3f00ce73	0.50315017
43	0x3f2d0b22	0.6759511
44	0xbe252909	-0.16128935
45	0x3dddbdcd	0.10827217
46	0xbdc6f286	-0.097142264
47	0xbd923b60	-0.07140231
48	0x3e163874	0.14669973
49	0x3dc5e252	0.09662308
50	0xbd8ffba5	-0.07030419
51	0xbd6ce60e	-0.057836585
52	0xbceb1213	-0.028695142
53	0x3c83390f	0.016018419
54	0xbe3d1cde	-0.18468043
55	0xbca8a69a	-0.020587254
56	0x3d823c03	0.063591026
57	0x3e45ee4f	0.19329189
58	0xbcc490ae	-0.02399477
59	0xbe3412e8	-0.17585337
60	0xbc68ffd7	-0.014221153
61	0x3dc49d62	0.09600331
62	0xbbf67574	-0.0075213257
63	0xbafaa5e4	-0.0019122926
64	0x3e493001	0.19647218
65	0x3e783e4d	0.24242516
66	0x3d718813	0.05896766
67	0x3e284a1b	0.16434519
68	0xbd2daee7	-0.042403128
69	0x3df4a615	0.1194574
70	0x3dc68603	0.096935295
71	0x3dbbf6e4	0.0917795
72	0x3cb5dbbd	0.022199506
73	0x3eb9acf0	0.36264753
74	0x3e8d2586	0.2756769
75	0xbe600b79	-0.21879376
76	0x3dcaa8ec	0.098955005
77	0xbe9b663b	-0.30351433
78	0xbdf7a0e0	-0.12091231
79	0xbe1e0158	-0.154302
80	0x3f1a3b4b	0.60246724
81	0xbe226966	-0.15860519
82	0xbf0aada9	-0.54171234
83	0xc00fcc59	-2.2468474
84	0x3ec825f4	0.39091456
85	0xbebdddf3	-0.37083396
86	0x3df78dbf	0.12087583
87	0xbd834cc8	-0.06411129
88	0x3b25815e	0.002525411
89	0xbe09e22c	-0.13465184
90	0x3e1805f7	0.14846025
91	0x3f3c167d	0.73471814
92	0xbf2583a7	-0.6465401
93	0x3f262c9c	0.6491182
94	0x3e22ad76	0.15886483
95	0xbcd80aa7	-0.026372267
96	0x3d1c68f1	0.038186017
97	0xbde44422	-0.11145808
98	0x3e4b2e84	0.19841963
99	0x3e61289d	0.21988149
100	0xbd505a93	-0.05086763
101	0xbc0f9e85	-0.008765821
102	0xbdb26cc8	-0.087121546
103	0x3d433431	0.047657195
104	0x3d9159e1	0.07097221
105	0x3dfd7684	0.12376121
106	0x3d8315d6	0.06400649
107	0xbdb4bad1	-0.08824695
108	0x3d33b650	0.04387504
109	0xbd523214	-0.05131729
110	0xbd8454f9	-0.0646152
111	0xbe03367b	-0.12813751
112	0x3d8a2dac	0.067469925
113	0x3de9c57e	0.11414622
114	0x3d1cf987	0.038323905
115	0xbd90dd60	-0.07073474
116	0xbdc6a259	-0.09698934
117	0x3d839982	0.06425764
118	0x3dd462d3	0.10370412
119	0xbe668671	-0.22512223
120	0xbe5cdfd6	-0.21569762
121	0xbd41d188	-0.047318965
122	0x3e06b670	0.13155532
123	0x3d93b09a	0.072114184
124	0xbdf3a11b	-0.11895963
125	0xbc428770	-0.011873111
126	0xbd370ff9	-0.044692967
127	0xbda8ff94	-0.08251873

block1.1.bn2_1.weight f4 [8]
0	0x3f1d42a3	0.61429805
1	0x3f4df48a	0.8045126
2	0x3f8c8bef	1.0980204
3	0x3cc4e8c0	0.024036765
4	0x3ef5f052	0.48034912
5	0x3f823642	1.0172808
6	0x3cd17076	0.02556632
7	0x3c0c6a5d	0.008570281

block1.1.bn2_1.bias f4 [8]
0	0x3e70ea23	0.23526816
1	0x3fb3a8e4	1.4035916
2	0xbed784ae	-0.42093414
3	0xbe27870c	-0.1636011
4	0xbe4fbd36	-0.20287022
5	0x3fa74726	1.3068588
6	0xbdd9b972	-0.10631074
7	0xbd5ecd04	-0.054394737

block1.1.bn2_1.running_mean f4 [8]
0	0xc02b7e53	-2.6795852
1	0x3fb563cd	1.4171082
2	0xbe6ad48b	-0.22932641
3	0xbdcee2d9	-0.101018615
4	0x3f836540	1.0265274
5	0xc0b61226	-5.6897154
6	0x3f5c7de6	0.86129606
7	0xbde0e86c	-0.10981831

block1.1.bn2_1.running_var f4 [8]
0	0x3f927a49	1.1443568
1	0x40b870b1	5.7637563
2	0x3ff69a13	1.926577
3	0x3d422123	0.047394883
4	0x3e69d8db	0.2283663
5	0x404f9430	3.2434196
6	0x3e1fa4b8	0.15590179
7	0x3d0128ed	0.03153317

block1.1.conv2_2.weight f4 [8, 8, 3, 3]
0	0xbd57f55a	-0.05272422
1	0xbea0cdc3	-0.31406984
2	0x3e128926	0.1431013
3	0xbf17ffc1	-0.59374624
4	0xbef82a84	-0.48469937
5	0x3d02d69c	0.03194295
6	0xbe2735ae	-0.16329071
7	0x3e38f4fe	0.18062207
8	0x3d391c65	0.045193095
9	0xbd47fc9d	-0.048824895
10	0x3d0e95f8	0.03481099
11	0xbeadb681	-0.33928302
12	0x3e63a9e2	0.22232774
13	0x402baddb	2.6824863
14	0x3ebd43a0	0.36965656
15	0xbc401091	-0.0117227
16	0x3e8fb9b9	0.28071383
17	0x3eac01e9	0.33595207
18	0xbe2f13d7	-0.17097412
19	0xbdff6deb	-0.12472137
20	0xbddbf707	-0.10740476
21	0xbee3878e	-0.44439358
22	0x3eaed865	0.3414947
23	0xbebf4a1c	-0.37361228
24	0x3c919bd4	0.0177745
25	0xbc803f08	-0.015655056
26	0xbd393c40	-0.045223475
27	0x3e35ee1e	0.17766616
28	0x3dd3a866	0.10334854
29	0x3bfa2503	0.0076338067
30	0x3e1ffc95	0.15623696
31	0x3da76604	0.08173755
32	0x3d04f81c	0.032463178
33	0x3e8cbe83	0.274891
34	0x3db2f6b9	0.08738465
35	0xbb5073be	-0.003180727
36	0xbe730b34	-0.23734742
37	0xbc022407	-0.00794316
38	0xbada7c91	-0.0016669204
39	0x3d5fb6f4	0.054617837
40	0x3e09ddd5	0.13463528
41	0x3e83267b	0.25615296
42	0x3d17ca99	0.037058447
43	0x3e273da4	0.16332108
44	0x3def2a55	0.11677996
45	0x3eea4b44	0.45760548
46	0xbef0229c	-0.46901405
47	0xbc87b460	-0.016565502
48	0xbf511245	-0.816685
49	0x3fc29ca1	1.5204049
50	0xbf1aa15d	-0.6040247
51	0xbc2d2e44	-0.010570113
52	0xbec2ec9c	-0.38071144
53	0xbe464b77	-0.19364725
54	0xbcf3ad25	-0.029745648
55	0xbbb2c13f	-0.0054551656
56	0x3d00c04f	0.0314334
57	0x3d55bb18	0.05218038
58	0x3d89993e	0.06718682
59	0x3b458a07	0.0030142085
60	0x3d2f3f84	0.042785183
61	0x3d71f14e	0.059068017
62	0x3dba022d	0.09082446
63	0x3c47f2ba	0.012203867
64	0x3daa253a	0.08307882
65	0xbcf887dd	-0.030338222
66	0xbd662684	-0.056189075
67	0xbc234cc1	-0.00996703
68	0xbdc196c5	-0.09452585
69	0xbc6a3f22	-0.014297279
70	0xbdc6f9e7	-0.09715634
71	0xbd5b2722	-0.053504117
72	0xbe68acad	-0.2272212
73	0xbe948e40	-0.29014778
74	0xbe10a013	-0.14123563
75	0x3d5aa015	0.053375322
76	0x3c7f94f6	0.01559948
77	0x3dad7556	0.08469646
78	0x3cb109f2	0.021611188
79	0x3d397eca	0.04528693
80	0x3dc55047	0.09634452
81	0xbe87446d	-0.26419392
82	0xbe8d9e6c	-0.2765993
83	0x3e218fcc	0.1577751
84	0x3d21def4	0.039519265
85	0xbea3b30a	-0.31972533
86	0x3cf24f91	0.029578956
87	0x3d2b1393	0.041766714
88	0x3e446137	0.1917771
89	0xbe00e830	-0.12588573
90	0x3eaab2aa	0.33339435
91	0x3f052521	0.5200978
92	0x3e2269c7	0.15860663
93	0x3e29a4ce	0.16566774
94	0xbeb715c5	-0.35758796
95	0xbe31b47f	-0.1735401
96	0xbd218faf	-0.039443668
97	0xbf01ceb4	-0.5070603
98	0xbde2241f	-0.11042046
99	0xbd818368	-0.06323892
100	0xbd2b7c08	-0.041866332
101	0x3d2e690e	0.042580657
102	0xbdbca518	-0.09211177
103	0xbd2f19c8	-0.042749196
104	0xbd079e29	-0.033109818
105	0x3dd1da99	0.10246772
106	0x3dc447bd	0.095839955
107	0x3d44e06d	0.04806559
108	0x3dc930b1	0.0982374
109	0xbdf384e9	-0.11890585
110	0xbdeb0933	-0.11476364
111	0x3ce91384	0.028451689
112	0x3e098cbe	0.13432595
113	0xbd314af9	-0.04328439
114	0x3dad29f7	0.0845527
115	0x3cb08184	0.021546133
116	0x3d06475e	0.032782905
117	0x3e9c08be	0.3047542
118	0x3f956d0f	1.1673907
119	0x3edff6a1	0.4374285
120	0x3e368406	0.178238
121	0xbf58f820	-0.8475361
122	0xbeb6b654	-0.3568598
123	0xbee05cdc	-0.43820846
124	0xbe978d80	-0.29600143
125	0xbf0a8934	-0.54115605
126	0x3d6154a8	0.055012375
127	0xbac6b41f	-0.0015159881
128	0x3bda89b0	0.0066692457
129	0xba2dce8a	-0.0006630203
130	0x3d7e7ba5	0.062129635
131	0x3d882dde	0.066493735
132	0xbb97239e	-0.0046124
133	0xbdc19c38	-0.094536245
134	0x3c814bc1	0.015783193
135	0xbcd8145d	-0.026376897
136	0xbd3488ed	-0.044075895
137	0x3d00cbe8	0.03144446
138	0x3dd79d14	0.10528007
139	0x3cafc63e	0.021456834
140	0xbced2668	-0.028948978
141	0x3d95f8d6	0.07322852
142	0x3e183356	0.14863333
143	0xbafb3a47	-0.0019167148
144	0xbca5a567	-0.020220472
145	0xbda92314	-0.08258644
146	0x3d755508	0.059895545
147	0xbe041101	-0.12897111
148	0xbe7b454f	-0.24538158
149	0x3dc8f4d0	0.09812319
150	0x3e87cf2c	0.26525247
151	0x3d6b606d	0.057465006
152	0xbcfd9004	-0.030952461
153	0x3e353f35	0.17699893
154	0xbe1d6183	-0.15369229
155	0xbea5a01b	-0.32348713
156	0x3dd6834b	0.10474261
157	0x3ee44d01	0.4459
158	0xbe5ef370	-0.21772552
159	0x3e03200a	0.1280519
160	0x3f46063c	0.7735326
161	0x3e7c396b	0.24631278
162	0xbe880427	-0.26565668
163	0x3f2e7c59	0.6815849
164	0x3d88a407	0.06671911
165	0xbe982ba7	-0.29720804
166	0x3f0a9f79	0.54149586
167	0x3f0981e0	0.537138
168	0xbe9c2159	-0.30494192
169	0xbebd209a	-0.36938936
170	0xbd553679	-0.052053902
171	0x3cc1371c	0.023585849
172	0x3cb8b635	0.02254782
173	0xbd185d6d	-0.037198473
174	0xbd9c7971	-0.076403506
175	0x3ceef3b2	0.029168937
176	0x3c6332a3	0.013867053
177	0xbb27e394	-0.0025617825
178	0x3ce2be9b	0.027678778
179	0x3ca663a6	0.020311188
180	0x3cca5b65	0.024701783
181	0x3cceacc6	0.02522887
182	0x3df99736	0.12187044
183	0x3c98d61f	0.018656788
184	0x3c8efe26	0.017455172
185	0xbd98b97f	-0.074572556
186	0xbcef947a	-0.029245604
187	0x3d68c261	0.056826
188	0xbced3e7c	-0.028960459
189	0xbe2207da	-0.15823308
190	0x3f09a333	0.5376465
191	0x3e2b526e	0.16730663
192	0xbec215fe	-0.37907404
193	0xbe8f4c46	-0.2798788
194	0x3f2a282e	0.6646756
195	0xbeae46ce	-0.34038395
196	0xbf7c53a1	-0.9856511
197	0xbd7dfe1f	-0.062009927
198	0x3dbcec64	0.092247754
199	0x3e0076a1	0.12545253
200	0x3dff0acc	0.12453231
201	0x3c1f4695	0.009721418
202	0x3cecbfc6	0.028900038
203	0x3daf198a	0.08549793
204	0x3daad9ae	0.083423
205	0x3d3043ae	0.043033294
206	0x3cdc727a	0.026910055
207	0x3cb369d2	0.021901045
208	0xbc40671b	-0.011743332
209	0xbd58a65a	-0.05289302
210	0x3a88c98c	0.0010436042
211	0x3d88b13c	0.0667443
212	0xbd5a704f	-0.053329762
213	0xbd98d60e	-0.07462703
214	0xbcb23f5f	-0.021758733
215	0xbca54b5f	-0.020177541
216	0xbd58e12c	-0.052949116
217	0xbec95374	-0.39321482
218	0xbd41d0f5	-0.047318418
219	0xbe0bb7f0	-0.13644385
220	0xbe2e47a5	-0.17019518
221	0x3a2cc3d2	0.0006590459
222	0xbd05fcf7	-0.03271195
223	0xbe7fb49a	-0.24971238
224	0xbd8b105e	-0.06790231
225	0xbe1d2e4b	-0.1534969
226	0x3cb15dde	0.021651205
227	0x3e21c865	0.157991
228	0x3e5a2a10	0.21305108
229	0x3f4d9cbe	0.80317295
230	0x3eb71796	0.35760182
231	0x3c3bd1c1	0.011463583
232	0x3ed4c540	0.4155674
233	0x3d8c34c1	0.068459995
234	0xbe364445	-0.1779948
235	0xbcb7cf36	-0.022437673
236	0xbdfed7c4	-0.12443498
237	0x3e2ac8e7	0.166782
238	0x3f404f59	0.75121075
239	0x3e52b917	0.20578419
240	0x3d9c3f12	0.07629217
241	0x3eafa036	0.3430192
242	0x3d96030e	0.073248014
243	0xbd259100	-0.040421486
244	0x3de75fa4	0.11297539
245	0x3d93613c	0.0719628
246	0xbe07cf95	-0.1326278
247	0xbcd231a9	-0.025658445
248	0x3d3aa909	0.04557136
249	0xbc56a085	-0.013099794
250	0x3dbb3cb1	0.09142435
251	0x3dc8fb54	0.09813562
252	0xbdeba0f0	-0.11505306
253	0xbcb62023	-0.02223212
254	0x3daad8ba	0.083421186
255	0xbdcdbf1a	-0.10046215

block1.1.bn2_2.weight f4 [8]
0	0x3f37cb30	0.71794415
1	0x3f39bf58	0.7255759
2	0x3f5b5bd3	0.8568699
3	0x3f3924ee	0.72321975
4	0x3f31b999	0.69423825
5	0x3f0ffa07	0.56240886
6	0x3f407615	0.7518018
7	0x3f216a74	0.6305306

block1.1.bn2_2.bias f4 [8]
0	0x3fd8920a	1.6919568
1	0xbc96699e	-0.01836091
2	0xbe12b464	-0.14326626
3	0xbde6ee11	-0.11275876
4	0x3f12dce5	0.5736831
5	0x3e0b168e	0.13582823
6	0x3c4beb17	0.0124461865
7	0xbe372559	-0.17885341

block1.1.bn2_2.running_mean f4 [8]
0	0x4067e6b3	3.6234558
1	0xbfaf7e77	-1.3710469
2	0x3ef75962	0.4831038
3	0x4087d979	4.245297
4	0x3ead4278	0.33839774
5	0xbfa0363f	-1.2516555
6	0xbf838a0f	-1.0276507
7	0xbfd79b2b	-1.6844229

block1.1.bn2_2.running_var f4 [8]
0	0x4104f37e	8.309446
1	0x4015a383	2.338105
2	0x400503d3	2.0783584
3	0x408f12bb	4.4710364
4	0x401ae14b	2.4200008
5	0x3f4bcd33	0.79609984
6	0x403a20e3	2.9082572
7	0x3f6ff897	0.93738693

block1.1.conv3_1.weight f4 [2, 16, 1, 1]
0	0x3f51de8d	0.8198021
1	0x3c3c005c	0.011474695
2	0x3d2f3c3e	0.04278206
3	0xbf051cfc	-0.5199735
4	0x3e8d6183	0.27613458
5	0x3eb372a4	0.350484
6	0x3c91815f	0.017761884
7	0xbef50069	-0.47851875
8	0x3e128707	0.14309321
9	0x3f1af074	0.6052315
10	0xbdd7cd86	-0.10537247
11	0x3d41113b	0.047135573
12	0x3e24236c	0.16029137
13	0x3eb77cb3	0.35837325
14	0xbb6bbe06	-0.0035971417
15	0xbd9256b7	-0.07145446
16	0x3f101921	0.56288344
17	0xbe170e93	-0.14751653
18	0x3ec9ea8b	0.39436755
19	0xbbd83951	-0.0065986295
20	0x3e162a84	0.14664656
21	0xbe5e525c	-0.21711105
22	0x3c925756	0.01786391
23	0xbdaed593	-0.0853683
24	0xbcbec8de	-0.02328914
25	0xbcdb2435	-0.026750663
26	0xbd87a124	-0.06622532
27	0xbe022ae0	-0.12711668
28	0x3ece3ae5	0.40279308
29	0xbb84a40c	-0.004047876
30	0xbd01540c	-0.031574294
31	0xbe2b7018	-0.16741979

block1.1.bn3_1.weight f4 [2]
0	0x3e974e4f	0.29551932
1	0x3f3fabb5	0.7487138

block1.1.bn3_1.bias f4 [2]
0	0x3ed0f0e0	0.40808773
1	0xbf33dd71	-0.7025977

block1.1.bn3_1.running_mean f4 [2]
0	0x3f80126f	1.0005625
1	0x3fa27687	1.2692422

block1.1.bn3_1.running_var f4 [2]
0	0x3f050ee5	0.5197585
1	0x3f875854	1.0573831

block1.1.conv3_2.weight f4 [2, 2, 5, 5]
0	0xbe7e7b77	-0.24851786
1	0x3cec1e2c	0.02882298
2	0xbe476c84	-0.19474989
3	0x3d6255c0	0.05525756
4	0xbe0180ed	-0.12646838
5	0xbe3994d5	-0.18123181
6	0x3e18ec4a	0.14933887
7	0x3ecf72f0	0.40517378
8	0xbd874e0e	-0.066066846
9	0xbdbcb329	-0.092138596
10	0xbe2211d0	-0.15827107
11	0xbcaef473	-0.021356797
12	0xbd439fb5	-0.04775973
13	0xbe83349c	-0.25626075
14	0x3c81e3c3	0.015855676
15	0xbcd73934	-0.026272394
16	0xbe446e89	-0.19182791
17	0xbec0c237	-0.37648174
18	0xbf1c578c	-0.61071086
19	0xbe06f633	-0.13179855
20	0xbe17b555	-0.14815266
21	0x3d4515c4	0.04811646
22	0xbcbaab16	-0.022786658
23	0xbd357586	-0.044301532
24	0xbe822000	-0.2541504
25	0xbc04647a	-0.008080596
26	0x3e195dad	0.1497714
27	0x3dafa8b5	0.085771
28	0x3d235b8c	0.039882228
29	0xbcc0dd31	-0.023542972
30	0x3e339235	0.17536242
31	0x3deec523	0.116586946
32	0x3e1b4616	0.15163454
33	0x3df42400	0.11920929
34	0x3e179891	0.14804293
35	0xbcc55def	-0.024092643
36	0x3e3903af	0.18067811
37	0x3e762dae	0.24040863
38	0x3d437226	0.047716282
39	0xbd908803	-0.07057192
40	0xbd58897a	-0.052865483
41	0x3d882268	0.066471875
42	0x3df925f8	0.12165445
43	0x3de97f5d	0.11401246
44	0xbd987372	-0.074438944
45	0xbcc00c41	-0.023443343
46	0x3a401cc0	0.0007328503
47	0x3b859a56	0.004077236
48	0x3d182e43	0.037153494
49	0xbd93c981	-0.07216168
50	0xbd73a956	-0.059487663
51	0xbdd9f434	-0.10642281
52	0x3db90a1e	0.09035133
53	0x3ccca693	0.024981773
54	0xbd780295	-0.060549337
55	0xbda9e63b	-0.08295866
56	0xbe8edaf5	-0.27901426
57	0xbdf1fc58	-0.11815709
58	0xbe361720	-0.17782259
59	0xbec12fe2	-0.37731844
60	0x3e83e294	0.25758803
61	0x3e2108a5	0.15725954
62	0x3e88808e	0.2666058
63	0x3e602c51	0.21891905
64	0x3e0aa573	0.13539676
65	0xbe6b14b2	-0.22957113
66	0xbd33277c	-0.043738827
67	0x3e216c7d	0.15764041
68	0x3e015a58	0.1263212
69	0xbca9d1b7	-0.020729883
70	0xbdbe4809	-0.09291083
71	0xbde7dba8	-0.11321193
72	0x3cbd3d71	0.023100587
73	0x3d235282	0.039873607
74	0xbe031757	-0.12801872
75	0xbceae0e9	-0.028671699
76	0x3d68eb2d	0.056864906
77	0x3e160a8e	0.14652464
78	0x3e2ac89c	0.16678089
79	0xbcd84864	-0.026401706
80	0xbdb8151c	-0.08988401
81	0xbe099d53	-0.1343892
82	0xbdecf2f4	-0.11569777
83	0x3bb7ef39	0.0056132344
84	0xbe237c12	-0.15965298
85	0x3ede85c6	0.43461436
86	0x3e8942a7	0.26808664
87	0x3e9cec93	0.30649242
88	0x3ea047f6	0.31304902
89	0x3e312e59	0.17302836
90	0x3e5e0a9c	0.21683735
91	0x3d4c56e1	0.04988754
92	0x3dd60dd0	0.10451853
93	0x3e726366	0.2367073
94	0x3e081232	0.13288191
95	0x3ded1380	0.11575985
96	0x3d0804d5	0.033207733
97	0x3dd970ff	0.106172554
98	0x3dcf6dec	0.10128388
99	0x3cfbde3f	0.030745624

block1.1.bn3_2.weight f4 [2]
0	0x3ee90387	0.45510504
1	0x3f7cefb2	0.98803246

block1.1.bn3_2.bias f4 [2]
0	0x3ec79260	0.38978863
1	0xbf5e0b8a	-0.8673636

block1.1.bn3_2.running_mean f4 [2]
0	0xbf41078a	-0.7540213
1	0x3d7bdd98	0.061490625

block1.1.bn3_2.running_var f4 [2]
0	0x3e8273cf	0.2547898
1	0x3eb5ee9f	0.35533616

block1.1.conv4_1.weight f4 [2, 16, 1, 1]
0	0x3e402718	0.18764913
1	0xbe84bc8a	-0.25925094
2	0x3e938eba	0.2881983
3	0x3f11e5a2	0.56991017
4	0xbec19432	-0.37808377
5	0xbe5b8c8f	-0.21440338
6	0xbf89abc4	-1.0755544
7	0xbddd80f5	-0.10815612
8	0x3e1422aa	0.14466348
9	0x3c27b089	0.01023496
10	0xbd838c87	-0.06423288
11	0xbe678307	-0.22608577
12	0x3dcfc2e7	0.101445965
13	0xbf3b6045	-0.7319377
14	0xbd07de80	-0.033171177
15	0xbdb0b78f	-0.08628761
16	0xbda50036	-0.08056681
17	0xbe6f0654	-0.23342258
18	0x3e93e80a	0.2888797
19	0x3e395fa2	0.18102887
20	0xbd836ca8	-0.06417209
21	0xbf0df056	-0.5544485
22	0x3dae04b5	0.084969915
23	0xbd9507e0	-0.07276893
24	0x3f2cc3d8	0.67486334
25	0x3de1b44f	0.11020719
26	0x3eef6914	0.46759856
27	0x3e0321ed	0.1280591
28	0x3e3f545d	0.18684526
29	0x3eb7d6ab	0.35905966
30	0x3d709891	0.05873925
31	0x3fd04830	1.627203

block1.1.bn4_1.weight f4 [2]
0	0x3f7589fd	0.9591368
1	0x3f09198e	0.5355462

block1.1.bn4_1.bias f4 [2]
0	0xbe4225c4	-0.18959719
1	0x3f37618d	0.71633226

block1.1.bn4_1.running_mean f4 [2]
0	0x3e85407d	0.26025763
1	0x4057f488	3.3743

block1.1.bn4_1.running_var f4 [2]
0	0x3f891111	1.0708333
1	0x3f9e50ac	1.2368369

block1.2.conv1_1.weight f4 [4, 16, 1, 1]
0	0x3f129bf5	0.5726922
1	0xbecfe0cb	-0.4060119
2	0xbeb5c4a3	-0.35501584
3	0x3d289461	0.04115713
4	0x3fefbe14	1.8729882
5	0xbf0898f0	-0.53358364
6	0x3f164de8	0.58712626
7	0x3f12e9dc	0.5738809
8	0xbe84a9f1	-0.25910905
9	0x3eac2e49	0.33629063
10	0xbf5d290f	-0.86390775
11	0x3f07ea0d	0.5309151
12	0x3e17d147	0.14825927
13	0x3efde5d0	0.49589396
14	0xbe1170e2	-0.14203218
15	0x3f524357	0.82134
16	0xbceb8165	-0.028748224
17	0x3bd0b7c0	0.006369561
18	0xbd2651ac	-0.040605232
19	0x3daf3e8a	0.0855685
20	0x3d2bdf5b	0.041961055
21	0x3caba0bd	0.02095067
22	0xbdbd83da	-0.09253664
23	0x3e44e341	0.19227315
24	0x3c9e6a9f	0.01933795
25	0x3dc3b46c	0.09555897
26	0xbe0b199f	-0.13583992
27	0xbd8d2be7	-0.06893139
28	0x3c050066	0.008117771
29	0xbd5171fd	-0.0511341
30	0xbd55a18a	-0.05215601
31	0x3e2b7a9d	0.16745992
32	0x4031134a	2.7668023
33	0x3ed1921e	0.4093179
34	0xbeeb8558	-0.4600017
35	0xbe8de70c	-0.27715337
36	0xbe259539	-0.16170205
37	0xbde7218e	-0.11285697
38	0x3d5a5ff7	0.053314175
39	0x3e9f2285	0.31081024
40	0x3e015831	0.12631299
41	0x3e88bfaa	0.26708728
42	0x3ec7b491	0.3900495
43	0x3e3c0b47	0.18363677
44	0xbf09abaa	-0.53777564
45	0xbd965703	-0.07340815
46	0x3e0efb42	0.13963035
47	0x3dc72301	0.09723473
48	0xbe264cea	-0.16240278
49	0x3fa5f14b	1.2964262
50	0xbe975036	-0.29553384
51	0xbf256d10	-0.6461954
52	0x3d7ddcb4	0.061978057
53	0x3f2f4930	0.6847105
54	0x3ee628e5	0.44953075
55	0x3e6e82e5	0.2329212
56	0x3f8a7d9a	1.081958
57	0x3ebb04e3	0.36527166
58	0xbeee56f4	-0.46550715
59	0xbd19d227	-0.037553933
60	0x3d6ca264	0.057772055
61	0xbe8d52db	-0.27602276
62	0xbd7e8a7b	-0.062143784
63	0x3e1f74a6	0.15571842

block1.2.bn1_1.weight f4 [4]
0	0x3f547302	0.8298799
1	0x3bb70e0f	0.0055863927
2	0x3fadd3c3	1.358025
3	0x3f43ba11	0.7645579

block1.2.bn1_1.bias f4 [4]
0	0x400f3caa	2.2380776
1	0xbd314d14	-0.043286398
2	0x400824d1	2.127247
3	0x3f961441	1.1724931

block1.2.bn1_1.running_mean f4 [4]
0	0x4093a6b2	4.6140985
1	0x3e839e23	0.25706586
2	0x40b59609	5.674565
3	0x3f84bc04	1.0369878

block1.2.bn1_1.running_var f4 [4]
0	0x40b51169	5.6583753
1	0x3d08d962	0.033410437
2	0x413e602d	11.89848
3	0x402bdde5	2.6854184

block1.2.conv2_1.weight f4 [8, 16, 1, 1]
0	0xbc2550d7	-0.0100900745
1	0xb993f712	-0.00028222107
2	0xbd088953	-0.033334088
3	0xbce15247	-0.027505053
4	0x3dca4459	0.098763175
5	0x3da3b0e0	0.079927206
6	0xbd2cf019	-0.042221162
7	0xbd11ab31	-0.03556365
8	0xbdaf9a3e	-0.08574341
9	0x3ddc4ffe	0.10757445
10	0x3e02e139	0.12781228
11	0x3db2b464	0.08725813
12	0x3da4f84b	0.080551706
13	0x3db8ea54	0.090290695
14	0x3d09ab5f	0.033610698
15	0xbc8ca305	-0.017167578
16	0x3e00c43a	0.12574854
17	0xbe793a8c	-0.2433874
18	0x3d4bd1a6	0.049760483
19	0x3fa1c1e3	1.2637295
20	0x3ec4f098	0.38464808
21	0xbe53c79d	-0.20681615
22	0xbe0fe686	-0.14052781
23	0x3d66f8ca	0.056389607
24	0x3f315d6b	0.6928317
25	0xbe7eac11	-0.24870326
26	0xbe90a638	-0.28251815
27	0x3e8e37df	0.27777
28	0x3d706594	0.058690622
29	0x3c66d888	0.014089711
30	0x3cf08b32	0.029363248
31	0xbe472ef4	-0.19451505
32	0xbf3c3396	-0.73516214
33	0x3dd65240	0.10464907
34	0x3ef5bd2a	0.47995883
35	0xbee1d376	-0.44106644
36	0xbe3eabab	-0.18620174
37	0x3e85d6a3	0.26140317
38	0x3e8afb7c	0.27144992
39	0xbea0f733	-0.31438598
40	0x3cdc00ad	0.026855791
41	0xbd940847	-0.07228141
42	0x3e69f67a	0.2284793
43	0xbdc655d6	-0.09684341
44	0x3dde43a3	0.108527444
45	0xbe13d064	-0.14434963
46	0xbf1438c2	-0.57899106
47	0x3d813a22	0.06309916
48	0x3dc05e32	0.09392966
49	0x3d206e9b	0.03916798
50	0x3eca50a8	0.3951466
51	0xbfac63c6	-1.3467948
52	0x3d32f019	0.043686006
53	0xbdfbe889	-0.12300212
54	0x3eadda5f	0.33955666
55	0x3d09c425	0.033634324
56	0x3ea8199f	0.32832047
57	0xbd102ff7	-0.035201993
58	0xbcc086bd	-0.023501748
59	0xbe24bb47	-0.16087066
60	0x3d15020f	0.036378916
61	0xbf06a680	-0.5259781
62	0xbede5eab	-0.434316
63	0x3d758450	0.059940636
64	0xbeffd94e	-0.49970478
65	0xbe873547	-0.26407835
66	0x3d670dad	0.056409527
67	0xbcb21461	-0.021738233
68	0x3ee77089	0.45203045
69	0x3e22bf2c	0.15893239
70	0xbe39e228	-0.18152678
71	0x3f2ad377	0.6672892
72	0xbde0a3b0	-0.10968721
73	0xbef56645	-0.47929588
74	0xbe8b53e4	-0.2721244
75	0x3d1474ae	0.036244087
76	0x3e60f4eb	0.21968429
77	0xbda9c5cd	-0.08289681
78	0xbe8fd1e4	-0.2808982
79	0xbeceb1f3	-0.4037014
80	0xbd52ed90	-0.05149609
81	0xbd9b1acc	-0.075734705
82	0x3d899c6b	0.067192875
83	0x3d81101f	0.06301903
84	0x3e24a0b4	0.16076928
85	0x3deadcb6	0.114678785
86	0x3c81f0e6	0.01586194
87	0xbde80aea	-0.11330207
88	0xbcda610d	-0.026657606
89	0x3c9a7e70	0.018859118
90	0x3d44b193	0.04802091
91	0xbd08e0cf	-0.03341752
92	0x3d4cc403	0.04999162
93	0xbd8e51f3	-0.06949224
94	0x3dc1d9d0	0.094653726
95	0xbd485ac5	-0.04891469
96	0xbf8665f9	-1.049987
97	0xbe23768d	-0.15963192
98	0x3ebbcfca	0.36681968
99	0xbe4f5b36	-0.20249638
100	0x3f487953	0.78310126
101	0xbf197fb5	-0.5996049
102	0x3e8b825b	0.2724789
103	0x3e727c81	0.23680307
104	0x3d776e06	0.06040766
105	0xbeaa1e9f	-0.33226487
106	0xbddf1555	-0.10892741
107	0xbe3abd72	-0.1823633
108	0xbeeb4bb8	-0.45956206
109	0x3ed7ce7c	0.42149723
110	0xbe45fae9	-0.19333996
111	0x3eb2efa6	0.34948462
112	0xbe0c3624	-0.13692528
113	0x3d94f285	0.072728194
114	0xbd101c7e	-0.035183422
115	0x3cff3c6c	0.031156741
116	0x3d56792d	0.052361656
117	0x3db052c1	0.08609534
118	0x3c252454	0.010079462
119	0x3d8bc454	0.06824556
120	0xbd509bf7	-0.05092999
121	0x3cee9dfa	0.029128063
122	0x3e17ef01	0.14837267
123	0xbdbc5217	-0.09195345
124	0x3d899dac	0.06719527
125	0x3e048842	0.12942603
126	0xbca88bd5	-0.02057449
127	0x3dd2e6d4	0.10297933

block1.2.bn2_1.weight f4 [8]
0	0x3bdfbb10	0.0068277195
1	0x3f3c10bd	0.7346304
2	0x3f6fc464	0.93659043
3	0x3f1c2b3d	0.61003476
4	0x3f25b8f2	0.6473533
5	0xbc6eae3a	-0.014567906
6	0x3f407c38	0.7518954
7	0x3cabdd35	0.020979503

block1.2.bn2_1.bias f4 [8]
0	0xbdac3015	-0.084076084
1	0x3f32176b	0.69566983
2	0xbdd2cf62	-0.102934614
3	0x3f8cecd3	1.1009773
4	0xbe225e22	-0.15856221
5	0xbe30ed5f	-0.1727805
6	0x3f78944a	0.9710127
7	0xbe0cee3a	-0.13762751

block1.2.bn2_1.running_mean f4 [8]
0	0x3e2aa848	0.16665757
1	0x402cd2f3	2.7003753
2	0xc013c03f	-2.3086088
3	0xbfbce3ed	-1.4757057
4	0xbf7ca5d3	-0.9869053
5	0x3e51af6c	0.20477074
6	0xbfac0581	-1.343918
7	0x3d795832	0.060875125

block1.2.bn2_1.running_var f4 [8]
0	0x3c838de3	0.016058868
1	0x3f95b066	1.1694458
2	0x3fcae783	1.5851902
3	0x3f59623a	0.84915507
4	0x3ecb2863	0.3967925
5	0x3c8d6556	0.017260235
6	0x3fc1bcc1	1.5135728
7	0x3d37a770	0.044837415

block1.2.conv2_2.weight f4 [8, 8, 3, 3]
0	0x3d67cd56	0.056592308
1	0x3de0b416	0.10971849
2	0xbcea71fc	-0.028618805
3	0x3b990e3b	0.004670886
4	0x3e44122f	0.19147561
5	0x3cb77251	0.022393377
6	0x3cf9024e	0.030396607
7	0x3d6e55af	0.058187183
8	0xbb5f0373	-0.0034029156
9	0xbec25ad4	-0.3795992
10	0xbf12b6e5	-0.57310325
11	0xbe2f07a0	-0.17092752
12	0x3e3f4001	0.1867676
13	0xbd558c76	-0.052135907
14	0xbdce68fa	-0.100786164
15	0x3ea98800	0.33111572
16	0x3f284402	0.6572877
17	0x3dc68f2a	0.09695275
18	0x3cbd3ba5	0.02309973
19	0x3f27d9d0	0.6556673
20	0xba028079	-0.00049782504
21	0x3e32732d	0.17426749
22	0x3e010d38	0.12602699
23	0x3e0fe4a5	0.14052065
24	0xbdd3bba0	-0.10338521
25	0xbf10c5e4	-0.5655196
26	0xbe75d2da	-0.24006215
27	0x3de0bc19	0.10973377
28	0x3f62a647	0.8853497
29	0xbe59ebcc	-0.21281356
30	0xbea5b37c	-0.32363498
31	0x3f005939	0.5013614
32	0xbcb56c4d	-0.022146368
33	0xbe766de5	-0.24065359
34	0xbe76a270	-0.24085402
35	0xbea7ff2b	-0.32811865
36	0x3d45b0e9	0.048264418
37	0xbe7aa119	-0.24475516
38	0x3dd9ee6a	0.10641177
39	0x3f0f0e1b	0.558809
40	0xbf11a8b2	-0.56898034
41	0x3e80692e	0.25080246
42	0x3e431abc	0.19053167
43	0x3e142098	0.14465559
44	0xbcf8fd3b	-0.030394187
45	0x3d976bef	0.073936336
46	0x3e0bd92b	0.13657062
47	0x3c1e3f66	0.00965867
48	0x3cc645e0	0.02420324
49	0x3dd578dc	0.10423443
50	0x3d6cb85b	0.057793003
51	0xbc62c3f1	-0.013840661
52	0xbd9cfc7a	-0.076653436
53	0x3c36dd76	0.011161199
54	0x3e1369f7	0.14395891
55	0x3ed48a44	0.41511738
56	0xbd9e818f	-0.07739555
57	0x3ec7af26	0.39000815
58	0xbedbb9da	-0.4291523
59	0x3e046d07	0.12932216
60	0x3dce45c2	0.10071899
61	0x3d9ac904	0.07557872
62	0x3ddd4e31	0.108059295
63	0x3db86609	0.09003837
64	0x3dd3fdaa	0.10351117
65	0x3d36e171	0.04464859
66	0xbc0d9ab4	-0.008642841
67	0xbc2a9279	-0.010410898
68	0x3da52781	0.080641754
69	0x3bd2e415	0.006435881
70	0x3dd3a955	0.10335032
71	0x3e213562	0.1574302
72	0xbcc37887	-0.023861183
73	0xbdc4acd5	-0.096032776
74	0x3c8e68aa	0.017383892
75	0xbc948eeb	-0.018134555
76	0xbd331ad7	-0.04372677
77	0x3d587c04	0.052852646
78	0x3bdd7ad7	0.0067590284
79	0x3d6466e4	0.055762187
80	0xbdb35502	-0.08756448
81	0x3d817a7d	0.06322191
82	0x3de2ab87	0.110678725
83	0x3d69c893	0.057076048
84	0x3e44b223	0.19208579
85	0x3e1bd7c8	0.15219033
86	0x3d6109a1	0.054940823
87	0xbbfd73ed	-0.0077347667
88	0x3e450ea8	0.19243872
89	0xbde1a492	-0.110177174
90	0xbe2ab035	-0.1666878
91	0xbd51ebab	-0.05125014
92	0x3cf45801	0.02982712
93	0xbe7f92f8	-0.24958408
94	0x3dc4f98a	0.09617908
95	0xbb7e59fe	-0.0038810964
96	0xbdc5384a	-0.09629877
97	0xbcee408c	-0.029083513
98	0x3e815376	0.25258988
99	0xbe8938ad	-0.26801053
100	0xbea90310	-0.3301015
101	0x3da29877	0.079392366
102	0xbe08a156	-0.13342795
103	0xbee5e776	-0.44903153
104	0xbe5239b7	-0.20529829
105	0x3e631c50	0.22178769
106	0x3c49ea41	0.012323917
107	0x3e66b8a4	0.22531372
108	0x3ddc89f9	0.10768504
109	0x3e27c102	0.1638222
110	0x3d514f6e	0.05110114
111	0xbdc3a1eb	-0.09552368
112	0xbdd7deb0	-0.10540521
113	0x3dbc3f5f	0.091917746
114	0xbe79c730	-0.2439239
115	0xbdaabc35	-0.08336679
116	0x3e7d8303	0.24757008
117	0xbd82770d	-0.063703634
118	0xbd83b353	-0.06430688
119	0xbe2a945e	-0.1665816
120	0x3d26718d	0.040635634
121	0xbcc10cc8	-0.023565665
122	0xbcb32038	-0.021865949
123	0xbd2f9660	-0.04286802
124	0xbda0b7a2	-0.07847525
125	0xbc6e4ab1	-0.014544175
126	0xbf068605	-0.5254825
127	0xbeb9a9aa	-0.36262256
128	0xbeb5493d	-0.3540744
129	0xbf00ac15	-0.50262576
130	0xbf0739ef	-0.52822775
131	0xbeb09eac	-0.34496057
132	0xbd1c741a	-0.03819666
133	0x3ce6098a	0.02808072
134	0x3dfaf610	0.12253964
135	0xbdb46567	-0.088084035
136	0xbdd0ad87	-0.10189348
137	0xbdfd2b1b	-0.12361737
138	0xbc123d0f	-0.00892569
139	0x3c0ecdbd	0.008716044
140	0xbcd60098	-0.02612333
141	0xbdf6a88a	-0.12043865
142	0xbe01ad7e	-0.12663838
143	0xbd0286e2	-0.031866916
144	0xbc8a80f8	-0.0169072
145	0xbc748f17	-0.014926693
146	0xbd073a39	-0.03301451
147	0x3d5c814f	0.053834256
148	0x3d01e6a0	0.03171408
149	0x3bb4ff49	0.0055235964
150	0x3d85b8d8	0.06529397
151	0xbbddf2fa	-0.00677335
152	0x3c8d3e4b	0.017241618
153	0x3e99bcbf	0.30026814
154	0xbdce3de3	-0.10070398
155	0xbe1c98b4	-0.15292627
156	0x3ebcb57e	0.36857218
157	0x3e07e38f	0.132704
158	0xbea708d7	-0.32623932
159	0x3f063993	0.524316
160	0x3d43aa84	0.04777004
161	0xbe2e95a9	-0.17049278
162	0x3e7f98e5	0.24960668
163	0x3e81953b	0.25309166
164	0x3ea7e006	0.32788104
165	0xbe84b2f8	-0.25917792
166	0x3e9dd981	0.30830005
167	0x3ea65d05	0.32492843
168	0xbe2996ad	-0.16561384
169	0x3ead6f85	0.33874145
170	0xbda30a2b	-0.07960924
171	0xbd4d9bd4	-0.050197437
172	0x3da5bae9	0.08092291
173	0xbe614ed8	-0.22002733
174	0x3e7711e6	0.24127921
175	0x3eb368c7	0.35040876
176	0x3e9c3660	0.30510235
177	0xbeb51dd7	-0.35374328
178	0xbd6d7107	-0.05796912
179	0x3e6d9cb0	0.23204303
180	0xbea5a050	-0.3234887
181	0xbe285bb8	-0.16441238
182	0xbeccce61	-0.40001205
183	0x3c0708d4	0.008241851
184	0x3d3a5d81	0.04549933
185	0xbeb42461	-0.35184005
186	0x3d05ff67	0.032714274
187	0x3d93f181	0.072237976
188	0xbe620faf	-0.22076295
189	0xba2b91e2	-0.00065448706
190	0xbb7d5fed	-0.0038661913
191	0xbd2ff9fa	-0.042963006
192	0x3d2483c3	0.04016472
193	0x3d615aee	0.055018358
194	0xbbebff55	-0.007202069
195	0xbd70de69	-0.058805857
196	0x3d3efa20	0.046625257
197	0xbca46481	-0.020067455
198	0x3e406ec8	0.1879226
199	0x3ef0af3b	0.4700869
200	0x3e9175b0	0.284101
201	0xbe8a515f	-0.27015206
202	0x3f1c13ed	0.60967904
203	0xbe34fafe	-0.17673871
204	0x3b18f6e6	0.0023340522
205	0x3ca32bb4	0.0199183
206	0xbdcd781e	-0.10032676
207	0x3c92f2b2	0.017937992
208	0x3d3f2b43	0.046672117
209	0x3d816c2a	0.06319459
210	0x3d74257a	0.059606053
211	0x3c9533fe	0.018213268
212	0x3c8d9fc0	0.017288089
213	0x3d63cf37	0.055617537
214	0x3d94524a	0.07242258
215	0x3d9b6cdc	0.07589123
216	0xbd1fc0fa	-0.039002396
217	0x3d858fdd	0.0652158
218	0xbcdd9ff7	-0.027053816
219	0xbd939dfb	-0.07207867
220	0xbe452a76	-0.19254479
221	0x3d1fc362	0.03900469
222	0xbe0633f1	-0.13105752
223	0xbdf8d0ff	-0.12149238
224	0xbdc3dfc7	-0.095641665
225	0xbadf2683	-0.0017025027
226	0xbd366445	-0.04452922
227	0xbd228757	-0.03967985
228	0xbe0efb15	-0.13962968
229	0xbd547389	-0.051867995
230	0x3cc91bfa	0.024549473
231	0xbcae5c23	-0.021284169
232	0xbdc64a79	-0.09682173
233	0xbd33019b	-0.043702703
234	0xbdca3481	-0.098732956
235	0xbdcea23f	-0.1008954
236	0x3cb745ec	0.022372209
237	0xbdcd87da	-0.10035677
238	0xbd96753d	-0.0734658
239	0xbda8fa74	-0.08250895
240	0xbda77293	-0.0817615
241	0xbc71df7d	-0.014762756
242	0xbc6899ec	-0.014196854
243	0xbcee66ad	-0.029101694
244	0xbd03f03b	-0.032211524
245	0xbd8ecbbd	-0.06972454
246	0xbdc8ba25	-0.09801129
247	0xbddc0494	-0.10743061
248	0x3c135bf2	0.008994089
249	0xbdd73075	-0.10507289
250	0xbe077ba5	-0.1323076
251	0xbdeacac9	-0.114644594
252	0xbd28492d	-0.04108541
253	0x3d716fdc	0.058944568
254	0x3e1fa004	0.15588385
255	0xbda89833	-0.08232155

block1.2.bn2_2.weight f4 [8]
0	0x3f1a0c1e	0.6017474
1	0x3f27ef7c	0.655998
2	0x3f5a3ccb	0.8524901
3	0x3cb26dc6	0.02178086
4	0x3f42b88e	0.7606286
5	0x3f0bf6f9	0.54673725
6	0x3f1898e7	0.5960831
7	0x3f1c29a0	0.61001015

block1.2.bn2_2.bias f4 [8]
0	0x3ef2e0a4	0.47437012
1	0x3f53178a	0.8245779
2	0xbe52a586	-0.20570955
3	0xbe1ed443	-0.15510659
4	0xbe6e4219	-0.23267402
5	0x3f033eac	0.51267505
6	0x3f434e85	0.76291686
7	0x3ed1c112	0.40967613

block1.2.bn2_2.running_mean f4 [8]
0	0x3f89fd64	1.0780454
1	0xc02ef30f	-2.7335851
2	0x400e9081	2.2275698
3	0xbf5d7b4b	-0.86516255
4	0xc01eafb9	-2.4794753
5	0xbeccabd5	-0.39974847
6	0xbedea724	-0.43486893
7	0xbf19d5c0	-0.6009178
