assignment1/results/trial_2/inception/ckpts/33000.pt (torch, 689126 bytes, 467 tensors)

block1.0.conv1_1.weight f4 [4, 16, 1, 1]
00000000: 1407 f93e 848f 5f3f a7e8 043f 00d5 7a3e
00000010: 531f 443f bb0f 003f 6402 7e3f 7f02 3a3d
00000020: 3a33 223f f29c 953c 1887 2abd 57e0 b93c
00000030: de98 babd 5f7b 01bf 6405 703f 876b a8be
00000040: 60af 09c0 214c 56bf a72f c5be bf21 d53d
00000050: 2942 87be bae4 173e e046 5b3e 9c2f 8c3d
00000060: e9d6 f03e 955f ddbe 3464 98bd c2a4 7c3d
00000070: 5360 a3bd a5ad 693d 116c 5f3e 43d8 d83e
00000080: 0f8c 09bf 38b9 01bf 1765 cdbd b867 6abf
00000090: 2aa8 b83e 68ea a03f 4fbb 973f 277d b9bb
000000a0: a7d3 afbd f027 dc3e 1101 053d 53ef 313c
000000b0: 0ea3 9f3d 5bd1 8dbd 237c e6be 95e9 18bf
000000c0: 84ad ef3d ac0f 2b3e c9cc 21bf 8dcf ad3e
000000d0: d268 043e 028d e73f 7c79 54bf a1c6 11be
000000e0: 590a 993e 7d58 233e d59e 70bd 4e7f 0c3c
000000f0: 8ee0 503e 3927 003f 5ee9 9dbe f375 10bf
0.48638213 0.8732836 0.519175 0.24495316 0.76610297 0.50024 0.992224 0.045412537
0.63359416 0.018263314 -0.04163274 0.022689981 -0.09111188 -0.50578874 0.93758225 -0.32894537
-2.151329 -0.83709913 -0.38512918 0.10406827 -0.26417664 0.14833346 0.21413755 0.06845018
0.47038963 -0.43236986 -0.07440987 0.061680563 -0.07977357 0.057050366 0.21818568 0.42352495
-0.5372934 -0.50673246 -0.10029047 -0.9156451 0.360658 1.2571535 1.1854037 -0.0056606713
-0.08585291 0.4299922 0.03247172 0.010860282 0.07794772 -0.06924697 -0.45016584 -0.5973142
0.11703017 0.16705197 -0.632031 0.3394741 0.12930611 1.8089907 -0.8299787 -0.14235927
0.29890707 0.15951724 -0.058745224 0.008575274 0.20398161 0.5005985 -0.30842108 -0.56429976

block1.0.bn1_1.weight f4 [4]
00000000: 8799 6b3f e2b2 833f 415a 653f 3d8d 4e3f
0.9203114 1.0288966 0.8959084 0.8068426

block1.0.bn1_1.bias f4 [4]
00000000: e0dc bd3f 0174 323f 911b 0640 d747 1c40
1.4833031 0.6970826 2.0954325 2.4418848

block1.0.bn1_1.running_mean f4 [4]
00000000: 5367 c040 b8a2 4bbf d416 e03f 6eeb 2f40
6.012613 -0.79545164 1.7506967 2.7487445

block1.0.bn1_1.running_var f4 [4]
00000000: 20ff 3840 e037 9a40 9467 a540 1cb4 8340
2.8905716 4.8193207 5.168894 4.115736

block1.0.conv2_1.weight f4 [8, 16, 1, 1]
00000000: 36ac 18be 12d0 f5be cc13 eb3c cf40 96be
00000010: b9f4 913e 2708 87be 4a76 54bf 1864 71bc
00000020: f32e 963e feca d6be 7846 453b ffc6 ccbc
00000030: dba2 0ebd b450 813f 683f ac3d 21e0 973d
00000040: aa11 bc3d 8123 34be f905 0b3f 4906 1fbf
00000050: b36c 8bbe e78b a7be 830e cbbe ecb3 d8bd
00000060: fc08 a5bf 9932 97bb 11c1 8dbd 5124 78bd
00000070: 8c0e b6bd de03 8f3e 8918 123e 5623 153e
00000080: 6400 f5be a0fa 66bf 4526 d1be 8cc2 bcbd
00000090: 62e3 933d 82b4 ce3e 785c 8a3d cfda 293d
000000a0: 850e a5bd 0c5d 8c3f 4098 00bd 606e 9a3a
000000b0: e56e 00bd a041 13bf 4624 b43d c794 963d
000000c0: ae67 c73d cdfd 9cbe 7ad4 32bd 5a82 92bf
000000d0: fa7c 71be d592 f4be 1b92 693f b19b 923d
000000e0: 0c02 8e3f 2ff7 1abe 8bec 65bc fbff a2bc
000000f0: 1862 28bd b978 013e 500e ef3e 68a1 673e
00000100: 381f 7e3d bbeb 723d 7f7a d83d cd69 033e
00000110: a6a1 c53c 106e c43d a494 ef3c 79e9 92bd
00000120: 0b22 053d 7072 84bc ac3f 733c 81a9 813d
00000130: bf8e 213d 9bd7 3a3d acc1 97bd 0bac e93d
00000140: 3647 69be f637 5d3d 37a6 2fbe 585b b6be
00000150: 13a0 f3bd 29ff 73bd 6bb9 453e cd31 e13d
00000160: 8867 58be b512 28bf 1b99 99bc 4efd 7cbd
00000170: 5705 10bc b150 89bf 3e96 143d 87c1 c2be
00000180: 5396 1f3f bc78 1c3e 53a7 73be ddf7 87be
00000190: 41ba 7d3e fac1 8bbe 4152 a4be 0d19 1bbd
000001a0: a4fb b23e 467d 40bf e09c 613d 6956 883d
000001b0: bd54 733d b88e 02be 3a2f 553e 7b09 00bf
000001c0: e5a9 10be 4427 93be be47 e23e b768 983f
000001d0: d630 173e 6443 9dbe 78c2 0dbf 392e b13d
000001e0: 07fe 6b3f 95d9 3a3e 703b adbc 9818 363e
000001f0: 14f8 4d3d 0d8f 29bc 53f9 ac3e 05d8 1b3f
-0.14909443 -0.48010308 0.028695963 -0.2934632 0.2850702 -0.26373407 -0.82992995 -0.014733337
0.29332694 -0.41951746 0.0030101817 -0.024997232 -0.03482328 1.0102754 0.08410531 0.07415796
0.09183057 -0.17591669 0.5430599 -0.62118965 -0.27231368 -0.32723925 -0.3965951 -0.105811924
-1.2893367 -0.004614186 -0.0692159 -0.06058151 -0.08889493 0.27932638 0.14267172 0.14564261
-0.4785186 -0.90226173 -0.4084951 -0.09216794 0.07221104 0.40372092 0.06755918 0.041468438
-0.0805941 1.0965896 -0.031395197 0.0011782162 -0.031355757 -0.5752201 0.08795981 0.07352596
0.09736572 -0.30662385 -0.043659665 -1.144603 -0.23582831 -0.47768274 0.91238564 0.07158602
1.1094375 -0.15133356 -0.014033447 -0.019897452 -0.041109174 0.12643708 0.46690607 0.22620165
0.06204149 0.05930684 0.10570239 0.12833329 0.024124932 0.09591305 0.029245682 -0.071734376
0.03250317 -0.01616785 0.0148467235 0.063311584 0.039442774 0.045615774 -0.07409987 0.11409768
-0.22781071 0.054008447 -0.1715325 -0.35616565 -0.11895766 -0.05956951 0.19309013 0.10995827
-0.21133244 -0.65653545 -0.018749764 -0.061765008 -0.008790336 -1.072775 0.036276095 -0.38038275
0.6233875 0.15280432 -0.23794298 -0.26556292 0.24778081 -0.2729643 -0.32094005 -0.037865687
0.34957612 -0.7519115 0.05508125 0.066571064 0.059406985 -0.12749755 0.20818797 -0.50014466
-0.1412731 -0.28740895 0.4419536 1.1906956 0.14764723 -0.30715477 -0.5537486 0.086513944
0.9218449 0.18247063 -0.021146506 0.1778282 0.050285414 -0.010349047 0.3378397 0.60876495

block1.0.bn2_1.weight f4 [8]
00000000: ca42 253f 16be 463f 26bc 343f c8af 7b3f
00000010: 9478 7b3c 474a 793f 2a31 563f bf62 653f
0.6455504 0.776338 0.7059959 0.98315096 0.015348572 0.97378963 0.8366877 0.896038

block1.0.bn2_1.bias f4 [8]
00000000: dc85 0c3f 8c6d 413f a7b7 a33e 1147 003f
00000010: 3ef0 05be 98b2 07be 40a2 dfbd 314e ae3f
0.54891753 0.7555778 0.31976053 0.5010844 -0.13079926 -0.13251722 -0.109196186 1.3617612

block1.0.bn2_1.running_mean f4 [8]
00000000: c82b c5bf 7b0e 92c0 18d4 59bf 84fe e53f
00000010: 515f 6b3f 85ff 56c0 6a0e d2bf 9fcd 5640
-1.5403986 -4.5642676 -0.85089254 1.7968297 0.91942316 -3.3593457 -1.6410649 3.3563

block1.0.bn2_1.running_var f4 [8]
00000000: 910b 9a3f 6bfb 9d3f d650 2e3f 0b99 e73f
00000010: 92d1 d73c fb12 5f3f 396e ae3e 97b3 3e40
1.203478 1.2342352 0.68092096 1.809358 0.026345048 0.87138337 0.34068468 2.9797113

block1.0.conv2_2.weight f4 [8, 8, 3, 3]
00000000: 5eb7 9abd 29b8 38be 116b 443e 4d72 87be
00000010: 1e13 7cbd 7f4a b4bd cc53 883e 235d a03e
00000020: 51c7 353e 7d0a e13e b71c 303d 39d1 b33e
00000030: cd31 52be 8fcd 88bf 1709 53be e46d f73e
00000040: b640 123d 9e33 1abe 0390 7c3e d76e da3e
00000050: 1e69 13be 334b 71be 7862 023e ce22 153d
00000060: 5e25 92bc 94fb d63e 0679 7f3e 737e 233e
00000070: 613e f33d df29 f5bd 1243 093e da05 37bf
00000080: 0b0c 38be 1f15 733d 95c9 babe 160a a73d
00000090: aba2 8b3d 2593 b33d 713e 4e3d 0dba 80bc
000000a0: 37ff 963c 50e1 043d 6c87 9cbc 481e f23a
000000b0: c393 1e3d 28bf a53d c1cd edbe cc5c b53e
000000c0: fb23 9a3e 7049 593d af34 b63d 052d 7a3e
000000d0: c99d 50be c563 9cbd b809 8d3e 1890 17bb
000000e0: bcd9 c6bd 8e07 9b3e 64cb 39be 727d 83bd
000000f0: 4571 2dbe 2553 16be cc92 54be 4e75 b6be
00000100: ac15 e83e 6ae4 d7bd 98ed 9dbe ae90 ae3f
00000110: 2cc7 fdbd 1889 bfbe c81c 68bc 6422 81bd
00000120: 895c 213c fefd 56be e6ea 8a3e 5c55 12be
00000130: 2fad 79bd 39e6 50be c593 4c3d d2fe 81be
00000140: 2e56 c4bd ad07 4cbe cd75 9d3e 30b4 82be
00000150: df5d af3b e297 9f3f bf5a 6cbe bc9e 71bd
00000160: f16f 22bf 1495 1abe 23f3 803e 306a 2f3e
00000170: 4328 74be d10e cf3c bda7 53be f503 703e
00000180: 96b2 58bd 45cf 6abe f85e f4bd 3ba0 033f
00000190: 6d4c 85bd 0c05 25bd 57e1 bbbb e35a eabb
000001a0: c7fa 10bf b512 06be 5adb babe 4364 cb3d
000001b0: d147 093d e2c3 043d 5e40 66bc 8bf9 8fbd
000001c0: 4051 57bd 5375 60bd 4db8 02bd 9f2f abbc
000001d0: 1c50 8fbc af74 1e3b e1f5 a4bc 2698 b8bd
000001e0: 5c4b 2abe 8cb8 0e3f 5931 1abe 1083 f4bd
000001f0: 4626 44be 911b 003e e3c6 f33d 8715 333e
00000200: f774 773e 65ca 503e 95b5 4abe e966 25bd
00000210: 0856 6dbe 60a8 3cbe 7e0d 8dbd 1a7e 46bd
00000220: d8cf 0fbf 0a9b f83d aef1 25bf 2a50 afbe
00000230: 4143 98bd 26e1 dc3e 3d29 8e3d b61b 84bd
00000240: dd26 883d b1d6 283e 184b 4a3e a1c9 3dbe
00000250: 4040 01be 7e07 49bc d10f 8fbe a152 56be
00000260: cfb8 e5ba 366b e33c 50e0 72be 76fc f7bd
00000270: 60f6 f9be aebe 12bf 6886 babe ac68 92be
00000280: b6b6 58be 6e79 81be 4233 933d 7188 43be
00000290: ce40 68bd 91a2 07bc 6b4c e0bd cfc5 eebd
000002a0: 9a8d 29bd 217c 29be 5964 68be 23b5 133e
000002b0: 67cf 41be 65de 02be 845f 72bc 6628 f6bd
000002c0: fe1d 1cbe b4ea afbb 44da 063e a3de 4c3e
000002d0: c8c9 073d ef6f e5bc be3d 0e3c fe4d d3bb
000002e0: d280 8fbc 7042 38bc 5b3c ed3c d613 773c
000002f0: 5896 0a3d 2b9c ed3b 8747 72bd 6d08 99bd
00000300: e1e6 383e 4250 0ebe 6e42 a1be 2845 d43d
00000310: fc6d 30be 1a9c 4bbe 97b6 d53c 40b9 01be
00000320: c36c 11be f692 35bd 8d3e 2d3d e6b4 ee3c
00000330: 96e8 8d3d 9c3d 29bd 109f ad3d 2a7d 053c
00000340: 4d53 923d b742 2bbe a604 b93e c146 943e
00000350: 6aeb 0cbe 42c5 f43d 9934 4bbd 2350 47be
00000360: ae12 d4be 831e 823e 0bc0 113e a220 e0bd
00000370: 7377 18bf 2600 443f 0163 073c 2502 773e
00000380: 6926 2d3e 0fa0 86bd 33a9 1d3e 9f54 f8bd
00000390: 8ae9 c43e 4eee 1abc 6bcb e33e b2e2 cebc
000003a0: 4aee cc3d 8667 bfbc ab5e 513e 948a 7dbe
000003b0: 94b1 993c fbbe 003d e7aa d63e 8a94 30bf
000003c0: db36 a33c 44a9 fb3d 7c67 633e dfca f93d
000003d0: 6d16 a63e 376f 41be ad7d 98be 6323 84bf
000003e0: 7c9f a7be de37 a13e dc2e 98be e8ce 83bd
000003f0: 0e97 8b3c e329 6a3d 1ef5 e3bb f585 2fbd
-0.07554506 -0.18039002 0.19181468 -0.26454392 -0.06154167 -0.088032715 0.26626432 0.31321058
0.17751814 0.43953314 0.042996135 0.35120562 -0.2052681 -1.0687732 -0.20608936 0.48326027
0.035706244 -0.15058753 0.24664311 0.4266269 -0.14395568 -0.23563842 0.12732875 0.036410145
-0.017840084 0.41988814 0.2494851 0.15966205 0.11877132 -0.11970877 0.13404492 -0.71493304
-0.17973344 0.059346315 -0.3648192 0.081562206 0.06818136 0.087683 0.050352518 -0.015713716
0.018432243 0.032441437 -0.019107543 0.0018472159 0.038715135 0.08093101 -0.4644604 0.3542236
0.30105576 0.05304855 0.08896767 0.24431236 -0.2037269 -0.07636217 0.27546477 -0.0023126658
-0.09709498 0.302792 -0.18143994 -0.06420411 -0.1693774 -0.14680155 -0.20759124 -0.3563637
0.45329034 -0.105416134 -0.30845332 1.3637903 -0.12391505 -0.37409282 -0.014167018 -0.063053876
0.009848722 -0.20995328 0.27132338 -0.14290375 -0.060956176 -0.20400323 0.04994561 -0.25389725
-0.0958675 -0.19924803 0.30753937 -0.25528097 0.0053517665 1.2468226 -0.23081492 -0.05898927
-0.6345206 -0.15095931 0.251855 0.17130351 -0.23843484 0.02527562 -0.20669456 0.2343901
-0.052904688 -0.2293063 -0.11932176 0.5141637 -0.06508718 -0.040288016 -0.0057336497 -0.007151948
-0.56632656 -0.13093074 -0.36495477 0.09931233 0.033515755 0.03241337 -0.014053432 -0.070300184
-0.05256772 -0.05479939 -0.031914044 -0.020896731 -0.017494254 0.0024178436 -0.020136775 -0.09013395
-0.1663031 0.55750346 -0.15057887 -0.11939061 -0.19155225 0.12510516 0.11903169 0.17488681
0.24165712 0.20389707 -0.1979583 -0.040381346 -0.2317735 -0.18423605 -0.06887339 -0.048460104
-0.5617652 0.12138946 -0.648219 -0.34240848 -0.07434703 0.43140525 0.06941459 -0.06450598
0.066480376 0.16488148 0.19755208 -0.18533947 -0.12622166 -0.012269853 -0.27941754 -0.20929958
-0.0017526391 0.027761083 -0.23718381 -0.121087 -0.48820782 -0.57322204 -0.3643067 -0.28595483
-0.21163449 -0.25287956 0.07187511 -0.19095017 -0.056702428 -0.008278505 -0.109520756 -0.11658823
-0.041394807 -0.16551258 -0.2269453 0.14424567 -0.18926774 -0.1278015 -0.0147932805 -0.12019424
-0.15245816 -0.005368555 0.13169199 0.20006804 0.033151418 -0.028007476 0.008681713 -0.0064485064
-0.017517481 -0.011246309 0.028959444 0.015080413 0.033834785 0.0072512827 -0.059150245 -0.0747231
0.18056823 -0.13897803 -0.31495994 0.10364753 -0.17229456 -0.19883767 0.026088042 -0.12668324
-0.14201646 -0.044329606 0.04229598 0.029138993 0.06929128 -0.04131852 0.084776044 0.008147517
0.071447946 -0.16724668 0.3613636 0.2896023 -0.13761678 0.119516864 -0.049610708 -0.19464163
-0.414205 0.25413904 0.14233415 -0.10943724 -0.59557265 0.76562726 0.00826335 0.24121912
0.16909184 -0.065734975 0.15396576 -0.12125515 0.38459426 -0.00945623 0.44491133 -0.025254581
0.100063875 -0.023364794 0.20446269 -0.24759895 0.018761434 0.031432133 0.41927263 -0.6897665
0.019923618 0.12288144 0.22207445 0.12196898 0.32438985 -0.18890081 -0.29783383 -1.0323299
-0.32738864 0.31487936 -0.2972325 -0.064359486 0.017039802 0.057168853 -0.0069567105 -0.04285236

block1.0.bn2_2.weight f4 [8]
00000000: 299a 163f 995d 0fbf 3094 163f b656 01bf
00000010: 330b dc3e dd1a 253f 784a 493f b13f ec3e
0.5882898 -0.56002194 0.58819866 -0.50522935 0.42977294 0.64494115 0.78629255 0.46142343

block1.0.bn2_2.bias f4 [8]
00000000: 2909 e93e e78d 2c3f 2c20 933e cecc ed3e
00000010: a63f ea3e 0b8d 173f f7cd 96be 1ad7 953f
0.455148 0.67404026 0.28735483 0.46445316 0.45751685 0.5919959 -0.29454014 1.1706269

block1.0.bn2_2.running_mean f4 [8]
00000000: eb01 183f ca01 10c0 d8b5 15c0 d412 a9bf
00000010: 88f9 dfbe 12bc 0fbf a289 32bf 8b8f 96bd
0.59377927 -2.2501092 -2.3392239 -1.3208871 -0.43745065 -0.5614635 -0.6974126 -0.073515974

block1.0.bn2_2.running_var f4 [8]
00000000: cbf1 da3f c0ad e23f 0321 3240 154c 2d40
00000010: 67ad 3d3f 27b1 5340 9c3a 0e40 b7df 2d40
1.7105039 1.7709274 2.7832649 2.7077687 0.74092716 3.3076875 2.2223272 2.7167795

block1.0.conv3_1.weight f4 [2, 16, 1, 1]
00000000: f0e3 8d3e 8b47 983e 00fb 883b bd93 f1bd
00000010: a3cb 923e 2d32 013f 6abc a13e 6a3e 3a3e
00000020: e3f2 9cbe 1db6 493e b197 8c3b 2875 463d
00000030: 24a3 873e 01a1 fc3e 5979 29be cb25 3c3e
00000040: 7710 a63e 71ac f5bc 9f3b 49bf af03 ebbd
00000050: cebd df3d 0171 cb3e 78e9 b8bd 09f3 d23c
00000060: a7a5 6dbd a02e dcbc 6ee3 a9ba 3e96 a9bc
00000070: 86d6 a83d 1c4f 3fbe 2030 b23d 595b 32bf
0.27712965 0.29742083 0.004180312 -0.11795757 0.28670987 0.5046719 0.3158906 0.18187872
-0.30654058 0.19698377 0.004290544 0.048451573 0.26491654 0.49341586 -0.16550197 0.18373792
0.32434437 -0.029989453 -0.786066 -0.11475312 0.10924874 0.39734653 -0.09028906 0.025750654
-0.058019307 -0.026877701 -0.0012961456 -0.020701524 0.08244042 -0.18682522 0.08700585 -0.69670635

block1.0.bn3_1.weight f4 [2]
00000000: a251 5a3f f11a 033f
0.8528081 0.51212984

block1.0.bn3_1.bias f4 [2]
00000000: bd24 e9be d823 103f
-0.45535842 0.56304693

block1.0.bn3_1.running_mean f4 [2]
00000000: a0f2 0b40 205c afbf
2.1866837 -1.3699989

block1.0.bn3_1.running_var f4 [2]
00000000: b877 8e3f 31c6 603f
1.1130285 0.87802416

block1.0.conv3_2.weight f4 [2, 2, 5, 5]
00000000: e6ed 6dbe d008 df3d bd51 8c3d c880 0cbe
00000010: b08e 0ebd 56f1 c1be 1446 86bc 580d adbe
00000020: 0b76 323d 76e7 25be cfa5 fb3d c360 103e
00000030: 5179 b33c 272f 5e3e 3cbe 8e3e cf0a cd3d
00000040: 48ca 273e f6e5 473d c0ec 9f3e c404 2a3e
00000050: 2d59 65be 598e 2d3d bfa2 2b3e 70a0 e13c
00000060: 3483 85bd f90e 493d 82a6 a43d 6fa0 673e
00000070: f7c4 e9bd 6e02 ba3d ec1d 993d cfd1 28be
00000080: ebd2 b7be bd86 d4bd aecf c33c 4499 5e3d
00000090: 8398 e0bd 2a8a 083f 7a9c a83c 4182 58be
000000a0: f3e4 af3d 13a8 bfbd 5c83 73be a58e 40be
000000b0: a111 2b3e 19da 08bd 70c9 89bd 90fc a4be
000000c0: efaa e2bd 91e2 b3bd f0d1 883b ea6f 3bbe
000000d0: 7d5a 9abc 2983 6a3d 2405 90bc afef f7ba
000000e0: f073 b9be e4f0 65be d9b1 07bf 8c0d 0abe
000000f0: a5c5 283c a905 6dbe 8523 b0be 53c3 1dbe
00000100: 674f 123d 6759 23be 8336 78bd fe99 d33d
00000110: d844 ecbd adf8 833d 9ed3 1b3c fb47 24be
00000120: 0edb 7dbe 6e80 b5bd d8d0 1dbe 72c0 c4bd
00000130: 7e31 a03d 8834 14bd 9bd1 b23d 23a6 1f3e
00000140: 5709 453e f237 e03e c267 693e 9bcf c03a
00000150: e3fb 4fbd 7a1a 913e 7f9e 483f e5d4 fabe
00000160: c9ef 97be 545e 713e fee6 633e e9a5 253f
00000170: a6f1 57be fca5 a6be 6246 a73c a127 d33d
00000180: aced c13d f917 393d 226a 36be 8289 fb3c
-0.23235282 0.10890353 0.06851528 -0.13721001 -0.034804046 -0.37879437 -0.016390838 -0.33799243
0.043569606 -0.16201577 0.12287485 0.14099412 0.021908434 0.21697675 0.27879512 0.10011827
0.16385758 0.048803292 0.31235313 0.1660338 -0.22397299 0.04237208 0.16761301 0.027542323
-0.06519166 0.049086545 0.08039571 0.22619794 -0.11414521 0.09082495 0.0747641 -0.16486286
-0.35903105 -0.10377262 0.02390274 0.054345384 -0.10966589 0.5333582 0.020582426 -0.21143438
0.085885905 -0.093582295 -0.23780578 -0.18804415 0.16705944 -0.03341112 -0.06727874 -0.3222394
-0.11067759 -0.087834485 0.004175417 -0.1830441 -0.018841976 0.05725399 -0.017580576 -0.0018916036
-0.36221266 -0.22455174 -0.5300575 -0.1348173 0.010301028 -0.2314669 -0.344021 -0.15406542
0.035720255 -0.15952073 -0.06059886 0.10332106 -0.115365684 0.064439155 0.009510903 -0.16043083
-0.24790594 -0.08862387 -0.15411699 -0.096070185 0.0782194 -0.03618291 0.08731385 0.1559072
0.19241844 0.43792683 0.22793487 0.0014710309 -0.050777327 0.28340513 0.78366846 -0.4899055
-0.2967513 0.2357114 0.22256085 0.64706284 -0.21088275 -0.3254851 0.020419303 0.10310293
0.094691604 0.045188878 -0.17813924 0.030705217

block1.0.bn3_2.weight f4 [2]
00000000: 0285 a03e d6d4 e23e
0.31351477 0.44303006

block1.0.bn3_2.bias f4 [2]
00000000: 8bec de3e 1ed3 523f
0.43539843 0.8235339

block1.0.bn3_2.running_mean f4 [2]
00000000: ca96 98be 53a0 123f
-0.29802543 0.57275885

block1.0.bn3_2.running_var f4 [2]
00000000: a645 9c3e 146e 4c3f
0.30521888 0.79855466

block1.0.conv4_1.weight f4 [2, 16, 1, 1]
00000000: 2959 7abd 3b37 96bd 9a17 de3c bca5 7fbd
00000010: e93d b53c 7307 29bd e8e9 8f3c dcba 4e3c
00000020: 1198 323b 4b82 1e3d 3baa da3c 7418 04bd
00000030: b181 6f3b 1599 f1bc 6730 46bd 3ad7 d239
00000040: e1de e5be 6944 2fbe 0987 4ebf 2489 eebe
00000050: 9922 9c3d d66c 753d 4f78 8e3e db96 5c3d
00000060: bc83 b7bf ca5a fb3d ca53 40bd 434b a0bc
00000070: 8656 573c fa51 1abe 0799 c1bd ce57 9e3e
-0.061120186 -0.07334753 0.027110863 -0.062413916 0.022124248 -0.04126687 0.01756759 0.012617793
0.0027251283 0.038698476 0.0266925 -0.032249883 0.0036545808 -0.02949194 -0.048386004 0.00040214678
-0.44896606 -0.1711594 -0.806748 -0.46589005 0.076237865 0.059918247 0.27826163 0.053854804
-1.4337077 0.12273176 -0.046954907 -0.019567138 0.013143187 -0.15070334 -0.09453016 0.30926365

block1.0.bn4_1.weight f4 [2]
00000000: 9ca4 343c 75fe 233f
0.011025574 0.64060146

block1.0.bn4_1.bias f4 [2]
00000000: 9d3e 4dbd ae9c 163f
-0.05010854 0.58832824

block1.0.bn4_1.running_mean f4 [2]
00000000: 041e afbe 579c b8c0
-0.34202588 -5.7690845

block1.0.bn4_1.running_var f4 [2]
00000000: 95d4 613c 476d 8d3f
0.013783594 1.1048974

block1.1.conv1_1.weight f4 [4, 16, 1, 1]
00000000: 3a85 19bf 626e da3d 8899 02c0 f2a4 1dbf
00000010: 5f79 783e 794c d3be e116 2e3e 86e7 5e3f
00000020: 45b0 a43e abe9 453f 9a97 293f df42 2ebf
00000030: 2ee3 8abe 77db 793e 373d 9dbb 81b1 42bd
00000040: be67 f7bc c5c4 d03e 6dec 04bf 3577 bf3f
00000050: b570 d93e 2562 08be 7193 8e3d 0788 5dbe
00000060: 70b1 cebe c3a3 1e3e d71f f6bd f131 01bf
00000070: 5415 533d f223 28bf 9ce6 bebd b1e7 9c3e
00000080: 1154 833e af01 463e e6a6 713f 7e8d ce3d
00000090: 4e3b a2bd 49af b8bc 69af c23e dcd3 35be
000000a0: fae1 463e cefe 80be 6d06 92be e4ab b33c
000000b0: 8a19 d4bd ae2b 5d3c da86 1abc 4008 b33d
000000c0: 9b38 a3bf cc8d 9dbe b7f6 aebe ce10 12bf
000000d0: a128 39bf 6fd4 4ebf 5e4e 1abe 14a5 a3bd
000000e0: 5917 4a3e a931 37bf 59f6 eabc b652 5d3e
000000f0: 0b11 8f3e 1d19 43be 65c7 673d c78b de3e
-0.5996891 0.10665585 -2.0406208 -0.6157981 0.2426505 -0.41269282 0.17000915 0.87072027
0.32165733 0.77309674 0.6624695 -0.6807079 -0.2712645 0.24400125 -0.004798557 -0.047532562
-0.030200835 0.40775123 -0.5192326 1.4958254 0.424688 -0.13318689 0.06961716 -0.21633922
-0.4036975 0.15492158 -0.12017792 -0.5046683 0.051534012 -0.6567985 -0.09321329 0.30645517
0.25650075 0.1933658 0.9439529 0.10085581 -0.07921468 -0.02254452 0.38024452 -0.17756599
0.1942214 -0.251944 -0.28520527 0.02193255 -0.10356434 0.013499184 -0.009431565 0.08741808
-1.275165 -0.30772245 -0.34172603 -0.5705689 -0.7232762 -0.807929 -0.15068957 -0.079904705
0.19735469 -0.7156015 -0.02868192 0.21613583 0.2794269 -0.19052549 0.05658664 0.43466017

block1.1.bn1_1.weight f4 [4]
00000000: 48c8 893f 92c7 383f 0d77 923f 9210 303f
1.0764246 0.7217952 1.1442581 0.68775284

block1.1.bn1_1.bias f4 [4]
00000000: 73e9 f33f 26bc 413f 8f54 16bf 84d9 a63f
1.9055618 0.75677717 -0.58722776 1.303513

block1.1.bn1_1.running_mean f4 [4]
00000000: c3c1 c5c0 e6d7 ef3f caa6 2e40 983d a6c0
-6.1799026 1.8737762 2.72893 -5.195019

block1.1.bn1_1.running_var f4 [4]
00000000: 941f 0d41 bde8 be3f e619 aa3f d65e 1a40
8.8202095 1.4914776 1.3289154 2.4120383

block1.1.conv2_1.weight f4 [8, 16, 1, 1]
00000000: 9f3e 3dbe 64ca efbe 7256 0dbe 1f98 4b3d
00000010: 0f99 cbbe 87a7 f3be 115c 093f 79cc 67bf
00000020: b81a 163f c690 a53b d8b0 08bd 2483 5bbe
00000030: edef 54be 76b5 dfbd 2d8b 6cbd 477c 9fbe
00000040: b461 94bf dbfe f93f bdc3 193f dcbc 95be
00000050: 1415 fb3e a9b3 aa3d e216 9dbe 0bff ce3c
00000060: 2fab 7b3b 6ec3 49be 9776 03be c5b9 d83e
00000070: fd15 943d cbfd d93d 2ec0 a83c 2d56 d53e
00000080: 1533 b53e 136e 4ebe be46 343f 3d3f 42bf
00000090: 500b 57be 3b12 1dbe 096d f93b d7d6 8cbe
000000a0: 3bad 92bd c4a9 0ebe 691a 2a3f c81d bd3e
000000b0: 94c3 823c c450 d43d 5e13 70bd 62a1 db3c
000000c0: fa41 b53d 51cc 6e3d 74c7 2dbd e2f2 0ebd
000000d0: 46d0 8dbc 6850 1e3c ac37 e4bd 5d8d 4bbc
000000e0: c529 1d3d 8dd7 ee3d b642 6dbc 004e d9bd
000000f0: 5792 0cbc 9144 6d3d 86b4 94bb 0af9 96ba
00000100: 82f5 a13e 6817 e83d 1f95 1d3e a079 143d
00000110: 0b09 983c 9d0e 8c3e 4785 1a3e 11d7 433d
00000120: 1d13 2b3e ed2c ca3e 0329 be3e c779 4ebe
00000130: c93f 63bc 5b5b dabd e868 95bd fc63 a4be
00000140: 084b 073f c552 443c 9cbf d5be d57a f8bf
00000150: 13a2 a63e 5f4b c6be 0624 0a3e a294 233d
00000160: 0b1c 4ebd 29f4 183c 24fd a93d ffb3 273f
00000170: 5dd8 1bbf 9476 373f f44e c43d e86e a2bd
00000180: 47b3 bc3c 97b9 89bd 2c2d f53d 7ad9 073e
00000190: 2271 fbbc 3b38 adbb b552 57bd 2992 eb3c
000001a0: 1f66 2f3d dff4 983d d62a 1e3d 411d 5abd
000001b0: 80de d83c 68a6 fdbc 75b0 1fbd 0c57 9ebd
000001c0: 38ac 273d ce7d 8c3d 725c be3c a8c8 2cbd
000001d0: 174c 6fbd 4745 1a3d 2dd5 7e3d d26c 0cbe
000001e0: ee3f 05be 0492 ebbc db3a a03d af62 333d
000001f0: 540d 93bd b07b e9bb 54e8 dcbc fa85 4bbd
-0.1848092 -0.468341 -0.13802508 0.04970562 -0.39765212 -0.4758875 0.5365611 -0.90546376
0.5863452 0.0050526587 -0.033371776 -0.21436745 -0.2079465 -0.10923283 -0.057749916 -0.31149504
-1.1592317 1.9530901 0.600643 -0.2924565 0.4903952 0.08335049 -0.3068152 0.025268098
0.0038401594 -0.19703457 -0.12838207 0.4232923 0.072307564 0.1064411 0.02059945 0.4166731
0.35390535 -0.20159177 0.70420444 -0.75877744 -0.21000409 -0.15338986 0.007611875 -0.2750766
-0.07161947 -0.13931948 0.6644655 0.36936784 0.0159624 0.10366967 -0.05861222 0.026810352
0.08850475 0.05830032 -0.04242654 -0.0348996 -0.017311227 0.009662725 -0.11143431 -0.01242384
0.038369913 0.11662207 -0.014481237 -0.106105804 -0.008579812 0.05792672 -0.0045381216 -0.0011518311
0.3163262 0.113325894 0.15388916 0.036248803 0.018559 0.273549 0.15089904 0.047812525
0.1670651 0.394874 0.37140664 -0.20163642 -0.013870188 -0.10661956 -0.072954 -0.32107532
0.52848864 0.011982624 -0.4174775 -1.9412485 0.32545528 -0.3872938 0.13490304 0.03993667
-0.050319713 0.009335556 0.08300236 0.6550903 -0.6087702 0.7166531 0.095853716 -0.0793131
0.023034705 -0.067248516 0.119715065 0.13266554 -0.030693594 -0.005286244 -0.05256911 0.028756218
0.042822 0.074685805 0.03861507 -0.053250555 0.026473284 -0.030963138 -0.038986642 -0.077314466
0.040935725 0.06859933 0.02323744 -0.04218355 -0.058422174 0.037663724 0.06221502 -0.13713387
-0.13012668 -0.02875615 0.07823726 0.043795284 -0.071802765 -0.0071253404 -0.026966251 -0.049688317

block1.1.bn2_1.weight f4 [8]
00000000: 13fb 0b3f c8ef 3d3f 890b 883f 4c20 6b3c
00000010: f8a9 163f c764 503f 3f77 7f3c 91e1 b63b
0.54679984 0.74194 1.062852 0.014350962 0.588531 0.81403774 0.015592395 0.005581089

block1.1.bn2_1.bias f4 [8]
00000000: b831 863e f139 ab3f 8cd8 babe 6234 cabd
00000010: 4042 bfbd b5f3 873f cd4a 83bd 7754 12bd
0.26209807 1.3377057 -0.36493337 -0.098732725 -0.09338808 1.0621248 -0.064107515 -0.035725083

block1.1.bn2_1.running_mean f4 [8]
00000000: 0101 fabf 89e9 bd3f 6f31 123e 44ef 0bbd
00000010: f2a3 903f 85ab 76c0 45f2 f03e 44ed 90bd
-1.9531556 1.4836894 0.1427667 -0.03416373 1.1300032 -3.8542187 0.47059837 -0.07076505

block1.1.bn2_1.running_var f4 [8]
00000000: c637 243f f064 7e40 6484 ab3f a66f 593c
00000010: 2c70 983e a7b3 0440 b38e 3b3d 6a63 303c
0.64147604 3.9749107 1.3399777 0.013271248 0.2977308 2.073465 0.045790385 0.01076589

block1.1.conv2_2.weight f4 [8, 8, 3, 3]
00000000: a3fc 96bd bd26 f0bd f2d5 893d 1396 22bf
00000010: a8ea 12bf d060 fcbc a38a cabd 9729 df3d
00000020: efd6 bbbc 2e00 b1bc d623 7e3d 9a7c 62be
00000030: 33a7 703e 16a7 1f40 8d79 5b3e 5521 35be
00000040: 07c6 a73e 3b02 893e cda1 5ebe 43a5 a2be
00000050: 368b 923d 4a70 90be 0abb 493e 48f5 62be
00000060: 758d 223d 6319 c2bc 82eb f5bc 868a db3d
00000070: 036a 7f3d b9ec 963b a20f c13d 1101 4a3d
00000080: d374 a03c 2ad7 293e 04f6 573d 3888 fbba
00000090: f783 88be e726 b8bd 6f77 2bbd dba1 b43b
000000a0: 4ed9 233d 6eab 963e e024 a53d 0885 273e
000000b0: edec 1f3e e141 b83e 54f8 f8be 90c7 08be
000000c0: ab54 1abf 6d22 b03f b914 8cbe 2766 e1bc
000000d0: 0694 9dbe 7211 7ebe f704 93bc 89b3 57bb
000000e0: a35e 9b3c 57f5 003d 8c0a 263d 045f ee3a
000000f0: f178 d33c 1bfb 113d bd76 603d 6b36 ef3b
00000100: a68d 4d3d 9144 95bc 7734 0bbd 2fbe c1bb
00000110: eaf6 68bd eb67 0ebc 7daf 6fbd 7c8c 03bd
00000120: 41e3 edbd c7b7 6fbe 32bb ccbd d141 f6bd
00000130: 416e 47bc 1a3c b03d 82e7 78bd 7a63 303e
00000140: f1df a83d 0c7f 5bbe d45e d6bd c913 a13e
00000150: c6f2 6d3d ec74 abbe 9957 033e 4c73 433e
00000160: f207 d83d 5679 e8bd 17b0 ca3e 9980 0e3f
00000170: c156 cf3d 3752 9f3d 4e1d ddbe 966d 51be
00000180: eea1 00be 19b3 b7be b571 e8bd be49 1cbd
00000190: 9cef cebc 9577 d23c 06a5 63bd cc4c d3bc
000001a0: aba7 a3bc 343d 7d3d afdb 6c3d 7694 ed3c
000001b0: 6150 d23c ffab 20be 7466 f0bd c8c8 2abd
000001c0: 2898 183c c70d fbbd 6c67 3f3d c583 49bd
000001d0: da57 823b b49d bf3e a04a 973f 8bbf df3e
000001e0: 3f35 3a3d f4a4 4dbf 5303 8bbe 22eb 82be
000001f0: 1ac1 a7be 1cae b1be 9af4 073d 80cc 6fba
00000200: 02da 833b f1c0 d1b9 e68b 193d df54 243d
00000210: 886c 36bb b7a2 69bd a705 1c3c 8c26 83bc
00000220: 0be4 dabc f779 9a3c 603d 823d 05aa 503c
00000230: bb67 8fbc 0984 353d 067f b73d 04b0 9aba
00000240: 2cb6 d8bc 0533 ae3d 37cf 333d b911 fbbd
00000250: 21a4 5dbe 09a9 943d 1113 683e 5960 303d
00000260: e604 d7bd 2599 353d b36f e1bd 0511 89be
00000270: 67b6 193e 89fd d23e 853f 7bbe 22bd 5b3e
00000280: aa2d 353f 9c29 cd3d f698 7ebe 9481 0d3f
00000290: ce08 013e 7693 dcbe d497 d73e 14e8 e93e
000002a0: 2e8d a1be caf3 a1be f84b 58be 0529 693c
000002b0: 15e6 5e3c 16dd b7bc 9cd2 3cbd f72c 903c
000002c0: 7315 093c 199e caba 75cf 883c bac9 483c
000002d0: 3787 d83c 2ae4 2e3d e8b3 713d 8ee9 0abd
000002e0: 4f81 b8bc 485c e2bd ff03 5ebd 00cf af3d
000002f0: 651b 72bd 1779 13be a7da f73e 7209 c53d
00000300: 9e71 93be 5939 15be b733 2c3f 37e4 c6be
00000310: 2bed 66bf e9c0 ea3c 54fb 633d 7c05 9b3d
00000320: 49e2 993d 1634 c03b c0d6 8e3c 214c 533d
00000330: 672c 4e3d 42b4 d43c 9d02 853c e9d3 573c
00000340: eaf4 e5bb 2b78 02bd 9f46 fb39 44af 243d
00000350: 4c77 03bd 6cf8 38bd 70de 57bc 993c 45bc
00000360: b1ff ea3c 119d f7be a667 1dbe c3fa e4bd
00000370: 129c 06be c063 6cbc e036 4f3d a2ac 28be
00000380: 145c 77bc 6fb6 79be 0cfe 0b3d e06f 1e3d
00000390: bd0f f43d 2196 313f 592b d03e 718a dd3d
000003a0: 3ba7 c23e cfaa fdbc b45d 2fbe 1c84 8d3c
000003b0: 383a 09be 1502 863e 593a 703f 3825 c23d
000003c0: 0ca6 17bc 4266 943e b67a b8bc 41cb c7bc
000003d0: 5a9a 8b3d 31d9 313d 4ce3 a3bd 41a7 7dbc
000003e0: 5b40 e13c 4081 01bc e5f1 613d 5588 723d
000003f0: 6a55 27bc a8b4 5e3d 96b8 bd3d 2757 19be
-0.073724054 -0.11726139 0.0673026 -0.63510245 -0.5738931 -0.030807883 -0.09889724 0.108966045
-0.022929637 -0.021606531 0.062045895 -0.22117844 0.23501281 2.494573 0.21433087 -0.17688496
0.3276827 0.26759514 -0.2174141 -0.3176671 0.07155459 -0.2821067 0.19700256 -0.2216388
0.039685685 -0.023693746 -0.030019525 0.107197806 0.06235696 0.0046058563 0.0942681 0.049317423
0.019586956 0.16585985 0.052724853 -0.0019190377 -0.2666318 -0.08991795 -0.041861948 0.0055124587
0.04000216 0.29427665 0.08063674 0.16359341 0.15617724 0.35987762 -0.4862696 -0.13357377
-0.60285443 1.3760506 -0.2735956 -0.02751453 -0.30776995 -0.24811342 -0.017946703 -0.0032913408
0.018966025 0.031483974 0.040537402 0.0018186276 0.025814505 0.035639863 0.054800738 0.0073001883
0.050183915 -0.018221172 -0.03398558 -0.005912564 -0.0568761 -0.008691768 -0.058516968 -0.0321164
-0.11615611 -0.23409949 -0.09996642 -0.12024272 -0.012172283 0.086052135 -0.060767658 0.17225447
0.082458384 -0.21435183 -0.10467306 0.31460407 0.058092855 -0.33487642 0.12826385 0.19086951
0.105483904 -0.11351268 0.3958747 0.55664974 0.10123969 0.07779353 -0.4318642 -0.2045196
-0.12561771 -0.35878828 -0.11349813 -0.038156264 -0.025260739 0.025691787 -0.0555773 -0.025793456
-0.019977411 0.061825946 0.057826694 0.029001456 0.025673093 -0.15690611 -0.117382914 -0.041695386
0.009313621 -0.12258487 0.04672949 -0.04919793 0.003977758 0.37425005 1.1819649 0.43700823
0.045460936 -0.80329823 -0.27150974 -0.25570017 -0.32764512 -0.34703147 0.033192255 -0.00091475993
0.0040237913 -0.0004000734 0.037486933 0.040120002 -0.0027835686 -0.057039943 0.009522832 -0.016009592
-0.026720067 0.018856985 0.063593626 0.012735848 -0.017505517 0.04431537 0.08959775 -0.0011801724
-0.026454054 0.08505825 0.043898787 -0.1225924 -0.21644641 0.072588034 0.22663523 0.043060634
-0.10498981 0.044335503 -0.11007633 -0.26770797 0.15010987 0.41209057 -0.2453595 0.21458867
0.707728 0.10017702 -0.24863037 0.55275846 0.12601015 -0.43081254 0.42108023 0.45684874
-0.31553024 -0.3163131 -0.2112273 0.014230971 0.0136046605 -0.02244429 -0.04609929 0.017599566
0.00836693 -0.0015458494 0.016700486 0.012255127 0.026431663 0.042698063 0.059009463 -0.03391414
-0.022522597 -0.110527575 -0.05420303 0.08584404 -0.059108157 -0.14401661 0.48409006 0.09620942
-0.2879762 -0.14572658 0.6726641 -0.3884599 -0.9020564 0.02865644 0.055659607 0.075694054
0.075138636 0.005865584 0.017436385 0.051586274 0.050335314 0.02596486 0.016236598 0.013173082
-0.0070177214 -0.031852882 0.00047927067 0.04020621 -0.032096192 -0.04515879 -0.013175592 -0.012038373
0.028686376 -0.4836202 -0.1537157 -0.111806415 -0.13145474 -0.014428079 0.050589442 -0.16472104
-0.015097637 -0.24385999 0.034177825 0.03868091 0.11917064 0.69369704 0.40658072 0.10817421
0.38018212 -0.030965237 -0.17125589 0.017274909 -0.13401115 0.26173463 0.9383903 0.09479755
-0.009255897 0.28984267 -0.02251945 -0.024388911 0.068165496 0.04342002 -0.08002338 -0.015481771
0.027496507 -0.007904351 0.05516233 0.059212048 -0.010213235 0.054371506 0.092637226 -0.14974652

block1.1.bn2_2.weight f4 [8]
00000000: dc1e 313f ac2a 2a3f 60e1 383f 759b 2b3f
00000010: 7182 f73e a658 0c3f 011a 203f a223 1d3f
0.6918771 0.6647136 0.72218895 0.67034084 0.48341706 0.54822767 0.6253968 0.61382496

block1.1.bn2_2.bias f4 [8]
00000000: 1f3d c63f 0338 72bd ab85 6ebe f14b ab3d
00000010: 2689 313f b63b 0e3d 1e64 003e 6117 dbbd
1.5487403 -0.05913545 -0.23293178 0.08364094 0.69349897 0.034724914 0.12538192 -0.106978185

block1.1.bn2_2.running_mean f4 [8]
00000000: 528b 5c40 5073 4abe fed4 3d3f 8695 2a40
00000010: 01d0 883f a895 abbf 56c0 58bf 24a9 97bf
3.4460034 -0.1977055 0.74153125 2.6653762 1.0688478 -1.3405046 -0.8466848 -1.1848493

block1.1.bn2_2.running_var f4 [8]
00000000: 8260 d240 e308 b83f e030 a43f b830 1b40
00000010: a318 993f 7138 5f3f 513d a13f 88f8 5e3f
6.5742807 1.4377712 1.2827415 2.4248486 1.1960644 0.871955 1.2596837 0.8709798

block1.1.conv3_1.weight f4 [2, 16, 1, 1]
00000000: 89be 3b3f 6418 65bc 4ce8 49bd 44c5 0ebf
00000010: bc54 983e 4692 9e3e 8650 363d f21b f9be
00000020: 45ba 263e fc04 223f 78a7 2cbe b09d 113d
00000030: 8f4d 8d3d 83f8 f63e 7b3c 0ebb f821 14bd
00000040: 1bfd 3a3f dc7c c6bd 9b39 f73e 6cb4 ad3c
00000050: 510f 933e aa7e 6abe 2d17 e5bd 1fe2 5cbd
00000060: 74a6 0abd 5d17 38bc 4034 11be 6428 4bbd
00000070: d524 963e a1da 9f3d 9e10 9cbc 21f4 35be
0.7333761 -0.013982866 -0.0492938 -0.55769753 0.29752147 0.30970973 0.044510387 -0.48654133
0.16281994 0.63288856 -0.1686076 0.035550773 0.06899559 0.48236474 -0.002170353 -0.036165208
0.7304246 -0.09691784 0.48286137 0.021204196 0.28722623 -0.22899881 -0.11186061 -0.053926583
-0.03385015 -0.011236039 -0.14180088 -0.049599066 0.29324976 0.07805372 -0.019050892 -0.17768909

block1.1.bn3_1.weight f4 [2]
00000000: d34e 583e 8d82 523f
0.21123819 0.82230455

block1.1.bn3_1.bias f4 [2]
00000000: dac9 e43e ed8c 28bf
0.4468525 -0.65840036

block1.1.bn3_1.running_mean f4 [2]
00000000: d223 333f 3d56 f93f
0.6997653 1.9479443

block1.1.bn3_1.running_var f4 [2]
00000000: cfbd bf3e 47d4 9a3f
0.374495 1.2096032

block1.1.conv3_2.weight f4 [2, 2, 5, 5]
00000000: aea3 66be 3d60 9abd cb30 cfbd b2f8 cebd
00000010: 2ee6 f73b 0d21 32be 86fa 7e3d 073c a03e
00000020: 7af7 333d 46e1 7fbd a3f5 13be 4354 34bd
00000030: 0bfc 81bd b96f 4cbe 834c 043e 5f06 07bd
00000040: 4c88 17be 6113 a2be 2c80 0ebf f7b9 d1bd
00000050: 376d 4bbe a56b 2fbc 8155 0dbe 1129 1bbe
00000060: 26bb 4cbe 13fc a9bb 5e82 7a3e 609a 0e3e
00000070: 98e2 9b3d 2890 943c 3228 8e3d 5ccd 3d3e
00000080: 0487 b03d dc28 4b3e aff7 023e 036b 53bd
00000090: 7d53 523e 5164 2b3e ed24 8a3d 0d74 7dbd
000000a0: e00c e7bd 6224 fa3d a976 1b3d aa8c dc3d
000000b0: 320a 05be c1ff f8bc 33ee 9d3d 7b57 babc
000000c0: 8f44 1a3e 724c 32bd 9e53 38be eb24 63be
000000d0: 31b0 2d3e 182b b1bd 8e92 d1bd 68ac ccbd
000000e0: 7096 89be a1ba 823d 7336 0cbe 8b0e 6fbe
000000f0: 6ec3 803e ac77 2bba 923f c23e 333b 243e
00000100: 3d8a 3c3e 4ed7 91bd 93b3 713a 7f52 763e
00000110: 282a 95bd b277 a4bd 43ea 86bd e2e2 12be
00000120: d1be aa3d 2b19 4bbd ad4b cabd eb1a 24be
00000130: ea32 fabd 6d95 423e d465 473d 0c2b 47bd
00000140: a460 4fbe 6395 5fbe f390 d23c cc39 85bd
00000150: b0de 2cbe 9cc4 c13e ee83 943e 4889 063f
00000160: c2fb 883e 48d4 623e 9db3 cf3d 6cc3 e23b
00000170: 9acd 543e 5996 133e 00ef e13d a511 a83c
00000180: 181a bfbb 882c 5e3e c5b3 6d3d 46d6 353b
-0.22523376 -0.07537887 -0.101167284 -0.101060286 0.0075652814 -0.1739542 0.062250637 0.31295797
0.043937184 -0.062470697 -0.14449172 -0.04402567 -0.063469015 -0.19964494 0.12919812 -0.03296506
-0.14798087 -0.3165541 -0.55664325 -0.10240548 -0.19865881 -0.010706817 -0.13802148 -0.15152384
-0.19993266 -0.0051875203 0.24463794 0.13926077 0.07611579 0.018135145 0.069412604 0.1853537
0.08619502 0.19839805 0.12789796 -0.051615726 0.20539661 0.16737486 0.06745324 -0.061878253
-0.112817526 0.12213971 0.03795496 0.10769017 -0.1299217 -0.03039539 0.077114485 -0.022746792
0.15065216 -0.043529935 -0.18000647 -0.22182052 0.16961743 -0.086507976 -0.10233031 -0.099938214
-0.26872587 0.06383253 -0.13692646 -0.23345391 0.251491 -0.0006540965 0.37939125 0.16038208
0.18412109 -0.07121144 0.0009220179 0.24054907 -0.07283431 -0.080306426 -0.065876506 -0.14344361
0.083371766 -0.04958455 -0.09877715 -0.16025893 -0.12216742 0.19002314 0.048681095 -0.048625037
-0.20251709 -0.2183433 0.025703883 -0.065051645 -0.16881824 0.37845314 0.29006904 0.52553225
0.26754576 0.22151291 0.101416804 0.0069202688 0.20781556 0.14412822 0.11031914 0.020516226
-0.005831968 0.21696675 0.05803277 0.0027746125

block1.1.bn3_2.weight f4 [2]
00000000: fb2f f73e 04ac 723f
0.48278794 0.94793725

block1.1.bn3_2.bias f4 [2]
00000000: 941d bf3e a1d3 42bf
0.37327254 -0.7610417

block1.1.bn3_2.running_mean f4 [2]
00000000: 188e 4cbf 2cbd 043e
-0.7990432 0.12962788

block1.1.bn3_2.running_var f4 [2]
00000000: 29d5 623e 7315 ba3e
0.22151627 0.3634449

block1.1.conv4_1.weight f4 [2, 16, 1, 1]
00000000: 7931 46bd 2876 a5be e9ea 873e 80af e83e
00000010: db96 c1be 717f a5bd f41a 6dbf da6a 60be
00000020: b743 9b3e 5570 483e 3e60 203c 5d74 5cbe
00000030: f097 eb3c fb44 30bf 3df5 a3bc 3f15 85be
00000040: 7efe debc 9104 03be 2a33 693e b870 b73e
00000050: 930b efbc e5fd fdbe 1567 0a3d 7576 b4bd
00000060: 2abb 2d3f 47da c43d 6506 c03e 5ccf 263e
00000070: 331c 393d a041 b63e eb2a 113d e182 ac3f
-0.048387025 -0.3231671 0.2654641 0.45446396 -0.37810406 -0.08080948 -0.9261925 -0.2191576
0.303251 0.19574101 0.009788571 -0.21528764 0.028758973 -0.68855256 -0.0200144 -0.25992772
-0.02722096 -0.1279471 0.22773424 0.35828185 -0.029180324 -0.4960777 0.033789713 -0.088116564
0.67863715 0.096119456 0.3750488 0.16290039 0.04519291 0.35596943 0.03544132 1.3477441

block1.1.bn4_1.weight f4 [2]
00000000: 7af4 523f f2d2 ec3e
0.8240429 0.46254689

block1.1.bn4_1.bias f4 [2]
00000000: 0e1f 9ebd 87c1 413f
-0.07720767 0.75685924

block1.1.bn4_1.running_mean f4 [2]
00000000: 034d 1fbf 4316 6a40
-0.62226886 3.6576087

block1.1.bn4_1.running_var f4 [2]
00000000: a51d f03e 9508 673f
0.46897617 0.9024747

block1.2.conv1_1.weight f4 [4, 16, 1, 1]
00000000: b87c da3e 6b2b bbbe e527 93be 15fb 053e
00000010: b7be e73f e5b0 e2be 6ca9 fd3e 3646 0c3f
00000020: 8b00 4cbe 4f65 1f3e 019d 41bf 1c61 0b3f
00000030: be1e a13d e5c2 a23e 6800 523c 8ddf 443f
00000040: 8518 8ebc dee1 7b3b ceb3 c8bc 8378 533d
00000050: a166 cf3c b51b 4f3c dbb1 64bd c797 ed3d
00000060: 052a 3f3c d029 6c3d 3bdb a7bd 395b 2abd
00000070: a87f a03b 2dbe fcbc dee5 00bd e1ed ce3d
00000080: cbfd 2140 8083 f83e 85ac e2be 3b1e 85bc
00000090: a030 1dbe f513 e6ba 3811 5abb ec83 e63d
000000a0: 3b8c 0e3e 46d1 8c3e 93fb 203e 9551 343e
000000b0: f411 e4be b9cb 953e dfae 5d3c fded 373e
000000c0: 928a 1fbe 2e64 983f 52e6 51be b75a 3cbf
000000d0: 2adf 1b3e 5dd5 283f 2ec0 d13e 693d 523e
000000e0: adcc 7b3f f1bc e83e 1459 e3be 3156 9e3d
000000f0: 692f bb3d 8329 aebe be00 553d 43ae c33d
0.42673278 -0.36556563 -0.28741375 0.13084061 1.8105077 -0.44275585 0.4954332 0.54794633
-0.19922082 0.1556599 -0.75630194 0.5444505 0.07867192 0.31789318 0.01281748 0.7690361
-0.017345676 0.0038434188 -0.0244998 0.0516286 0.025317492 0.012640883 -0.05583368 0.11601215
0.011667733 0.057657063 -0.08196112 -0.041590903 0.0048980303 -0.030852402 -0.03146922 0.101039656
2.5311153 0.48537827 -0.44272247 -0.016249767 -0.1535058 -0.0017553555 -0.0033274423 0.11255631
0.13920681 0.27503413 0.15720968 0.17609246 -0.44544947 0.2925699 0.013530462 0.17961879
-0.15580204 1.1905572 -0.20498016 -0.7357592 0.15221849 0.65950567 0.40966934 0.20531239
0.98359185 0.4545665 -0.444039 0.077312835 0.09139902 -0.34016046 0.05200266 0.09554722

block1.2.bn1_1.weight f4 [4]
00000000: 4739 423f 9289 5f3b 0644 8f3f a52d 2f3f
0.7586865 0.0034109098 1.1192634 0.68429023

block1.2.bn1_1.bias f4 [4]
00000000: 2810 0340 ede9 d5bc 23ce fc3f 6472 9b3f
2.047861 -0.026112521 1.9750408 1.2144284

block1.2.bn1_1.running_mean f4 [4]
00000000: 26d4 8140 e509 1f3e 24c0 a540 ddf9 723f
4.057147 0.15531118 5.1797047 0.9491251

block1.2.bn1_1.running_var f4 [4]
00000000: 5352 7040 8907 323c f916 ee40 0645 e13f
3.7550247 0.010866054 7.4403043 1.7599189

block1.2.conv2_1.weight f4 [8, 16, 1, 1]
00000000: 0e7e c7bb f28d 32b9 78c3 a4bc 93f3 87bc
00000010: 2215 743d 1288 453d afb0 d0bc a1c8 afbc
00000020: cbe7 53bd f1ed 843d ecef 9d3d 22a6 573d
00000030: 2613 473d c724 5f3d 6421 a63c 18b6 29bc
00000040: 6338 843d f1e8 22be ac1c 133e 3591 a83f
00000050: fbf2 ab3d 09b8 74be d8bc 91bc ae07 953d
00000060: 9ea4 1c3f 9277 18be 5250 73be 1f4c 683e
00000070: db5b 0e3e 90fd 903d f1ca 21be 5128 73be
00000080: c9bc 12bf 8ec3 f53d 5ac6 ba3e e47a c2be
00000090: c6cc adbd 3c34 4e3e cfc1 c33e 19dc b5be
000000a0: 0e07 053e b52c 49be cc61 5d3e 4111 70bd
000000b0: 1c64 ce3d 3361 563d cb48 15bf 76e8 e63d
000000c0: 06c5 af3e 5248 c6bd ce8b bb3e d7f6 92bf
000000d0: fe09 4d3e c12b 25be e95e 733e 19ce 103d
000000e0: 7177 583e a807 83bd c268 b73b d504 66be
000000f0: 09ea 52be 65c4 f4be a3f0 19bf 931a e43d
00000100: 924e ebbe 7896 5cbe e9b3 8b3d bbb8 a9bd
00000110: a980 a23e 6f9a f63d 0bfb 79be b689 243f
00000120: bfe8 a3be d137 c0be db52 26be fb89 103e
00000130: d6c0 403e e711 e2bd 254d 89be 7eb6 d9be
00000140: cc88 febc 8f2b 3bbd 530f 263d 99be 1b3d
00000150: 76a9 c63d 40b5 8d3d e9cd 1c3c bc01 8cbd
00000160: 4ec3 83bc e26e 3a3c 615b ed3c ee2c a5bc
00000170: 1019 f73c 1abe 2bbd 2ded 693d 5ec6 f1bc
00000180: 2ffd 70bf f906 bcbd 0b5a b53e 2b3d 54be
00000190: 105b 453f 8720 08bf 9bdd f63d f562 66bd
000001a0: 699d 333d befd e4be 028e 16be c2e7 e13c
000001b0: fb35 e3be c922 793e 6295 99be ff17 ec3d
000001c0: ce31 a9bd 7ab9 333d 6ce5 adbc ba07 9a3c
000001d0: 6867 013d 1bc8 543d 8a48 c73b 69a7 283d
000001e0: 80b2 fbbc a5fa 8f3c ce57 b73d 563d 63bd
000001f0: f111 263d 40f1 9f3d 9657 4bbc 1583 7e3d
-0.006088025 -0.00017028282 -0.020112738 -0.016595637 0.059590466 0.04822547 -0.025474874 -0.021457972
-0.051734727 0.06490696 0.07711777 0.05264867 0.048602246 0.054478433 0.020279594 -0.010358356
0.064560674 -0.15909173 0.14366406 1.3169314 0.08395954 -0.23898329 -0.017790243 0.072768554
0.61188686 -0.14889362 -0.23761109 0.22685288 0.13902228 0.07079613 -0.15800072 -0.23745848
-0.57319313 0.1200019 0.36479455 -0.37984383 -0.08486323 0.20137113 0.38233802 -0.35519484
0.12990972 -0.1964596 0.21619338 -0.058610205 0.10077688 0.05233879 -0.583142 0.11274807
0.34330004 -0.09681763 0.366301 -1.148158 0.20023343 -0.16129972 0.23766674 0.0353528
0.21139313 -0.06397945 0.005597205 -0.22462781 -0.2059709 -0.47806087 -0.6013281 0.11137881
-0.45958382 -0.21541774 0.068214245 -0.08287188 0.31738785 0.120411746 -0.24412172 0.6427263
-0.3201351 -0.37542585 -0.16242544 0.14115135 0.18823561 -0.11038571 -0.2681667 -0.42522043
-0.03107109 -0.045695838 0.040541958 0.038023565 0.09700291 0.06919336 0.009570577 -0.06836268
-0.01608434 0.011378976 0.028974237 -0.020163026 0.030163318 -0.04192934 0.057110954 -0.029513534
-0.9413633 -0.091810174 0.3542026 -0.20726459 0.77092075 -0.5317463 0.12053987 -0.056246717
0.04385129 -0.4472484 -0.14702609 0.027576331 -0.4437712 0.24329676 -0.29996783 0.115280144
-0.082614526 0.043878056 -0.021227561 0.018802512 0.031592757 0.051948648 0.0060816454 0.04117528
-0.030724764 0.017575571 0.08952294 -0.055478416 0.040544454 0.07809687 -0.012411019 0.06213673

block1.2.bn2_1.weight f4 [8]
00000000: f7fd 863b d116 2b3f 7aba 593f fa9c 223f
00000010: 7b37 0d3f 2003 10bc f1e8 273f 82bf 4e3c
0.0041196304 0.6683169 0.85050166 0.6352078 0.5516278 -0.008789808 0.65589815 0.012618901

block1.2.bn2_1.bias f4 [8]
00000000: e6c8 4fbd 27ae 093f 6ae8 57be d893 863f
00000010: ef4d 563d 1a81 d5bd 5240 623f 3716 aabd
-0.0507287 0.5378136 -0.21084753 1.0513868 0.052320417 -0.10425015 0.88379395 -0.083050184

block1.2.bn2_1.running_mean f4 [8]
00000000: 2dfa b33d 51af 0540 8596 bebf d693 2ebf
00000010: 940b 96bf fbb8 cf3d 372a 9fbf 6602 283d
0.087879516 2.0888255 -1.4889685 -0.6819433 -1.1722283 0.10142704 -1.2434758 0.041017912

block1.2.bn2_1.running_var f4 [8]
00000000: d9cb 813b 6207 613f 7aa0 7f3f 97bf fa3e
00000010: 1be3 9c3e 2013 8b3b aa7a 713f f71a 2f3c
0.003961068 0.8790189 0.9985424 0.48974296 0.30642018 0.0042442232 0.94327796 0.010687581

block1.2.conv2_2.weight f4 [8, 8, 3, 3]
00000000: 9ddc 0b3d 2e94 873d f674 8dbc 8fb2 383b
00000010: 099b ec3d 015f 5d3c 7a3e 963c b4cd 0f3d
00000020: 0b8f 06bb e028 a0be 0eb2 d8be 2ca6 d9bc
00000030: fa63 983c be87 743d 53f3 bfbd 82a8 f43d
00000040: adc5 2b3f dea2 ee3d a769 b83d 8860 f73e
00000050: 6e48 d6bc ab12 9a3d 65a3 0e3e 1240 c43d
00000060: 95cd b0bd 41ac ebbe bc34 c5be a191 d83c
00000070: 3192 333f 20b9 42be 9dd9 87be caf1 ad3e
00000080: bc7a 3e3d 4eee 2ebe d291 a3be 388a 86be
00000090: 0780 0b3e 8cff e4bd 63df ff3d a6be 203f
000000a0: a2c2 bfbe 3210 3b3e 6ada df3d 84ef e73d
000000b0: 6065 bbbc bfb9 363d 80c2 a83d 83f6 be3b
000000c0: 4f43 6f3c 54cd 803d 4bd4 0e3d b0d2 08bc
000000d0: c970 3dbd 72ab dc3b 0d90 b03d e0da 9f3e
000000e0: 5ea9 c9bc 364b 803e 059e 77be 0298 b53c
000000f0: 6e97 b03d 99e2 9b3d 7b00 3e3e 2f8c 5e3d
00000100: 3ad7 7f3d 4aaf dc3c c7a8 aabb 3fac cdbb
00000110: 134e 473d de7d 7e3b 386b 7f3d 3889 c23d
00000120: 96e1 6bbc a455 6dbd 79d9 2b3c 3945 33bc
00000130: cc21 d8bc a29e 023d 37a2 853b 73cf 093d
00000140: f567 58bd 20e1 ca3d f2b5 163d 37e8 32bd
00000150: 04cf 413e dd1e 5f3e b40c fc3b d671 c4bb
00000160: 9399 903e 05d0 75be b994 d9bd 653b 10bd
00000170: b6e0 b63d f9e6 17be 009c 173e 54f2 c8bd
00000180: 0fb3 93bc c372 22bd 8104 893d 2d16 c6bd
00000190: 1c1d 9fbe addf 783e 6496 33be ca7b 1ebf
000001a0: 5f1a 5abe ed71 703e 917d cdbd 8919 333e
000001b0: 2527 053e 866f 823e 7028 d23d ebc6 10be
000001c0: 60da 42bd 99bc 313e 7262 7bbe d43c 84bd
000001d0: c2b1 853e c26f 1dbd 75ed 1ebd 1cd8 cdbd
000001e0: 70da c83c b4f5 68bc 4d28 58bc 31e3 d3bc
000001f0: 79f1 41bd 0ec7 0fbc dbfc 04bf aebb 89be
00000200: 1ae4 21be 1c6c 0ebf 5b86 13bf 4dde 9ebd
00000210: 1cee 6a3d c591 f93d 0b4e f83d 8db0 59bd
00000220: a7d1 7bbd 5fbf 98bd ab95 b0bb 6d42 ac3b
00000230: d11a 81bc 8ed3 94bd d47c 9cbd 3284 9dbc
00000240: 3023 27bc 118f 13bc f52e a3bc a80b 053d
00000250: 89c1 9c3c 706a 5a3b e75d 213d baea 85bb
00000260: 6971 2a3c a670 833e ef52 b3bb 6f32 94be
00000270: d049 ed3e e714 d1bd 26da 98be fa4d f83e
00000280: e2f4 17bd 588c 0bbd 4cf1 5c3d 75fc 8c3e
00000290: 5c61 ae3e 170c 53be dd50 4f3e 5e26 f93e
000002a0: f436 d0bd b2e4 543e eccc 6b3d 08ea e5bc
000002b0: 3e95 10be 13bd 69be 030f 143e c445 983e
000002c0: 4fa5 583e 17c3 11be 3d77 0cbc 712f 973e
000002d0: 9959 92be 64d5 f1bd d21b d0bd 0ea0 a53d
000002e0: f4a6 0fbd fcf8 96be cbb4 80bd ff2c af3b
000002f0: 4e1c b7be 030a cfb9 b7e0 18bb 565b d4bc
00000300: 8d86 c63c ccf8 073d a064 8ebb 1155 11bd
00000310: 5b75 e63c d660 46bc 59f0 f93d 015c e03e
00000320: 2d76 9f3e 94c9 07be 6038 fe3e 19df 52be
00000330: 2fdc d73c e200 553b 0d2c 00be 535c 313c
00000340: 3eb1 e63c ea31 1c3d 2c4b 133d 74f9 333c
00000350: d7d0 2a3c f573 093d 19fc 323d 238f 3b3d
00000360: dbc7 c0bc 7b2c 213d a3b8 85bc 7d22 32bd
00000370: 4ced edbd bcca c03c 78f2 a1bd ba20 96bd
00000380: 2f5e 6cbd 45a4 86ba 3519 dcbc f720 c4bc
00000390: 328a acbd ae2f 00bd 88af 723c f267 52bc
000003a0: d848 6fbd 5603 d8bc 0402 74bd 1c5a 79bd
000003b0: 6129 5d3c 6a05 78bd 0590 35bd 83e9 4bbd
000003c0: 9810 4abd 2af0 11bc 2158 0cbc ecd7 8fbc
000003d0: f936 9fbc 1451 2cbd 7739 72bd 60c0 84bd
000003e0: bbd2 b13b 9dd6 81bd f87d a3bd 71aa 8dbd
000003f0: 8f13 cbbc d2ac 113d ff9f c03d e072 4bbd
0.03414594 0.0662006 -0.017267685 0.00281826 0.11553008 0.01351142 0.018340338 0.035108283
-0.0020532038 -0.31281185 -0.42323345 -0.026568495 0.01860236 0.059699766 -0.09372582 0.11946203
0.67098504 0.11652158 0.090045266 0.48315835 -0.026157584 0.07523092 0.13929518 0.09582533
-0.08632962 -0.46029857 -0.38516796 0.026436629 0.70144945 -0.19015932 -0.26533213 0.33973533
0.046503767 -0.17083094 -0.3194719 -0.26277328 0.13623057 -0.11181554 0.124937795 0.62790906
-0.3745318 0.18267897 0.10930331 0.11324981 -0.022875488 0.044610735 0.08240223 0.0058277263
0.01460345 0.06289163 0.034870427 -0.008351013 -0.04625014 0.006734305 0.086212255 0.31221676
-0.024616893 0.2505738 -0.24181373 0.02216721 0.08622633 0.076115794 0.18554871 0.05433291
0.062461115 0.026939053 -0.005208108 -0.006276637 0.04865844 0.0038832347 0.06235811 0.09498829
-0.014397046 -0.057943 0.010488861 -0.010941797 -0.026383303 0.031889565 0.0040781754 0.033645105
-0.052833516 0.099062204 0.03679461 -0.04367849 0.18926626 0.21789117 0.007691944 -0.0059950156
0.28242168 -0.24005134 -0.1062407 -0.035212893 0.08929579 -0.14834203 0.14805603 -0.098118454
-0.018029718 -0.039660227 0.06690312 -0.096721984 -0.31076896 0.24304076 -0.17537838 -0.6190764
-0.21299122 0.23480959 -0.100337155 0.1749021 0.13003214 0.2547571 0.10261619 -0.14138381
-0.04757154 0.173571 -0.24549273 -0.064569145 0.2611218 -0.03843666 -0.038800675 -0.10050985
0.024518222 -0.014218736 -0.013193202 -0.02586517 -0.047349427 -0.008775486 -0.51948327 -0.26901
-0.1580967 -0.5563371 -0.57626885 -0.07757244 0.057355985 0.121860065 0.121242605 -0.053146888
-0.061479237 -0.07458376 -0.0053889356 0.005256942 -0.015759857 -0.07266913 -0.076409966 -0.019228075
-0.01020126 -0.009006278 -0.019919852 0.03248182 0.019135254 0.0033327602 0.039396193 -0.0040868195
0.010403016 0.2567188 -0.005472533 -0.28944728 0.46345377 -0.10209065 -0.29853934 0.4849699
-0.037098773 -0.03406939 0.053941056 0.2753636 0.34058654 -0.2061008 0.2024569 0.48662084
-0.101667315 0.20790365 0.057568476 -0.028065696 -0.14119431 -0.22826032 0.14458852 0.29740727
0.2115681 -0.14234577 -0.0085733505 0.29528382 -0.28583983 -0.11808279 -0.10161556 0.08087169
-0.03507133 -0.29486835 -0.062844835 0.00534594 -0.35763782 -0.00039489576 -0.00233273 -0.025922459
0.02423408 0.033196256 -0.0043454915 -0.035481516 0.028132131 -0.012108048 0.12204046 0.43820193
0.31144848 -0.1326049 0.49652386 -0.20592918 0.026350109 0.0032501747 -0.12516804 0.010825234
0.028160688 0.03813354 0.03596036 0.010984767 0.010425768 0.03355785 0.04369745 0.045790803
-0.023532799 0.03934906 -0.016323393 -0.04348992 -0.116175264 0.023534171 -0.07907575 -0.07330461
-0.057707008 -0.0010272345 -0.026867488 -0.0239415 -0.08424796 -0.03129547 0.014812358 -0.012842165
-0.05841908 -0.026368778 -0.059572235 -0.06087695 0.013498635 -0.06055204 -0.0443268 -0.04978324
-0.04933223 -0.008907357 -0.008565933 -0.017559014 -0.019435393 -0.04206951 -0.059136834 -0.06482005
0.0054267324 -0.06339762 -0.07983011 -0.06917275 -0.0247896 0.035565205 0.09405517 -0.0496701

block1.2.bn2_2.weight f4 [8]
00000000: e206 de3e 30c5 f83e a08d 2f3f f350 573c
00000010: 0443 403f 1147 133f 73c3 f43e 8074 043f
0.43364626 0.48587942 0.6857548 0.013141858 0.7510226 0.57530314 0.47805366 0.51740265

block1.2.bn2_2.bias f4 [8]
00000000: 7306 d63e d5a5 343f ff25 033e 31aa bfbd
00000010: fe37 a6be daf7 c93e d043 2e3f 91d7 b93e
0.41801795 0.7056554 0.12807463 -0.09358633 -0.32464594 0.39446908 0.68072224 0.36297277

block1.2.bn2_2.running_mean f4 [8]
00000000: 8cb8 543f a20e 08c0 1061 c33f 8726 efbe
00000010: b632 11c0 3fd8 d2bd 4345 42bf 3db4 57bf
0.83094096 -2.125893 1.5263996 -0.46709082 -2.2687201 -0.10295152 -0.75886935 -0.84259397

block1.2.bn2_2.running_var f4 [8]
00000000: dbfb 7c3f c0d9 bd3f dd37 953f 81d9 463d
00000010: a7c0 553f da47 823f 1614 903f f683 3f3f
0.988218 1.4832077 1.1657673 0.04854727 0.8349709 1.0178177 1.125613 0.7481073

block1.2.conv3_1.weight f4 [2, 16, 1, 1]
00000000: 0815 b53e 4ebf 60be 65f2 56be 9829 8fbc
00000010: 6066 d33d 604c 31be 99d2 fb3d 3e59 2e3d
00000020: e4f6 843e 8d89 84bd 2248 82be 1517 e2bc
00000030: 0726 01be 0503 bd3e 5789 da3d 9c64 233e
00000040: 9d52 383e 3124 d7be cad5 61bf 5424 8c3e
00000050: 8709 08be 9b05 083e b9de f1bd 1101 5ebe
00000060: cca4 0a3d c435 babd 99e8 58bd 0b84 02bd
00000070: 17cf abbe 2258 63bf 8209 19bf f62f 903e
0.35367608 -0.21947977 -0.20990904 -0.017475888 0.10322261 -0.17314291 0.12296028 0.042565577
0.25969613 -0.06471548 -0.25445658 -0.027598897 -0.12612163 0.36916366 0.10670727 0.15956348
0.18000264 -0.420198 -0.8821684 0.27371466 -0.13284884 0.13283388 -0.11810059 -0.21680094
0.03384857 -0.09092286 -0.052956197 -0.031864207 -0.33556435 -0.88806355 -0.5978013 0.2816159

block1.2.bn3_1.weight f4 [2]
00000000: 872c d33e 9355 f63e
0.4124491 0.48112163

block1.2.bn3_1.bias f4 [2]
00000000: bad2 813e 4909 913f
0.25356084 1.1330959

block1.2.bn3_1.running_mean f4 [2]
00000000: 6f72 583f 8958 bcbe
0.8454961 -0.36786297

block1.2.bn3_1.running_var f4 [2]
00000000: 5194 6a3e 00d5 a53f
0.2290814 1.2955627
