assignment1/results/trial_2/inception/ckpts/37000.pt (torch, 689131 bytes, 467 tensors)

block1.0.conv1_1.weight f4 [4, 16, 1, 1]
00000000: 0e08 ed3e 227b 613f 44a1 d23e 033b 8f3e
00000010: a9c8 413f 0c0a cd3e 1c38 803f fc4d 283d
00000020: e488 3c3f d254 f83c e24b 1abd 14d2 343d
00000030: 07d6 a8bd 9521 cfbe c0da 593f 305f c0be
00000040: 90fb 04c0 ddd1 3ebf a826 b6be 842e e53d
00000050: 8bba 97be a15c 1b3e f949 633e 63af 7d3d
00000060: a3b2 c23e a9f1 cabe e5e2 89bd 3e51 7e3d
00000070: 55d3 93bd 1e4e a43c b0fd 8d3e ae64 ee3e
00000080: 3622 efbe 1393 17bf 6f49 d3bd 222f 56bf
00000090: 9223 b33e 5025 9e3f 439f 8f3f 54d5 a7bb
000000a0: 91e8 16be f67f ca3e 2bb0 f03c e103 3e3a
000000b0: 2f71 903d b166 9fbd 516d e5be 8d66 0fbf
000000c0: 7c17 0a3e 899f 4f3e 344c 17bf 22a1 603e
000000d0: eadd ae3d 5073 e03f 22ba 44bf 7fe6 03be
000000e0: 1aa8 9e3e 9a68 293e 9db7 59bd c2e0 283b
000000f0: d7fe 3c3e 4097 ee3e 7fb0 6bbe 84c5 16bf
0.46295208 0.8807851 0.4113866 0.2797471 0.7569681 0.40046728 1.0017123 0.041089997
0.7364638 0.030313883 -0.037670024 0.04414566 -0.082439475 -0.4045531 0.8509941 -0.37572622
-2.0778542 -0.74538976 -0.35576367 0.11190513 -0.29634508 0.15172054 0.22196187 0.06193484
0.38026914 -0.39637497 -0.0673273 0.062089197 -0.07218043 0.02005678 0.2773261 0.46561188
-0.46705788 -0.5920879 -0.10316741 -0.8366567 0.34988075 1.2355137 1.1220478 -0.0051218662
-0.14737155 0.3955075 0.029380878 0.0007248503 0.07052838 -0.07783259 -0.44809964 -0.56015855
0.13485521 0.20275702 -0.5910065 0.21936467 0.085384205 1.753519 -0.76846516 -0.12880896
0.30987626 0.16543809 -0.053153623 0.0025768732 0.18456589 0.4659977 -0.23016547 -0.58895135

block1.0.bn1_1.weight f4 [4]
00000000: 1908 713f 4a0a 7d3f 0150 603f 5b8e 393f
0.9415298 0.98843825 0.87622076 0.7248284

block1.0.bn1_1.bias f4 [4]
00000000: 69d1 b53f 816e 2f3f 481f fc3f 02b9 1540
1.4204532 0.6852799 1.9697046 2.339417

block1.0.bn1_1.running_mean f4 [4]
00000000: 7d05 bc40 d51d 2bbf b906 b23f bce7 2340
5.87567 -0.66842395 1.3908302 2.561019

block1.0.bn1_1.running_var f4 [4]
00000000: 914a 1d40 ef87 5240 514b 8a40 97c2 8240
2.4576762 3.2895467 4.321694 4.0862536

block1.0.conv2_1.weight f4 [8, 16, 1, 1]
00000000: 17cd 15be 6115 f7be a46c c03d fb2f a8be
00000010: 870f 903e 59e5 4fbe 923c 45bf 226a 5abc
00000020: ad54 8d3e 5217 83be 627f 323b 373b c2bc
00000030: 280f 01bd 537b 7f3f d3f0 023d fe0d eb3d
00000040: d008 e43c 2496 39be 846a e53e 2350 26bf
00000050: 3dc0 82be 6390 3bbe d8ff bcbe 7c13 c4bd
00000060: cfa1 a6bf 5167 b2bd f142 80bd a755 9abd
00000070: 61ba a4bd 4e6a 7b3e 3722 fe3d 4234 853d
00000080: b3e9 d5be 6de9 53bf 0960 babe fcd5 13be
00000090: 05b2 bf3d 0a73 cd3e 3946 1e3c faaf 193d
000000a0: 2ba8 3cbe fc98 863f 92b5 e8bc 883c 153b
000000b0: da6a e8bc 2306 1bbf 33e5 273e 8c55 703d
000000c0: 770d 283e fd2a c4be 2754 6bbd c4b3 97bf
000000d0: c191 4ebe 090b d3be 8168 4d3f 41a7 843d
000000e0: 06fe 823f 59ba 2fbe f909 50bc 6e46 0dbd
000000f0: 105b 18bd 48bf 3b3e 7205 c43e a851 e73d
00000100: 90f1 653d c9cb 5b3d 69e0 c33d 9ece ed3d
00000110: ded2 b23c 08bb b13d 27c6 d83c aaed 84bd
00000120: 2ded f03c 46af 6fbc 6718 5c3c 18a4 6a3d
00000130: 032e 123d 1d0d 293d e04f 89bd 786e d33d
00000140: d1bd 26be f4f7 bd3d a5b6 5ebe 19b1 4bbe
00000150: 838a 45be de61 27be 0d6f cd3d 79c2 cb3d
00000160: 8d79 48be a1bf 2dbf 60fa 8abc 7b1d 6bbd
00000170: e94f 02bc 7764 89bf 3723 213c 791c b9be
00000180: 8669 0a3f ad05 433e 151a 3bbe 1aa3 73be
00000190: fced 823e 2dc2 aabe 8b60 d7be c755 0cbd
000001a0: e356 863e b045 47bf 5223 4c3d 474a b23d
000001b0: 7a2b 5c3d 253d 08be 79da 593e 6bc5 f7be
000001c0: 974d cabd 60e1 babe 6815 ee3e 5ae7 873f
000001d0: c2f3 2a3e 5244 85be 02d1 07bf dc50 a03d
000001e0: 3057 6a3f 990f 763e 4dbe 9cbc bb38 3c3e
000001f0: 345d 3a3d 75e1 5a3d 7a56 8f3e db17 253f
-0.14629017 -0.48258498 0.093957216 -0.32849106 0.28136846 -0.20302333 -0.7704555 -0.013330968
0.27603665 -0.2560373 0.002723657 -0.023709876 -0.031508595 0.9979755 0.03196795 0.11477278
0.027836233 -0.1812368 0.44807827 -0.6496603 -0.2553729 -0.18316798 -0.36913943 -0.09574029
-1.301813 -0.08711112 -0.06262768 -0.07535868 -0.080433615 0.24552271 0.1240887 0.06504108
-0.4177986 -0.82778054 -0.36401394 -0.14437097 0.093601264 0.4012683 0.009660297 0.03752134
-0.18423526 1.0515437 -0.028406892 0.0022771675 -0.028371263 -0.6055624 0.16396026 0.058675334
0.16411386 -0.38314047 -0.0574533 -1.1851735 -0.20172788 -0.41219357 0.80237585 0.06477214
1.0233772 -0.1716093 -0.01269769 -0.034490995 -0.03719622 0.18334687 0.38285404 0.112948716
0.056138575 0.05366114 0.09564287 0.11611675 0.021829065 0.086782515 0.026461674 -0.06490643
0.02940997 -0.014629191 0.013433552 0.0572854 0.03568841 0.04127227 -0.06704688 0.103238046
-0.16283347 0.09275809 -0.21749361 -0.19891776 -0.1929112 -0.16345927 0.10030947 0.09949202
-0.19577618 -0.6787053 -0.016965091 -0.05740116 -0.007953622 -1.0733784 0.009835056 -0.36154535
0.54067266 0.19045134 -0.18271668 -0.23792687 0.25572193 -0.3335127 -0.42065844 -0.03426149
0.26238164 -0.7784071 0.04983837 0.087055735 0.0537524 -0.13304575 0.21274747 -0.48392805
-0.0987808 -0.36500072 0.46500707 1.0617478 0.16694549 -0.26028687 -0.53053296 0.07827923
0.9153929 0.24029388 -0.019133711 0.18381016 0.04549904 0.05343767 0.27995664 0.64489526

block1.0.bn2_1.weight f4 [8]
00000000: 708b 323f 2ce5 463f ca5a 1b3f 15ef 6e3f
00000010: 1bea 643c bfcc 763f 0709 423f a882 6b3f
0.69744015 0.7769344 0.6068541 0.9333356 0.013971831 0.9640617 0.75795025 0.9199624

block1.0.bn2_1.bias f4 [8]
00000000: e9d8 f23e 975a 483f f915 913e 84a4 083f
00000010: f65b f2bd f9c1 e4bd ebd9 99bc 1c47 a13f
0.47431114 0.7826323 0.28337076 0.5337603 -0.118339464 -0.1116981 -0.01878067 1.2599826

block1.0.bn2_1.running_mean f4 [8]
00000000: 8a1c 89bf c57d 92c0 7be3 96bf 21c5 ac3f
00000010: 12cf 4b3f c9bc 54c0 d4d2 fcbf fcf9 5340
-1.0711834 -4.5778527 -1.1788172 1.3497659 0.7961284 -3.3240225 -1.975184 3.3121328

block1.0.bn2_1.running_var f4 [8]
00000000: 67fc 313f 0dc9 6f3f afca 173f 834c cd3f
00000010: 7f41 973c ad94 283f b606 9a3e 9fb6 0940
0.6952576 0.93666154 0.59293646 1.6038975 0.018463848 0.6585186 0.30083245 2.1517713

block1.0.conv2_2.weight f4 [8, 8, 3, 3]
00000000: 2ecf 82bd ee77 64be 1e15 183e c998 95be
00000010: 5199 cbbd ddfd 9d3c d2f4 873e 8170 863e
00000020: e84b 703e f29f f53e 091f 903c 8ba7 b63e
00000030: b88b f6bd dd90 8abf de97 cbbd 73b1 053f
00000040: 5c91 4a3d f454 bfbd a7fc 363e 7885 cc3e
00000050: 276d 25be 3e1b 10be 0a45 523e 3e47 b3ba
00000060: 911e f03c 80da c33e dc7f 773e 1c25 313e
00000070: 5b15 273e 8fa5 a4bd 3a08 8e3d 18e2 36bf
00000080: 7023 cbbd abbb 803d 3867 90be 0930 873d
00000090: 59b0 7c3d 637b a23d e29c 3a3d adf2 68bc
000000a0: 56a2 883c 6b78 f03c 74a1 8dbc 6d19 db3a
000000b0: 5b7a 0f3d 95bd fe3c 9b2f d4be 1d8f c93e
000000c0: 2195 753e 2d95 d13d 86e3 a63d f313 233e
000000d0: 7c58 4fbe 1640 dabd 32a7 583e 5d33 663b
000000e0: bde7 e1bd 66a2 9d3e a327 61be b77a 1dbd
000000f0: 348c e5bd cfb4 58bd 1304 38be 3a6d f1be
00000100: 090f b13e 4b7c ecbd a7e6 9ebe 2f31 b63f
00000110: 1536 a1bd 1d7a afbe 1f0c 0abe a8b0 bdbd
00000120: e744 f13c 250f 4fbe b7e5 973e 819e 15be
00000130: a8b3 97bd 2212 4cbe f3d2 e23c 23ce 30be
00000140: 6eb9 4bbd 4b80 8bbe 3891 893e 3917 5dbe
00000150: d1cd 20bd 41f4 9c3f 0eaf 52be d5b5 3ebd
00000160: 6207 10bf be2e 5ebe 3b26 8d3e cb2a 613e
00000170: 338a 8dbe c324 bb3c 67a3 2bbe bc3c 773e
00000180: 79c1 b5bd 6ad4 66be 655a 8fbd a125 033f
00000190: 4c91 95bd 9f89 bc3b f097 273d a7fa 03bd
000001a0: 2eb0 0fbf c671 37be 9126 b8be 510e bf3d
000001b0: 616d f83c b641 f03c 3356 50bc 2645 82bd
000001c0: c4d1 42bd 0b18 4bbd 228e ecbc 79e3 9abc
000001d0: f3ab 81bc 5d36 1cbd a121 8bbd 9f2c dabd
000001e0: c464 11be 2789 0c3f 13b3 13be 5cfd c9bd
000001f0: 405c 45be 704c 323e 3fba be3d 8ef0 4d3e
00000200: e7ac 513e fee2 223e f761 22be 77e8 353d
00000210: 7d1e 80be e2e2 28be cc12 22bd 14a1 b5bc
00000220: 1074 12bf ad85 f03d 996a 19bf 07cb cabe
00000230: 4260 1dbc c4b0 a63e 8d65 253e 3ffa c73d
00000240: 8be8 453d bd41 1d3e 7bcf 683e e095 32be
00000250: 9b6d 13be 148f b7bc 1470 88be 6e3e 68be
00000260: 9bc9 48bc cb3d 2dbc e329 80be cd8b adbd
00000270: af42 f5be ac5e 11bf 8458 acbe a1b0 9fbe
00000280: 8cb0 49be e369 65be d214 dbbc f7d2 68be
00000290: b9a3 efbd c915 66bd 1104 8abd 2ce5 f3bd
000002a0: 873c 55bd b3a9 24be aa5a 8bbe 65ad da3d
000002b0: 30ba 23be a642 a5bd 4233 f23b 328a 69bd
000002c0: c414 acbd c557 febc 82ff 013e c294 1b3e
000002d0: 23ba f53c 2e99 cfbc d3b3 003c ec2f bfbb
000002e0: 65d7 81bc 26b9 26bc f8a6 d63c 538e 5f3c
000002f0: 30ca fa3c 3992 1d3d 370a 48bc 0a23 87bd
00000300: 6393 123e 3895 aabd f5b2 93be 6021 593d
00000310: 86ff 2cbe e516 51be 49fd 5138 f6a0 31be
00000320: 3f7e ebbd 66d4 79bd f719 193d 1aa5 033d
00000330: 75ab 623d 291c dbbd a6a5 aa3d 2948 81bd
00000340: a9ba b63c c920 08be 057e 9c3e 978d 553e
00000350: f72c fcbd eec2 f13d 7172 9dbd e97b 67be
00000360: 64af a8be 1ff4 8c3e 97e7 303e 6de4 88bd
00000370: a6b4 0fbf 07a7 2d3f f57e 043d 9e22 963e
00000380: 514b 1b3e 453b aa3c 0d66 523e b303 52bd
00000390: 11f5 c33e 6dad ec3c 9169 bd3e 0198 88bd
000003a0: e361 fe3d 9cef 1c3d 4ba9 0a3e 8839 95be
000003b0: da74 b8bc 76b7 593d 1ef3 b93e 1d31 22bf
000003c0: 7249 8b3c ec98 b53d 91bb 0d3e 0df8 643d
000003d0: 802e 8e3e c02a 3bbe 9115 99be ae7f 85bf
000003e0: 69ab b3be 18b3 9b3e 7ba5 c6be 3776 c9bc
000003f0: 999b 7c3c 0ae0 533d 2645 cebb 02d1 1ebd
-0.06387173 -0.22311375 0.14851806 -0.29218128 -0.09941352 0.01928609 0.2655397 0.2625771
0.23466456 0.4797359 0.017592924 0.356747 -0.12038368 -1.0825459 -0.09941076 0.5222389
0.04945503 -0.093423754 0.17869817 0.3994558 -0.1615492 -0.14072892 0.20534149 -0.0013677848
0.02931145 0.3825264 0.24169868 0.17299312 0.1631674 -0.0803939 0.06935163 -0.7143874
-0.099188685 0.06285795 -0.2820375 0.06600959 0.061691616 0.079336904 0.04555977 -0.014218015
0.01667897 0.029354295 -0.0172889 0.0016715951 0.035028797 0.03109626 -0.4144257 0.39367
0.2398267 0.10233531 0.081488654 0.15925579 -0.20248598 -0.10656755 0.2115753 0.003512583
-0.11030529 0.30787963 -0.21987776 -0.038447108 -0.11208382 -0.052906808 -0.17970304 -0.47153646
0.34581783 -0.115471445 -0.3103535 1.423376 -0.078716435 -0.34272853 -0.13481186 -0.0926221
0.0294518 -0.20220621 0.29667446 -0.14611246 -0.074073136 -0.19928792 0.027688479 -0.17266135
-0.049737386 -0.27246317 0.26868606 -0.2159089 -0.03925878 1.226204 -0.2057459 -0.046560127
-0.56261265 -0.21697518 0.2756823 0.2198898 -0.276445 0.022844678 -0.16761552 0.24144262
-0.088747926 -0.22541967 -0.06999663 0.5122929 -0.07303104 0.0057537104 0.040916383 -0.032221463
-0.56128204 -0.17914495 -0.35966924 0.093289025 0.030325593 0.029328208 -0.012715864 -0.06360845
-0.04756333 -0.049583476 -0.028876368 -0.018907296 -0.015829062 -0.038137782 -0.067935236 -0.10653042
-0.14198595 0.5489678 -0.1442378 -0.098627776 -0.19273472 0.17411971 0.093128674 0.20111296
0.20476113 0.15906903 -0.15857683 0.04441115 -0.2502326 -0.16492799 -0.039568707 -0.022171535
-0.5720835 0.11744247 -0.5992828 -0.39608023 -0.009605469 0.32556736 0.1615202 0.097645275
0.048317473 0.15357108 0.22735398 -0.17439985 -0.1439728 -0.022407092 -0.2664801 -0.22680065
-0.012255098 -0.010573815 -0.25031957 -0.084739305 -0.47902438 -0.5678508 -0.33661282 -0.31189445
-0.19696254 -0.22403674 -0.026743326 -0.22736727 -0.117011495 -0.05617312 -0.06739057 -0.119089454
-0.052059676 -0.1608036 -0.2721761 0.10677604 -0.15988994 -0.08069353 0.0073913643 -0.05701656
-0.08402398 -0.031047711 0.12695125 0.15193465 0.029995983 -0.025341596 0.007855373 -0.00583457
-0.015849778 -0.010175979 0.026202664 0.013644773 0.030613989 0.038469527 -0.012209467 -0.0659848
0.14314036 -0.083292425 -0.2884747 0.053010345 -0.1689435 -0.2041889 5.0065373e-05 -0.17346558
-0.11498689 -0.060993575 0.037378278 0.032139875 0.055339295 -0.106987305 0.08332376 -0.063125916
0.022305803 -0.13293757 0.30564895 0.20854793 -0.12313264 0.11804758 -0.076878436 -0.22605862
-0.32946312 0.2753 0.17275845 -0.06684194 -0.5613502 0.6783299 0.03234764 0.29323286
0.1516545 0.020780215 0.20546742 -0.05127306 0.38272908 0.02889129 0.36994603 -0.066696174
0.12421014 0.038314447 0.13541143 -0.29145455 -0.022516657 0.053153478 0.36318296 -0.6335619
0.017002795 0.08867058 0.13841082 0.055900622 0.27769852 -0.18278027 -0.29899266 -1.042959
-0.35091713 0.30410075 -0.38798127 -0.024592502 0.015417957 0.051727332 -0.006294864 -0.038773544

block1.0.bn2_2.weight f4 [8]
00000000: b3e1 063f 60a1 dabe 851a 143f 223b 23bf
00000010: 09e4 073f fd80 273f c233 3d3f 3115 123f
0.5268814 -0.42701244 0.57852966 -0.63762105 0.5308233 0.65431195 0.739071 0.57063586

block1.0.bn2_2.bias f4 [8]
00000000: 8d7e 0c3f 307b 453f 7fe7 853e b9d0 cb3e
00000010: 7b7a aa3e acd2 0d3f 7db2 8cbe 41a4 8f3f
0.548806 0.77141094 0.2615318 0.3980768 0.3329657 0.55399585 -0.27479926 1.1222001

block1.0.bn2_2.running_mean f4 [8]
00000000: 71f3 083f dc39 eabf 491c 32c0 6199 8fbf
00000010: 7cc1 9ebd 42da bcbe abb7 2abf 65b5 10be
0.5349646 -1.8298907 -2.7829764 -1.1218683 -0.07751748 -0.36885267 -0.66686505 -0.14131697

block1.0.bn2_2.running_var f4 [8]
00000000: 23cc a13f 5468 993f c51e 2e40 882c 2a40
00000010: 0e66 483f 39f7 2e40 e45e 0840 9a2d 3440
1.2640423 1.1984963 2.720628 2.658968 0.78280723 2.7338393 2.1307917 2.8152833

block1.0.conv3_1.weight f4 [2, 16, 1, 1]
00000000: 9df8 903e 742e 533e 9e2d b7bd 8a85 e0bd
00000010: fa7f 923e 7479 fb3e b271 b13e 3384 283e
00000020: 7a72 8ebe 5e8c 653e 886b 7e3b 7cf7 393d
00000030: 2474 753e 9e6e ed3e 2c0c 27be df3f a03d
00000040: db56 a83e 5348 32bc f3ab 4bbf 5743 a2bd
00000050: f7da 7f3d 3585 c43e 5da3 a9bd d5de be3c
00000060: 60e7 8fbd 2808 61bd aab7 99ba 5f44 adbc
00000070: 6cc4 983d 5c30 c9bd 969a 9a3d 9756 28bf
0.28314677 0.20623189 -0.08944248 -0.109629706 0.28613263 0.491161 0.34657055 0.1645668
-0.27821714 0.22416827 0.0038821418 0.045402035 0.23970085 0.46373457 -0.16313237 0.078246824
0.32878765 -0.010881501 -0.7955925 -0.07923 0.06246468 0.3838288 -0.08283112 0.023299614
-0.07026553 -0.05493942 -0.001172771 -0.021150766 0.074593395 -0.09823677 0.07549016 -0.65757126

block1.0.bn3_1.weight f4 [2]
00000000: b847 523f bcfb eb3e
0.82140684 0.46090496

block1.0.bn3_1.bias f4 [2]
00000000: 798d e6be c16e 1a3f
-0.4502981 0.6032525

block1.0.bn3_1.running_mean f4 [2]
00000000: 5b74 f33f 6254 95bf
1.9019884 -1.1666377

block1.0.bn3_1.running_var f4 [2]
00000000: c184 803f 5bde 523f
1.0040513 0.8237054

block1.0.conv3_2.weight f4 [2, 2, 5, 5]
00000000: 4e3d 4ebe 05bf f83d 120e 103e 3936 a5bd
00000010: 49e4 1d3c 22a2 c6be cd76 38bc 81ad adbe
00000020: 5498 b23d 0685 00be ac02 d53c 8c0d 0c3d
00000030: 0f9e a73b fb95 2e3e 3fd7 703e a74b 8f3d
00000040: b9aa 2c3e f845 b23c a409 a43e 7dc1 fe3d
00000050: 1694 70be c293 e63c af0e 203e ac80 a53d
00000060: 2a27 76bd 2f3b e73d 7d22 a43d 9d89 3d3e
00000070: 54a9 7bbd 64df 483d 1df8 723d b3f8 4ebe
00000080: caae b0be 8b81 00bd 0b78 8ebd 0803 5fbd
00000090: 7728 69be 8144 0b3f 276b 903d d2d1 59be
000000a0: d37d c03d 262a 09be ad01 69be c102 15be
000000b0: 3f73 433e 777b 60bd f1e3 ffbd 7030 a3be
000000c0: c2a2 1abe 5c6b 7b3c c11f 63bc 34c9 30be
000000d0: a190 98bc d4bd 273d b097 68bd 5553 3cbd
000000e0: 92ea e0be ece9 30be e167 08bf 39f3 5fbe
000000f0: f8b7 5b3d caa7 1abe 04bb a4be c01d 0bbe
00000100: 7c66 ac3d 4308 1bbe 8aa1 9abd 9926 8c3d
00000110: a599 00be a903 a93d 85c9 b83c dd85 2bbe
00000120: a2e0 5cbe 037e 9abd 8577 08be e5fa f8bc
00000130: eaee 893d c1ae 153d dee5 4a3c 9e17 193e
00000140: 58a4 843e bdbd b53e bf49 863e 8c4b a0bb
00000150: 1127 32bd 0e37 a13e 194f 373f ac8f 07bf
00000160: 2712 b9be 377b 423e 62aa 5f3e 8b7c 1d3f
00000170: 367d 6ebe 1fba b3be 6979 9dbd 8786 9a3d
00000180: c238 083e d8aa 773c 1578 b3bd 6262 8f3c
-0.20140573 0.12145809 0.14067867 -0.08066983 0.009636947 -0.38795573 -0.011258793 -0.33921435
0.087204605 -0.12550744 0.02600225 0.034192607 0.0051152776 0.170494 0.2351961 0.069968514
0.16862 0.02176188 0.32038605 0.12439249 -0.2349399 0.028146628 0.15630601 0.08081183
-0.060095944 0.11290585 0.080143906 0.18509527 -0.06144078 0.049041167 0.05931865 -0.20212059
-0.34508353 -0.03137354 -0.0695649 -0.05444625 -0.22769342 0.54401404 0.07051688 -0.21271446
0.09398999 -0.13394985 -0.22754546 -0.14551832 0.19086932 -0.054805245 -0.12494648 -0.31872892
-0.1510115 0.015345421 -0.013862551 -0.17264253 -0.018623652 0.04095252 -0.056785285 -0.04597791
-0.43928963 -0.17276734 -0.53283507 -0.21870126 0.053642243 -0.15103069 -0.32173932 -0.13585567
0.08417985 -0.1513987 -0.075503424 0.068432994 -0.1255861 0.08252651 0.02255703 -0.16750284
-0.21570066 -0.07543566 -0.13326843 -0.030393073 0.06735022 0.03654361 0.012383906 0.14950415
0.25906634 0.3549632 0.2622814 -0.0048918184 -0.043494288 0.31487316 0.7160507 -0.529536
-0.36146662 0.18992315 0.2184234 0.6151816 -0.23289952 -0.35102937 -0.07689173 0.0754519
0.13302901 0.015116416 -0.08763138 0.017502967

block1.0.bn3_2.weight f4 [2]
00000000: f1bb ca3e 4fea e63e
0.39596513 0.45100638

block1.0.bn3_2.bias f4 [2]
00000000: 6553 5b3e 6b85 3e3f
0.21418531 0.7442233

block1.0.bn3_2.running_mean f4 [2]
00000000: a327 dabe 2015 fe3e
-0.42608365 0.49625492

block1.0.bn3_2.running_var f4 [2]
00000000: 31ef 783e 1d20 3b3f
0.24309994 0.73095876

block1.0.conv4_1.weight f4 [2, 16, 1, 1]
00000000: e684 62bd e9ea 87bd d8f3 c83c 5850 67bd
00000010: 8ffd a33c aaf0 18bd 1b37 823c 6a0d 3b3c
00000020: 4598 213b e96b 0f3d 01da c53c 790b efbc
00000030: a6b5 583b 099a dabc 1c53 33bd abc5 be39
00000040: 2f56 9abe 4f35 38be e7fe 3abf 94c1 fabe
00000050: 51cd d13d f392 7cba e3a2 6a3e c997 473d
00000060: 08fa b6bf 9b27 f23d 5405 2ebd 642d 33bc
00000070: 5ad7 423c 7f8e 1bbe 842a c6bd 1835 9f3e
-0.055302523 -0.066366024 0.024530336 -0.056473106 0.020018367 -0.03733889 0.015895417 0.011416772
0.002465741 0.03501502 0.024151804 -0.029180275 0.0033067255 -0.026684778 -0.04378043 0.00036386898
-0.30143878 -0.17989086 -0.730452 -0.48975813 0.10244239 -0.0009634934 0.22913699 0.048728738
-1.4295053 0.118239604 -0.04248555 -0.010936115 0.011892164 -0.15191077 -0.09676078 0.31095195

block1.0.bn4_1.weight f4 [2]
00000000: de72 233c 7fb0 193f
0.009976117 0.60034937

block1.0.bn4_1.bias f4 [2]
00000000: 62b5 39bd cc4a 203f
-0.045338996 0.6261413

block1.0.bn4_1.running_mean f4 [2]
00000000: 19c9 9ebe ae66 b2c0
-0.310128 -5.575034

block1.0.bn4_1.running_var f4 [2]
00000000: c93e 363c 048c 4f3f
0.011123368 0.8107302

block1.1.conv1_1.weight f4 [4, 16, 1, 1]
00000000: 6069 25bf 5053 133e 4a4e f2bf 36a3 1bbf
00000010: 10df b13e 42ca bfbe b883 243e 03b8 663f
00000020: 3cca 983e 52f5 3d3f 1ef7 133f f3f0 26bf
00000030: 7bf0 81be 2eec 773e c845 8ebb d0fd b2bc
00000040: 7375 af3b 968d da3e 76ef f0be a13d bb3f
00000050: 5150 b33e f8d4 f3bd fa11 cb3d 0712 ebbd
00000060: 0f4e e5be c2db 253e ee83 babd 3c4f e9be
00000070: c74a eb3d 24c4 26bf edba acbd 63ab 6d3e
00000080: 36d8 3b3e 9428 1c3e 0564 5c3f 0380 593e
00000090: c68a 1bbe 98c4 6abd 99d2 dd3e ec53 87be
000000a0: 0abd 6e3e 7873 72be 0847 4cbe 5e64 353d
000000b0: c578 af3c ee70 b0bd 80d1 0bbc 9b63 273d
000000c0: a7ab a1bf 8249 65be ac2f b6be 35bc 01bf
000000d0: 1abd 39bf 9196 4cbf 66e3 26be a8e3 abbc
000000e0: dec8 453e c978 2fbf 5fd2 af3c ae6a 0e3e
000000f0: eb20 8a3e 7c16 49be 99b7 513d 9b28 db3e
-0.64613914 0.1438725 -1.8930142 -0.60795915 0.34740496 -0.37458998 0.16065872 0.9012453
0.29841793 0.74202454 0.57798946 -0.6521141 -0.25378785 0.24211189 -0.0043418147 -0.021849543
0.005354577 0.42686146 -0.47057694 1.4628183 0.35022214 -0.11905855 0.09915538 -0.11478048
-0.44786116 0.16197112 -0.09107195 -0.45568264 0.11488872 -0.65143037 -0.08434091 0.2320991
0.18344197 0.15249854 0.8609012 0.21240239 -0.15189657 -0.057316393 0.43324736 -0.26431215
0.233143 -0.2367686 -0.19948971 0.04428517 0.021419892 -0.0861529 -0.008533835 0.040866476
-1.2630509 -0.22391322 -0.35583246 -0.50677806 -0.7255417 -0.79917246 -0.16297683 -0.020982578
0.19314906 -0.6854368 0.021462617 0.13907883 0.2697824 -0.19637483 0.051200483 0.42804417

block1.1.bn1_1.weight f4 [4]
00000000: ccb1 7a3f e933 343f d5e6 893f 1135 273f
0.97927547 0.7039171 1.0773569 0.6531535

block1.1.bn1_1.bias f4 [4]
00000000: fa2a e93f a6dd 3a3f 6049 14bf d0e3 a93f
1.821624 0.7299446 -0.5792446 1.3272648

block1.1.bn1_1.running_mean f4 [4]
00000000: 5dd6 afc0 83c7 0440 6b6f 1c40 ee19 9fc0
-5.4949174 2.0746772 2.4443004 -4.9719152

block1.1.bn1_1.running_var f4 [4]
00000000: a313 1041 7def 873f 7f5e a23f 4ba8 1d40
9.004794 1.0619961 1.2685088 2.4633968

block1.1.conv2_1.weight f4 [8, 16, 1, 1]
00000000: bc11 15be 5f81 02bf 0320 08bd c807 fa3b
00000010: 486c bdbe e7d6 eebe 2c81 d03e 3fb3 58bf
00000020: 5364 243f 675b b2bd dc6f 54bd d3c2 57be
00000030: c606 2fbe 4c35 3cbd 4f07 56bd a6c2 aebe
00000040: bf4e 8abf 37b3 ed3f fbad 273f 7566 92be
00000050: fb2a 0e3f e747 9d3d cb3a 9abe c1a2 da3c
00000060: 0d10 eabc 0f39 44be 24d8 26bd b0f4 ce3e
00000070: 8392 e93d 7ad6 113e 3fb0 983c c3b9 de3e
00000080: be61 793e 5f00 f7bd 1c6a 363f 475c 3bbf
00000090: 69b9 28be 725b 4fbe 3d1b 2fbc d1f7 a1be
000000a0: fe3e e1bd 4268 f5bd 1ea2 233f d669 c23e
000000b0: 7b30 d83c c03a fc3d 7439 59bd b353 923b
000000c0: 6802 a43d dc10 583d c13a 1dbd f455 01bd
000000d0: e650 80bc cf3f 0f3c 517e cebd c92d 38bc
000000e0: e034 0e3d ac1c d83d 9aab 56bc 339e c4bd
000000f0: ba5f febb 03ae 563d f58c 86bb 13b3 88ba
00000100: 3d96 983e 3677 003e be86 e23d cf81 d4bd
00000110: 0344 4ebd a59b 8a3e 351f af3d 8484 083e
00000120: 2fa1 103e 5182 ac3e 6c3c d93e 0d3b 26be
00000130: b186 393c a826 153b 2b30 87bd 74c7 bbbe
00000140: ff97 0b3f 1658 8a3d c203 f5be d469 e6bf
00000150: 5c07 9a3e 9b28 c7be d211 d93d 759d 953d
00000160: f818 0bbd e9ae 003c 64a3 883d 1301 3b3f
00000170: 8f35 12bf 1ca1 2b3f 849f b13d a547 7fbd
00000180: 1fbd aa3c 213b 79bd dbd6 dd3d 77d6 f53d
00000190: 3782 e3bc 60ba 9cbb e3d3 42bd 4226 d53c
000001a0: 36b4 1e3d cc65 8a3d df1c 0f3d 6d5a 45bd
000001b0: f839 c43c c681 e5bc 4e7d 10bd d144 8fbd
000001c0: 4db9 173d e039 7e3d af44 ac3c 8d50 1cbd
000001d0: e085 58bd 6a94 0b3d 0a94 663d 7520 febd
000001e0: 8722 f1bd f129 d5bc cff7 903d 304e 223d
000001f0: f10d 85bd f844 d3bb 67e1 c7bc 2427 38bd
-0.14557546 -0.50978655 -0.033233654 0.007630322 -0.36996675 -0.46648332 0.4072355 -0.8464851
0.6421558 -0.0870884 -0.05186449 -0.21070413 -0.17092428 -0.045949265 -0.052253064 -0.3413288
-1.0805281 1.8570317 0.6549985 -0.28593794 0.55534333 0.0767973 -0.3012298 0.026688935
-0.028572107 -0.19162391 -0.04073347 0.40421057 0.11404898 0.14241973 0.018638728 0.435011
0.24353692 -0.12060618 0.7125566 -0.7318768 -0.16476978 -0.20249727 -0.010687646 -0.3163438
-0.10998343 -0.11982776 0.63919246 0.3797137 0.026390305 0.12315893 -0.053033307 0.004465544
0.080082715 0.052750453 -0.03838611 -0.031576112 -0.015663575 0.0087432405 -0.10082687 -0.011241385
0.034718394 0.10552344 -0.013102436 -0.096004866 -0.0077628763 0.052412044 -0.004106159 -0.0010429345
0.29802123 0.12545475 0.11060856 -0.103763215 -0.05035783 0.27071872 0.08550874 0.133318
0.14123987 0.33693174 0.4242891 -0.16233464 0.011323617 0.0022758637 -0.06600984 -0.36675608
0.545288 0.06755082 -0.4785443 -1.8001046 0.3008374 -0.38898167 0.10599102 0.07305423
-0.03395936 0.007854202 0.06671789 0.73048514 -0.57112974 0.6704271 0.08673003 -0.062324185
0.020842133 -0.060847405 0.10831996 0.120037965 -0.027772052 -0.00478296 -0.047565352 0.02601922
0.03874608 0.067576975 0.034939643 -0.04818194 0.023953423 -0.028015982 -0.03527575 -0.069955476
0.03704195 0.062066913 0.021028845 -0.038162757 -0.05286205 0.034077086 0.056293525 -0.124085344
-0.11774164 -0.026020976 0.07078516 0.039625347 -0.064968 -0.0064474307 -0.024399472 -0.044959202

block1.1.bn2_1.weight f4 [8]
00000000: 0cb6 093f 136f 253f cb06 863f 92e7 553c
00000010: 46c9 133f a582 513f 6b2d 673c fdc8 9e3b
0.53793406 0.6462261 1.0470823 0.013055699 0.57728994 0.8183997 0.01410995 0.004845737

block1.1.bn2_1.bias f4 [8]
00000000: df83 983e dc59 a43f 3aed 77be e1ef b6bd
00000010: 554e 1abe c329 853f ca96 6dbd 0588 04bd
0.2978811 1.2839923 -0.24211589 -0.08932472 -0.15068944 1.040337 -0.05800513 -0.03235628

block1.1.bn2_1.running_mean f4 [8]
00000000: f305 eebf ede4 de3f f8a9 60bc ca5a f3bc
00000010: 13a8 363f 6859 4dc0 39d9 c83e b276 4abd
-1.8595566 1.7413613 -0.013712399 -0.029706378 0.7135021 -3.208582 0.39228228 -0.049429603

block1.1.bn2_1.running_var f4 [8]
00000000: 5912 193f 01d4 5540 cca7 6a3f 4c94 703c
00000010: 8f25 8a3e 7aa2 c93f 78e9 fa3c 7a28 3a3c
0.5979362 3.3410647 0.9166229 0.014683794 0.2698178 1.5752709 0.030628905 0.011362189

block1.1.conv2_2.weight f4 [8, 8, 3, 3]
00000000: 0206 d2bd 0f87 37bd e512 a23d d0e1 18bf
00000010: cd1c 17bf f39a aabc 585b debd f8db 133e
00000020: 5d58 66bd cac2 26bd 53aa 16bd 25b7 73be
00000030: 80e9 5c3e b3d7 1a40 3f03 1a3e c391 5bbe
00000040: 6865 893e 7c45 8e3e cb78 72be e6de 7fbe
00000050: ebbf 3c3d ce42 97be a818 543e 9535 44be
00000060: eb1b 233b c493 1f3d 860d 0fbc e1a4 c63d
00000070: 661a 673d 778f 883b 52af ae3d c2c6 363d
00000080: 0b2f 913c aaac 193e a867 433d d096 e3ba
00000090: 0931 99be 96f6 fbbd 58d7 b0bc d9fe 78bd
000000a0: b7d4 27bc 7a2f 8f3e 4dff e23d aa60 123e
000000b0: 777b 3c3e e44b af3e ca31 07bf e8af 03be
000000c0: 05d8 0bbf f4d9 ab3f 1420 20be 0a4f 36bd
000000d0: 2327 75be 1bd4 0abe 8506 85bc 712b 43bb
000000e0: ba94 8c3c 0a5e e93c 983c 163d 66ae d73a
000000f0: ff57 bf3c ea15 043d 3619 4b3d bf71 d83b
00000100: d7fc 393d 2b0f 87bc e8e8 fbbc 234d afbb
00000110: 11ca 52bd e5d9 00bc fede 58bd f70d eebc
00000120: e4bd a4bd 8412 7abe ec34 99bd 096e 03be
00000130: e4af 7dbd ad26 af3d f600 3cbe fafc 8f3d
00000140: eea0 d73c 7125 81be 4a89 4dbd eb02 673e
00000150: 54ae bb3c bcf8 a2be 854e ba3d 905c 343e
00000160: f3bb 043e 6c79 27be 0618 c43e 694f 023f
00000170: 1783 cb3d e810 a93d 7eb0 eabe 7aef 7ebe
00000180: 4b82 e0bd 9fc5 a1be 1cd8 7ebd 7069 0dbd
00000190: 2c3d bbbc 1b6f be3c f0f9 4dbd 0730 bfbc
000001a0: dc13 94bc 7022 653d 1f50 563d 48f7 d63c
000001b0: ee71 83bc f2e3 ffbd e4e2 b4bd 07e4 aebc
000001c0: 6dfe fa3c d038 c5bd b7d4 823d 0c15 02bd
000001d0: b8e3 7d3d 1bc6 ad3e beae 933f 58b3 d53e
000001e0: 7eae d83d cc11 3cbf 1a43 a7be 5204 86be
000001f0: f37e 9ebe 20c6 b1be 9007 f63c 1df9 58ba
00000200: 569a 6e3b bcc9 bdb9 6dee 0a3d 97b0 143d
00000210: c30f 25bb a565 53bd d62b 0d3c d955 6dbc
00000220: 420e c6bc bbc5 8b3c baaf 6b3d 7acd 3c3c
00000230: 95c1 81bc 123d 243d c707 a63d cdf6 8bba
00000240: 41a5 c5bb 2424 ae3d a397 083d 313f 0ebe
00000250: e1af 45be 722d 983d 0bde 393e 4d72 623d
00000260: 8611 bdbd 525d ed3d 0514 f7bd c638 98be
00000270: 7f69 4c3d bf35 a63e 05fa 76be 9f79 123e
00000280: ab75 243f 43c7 913d 6275 81be 4a4d 113f
00000290: 2da1 b13d 7626 e7be 24d3 c23e d33c d13e
000002a0: 6adc 9cbe ebed 9abe ee09 70be 93f7 523c
000002b0: a6ae 493c db5c a6bc 98d9 2abd d773 823c
000002c0: 4512 f83b db54 b7ba 9793 773c 14ad 353c
000002d0: dabe cbbb 4080 02bc febd 2bbd 7ccf e9bc
000002e0: 2fc0 3cbd d21f 2abe 05da 6dbd cfd9 403d
000002f0: 5816 b2bd 5c36 08bd 0f8b ee3e dec2 7d3d
00000300: 5d96 8dbe ac21 20be 30e8 2b3f 2df9 98be
00000310: 4b6c 6cbf 6b02 253d 1c48 4e3d 1144 8c3d
00000320: 963c 8b3d b1e8 ad3b 1b3e 813c 6c2f 3f3d
00000330: 8c8c 3a3d 4575 c03c 0db3 703c 0349 433c
00000340: 7511 d0bb 2a1a ecbc 9a5c e339 6102 153d
00000350: bfe7 edbc 395d 27bd 5152 43bc 9a76 32bc
00000360: d9f2 9a3d 0fa6 e3be 5210 b8bd ec43 58bd
00000370: eb8e f0bd 12bd e9bc 3636 af3d e055 00be
00000380: d267 f53b 11eb 3ebe 7344 7b3c 9035 a33d
00000390: 1ebd fa3d 3280 333f ff12 db3e 0b20 213b
000003a0: 96e1 9a3e e7b8 c43c 79e4 cdbd 65b8 983c
000003b0: 86ae 11be 343b 923e 7000 723f b6b0 203b
000003c0: f6e6 a8bb 6fa7 913e c47b b23b e4c6 b4bc
000003d0: 4fa1 7c3d a1eb 203d e049 94bd 7782 65bc
000003e0: aacf cb3c 3b5b eabb 4b70 4c3d 8472 5b3d
000003f0: 0e3b a23c 36a7 9b3d 01a0 bc3d 3ff8 3abe
-0.10255052 -0.044806536 0.0791376 -0.5971956 -0.5902832 -0.020825839 -0.10857266 0.1443938
-0.056236614 -0.04071311 -0.036783528 -0.23800333 0.21573448 2.4194152 0.15040301 -0.21442322
0.2683518 0.27787387 -0.23678891 -0.24987373 0.046081465 -0.29543155 0.2071253 -0.19161065
0.0024888467 0.03895928 -0.008731252 0.09699417 0.05642166 0.004167493 0.085295334 0.044623144
0.017722627 0.15007272 0.047706276 -0.0017363671 -0.29920223 -0.12302892 -0.021587059 -0.060789917
-0.010243586 0.2796591 0.11083851 0.14294687 0.18406473 0.34237587 -0.5281035 -0.12860072
-0.54626495 1.3425889 -0.15637237 -0.04450897 -0.2394071 -0.13557474 -0.01623846 -0.0029780532
0.017160762 0.028487224 0.03667888 0.0016455173 0.02335739 0.03224746 0.04958459 0.0066053565
0.045407142 -0.016486725 -0.030750707 -0.0053497716 -0.051462237 -0.00786445 -0.052947037 -0.029059393
-0.08044031 -0.24421126 -0.07480797 -0.12834944 -0.06193532 0.08552299 -0.18359742 0.07030673
0.026321854 -0.25223878 -0.050179757 0.22559707 0.022910275 -0.31830394 0.09097008 0.17613435
0.12962322 -0.16354913 0.38299578 0.5090242 0.09937113 0.08255178 -0.45837778 -0.2489604
-0.109623514 -0.31596085 -0.062217817 -0.03452438 -0.022856317 0.023246339 -0.050287187 -0.02333833
-0.018075876 0.055941045 0.052322503 0.02624096 -0.016045537 -0.12494649 -0.088323385 -0.021348966
0.030638898 -0.09629977 0.063882284 -0.031758353 0.061984748 0.33940205 1.1537702 0.4173839
0.10580157 -0.73464656 -0.32668382 -0.2617517 -0.3095623 -0.3472147 0.030032903 -0.0008276867
0.003640791 -0.00036199193 0.033918787 0.03630122 -0.0025186397 -0.051610608 0.008616408 -0.0144858
-0.02417672 0.017062059 0.057540633 0.011523599 -0.015839377 0.040097304 0.08106952 -0.0010678411
-0.0060316627 0.08502987 0.033347737 -0.13891293 -0.19305374 0.07430543 0.18151109 0.055284787
-0.09231858 0.11590065 -0.12064365 -0.29730815 0.049905296 0.3246288 -0.24118812 0.14304207
0.6424205 0.07118084 -0.25284868 0.5675856 0.0867332 -0.4514653 0.38051713 0.40866718
-0.30636913 -0.30259642 -0.23441288 0.012876409 0.012309706 -0.020307949 -0.04171142 0.015924377
0.0075705373 -0.0013987081 0.015110872 0.011088628 -0.0062178196 -0.0079651475 -0.041929238 -0.02854132
-0.046081718 -0.16613701 -0.058069248 0.04708272 -0.08695668 -0.033254966 0.46590468 0.061953418
-0.2765378 -0.15637845 0.67151165 -0.29877606 -0.9235274 0.04028551 0.050361738 0.0684892
0.06798665 0.00530728 0.015776685 0.046676084 0.045544192 0.023493418 0.0146911265 0.011919263
-0.0063497373 -0.02882107 0.00043365808 0.03637922 -0.02904117 -0.04086039 -0.011921481 -0.010892535
0.07565851 -0.4446263 -0.08987488 -0.05279915 -0.117460094 -0.028532539 0.08555262 -0.12532759
0.007489183 -0.18644358 0.015336144 0.079692006 0.122431025 0.70117486 0.4278793 0.002458575
0.30250233 0.02401395 -0.10053343 0.018642614 -0.14226732 0.28560793 0.9453192 0.002451939
-0.005154486 0.28448054 0.005446883 -0.022067495 0.061677273 0.039287213 -0.07240653 -0.014008156
0.024879295 -0.007151989 0.04991178 0.053576007 0.01980355 0.07600252 0.09210206 -0.18258761

block1.1.bn2_2.weight f4 [8]
00000000: fd21 1a3f d8dd 263f 47ef 393f c21b 243f
00000010: 918b fa3e 4445 d53e 4fe8 1b3f e595 163f
0.6020811 0.65182257 0.72630733 0.64104855 0.48934606 0.41654408 0.6090135 0.5882247

block1.1.bn2_2.bias f4 [8]
00000000: 40d1 be3f fddc b3bc 94de 8abe 2b32 46bb
00000010: 006d 363f 6859 a23d fc77 e33d b9f8 28be
1.4907608 -0.021955961 -0.2712294 -0.0030242305 0.7126007 0.07927209 0.111068696 -0.1650113

block1.1.bn2_2.running_mean f4 [8]
00000000: 7a1d 3940 0f20 dabe 65e3 a83e e737 2f40
00000010: 0c23 823f e198 2dbf 60d4 81bf c84b 58bf
2.892424 -0.42602584 0.32985988 2.737787 1.0166945 -0.678114 -1.0142937 -0.84490633

block1.1.bn2_2.running_var f4 [8]
00000000: f463 9540 9eeb af3f d274 893f 55a6 ef3f
00000010: 849b 8e3f ae1a 263f c60e a03f ef8d 463f
4.6684513 1.374378 1.0738776 1.8722636 1.114121 0.6488446 1.2504508 0.77560323

block1.1.conv3_1.weight f4 [2, 16, 1, 1]
00000000: ad67 423f edc0 bb3c dadf 28bd 53cf 10bf
00000010: ec48 5c3e 6efa ae3e bc4b c9bc 58fe f8be
00000020: 4bbf e63d 2a08 113f 567a 4dbe 40dc 223d
00000030: 5cf0 413c c258 e13e 9ab2 00bb abb4 dd3b
00000040: b8c1 333f 8dfe a0bd 388d ed3e 8764 6b3d
00000050: 82e5 913e 0f6b 94be 769e 02bd 5563 cfbd
00000060: e9f8 89bc 6513 b4bb df1a 1abe df4f 42bd
00000070: 5fa1 8d3e 13f4 db3d ba35 8dbc 56d8 f1bd
0.75939447 0.022919143 -0.041229106 -0.5656635 0.21512192 0.34175438 -0.024572246 -0.4863155
0.11266955 0.5665308 -0.20066199 0.039760828 0.011837091 0.4401303 -0.0019637705 0.006765922
0.70217466 -0.07861052 0.46396804 0.057468917 0.28495413 -0.2898793 -0.0318894 -0.10126368
-0.016842322 -0.005495476 -0.15049313 -0.047439452 0.2766218 0.10739913 -0.017237533 -0.11808841

block1.1.bn3_1.weight f4 [2]
00000000: 21d9 9d3e 6894 3f3f
0.3082972 0.74835825

block1.1.bn3_1.bias f4 [2]
00000000: 2e23 da3e e6e0 33bf
0.42604965 -0.7026504

block1.1.bn3_1.running_mean f4 [2]
00000000: e446 1f3f e863 ef3f
0.62217546 1.8702364

block1.1.bn3_1.running_var f4 [2]
00000000: 49cc ca3e 8ab1 8d3f
0.39608982 1.1069806

block1.1.conv3_2.weight f4 [2, 2, 5, 5]
00000000: fff2 4cbe 45bb 64bd 0611 12be cb21 22be
00000010: b8f7 40ba b9e9 02be f282 01bc b34d 913e
00000020: ca6e b43b d9a7 67bd b1d5 95bc ca4c 75bd
00000030: ca4c abbd d8c3 58be b5ad 333e bb1c eebc
00000040: cb49 4abe 2599 b9be 5214 01bf 74f2 86bd
00000050: ecf6 12be 562c 51bc 538d 27be 745c d7bd
00000060: da14 25be 11b7 53bd 8433 863e 2812 2d3e
00000070: 2f65 9d3d 3007 d93c 09c2 893c 3c78 4e3e
00000080: a2d8 bd3d cbc6 413e 6281 c03d d0d1 d3bd
00000090: cba9 343e 1d6f 363e 59fc 5f3d 6795 34bd
000000a0: 8d48 0cbe e9b8 e73d 8730 a73d f72c 603d
000000b0: d72d 13be 7ba8 e0bc a6be 1b3e 91ad 1e3d
000000c0: dfb4 103e 457e 7c3b 2613 14be f6b7 24be
000000d0: 8d13 143e 05d6 e3bd 6ff4 f6bd 0e89 a1bd
000000e0: 228b 6dbe 716e 553d d12c 13be 0afe 7bbe
000000f0: 869f 523e 7f0b 1ebc 21c0 d43e e741 513e
00000100: 052a 893e e54f b5bc b6a3 1f3d dda3 6f3e
00000110: ac1c b1bd 1cda 99bd 90ab 86bd 2199 d8bd
00000120: 8d67 d33d 9891 35bd e0f0 f6bd c037 16be
00000130: 1626 f8bd a2aa 5f3e 24f6 ac3d 8b5a 99bd
00000140: 0d2f 5fbe 8f7d 6dbe 73ba f13c 064f 59bd
00000150: f120 4fbe ed35 a43e 23c0 703e 02ea f73e
00000160: 4afc 643e 19d2 423e 2766 003e 874a 8f3c
00000170: 9d61 7e3e 50c7 1e3e 6aa5 a33d c89f 00bc
00000180: c8bd 7bbc 1818 6b3e 5109 803d 719b 1dbd
-0.2001457 -0.055842657 -0.14264306 -0.15833203 -0.0007361132 -0.1278447 -0.007904755 0.28379592
0.005506371 -0.056556556 -0.018290373 -0.059887685 -0.08364256 -0.21168458 0.17546733 -0.029066434
-0.19754712 -0.36249653 -0.5042163 -0.06589213 -0.14352006 -0.012766918 -0.16362505 -0.10515681
-0.16121235 -0.051688258 0.26211178 0.16901457 0.07685315 0.026492685 0.016816156 0.20163053
0.09269835 0.1892349 0.09399678 -0.10342753 0.17642896 0.17815824 0.054684017 -0.044087794
-0.13699551 0.11314566 0.08163553 0.05473038 -0.14372955 -0.027424088 0.15209445 0.038739745
0.14131497 0.003852741 -0.1446043 -0.160858 0.14460583 -0.11124805 -0.12058341 -0.07887469
-0.23197606 0.05210728 -0.14372565 -0.24608627 0.20568666 -0.009646296 0.41552833 0.20435296
0.2678987 -0.022132823 0.038974486 0.23402353 -0.08648047 -0.07512304 -0.06575692 -0.10576082
0.10322485 -0.044328302 -0.12057662 -0.14669704 -0.12116639 0.21842435 0.08445385 -0.07487973
-0.21795292 -0.23192428 0.029507851 -0.05305388 -0.2022741 0.32072392 0.23510794 0.4842072
0.22361866 0.19025458 0.12538968 0.017491592 0.24841924 0.15505719 0.079905346 -0.007850595
-0.015365072 0.2295841 0.06251777 -0.03847832

block1.1.bn3_2.weight f4 [2]
00000000: 0c85 ef3e 711e 743f
0.46781194 0.9535895

block1.1.bn3_2.bias f4 [2]
00000000: e69b e83e 1b81 38bf
0.4543144 -0.72072

block1.1.bn3_2.running_mean f4 [2]
00000000: 8ea0 47bf 4e1a 1d3e
-0.7797936 0.15342066

block1.1.bn3_2.running_var f4 [2]
00000000: 0f37 6d3e 0a5f ac3e
0.23165534 0.3366626

block1.1.conv4_1.weight f4 [2, 16, 1, 1]
00000000: 11c7 eabd 572b 99be 91b9 6e3e 9d59 e73e
00000010: 1d3e 8ebe e7e8 20be ed66 6cbf 7d75 59be
00000020: 386b 9a3e 8f11 a83e f6ad 89bd 9ec6 55be
00000030: 0b24 08bb ea54 1bbf 175a 94bc 8165 47be
00000040: f8bb 3a3c 83ad f5bd 9eb9 813e 4222 ad3e
00000050: ec7f 873b c556 bebe c084 343d e8d0 5abd
00000060: 035f 203f 0b29 3a3e 7aeb c43e cea5 283e
00000070: 5e3d 8a3d 783f c73e 9a59 033d d7c8 a53f
-0.1146375 -0.29915878 0.23312975 0.45185557 -0.27781764 -0.15713845 -0.9234455 -0.21236224
0.30159926 0.32825896 -0.067226335 -0.20876548 -0.0020773436 -0.60676444 -0.018109364 -0.19472314
0.011397354 -0.11995985 0.25336927 0.338152 0.0041351225 -0.37175575 0.044071913 -0.053421885
0.62644976 0.18179719 0.38460904 0.164695 0.06749986 0.3891561 0.032067873 1.2951916

block1.1.bn4_1.weight f4 [2]
00000000: cc07 253f b973 ef3e
0.6446502 0.46767977

block1.1.bn4_1.bias f4 [2]
00000000: ee9f a4bd 9e3d 403f
-0.08038317 0.7509402

block1.1.bn4_1.running_mean f4 [2]
00000000: f8c8 12bf d5d8 7840
-0.57337904 3.8882344

block1.1.bn4_1.running_var f4 [2]
00000000: 5dcd a83e 9560 023f
0.3296918 0.5092862

block1.2.conv1_1.weight f4 [4, 16, 1, 1]
00000000: 1ad4 d93e ba33 cfbe aa84 f0bd 163f b33d
00000010: 7a90 df3f 4bb7 fbbe 85ea e73e 76f6 093f
00000020: f9bd 17be 299b f83d ab99 35bf 0a4a 0d3f
00000030: 749d b23d 56c3 9f3e 1e59 853b 072f 363f
00000040: 0992 80bc 13e8 633b 3999 b5bc 9157 3f3d
00000050: cfa8 bb3c 1f65 3b3c 3ced 4ebd 56fa d63d
00000060: dff7 2c3c 30af 553d 0fe1 97bd 1924 1abd
00000070: b838 913b 8eaf e4bc 0342 e9bc 9d3b bb3d
00000080: d03d 1940 6f50 db3e dbf3 00bf ffef e73b
00000090: 8919 31be 8464 f33c 6a4b 8bbd 1370 1a3e
000000a0: 8255 e33d 7b83 7a3e e778 d33e 2172 0e3e
000000b0: d682 f4be fadb 893e 8459 09bd 7826 c23d
000000c0: 5bac 10be 16dc 953f 7823 5abe 8d4e 2fbf
000000d0: f66e 0d3e 0b10 0b3f b061 003f d77c 5d3e
000000e0: c155 813f f1de c83e 3d4f b9be e50d c13d
000000f0: 3f83 443d 09c1 a0be 411d e53d f654 ca3d
0.42544633 -0.40469152 -0.11744054 0.08752267 1.7465966 -0.4916328 0.45296112 0.53891695
-0.14818563 0.121389695 -0.70937604 0.551911 0.08721438 0.31203717 0.0040694615 0.7116551
-0.015694635 0.0034775778 -0.022167789 0.04671437 0.022907643 0.011437683 -0.050519213 0.104969665
0.010557144 0.052169025 -0.074159734 -0.03763208 0.00443181 -0.027915742 -0.02847386 0.0914223
2.3943977 0.42834803 -0.50372094 0.0070781703 -0.17294897 0.029711016 -0.068014935 0.15081815
0.11100294 0.24464218 0.4130318 0.13910724 -0.4775607 0.2692564 -0.033532634 0.094799936
-0.14128248 1.170779 -0.21302593 -0.68479234 0.1381186 0.54321355 0.5014906 0.21629654
1.0104295 0.3923259 -0.36193267 0.09426478 0.04797673 -0.31397274 0.1118722 0.09879486

block1.2.bn1_1.weight f4 [4]
00000000: 20c4 4f3f b031 4a3b a548 8f3f e196 2c3f
0.8115864 0.003085237 1.1194044 0.6741772

block1.2.bn1_1.bias f4 [4]
00000000: 3255 f43f d18d c1bc bc22 f03f 9e8a 9a3f
1.90885 -0.023627194 1.87606 1.2073553

block1.2.bn1_1.running_mean f4 [4]
00000000: 7a0f 6c40 97d2 103e f80a 9240 e850 803f
3.6884446 0.14142834 4.563839 1.0024691

block1.2.bn1_1.running_var f4 [4]
00000000: 7775 3e40 82b6 093c 1f0b bd40 892f bb3f
2.9759195 0.00840533 5.9076076 1.4623882

block1.2.conv2_1.weight f4 [8, 16, 1, 1]
00000000: fe80 b4bb 1e8f 21b9 a314 95bc b305 76bc
00000010: 8ad9 5c3d d0ba 323d 79d3 bcbc 430d 9fbc
00000020: 45bc 3fbd b28d 703d 76e7 8e3d 6c1f 433d
00000030: 4720 343d 6fe7 493d 4251 963c b18e 19bc
00000040: a942 cc3d bb10 11be dc59 dc3d 8e84 a33f
00000050: f2a6 913d bc1d 8dbe c3f2 17bd 81e8 763d
00000060: 403b 233f 3992 e5bd 6121 33be 5d19 313e
00000070: b40e 073e 1eef 713d 6114 54be 9463 71be
00000080: 155f 08bf 8cd4 eb3d 1c17 a63e 1562 c6be
00000090: db03 edbd aa62 5d3e e539 a93e 46e7 c9be
000000a0: 4365 0e3e e23d 40be 3b21 613e 83ad 3bbd
000000b0: 0326 903d 3f12 a43c 503b 03bf 7f1a 003e
000000c0: f711 c93e 67cc aabd 983a a03e d6e4 94bf
000000d0: c42e fd3d 3a69 b7bd 792c 5f3e 68d7 69bc
000000e0: 0120 6b3d d8eb b8bd 5bcb 043e 4672 0cbe
000000f0: 5174 26be b0f8 08bf 6c6a 0fbf aa12 113e
00000100: a23d cbbe cc48 34be 04b3 9e3d f78a d1bd
00000110: deed 8d3e de1c c63d 20e1 7ebe c80c 1d3f
00000120: a10d 79be ab82 afbe 8b12 44be 7c57 513e
00000130: 34ac 5e3e 3cae 1ebe c143 5abe aa11 07bf
00000140: 814e e6bc ba5a 29bd eb40 163d 93eb 0c3d
00000150: a4c0 b33d 3f38 803d f7e0 0d3c 755c 7dbd
00000160: 3c71 6ebc 0fb0 283c aec3 d63c 1d74 95bc
00000170: f693 df3c 4265 1bbd 17a9 533d f7c2 dabc
00000180: e3e2 70bf 538e c0bd 677c ac3e 726b 9abe
00000190: 690d 393f 96a1 d9be 749e b23d f887 26bd
000001a0: 6f19 6b3c 2ba1 cabe f670 0bbe 9c72 c73d
000001b0: 5958 d4be caae 903e d3a4 61be 62e6 043e
000001c0: 2608 99bd 0b9f 223d 5d6a 9dbc 4d66 8b3c
000001d0: 183e ea3c 4983 403d 6950 b43b 849c 183d
000001e0: deaf e3bc d23e 823c f4f2 a53d fb9c 4dbd
000001f0: 5339 163d afbb 903d 610a 38bc df3e 663d
-0.005508541 -0.00015407472 -0.018198317 -0.015016007 0.0539184 0.04363519 -0.023050057 -0.019415503
-0.046810407 0.05872888 0.069777414 0.047637388 0.043976095 0.049292978 0.018349294 -0.009372399
0.09973652 -0.14166538 0.10759327 1.2774827 0.071119204 -0.27561748 -0.03709675 0.060280327
0.63762283 -0.112095304 -0.17493202 0.17294832 0.13189203 0.05906593 -0.20710899 -0.23573142
-0.53270084 0.115151495 0.32439506 -0.38746706 -0.11573001 0.21619669 0.33051983 -0.3943426
0.13905816 -0.18773606 0.21985333 -0.04581977 0.070385 0.020028232 -0.5126238 0.12510107
0.3927152 -0.08339768 0.31294703 -1.1632335 0.123624355 -0.08955617 0.21794309 -0.014272548
0.05740357 -0.090293586 0.12968199 -0.13715467 -0.16255309 -0.53504467 -0.5602176 0.14167276
-0.3969546 -0.17605895 0.07748988 -0.102315836 0.2772054 0.09673475 -0.24890566 0.6134763
-0.24321605 -0.3427938 -0.19147699 0.20443529 0.21745378 -0.15496153 -0.21314909 -0.5276133
-0.028113605 -0.04134629 0.036683004 0.03440435 0.08776978 0.06260728 0.008659593 -0.061855752
-0.014553364 0.010295882 0.026216354 -0.018243844 0.027292233 -0.037938364 0.05167493 -0.026704295
-0.940962 -0.09402146 0.3368866 -0.301601 0.7228609 -0.42506093 0.08721629 -0.040657014
0.014349326 -0.39576086 -0.1361731 0.09738657 -0.41473654 0.28258353 -0.22035532 0.12978509
-0.07472257 0.039702456 -0.019215757 0.017016554 0.028594062 0.047000203 0.0055027497 0.03725864
-0.027793821 0.015899096 0.0810298 -0.050198536 0.036675762 0.07067048 -0.011232943 0.056212302

block1.2.bn2_1.weight f4 [8]
00000000: 3849 743b 3977 273f 3abd 3d3f 67a5 0d3f
00000010: 1fe4 0f3f e34d 02bc 44d2 043f 4d86 403c
0.0037275087 0.65416294 0.7411686 0.5533051 0.5620746 -0.00795314 0.5188334 0.01175077

block1.2.bn2_1.bias f4 [8]
00000000: d301 3cbd 5b78 133f ac98 5bbe 3e4d 8a3f
00000010: e501 a83d 972e c1bd 14a4 633f cfcb 99bd
-0.045900177 0.5760552 -0.21444958 1.0804822 0.08203486 -0.094327144 0.8892224 -0.075095765

block1.2.bn2_1.running_mean f4 [8]
00000000: 604c 9e3d 407b 0840 f09e afbf 7c9b 4bbf
00000010: 4ebf 86bf 8a9c bc3d 09c9 a8bf 3138 313d
0.07729411 2.1325226 -1.3720379 -0.79534125 -1.0527132 0.09209545 -1.3186351 0.04326648

block1.2.bn2_1.running_var f4 [8]
00000000: ef9a 393b c03e 4d3f 50ed 713f 1eff c53e
00000010: cef5 983e 2127 5c3b 44df 603f cb93 093c
0.0028321107 0.80173874 0.94502735 0.386712 0.29875034 0.0033592659 0.87840676 0.008397053

block1.2.conv2_2.weight f4 [8, 8, 3, 3]
00000000: 3719 fd3c 1059 753d 1cfc 7fbc 0a1e 273b
00000010: a715 d63d d74c 483c 76f1 873c a51d 023d
00000020: a380 f3ba e616 94be 8c18 b9be 6692 8bbc
00000030: 49d2 54bc 5d8a d73d 3377 5abd 4df5 c13d
00000040: be29 263f 4294 0e3d 5731 783d 7c7d e73e
00000050: d31a 81bd db4a 263d 2658 ea3d 35ec 3e3d
00000060: 897e 9dbd 1748 c6be e5fb b9be 7479 053d
00000070: cfda 313f 5c1a 39be 2f06 7ebe 6a9c 943e
00000080: dc31 0dbd 9241 3fbe dfb4 a1be a35a 8fbe
00000090: a644 983d 24b1 2ebd c4ab 1d3e a61d 1c3f
000000a0: 0058 acbe 3a63 843e 88bb 623d 6bbc cb3d
000000b0: 0b39 27bc 4e55 253d 5ab2 983d 4ec9 ac3b
000000c0: 287d 583c 9615 693d f03b 013d 6e99 f7bb
000000d0: b968 2bbd 63aa c73b fbd7 a63d b18e a33e
000000e0: 01ea 8dbd 73a8 6b3e 98a6 41be cc26 403d
000000f0: 821b 9e3d caa5 163e ff1c 803e d85d 493d
00000100: 007e 673d 68ae c73c dd69 9abb db16 babb
00000110: 8955 343d 0546 663b 861b 673d e704 b03d
00000120: df6d 55bc 7ebe 56bd 087e 1b3c ef34 22bc
00000130: 3c8f c3bc 9b5f ec3c e2d3 713b d662 f93c
00000140: cbce 43bd 9a7c 553e b0e8 073d 7d27 c63b
00000150: 2f3a 6c3e a536 783e 8535 b537 05c0 5ebd
00000160: be24 823e cba8 8abe 5727 cebd 053c c5bd
00000170: 96e8 a73d e0e7 c5bd 1d7c 123e 0053 e6bd
00000180: 3f9c 8d3d 22b1 c8bc fde8 f83c 2323 9ebd
00000190: affc 85be 03e6 6e3e 72ee b5bd 35e9 25bf
000001a0: 8340 42be a2c8 713e 4fee edbd ed14 353e
000001b0: 2537 353e d411 823e 9a45 aa3d adc4 fbbd
000001c0: d2e4 b8bd e392 5e3e 584c 35be 4145 92bd
000001d0: 2507 833e 6e73 0ebd e1cc 0fbd 4d40 babd
000001e0: 37bc b53c 1ec9 52bc 2195 43bc 1fb8 bfbc
000001f0: 997b 2fbd a417 02bc 236e ecbe 8eb2 72be
00000200: 497f 1fbe 3b67 fbbe 64f4 13bf 5c36 82bd
00000210: 46e9 fd3d bccd f23d c8e3 493d f4f7 44bd
00000220: 8bd9 63bd 5535 8abd 73c6 9fbb 68dc 9b3b
00000230: 85a2 69bc 00a9 86bd bd97 8dbd b485 8ebc
00000240: 883a 17bc 7c83 05bc b3a6 93bc 6bc3 f03c
00000250: cbd5 8d3c 47a0 453b e701 123d 4357 72bb
00000260: 3638 1a3c 964d 793e 09db 043d a110 a6be
00000270: 4982 c03e c6e4 f3bd 6756 90be 52e0 d03e
00000280: 606b e7bc f819 d93b 9dd8 eb3c b91e 8e3e
00000290: 0356 963e 6771 5bbe a2bc 423e 5af5 e03e
000002a0: d48c 26be bc2e 3a3e 37fd 6f3d 69f2 a4bd
000002b0: 0707 82be 0383 6ebe 390d 633e 5c4b a03e
000002c0: 6975 463e 032a 10be 827f 19bd aeb2 873e
000002d0: 7cec 83be 253c 10be 5f84 e2bd 23b3 2e3d
000002e0: a932 3cbd b90a 94be a9fe 88bd 6c8e 1cbc
000002f0: 4be5 c0be 1455 bbb9 8e53 0abb d224 c0bc
00000300: 0ca1 b33c 230f f63c f3d6 80bb a87f 03bd
00000310: c385 d03c ed7e 33bc 1db9 453e bdbd da3e
00000320: 20a4 943e 72e1 02be c42d d43e 7053 52be
00000330: ec3f 2d3d 2421 74bd d127 51be 617b 203c
00000340: feb9 d03c 8454 0d3d 2b46 053d 47d7 223c
00000350: 4b8e 1a3c 6cbd f83c bef2 213d e5b4 293d
00000360: 5a6e aebc 27d5 113d 72fc 71bc dd2d 21bd
00000370: b447 d7bd f670 ae3c 5388 92bd 7ed6 87bd
00000380: 8dde 55bd f6a6 73ba 0726 c7bc e675 b1bc
00000390: ea1d 9cbd 4ff8 e7bc 0096 5b3c f760 3ebc
000003a0: 2b82 58bd b273 c3bc 41c8 5cbd 219e 61bd
000003b0: 581c 483c e169 60bd e647 24bd bf80 38bd
000003c0: d6d4 36bd 070c 04bc b1f8 fdbb dc26 82bc
000003d0: 610f 90bc 31ea 1bbd 262b 5bbd 523b 70bd
000003e0: b7e5 a03b b2f5 6abd 16ee 93bd 772e 80bd
000003f0: 2fbf b7bc 28cf 033d 444a ae3d 6f15 38bd
0.030895812 0.05989939 -0.015624072 0.0025500082 0.104533486 0.012225351 0.01659463 0.031766552
-0.0018577765 -0.2892372 -0.3615154 -0.017037582 -0.012989589 0.105244376 -0.053336333 0.094706155
0.64907444 0.03480936 0.06059393 0.45212924 -0.063039444 0.04059873 0.11442594 0.046611983
-0.0769015 -0.38726875 -0.36324993 0.03258653 0.694745 -0.18076462 -0.24807046 0.29025584
-0.034471378 -0.18677357 -0.31583306 -0.27998838 0.07434969 -0.042649403 0.15397555 0.6098274
-0.3366089 0.25856954 0.055354625 0.09948047 -0.010206471 0.040364556 0.07455893 0.005273021
0.013213433 0.05690535 0.0315513 -0.007556132 -0.04184792 0.0060933097 0.08146664 0.31944802
-0.06929398 0.23013477 -0.18911207 0.046912 0.077200904 0.14711681 0.25022122 0.049161762
0.056516647 0.024375156 -0.004712327 -0.005678994 0.044026885 0.003513695 0.056422733 0.08594685
-0.013026684 -0.05242776 0.009490497 -0.009900316 -0.02387201 0.028854182 0.0036899974 0.030442636
-0.047804635 0.20848313 0.033180892 0.006047188 0.2306907 0.24239595 2.1601803e-05 -0.054382343
0.25418657 -0.27081904 -0.10066097 -0.096305884 0.08198659 -0.09663367 0.14305158 -0.112463
0.06914567 -0.024498526 0.030384535 -0.077215455 -0.26169345 0.2332993 -0.088833705 -0.6480897
-0.18969922 0.23611692 -0.116177194 0.17683764 0.17696817 0.25404227 0.08314057 -0.12293372
-0.09028019 0.2173572 -0.17704904 -0.071421154 0.25591388 -0.03477805 -0.035107497 -0.09094296
0.022184474 -0.012865333 -0.011937411 -0.023403225 -0.04284248 -0.007940207 -0.46177778 -0.23700926
-0.15575899 -0.49102196 -0.57794785 -0.063580245 0.12398009 0.11855647 0.049289495 -0.04808803
-0.055627387 -0.067484535 -0.004875952 0.004756499 -0.014259939 -0.06575203 -0.069137074 -0.017397739
-0.0092302635 -0.008149024 -0.018023824 0.029390058 0.017313858 0.0030155347 0.035646345 -0.0036978282
0.009412816 0.24346003 0.03243545 -0.32434562 0.375994 -0.119088694 -0.2819092 0.40796143
-0.028249443 0.00662541 0.028789813 0.27757815 0.29362497 -0.21429978 0.1901727 0.43937188
-0.16264659 0.1818189 0.058591094 -0.080540486 -0.25395986 -0.23292165 0.22173013 0.31307495
0.19380726 -0.14078526 -0.037475117 0.2650351 -0.2576636 -0.14085443 -0.11060404 0.042651307
-0.04594675 -0.2891443 -0.066891976 -0.00955544 -0.37674937 -0.00035730808 -0.0021106931 -0.023455057
0.02192738 0.030036515 -0.003931874 -0.032104164 0.025454408 -0.010955554 0.19308896 0.42722884
0.29031467 -0.12781313 0.41441166 -0.20539641 0.04229729 -0.059601918 -0.20425345 0.009795041
0.025479313 0.03450443 0.03253762 0.009939021 0.009433339 0.03036376 0.039538138 0.04143228
-0.021292854 0.03560367 -0.01476966 -0.03935038 -0.10511723 0.021294098 -0.07154908 -0.06632708
-0.052214194 -0.00092945935 -0.024310125 -0.021662664 -0.07622893 -0.028316645 0.013402462 -0.011619798
-0.052858513 -0.023858879 -0.053901915 -0.055082444 0.012213789 -0.054788474 -0.04010763 -0.045044657
-0.04463657 -0.008059508 -0.0077505936 -0.01588767 -0.017585458 -0.03806514 -0.053507946 -0.058650322
0.0049101966 -0.05736322 -0.07223146 -0.062588625 -0.02243003 0.03217998 0.08510259 -0.044942316

block1.2.bn2_2.weight f4 [8]
00000000: 77cc d83e 7bdd ed3e 8396 293f 4fd2 423c
00000010: d501 2c3f 3b89 073f 845c c93e cfaf d13e
0.42343494 0.4645804 0.6624529 0.011890962 0.67190295 0.5294377 0.39328396 0.40954444

block1.2.bn2_2.bias f4 [8]
00000000: b348 a93e f1e3 2e3f 2256 913d de6b adbd
00000010: 403b a8be 0600 a03e f92b 3f3f 71de fa3e
0.33063278 0.6831656 0.07096507 -0.0846784 -0.32857704 0.31250018 0.7467647 0.48997834

block1.2.bn2_2.running_mean f4 [8]
00000000: 5cb0 4f3f 2b7c e1bf cbaf 8a3f 36cf d7be
00000010: 3db4 e8bf 85c5 8abe c5a4 07bf 6a23 27bf
0.8112848 -1.7616018 1.0834898 -0.42150277 -1.8180004 -0.2710382 -0.52985793 -0.6528841

block1.2.bn2_2.running_var f4 [8]
00000000: 0019 573f 69ce 963f d009 4f3f e357 f83c
00000010: 35f6 303f 5940 6f3f a30e 543f 027a 453f
0.8402252 1.1781741 0.8087435 0.030315345 0.6912568 0.9345756 0.82834834 0.77139294

block1.2.conv3_1.weight f4 [2, 16, 1, 1]
00000000: 4a3a c13e a9af 44be bc31 30be 64bc eb3c
00000010: 6586 093e 79e5 35be 144a 243e e15b 0b3d
00000020: c2f7 553e 9126 a2bc 74a4 7dbe a30c 21bd
00000030: a284 c0bd d4e6 a43e 7493 a83d e047 413e
00000040: 327d 833d 7f6e b1be 27cb 5cbf 88e1 423e
00000050: fe9d 58bd 2f74 3f3e 9222 22be b72b 81be
00000060: 0f2d 5f3d d0f9 36bd 94d7 eebd 7184 e03b
00000070: 1dc9 c6be 7bed 57bf 2a91 0bbf dbc2 8a3e
0.37739784 -0.19207634 -0.17206472 0.028776355 0.13430174 -0.17763318 0.16043884 0.03402317
0.20895293 -0.01979378 -0.24769765 -0.039318692 -0.09400298 0.32207358 0.082312495 0.18875074
0.064203635 -0.34654614 -0.86247486 0.19031346 -0.052885048 0.18696664 -0.158335 -0.25228664
0.05448633 -0.044671834 -0.11662212 0.0068517257 -0.38825312 -0.8434674 -0.5451838 0.27101788

block1.2.bn3_1.weight f4 [2]
00000000: 8008 e63e 1e24 e53e
0.4492836 0.44754118

block1.2.bn3_1.bias f4 [2]
00000000: ded3 5f3e f251 8b3f
0.21858165 1.0884383

block1.2.bn3_1.running_mean f4 [2]
00000000: 9189 793f 15e7 e8be
0.97475535 -0.45488802

block1.2.bn3_1.running_var f4 [2]
00000000: 45e5 843e 610f 673f
0.2595617 0.9025784
