assignment1/results/trial_2/inception/ckpts/38000.pt (torch, 689119 bytes, 467 tensors)

block1.0.conv1_1.weight f4 [4, 16, 1, 1]
000000 cb 70 ee 3e a8 87 6a 3f 76 42 d1 3e 19 53 71 3e
       0.4657043 0.91613245 0.40871018 0.23566855
000010 12 ba 46 3f c3 05 f5 3e 82 79 80 3f f3 25 24 3d
       0.7762767 0.47855958 1.0037081 0.040075254
000020 e8 da 31 3f e2 fb 99 bc 5d 7c 16 bd 85 12 45 3d
       0.6947465 -0.018796865 -0.036739696 0.048113365
000030 a5 aa a4 bd d8 1f c5 be b5 dd 4b 3f 12 a9 ad be
       -0.0804036 -0.38500857 0.79635173 -0.33918053
000040 e7 bd 04 c0 69 06 35 bf 25 cc c2 be d3 d9 cd 3d
       -2.0740907 -0.70712906 -0.38046375 0.10051312
000050 9f 86 a0 be c9 44 10 3e c6 0e 6b 3e 86 6b 77 3d
       -0.31352708 0.1408874 0.22954854 0.060405277
000060 a8 d3 bb 3e 62 6a c8 be 1c 7b 86 bd 07 0c 7c 3d
       0.36684918 -0.39143664 -0.0656645 0.061534908
000070 c1 2c 90 bd 01 42 7f ba 98 f1 85 3e 86 15 df 3e
       -0.07039786 -0.00097373134 0.26160884 0.4357111
000080 bf 53 ed be e2 d2 12 bf cf 38 c1 bd b5 83 5a bf
       -0.46352956 -0.5735303 -0.094346635 -0.8535722
000090 79 4d b5 3e 11 8a a0 3f db 4f 8e 3f 40 b0 a3 bb
       0.3541067 1.2542135 1.111812 -0.004995376
0000a0 2e f6 1e be b8 57 c9 3e 84 be ea 3c 47 8c 50 3b
       -0.15523598 0.39324737 0.028655298 0.0031821893
0000b0 01 e0 8c 3d a9 89 0e bd db c5 cf be f9 e0 fb be
       0.06878663 -0.03479925 -0.4058064 -0.49195078
0000c0 df d6 c4 3d 7e 00 f0 3d 15 23 20 bf 9e 43 61 3e
       0.09611296 0.11718844 -0.6255353 0.2199845
0000d0 c4 26 fa 3d f8 c5 d5 3f 49 bb 53 bf 99 a4 00 be
       0.12214425 1.670104 -0.8270765 -0.12562789
0000e0 05 20 91 3e 8c f8 49 3e 28 57 54 bd c2 c4 8f 3b
       0.2834474 0.1972372 -0.05184093 0.004387469
0000f0 01 54 38 3e a1 42 f9 3e f0 9c 56 be 98 6c 27 bf
       0.18000795 0.48683646 -0.20958304 -0.65400076

block1.0.bn1_1.weight f4 [4]
000000 79 f8 70 3f c5 d0 6d 3f 43 6c 51 3f d6 9f 3b 3f
       0.9412914 0.9289668 0.8180582 0.73290765

block1.0.bn1_1.bias f4 [4]
000000 83 54 b1 3f 3e 29 40 3f b5 66 fb 3f 2e c3 13 40
       1.3853916 0.7506293 1.9640719 2.3087878

block1.0.bn1_1.running_mean f4 [4]
000000 f9 6e ba 40 e5 21 62 bf 1c 02 b3 3f c9 07 fa 3f
       5.8260465 -0.8833297 1.3985019 1.9533626

block1.0.bn1_1.running_var f4 [4]
000000 57 14 18 40 f5 c5 4a 40 2b f7 8a 40 14 dc 6b 40
       2.3762414 3.1683323 4.342672 3.6853075

block1.0.conv2_1.weight f4 [8, 16, 1, 1]
000000 97 f7 1c be 06 29 e0 be 62 1f b5 3d f7 3c a8 be
       -0.15328823 -0.43781298 0.088438764 -0.32859012
000010 24 90 8c 3e fd cf 58 be a1 3b 3e bf 47 05 55 bc
       0.2745372 -0.21173091 -0.74309736 -0.0130017465
000020 bb e5 90 3e a6 dd 7b be f8 16 2e 3b 1b 02 c2 bc
       0.2830027 -0.24596271 0.0026563983 -0.023682645
000030 96 be fb bc 6d 5d 82 3f 9a a8 cc 3c 15 5c e5 3d
       -0.030730527 1.0184761 0.02498274 0.11199204
000040 76 2c 81 3d cb 74 0c be 3d fd da 3e ff 10 35 bf
       0.063073084 -0.13716428 0.4277133 -0.7072906
000050 c5 f3 72 be b7 42 54 be 51 9b 9f be db 3b bf bd
       -0.23725803 -0.20728575 -0.31173185 -0.093375884
000060 55 f8 a4 bf 1f 2d 9e bd 22 30 7a bd e5 c0 91 bd
       -1.2888285 -0.0772345 -0.06108106 -0.0711687
000070 ec a8 a0 bd 52 36 5d 3e e1 1a 4b 3e c2 26 9e 3d
       -0.07844719 0.21602753 0.19834472 0.07722236
000080 86 7c 99 be 4e 4e 46 bf 9b 88 aa be a2 51 21 be
       -0.29977816 -0.77463233 -0.33307347 -0.15753797
000090 3a c0 02 3e 4e 95 c4 3e ca f6 6a 3d 50 e4 15 3d
       0.12768641 0.3839516 0.057364263 0.03659469
0000a0 cf 89 df bd 53 03 92 3f 61 f6 e2 bc 16 1a 9e 3b
       -0.10914957 1.1407264 -0.027705373 0.004824887
0000b0 6a ad e2 bc 9a 51 0f bf 1a de 43 3e d8 be 31 3e
       -0.02767058 -0.5598389 0.19127694 0.17357957
0000c0 42 29 07 3e f7 cf af be f3 0a 0e be 27 fd 97 bf
       0.13199332 -0.34338352 -0.13871364 -1.1874131
0000d0 2d 14 6c be 48 0a c7 be 1a 0e 47 3f a9 60 81 3d
       -0.23054571 -0.3887503 0.7775589 0.063172646
0000e0 7e a1 81 3f ea 97 5a be a4 e6 4a bc ce 3c 0c bd
       1.0127409 -0.21347013 -0.012384091 -0.034237675
0000f0 cf 97 14 bd 33 2f 4d 3e 7f 09 c4 3e 50 9a fb 3d
       -0.03627759 0.20037536 0.38288495 0.12285292
000100 1b 47 60 3d 5b 5e 56 3d e5 0b bf 3d c7 ed e7 3d
       0.05475531 0.052336078 0.093284406 0.11324649
000110 41 67 ae 3c d0 54 ad 3d 8e 68 d3 3c 34 a5 81 bd
       0.02128947 0.08463442 0.025806691 -0.06330338
000120 97 fb ea 3c 16 ca 69 bc f1 a8 56 3c e5 d8 64 3d
       0.02868442 -0.014269372 0.013101802 0.05587091
000130 dd 91 0e 3d 67 db 24 3d bb eb 85 bd f5 37 ce 3d
       0.034807075 0.0402483 -0.06539103 0.10069267
000140 8e 88 52 be 2b cb 16 3e 02 49 47 be b8 42 2a be
       -0.20559904 0.1472594 -0.19461444 -0.16627014
000150 77 c4 3c be b3 af 11 be 0f b5 df 3d 41 ba c6 3d
       -0.1843432 -0.1422718 0.10923206 0.09703494
000160 03 17 3b be 97 57 21 bf bc 8b 87 bc 31 41 55 bd
       -0.18270497 -0.63024276 -0.016546123 -0.052064124
000170 39 30 fe bb 77 e0 8d bf 1d 64 b2 3b 62 0a ad be
       -0.0077572134 -1.1084126 0.0054440633 -0.33796984
000180 06 0b 0c 3f 56 5b 3a 3e 93 88 8c be e1 31 7b be
       0.5470432 0.18198904 -0.27447948 -0.24530746
000190 76 95 86 3e 75 28 ad be 09 44 da be 88 de 08 bd
       0.26285905 -0.3381993 -0.42630032 -0.033415347
0001a0 15 01 86 3e 7e 15 36 bf c3 18 47 3d b3 5d c1 3d
       0.261727 -0.71126544 0.0486076 0.094417
0001b0 7f bb 56 3d 21 d1 c4 bd 63 76 54 3e 83 9e 09 bf
       0.052424904 -0.09610201 0.20748286 -0.53757495
0001c0 bd 61 54 be 1e 5d dc be 6e b9 cb 3e 2d 06 84 3f
       -0.20740409 -0.43039793 0.3978991 1.0314385
0001d0 2d 94 20 3e 86 71 78 be 2f 8e ff be 53 5b 9c 3d
       0.15681525 -0.24262056 -0.49913165 0.07634606
0001e0 a4 c6 76 3f fa 1f 4c 3e 5e df 98 bc 2a a7 3f 3e
       0.9639685 0.19934073 -0.018661197 0.18716112
0001f0 fe c2 35 3d 71 06 58 3d 05 ad 88 3e 83 e1 1e 3f
       0.044375412 0.052740518 0.26694503 0.62062854

block1.0.bn2_1.weight f4 [8]
000000 d8 fd 19 3f 82 96 60 3f 82 dd 2d 3f c7 a7 67 3f
       0.6015296 0.87729657 0.6791612 0.9049038
000010 fa 37 62 3c 45 14 78 3f 8e 23 42 3f 06 f6 63 3f
       0.013807291 0.9690593 0.758355 0.89047277

block1.0.bn2_1.bias f4 [8]
000000 35 80 05 3f b1 c2 40 3f bc c8 6f 3e 9b da db 3e
       0.52148753 0.75297076 0.23416418 0.4294022
000010 ee 54 ec bd 32 ca 2d bd 54 77 8a bd e7 65 a0 3f
       -0.115396366 -0.042429157 -0.06761041 1.2531098

block1.0.bn2_1.running_mean f4 [8]
000000 8e f7 67 bf a0 b2 90 c0 3d c1 07 bf ee 18 99 3f
       -0.90612113 -4.521805 -0.53029233 1.1960733
000010 7b b1 46 3f 65 1f 4c c0 d0 12 05 c0 25 96 52 40
       0.77614564 -3.1894162 -2.0792732 3.290414

block1.0.bn2_1.running_var f4 [8]
000000 9f 0f 39 3f 32 f0 58 3f 6d fb 14 3f ce dc a2 3f
       0.7228946 0.8474151 0.58196145 1.2723634
000010 ad bc 80 3c 5b 5e 42 3f b4 c0 a5 3e 1d df 1b 40
       0.015714968 0.75925225 0.32373583 2.4354928

block1.0.conv2_2.weight f4 [8, 8, 3, 3]
000000 85 c3 7b bb a3 2f 5d be 93 11 20 3e b6 c6 78 be
       -0.00384161 -0.21600203 0.15631704 -0.24294552
000010 4c df b8 bd 07 eb 4d 3d 71 2b 66 3e a0 65 82 3e
       -0.090269655 0.050272968 0.22477509 0.2546816
000020 8a c0 6e 3e 2a 1a e3 3e b1 39 05 bd 3f f8 a9 3e
       0.23315635 0.443559 -0.032525722 0.3319721
000030 98 60 ed bd b8 0a 8d bf d8 1d 79 bd 34 e7 05 3f
       -0.115906894 -1.1018896 -0.060819477 0.5230591
000040 88 90 99 3d 0f ce a9 bd bf 98 30 3e a3 d1 da 3e
       0.0749827 -0.08291256 0.17245768 0.42738065
000050 db 1b 12 be bc 94 ba bd 4f 1d 73 3e 86 96 2c bd
       -0.14268439 -0.091104 0.23741649 -0.042135738
000060 44 e2 3f 3d b0 27 cf 3e 71 7e 8c 3e f0 6a 47 3e
       0.046846643 0.40459967 0.27440217 0.19474387
000070 7f 73 1e 3e 70 7a 22 be ab 46 85 3d 65 e7 35 bf
       0.15473746 -0.15867019 0.065076195 -0.71056205
000080 c7 db e6 bd 5e 22 b4 3d be 9d 98 be c8 d7 b6 3b
       -0.11272388 0.087956175 -0.29807848 0.0055799223
000090 d0 72 76 3d 0c 78 9e 3d 10 01 36 3d 1b 32 63 bc
       0.060168087 0.07737741 0.044434607 -0.013866927
0000a0 72 40 85 3c 96 87 ea 3c 01 22 8a bc 8b bb d5 3a
       0.016266081 0.028629106 -0.016861917 0.0016306503
0000b0 e7 ef 0b 3d ab 36 ab 3c 04 e0 d4 be e8 e4 c1 3e
       0.034164336 0.020900091 -0.4157716 0.37869954
0000c0 2d 9d 68 3e 83 21 1b 3e fa 0a d8 3d 78 1e 1c 3e
       0.22716208 0.15149502 0.105489686 0.15245998
0000d0 6f 23 3e be f3 83 e5 bd 32 1a 6a 3e 12 76 70 3d
       -0.18568204 -0.11206808 0.22861555 0.05870635
0000e0 29 7a dc bd c7 6f 9c 3e dd 63 54 be 75 c5 47 bd
       -0.10765488 0.3055403 -0.2074122 -0.048772294
0000f0 10 1a cb bd 08 5c 8f bd 59 ad 48 be 9a 6e da be
       -0.099170804 -0.069999754 -0.19597377 -0.42662507
000100 73 85 a8 3e 47 77 ac bd ce 72 99 be db eb b8 3f
       0.32914314 -0.08421188 -0.29970402 1.4446977
000110 f8 14 f1 bd 59 c8 b6 be f6 69 16 be b7 bd ca bd
       -0.117715776 -0.35699728 -0.14688858 -0.098994665
000120 d2 48 da 3c 50 a7 31 be 64 db 9f 3e 20 e4 18 be
       0.026646052 -0.17348981 0.3122207 -0.14930773
000130 42 cb ec bd 00 9b 69 be 58 a0 27 3d 99 76 49 be
       -0.11562206 -0.22813034 0.0409244 -0.19674148
000140 7a 32 c0 bd 54 3f 57 be b5 fd b1 3e 0d 58 2b be
       -0.09384628 -0.21020252 0.34763876 -0.16732807
000150 fc 2f 93 3c 7c bb a3 3f 97 ce 1c be 6c 7c 3e 3c
       0.017967217 1.2791591 -0.15313183 0.011626344
000160 53 5c 07 bf d0 b9 30 be d8 a2 61 3e 15 a9 69 3e
       -0.5287525 -0.17258382 0.22034776 0.22818406
000170 5b 89 8c be be 3b 5d bd cc 3f 27 be 6a c1 84 3e
       -0.27448544 -0.054012053 -0.1633293 0.25928813
000180 f7 c1 32 be 54 ed 8b be 61 b9 ca bd b0 56 07 3f
       -0.17456804 -0.27329504 -0.098986395 0.5286665
000190 09 ba 77 bd bd a7 2f 39 7c c8 79 3d 60 5d 0a 3c
       -0.06048015 0.00016751788 0.060982212 0.008445114
0001a0 84 3c 12 bf 97 95 0b be d2 17 a2 be 5e 5b b3 3d
       -0.5712359 -0.13631283 -0.31658798 0.08757661
0001b0 cb 4a f2 3c e9 52 ea 3c 16 31 4b bc 44 1b 7e bd
       0.02957668 0.028603988 -0.01240184 -0.06203772
0001c0 17 03 3e bd d0 13 46 bd 94 b6 e6 bc c5 10 97 bc
       -0.046389665 -0.04835874 -0.028163232 -0.018440614
0001d0 45 f1 7c bc 49 63 d1 bd 52 51 ac bd 02 ff 90 bd
       -0.0154383825 -0.10224015 -0.08413948 -0.07079889
0001e0 1c 46 d4 bd a0 82 09 3f 3e 93 1d be 40 6d 9d bd
       -0.10364935 0.5371494 -0.153882 -0.076868534
0001f0 c8 be 26 be c7 59 37 3e 35 e9 83 3d 63 5d 23 3e
       -0.16283715 0.17905341 0.06440965 0.15953593
000200 82 52 38 3e 9f ff 25 3e 15 4f 14 be 76 0e 19 3c
       0.18000224 0.16210793 -0.14483292 0.009341827
000210 cd 34 4a be b0 a0 19 be a9 db c1 bd 50 ce 44 3c
       -0.19746704 -0.15002704 -0.09465725 0.012012079
000220 12 6d 0a bf bd 8c f2 3d 98 61 1c bf 6b a0 d4 be
       -0.5407268 0.1184325 -0.61086416 -0.4152864
000230 48 d1 b0 bc 99 4e 92 3e e0 3c cc 3d 00 f2 80 3d
       -0.021584168 0.2857559 0.099725485 0.06296158
000240 23 9e 19 3d 45 05 e9 3d 04 3a 5b 3e 98 11 2b be
       0.037504327 0.11377958 0.2140885 -0.1670593
000250 3e b7 fb bd 47 46 bc bb 14 fc 90 be 6b 7e 4e be
       -0.1229081 -0.0057456824 -0.2831732 -0.20165412
000260 c5 43 c9 bb 21 bb 31 bd 10 6e 8c be 3e 27 cf bd
       -0.006142112 -0.04339135 -0.2742772 -0.10114907
000270 c8 60 fb be 47 b0 0d bf 9f 44 a4 be ca 6a a4 be
       -0.49097276 -0.553471 -0.32083604 -0.32112724
000280 09 75 3b be 11 fc 5b be de d7 09 bd 0f da 4c be
       -0.18306364 -0.21482874 -0.033653133 -0.20005058
000290 23 6e 21 be 3a 91 6b bd 76 93 55 bd 0f 45 eb bd
       -0.1576467 -0.057511546 -0.052142583 -0.11487781
0002a0 15 d9 46 bd e0 a7 3b be ba 57 92 be 72 17 ab 3d
       -0.04854687 -0.18325758 -0.28582555 0.08354081
0002b0 c6 7e 17 be 48 09 b1 bd 1a 7f 1a 3c 3c ee 0b bd
       -0.14794454 -0.086443484 0.009429717 -0.034162745
0002c0 d5 a7 a7 bd 27 4e ea bc aa aa fd 3d 78 38 ef 3d
       -0.08186308 -0.028601719 0.12386067 0.116806924
0002d0 9e a8 ef 3c 47 78 ca bc 24 0a fb 3b 9c 77 ba bb
       0.029255208 -0.024715556 0.007661121 -0.005690528
0002e0 85 47 7d bc cf 9a 22 bc d8 59 d1 3c ce 09 5a 3c
       -0.015458946 -0.009924605 0.025555536 0.013308002
0002f0 ca 97 f4 3c 3e ac 5d 3d 75 dd 06 3c d3 67 93 bd
       0.029857535 0.05411934 0.00823151 -0.07197537
000300 e4 98 09 3e a1 16 c4 bd ba 93 95 be ae 5e 6f 3d
       0.1343723 -0.095746286 -0.2921427 0.058439903
000310 87 15 30 be 05 01 3c be 96 5d f6 3a d0 ca 3b be
       -0.17195712 -0.18359764 0.0018796201 -0.18339086
000320 8f 8e a9 bd 93 47 8e bd 15 62 18 3d 11 a9 18 3d
       -0.08279144 -0.069472454 0.037202913 0.03727061
000330 80 00 74 3d 21 6d f3 bd 37 c3 b6 3d d8 be 96 bd
       0.05957079 -0.11886049 0.08923953 -0.07360619
000340 f9 f5 83 bc 14 2f 34 be 17 e3 9a 3e f7 66 60 3e
       -0.0161085 -0.17596084 0.3025138 0.21914278
000350 37 7f 02 be 5c 2b 8d 3d 0c 39 9f bd 44 e0 58 be
       -0.12743841 0.06893036 -0.07774553 -0.211793
000360 c8 47 af be 80 da 5e 3e 40 c7 0d 3e 17 89 30 bd
       -0.34234452 0.21763039 0.13845539 -0.04309949
000370 36 9a 0d bf 07 07 32 3f 38 86 80 3d cb 4d 8e 3e
       -0.5531343 0.6954197 0.062756 0.27793726
000380 cf f9 18 3e 47 18 60 3a 67 bb 3b 3e c2 bc 77 bd
       0.14939044 0.00085485395 0.18333207 -0.060482748
000390 59 88 c5 3e 66 2e 7a 3d d8 bd b7 3e e7 01 86 bd
       0.38580588 0.061079405 0.35887027 -0.065433316
0003a0 a5 c9 05 3e 0a 1d f2 3c 6b 70 38 3e 7b 69 88 be
       0.13065203 0.029554863 0.18011634 -0.26642975
0003b0 7a 88 a2 bc aa 70 06 bd cb c5 b7 3e 7d 3e 19 bf
       -0.019840468 -0.03282229 0.35893092 -0.59860975
0003c0 a5 8b 17 3d 11 42 bc 3d c7 5b 21 3e 1f 7e 2d 3d
       0.03699841 0.09192289 0.15757667 0.042356607
0003d0 bf b1 95 3e 00 fb 24 be fc 9e 84 be 9f 67 84 bf
       0.29237172 -0.16111374 -0.25902545 -1.0344123
0003e0 d0 36 95 be 1b 76 b7 3e 63 c1 9e be 6c 60 d1 3d
       -0.2914338 0.35832295 -0.31006917 0.10223469
0003f0 8d 5e 76 3c 87 a4 4e 3d ad 2d c9 bb f5 e4 1a bd
       0.015037191 0.050449874 -0.006139478 -0.037816007

block1.0.bn2_2.weight f4 [8]
000000 79 1b 10 3f 0f 14 15 bf 9e 08 22 3f 81 f1 23 bf
       0.5629192 -0.5823373 0.632944 -0.6404038
000010 c7 ef e3 3e f2 c3 20 3f 12 bb 3f 3f cc 62 09 3f
       0.44518873 0.6279899 0.7489482 0.5366638

block1.0.bn2_2.bias f4 [8]
000000 91 e5 0d 3f 02 3c 23 3f 85 5f 88 3e 27 51 d2 3e
       0.55428416 0.6376344 0.26635376 0.4107754
000010 fc 10 c4 3e 40 5f 1b 3f e9 d9 3e be 93 57 8f 3f
       0.38294208 0.60692215 -0.18637814 1.11986

block1.0.bn2_2.running_mean f4 [8]
000000 1b e2 26 3f 15 7f cd bf e3 ac 39 c0 6a 5e 69 bf
       0.6518876 -1.6054407 -2.9011772 -0.9115969
000010 ef ae 56 3d a4 6c 30 be c6 a4 ee be d1 7f 8f 3d
       0.052412923 -0.17228943 -0.46610087 0.07006801

block1.0.bn2_2.running_var f4 [8]
000000 83 97 9b 3f ac 39 cd 3f 16 b8 42 40 49 c2 36 40
       1.2155613 1.6033225 3.0424857 2.8556082
000010 04 24 18 3f d9 de 1a 40 ab 07 0f 40 18 0f 1f 40
       0.59429955 2.4198515 2.234843 2.4852962

block1.0.conv3_1.weight f4 [2, 16, 1, 1]
000000 70 2d 83 3e 73 03 65 3e af 9b 8a bd af 0b 23 be
       0.25620604 0.22364597 -0.067679755 -0.15922426
000010 ff 1d 85 3e f9 0f e9 3e a3 fb c3 3e ca 5a 24 3e
       0.25999448 0.4552 0.3827792 0.16050258
000020 43 de 8b be 8a 7b 71 3e ef 22 78 3b 73 1e 34 3d
       -0.2731801 0.23582283 0.003786262 0.04397435
000030 58 64 6f 3e 34 ee e4 3e 92 c1 2d be d6 b7 b1 3d
       0.23378122 0.44712985 -0.16968372 0.08677642
000040 34 34 96 3e ac de 7a bd 10 88 4a bf 54 bc 3b bd
       0.29336703 -0.061247513 -0.79113865 -0.0458339
000050 e6 d8 9d 3d 43 04 a4 3e 8c d0 e3 bd 21 28 ba 3c
       0.07707386 0.320345 -0.111237615 0.022724213
000060 54 ad 17 3c 60 31 1a bd 88 eb 95 ba 12 65 bd bc
       0.009257633 -0.037644744 -0.0011437992 -0.023119483
000070 a3 fe 94 3d aa 39 23 be 4a 8c 82 3d 76 02 2f bf
       0.072751306 -0.15939966 0.06374414 -0.6836313

block1.0.bn3_1.weight f4 [2]
000000 24 c9 54 3f fa ed e6 3e
       0.83119416 0.45103437

block1.0.bn3_1.bias f4 [2]
000000 9e ff d3 be fe a2 1a 3f
       -0.41405958 0.60404956

block1.0.bn3_1.running_mean f4 [2]
000000 a2 dd ea 3f d8 75 a4 bf
       1.8348887 -1.2848463

block1.0.bn3_1.running_var f4 [2]
000000 01 82 8f 3f 9d ee 36 3f
       1.1211549 0.71457845

block1.0.conv3_2.weight f4 [2, 2, 5, 5]
000000 8a b6 50 be 7e f0 e7 3d e0 ec 06 3e b2 69 8a bd
       -0.20382133 0.11325167 0.13176298 -0.06758441
000010 3f 63 04 3d d9 cb bd be 1a 1b 43 bd 73 ff ab be
       0.03232121 -0.37069586 -0.047633268 -0.3359333
000020 22 c8 a6 3d 25 de ec bd 79 34 35 3d 28 e5 03 3d
       0.08143641 -0.11565808 0.044239495 0.032200962
000030 a9 9a b8 bb a8 cb 29 3e 27 61 7a 3e 8b 98 eb 3d
       -0.0056336713 0.16581595 0.24451123 0.11503705
000040 cb 68 22 3e 51 2c 05 3b 5a ca 99 3e b3 88 18 3e
       0.15860288 0.0020320604 0.30037194 0.14895897
000050 01 de 62 be 38 46 b4 3c c3 6e 1e 3e 49 0b 81 3d
       -0.22155 0.02200614 0.1547194 0.063009806
000060 40 08 2d bd 61 8b aa 3d bc 24 80 3d 29 42 3f 3e
       -0.042244196 0.08327366 0.062570065 0.18677582
000070 ab 95 91 bd 10 9e b5 3b 61 e0 a0 3d 9b 43 62 be
       -0.07108625 0.005542524 0.07855297 -0.22096102
000080 c1 3d ac be d3 ae 01 bd 55 91 ad bd 87 b8 ac bb
       -0.33640864 -0.031660866 -0.084749855 -0.005271021
000090 3c 2b 5d be 8e e9 14 3f 0d 2f a4 3d 7c 68 3e be
       -0.21598524 0.58168876 0.08016787 -0.18594545
0000a0 60 2b d6 3d 7e c5 1e be f2 5c 7a be 6e c8 e5 bd
       0.10457492 -0.15505025 -0.24449518 -0.112198696
0000b0 af dd 5a 3e c9 81 8d bc 6f e9 0a be 63 8d 98 be
       0.21373628 -0.0172738 -0.1356561 -0.2979537
0000c0 9a 68 d3 bd 1f 10 41 3c 56 1b 4c 3c 44 74 22 be
       -0.103226855 0.011783629 0.012457689 -0.15864664
0000d0 33 2f fc 3c f7 95 9d 3d c0 49 8a bd 77 55 1d bd
       0.030784225 0.07694619 -0.06752348 -0.038411584
0000e0 23 a2 d7 be a9 d5 32 be 36 79 06 bf f8 79 71 be
       -0.42115888 -0.17464317 -0.52528703 -0.23581684
0000f0 c3 aa 20 3d ce d8 2b be e9 5d ae be be fe 11 be
       0.03922535 -0.16781923 -0.34056023 -0.14257333
000100 07 be 2a 3d 9f 73 0d be 5b 42 80 bd 6f 6b cb 3d
       0.04168513 -0.13813637 -0.06262656 0.09932601
000110 01 d3 a9 bd e1 0b 61 3d 3d 8a 30 3d fd 52 2a be
       -0.08292199 0.05494297 0.043100584 -0.1663322
000120 04 34 6f be aa 50 71 bd 62 6b 31 be 6b 03 1c bd
       -0.23359686 -0.058914818 -0.1732612 -0.038089197
000130 50 5b 85 3d ea 5b ff 3c 3a c6 a4 3d be 61 09 3e
       0.06511557 0.031171758 0.08045621 0.13416192
000140 f3 d6 67 3e 58 4f a8 3e be 02 7e 3e 13 cf f6 3c
       0.2264059 0.32873034 0.24805734 0.030128038
000150 19 a5 04 bb a8 8c a3 3e bd 60 36 3f 9a f0 0f bf
       -0.0020240007 0.3194325 0.7124136 -0.56226504
000160 0a 29 b1 be 46 27 4c 3e 86 ae 80 3e cd 43 1e 3f
       -0.34601623 0.19936857 0.2513315 0.61822206
000170 4e e5 3c be 8a 05 a4 be 2c 1a 4e bd d8 39 26 3d
       -0.18446848 -0.32035476 -0.05031793 0.040582508
000180 17 f3 12 3e b1 7a 52 ba dc be a9 bd bc 9d 72 3d
       0.14350544 -0.00080291467 -0.08288357 0.05923246

block1.0.bn3_2.weight f4 [2]
000000 fa c4 a8 3e a9 1d cb 3e
       0.3296278 0.39671066

block1.0.bn3_2.bias f4 [2]
000000 ea c5 94 3e e3 2e 47 3f
       0.29057246 0.7780592

block1.0.bn3_2.running_mean f4 [2]
000000 71 e3 b5 be a7 2f 1c 3f
       -0.35525087 0.6101021

block1.0.bn3_2.running_var f4 [2]
000000 9f 88 66 3e ad 7c 35 3f
       0.22513054 0.70893365

block1.0.conv4_1.weight f4 [2, 16, 1, 1]
000000 d4 ec 5c bd a0 8f 84 bd 69 fd c3 3c ed 99 61 bd
       -0.053936794 -0.06472707 0.023924546 -0.055078436
000010 cd f0 9f 3c bc 29 15 bd d6 ff 7d 3c e5 6e 36 3c
       0.019524002 -0.036416754 0.015502891 0.011134838
000020 a2 9a 1d 3b 2a e1 0b 3d 27 f7 c0 3c 34 24 e9 bc
       0.0024048467 0.03415028 0.023555351 -0.028459646
000030 8e 5b 53 3b fb 33 d5 bc 5c e5 2e bd 9e 0f ba 39
       0.0032250616 -0.026025763 -0.042699203 0.0003548832
000040 c2 1e a0 be 37 ae 20 be 10 9d 30 bf 9a 67 01 bf
       -0.31273466 -0.15691458 -0.6898966 -0.5054871
000050 54 56 fb 3d 2a 51 b4 bc 73 81 70 3e f0 a9 42 3d
       0.12272325 -0.022011358 0.23486881 0.047525346
000060 c6 42 b7 bf 19 3f c0 3d 26 b9 29 bd f3 4d d0 bb
       -1.4317253 0.09387035 -0.041436337 -0.0063569485
000070 84 07 3e 3c 91 71 01 be 4b c0 af bd a5 5c 9e 3e
       0.011598472 -0.12640978 -0.08581599 0.30930057

block1.0.bn4_1.weight f4 [2]
000000 83 69 1f 3c ec e8 25 3f
       0.009729746 0.64808536

block1.0.bn4_1.bias f4 [2]
000000 54 1f 35 bd b6 42 1c 3f
       -0.04421933 0.6103929

block1.0.bn4_1.running_mean f4 [2]
000000 10 79 95 be 4e 13 b0 c0
       -0.29193926 -5.5023565

block1.0.bn4_1.running_var f4 [2]
000000 8d 8c 10 3c 9a 89 47 3f
       0.008822572 0.7794434

block1.1.conv1_1.weight f4 [4, 16, 1, 1]
000000 a7 61 14 bf 29 ad f0 3d b1 9d ec bf 98 fc 1f bf
       -0.57961506 0.11751778 -1.8485624 -0.624948
000010 9a aa a9 3e 58 cf af be 08 67 04 3e 27 65 65 3f
       0.3313797 -0.34337878 0.12929928 0.8960747
000020 cd b2 a2 3e b7 24 55 3f 03 ca 11 3f 5a de 2b bf
       0.3177704 0.8325915 0.5694887 -0.67136157
000030 66 b3 6b be fc 12 5e 3e 45 c2 8a bb 94 28 d0 bc
       -0.23017654 0.2168693 -0.0042345845 -0.025409974
000040 72 a0 63 bd 2d 97 ce 3e 2f 7d de be 04 44 bf 3f
       -0.055572934 0.40349713 -0.43454883 1.4942632
000050 4d 76 aa 3e b9 5a 07 be 60 8c 5e 3d af 12 f4 bd
       0.3329338 -0.13218202 0.05433309 -0.11917626
000060 93 53 c6 be 49 e9 26 3e 11 71 96 bd 9a 74 f6 be
       -0.38735637 0.16299929 -0.073457845 -0.48135835
000070 89 09 a4 3d e3 e3 1f bf e8 76 a8 bd d1 1d 88 3e
       0.08009631 -0.624571 -0.082258046 0.26585248
000080 df 87 72 3e 08 ab d7 3d 91 40 5d 3f 7f 9e 4b 3e
       0.23684643 0.105306685 0.86426646 0.1988468
000090 d1 e7 46 be f1 52 99 bd 48 95 d0 3e 8f 3a 86 be
       -0.19424368 -0.07486523 0.40738893 -0.26216552
0000a0 b7 cd 46 3e ba 53 53 be e6 22 2e be d2 58 af 3d
       0.19414411 -0.20637408 -0.170055 0.08561863
0000b0 c7 88 f0 3c fc 06 da bd 7a 5d 08 bc 26 7f 08 3d
       0.029362096 -0.106458634 -0.008323068 0.033324383
0000c0 ad 76 9e bf ab 1c 50 be 4b ad ba be 9a c7 0c bf
       -1.2379967 -0.20323436 -0.36460337 -0.5499207
0000d0 0f be 46 bf 0d 5d 4c bf 16 16 f3 bd 8e 72 97 bc
       -0.77633756 -0.79829484 -0.11869447 -0.018487241
0000e0 1d cb 6a 3e 1d e7 1c bf 3f 29 a9 3c 52 db ea 3d
       0.22929044 -0.6129015 0.02064955 0.11467613
0000f0 1e 7c 89 3e 29 ec 2a be be 89 4c 3d 96 72 e3 3e
       0.26852506 -0.1669165 0.04993605 0.4442336

block1.1.bn1_1.weight f4 [4]
000000 50 0e 82 3f 04 a9 24 3f e7 73 88 3f 21 6d 2b 3f
       1.0160618 0.643204 1.066037 0.6696339

block1.1.bn1_1.bias f4 [4]
000000 dc 8e e2 3f fd d8 45 3f 42 55 12 bf d2 b2 a8 3f
       1.7699847 0.7728422 -0.57161343 1.3179572

block1.1.bn1_1.running_mean f4 [4]
000000 d3 42 a5 c0 62 f5 ff 3f 14 12 1a 40 06 74 9b c0
       -5.1644073 1.999676 2.4073534 -4.857913

block1.1.bn1_1.running_var f4 [4]
000000 21 56 0c 41 83 1c 6f 3f 38 08 bd 3f c3 0e 10 40
       8.771028 0.9340288 1.4768133 2.250901

block1.1.conv2_1.weight f4 [8, 16, 1, 1]
000000 6a cc 17 be 14 d4 f0 be ed 39 45 bd 12 90 92 3c
       -0.14824072 -0.47036803 -0.048150945 0.017890964
000010 40 1c b9 be 2a db e3 be 09 78 df 3e 47 a4 59 bf
       -0.36154366 -0.44503146 0.43646267 -0.8501629
000020 59 c9 23 3f d4 c4 c0 bd 61 0d 2c bd ab 0c 4a be
       0.6397911 -0.09412542 -0.042004947 -0.19731395
000030 42 51 3d be 70 ea 03 bc 34 be 50 bd fb 4d a7 be
       -0.18488029 -0.0080515 -0.05096264 -0.32676682
000040 77 42 89 bf 23 25 ee 3f a1 ea 28 3f 71 48 89 be
       -1.0723408 1.8605083 0.65983015 -0.2681308
000050 77 f2 01 3f 93 78 d8 3d 76 28 a7 be 17 0d 31 3d
       0.50760597 0.10569873 -0.32648057 0.043225374
000060 e6 14 5a bd 7e c5 3a be 65 f7 e2 bd e3 b5 b1 3e
       -0.053242587 -0.182394 -0.11082343 0.3470908
000070 2a 3f bb 3d 33 d2 28 3e f2 ea 94 3c 25 3c de 3e
       0.09142907 0.16486435 0.018178437 0.43405262
000080 5d 84 87 3e 5d ba 32 be 2b 3c 37 3f 57 17 3a bf
       0.26468173 -0.17453904 0.71576184 -0.72691864
000090 e1 9b 2c be 0a a5 1d be 14 ca 58 bc 5f 53 a8 be
       -0.16856338 -0.15394989 -0.013231773 -0.32876107
0000a0 04 64 25 be 80 df a2 bd f0 f6 23 3f f0 17 9f 3e
       -0.16151434 -0.079527855 0.6404867 0.3107295
0000b0 a6 26 81 3d 6e 6d 0d 3e 20 dc 53 bd 13 05 95 3d
       0.063062 0.13811275 -0.0517236 0.072763585
0000c0 87 f5 9f 3d d6 ba 52 3d bb 58 19 bd 84 48 fc bc
       0.078105025 0.051447712 -0.037438136 -0.030796297
0000d0 62 4b 7a bc 32 b6 0b 3c e0 64 c9 bd 59 a1 33 bc
       -0.015276762 0.0085273255 -0.098336935 -0.010963761
0000e0 cd b1 0a 3d 59 c6 d2 3d 6e 5e 51 bc 26 c3 bf bd
       0.03386097 0.10291738 -0.012778861 -0.093633935
0000f0 81 17 f8 bb c8 60 51 3d 66 3a 83 bb c2 52 85 ba
       -0.0075711613 0.05111769 -0.0040047644 -0.0010171758
000100 d4 27 a1 3e e7 d5 ed 3d 4b 68 33 3e c2 db 66 bc
       0.314757 0.11613064 0.17520253 -0.01409048
000110 b7 15 b0 bd bc 31 84 3e 82 b5 bc 3d f7 72 ab 3d
       -0.08597892 0.25819194 0.09214307 0.08371537
000120 0c 17 36 3e 8b 7e a5 3e d5 c9 d9 3e 7d e8 25 be
       0.17782229 0.32323107 0.42536798 -0.16201968
000130 0c 01 93 bc 60 74 79 ba 90 d9 83 bd bb 67 b2 be
       -0.017944835 -0.00095159374 -0.06437981 -0.34844765
000140 8e fe 10 3f 04 aa 22 3c 3d 53 ec be 41 51 e1 bf
       0.5663842 0.00992823 -0.46157256 -1.7602922
000150 14 94 b0 3e 56 76 c0 be d2 4d f4 3d e9 32 15 3d
       0.34487975 -0.37590283 0.119289055 0.036425505
000160 9f fb ab bd 4b 37 bb bd a2 14 b1 3d 85 cd 3b 3f
       -0.08397602 -0.09141406 0.086465135 0.7336047
000170 64 32 10 bf d7 73 2c 3f 8e 3c ad 3d bf dd 88 3c
       -0.5632689 0.6736426 0.084588155 0.0167073
000180 c8 85 a6 3c 77 13 73 bd 5c 5c d8 3d 3e c4 ef 3d
       0.020327464 -0.059344735 0.10564491 0.11707352
000190 ce e3 dd bc d4 db 98 bb 23 04 3e bd 79 e2 cf 3c
       -0.027086165 -0.0046648774 -0.046390664 0.025376545
0001a0 eb c8 1a 3d cf fa 86 3d 1b 94 0b 3d b3 7a 40 bd
       0.037789267 0.06590807 0.03407679 -0.046992015
0001b0 6c 61 bf 3c e1 d6 df bc d6 eb 0c bd 11 bb 8b bd
       0.023361884 -0.027324142 -0.0344046 -0.068227895
0001c0 1a fa 13 3d a9 f2 77 3d 84 03 a8 3c 4f 74 18 bd
       0.036127187 0.060534153 0.020509489 -0.037220296
0001d0 fd 2c 53 bd fa 21 08 3d 3f e2 60 3d d8 d9 f7 bd
       -0.051556576 0.033235528 0.054903265 -0.12102097
0001e0 ff 2d eb bd 4a e6 cf bc 59 63 8d 3d 0f 4c 1e 3d
       -0.114833824 -0.025378365 0.06903715 0.038646754
0001f0 b3 c4 81 bd 42 0d ce bb b6 f1 c2 bc e1 9a 33 bd
       -0.063363455 -0.0062882015 -0.023796897 -0.043848876

block1.1.bn2_1.weight f4 [8]
000000 30 24 18 3f 1a 64 1c 3f 4b 72 7c 3f 47 9f 50 3c
       0.5943022 0.6109024 0.986119 0.012733287
000010 e0 ec 06 3f 94 98 52 3f 44 72 61 3c 16 de 9a 3b
       0.5270519 0.82264066 0.013760153 0.0047261817

block1.1.bn2_1.bias f4 [8]
000000 11 7e a5 3e cb d0 a7 3f 10 e4 8b be 4c 6b b2 bd
       0.32322744 1.3110594 -0.27322435 -0.087118715
000010 51 a1 61 be 7a 03 82 3f 12 b9 67 bd 22 42 01 bd
       -0.22034194 1.0157311 -0.05657298 -0.03155721

block1.1.bn2_1.running_mean f4 [8]
000000 9e ca e2 bf c7 c8 ed 3f c3 77 ca 3d 80 f5 d6 bc
       -1.7718084 1.8576897 0.09886124 -0.02624011
000010 61 94 7f 3f 5e 52 44 c0 4d 21 c2 3e 57 17 62 bd
       0.99835783 -3.0675273 0.3791603 -0.05519804

block1.1.bn2_1.running_var f4 [8]
000000 ee 21 2d 3f 59 fe 40 40 97 d4 70 3f a9 64 3c 3c
       0.676299 3.0155241 0.94074386 0.011498609
000010 27 1a 86 3e 51 00 b9 3f 5d 8f db 3c c2 7b 34 3c
       0.26191828 1.4453222 0.02680176 0.011015834

block1.1.conv2_2.weight f4 [8, 8, 3, 3]
000000 5e 7f b9 bd d8 a8 19 bd 46 24 8b 3d 0e b2 1e bf
       -0.090574965 -0.037514538 0.06794028 -0.6199044
000010 7a e0 1c bf 0d 59 05 bd f6 63 c7 bd 1f 87 19 3e
       -0.61280024 -0.03255563 -0.09735863 0.14992951
000020 57 61 8b bd 7b 9e f4 ba 54 0d 72 3c c9 f0 64 be
       -0.068056755 -0.0018662954 0.0147736855 -0.22357477
000030 a1 99 66 3e 66 e6 19 40 da e0 10 3e 8a 31 66 be
       0.22519542 2.4046874 0.14148274 -0.22479835
000040 1e 0d 5d 3e 1c c8 89 3e 78 10 67 be 09 e9 7a be
       0.21587035 0.26910484 -0.22564876 -0.24502958
000050 42 49 59 3d 7b 1b 86 be fd ce 39 3e dc 44 69 be
       0.05304838 -0.2619284 0.18145366 -0.22780174
000060 55 2f 06 3d 24 8f 7d 3d 84 53 17 bd 04 bd c1 3d
       0.032759983 0.061904088 -0.03694488 0.0945988
000070 52 65 61 3d 1a 30 85 3b f4 5e aa 3d 45 43 32 3d
       0.055028267 0.004064572 0.08318892 0.043521184
000080 2c 99 8d 3c 14 e1 15 3e 44 94 3e 3d f3 f7 dd ba
       0.017284952 0.14636642 0.046528116 -0.0016934857
000090 c0 19 ab be 30 ff 05 be 15 83 e2 bc c4 f9 97 bd
       -0.33418083 -0.13085628 -0.027650395 -0.07420686
0000a0 f2 7c 1a bd 96 32 4f 3e ae 7a ef 3d da 54 1f 3e
       -0.037716813 0.20234141 0.11693321 0.15559712
0000b0 86 9f 3b 3e df 4d 9c 3e 5d 2d 02 bf 2e de 0a be
       0.18322572 0.3052816 -0.5085047 -0.13561317
0000c0 c3 38 17 bf e6 8d a6 3f 1b 88 77 be a3 f2 40 3b
       -0.59070987 1.3012054 -0.24173014 0.0029441498
0000d0 c7 e8 88 be 79 d5 10 be 77 bd 81 bc 8d 59 3e bb
       -0.26740095 -0.14143933 -0.015837414 -0.0029045076
0000e0 f9 1b 89 3c b3 9a e3 3c c8 86 12 3d dc 5a d2 3a
       0.016736971 0.027783727 0.03577307 0.0016048807
0000f0 55 9e ba 3c ec d2 00 3d 2a 15 46 3d 60 19 d3 3b
       0.022780577 0.03145115 0.048360027 0.006442234
000100 fe 64 35 3d 57 b9 83 bc 43 b0 f5 bc de f8 aa bb
       0.044285767 -0.016079588 -0.029991275 -0.0052176556
000110 85 95 4d bd 96 56 fb bb e1 83 53 bd e6 2c e8 bc
       -0.05019142 -0.007670234 -0.05163944 -0.028341722
000120 87 6b 4e bd 11 9f 55 be ef f4 40 bd e3 02 e6 bd
       -0.050395515 -0.2086146 -0.047108587 -0.11231019
000130 c2 1c a6 bc b5 72 0f 3e a2 64 2f be 3a 13 d6 3d
       -0.020277385 0.14008601 -0.17128232 0.10452886
000140 8f f3 69 3d b5 76 74 be 64 ee 2f bd ad 16 47 3e
       0.05711704 -0.23873408 -0.042951956 0.19442244
000150 78 48 3d ba a0 0f a4 be 7a 8c f2 3c 90 ac e6 3d
       -0.00072205765 -0.3204317 0.029608 0.112633824
000160 57 49 a1 3d dc f1 52 be bf 44 d7 3e 07 cb fc 3e
       0.078753166 -0.20600075 0.42044637 0.49373648
000170 82 83 e1 3d 0d 7c be 3d e2 35 de be be c3 6c be
       0.11011411 0.093010046 -0.43400484 -0.23121545
000180 8d ca de bd ae af b3 be 7b 14 b9 bd 70 eb 09 bd
       -0.10878477 -0.3509497 -0.090371095 -0.033671796
000190 68 9d b6 bc 20 bb b9 3c c4 e3 48 bd 4c 77 ba bc
       -0.022291854 0.022672236 -0.04904534 -0.022761963
0001a0 b1 6b 90 bc db 79 5f 3d 2b 05 51 3d 37 a8 d1 3c
       -0.017629476 0.05455957 0.05103032 0.025592906
0001b0 29 74 22 b9 50 da ff bd 28 c4 8b bd fa 27 b1 bc
       -0.00015492797 -0.12492812 -0.06824523 -0.021625508
0001c0 7f 9a e1 3c b0 ec 93 bd 7e ad ad 3d 0d 4e 12 bd
       0.02753949 -0.07222879 0.08480357 -0.035718966
0001d0 19 0e 8d 3d b4 e8 bd 3e f2 cb 93 3f f1 2b e1 3e
       0.068874545 0.370916 1.1546614 0.43978837
0001e0 a4 b9 b6 3d f3 ce 39 bf 2c fd 9f be ab 2e 70 be
       0.08922127 -0.72581404 -0.31247842 -0.23455302
0001f0 eb 51 8c be 77 07 ba be 20 f4 ef 3c 69 9d 53 ba
       -0.27406248 -0.3633382 0.029291213 -0.0008072467
000200 d2 b5 68 3b d5 19 b9 b9 1e 80 07 3d 8b 04 11 3d
       0.0035508764 -0.00035305196 0.033081166 0.035404723
000210 49 fc 20 bb 36 2d 4e bd 54 af 09 3c 5a 79 67 bc
       -0.0024564436 -0.050336085 0.008403618 -0.014128054
000220 1e 2a c1 bc 04 52 88 3c ac dd 65 3d de 23 38 3c
       -0.023579653 0.01664067 0.056119606 0.01123902
000230 7a 1a 7d bc ab 2e 20 3d 13 ee a1 3d 04 82 88 ba
       -0.015448207 0.039107006 0.07906737 -0.0010414724
000240 cd 9a f7 bc 8f 26 51 3d 9f 3e 31 3c 0c f4 f6 bd
       -0.030225182 0.051062163 0.010818153 -0.12058267
000250 2b b2 3b be 2f e7 18 3d a5 3e 34 3e d9 76 90 3d
       -0.18329684 0.03732985 0.17602022 0.070539184
000260 b3 94 87 bd d6 c1 34 3e 27 3c 05 be fb 9e 8a be
       -0.06620159 0.17652068 -0.13011228 -0.27074417
000270 04 6a 60 3d a0 be 88 3e be 59 6a be fc 90 07 3e
       0.054788604 0.26707935 -0.22885796 0.13238901
000280 2f 83 21 3f e5 24 23 3d 49 f3 89 be 38 0a 18 3f
       0.63090795 0.039830107 -0.26943424 0.5939059
000290 cd 8c e8 3d 6d 62 da be 70 9b c0 3e 4f 99 f5 3e
       0.113549806 -0.42653218 0.3761859 0.47968528
0002a0 ee 3c 92 be af eb 93 be a8 ee 22 be d1 c1 4d 3c
       -0.2856211 -0.2889075 -0.15911353 0.012558416
0002b0 9c b3 44 3c 1f 41 a2 bc 75 a1 26 bd 3c 76 7e 3c
       0.012005713 -0.019806443 -0.04068132 0.015531119
0002c0 eb f1 f1 3b dc cd b2 ba 60 76 71 3c 7b 30 31 3c
       0.007383575 -0.0013641673 0.014737695 0.010814781
0002d0 93 93 e1 3b 55 35 11 3a 85 d0 1a bd 04 ee 24 bd
       0.0068840473 0.0005539258 -0.037796516 -0.040266052
0002e0 d8 b9 10 bd fb 19 25 be be ed 5c bd 4f 4d 2f 3d
       -0.035333484 -0.16123192 -0.053937666 0.042798337
0002f0 29 7c c0 bd be 8e a1 3c e8 31 01 3f 1c a6 47 3c
       -0.09398682 0.019721385 0.50466776 0.0121856
000300 09 00 89 be 14 69 04 be b0 b8 31 3f d3 a0 9d be
       -0.2675784 -0.12930709 0.69422436 -0.30786762
000310 a4 82 67 bf 02 d0 c2 3c f4 2f 49 3d 47 cd 88 3d
       -0.90433717 0.023780826 0.049117997 0.066797785
000320 41 cc 87 3d 38 9d a9 3b 10 1a 7c 3c b2 76 3a 3d
       0.06630755 0.0051762126 0.015387073 0.045523353
000330 2c f1 35 3d 87 b4 bb 3c 57 c1 6a 3c 64 76 3e 3c
       0.044419453 0.02291323 0.014328322 0.011624906
000340 f9 ed ca bb 78 45 e6 bc 49 bf dd 39 53 54 11 3d
       -0.0061929193 -0.028109297 0.00042294923 0.03548081
000350 b9 07 e8 bc 12 3b 23 bd 71 7f 3e bc 6c 0e 2e bc
       -0.028323995 -0.039851256 -0.011627064 -0.010623556
000360 48 7a 83 3d b3 fe ef be dd 94 ae bd 75 b5 8b bd
       0.06419808 -0.46874008 -0.08524487 -0.068217196
000370 e7 a2 06 be 8a 23 2d bd b6 4a e2 3d 4b 3d f1 bd
       -0.1314808 -0.04227022 0.11049406 -0.11779269
000380 04 43 b1 3a 05 62 5c be ca 89 63 3d ec 15 9d 3d
       0.0013524 -0.21521766 0.055551328 0.07670197
000390 6c e5 ee 3d 95 48 2c 3f c8 e7 d2 3e 42 dd b0 bb
       0.116648525 0.6729825 0.4119246 -0.0053974697
0003a0 fb b4 94 3e 6a 03 c1 3b 48 18 cd bd 75 5b 8d 3c
       0.29044327 0.0058902996 -0.10014397 0.017255524
0003b0 28 27 0a be a2 ec 8c 3e 25 8f 6c 3f 4f a2 00 bc
       -0.134915 0.27524287 0.9240592 -0.007851197
0003c0 f7 a0 51 3c 67 0f 8c 3e 5e a0 4b 3d 03 50 b0 bc
       0.012794725 0.273555 0.049713485 -0.021522528
0003d0 22 64 76 3d 47 f2 1c 3d 5f a0 90 bd 78 d7 5f bc
       0.060154088 0.03831699 -0.07061838 -0.013662212
0003e0 21 c7 c6 3c 91 91 e4 bb cb 63 47 3d 28 07 56 3d
       0.024264874 -0.0069753607 0.048679154 0.05225292
0003f0 4c e5 a6 3c 33 88 d9 3d ee 21 c0 3d b0 8e 3d be
       0.02037301 0.10621681 0.093814716 -0.18511462

block1.1.bn2_2.weight f4 [8]
000000 c9 0f 28 3f 11 da 15 3f 3a f1 41 3f 05 63 05 3f
       0.65649086 0.5853587 0.7575871 0.52104217
000010 f2 ce fa 3e e0 b8 fc 3e a5 ac 17 3f 92 9b 05 3f
       0.48986012 0.49359798 0.5924781 0.52190506

block1.1.bn2_2.bias f4 [8]
000000 7d 49 c1 3f 4d 16 af 3c 4f 2c 89 be a8 53 97 bd
       1.5100552 0.021372939 -0.26791617 -0.07389003
000010 5a 81 3a 3f f5 c7 00 3e 85 8d c6 3d 52 a0 13 be
       0.72853625 0.12576278 0.096949615 -0.14416626

block1.1.bn2_2.running_mean f4 [8]
000000 b5 16 35 40 ae 4c 13 bf 5e f1 0e 3f f9 3d 2d 40
       2.829511 -0.5753888 0.5583705 2.7069075
000010 2d e9 78 3f 2f 42 52 bf a3 b1 a4 bf 3f 7c 0f bf
       0.972308 -0.8213224 -1.286671 -0.5604896

block1.1.bn2_2.running_var f4 [8]
000000 b5 d5 92 40 ec 70 b1 3f 50 be 6a 3f 09 11 e8 3f
       4.5885873 1.3862586 0.91696644 1.8130199
000010 06 51 85 3f f4 e0 33 3f 15 da 95 3f 34 f1 39 3f
       1.0415351 0.70265126 1.1707178 0.7263367

block1.1.conv3_1.weight f4 [2, 16, 1, 1]
000000 7b be 41 3f 18 f2 af 3d 43 84 a1 bd fd 19 02 bf
       0.75681275 0.085910976 -0.07886555 -0.50820905
000010 c9 83 6f 3e 19 31 b6 3e 89 b3 7b 3c 15 27 fb be
       0.23390116 0.35584334 0.015362629 -0.49053255
000020 cf f9 8c 3d 78 a0 0e 3f 3b 04 5e be 9b 35 1f 3d
       0.06883585 0.55713606 -0.21681301 0.03886948
000030 9e 37 3e 3c a6 60 f4 3e e6 09 fb ba 7a d3 3a bb
       0.01160994 0.47729987 -0.001915273 -0.0028507398
000040 0f 50 31 3f a9 28 ed bc 63 85 02 3f b1 9e e2 3c
       0.69262785 -0.028950052 0.5098478 0.02766356
000050 a2 e8 80 3e 43 e6 8a be 8d 54 b4 bd bd 01 bd bd
       0.25177485 -0.271288 -0.08805189 -0.09228847
000060 34 a9 25 bd f4 df 59 bc 67 52 22 be c3 be 1f bd
       -0.040444568 -0.0132980235 -0.15851746 -0.039000284
000070 69 76 93 3e b5 41 9e 3d 01 b9 89 bc 96 2e 49 bd
       0.28801277 0.07727376 -0.01681185 -0.049116693

block1.1.bn3_1.weight f4 [2]
000000 e3 f8 8a 3e d5 61 4e 3f
       0.2714301 0.8061803

block1.1.bn3_1.bias f4 [2]
000000 26 17 d5 3e 60 ad 2a bf
       0.41619223 -0.666708

block1.1.bn3_1.running_mean f4 [2]
000000 8b 9d 3c 3f 36 8b f3 3f
       0.7367789 1.9026859

block1.1.bn3_1.running_var f4 [2]
000000 29 49 b2 3e 67 59 8d 3f
       0.34821442 1.1042908

block1.1.conv3_2.weight f4 [2, 2, 5, 5]
000000 5d fe 39 be 00 1d 8b bd 25 7f 09 be 4c 88 2c be
       -0.18163438 -0.06792641 -0.13427408 -0.16848868
000010 18 1a c0 bb e4 4c 0f be 7e da 51 bd d0 29 7d 3e
       -0.0058624856 -0.13994175 -0.05123376 0.24722981
000020 de e8 16 3b 45 24 d5 bd ae 12 4a 3b 5d 23 53 bd
       0.0023026983 -0.104073085 0.0030833888 -0.051547397
000030 00 bc 99 bd 65 7c 38 be 46 63 31 3e f4 07 14 bd
       -0.07506561 -0.18016203 0.17323026 -0.036140397
000040 19 2c 52 be 51 71 b2 be 41 57 ec be 7f 3a b0 bc
       -0.20524634 -0.3485208 -0.4616032 -0.021512268
000050 1a ec 36 be 0e e9 d2 bc 6a 49 62 be 9e 75 33 be
       -0.17863503 -0.025745895 -0.22098318 -0.17525336
000060 5a 15 7f be 8f 3d 2b bd 9c 41 89 3e ea ff 2f 3e
       -0.24910489 -0.041806754 0.26807868 0.17187467
000070 5c 6a d1 3d 09 22 37 3c da 76 e5 3c 6a 62 45 3e
       0.102253646 0.011177548 0.028010774 0.19275823
000080 3b 66 b1 3d 72 d8 57 3e 87 a5 b1 3d 3f 58 a8 bd
       0.08662077 0.21078661 0.0867415 -0.082199566
000090 5a 02 40 3e 65 8c 44 3e 30 a4 99 3d 53 6a d3 bc
       0.18750897 0.19194181 0.075020194 -0.025807535
0000a0 5c 0f d0 bd b3 db 04 3e 16 c0 bf 3d 96 8b 4e 3d
       -0.101591796 0.12974434 0.09362809 0.05042609
0000b0 4a 46 ff bd 80 d4 bc bc 92 e2 fe 3d 33 dc de 3c
       -0.124645784 -0.023050547 0.124455586 0.027204609
0000c0 d9 e1 e3 3d 42 be 80 bc 60 f3 1e be 47 9b 2d be
       0.111270614 -0.015715722 -0.15522528 -0.16953765
0000d0 5c c3 34 3e 46 9a cd bd 89 d6 a4 bd 53 f3 a6 bd
       0.17652649 -0.10039191 -0.08048732 -0.08151879
0000e0 4c 9f 6e be 3a 9a a5 3d 16 1a f9 bd 54 54 2e be
       -0.23302954 0.08086057 -0.121631786 -0.17024356
0000f0 e8 ed 04 3e 07 ca b6 bd 26 6b c9 3e ec 84 33 3e
       0.12981379 -0.089252524 0.3933956 0.17531174
000100 97 9a 94 3e b4 53 d5 bc 2f aa 86 3c ad 1c 6c 3e
       0.29024193 -0.02604089 0.016438572 0.23057814
000110 ab a3 bb bd a5 79 84 bd be ad a3 bd e7 4d 0a be
       -0.091620766 -0.06468514 -0.07992123 -0.1350628
000120 90 01 aa 3d cd 31 63 bd e2 d8 d1 bd ff 5f 32 be
       0.08301079 -0.055467416 -0.10246445 -0.17419432
000130 9a db 0e be c7 f5 5a 3e ff d6 ca 3d 2c c7 95 bd
       -0.13950959 0.21382819 0.099042885 -0.0731338
000140 55 2c 71 be 4d 9d 80 be 7b 44 d9 3c e3 14 31 bd
       -0.23552068 -0.2512001 0.026521912 -0.04323281
000150 f8 63 4b be e2 59 a1 3e 3e 53 7a 3e a8 93 fd 3e
       -0.19862354 0.31513888 0.24445817 0.49526715
000160 cc 4b 80 3e d7 ee 65 3e 3c 6f e4 3d 44 31 60 bc
       0.25057828 0.22454391 0.11154029 -0.013683621
000170 d5 50 60 3e a8 83 1d 3e 7d 17 9f 3d 10 d9 ed bc
       0.21905835 0.15382254 0.07768152 -0.029034168
000180 80 74 02 bd c7 ba 62 3e 8a 56 ae 3d ef b4 05 bd
       -0.031849384 0.22141562 0.085126 -0.032643255

block1.1.bn3_2.weight f4 [2]
000000 f4 b6 0a 3f 74 f2 6b 3f
       0.54185414 0.9216683

block1.1.bn3_2.bias f4 [2]
000000 28 6f b4 3e 3a 19 3d bf
       0.35241055 -0.7386662

block1.1.bn3_2.running_mean f4 [2]
000000 a9 a6 4d bf 28 c5 29 3e
       -0.8033243 0.16579115

block1.1.bn3_2.running_var f4 [2]
000000 e2 9f 72 3e 5b f3 a8 3e
       0.23693803 0.32998165

block1.1.conv4_1.weight f4 [2, 16, 1, 1]
000000 96 34 e6 bd 01 92 86 be b0 17 47 3e e4 e4 b8 3e
       -0.11240499 -0.26283267 0.1944263 0.3611213
000010 ed a5 80 be ad 7f 08 be 69 ff 73 bf be ba 7a be
       -0.2512659 -0.13329954 -0.953116 -0.24485299
000020 b4 e0 9b 3e c6 06 a8 3e 3c e9 e0 bd 1e df 56 be
       0.30444872 0.32817668 -0.10981986 -0.2098355
000030 d6 30 c3 bc 28 ac 1a bf 30 b0 90 bc 6a ec 7c be
       -0.023826998 -0.6041894 -0.017662138 -0.2469956
000040 40 c4 d9 3c 9f 91 01 be 4e ac 76 3e 63 63 a8 3e
       0.026582837 -0.12653206 0.24089167 0.32888326
000050 6c 6b 8b 3c 17 66 cd be 53 9d 3d 3c d8 78 09 bd
       0.017018996 -0.4011695 0.011573154 -0.03356251
000060 4b fa 19 3f b4 0f 2b 3e 11 00 b1 3e 23 0b 26 3e
       0.6014754 0.16705209 0.34570363 0.16215186
000070 ee b1 c3 3d 02 fe c0 3e 37 1b 00 3d 52 68 a5 3f
       0.09555422 0.37693793 0.031275954 1.2922461

block1.1.bn4_1.weight f4 [2]
000000 ee 14 29 3f 7a 32 fa 3e
       0.6604756 0.48866636

block1.1.bn4_1.bias f4 [2]
000000 db 90 e0 bd b4 16 3c 3f
       -0.10965129 0.7347214

block1.1.bn4_1.running_mean f4 [2]
000000 d2 47 77 bf 1b cb 6f 40
       -0.96593964 3.7467716

block1.1.bn4_1.running_var f4 [2]
000000 69 4e c4 3e a8 e2 66 3f
       0.38341072 0.901896

block1.2.conv1_1.weight f4 [4, 16, 1, 1]
000000 45 ab b9 3e 65 f1 b6 be 16 c0 bf bd 9b 52 0e 3e
       0.3626348 -0.35731044 -0.09362809 0.13898699
000010 0b 7b e2 3f 6f 7e 08 bf d2 8b f7 3e 7b b9 02 3f
       1.76938 -0.5331792 0.48348862 0.5106427
000020 d7 87 fc bd 53 b2 fd 3d 35 20 31 bf b1 5f 02 3f
       -0.12330597 0.12387528 -0.6918977 0.50927263
000030 7a 89 ef 3d c3 d2 89 3e cc 96 43 bc e9 9a 2f 3f
       0.116961434 0.2691861 -0.011937808 0.6859575
000040 73 ca 7a bc 3f 47 5e 3b 28 1d b1 bc e9 9d 3a 3d
       -0.015307057 0.0033916978 -0.021620348 0.04556075
000050 75 06 b7 3c 53 c4 36 3c 00 d1 49 bd 34 ab d1 3d
       0.022341946 0.011155206 -0.049271584 0.102377325
000060 57 b2 28 3c 34 68 50 3d d7 20 94 bd 9a 55 16 bd
       0.010296426 0.050880626 -0.07232826 -0.03670273
000070 9b a2 8d 3b bc 09 df bc 54 7f e3 bc e5 9b b6 3d
       0.0043223626 -0.027226321 -0.027770676 0.08916453
000080 ae 35 18 40 d3 d1 cd 3e cb d0 04 bf 58 b4 98 bc
       2.3782763 0.40199146 -0.5188109 -0.018640682
000090 cc eb 29 be 80 b3 9e 3d e8 a9 9e b9 cf bc 0c 3e
       -0.16593856 0.07749081 -0.00030262698 0.137439
0000a0 ff 8e 87 3d c0 5d 8b 3e f3 11 bd 3e 09 08 e8 3d
       0.06619071 0.27219963 0.36927757 0.113296576
0000b0 87 92 fc be b0 ca 89 3e 92 1a 88 3c e8 70 02 3e
       -0.49330541 0.2691245 0.016614232 0.12738383
0000c0 27 06 f9 bd 17 71 94 3f 54 ce 3a be 7f 0c 39 bf
       -0.121593766 1.1597012 -0.1824277 -0.7228469
0000d0 16 a0 12 3e a2 30 f9 3e 73 7d 04 3f d4 5c 69 3e
       0.1431888 0.48669916 0.5175392 0.22789317
0000e0 50 59 7e 3f 37 39 c7 3e b5 05 b7 be a4 8e 0b 3e
       0.9935503 0.3891084 -0.35746542 0.13628632
0000f0 ac 09 80 3b de 01 a2 be 4b 06 02 3e ea 71 e4 3d
       0.003907403 -0.3164205 0.12697713 0.1115454

block1.2.bn1_1.weight f4 [4]
000000 e8 2f 46 3f 69 33 45 3b 7d c4 86 3f 29 1d 14 3f
       0.7741685 0.0030090457 1.0528713 0.57856995

block1.2.bn1_1.bias f4 [4]
000000 7f 08 f0 3f 1f c6 bc bc 7b 9f ec 3f 6b 41 9d 3f
       1.8752593 -0.02304369 1.848617 1.2285589

block1.2.bn1_1.running_mean f4 [4]
000000 61 62 6a 40 2d df 06 3e 74 34 8c 40 79 1a 84 3f
       3.6622546 0.13171072 4.381403 1.0320579

block1.2.bn1_1.running_var f4 [4]
000000 91 00 3d 40 64 82 e3 3b 4c 0a c3 40 91 ec ba 3f
       2.9531596 0.006943034 6.095007 1.4603444

block1.2.conv2_1.weight f4 [8, 16, 1, 1]
000000 c3 0b b0 bb b8 91 1d b9 22 66 91 bc 4e f2 6f bc
       -0.005372496 -0.00015026971 -0.017748896 -0.014645172
000010 4d 65 57 3d d4 50 2e 3d bb 29 b8 bc bd 1f 9b bc
       0.052586842 0.042557552 -0.022480836 -0.018936032
000020 0d 00 3b bd d9 9c 6a 3d f4 5f 8b 3d d8 4d 3e 3d
       -0.045654345 0.057278488 0.06805411 0.046460956
000030 81 ad 2f 3d f4 ea 44 3d f3 9a 92 3c db c3 15 bc
       0.042890076 0.04807563 0.017896151 -0.009140934
000040 ed 9e b2 3d c1 9f 37 be 97 e1 04 3e 8a 9a a1 3f
       0.08721719 -0.17932035 0.1297668 1.2625287
000050 80 fd 86 3d 4d fc 66 be b9 97 2b bd 6d 74 d2 3c
       0.0659132 -0.22557183 -0.04189274 0.025690282
000060 32 8d 24 3f 32 22 14 be 35 0b 40 be 29 83 28 3e
       0.64277947 -0.1446617 -0.18754275 0.16456284
000070 54 8c 39 3e a6 09 87 3d ec 0b 4a be 82 83 79 be
       0.18119937 0.06593637 -0.1973111 -0.24366572
000080 1f f4 0a bf 62 86 c1 3d 4e 58 9a 3e 5b 69 c7 be
       -0.5427875 0.094494596 0.30145496 -0.38947567
000090 56 21 e6 bd a0 2e 26 3e f1 2a 95 3e 15 ad c4 be
       -0.11236827 0.16228724 0.29134324 -0.384133
0000a0 6c 26 33 3e f2 8f 39 be 2b 59 6e 3e a0 12 7e bd
       0.17495126 -0.18121317 0.23276202 -0.06202948
0000b0 bf 69 7c 3d 83 b9 2a 3c a6 e1 03 bf ac 29 0f 3e
       0.061624285 0.010420206 -0.5151619 0.1398074
0000c0 30 14 ab 3e d1 33 09 bb 9b 4d 9a 3e cb ef 92 bf
       0.3341384 -0.0020935426 0.30137333 -1.1479429
0000d0 e8 57 02 3e 7d 36 62 be ba 1f 70 3e 92 9f 67 bc
       0.12728846 -0.22091098 0.23449603 -0.014137166
0000e0 b5 f4 c2 3d a1 7b 24 bd 00 ea 1c 3e e5 ca 01 be
       0.095193304 -0.040156964 0.15323639 -0.12675054
0000f0 ce 5d 2a be ec ee 06 bf b7 18 19 bf 3f c8 1a 3e
       -0.16637346 -0.52708316 -0.59803337 0.1511545
000100 29 45 e8 be 6f 4b 7b be e6 f4 8e 3d bb 97 01 be
       -0.45365265 -0.24540494 0.069803044 -0.12655537
000110 0f 5b 61 3e 9d 48 91 3d 70 55 8c be 6e 49 0d 3f
       0.22007392 0.07093928 -0.27408934 0.5519017
000120 e7 de 99 be 22 32 b3 be f8 d4 02 be 3e fa 25 3e
       -0.30052873 -0.34999186 -0.12776554 0.16208741
000130 dd b9 4c 3e 85 b5 39 be f0 02 36 be 42 a5 0b bf
       0.19992776 -0.1813565 -0.17774558 -0.5454904
000140 82 9e e0 bc 14 2c 25 bd 02 8b 12 3d a4 70 09 3d
       -0.027419332 -0.04032524 0.0357771 0.033554688
000150 3f 50 af 3d 41 1b 7a 3d 0c 60 0a 3c af 1a 77 bd
       0.085602276 0.061061148 0.008445751 -0.06032818
000160 c6 8d 68 bc 9a 85 24 3c e6 75 d1 3c 3e c3 91 bc
       -0.014193958 0.010041619 0.025568914 -0.017793294
000170 7a 0e da 3c d1 8e 17 bd ed 6e 4e 3d f4 5b d5 bc
       0.026618231 -0.037001435 0.050398756 -0.026044823
000180 87 92 63 bf c3 53 0d be 9e 72 b8 3e f7 53 7e be
       -0.8889546 -0.13801484 0.36024946 -0.24836718
000190 69 13 43 3f 12 84 d2 be f6 0d 87 3d 4b a6 d3 bc
       0.7620149 -0.41116387 0.0659446 -0.02583613
0001a0 43 65 e1 3c b9 2e de be 25 99 4a be bf 6b b2 3d
       0.027514106 -0.43395022 -0.19784983 0.08711957
0001b0 af 86 c7 be b9 4c 60 3e 83 3a 82 be 28 34 f9 3d
       -0.38969943 0.21904267 -0.25435266 0.12168151
0001c0 e0 40 95 bd f2 9a 1e 3d d3 86 99 bc e2 f4 87 3c
       -0.072877645 0.038721986 -0.018741047 0.016596261
0001d0 d7 74 e4 3c 5a c2 3b 3d 8f dc af 3b a4 d7 14 3d
       0.027887745 0.045839645 0.005366869 0.036338463
0001e0 8c 10 de bc 18 0f 7e 3c a7 d9 a1 3d 03 89 48 bd
       -0.0271075 0.015506528 0.07902842 -0.04895879
0001f0 ba 83 12 3d 88 28 8d 3d a5 7e 33 bc 63 8f 60 3d
       0.035770155 0.06892496 -0.010955487 0.054824244

block1.2.bn2_1.weight f4 [8]
000000 ca 40 6e 3b ec a0 24 3f f7 68 45 3f ef 0e f7 3e
       0.0036354535 0.6430805 0.7711329 0.4825358
000010 d1 03 04 3f 48 2c fe bb c2 d5 f6 3e 25 b0 3b 3c
       0.51568323 -0.0077567436 0.4820996 0.01145557

block1.2.bn2_1.bias f4 [8]
000000 29 5d 37 bd da 52 19 3f d8 cb 27 be 93 96 8b 3f
       -0.04476658 0.59892046 -0.16386354 1.0905327
000010 de 21 ec 3d 4c 69 bc bd 35 6c 68 3f d4 ff 95 bd
       0.11529897 -0.09199771 0.9079011 -0.07324186

block1.2.bn2_1.running_mean f4 [8]
000000 cf f7 9c 3d 01 f9 01 40 7c 7c aa bf e4 95 3f bf
       0.07664453 2.030823 -1.331924 -0.7483809
000010 c3 fd c0 bf 48 64 c4 3d cb 74 8b bf 37 e1 2a 3d
       -1.5077442 0.0958944 -1.0895017 0.041718688

block1.2.bn2_1.running_var f4 [8]
000000 b3 3d 36 3b 6a 2a 3a 3f 0e 1e 6b 3f 1e fc f7 3e
       0.0027807772 0.7272097 0.91842735 0.48434538
000010 2c 36 87 3e ca 70 3f 3b ac bd 52 3f 3f 68 25 3c
       0.26408517 0.0029211515 0.82320666 0.010095655
