assignment1/results/trial_2/inception/ckpts/4000.pt (torch, 689115 bytes, 467 tensors)

block1.0.conv1_1.weight f4 [4, 16, 1, 1]
000000 d9 cc 94 be b1 24 da 3f 3a 43 bd 3e 6a b0 5e 3e
       -0.29062536 1.7042447 0.36965352 0.21746984
000010 97 7a 80 be 6e f1 86 3e a1 04 86 3f 7b fc a0 3e
       -0.2509353 0.2635607 1.0470163 0.31442627
000020 a7 37 bb 3e b7 c6 9e be e9 e6 bc be d9 93 b1 be
       0.36565897 -0.31010982 -0.3689492 -0.3468311
000030 ff d1 4b bf 8d 29 e1 3e 7b 8b 5a 3f 79 95 77 bf
       -0.79617304 0.43977013 0.8536908 -0.9671245
000040 c7 d1 f4 bf eb 8e 75 bf b1 45 8c 3e b5 f0 48 3f
       -1.9126519 -0.959212 0.2739692 0.7849229
000050 8d d0 a8 be 94 37 ab be f3 99 4f 3d 71 5d 1c 3f
       -0.32971612 -0.3344084 0.050683927 0.6108008
000060 e5 e5 c4 be ec e6 b4 be 26 ce 28 bf 07 d0 0d be
       -0.38456646 -0.3533243 -0.6593956 -0.13848887
000070 24 c9 55 bf 37 56 be bd 2e 0d d3 3f 5d 8f 50 bf
       -0.8351004 -0.09293788 1.6488397 -0.81468755
000080 1d cc ef 3e e0 df b3 3e df 2f a1 bf 2e 1e e8 be
       0.46835414 0.3513174 -1.2592734 -0.45335525
000090 a7 cd 03 3e 43 b6 65 3f 6b 69 9e 3f c1 7e dc bd
       0.12871419 0.89731234 1.2375921 -0.10766364
0000a0 09 6b 63 3f 16 d6 05 3f 51 55 93 3e be 4c 52 3e
       0.888352 0.52279794 0.2877603 0.20537087
0000b0 d6 5c 34 3f bb cb 07 bf 64 a8 ea be 00 66 b7 bd
       0.70454156 -0.53045243 -0.45831597 -0.08955002
0000c0 68 52 fa 3e 21 90 eb 3d 65 2c 59 bd b0 09 9a 3f
       0.48890996 0.115021 -0.053020854 1.2034206
0000d0 db 18 e4 be 5e c2 0e 40 02 1b 84 bd d9 32 a5 bf
       -0.44550213 2.2306132 -0.06450464 -1.2906142
0000e0 11 7f c7 be de 19 a4 3e 46 46 05 bf 58 b1 c9 3e
       -0.3896413 0.32050985 -0.52060354 0.39393115
0000f0 00 f5 ff 3f 4d 79 c2 3f 16 4b 0c c0 c4 55 44 3e
       1.9996643 1.5193268 -2.192083 0.19173342

block1.0.bn1_1.weight f4 [4]
000000 94 50 b6 3f 07 1a 03 40 ad 0c b7 3f 26 2f 4e 3f
       1.424334 2.0484636 1.4300743 0.8054069

block1.0.bn1_1.bias f4 [4]
000000 b8 c0 4d 3f d3 ab 42 be 4f 8e ba 3f f5 b8 d7 3f
       0.8037219 -0.19010858 1.4574679 1.685332

block1.0.bn1_1.running_mean f4 [4]
000000 d7 8a c8 40 67 7b 8d c0 14 31 35 40 59 f1 0c 41
       6.266948 -4.421314 2.8311205 8.808923

block1.0.bn1_1.running_var f4 [4]
000000 b4 9b 6c 41 d9 16 05 42 65 3d c8 41 b2 b2 96 41
       14.788013 33.272312 25.029978 18.837254

block1.0.conv2_1.weight f4 [8, 16, 1, 1]
000000 fd 74 7b bf d0 05 0b bf 39 8e 04 40 00 17 28 3f
       -0.98225385 -0.54305744 2.0711806 0.65660095
000010 b8 ca c6 3f 7c c2 25 be 23 49 aa be 9a 25 e4 bd
       1.5530615 -0.16187471 -0.33258924 -0.111399844
000020 8b e4 a8 3e 6d 30 b6 be ed 9c da 3c ea 33 b5 be
       0.32986864 -0.3558382 0.026686156 -0.3539117
000030 0b c6 92 be ee f5 d9 3e 3f 83 f6 3e ba a5 20 bf
       -0.2866672 0.42570442 0.48147008 -0.6275288
000040 74 a4 a6 3c fc 10 9c bf e5 a1 c6 3f c5 cc dc bf
       0.02034209 -1.2192683 1.5518156 -1.7249991
000050 3e 53 c3 bd 21 26 2e bf d3 c0 25 bf 0c 93 6e bf
       -0.095373616 -0.6802693 -0.6474735 -0.93193126
000060 26 c8 40 bf bc 19 c3 bd 16 07 1d bf b0 09 87 be
       -0.753054 -0.09526393 -0.6133894 -0.26374578
000070 3e 0f 51 bf ec ba 96 3f c8 91 c7 be 6a 3b d4 bd
       -0.8166388 1.1775794 -0.3897841 -0.10362895
000080 1a 8c 13 bf f5 56 1e be fe 37 97 bf ec 56 9d bf
       -0.57635653 -0.15462859 -1.1813962 -1.2292151
000090 3c ba e0 be 1a 0e e0 bd 45 53 8b 3e 86 fb b7 3e
       -0.43892086 -0.1094019 0.27211967 0.35934085
0000a0 6b 67 31 bf 2b d7 00 be 4d 74 8e be 49 af 8d bc
       -0.6929843 -0.1258208 -0.27823105 -0.017295497
0000b0 dc d6 a1 be 95 8b 16 3e a5 fc 58 3f f6 cf c6 bf
       -0.31609237 0.14701684 0.84760505 -1.5532215
0000c0 96 f3 56 bf 97 b5 5b bf 40 97 d8 3e f0 2a 96 bf
       -0.8396543 -0.8582396 0.42302895 -1.1731853
0000d0 b1 d7 39 3f 5b a8 b9 bf 28 5a fa 3f b5 55 27 3f
       0.72594744 -1.4504503 1.9558764 0.65365154
0000e0 85 95 c3 3f fa 73 aa be 87 b2 fe bd 75 64 43 be
       1.5280005 -0.33291608 -0.12436395 -0.1908129
0000f0 73 3b de be 9d d4 0c c0 4b 08 85 b9 72 04 9b 3e
       -0.4340473 -2.200477 -0.00025373916 0.3027683
000100 3f a7 0d 3f 15 68 05 3f 61 f4 6f 3f eb ee 91 3f
       0.5533332 0.5211194 0.9373227 1.1401037
000110 1a 50 5a 3e c4 e5 58 3f 2a e4 83 3e a8 c1 22 bf
       0.21319619 0.84725595 0.25760013 -0.63576746
000120 cd b0 92 3e 4d cb 10 be 7c ba 06 3e c4 a4 0f 3f
       0.28650513 -0.14140053 0.13157076 0.5611079
000130 5b f6 b2 3e 28 bb ce 3e bd d6 27 bf b3 8b 81 3f
       0.3495358 0.40377164 -0.6556204 1.0120758
000140 08 cd 38 bf 23 d6 ab bf 26 e9 73 3f f8 4b 2b 3e
       -0.7218785 -1.3424724 0.9527763 0.16728199
000150 62 73 1b 3f d0 ce bd be 3e b8 86 bf f2 d2 79 3f
       0.60722935 -0.37071848 -1.0524976 0.975875
000160 5c ff 8a bf e5 9d 22 be a0 25 2a be be 04 ff be
       -1.085918 -0.15880544 -0.16615915 -0.49808306
000170 05 ea d2 bd 82 e2 58 bf 01 f5 9d 3f b2 33 4b 3b
       -0.10298542 -0.84720623 1.2340394 0.0031006155
000180 21 26 e1 3e 5e fa 81 bf 69 97 7f bf b3 93 6e be
       0.43974403 -1.0154531 -0.9984041 -0.2329853
000190 61 1d 83 3e 83 6d aa bd 00 72 3d bd 34 1e ac be
       0.25608352 -0.08321669 -0.046251297 -0.33616793
0001a0 03 4c dc 3d 06 ba b4 be ed eb f9 3e 44 59 f4 3e
       0.107566856 -0.35298175 0.4881281 0.47724354
0001b0 fa ef 12 3f 06 e4 f7 3e c1 aa a8 bd 4b 1b 29 bf
       0.57397425 0.48416156 -0.08235694 -0.6605727
0001c0 bf 8f 27 3e 33 99 8b bf f8 90 56 3e 0e 21 a9 3f
       0.16363429 -1.0906128 0.20953739 1.3213212
0001d0 b1 24 38 3f cd e5 83 be 1d 7b 28 bf 8a 8c 49 3f
       0.71930987 -0.25761262 -0.65812856 0.7873007
0001e0 02 f9 8a 3e d0 84 23 3e a0 e8 3f be 4c 14 54 3f
       0.27143103 0.15968633 -0.18741083 0.8284347
0001f0 a3 19 f1 3e 16 27 28 bf 92 83 d2 3e 1a 3b 41 3e
       0.47089872 -0.6568464 0.41116005 0.18870202

block1.0.bn2_1.weight f4 [8]
000000 22 ba 9c 3f 5f 35 63 3f 4e 83 db 3e 68 69 de 3f
       1.2244303 0.8875331 0.42873615 1.7375917
000010 d6 33 59 3e 35 2b 93 3e 4e 57 60 3f 7f 57 a3 3f
       0.2121118 0.28743902 0.87633216 1.2761077

block1.0.bn2_1.bias f4 [8]
000000 46 af 67 3f 47 d7 c7 3f 58 3c 47 3f f1 26 0a 3f
       0.9050182 1.5612572 0.7782645 0.5396567
000010 9b b6 92 bf df d2 45 3f f9 60 33 bf 2d 3a a4 3f
       -1.1461977 0.7727489 -0.70069844 1.2830254

block1.0.bn2_1.running_mean f4 [8]
000000 c5 d9 35 40 4c c8 90 c0 c2 47 e3 c0 6e 60 91 c0
       2.8414166 -4.5244503 -7.1025095 -4.543021
000010 52 4a 14 41 cc 2c d4 c0 76 95 d6 bf 5d 2c e7 3e
       9.268145 -6.6304684 -1.6764362 0.45151034

block1.0.bn2_1.running_var f4 [8]
000000 87 45 2a 41 30 a9 91 41 33 34 d7 40 81 59 95 41
       10.641974 18.207611 6.725122 18.668703
000010 da 01 ff 40 89 cc 1c 42 2c d0 36 40 ae 1a 53 41
       7.968976 39.19974 2.8564558 13.194014

block1.0.conv2_2.weight f4 [8, 8, 3, 3]
000000 70 c1 df be 87 4b 61 bf ad d7 f5 be 60 5c c1 be
       -0.4370227 -0.8800587 -0.4801611 -0.3776579
000010 e5 ff 11 bf 16 4b 10 bf 18 28 3c 3f dd 9b 07 3f
       -0.5703109 -0.5636457 0.7349868 0.52972203
000020 e5 54 79 3d e1 03 47 3c 99 bd 13 bf 00 fc b7 be
       0.060871977 0.012146921 -0.5771118 -0.35934448
000030 50 56 f2 bd e8 fc a1 be 21 9a a3 be 66 70 70 bd
       -0.11832869 -0.31638265 -0.3195353 -0.05870094
000040 56 ed bf 3d 7d 77 26 be be 77 10 3e 08 03 80 bd
       0.0937144 -0.16256519 0.14108178 -0.06250578
000050 98 3b 0a 3f 42 ef ac bd 02 08 af bc 4a b6 a3 3e
       0.5399718 -0.08444072 -0.021366123 0.31975013
000060 3c 3a 59 bd 2a 5b 5f be 3f 88 7f bc d9 00 e6 be
       -0.053034052 -0.2181212 -0.015596448 -0.44922522
000070 76 fd ef be ec 5e 1f bf 4d de 0e be 90 6e 61 be
       -0.46873063 -0.62254214 -0.13951989 -0.22014832
000080 cb 25 a4 be 94 0c 24 3d bb d1 82 3d a4 d9 b6 be
       -0.32060084 0.040051058 0.06387659 -0.35712922
000090 84 98 1a 3f 39 da 46 3f 88 75 e4 3e 2c 7b 0e be
       0.6038897 0.7767673 0.4462092 -0.13914174
0000a0 42 77 27 3e 9e 32 93 3e 84 f3 2c be cb 93 87 3c
       0.16354087 0.28749555 -0.16889769 0.016549965
0000b0 6f a2 af 3e d3 ab 2e 3f 60 c5 bb 3e de e5 00 3e
       0.34303614 0.6823093 0.36674023 0.12587687
0000c0 6e ac 8f 3e 38 9b ef 3d 65 de 23 3e a6 9a bb 3d
       0.2806124 0.116995275 0.16002806 0.09160356
0000d0 6d f2 b1 be 5d 36 be be e5 87 01 3f e7 51 1d 3f
       -0.3475527 -0.3715085 0.50597984 0.614531
0000e0 55 d9 7c 3e c3 8b 62 3e 60 06 3d 3e f4 e1 86 bd
       0.2469228 0.22123627 0.18459463 -0.06586066
0000f0 81 16 19 be ec 32 3d 3e 58 bd 15 be e9 57 21 3f
       -0.14949991 0.18476456 -0.1462301 0.63024765
000100 c0 47 9b 3f 85 26 ee 3d c8 cb 5f 3d 36 3c 26 3f
       1.2131271 0.11628441 0.0546377 0.64935625
000110 5d 34 4f 3d 2a 26 80 bf 33 5c d4 be 57 3f 01 bf
       0.050587047 -1.0011647 -0.41476592 -0.50487274
000120 77 e6 d0 be de 11 5b be 11 db 88 3e 9a 17 8b bf
       -0.4080083 -0.21393535 0.26729634 -1.0866578
000130 58 0c 2e be 71 bc 8f be e4 dc 86 3e 05 ab 82 3e
       -0.16996896 -0.28073457 0.263404 0.25521103
000140 e2 14 73 be c5 b5 7d be d6 f0 e8 bd 17 5d a2 be
       -0.23738435 -0.24776371 -0.11374061 -0.31711647
000150 a7 43 9a 3e 53 7a 74 be 22 85 d3 be b1 38 ac be
       0.3012974 -0.23874788 -0.4131251 -0.33637002
000160 2e f6 37 bf 12 b2 e5 be aa 0f a2 3d fc 61 22 3e
       -0.71860015 -0.4486242 0.07913144 0.1585769
000170 5c 88 1c 3e 43 e9 11 3f b0 64 7f 3e 98 c9 ad bd
       0.15286392 0.56996554 0.24940753 -0.084857166
000180 ed 01 d7 3e 66 80 d6 3e 60 97 44 3f a4 cd 7b be
       0.41993657 0.41894835 0.7679348 -0.24590164
000190 b5 07 e2 be 95 d8 22 bf 4d de 4c 3f 76 57 a0 bd
       -0.44146505 -0.6361173 0.80026704 -0.07829182
0001a0 3d 2c 30 3e c1 b9 fe be 6c 79 af bf 37 51 51 bf
       0.17204376 -0.49751094 -1.370893 -0.8176455
0001b0 75 fd 97 3e e9 f3 92 3e dd 0f ff bd 3f 86 1f bf
       0.2968556 0.28701714 -0.124541976 -0.6231422
0001c0 81 56 ee be 0e 93 f8 be e3 dc 90 be 5f 87 3d be
       -0.46550372 -0.48549694 -0.28293523 -0.18508671
0001d0 34 ca 1e be 56 f3 ab 3e fb 4b 6c be 53 db 31 3e
       -0.15506822 0.33584088 -0.23075859 0.17368822
0001e0 c5 ca 70 be 21 38 0c bf 8a ba f3 be a2 84 2b bd
       -0.2351485 -0.54773146 -0.47603256 -0.041874535
0001f0 12 cc 08 bf 63 17 a8 be cd c4 a0 be 9b 61 19 bf
       -0.53436387 -0.32830343 -0.31400147 -0.5991456
000200 19 b8 a4 be 9b c3 85 3d 1b bb da be bd 7d 79 be
       -0.32171705 0.065314494 -0.42720875 -0.24364372
000210 09 a4 af be 23 62 2c bf 02 0c e6 be 5c fd f2 3d
       -0.34304836 -0.67337245 -0.44931036 0.11864731
000220 e6 48 b0 be 46 08 83 3e 0e 50 35 bf cf 5e 8b bf
       -0.34430617 0.2559225 -0.7082528 -1.0888308
000230 ec 69 18 bf 12 55 4f 3e a0 db 55 bd 23 66 38 3e
       -0.59536624 0.20247295 -0.052211404 0.18007712
000240 46 19 67 3e 77 43 84 bf 61 6d f2 bd a3 11 b4 bd
       0.22568235 -1.0333089 -0.118372686 -0.087924264
000250 12 6b 49 bf 72 73 00 be 2e 4c a4 be cb 74 5e be
       -0.78679 -0.12544039 -0.3208937 -0.2172424
000260 9d 54 5c 3f f1 28 21 bf fb 30 93 bf 0c cd d3 be
       0.8606661 -0.62953097 -1.1499323 -0.41367376
000270 e7 5a b7 bf 45 b8 c0 bf 38 0b cd bf be 16 18 bf
       -1.4324616 -1.5056235 -1.6019049 -0.594097
000280 be 88 90 bf 5b d9 a8 bf 02 64 0c bf a7 a8 36 3d
       -1.129173 -1.3191332 -0.548401 0.044594433
000290 42 2f 48 be 74 95 8b be 04 48 05 bf 66 02 aa be
       -0.19549277 -0.2726246 -0.5206301 -0.33204955
0002a0 85 58 58 bf 81 02 77 bf 81 cb 65 bf 0f 42 47 3f
       -0.8451007 -0.96488196 -0.8976365 0.7783517
0002b0 0e 66 1e 3e fa 22 95 3e e8 3a 05 bf f8 84 12 bf
       0.15468618 0.29128247 -0.5204301 -0.57234144
0002c0 5b e1 3c bf df a9 5f 3f 77 93 c0 3e 2d af f3 3d
       -0.73781365 0.8736858 0.37612507 0.118986465
0002d0 92 65 96 3e 89 27 7e be 7e 94 9d 3d 9e ad 6a bd
       0.29374367 -0.24819769 0.07694338 -0.05729448
0002e0 27 fa 1e be 05 dc cb bd 89 72 83 3e d7 00 09 3e
       -0.15525113 -0.09954075 0.2567332 0.13379227
0002f0 15 82 99 3e d4 08 5f bf e9 e6 9b bf cd 6f 24 bf
       0.29982057 -0.87122846 -1.2179843 -0.64233094
000300 40 3a 92 be 90 0d 8b be 99 c1 5c bf 4a ea f2 be
       -0.28560066 -0.27158785 -0.86232907 -0.47444373
000310 34 36 98 bf 02 ea 9c bf 0a 9a 6b 3f 2c 41 5b 3f
       -1.1891541 -1.2258914 0.9203192 0.8564632
000320 57 e9 43 3e d0 cf 06 3e bd 26 01 3f 40 65 31 be
       0.19131981 0.13165212 0.50449735 -0.1732378
000330 8a 4f 6a 3f 54 93 7d 3f 7f 62 22 3f 29 dc d4 be
       0.91527617 0.9905293 0.63431543 -0.4157422
000340 41 39 80 3d 6b de fe be 1b 00 ee bd d8 b7 b4 3e
       0.0626092 -0.49779066 -0.11621114 0.35296512
000350 46 8e ae be ef 4b 36 bf 0a bb e2 be 95 83 d8 be
       -0.3409292 -0.71209615 -0.44283324 -0.4228789
000360 b4 d1 92 bf 73 e8 40 3e fd 75 bd 3f 4e ef 95 bf
       -1.1470246 0.18838672 1.4801632 -1.1713655
000370 20 f0 d9 bf f7 80 bd 3f 66 1a a9 3e 99 3a a5 be
       -1.7026405 1.4804982 0.33027953 -0.3227127
000380 1a 5e 95 3e 1d 50 f4 3e 77 02 00 3f 9e 7a 80 3f
       0.29173356 0.47717372 0.5000376 1.003742
000390 d8 52 3d be 00 e9 8a 3d d9 4c 08 3f d9 4f 3a 3f
       -0.18488634 0.067827225 0.5324226 0.7277809
0003a0 d3 48 d5 3e a4 b7 74 3f 5e 18 fc 3e 86 53 a8 3f
       0.41657123 0.95592713 0.4923734 1.3150489
0003b0 b3 67 8a bf 0e 5d 67 3f 0f 55 96 3f b2 d8 e5 be
       -1.0812896 0.90376365 1.1744708 -0.44891888
0003c0 70 9a d1 3e e2 5e 64 3f e1 62 29 bf 7a 23 ba be
       0.4093814 0.8920728 -0.661665 -0.3635519
0003d0 98 d7 bc be df ef b1 ba cb 9e 4c bf 96 ff 77 bf
       -0.36883235 -0.0013575515 -0.799298 -0.9687437
0003e0 15 6c 4e bf 31 6e 8a be 32 7a 87 bf ed db f6 be
       -0.8063367 -0.27037194 -1.0584166 -0.48214665
0003f0 39 c0 1a 3e 1e c1 01 3f b9 9b 7c bd d5 7a c2 be
       0.1511239 0.506853 -0.061671946 -0.37984338

block1.0.bn2_2.weight f4 [8]
000000 94 fb 50 3f 25 6d 40 bf 90 73 2a 3f d2 9e 86 bf
       0.8163388 -0.7516654 0.66582584 -1.0517218
000010 36 bb 24 3e 48 06 92 3f 4f b9 aa 3f 82 d1 60 3f
       0.1608704 1.1408167 1.3337802 0.87819684

block1.0.bn2_2.bias f4 [8]
000000 ee 15 98 3c 55 a8 f7 3e 1d 5c 62 3f 27 45 ff 3e
       0.018565144 0.48370615 0.88421804 0.49857447
000010 ae 3c 31 3f 5f cc b1 3f 44 07 af 3e 57 d9 a4 3f
       0.69233215 1.3890494 0.3418523 1.2878827

block1.0.bn2_2.running_mean f4 [8]
000000 a6 04 91 c0 1d 3b 27 c1 7b 24 d8 c1 ad df 50 be
       -4.5318174 -10.451932 -27.017813 -0.20397826
000010 10 e0 ad 40 07 4d d6 3e 9d ad 91 c1 e4 8b 13 41
       5.4336014 0.41855642 -18.209772 9.221653

block1.0.bn2_2.running_var f4 [8]
000000 0b 44 95 41 1a 70 db 41 e5 e8 cc 42 e6 4d 71 42
       18.658224 27.429737 102.45487 60.326073
000010 69 1f df 41 b2 c4 20 41 77 bc 52 42 e1 d4 64 42
       27.890337 10.048021 52.684048 57.20789

block1.0.conv3_1.weight f4 [2, 16, 1, 1]
000000 dc 71 21 3f 22 d8 90 40 d4 aa a7 3f 32 fa e7 3f
       0.6306436 4.5263834 1.3099008 1.8123229
000010 04 24 8f 3e 17 da e0 3f a4 1a 1b 3e 5c ed cc 3f
       0.27957165 1.7566556 0.15146881 1.6009936
000020 dc f8 a0 3d de d5 1e 3f aa bc 1b 3d 6c 7d d4 3e
       0.07859966 0.62045085 0.03802172 0.4150194
000030 93 f3 16 40 40 77 16 bf d1 b7 50 be 2f 6e 5d 40
       2.3586166 -0.5877571 -0.2038262 3.45985
000040 d3 0d aa bc d2 28 f1 3d bb dd 7e be b5 34 bd bc
       -0.020758545 0.11775364 -0.24889271 -0.023096422
000050 1b 96 5d 3e a0 be c3 3f 49 c2 38 3f 36 9c 66 3e
       0.21639292 1.5292549 0.72171456 0.22520527
000060 0f f8 75 3f d2 fd a8 3e c4 2f 3c bc 93 ee 0c bd
       0.9608163 0.3300615 -0.011485998 -0.03440721
000070 16 a1 34 3f e2 ef 89 3f be fe 29 3f f5 59 39 bf
       0.705583 1.0776331 0.6640433 -0.7240289

block1.0.bn3_1.weight f4 [2]
000000 32 54 75 3f c3 5f 5d 3f
       0.95831597 0.86474246

block1.0.bn3_1.bias f4 [2]
000000 be d7 48 bf 22 27 80 3f
       -0.78454196 1.0011942

block1.0.bn3_1.running_mean f4 [2]
000000 68 ec 86 41 2f 78 f6 40
       16.865433 7.702171

block1.0.bn3_1.running_var f4 [2]
000000 17 f2 34 42 a3 9a a6 41
       45.236416 20.825506

block1.0.conv3_2.weight f4 [2, 2, 5, 5]
000000 ab 2a d4 3e de b3 10 3f d6 9f 9b 3e 95 08 1e bf
       0.41438803 0.56524456 0.30395383 -0.61731845
000010 77 75 9d bd a6 c2 61 3e 28 f8 98 bd 5a 15 58 bf
       -0.0768842 0.22046909 -0.07469207 -0.8440758
000020 8f e2 06 bf cb 8f d4 3c 21 4b d4 3f ee 31 e5 3e
       -0.5268945 0.025947472 1.6585428 0.44764656
000030 6a ea 54 be 6a cb 9b 3f eb f5 05 3f 4c 78 3c 3f
       -0.20792547 1.2171452 0.52328366 0.7362106
000040 5a 74 f2 3e a5 ac 28 3e 70 17 c8 3e 14 ff d0 3e
       0.47354394 0.16472109 0.3908038 0.4081961
000050 82 8c 81 3e cb 0e 00 be 5e 27 8f be 18 ea 33 3f
       0.2530251 -0.12505643 -0.27959722 0.70279074
000060 f2 7f fa be f7 82 29 3f 69 cc 28 3f 35 9e 97 3e
       -0.4892574 0.6621546 0.65936905 0.2961289
000070 02 03 0e 3d f6 03 95 3f 3e ac 09 be d8 53 06 be
       0.034670837 1.1641834 -0.13444611 -0.13117921
000080 05 e7 30 bf be fa 83 bf d2 0e 22 bd a0 c2 87 bf
       -0.6910251 -1.0310895 -0.039564915 -1.060627
000090 b7 72 e8 be ef 90 96 be 50 cd 08 bf 3f c0 6b bf
       -0.4540002 -0.2940745 -0.5343828 -0.9209022
0000a0 4d 0d ad 3e 4d f2 b5 bd 27 94 94 bd 0f 20 6d bc
       0.3379921 -0.08884106 -0.0725482 -0.014472975
0000b0 74 aa 6c 3e a4 69 ac 3d 8f e3 3d bc 6c 30 c9 be
       0.23111898 0.08418587 -0.011589899 -0.39294755
0000c0 2d ac bf be 97 15 51 3f b2 82 05 bf f3 35 b3 be
       -0.37436047 0.8167357 -0.5215255 -0.35002097
0000d0 42 29 16 bf 80 0a dc 3d 43 82 3e 3e 96 b2 25 bd
       -0.58656704 0.1074419 0.18604378 -0.040453516
0000e0 a6 c4 09 be 0a 40 36 3e 74 7e 8f 3f d0 15 93 3d
       -0.13453922 0.17797866 1.1210465 0.07181895
0000f0 33 6e 86 be 55 3b 8e bd b6 0e 93 bd c4 76 05 3f
       -0.2625595 -0.069449104 -0.0718054 0.52134347
000100 58 06 d2 bd 82 d4 0f be 3e 46 9d be 5e 7a 35 bd
       -0.10255116 -0.14045909 -0.30717653 -0.04430615
000110 f2 5e c3 be 15 e2 e6 be 40 73 df bd 0d ab 3a 3e
       -0.38158375 -0.45094362 -0.10910654 0.18229313
000120 e9 84 93 be d0 d0 22 3e d2 99 ed 3e 9c 55 a7 3f
       -0.2881234 0.15899968 0.46406418 1.3073001
000130 86 ab 16 3f 8b 8f e1 3e 39 88 62 3f 6c e6 41 3f
       0.58855474 0.44054827 0.8848911 0.7574222
000140 c1 fd b2 3f d0 6f 94 3f 70 db 85 3f 42 d0 7d 3f
       1.398369 1.1596622 1.0457592 0.991459
000150 4b ea a0 3f 9c 0d 90 3f 10 29 85 3f 48 b5 56 be
       1.25715 1.1254153 1.0403156 -0.20967591
000160 ca 45 f4 3c 7e d2 42 be 2d 78 70 3f 53 ca 1f 3f
       0.029818434 -0.19025609 0.93933374 0.624181
000170 aa 88 32 3e 0d ce ed 3d 98 8a c9 3e 8f 49 27 3f
       0.17434946 0.11611567 0.3936355 0.65346617
000180 44 5d f0 3e 42 7c 0d 3f 6b b9 2d 3e bf 8a 1e be
       0.46946156 0.5526773 0.16965263 -0.15482615

block1.0.bn3_2.weight f4 [2]
000000 af 58 27 3f b0 25 15 3f
       0.65369695 0.5826063

block1.0.bn3_2.bias f4 [2]
000000 d6 bb 2b 3f 64 cd 33 3f
       0.6708349 0.70235276

block1.0.bn3_2.running_mean f4 [2]
000000 58 c3 e1 bf 12 c1 4b 41
       -1.7637739 12.734636

block1.0.bn3_2.running_var f4 [2]
000000 0e ee 10 41 42 7f 65 42
       9.058119 57.374275

block1.0.conv4_1.weight f4 [2, 16, 1, 1]
000000 e6 ed 04 bf aa 54 24 bf 92 70 8d 3e 4b 34 10 bf
       -0.51925504 -0.6419169 0.27624947 -0.5632979
000010 a5 11 48 3e a8 ba b7 be ff 39 3a 3e 55 10 e5 3d
       0.19537981 -0.35884595 0.18186186 0.11184756
000020 17 94 2e 3d 7c cc ab 3e 4a 39 72 3e 3e 92 92 be
       0.0426217 0.33554447 0.23654667 -0.286272
000030 b1 a8 04 3d 28 b3 7c be 35 8a e0 be 08 af 2a bb
       0.03238744 -0.24677718 -0.43855444 -0.0026044268
000040 f6 73 0f c0 5c 9c 37 bf a5 8a 78 bf b3 f5 1b bf
       -2.2414527 -0.7172296 -0.97086555 -0.6092178
000050 b2 bf ca be de fd d0 3e f2 be 65 3d 59 3b 09 3f
       -0.39599377 0.40818685 0.056090303 0.5360618
000060 da 1b 8b bf 24 ce f4 be ff 0b d5 be 37 dc 05 bf
       -1.0867875 -0.47813523 -0.41610715 -0.52289146
000070 c5 8e 3a 3d 24 f5 d9 bb bb 22 6e be ba dd 49 3d
       0.045546312 -0.0066515375 -0.23255436 0.04928372

block1.0.bn4_1.weight f4 [2]
000000 c5 db 1a 3e 71 a1 e7 3f
       0.15122898 1.8096143

block1.0.bn4_1.bias f4 [2]
000000 d8 d5 bb be 9d 81 8d 3e
       -0.36686587 0.2763795

block1.0.bn4_1.running_mean f4 [2]
000000 4a 90 ac c0 6f 93 8a c1
       -5.3926134 -17.32199

block1.0.bn4_1.running_var f4 [2]
000000 5b 20 aa 40 4b 5e 73 42
       5.3164496 60.842083

block1.1.conv1_1.weight f4 [4, 16, 1, 1]
000000 10 29 99 bf 38 de 73 3f fc c0 e1 bf b7 0e c5 be
       -1.1965656 0.95260954 -1.7637019 -0.3848779
000010 24 98 2e be 9a a2 40 bf 57 b2 31 3d 4c b6 7f 3f
       -0.17050225 -0.7524811 0.04338297 0.9988754
000020 53 da 7d 3e ad b5 39 3f 72 61 a4 3e c5 7b e4 be
       0.24790315 0.7254284 0.32105595 -0.4462568
000030 c4 16 6a bf 99 1f 72 3f 1c f9 dc bc 29 46 1c be
       -0.9144099 0.94579464 -0.026974253 -0.15261139
000040 9a 9e b7 3d c7 dd 21 3f fc d3 99 be b8 9f 99 3e
       0.08965798 0.6322903 -0.30044544 0.30004668
000050 30 3f 08 3f 64 02 c2 be f1 7d 7f 3d 2f 9b 12 bd
       0.53221416 -0.3789245 0.062375966 -0.035792526
000060 c3 2f 73 bf 41 db 8f 3c e3 f7 8b 3f a8 95 85 bf
       -0.94994754 0.017560603 1.0935024 -1.0436296
000070 8d 4e 46 3f f8 b0 d4 bd 30 8d 53 bf 3d 50 61 bb
       0.7746361 -0.103853166 -0.8263731 -0.00343801
000080 80 67 b5 3f 7e e9 8e 3e 16 28 59 3f e5 b7 7d be
       1.4172211 0.27912515 0.8482679 -0.24777181
000090 5c ab 1b 3e 2f 16 be be 2c 3e 5e 3f a5 52 a4 be
       0.15202087 -0.371263 0.86813617 -0.32094303
0000a0 ab 3a 24 3e dd 87 62 3e 98 65 83 be 19 2c 8f 3e
       0.16038005 0.2212214 -0.25663447 0.2796333
0000b0 bd 4d 5e 3f af 48 ab 3e cc c2 d6 bd 4a 47 1e bd
       0.8683737 0.3345389 -0.10486373 -0.038642205
0000c0 44 1d 88 be 1d 30 a6 bf 3b 23 04 3e 6f dc 89 be
       -0.26584828 -1.2983433 0.12904064 -0.2692599
0000d0 a9 f5 fd be e5 dc 06 bf b9 2d 84 bf 93 79 0a bf
       -0.49601486 -0.5268081 -1.0326453 -0.5409176
0000e0 62 f3 1c 3f a2 1a f3 bf 16 83 3c bf 4c 37 c6 3e
       0.6130887 -1.8992503 -0.7363752 0.38714063
0000f0 c6 a2 30 3f 01 d8 4f 3e c0 b9 00 3f 1a 85 c7 bd
       0.6899837 0.20297243 0.5028343 -0.09742184

block1.1.bn1_1.weight f4 [4]
000000 73 37 c2 3f 4a 26 97 3f 25 80 a7 3f fe eb 82 3f
       1.5173172 1.180856 1.3085982 1.0228269

block1.1.bn1_1.bias f4 [4]
000000 9d b3 0b 40 9c c3 c3 3e c5 4e 8a be dc d9 b6 3f
       2.1828377 0.38235176 -0.2701322 1.4285235

block1.1.bn1_1.running_mean f4 [4]
000000 88 ca 3c c0 bc aa 87 be 5b 3f 8c 40 da 8b 9a c0
       -2.9498615 -0.26497447 4.382734 -4.8295717

block1.1.bn1_1.running_var f4 [4]
000000 12 5a 84 41 b0 1c 81 40 25 db df 40 3f e3 19 41
       16.54398 4.034752 6.995501 9.61798

block1.1.conv2_1.weight f4 [8, 16, 1, 1]
000000 7c d2 9e be 8f 8d 8e bd 8f b8 e7 3e ba c2 34 bd
       -0.31019962 -0.06960594 0.45257995 -0.04413102
000010 1b 42 4e bb c0 ce 5c bf b7 3b 5b 3f 17 5b 83 bf
       -0.0031472507 -0.86252975 0.8563799 -1.0262173
000020 e7 9b d5 be 67 a1 0d 3e 66 4c ed bd 12 2b 8f bf
       -0.41720507 0.13831101 -0.115868375 -1.1185019
000030 7b 0f 25 bf ee b5 c6 3e ae f7 02 bf 24 57 3d bf
       -0.64476746 0.38810676 -0.5115918 -0.7396109
000040 8b 7d d9 39 83 b1 cc 3f 27 82 df be d3 26 80 bf
       0.00041483002 1.5991672 -0.43653986 -1.0011848
000050 dc 8e 3b 3f eb 11 9c be 5b 3d 53 bf 71 68 b5 be
       0.7326486 -0.3048242 -0.82515496 -0.35431245
000060 8a c4 ae 3e cb 2b 25 bf 1f 0b d3 be f2 33 9c 3e
       0.34134322 -0.6451995 -0.41219422 0.3050838
000070 b2 4f 1a 3f 21 c6 38 3f b0 77 44 3e f7 f2 82 3f
       0.60277855 0.7217732 0.19186282 1.0230397
000080 b6 23 61 3e 41 f0 86 bf 1c 4a f8 3e 8d bb 07 be
       0.21986279 -1.054207 0.4849404 -0.13255139
000090 90 4d 63 3f 8c c4 4c bd 20 87 2f bf 93 89 a5 be
       0.88790226 -0.04999213 -0.6856556 -0.32331523
0000a0 98 3a cb 3d b1 3a 01 bf aa a1 9d 3f 3c ef 09 40
       0.09923285 -0.5048018 1.2314961 2.1552267
0000b0 df ff de 3d 73 07 2f 3f c2 51 04 bf 62 a4 a3 3e
       0.10888647 0.6837074 -0.5168725 0.31961352
0000c0 f1 06 53 3f 6f f3 e4 3e 7a eb d4 be c7 6d 96 be
       0.82432467 0.44716975 -0.41585904 -0.29380628
0000d0 03 d3 26 be ec 45 cf 3d d9 7f 7f bf e7 0b 25 bd
       -0.16291432 0.101207584 -0.99804455 -0.040294554
0000e0 17 e0 91 3e fc 48 71 3f 5d 72 12 be 58 89 79 bf
       0.2849128 0.9425199 -0.14301439 -0.97475195
0000f0 c9 ca bd bd 96 48 0e 3f 47 b5 24 bd 54 ba 7b bd
       -0.09267194 0.5557951 -0.040211942 -0.061456993
000100 b4 86 c2 bd d7 e9 d0 3e 47 d2 78 3f 85 d6 94 3f
       -0.09498349 0.40803406 0.9719586 1.1627966
000110 d3 ff 47 be 12 c2 1a bc 2b d3 0e 3f a0 99 e0 be
       -0.19531183 -0.009445684 0.55790967 -0.43867207
000120 fa c0 01 bf 94 ae 1c 3f 3c ad b1 3f f0 93 ea be
       -0.50685084 0.61203885 1.3880992 -0.45815992
000130 ca dc 35 be 01 4c df be 30 87 25 bf 0f b7 b1 be
       -0.17760006 -0.43612674 -0.64659405 -0.34709975
000140 99 4b 98 be ed b9 39 3d 6d b2 2c 3e 91 7f f5 bf
       -0.29745176 0.04534333 0.16864939 -1.9179555
000150 04 85 36 3f 7f 4b e7 be 65 33 47 3d 90 74 96 3f
       0.71296716 -0.45174786 0.048632998 1.1754322
000160 12 01 45 bd cf 20 23 be c8 b3 5b be 6c da af 3f
       -0.048096724 -0.15930484 -0.214553 1.3738532
000170 09 8e 34 3e 3a 45 5a bd 26 12 5c 3f 40 53 54 3e
       0.17632307 -0.053288676 0.8596519 0.20734882
000180 4a 3d 50 3e 98 7b 18 bf 54 cd 87 3f 11 82 96 3f
       0.2033588 -0.5956359 1.0609536 1.1758443
000190 3e 3e 8b be 69 50 3f bd 7a 9a ee be 10 99 82 3e
       -0.27195925 -0.046707544 -0.4660223 0.25507402
0001a0 8f 40 c2 3e e2 67 29 3f 62 49 af 3e 0d bc f1 be
       0.3793988 0.6617414 0.34235674 -0.47213784
0001b0 4b 54 70 3e af 8f 8c be ed e4 b0 be 7e 59 2f bf
       0.23469655 -0.27453372 -0.34549657 -0.6849593
0001c0 e7 98 bb 3e 01 83 1d 3f 6f c0 55 3e 34 9e bf be
       0.36640093 0.6152802 0.20874189 -0.37425387
0001d0 1b 29 04 bf f9 5c af 3e 1b f8 0d 3f 3a 73 99 bf
       -0.5162522 0.3425062 0.55456704 -1.1988289
0001e0 21 16 94 bf 87 cb 82 be 81 4b 31 3f b9 71 c2 3e
       -1.1569253 -0.25545904 0.69255835 0.37977389
0001f0 a1 2a 25 bf f1 97 64 bd 44 bb 74 be f0 cf e4 be
       -0.6451817 -0.055808965 -0.23899561 -0.44689894

block1.1.bn2_1.weight f4 [8]
000000 71 3d 58 3f 60 64 c1 3f 3b 3a 81 3f 49 e0 2f 3e
       0.8446875 1.5108757 1.0095896 0.17175402
000010 e1 e5 e9 3e 94 72 ba 3f 3b de 18 3e 4c cf 9a 3e
       0.45683196 1.4566216 0.14928524 0.3023628

block1.1.bn2_1.bias f4 [8]
000000 47 a6 18 be c8 54 8d 3f 7a f8 f2 be 7a 3a 4e bf
       -0.1490718 1.1041498 -0.47455198 -0.8055798
000010 dc be 29 bf 76 71 72 3f 16 ba 10 bf 83 1e 08 be
       -0.66306853 0.9470438 -0.56533945 -0.1329289

block1.1.bn2_1.running_mean f4 [8]
000000 89 a1 29 c0 2c d4 85 bf 77 59 5e 40 1f 42 de be
       -2.6504843 -1.0455375 3.4742105 -0.4340982
000010 44 43 7a 40 ca 3c 3e bf 06 ec 54 40 43 d1 6b bf
       3.9103556 -0.74311507 3.3269057 -0.92116183

block1.1.bn2_1.running_var f4 [8]
000000 9f d3 be 40 5c 4d 16 41 4f db 0f 41 2f 23 15 40
       5.9633327 9.393887 8.991042 2.3302724
000010 b5 c2 2a 41 43 a6 cc 40 54 f5 d8 40 4f 96 3a 40
       10.672536 6.3952956 6.7799473 2.915424

block1.1.conv2_2.weight f4 [8, 8, 3, 3]
000000 b6 27 c0 be 64 4d 6f bf 4d c8 96 bd f7 44 4d be
       -0.37530297 -0.93477464 -0.07362423 -0.20045839
000010 7c 0c bd be a8 4b 21 be a3 eb 89 bd 89 1b 95 bc
       -0.36923587 -0.15751517 -0.06734397 -0.018201606
000020 36 c9 ef bd 4f fd 7d be cd 8b 7e 3e 72 9a e0 be
       -0.117083 -0.24803661 0.24858017 -0.43867832
000030 dc 68 37 3e 97 32 39 3f 1b af 91 be c5 1e 74 3f
       0.17911094 0.7234282 -0.28453907 0.9535945
000040 42 d3 b0 3f 3a a4 de 3e 82 63 00 bf 33 94 e0 bc
       1.3814471 0.4348467 -0.50151837 -0.027414417
000050 67 39 b9 be 4e cf 80 bd e4 c6 5c be ae 47 4d 3c
       -0.36176607 -0.0628954 -0.21560246 0.012529297
000060 59 05 b2 be f1 64 8b 3d e4 8b 8d bd a8 eb 6a 3f
       -0.34769705 0.068063624 -0.06911448 0.9176583
000070 c8 93 19 3f 1b 20 72 3d 5c e6 6d 3f 00 74 04 3f
       0.5999112 0.05911265 0.92929626 0.517395
000080 c8 24 5c 3e 53 76 c1 3f 15 60 ef 3e 96 c7 6b bd
       0.21498406 1.5114235 0.46752992 -0.057563387
000090 ec 3e 90 be fc 4d 3e 3e 47 f3 11 3f ad 0e 8f be
       -0.28173006 0.18584436 0.57011837 -0.27940884
0000a0 bb 25 55 3f ca 82 69 3f 02 14 dc 3d c8 2e 84 3f
       0.832607 0.91215193 0.10746004 1.0326777
0000b0 c7 c7 10 3f c9 68 0e bf ff 78 01 bf b9 ad 32 be
       0.56554836 -0.5562864 -0.5057525 -0.17449082
0000c0 ba 8f 70 be 08 0e 6f 3f 47 01 98 bd 88 93 0d 3d
       -0.23492327 0.93380785 -0.07422119 0.034564525
0000d0 71 0c a5 3e b3 d8 51 3e c8 01 23 be 34 3c ef bc
       0.32236055 0.2049282 -0.15918648 -0.029203512
0000e0 46 0b 2c 3e 39 d4 8e 3e 7c f0 b7 3e 37 53 84 3c
       0.16801175 0.27896288 0.35925663 0.016152961
0000f0 5d 3c 6a 3e 91 b5 a1 3e bb a5 f8 3e 30 5b 8f 3d
       0.2287459 0.31583837 0.48563942 0.069998145
000100 e8 99 e4 3e 86 fc 24 be bd 2c 99 be bb 06 60 bd
       0.4464867 -0.16111955 -0.29916945 -0.05469392
000110 d4 b2 01 bf 3f 4c 9a bd aa b2 05 bf a0 5f 93 be
       -0.50663495 -0.07534074 -0.52225745 -0.28783894
000120 a6 91 d8 be 93 61 ed 3d ed 75 d4 bd e0 34 3a 3e
       -0.4229862 0.115908764 -0.10374055 0.18184233
000130 aa 17 7f 3f 89 5f a9 3e 69 90 15 bc 25 26 82 3c
       0.99645483 0.330807 -0.009128668 0.01588733
000140 28 48 ac 3e 82 e5 22 be 90 3b f6 bd 88 b4 56 be
       0.336488 -0.15907863 -0.120230794 -0.20967305
000150 c0 07 61 3e c0 3f 7c 3e bc fe e9 bc 25 b4 e3 3e
       0.21975613 0.24633694 -0.02856385 0.44473377
000160 af 1b a4 3d 21 1e a4 bd b4 b7 31 3f a9 c9 07 3f
       0.08013093 -0.08013559 0.69420934 0.53042084
000170 f8 21 59 3f e9 23 c7 be 0f fd 87 3e 19 c4 f1 3e
       0.8481746 -0.38894585 0.26560256 0.47219923
000180 6c 05 f0 be 71 5a 31 bf 28 46 36 be 87 c9 ba be
       -0.46879137 -0.6927863 -0.178002 -0.36481878
000190 e0 5e 6c be ef c8 5f 3e 51 30 08 bf 3b 8f 89 be
       -0.23083067 0.21853994 -0.53198725 -0.2686709
0001a0 d2 6d 3b be 5c 11 04 3f 1c d5 fc 3e 3d e0 74 3e
       -0.18303612 0.5158899 0.4938134 0.23913665
0001b0 ed a1 c7 3d d6 e9 32 bf 79 c3 14 bf 8b 59 10 3f
       0.09747682 -0.69888055 -0.5811077 0.5638663
0001c0 0d de 04 3f 27 ac b2 be 4a 01 4e 3e 62 f1 cc bd
       0.5190132 -0.34896967 0.20117679 -0.100069776
0001d0 39 cc 4f be ff 89 dc 3e 50 a0 6e 3f 27 cf da 3d
       -0.20292749 0.43074033 0.9321337 0.106840424
0001e0 d3 23 2f be 74 e5 20 3f 47 7b 7d bd 7b 39 19 bf
       -0.1710351 0.6285012 -0.061885145 -0.59853333
0001f0 c6 7b 06 bf c5 11 8f be 05 9d 96 3e 5e f5 04 bc
       -0.52532613 -0.27943245 0.2941667 -0.008115141
000200 46 12 12 3d 5c c2 67 bb 8e 17 aa 3e 55 0a b6 3e
       0.03566196 -0.003536365 0.33221096 0.35554758
000210 46 00 ca bc 69 67 01 bf e0 d3 ac 3d 87 ca 0e be
       -0.024658334 -0.50548416 0.084388494 -0.13944446
000220 c4 c3 70 be d5 5c 2c 3e 0f a4 10 3f 3c fc ed 3d
       -0.23512179 0.16832288 0.56500334 0.116203755
000230 fd fe 1e be 2f ac c9 3e 19 eb 4b 3f 73 94 45 bc
       -0.15526958 0.39389178 0.79655606 -0.012059319
000240 ed e2 70 3e ed 5a 9c be ea 73 e5 bd 74 0d e1 bd
       0.23524065 -0.3053812 -0.112037495 -0.10988894
000250 4a 43 1c bf 15 7e 42 bf ad af 6b 3e 1f 9e b7 3e
       -0.61040175 -0.75973636 0.23016234 0.35862824
000260 2a 5e 08 3f 50 9b b4 be 2e b4 0e bf fe 1c da be
       0.5326868 -0.35274744 -0.5574368 -0.42600244
000270 80 75 22 3e 10 86 ab bd 28 d6 59 3c 6a 27 01 3f
       0.15865135 -0.0837518 0.013295688 0.50450766
000280 26 00 ab 3e 8d 04 7b 3f 2e b9 c6 bd bd 5d c1 3e
       0.3339855 0.9805382 -0.09703289 0.3776683
000290 74 9f 37 3f 61 36 5a 3e ec 9b 36 3f 66 0e 88 3f
       0.7172768 0.21309806 0.7133167 1.0629394
0002a0 71 99 25 bd 28 3c 1f 3c ff d2 a9 3d 90 0a 92 3d
       -0.040429536 0.009718932 0.082921974 0.07130921
0002b0 65 19 76 3d b2 fb 85 be dd 99 e1 be ff 84 2d 3e
       0.06008281 -0.2616859 -0.440627 0.16945265
0002c0 2c fc c5 3d 9d 19 2e bd 96 cd 28 3e b6 ac fa 3d
       0.096672386 -0.042504895 0.16484675 0.12239973
0002d0 45 02 e0 3d ca d2 ef bd 8b 5e 90 3e f0 f3 48 be
       0.10937933 -0.11710127 0.2819713 -0.19624305
0002e0 10 3b 40 be e1 ee 6e be de 9f 6d be 02 d4 18 3e
       -0.1877253 -0.23333313 -0.23205516 0.14924625
0002f0 73 0c 9c 3d 26 61 8a 3e a6 ee c4 3e ca 7b 86 3f
       0.07619562 0.27027243 0.38463324 1.0506527
000300 1e 18 53 3e 3c c7 37 bd 66 1f d3 3e ac db 48 be
       0.20614669 -0.04486774 0.41234893 -0.19615048
000310 03 be b3 bf 98 7c ca be 66 7e fc 3e 43 b5 2b 3f
       -1.4042362 -0.39548182 0.49315184 0.6707346
000320 fb 73 2a 3f bb ab 54 3d f2 3e 1e 3e 76 0f ea 3e
       0.6658322 0.051921587 0.15453699 0.4571492
000330 02 61 e4 3e a5 a7 6b 3e d0 4d 13 3e 66 7d f3 3d
       0.4460526 0.2301317 0.14385152 0.11889152
000340 9f 96 84 bd 00 25 92 be 24 7f 95 3b 4c 40 b6 3e
       -0.06474041 -0.28543854 0.0045622755 0.3559593
000350 41 a7 94 be 80 34 ca be 27 11 ee bd 42 75 e6 bd
       -0.29033855 -0.3949318 -0.11624365 -0.11252834
000360 3e 96 01 bf 7d 3a 4c bf ef ad eb be 47 9f 3b bf
       -0.50619876 -0.79776746 -0.46031138 -0.7328991
000370 73 90 4d bf 40 3a 92 be cb dc 41 bf a1 2d 2f bf
       -0.80298537 -0.28560066 -0.7572753 -0.68429
000380 fa 16 05 bf 3d ca 82 3e 73 9d 74 3e 97 5b 1c be
       -0.51988184 0.2554492 0.23888187 -0.15269314
000390 14 e0 5b 3f 92 5c 07 3f 4a b2 5a 3e 43 c1 7b 3f
       0.8588879 0.52875626 0.21357074 0.9834177
0003a0 a7 af d4 3e 99 bf 20 3e f7 ef 03 3c 18 ec 8d 3e
       0.41540262 0.15698089 0.008052818 0.27719188
0003b0 d6 d4 6a 3f cc e9 ca 3e 33 62 0f 3f f1 7c 27 3f
       0.9173101 0.39631498 0.56009215 0.6542502
0003c0 b3 58 19 be c4 73 fb 3d 7d 32 bc 3d 9e 09 5d be
       -0.14975242 0.1227794 0.091893174 -0.215857
0003d0 fc 95 20 3f 2c 1a c8 3e 50 fd 30 bf 22 c0 f7 bd
       0.6272886 0.39082468 -0.69136524 -0.12097193
0003e0 24 fb 7b 3e 94 2e 41 bd 09 86 f8 3e 09 02 03 3f
       0.24607521 -0.04716356 0.4853976 0.5117498
0003f0 ee 0f a4 be 78 f2 d0 3c d8 e8 10 3f 2a 1d 8f bd
       -0.32043403 0.025506243 0.5660529 -0.069879845

block1.1.bn2_2.weight f4 [8]
000000 ab 87 37 3f 9f 15 e4 3e 49 3f 73 3f 17 66 97 3f
       0.7169139 0.44547746 0.9501844 1.182803
000010 67 09 8a 3f e9 57 c1 3e ba b7 2d 3f 89 a3 2b 3f
       1.0784119 0.37762383 0.6785847 0.6704641

block1.1.bn2_2.bias f4 [8]
000000 85 25 50 3f 72 b2 14 bf 42 09 76 be e9 c2 ca be
       0.8130725 -0.58084786 -0.24026969 -0.3960183
000010 01 5e 09 3f 92 1f e8 3e 33 22 00 3f a3 b0 06 bf
       0.53659064 0.45336586 0.50052184 -0.52613276

block1.1.bn2_2.running_mean f4 [8]
000000 f0 eb 3e 40 a8 8e db 3f a7 66 a6 3f bf 67 d3 40
       2.9831505 1.715291 1.3000077 6.6064143
000010 00 32 00 be 54 b5 69 c0 75 55 96 bf 95 2d a3 c0
       -0.12519073 -3.6516924 -1.174483 -5.099314

block1.1.bn2_2.running_var f4 [8]
000000 15 5b a2 41 8f e8 6f 40 b3 1a b9 40 8f 3d 3b 42
       20.294474 3.7485693 5.784509 46.810116
000010 e2 d3 18 41 86 c0 a6 41 66 fd b7 41 25 a9 96 41
       9.551729 20.844006 22.99873 18.83259

block1.1.conv3_1.weight f4 [2, 16, 1, 1]
000000 f3 96 00 3f 88 a0 d7 bc e9 30 95 be ed 91 9c be
       0.5023033 -0.026321664 -0.29138878 -0.30580083
000010 da 44 a7 be 69 e3 08 bd 58 e2 cd 3d 10 23 c2 be
       -0.32669717 -0.03342 0.10052937 -0.37917376
000020 71 32 fa 3b ad ee 3d 3f a6 ca a4 3e 32 67 0e bd
       0.0076354076 0.74192315 0.32185858 -0.034766383
000030 b3 0e 8a 3f 43 bc 21 bf 15 91 75 bc 90 d0 84 be
       1.0785736 -0.6317789 -0.0149882035 -0.2594037
000040 63 05 15 be a8 d6 e2 3b a5 28 9a 3f af 36 f9 3e
       -0.14552836 0.0069225617 1.2043654 0.48674533
000050 dd fe 13 be c3 10 85 bf cf 38 44 3f eb cf 15 bf
       -0.14452691 -1.039574 0.76649183 -0.5852038
000060 a3 ff 20 bf 2c 12 c9 bd 78 2b 95 3e 5d 21 a8 3e
       -0.6289007 -0.09817919 0.29134727 0.32837954
000070 cb 7c 3e 3d a5 87 bb 3e 48 15 2d be 6c cb 34 bf
       0.04650573 0.36626926 -0.1690265 -0.706229

block1.1.bn3_1.weight f4 [2]
000000 d0 b3 89 3f b6 1f 26 3f
       1.0758 0.6489214

block1.1.bn3_1.bias f4 [2]
000000 b8 c8 97 be ea 0b 1f bf
       -0.29645324 -0.62127554

block1.1.bn3_1.running_mean f4 [2]
000000 57 24 2b 3f 7c df f3 3f
       0.66852325 1.9052577

block1.1.bn3_1.running_var f4 [2]
000000 f3 a1 b6 3f 70 b2 21 41
       1.4268173 10.106064

block1.1.conv3_2.weight f4 [2, 2, 5, 5]
000000 4b bb 78 be 54 b1 37 3d 0b e8 0d bf 96 f0 c0 be
       -0.24290197 0.044846848 -0.55432194 -0.37683553
000010 ea a1 88 bd 02 59 b2 be 0c a2 b8 3e 7a a7 a9 be
       -0.06671508 -0.34833533 0.36061132 -0.33135587
000020 02 22 20 bd 36 ca 66 bd 8c 1e 0b be ad d0 f4 3d
       -0.039094932 -0.056345187 -0.13585871 0.11953864
000030 b7 a7 df bd d4 23 95 be 0d 55 81 bd b0 dc b3 3d
       -0.10920661 -0.29128897 -0.0631505 0.08782327
000040 da 00 65 be ac ee b2 be 3a 1d 97 be 47 70 2e be
       -0.22363606 -0.34947717 -0.29514486 -0.17035018
000050 54 3b 89 3e 85 d4 b4 3e a7 ee ac be 45 c1 b1 be
       0.26803076 0.3531839 -0.33775827 -0.34717765
000060 70 ae 43 3d 34 2e 27 be dc cd 36 3c f4 f8 2e be
       0.04777378 -0.16326219 0.011157479 -0.17087156
000070 30 1c a4 3c 1a 69 de be 7c 67 23 3d 8d 19 02 bf
       0.020032972 -0.4343956 0.039893612 -0.5082024
000080 a9 92 ce 3d d5 84 4d be ed f6 75 be c6 3d 2b be
       0.10086567 -0.20070203 -0.24019976 -0.16722783
000090 15 40 26 3d b8 be b3 3e a8 1e 85 be 5b cb de be
       0.040588457 0.35106444 -0.2599995 -0.43514523
0000a0 bb 35 41 3e 09 17 e4 bd 6b 51 a4 3e 8f f0 86 3b
       0.18868153 -0.11137206 0.32093367 0.0041180323
0000b0 12 e9 16 be 96 19 32 3e 6f 2d 29 be ed 7e 43 3e
       -0.14737347 0.17392573 -0.16521238 0.19091387
0000c0 5f 35 de 3e 91 bf 76 be c7 7a 13 be c5 09 4e be
       0.43400094 -0.24096514 -0.14402305 -0.20120914
0000d0 cc 2e c9 be 64 70 c6 bd 54 a1 6a 3c 6c 49 e1 bd
       -0.39293516 -0.096894056 0.01432069 -0.11000332
0000e0 0d a7 12 be 85 73 42 be 77 33 91 bc e3 d5 68 be
       -0.14321537 -0.1898938 -0.017724736 -0.22737841
0000f0 56 40 46 3f 25 70 6d 3e fa ef ba 3e 8b 90 04 3f
       0.7744192 0.23187311 0.36511213 0.51783055
000100 79 f7 55 3f 7a 3b cf 3d 17 b7 9d be 66 8a be be
       0.8358074 0.10118766 -0.3080375 -0.37214965
000110 bc 76 89 be 1c a5 d5 be 60 bc ee 3e a3 80 50 bd
       -0.268484 -0.4172753 0.46628094 -0.050903928
000120 d3 7a 9a bc a6 7f be 3d 72 24 34 be 3f 0c d5 be
       -0.018857395 0.09301691 -0.17592028 -0.41610906
000130 55 46 cd 3d 51 de b4 3e 0f e2 b1 3e 07 3b a1 3e
       0.100231804 0.35325864 0.34742782 0.31490347
000140 87 17 1c be 11 6f 86 b7 aa 2e f2 3d 0e 5c 1f 3f
       -0.1524335 -1.6025764e-05 0.11825307 0.6224984
000150 49 d3 8f 3e fd 4e 6d be e5 20 d8 be b6 f3 95 bd
       0.28090885 -0.23174663 -0.42212597 -0.07321875
000160 59 55 0d 3f 82 a9 0b 3e 76 80 48 3e ca 57 b9 3d
       0.55208355 0.13638881 0.19580254 0.090499476
000170 2f 79 81 3e aa f9 49 3f 77 55 1b 3f b3 5f d1 3e
       0.25287768 0.7889658 0.60677284 0.40893325
000180 21 87 5b 3e d7 1f 6d 3e 83 93 2b 3d 64 d4 44 3e
       0.21438266 0.23156677 0.041888725 0.19221646

block1.1.bn3_2.weight f4 [2]
000000 6d d8 27 3f e8 6d 4a 3f
       0.65564615 0.79073954

block1.1.bn3_2.bias f4 [2]
000000 81 52 b3 3e d8 f1 77 bf
       0.35023883 -0.968534

block1.1.bn3_2.running_mean f4 [2]
000000 6b 67 3f bf b6 a1 ab 3e
       -0.7476718 0.33521813

block1.1.bn3_2.running_var f4 [2]
000000 6b ea 75 3f 8a b2 31 40
       0.9606082 2.7765222

block1.1.conv4_1.weight f4 [2, 16, 1, 1]
000000 98 21 d1 3f 48 18 3a be 28 73 4c 3d bd cf eb 3e
       1.6338377 -0.18173325 0.04991451 0.4605693
000010 85 1f 9c be 9e 09 81 3e 91 b9 f2 be e6 96 19 be
       -0.30492797 0.2520265 -0.474072 -0.1499897
000020 3d 0c 8b bc 92 c5 5b 3d 88 c3 df 3d 25 d8 a2 be
       -0.01697361 0.053655215 0.109259665 -0.3180553
000030 e6 aa be 3d ff 3c 68 bf 20 94 31 be 89 49 29 bd
       0.0930994 -0.9071807 -0.17341661 -0.041329894
000040 54 ca a0 be 97 13 44 bf 1c 93 ae 3e 6d 14 55 be
       -0.31404364 -0.7659239 0.3409661 -0.20808573
000050 71 c6 cd bd df 0a 88 3d 7a c5 87 3e 93 b2 e6 bd
       -0.10047615 0.066426985 0.2651785 -0.11264529
000060 f3 fd c8 be 5d a0 96 be 6d 9f 08 3f 55 93 43 be
       -0.39256248 -0.29419222 0.53368264 -0.19099171
000070 fa 31 06 3f e9 b3 1e 3f 75 24 a0 3e 1e 4c 2c 40
       0.5242001 0.6199327 0.31277815 2.6921458

block1.1.bn4_1.weight f4 [2]
000000 11 b7 96 3f 4d 7a 61 3f
       1.1774617 0.8807724

block1.1.bn4_1.bias f4 [2]
000000 9a 25 10 bf 70 f2 f2 3f
       -0.56307375 1.8980236

block1.1.bn4_1.running_mean f4 [2]
000000 5b 6d e4 3f 42 20 56 40
       1.7845873 3.3457189

block1.1.bn4_1.running_var f4 [2]
000000 94 74 7b 40 17 96 e2 40
       3.9289904 7.0808215

block1.2.conv1_1.weight f4 [4, 16, 1, 1]
000000 09 0d 68 3e 59 e1 25 bf 81 0b 3a bf d1 62 e9 bd
       0.22661223 -0.6479698 -0.72673804 -0.11395801
000010 1b 93 18 3f fb 91 a7 bd c4 77 5f be fe ac 6b 3f
       0.59599465 -0.081821404 -0.2182303 0.9206084
000020 41 75 79 3e 1f 41 af 3e ce 13 0e be 62 07 90 3e
       0.24361135 0.3422937 -0.13874742 0.28130633
000030 2a 80 4d 3e 88 c7 1f bf c0 68 26 bf 97 e7 cc 3f
       0.20068422 -0.62413836 -0.65003586 1.6008176
000040 17 6b 1d be 3e 8e 0b 3d 4b 53 5e be f5 3f ea 3e
       -0.15372883 0.0340712 -0.21711461 0.4575192
000050 8d ba 65 3e e6 6d e5 3d 6b 55 fd be 7b 99 83 3f
       0.22434445 0.11202602 -0.4947923 1.0281214
000060 ff c2 d3 3d 2e ce 02 3f 61 f0 39 bf e5 b5 bc be
       0.10339927 0.51095855 -0.72632414 -0.36857525
000070 be d0 31 3d 82 fb 8b be ad c8 8e be cb 37 65 3f
       0.043411963 -0.27340323 -0.27887478 0.8953826
000080 cd 2e 0c 40 b2 3d 5a 3f 26 f2 3a bf 4e 47 b4 bf
       2.1903565 0.8525039 -0.7302574 -1.408426
000090 bf ff 33 3f 36 6a 2a bd e3 ec 7f bd d4 9e 80 3e
       0.7031211 -0.041605197 -0.062481772 0.25121176
0000a0 cc c1 8b 3c d4 2b 52 bd 1b 0b bf 3e f5 2d 6b bd
       0.017060183 -0.05131133 0.3731316 -0.057416875
0000b0 06 83 23 be 03 07 42 3d 51 43 c9 38 6d e4 15 bc
       -0.1596795 0.04736997 9.5969655e-05 -0.009148699
0000c0 88 e4 91 bb 39 01 ac 3e 54 56 40 bf f3 de b1 be
       -0.004452292 0.33594683 -0.75131726 -0.3474041
0000d0 90 4d 42 bc bc bc f8 3e 5d 43 22 3f 3d 80 4e bf
       -0.011859313 0.48581493 0.6338404 -0.80664426
0000e0 e7 ca 74 3f 10 10 97 3e f4 ec 5c 3b 2f 43 ce bd
       0.95622104 0.29504442 0.003371057 -0.10071408
0000f0 d4 34 46 be 3a 77 ac be c7 d0 16 be b9 0a 23 3e
       -0.1935609 -0.33684713 -0.1472808 0.15922059

block1.2.bn1_1.weight f4 [4]
000000 65 9c 6d 3f 62 ad 03 3d a8 0b b6 3f 93 49 2f 3f
       0.92816764 0.032147773 1.4222307 0.6847164

block1.2.bn1_1.bias f4 [4]
000000 13 fe 50 3f 55 b0 6c be ba 3d 1f 40 cb 67 9c 3e
       0.81637686 -0.2311414 2.4881425 0.30547938

block1.2.bn1_1.running_mean f4 [4]
000000 62 9b 5e 40 12 d0 0c 40 53 72 6e 40 aa 54 8b 3e
       3.4782338 2.2001996 3.7257278 0.2721303

block1.2.bn1_1.running_var f4 [4]
000000 1c 78 be 40 79 85 eb 3f 72 78 b2 41 5b 38 82 3f
       5.952162 1.8400108 22.308811 1.0173448

block1.2.conv2_1.weight f4 [8, 16, 1, 1]
000000 a2 4d 59 bd 15 ee 2a 3a 96 5d 37 be 89 4e 16 be
       -0.053052552 0.00065204623 -0.17906794 -0.14678396
000010 56 a7 06 3f 08 28 db 3e 0a c0 66 be 01 7f 42 be
       0.52599084 0.4280398 -0.22534195 -0.1899376
000020 a1 aa ea be 71 d1 12 3f 24 33 2f 3f 8e df ee 3e
       -0.45833305 0.5735083 0.6843741 0.46654934
000030 b5 20 dc 3e 44 01 f9 3e 14 ec 36 3e 2e 44 bd bd
       0.42993703 0.48633778 0.17863494 -0.0924152
000040 43 82 9d 3e 62 b0 18 bf e5 33 6e be e4 41 1c 3f
       0.30763444 -0.5964414 -0.23261984 0.6103804
000050 96 86 7e 3f e4 da 36 bf 35 f2 85 bd be b6 4a 3e
       0.9942411 -0.7142775 -0.06540338 0.19796273
000060 b7 36 86 3c 4a 5f 7a be 19 c3 37 3e ee 02 db 3d
       0.016383512 -0.24450412 0.17945518 0.10693918
000070 e5 f6 1e 3e cc 39 57 3e 35 7b d0 3d ed cb dc 3c
       0.1552387 0.21018142 0.1017975 0.026952708
000080 35 98 b4 bf cf c8 8b bd 52 3a cd 3e 23 eb 9b be
       -1.410895 -0.068254106 0.40083557 -0.30452833
000090 b4 e0 46 3c c9 de af 3e 5a a6 2d 3f e7 21 16 be
       0.012138534 0.3434966 0.6783196 -0.1466137
0000a0 42 b8 d7 be 03 e7 f1 3e fc 37 e3 3d 4b ae b0 be
       -0.42132765 0.4724656 0.110946625 -0.34507975
0000b0 cc 77 5a 3f 7b 0e 2b bf 71 a1 91 be 27 3f a7 be
       0.85339046 -0.6681897 -0.28443483 -0.3266537
0000c0 be f2 19 bf 92 87 01 bf 80 8c c4 3e 78 2d 88 bf
       -0.6013602 -0.5059749 0.38388443 -1.0638876
0000d0 e8 68 ff be c2 e7 2b 3f db ab 98 3e a9 0f b7 be
       -0.49884725 0.6715051 0.29818615 -0.35754135
0000e0 af 0f 91 3f 94 70 e2 3e 1d fc 20 3f eb 80 e6 3e
       1.1332911 0.44226515 0.62884694 0.45020232
0000f0 7c 54 17 3f 3e 09 3a bf b4 c6 0a 3f c8 f3 00 bf
       0.5911329 -0.7267035 0.54209447 -0.5037198
000100 08 4c 35 bf d2 62 05 bf f8 cf 15 3f 19 a7 09 3e
       -0.7081914 -0.5210391 0.5852046 0.13442649
000110 35 e0 67 3e be 19 d6 3e 91 90 86 3e 0c 60 a3 bb
       0.22644122 0.41816515 0.2628217 -0.004985815
000120 38 26 52 be ef a9 f3 be b1 77 00 bf 47 f2 b8 3d
       -0.20522392 -0.47590587 -0.50182635 0.09030586
000130 cf 80 e3 3d e6 f8 f7 be c4 ac 6c 3f 02 92 a3 3e
       0.11108553 -0.48432082 0.9245112 0.31947333
000140 a1 fa 8c be 00 56 cf be 95 f3 b7 3e 42 86 ac 3e
       -0.27534965 -0.404953 0.35928026 0.3369618
000150 f2 10 5c 3f d7 f9 1c 3f dd b2 ad 3d 78 17 1b bf
       0.85963356 0.61318725 0.08481381 -0.60582685
000160 7d f5 11 be 0c 85 ce 3d 08 77 83 3e c0 f8 36 be
       -0.14253803 0.100839704 0.2567675 -0.17868328
000170 35 dc 88 3e 0a 3f be be 8e 90 01 3f 73 e9 85 be
       0.26730505 -0.3715747 0.506112 -0.2615467
000180 15 3e 93 bf 28 34 8a bd c8 77 3b 3f 58 b7 92 3e
       -1.1503321 -0.06748229 0.73229647 0.28655505
000190 41 09 90 3e d3 d2 9c 3e 37 1e 8a 3e 23 9c 5a 3f
       0.2813206 0.30629596 0.26976177 0.85394496
0001a0 1f 49 31 3f 08 c5 00 bf 04 85 41 3e d9 d9 0d bf
       0.692522 -0.50300646 0.18898398 -0.55410534
0001b0 88 13 87 be 14 65 0d 3f 16 53 19 bf 6b e4 02 3f
       -0.2638209 0.5523236 -0.59892404 0.5112979
0001c0 11 df 32 bf bd 57 d2 3e b6 7a 48 be aa 68 15 3e
       -0.6987162 0.41082564 -0.1957806 0.14590707
0001d0 08 66 8b 3e 97 20 e7 3e 54 3d 19 3d e7 d2 b5 3e
       0.2722628 0.45142052 0.037412003 0.35512468
0001e0 0e b4 87 be 97 c5 1e 3e c2 36 4b 3f d8 8f fb be
       -0.26504558 0.15505062 0.7938043 -0.49133182
0001f0 db 09 b5 3e 14 38 3c 3f 1d a2 dd bd 3f 75 0c 3f
       0.35359082 0.7352307 -0.10821936 0.54866403

block1.2.bn2_1.weight f4 [8]
000000 ba dd a3 3d be a2 34 3f 6d 4e 9e 3f f0 83 63 3f
       0.08001275 0.70560825 1.2367684 0.88873196
000010 c4 bb 7a 3f 2b 87 9f bd 65 b3 c4 3f 63 1d 57 3e
       0.9794276 -0.07789453 1.5367247 0.21007304

block1.2.bn2_1.bias f4 [8]
000000 98 54 e2 be 9d c4 b6 be c3 a2 39 3e e8 6a 8d 3f
       -0.44205165 -0.3569688 0.18128495 1.104825
000010 6e bb cb be d8 81 6c bf c0 d3 a2 3f 48 43 35 bf
       -0.39791435 -0.92385626 1.2720871 -0.7080579

block1.2.bn2_1.running_mean f4 [8]
000000 b0 50 ce 3e 48 01 07 40 37 3b 6d c0 cd 1d 2d c0
       0.40295935 2.1094532 -3.7067392 -2.704944
000010 7e 2a 83 bf bc 90 10 3e da 38 3a be 7e f4 4c 3f
       -1.0247343 0.14117712 -0.1818575 0.80060565

block1.2.bn2_1.running_var f4 [8]
000000 83 c8 1b 3f ca 4c 02 40 a7 a4 af 40 6c 06 91 40
       0.6085283 2.0359368 5.488849 4.532034
000010 72 47 35 40 00 9f 84 3f 29 50 80 40 1d 45 b6 3f
       2.8324857 1.0361023 4.009785 1.4239842
