assignment1/results/trial_2/inception/ckpts/6000.pt (torch, 689126 bytes, 467 tensors)

block1.0.conv1_1.weight f4 [4, 16, 1, 1]
0	0xbd185db2	-0.03719873
1	0x3fd51f0d	1.6650101
2	0x3e62fcd5	0.2216676
3	0xbd8de316	-0.06928079
4	0x3e1574b5	0.14595301
5	0x3f33bd07	0.7021031
6	0x3f8d9fdc	1.106441
7	0x3ea8aaf0	0.32942915
8	0x3eb00c25	0.34384266
9	0xbee77b66	-0.45211333
10	0xbe9aa16a	-0.30201274
11	0xbe8de565	-0.27714077
12	0xbf26d78e	-0.6517266
13	0x3ea35e79	0.31908014
14	0x3f032f10	0.51243687
15	0xbf4e9d42	-0.80708706
16	0xc00525c5	-2.0804303
17	0xbf94f57a	-1.1637414
18	0x3d926058	0.07147282
19	0x3ec81a08	0.3908236
20	0xbe8c09bc	-0.27351177
21	0xbedd1f85	-0.4318811
22	0x3ed88715	0.4229056
23	0x3efe3b8f	0.49654815
24	0xbd6dfbc7	-0.05810144
25	0xbe4bbc66	-0.19896087
26	0xbf0a2e00	-0.5397644
27	0x3d532276	0.051546536
28	0xbf2f0055	-0.6835988
29	0xbda6beba	-0.08141847
30	0x3fa5ba36	1.2947452
31	0xbf1df0e6	-0.61695707
32	0x3eabddac	0.3356756
33	0x3dd5dce9	0.10442526
34	0xbf8f46f0	-1.1193523
35	0xbf2568d1	-0.6461306
36	0x3eb17217	0.34657356
37	0x3f8e20be	1.1103742
38	0x3fa34688	1.27559
39	0xbd2831f6	-0.04106327
40	0x3f5505f5	0.83212215
41	0x3ed8df17	0.42357704
42	0x3e7134e3	0.23555331
43	0x3e3497ff	0.17636107
44	0x3f13a3e9	0.5767198
45	0xbee2f381	-0.44326404
46	0xbe2d2b63	-0.16911082
47	0x3ddef7e2	0.10887124
48	0x3eb4814f	0.35254905
49	0x3d6e5b56	0.058192573
50	0xbf02ad2c	-0.5104549
51	0x3fa3167a	1.2741234
52	0xbe8e13b4	-0.27749407
53	0x400226ff	2.0336301
54	0xbe9b3324	-0.30312455
55	0xbf842f50	-1.0326939
56	0x3e4390eb	0.1909825
57	0x3e09bbdb	0.13450567
58	0xbeda30a2	-0.4261523
59	0x3e95cd0f	0.2925801
60	0x3fd184e4	1.636868
61	0x3f93252e	1.1495721
62	0xbfd7e264	-1.6865964
63	0x3d83f2fb	0.06442829

block1.0.bn1_1.weight f4 [4]
0	0x3f9c630d	1.2217728
1	0x4001338f	2.018772
2	0x3f7be099	0.98389584
3	0x3f41374f	0.7547502

block1.0.bn1_1.bias f4 [4]
0	0x3f702324	0.9380362
1	0xbe8356fa	-0.25652295
2	0x3ffb0e9d	1.9613835
3	0x40069336	2.102735

block1.0.bn1_1.running_mean f4 [4]
0	0x40de40ee	6.945426
1	0xc08a500e	-4.3222723
2	0x4055cec1	3.3407443
3	0x41019f12	8.101336

block1.0.bn1_1.running_var f4 [4]
0	0x417b1c49	15.694406
1	0x41c7d028	24.976639
2	0x418bb158	17.461594
3	0x413b82e0	11.719452

block1.0.conv2_1.weight f4 [8, 16, 1, 1]
0	0xbf331556	-0.6995443
1	0xbee6041e	-0.44925016
2	0x3fe93ee0	1.8222313
3	0x3f38d79d	0.72204
4	0x3f9ffe47	1.2499474
5	0x3da1d4d6	0.07901923
6	0xbf20caa6	-0.62809217
7	0xbddae2b8	-0.106877744
8	0x3e087c72	0.13328722
9	0xbea55991	-0.32294896
10	0x3cb2f20f	0.021843938
11	0xbe8c222c	-0.2736982
12	0xbe704635	-0.23464282
13	0x3f57131e	0.84013546
14	0x3ed9673a	0.42461568
15	0xbf10635e	-0.5640162
16	0x3e911309	0.28334835
17	0xbf61ea35	-0.88247997
18	0x3fa14d47	1.2601708
19	0xbfdc37a8	-1.7204485
20	0xbd876027	-0.066101365
21	0xbf0515fb	-0.51986665
22	0xbf104de0	-0.5636883
23	0xbf447fc2	-0.7675744
24	0xbf40257d	-0.750572
25	0x3d0b5ba2	0.034022935
26	0xbf008a02	-0.50210583
27	0xbe5fb960	-0.21848059
28	0xbf2b214c	-0.6684768
29	0x3f810acd	1.0081421
30	0xbecacab5	-0.39607778
31	0xbd61606a	-0.05502359
32	0xbf024024	-0.5087912
33	0xbeb94114	-0.36182463
34	0xbf928a90	-1.1448536
35	0xbf91b96a	-1.1384709
36	0xbeb2d4b0	-0.34927893
37	0x3c6135ee	0.013745768
38	0x3e891802	0.2677613
39	0x3e9a04e2	0.3008185
40	0xbf0dad4b	-0.5534255
41	0xbda1d4d0	-0.07901919
42	0xbe69380f	-0.22775291
43	0xbd076e4d	-0.033064175
44	0xbe847b14	-0.2587515
45	0xbe136eda	-0.14397755
46	0x3f1d3df9	0.6142269
47	0xbf9ed96d	-1.2410103
48	0xbf40593d	-0.75136167
49	0xbf69d375	-0.9133828
50	0x3f048582	0.51766217
51	0xbf23c49a	-0.63971865
52	0x3efae6cd	0.49004212
53	0xbf9091f8	-1.1294546
54	0x3fe8ef82	1.8198092
55	0x3f04f07c	0.5192945
56	0x3fdc8794	1.7228875
57	0xbedb46a9	-0.42827347
58	0xbdd07d0f	-0.10180103
59	0xbe39cc75	-0.181444
60	0xbeb5ea27	-0.35530207
61	0xbfd1e3fa	-1.6397698
62	0x3b560247	0.0032655166
63	0x3e87669c	0.26445472
64	0x3ee72baa	0.451505
65	0x3edadd27	0.4274685
66	0x3f448642	0.7676736
67	0x3f6e9c28	0.93207026
68	0x3e32f6c1	0.17476942
69	0x3f31ccc8	0.69453096
70	0x3e58c3d1	0.21168448
71	0xbf05372f	-0.5203733
72	0x3e7076b7	0.23482786
73	0xbded8f77	-0.11599629
74	0x3ddc9221	0.107700594
75	0x3eeb2816	0.4592902
76	0x3e927e83	0.28612146
77	0x3ea9437c	0.330593
78	0xbf098bd6	-0.53729
79	0x3f540227	0.82815784
80	0xbf285097	-0.6574797
81	0xbf85bba8	-1.0447893
82	0x3f4bf329	0.7966791
83	0x3ce27a4d	0.027646208
84	0x3f022753	0.50841254
85	0xbe98e362	-0.2986098
86	0xbf4fe525	-0.8120902
87	0x3f4c32ef	0.7976522
88	0xbf746950	-0.95473194
89	0xbe084751	-0.13308455
90	0xbe0b472a	-0.13601366
91	0xbed01054	-0.40637457
92	0xbdaca6e0	-0.084302664
93	0xbf37c2d3	-0.71781653
94	0x3f7cd5d9	0.98763806
95	0x3a7e16ae	0.00096927106
96	0x3f1cd2ed	0.6125935
97	0xbf45ce02	-0.7726747
98	0xbf5b32f3	-0.8562462
99	0xbe1f42ac	-0.15552777
100	0x3e589ff5	0.21154769
101	0xbe467efb	-0.19384377
102	0xbe821505	-0.25406662
103	0xbe8ca34c	-0.27468336
104	0xbd17b76b	-0.037040155
105	0xbe53404b	-0.20629995
106	0x3ecc9465	0.39956966
107	0x3ed1aad8	0.40950656
108	0x3ef08ef6	0.4698407
109	0x3ed3edf6	0.41392487
110	0x3e166b47	0.1468936
111	0xbed64d62	-0.41855913
112	0x3d7c8cb1	0.06165761
113	0xbf41deb8	-0.75730467
114	0x3ddd06b0	0.10792291
115	0x3fb8d307	1.44394
116	0x3ef3ae12	0.47593743
117	0xbeafd536	-0.34342355
118	0xbf07040e	-0.5274056
119	0x3f20a96d	0.62758523
120	0x3e868418	0.26272655
121	0x3ee842e8	0.45363545
122	0xbe1d1778	-0.15340984
123	0x3f3c5364	0.73564744
124	0x3ec55b7b	0.38546357
125	0xbf1d0243	-0.61331576
126	0x3f1ba727	0.6080193
127	0x3e6234f7	0.22090517

block1.0.bn2_1.weight f4 [8]
0	0x3f9e348b	1.2359785
1	0x3f3d1082	0.73853314
2	0x3f600686	0.87509954
3	0x3fca7f20	1.5820045
4	0x3e2020f7	0.15637575
5	0x3cf16ec0	0.029471755
6	0x3f203798	0.6258483
7	0x3f92c3fd	1.1466061

block1.0.bn2_1.bias f4 [8]
0	0x3f82e963	1.0227474
1	0x3fd8b672	1.6930678
2	0x3f1dfd2c	0.61714435
3	0x3f2dbc9e	0.6786593
4	0xbf711762	-0.94176304
5	0x3f1a16f9	0.60191303
6	0xbf294938	-0.6612735
7	0x3fb5f813	1.4216331

block1.0.bn2_1.running_mean f4 [8]
0	0x40404953	3.0044754
1	0xc089b31c	-4.303114
2	0xc0c667f5	-6.20019
3	0xc002ac04	-2.041749
4	0x40ec701f	7.3886867
5	0xc0b93d30	-5.788719
6	0xbff57dd3	-1.9179024
7	0x3ed6d97b	0.419628

block1.0.bn2_1.running_var f4 [8]
0	0x4100cc01	8.049806
1	0x410d60b6	8.836111
2	0x406649e1	3.5982592
3	0x412dad22	10.854769
4	0x405ae6a1	3.4203265
5	0x419ef4e6	19.86958
6	0x4011c8dc	2.2778845
7	0x41221e3f	10.132384

block1.0.conv2_2.weight f4 [8, 8, 3, 3]
0	0xbecf0cff	-0.40439603
1	0xbf19de0c	-0.6010444
2	0xbebeeb52	-0.3728891
3	0xbece7fff	-0.40332028
4	0xbe9d5bbb	-0.30734047
5	0xbf00a1d3	-0.50246924
6	0x3f34705a	0.70483935
7	0x3f2018e8	0.62538004
8	0x3c999207	0.01874639
9	0x3e3832c8	0.17988122
10	0xbed567b1	-0.41680673
11	0xbe8a55d6	-0.27018613
12	0x3d9a29fb	0.075275384
13	0xbe9b5f46	-0.30346125
14	0xbede3310	-0.43398333
15	0x3e5532d2	0.20820168
16	0x3ddc1082	0.10745336
17	0xbe144ca7	-0.14482366
18	0x3e59dac6	0.21274862
19	0xbd8ef28e	-0.069798574
20	0x3ede898f	0.43464324
21	0x3c28378d	0.010267151
22	0xbd0b261e	-0.0339719
23	0x3e84b4e0	0.25919247
24	0x3e034108	0.12817776
25	0xbde9ca2d	-0.11415515
26	0x3d1789b8	0.036996573
27	0xbea7223e	-0.32643312
28	0xbeba03dc	-0.3633107
29	0xbedbbefe	-0.42919153
30	0xbdbb6ebd	-0.09151981
31	0xbe540ac7	-0.20707236
32	0xbea3d9be	-0.32002062
33	0xbae44f6e	-0.0017418691
34	0xbc01de96	-0.007926604
35	0xbec42f35	-0.38317266
36	0x3efd1cd6	0.49436063
37	0x3f22c895	0.63587314
38	0x3ebb028e	0.36525387
39	0xbde97d3e	-0.11400841
40	0x3e090453	0.13380556
41	0x3e70fbc5	0.23533542
42	0xbe0db6a6	-0.13839206
43	0x3c5dae42	0.013530316
44	0x3e8fc7d3	0.2808214
45	0x3f15ede0	0.58566093
46	0x3e9b6aed	0.30355015
47	0x3dcbd829	0.09953339
48	0x3e85419d	0.2602662
49	0x3df23998	0.118273914
50	0x3e091a9d	0.13389058
51	0x3e129df7	0.14318071
52	0xbe809362	-0.25112444
53	0xbe956f77	-0.29186603
54	0x3ecc0998	0.3985107
55	0x3f01f2b7	0.5076098
56	0x3e25935c	0.16169494
57	0x3e2c1255	0.16803868
58	0x3e00c2b0	0.12574267
59	0xbdb5a544	-0.088694125
60	0xbe0c9307	-0.13727961
61	0x3e0814a0	0.13289118
62	0xbdfe7454	-0.124245316
63	0x3f07560e	0.52865684
64	0x3f858de1	1.0433923
65	0x3e05f214	0.13080627
66	0x3d078fd2	0.033096142
67	0x3f35a219	0.70950466
68	0x3e32dd2d	0.17467184
69	0xbf25e489	-0.6480184
70	0xbe34f4ca	-0.17671505
71	0xbe9bdecb	-0.30443415
72	0xbed75ce5	-0.4206306
73	0xbe44b051	-0.19207884
74	0x3d240861	0.040047053
75	0xbf6d5469	-0.92706925
76	0xbd414080	-0.047180653
77	0xbf1d2c72	-0.61395943
78	0x3e6b75a3	0.22994094
79	0x3e71b790	0.2360518
80	0xbeddc949	-0.4331763
81	0xbe50be6b	-0.20385139
82	0x3e0a0493	0.13478307
83	0xbe662b0a	-0.22477356
84	0x3e949c40	0.2902546
85	0xbce931f9	-0.028466212
86	0xbefb2a98	-0.49055934
87	0xbe8ca516	-0.274697
88	0xbf0d580e	-0.55212486
89	0xbeb17779	-0.34661463
90	0x3d94166e	0.072308406
91	0x3e41ef02	0.1893883
92	0x3d8b24bb	0.06794115
93	0x3ed376d7	0.41301605
94	0x3e90ff46	0.28319758
95	0x3e27b486	0.16377458
96	0x3e8a2d43	0.26987657
97	0x3e2eac9e	0.17058036
98	0x3f27696a	0.65395224
99	0xbd98298e	-0.07429801
100	0xbeace516	-0.3376853
101	0xbf30c00f	-0.6904306
102	0x3f5f1893	0.8714687
103	0xbc284ea4	-0.010272656
104	0x3e708cfc	0.23491281
105	0xbed2d688	-0.411793
106	0xbf82c806	-1.0217292
107	0xbf48f91c	-0.7850511
108	0x3e78d7ee	0.2430112
109	0x3e7098c9	0.23495783
110	0xbdd0bfcc	-0.10192832
111	0xbf029d0c	-0.51020885
112	0xbec32dfa	-0.38121015
113	0xbecb7e94	-0.3974501
114	0xbe6d1c12	-0.23155239
115	0xbe1b205f	-0.15149067
116	0xbe020088	-0.12695515
117	0x3e8e48ef	0.2779002
118	0xbe396528	-0.18104994
119	0x3e12ac5b	0.14323561
120	0xbe47bf9c	-0.19506687
121	0xbed41864	-0.4142486
122	0xbec3f676	-0.38273972
123	0xbce2ed1a	-0.02770095
124	0xbee94952	-0.4556375
125	0xbe8d5500	-0.27603912
126	0xbe852f99	-0.26012877
127	0xbef0fde8	-0.47068715
128	0xbe8d7fe8	-0.27636647
129	0x3d101d91	0.035184447
130	0xbec7a39e	-0.38992018
131	0xbe7b4ad7	-0.24540268
132	0xbe9027aa	-0.2815526
133	0xbf0c48de	-0.54798687
134	0xbea3d570	-0.31998777
135	0x3e58a797	0.2115768
136	0xbec93a51	-0.39302304
137	0x3e121279	0.1426486
138	0xbf13d297	-0.5774321
139	0xbf3043cb	-0.68853444
140	0xbed400fe	-0.41407007
141	0x3e5b213b	0.21399395
142	0xbdf7dbc0	-0.12102461
143	0x3e2ab6b5	0.1667126
144	0x3e49bfc2	0.19702056
145	0xbf3aea64	-0.730139
146	0x3d9de5ed	0.077098705
147	0xbdc3ad1e	-0.09554504
148	0xbf171d46	-0.5902904
149	0x3da5ca8c	0.080952734
150	0xbe76c45c	-0.24098343
151	0xbdfd86d1	-0.1237923
152	0x3f5b7651	0.8572741
153	0xbeed4075	-0.4633824
154	0xbf7ca6ee	-0.98692214
155	0xbe8ac55e	-0.27103704
156	0xbf9ae86d	-1.2102181
157	0xbfae8031	-1.3632871
158	0xbfacea66	-1.3509033
159	0xbeee5482	-0.4654885
160	0xbf76bb0d	-0.96379167
161	0xbf86d073	-1.0532364
162	0xbec48eb2	-0.38390118
163	0x3cacea8f	0.02110794
164	0xbe371465	-0.17878874
165	0xbe49be01	-0.19701387
166	0xbef83769	-0.48479775
167	0xbeaae04f	-0.3337426
168	0xbf1aa13e	-0.60402286
169	0xbf3e631f	-0.74369997
170	0xbf3a3dd8	-0.72750616
171	0x3f419835	0.75622874
172	0x3e16c63b	0.14724056
173	0x3e990a47	0.29890653
174	0xbea613e7	-0.3243706
175	0xbf055dcf	-0.52096266
176	0xbf16e829	-0.58948
177	0x3f3ad93f	0.7298774
178	0x3e97b999	0.29633787
179	0x3e10d50b	0.1414377
180	0x3e763aed	0.24045916
181	0xbe500bf4	-0.2031706
182	0x3d80fefd	0.06298635
183	0xbd3fd691	-0.046835486
184	0xbe021605	-0.12703712
185	0xbda6ea5c	-0.08150169
186	0x3e571e52	0.2100766
187	0x3de02a28	0.10945541
188	0x3e7b4b30	0.245404
189	0xbf3596bd	-0.70933133
190	0xbf7e25cd	-0.9927643
191	0xbf023a76	-0.50870454
192	0xbe6cf3e9	-0.2313992
193	0xbe605749	-0.21908297
194	0xbf30a4b5	-0.69001323
195	0xbebd5e07	-0.369858
196	0xbf752a2e	-0.95767486
197	0xbf7a7af3	-0.97843856
198	0x3f3f474b	0.7471816
199	0x3f334335	0.70024425
200	0x3e1cd440	0.15315342
201	0x3decc88a	0.11561687
202	0x3ed5e1a4	0.41773713
203	0xbe1acdae	-0.15117523
204	0x3f3c618f	0.7358636
205	0x3f49d3c0	0.7883873
206	0x3f016d62	0.5055753
207	0xbec4f77a	-0.3847006
208	0x3dd5c800	0.104385376
209	0xbe9942cc	-0.29933774
210	0xbdb473a5	-0.0881112
211	0x3ed62abb	0.41829476
212	0xbdda46e6	-0.10658054
213	0xbf092eff	-0.53587335
214	0xbe85bc2f	-0.26120135
215	0xbe54e3a5	-0.20789964
216	0xbf3661b0	-0.7124281
217	0x3e555dba	0.20836535
218	0x3f8095fb	1.004577
219	0xbf3ef660	-0.7459469
220	0xbfcb2011	-1.5869161
221	0x3fa7ac27	1.3099412
222	0x3e802a22	0.25032145
223	0xbe9ec7f8	-0.3101194
224	0x3e9085d0	0.2822709
225	0x3f00d18e	0.50319755
226	0x3eca265b	0.39482388
227	0x3f3f495c	0.7472131
228	0xbd5f46f9	-0.054511044
229	0xbcc3b65d	-0.023890669
230	0x3f11dd3a	0.5697819
231	0x3ef16d70	0.47153807
232	0x3e3d1ce9	0.1846806
233	0x3efc148f	0.49234435
234	0x3e8289ed	0.25495854
235	0x3f6b567c	0.9192884
236	0xbf59a911	-0.850236
237	0x3f39170f	0.7230081
238	0x3f648998	0.8927245
239	0xbf148e31	-0.58029467
240	0x3e968b72	0.29403263
241	0x3f3f4950	0.7472124
242	0xbf1f5918	-0.6224532
243	0xbecb234d	-0.3967537
244	0xbe0ef1a4	-0.13959366
245	0x3e0e4083	0.13891797
246	0xbf7a0a18	-0.9767165
247	0xbf7eef8c	-0.9958427
248	0xbf7913d1	-0.9729586
249	0xbe3e46cb	-0.18581693
250	0xbf8449d1	-1.0335027
251	0xbedf06ea	-0.43559963
252	0x3dfd5d21	0.123712786
253	0x3ed469a7	0.41486856
254	0xbd4ec71c	-0.050482854
255	0xbe9f133b	-0.3106936

block1.0.bn2_2.weight f4 [8]
0	0x3f33aaed	0.7018269
1	0xbf255c59	-0.64594036
2	0x3f1f1d99	0.6215454
3	0xbf813cb6	-1.0096653
4	0x3ed2d7ab	0.41180167
5	0x3fa208b1	1.2658902
6	0x3f94e589	1.1632549
7	0x3f23420a	0.6377264

block1.0.bn2_2.bias f4 [8]
0	0x3e3c62ed	0.18397112
1	0x3f66cc58	0.90155554
2	0x3f1afde3	0.6054365
3	0x3ed40b1d	0.4141473
4	0x3f1f1b19	0.6215072
5	0x3fa1b938	1.2634649
6	0xbe5332b8	-0.20624816
7	0x3faa0229	1.3281909

block1.0.bn2_2.running_mean f4 [8]
0	0xbfbd5b93	-1.4793571
1	0xc1083674	-8.513294
2	0xc1a0c309	-20.095232
3	0xc07927bf	-3.893051
4	0x4080d795	4.026316
5	0xbf021dc2	-0.50826657
6	0xc12ec58d	-10.92323
7	0x40cb9857	6.362346

block1.0.bn2_2.running_var f4 [8]
0	0x415755e1	13.458467
1	0x416a9578	14.661491
2	0x422c00e5	43.000874
3	0x4236c50a	45.69242
4	0x417e3619	15.888207
5	0x4122667f	10.150023
6	0x418877eb	17.058554
7	0x41bd1534	23.635353

block1.0.conv3_1.weight f4 [2, 16, 1, 1]
0	0x3f06dcbc	0.52680564
1	0x4070bac8	3.7614002
2	0x3f84cba8	1.0374651
3	0x3fa6ad3d	1.3021618
4	0x3e89c30f	0.2690663
5	0x3fbe18ed	1.4851357
6	0x3e283d0c	0.16429538
7	0x3fa8e15b	1.3193773
8	0x3cf785a7	0.030215098
9	0x3efe753b	0.49698815
10	0x3cfef735	0.031123737
11	0x3eafc0f0	0.34326887
12	0x3ff72165	1.9307066
13	0xbeef49d6	-0.4673602
14	0xbe349ce3	-0.17637973
15	0x403550d4	2.8330584
16	0x3de7fca0	0.11327481
17	0xbc46abbb	-0.012125905
18	0xbe5f9936	-0.21835789
19	0xbcec0c23	-0.028814381
20	0x3e4e9a17	0.20175968
21	0x3fae9c2b	1.3641409
22	0x3eeeda06	0.46650714
23	0x3e3f4844	0.18679911
24	0x3f5b70c0	0.8571892
25	0x3e7cb5fc	0.24678797
26	0xbc1a0aad	-0.009401959
27	0xbcf8be1f	-0.030364094
28	0x3f13dbe5	0.5775741
29	0x3f6d7cdc	0.92768645
30	0x3f086810	0.53283787
31	0xbf1698b1	-0.5882674

block1.0.bn3_1.weight f4 [2]
0	0x3f587392	0.84551346
1	0x3f45e554	0.7730305

block1.0.bn3_1.bias f4 [2]
0	0xbf5df31d	-0.86699086
1	0x3f4a0d00	0.78926086

block1.0.bn3_1.running_mean f4 [2]
0	0x415d3f33	13.8279295
1	0x40d8755b	6.7643256

block1.0.bn3_1.running_var f4 [2]
0	0x41bb3558	23.401047
1	0x4116e4d5	9.430867

block1.0.conv3_2.weight f4 [2, 2, 5, 5]
0	0x3e9cdbbd	0.30636397
1	0x3ef245cd	0.4731888
2	0x3e46b500	0.19404984
3	0xbee90a59	-0.45515707
4	0xbd7cb2bd	-0.061693896
5	0x3df505a4	0.119639665
6	0xbd499d30	-0.04922217
7	0xbf34b634	-0.7059052
8	0xbeea78c9	-0.45795277
9	0xbd3dc93f	-0.0463345
10	0x3fb2faca	1.3982785
11	0x3ee2546c	0.44205034
12	0xbda71a36	-0.08159296
13	0x3f83096c	1.023725
14	0x3ef34a00	0.47517395
15	0x3f22c7b1	0.63585955
16	0x3ed7e381	0.4216576
17	0x3e372bbd	0.17887779
18	0x3eac1e8c	0.33617055
19	0x3ebb3b29	0.36568573
20	0x3e19153e	0.1494951
21	0xbd38ff1f	-0.045165177
22	0xbe6cab45	-0.23112209
23	0x3f0f8801	0.560669
24	0xbee2e0b3	-0.44312057
25	0x3edf21f3	0.4358059
26	0x3eea4ad9	0.4576023
27	0x3e2ae19d	0.16687627
28	0x3cf7f8a7	0.030269934
29	0x3f6b5814	0.9193127
30	0xbd60ea23	-0.05491079
31	0xbe53b6d7	-0.20675217
32	0xbf4caa09	-0.79946953
33	0xbf63d9b6	-0.89004076
34	0x3d25e99e	0.040505998
35	0xbf5e7252	-0.8689319
36	0xbef87fd0	-0.48535013
37	0xbe49e9fc	-0.19718164
38	0xbea91650	-0.33024836
39	0xbf540820	-0.828249
40	0x3e7b2a0a	0.24527755
41	0x3d99ff94	0.07519451
42	0xbdbcd414	-0.09220138
43	0x3d155ece	0.036467366
44	0x3e3e4eaa	0.18584695
45	0xbded1fd0	-0.115783334
46	0xbb827826	-0.003981608
47	0xbebcae2c	-0.36851633
48	0xbeacb446	-0.33731288
49	0x3f07a649	0.52988106
50	0xbee423c9	-0.44558552
51	0xbea195b8	-0.3155954
52	0xbef38eae	-0.47569793
53	0x3d39cc4f	0.04536086
54	0x3db6c375	0.08923999
55	0xbd6c5090	-0.057694018
56	0xbe222206	-0.15833291
57	0x3dcae9bc	0.099078625
58	0x3f616e6d	0.8805912
59	0x3c9aefb4	0.018913127
60	0xbe7ff9aa	-0.24997583
61	0xbdc507c5	-0.096206225
62	0xbdcd57df	-0.10026526
63	0x3ecaf0a3	0.39636716
64	0xbe0f5ffd	-0.1400146
65	0xbe03add7	-0.12859283
66	0xbe805810	-0.25067186
67	0xbcd0b148	-0.02547516
68	0xbe98a190	-0.29810762
69	0xbecedd55	-0.40403238
70	0xbdb8925e	-0.09012292
71	0x3e04ae75	0.12957175
72	0xbe6845fa	-0.22682944
73	0x3de4f4e0	0.11179519
74	0x3eaddf7f	0.33959576
75	0x3f82ed3f	1.0228652
76	0x3ee3931e	0.4444818
77	0x3ec37ed5	0.38182703
78	0x3f375488	0.7161336
79	0x3f0f3071	0.5593329
80	0x3f8fc69f	1.1232489
81	0x3f7d3f41	0.9892464
82	0x3f737d48	0.9511304
83	0x3f538471	0.82623965
84	0x3f72bc74	0.94818807
85	0x3f757667	0.9588379
86	0x3f693ddb	0.9111001
87	0xbe329b08	-0.17441952
88	0xbc932923	-0.017963951
89	0xbe344a7d	-0.1760654
90	0x3f5bea80	0.85904694
91	0x3ef48bb9	0.4776285
92	0x3e3e9543	0.18611626
93	0x3d9103b9	0.07080788
94	0x3e82ab5e	0.25521368
95	0x3f132ce3	0.57490367
96	0x3e9c5991	0.30537084
97	0x3ed2c749	0.41167668
98	0x3d6c733f	0.057727095
99	0xbe81cc90	-0.2535138

block1.0.bn3_2.weight f4 [2]
0	0x3ed23e0a	0.41062957
1	0x3efdd058	0.49573016

block1.0.bn3_2.bias f4 [2]
0	0x3eeeb75d	0.4662427
1	0x3f004b2c	0.50114703

block1.0.bn3_2.running_mean f4 [2]
0	0xbfdacc3d	-1.7093579
1	0x41017804	8.091801

block1.0.bn3_2.running_var f4 [2]
0	0x40ac34f4	5.381464
1	0x41cf84be	25.939816

block1.0.conv4_1.weight f4 [2, 16, 1, 1]
0	0xbed6a961	-0.419261
1	0xbf076a93	-0.52896994
2	0x3e6d4bff	0.23173521
3	0xbeeb7c50	-0.4599328
4	0x3e238183	0.15967374
5	0xbe986031	-0.29760888
6	0x3e15c39a	0.14625397
7	0x3dbb74d6	0.09153144
8	0x3ccbb1d1	0.024865063
9	0x3e8cc4d9	0.27493933
10	0x3e46473e	0.19363114
11	0xbe6febe8	-0.23429835
12	0x3cd92ed1	0.026511582
13	0xbe4f9477	-0.20271479
14	0xbeb6da50	-0.35713434
15	0x3a00608f	0.0004897201
16	0xc00d6c8b	-2.20975
17	0xbdf6e074	-0.1205453
18	0xbf816d95	-1.0111567
19	0xbf3deee6	-0.74192655
20	0xbec72da0	-0.38901997
21	0x3f250a3a	0.6446873
22	0x3e5db8d6	0.2165254
23	0x3ec8061f	0.3906717
24	0xbf21ba3b	-0.6317479
25	0xbe8dbf29	-0.27684906
26	0xbeae6527	-0.34061548
27	0xbecd9407	-0.40151998
28	0x3d18bf0f	0.037291583
29	0x3e8d820a	0.27638274
30	0xbe13a83f	-0.1441965
31	0x3dfb0898	0.122574985

block1.0.bn4_1.weight f4 [2]
0	0x3e0ffbe5	0.14060934
1	0x3fcebf9a	1.6152222

block1.0.bn4_1.bias f4 [2]
0	0xbe9ab2dc	-0.30214584
1	0x3e8ce936	0.27521676

block1.0.bn4_1.running_mean f4 [2]
0	0xc086e772	-4.2157526
1	0xc1308377	-11.032096

block1.0.bn4_1.running_var f4 [2]
0	0x4037d2e5	2.872247
1	0x4208853d	34.130116

block1.1.conv1_1.weight f4 [4, 16, 1, 1]
0	0xbfa8305b	-1.3139757
1	0x3f0eea9a	0.55826724
2	0xbffa04b6	-1.9532688
3	0xbf203c95	-0.6259244
4	0xbe27ac10	-0.1637423
5	0xbf4b4921	-0.7940846
6	0xbdb229f0	-0.08699405
7	0x3f93dbc9	1.1551448
8	0x3edb66f4	0.42851985
9	0x3f507cfe	0.8144072
10	0x3ebf123e	0.37318605
11	0xbf0c4540	-0.5479317
12	0xbf3b2f4f	-0.7311906
13	0x3f5152f2	0.8176719
14	0xbceb4b90	-0.028722554
15	0xbda910f4	-0.08255187
16	0x3e80146a	0.25015575
17	0x3f0c7272	0.5486213
18	0xbea3910c	-0.319466
19	0x3f1fbd0b	0.6239783
20	0x3f497303	0.7869112
21	0xbebd5ec2	-0.36986357
22	0x3daba2f2	0.08380689
23	0xbe85d22d	-0.26136914
24	0xbf63c9c0	-0.8897972
25	0x3d06c5b1	0.032903377
26	0x3f602dd3	0.8756992
27	0xbf97a3a2	-1.1846812
28	0x3ee2ea34	0.44319308
29	0xbeb344b7	-0.35013363
30	0xbf2d0842	-0.67590725
31	0x3cfbaa18	0.030720755
32	0x3f96dc8b	1.1786054
33	0x3ecf99d0	0.40547037
34	0x3f8521c3	1.0400928
35	0xbdaf720f	-0.08566677
36	0xbcf6604c	-0.030075215
37	0xbe2dfd60	-0.16991186
38	0x3f429413	0.76007193
39	0xbec9f9b6	-0.39448327
40	0x3d8f7d6a	0.07006343
41	0xbc15d38c	-0.009144675
42	0xbddc5de9	-0.107600994
43	0x3ecd81ce	0.40138096
44	0x3f0eacad	0.5573223
45	0x3e9c7318	0.3055656
46	0xbda877ae	-0.08225952
47	0x3e4d9e99	0.20080031
48	0xbf1f20f6	-0.6215967
49	0xbf831981	-1.0242158
50	0xbde7a4dc	-0.11310741
51	0xbf040d6e	-0.5158299
52	0xbee2870c	-0.44243658
53	0xbef1e1bc	-0.47242534
54	0xbf506573	-0.814048
55	0xbed66059	-0.41870382
56	0x3f0bb8e0	0.5457897
57	0xbfe08e82	-1.754349
58	0xbf410109	-0.75392205
59	0x3eaaadd4	0.33335745
60	0x3f2280bd	0.6347769
61	0x3e3cfefd	0.18456645
62	0x3ed30190	0.4121213
63	0xbd203584	-0.039113536

block1.1.bn1_1.weight f4 [4]
0	0x3fad7cdd	1.355373
1	0x3f9566f1	1.167204
2	0x3fbe4e90	1.4867725
3	0x3f69df28	0.91356134

block1.1.bn1_1.bias f4 [4]
0	0x401082d2	2.2579846
1	0x3e680146	0.22656736
2	0xbf427c94	-0.7597134
3	0x3fc5154d	1.5397125

block1.1.bn1_1.running_mean f4 [4]
0	0xc0b0f5c3	-5.53
1	0xbf1b734e	-0.60722816
2	0x40920947	4.5636325
3	0xc0aea22c	-5.4572964

block1.1.bn1_1.running_var f4 [4]
0	0x4186c667	16.846876
1	0x407de515	3.967107
2	0x40b412fd	5.627318
3	0x40ea57d2	7.3232203

block1.1.conv2_1.weight f4 [8, 16, 1, 1]
0	0xbe794bf7	-0.24345385
1	0xbe062e53	-0.13103609
2	0x3e53a5d9	0.20668735
3	0xbbc77ede	-0.006088122
4	0x3de68034	0.112549216
5	0xbf5fc810	-0.87414646
6	0x3f54de85	0.8315204
7	0xbf676908	-0.9039464
8	0xbeabf185	-0.33582702
9	0x3d0bdced	0.034146238
10	0x3d375370	0.044757307
11	0xbf663868	-0.8992982
12	0xbf1b8103	-0.6074373
13	0x3eaf3477	0.34219715
14	0xbed666ef	-0.41875407
15	0xbee52340	-0.44753456
16	0xbe5a9a6e	-0.21347973
17	0x3ff1a7be	1.8879316
18	0xbe0a4e67	-0.1350647
19	0xbf6749f2	-0.90347207
20	0x3eb2e233	0.349382
21	0xbf01d906	-0.50721776
22	0xbf2a0209	-0.66409355
23	0xbeb9026e	-0.36134666
24	0x3e999872	0.2999912
25	0xbf7195d7	-0.9436926
26	0xbe829de4	-0.25511086
27	0x3ed9b017	0.42517158
28	0xbbebfef8	-0.0072020255
29	0x3e840345	0.25783744
30	0x3e1ed14a	0.15509525
31	0x3f4b218d	0.7934807
32	0x3ec45cc9	0.3835204
33	0xbf4a0ce3	-0.78925914
34	0x3ed6eddb	0.41978344
35	0xbe2f3464	-0.17109829
36	0x3f48a839	0.7838169
37	0xbbe92b01	-0.007115722
38	0xbf01c7d8	-0.5069556
39	0xbe3bace6	-0.18327674
40	0x3d71c94c	0.059029862
41	0xbeb6cd4f	-0.35703513
42	0x3f8b4118	1.087924
43	0x3fe47301	1.7847596
44	0x3c368cf8	0.011142008
45	0x3f324fab	0.69652814
46	0xbed81082	-0.42200094
47	0xbdcdd55e	-0.10050462
48	0x3f2be613	0.6714794
49	0x3ebc7395	0.36806932
50	0xbea8606d	-0.32886067
51	0xbe682691	-0.22670962
52	0xbde77215	-0.11301056
53	0x3db57fbf	0.08862256
54	0xbf4c9ad5	-0.79923755
55	0xbd29e2fc	-0.041476235
56	0x3e71b02f	0.23602365
57	0x3f4b1958	0.79335546
58	0xbdd20463	-0.10254743
59	0xbf50b2e9	-0.81522995
60	0xbd997398	-0.07492751
61	0x3ee57e18	0.44822764
62	0xbd06e25c	-0.032930717
63	0xbcd8fb1b	-0.026486924
64	0xbd9ab846	-0.075546786
65	0x3ea8f67b	0.3300055
66	0x3f4b02a3	0.793009
67	0x3f715583	0.94271106
68	0xbe1c7e3f	-0.15282534
69	0xbc44d3c6	-0.012013381
70	0x3eea7453	0.45791873
71	0xbeb95a74	-0.36201823
72	0xbed1d92b	-0.40986
73	0x3f02acb3	0.5104477
74	0x3f92d26e	1.1470468
75	0xbebbcbc3	-0.36678895
76	0xbe04e764	-0.12978894
77	0xbeb9e309	-0.36306027
78	0xbf077e8a	-0.5292746
79	0xbe91cd9f	-0.2847719
80	0x3e7d9819	0.24765052
81	0xbdc8cf76	-0.09805195
82	0xbd905f28	-0.070493996
83	0xc0085138	-2.1299572
84	0x3ef53a70	0.47896147
85	0xbf1ec761	-0.6202298
86	0x3d4e9805	0.050437946
87	0x3f4a35ae	0.7898816
88	0x3c9a3ff9	0.018829333
89	0x3e01d28d	0.12677975
90	0xbe000d51	-0.1250508
91	0x3fa27297	1.269122
92	0xbd4db5de	-0.05022227
93	0xbdc82b89	-0.09773929
94	0x3f33ead3	0.7028019
95	0xbd3f500a	-0.04670719
96	0x3e2b24b0	0.16713214
97	0xbef9c2b7	-0.48781368
98	0x3f5e52a6	0.8684486
99	0x3f765fc2	0.96239865
100	0xbe63fb47	-0.22263823
101	0xbd1d2d87	-0.038373496
102	0xbec33f83	-0.38134393
103	0x3e558c78	0.20854366
104	0x3e9f0d30	0.3106475
105	0x3f0aad98	0.54171133
106	0x3e8f76a1	0.28020194
107	0xbec5c6f0	-0.3862834
108	0x3e44a71b	0.1920437
109	0xbe65ff75	-0.2246073
110	0xbe90cd25	-0.28281513
111	0xbf0f9333	-0.56083983
112	0x3e9759c0	0.2956066
113	0x3f00344a	0.50079787
114	0x3e2bd863	0.16781764
115	0xbe9eef15	-0.3104178
116	0xbed92bed	-0.42416325
117	0x3e903c5d	0.28171054
118	0x3ee877c5	0.45403877
119	0xbf7bdb7d	-0.9838179
120	0xbf71affd	-0.9440916
121	0xbe540d45	-0.20708187
122	0x3f13a31f	0.5767078
123	0x3ea1b245	0.3158132
124	0xbf054700	-0.5206146
125	0xbd56ab37	-0.052409377
126	0xbe484f40	-0.19561481
127	0xbeb8d8bd	-0.36102858

block1.1.bn2_1.weight f4 [8]
0	0x3f151341	0.58232504
1	0x3f9d3895	1.2282892
2	0x3f7e6c43	0.99383944
3	0x3e732d9f	0.23747872
4	0x3edd42b3	0.4321495
5	0x3fb5df58	1.4208784
6	0x3de61ad0	0.11235583
7	0x3d7100b9	0.05883858

block1.1.bn2_1.bias f4 [8]
0	0xbd30f7b4	-0.043204978
1	0x3f985fbb	1.1904215
2	0xbf15cbfa	-0.5851437
3	0xbf23e1d8	-0.64016485
4	0xbf0a9966	-0.5414032
5	0x3f6ca593	0.92440146
6	0xbeee3018	-0.46521068
7	0xbe6b9d66	-0.23009261

block1.1.bn2_1.running_mean f4 [8]
0	0xc021d771	-2.5287745
1	0xc00c260e	-2.1898227
2	0x40373257	2.8624475
3	0xbecd09d6	-0.40046567
4	0x4064516d	3.5674698
5	0xc024fef2	-2.5780606
6	0x405df573	3.468106
7	0xbf43bb67	-0.7645783

block1.1.bn2_1.running_var f4 [8]
0	0x403f2672	2.9867215
1	0x40ba20b3	5.8164916
2	0x4097275a	4.7235537
3	0x3fac3bbc	1.345573
4	0x4078917c	3.8838797
5	0x40796f0a	3.8974023
6	0x4044ee95	3.077062
7	0x3f852589	1.040208

block1.1.conv2_2.weight f4 [8, 8, 3, 3]
0	0xbec13253	-0.37733707
1	0xbf567aa4	-0.83780885
2	0xbdc2bbf1	-0.09508503
3	0xbdf83a87	-0.12120538
4	0xbe44c52f	-0.19215845
5	0x3d98c7c9	0.07459981
6	0x3d497d84	0.049191967
7	0x3e012281	0.12610818
8	0x3e286804	0.16445929
9	0xbead913c	-0.33899868
10	0x3e07b1d9	0.13251437
11	0xbeeaa28e	-0.45827144
12	0x3eb96018	0.36206126
13	0x3f86c315	1.0528284
14	0xbc8251b3	-0.015908098
15	0x3f613977	0.8797831
16	0x3f9956ac	1.1979575
17	0x3e130a3d	0.14359374
18	0xbedfe5b3	-0.43729934
19	0xbd873212	-0.06601347
20	0xbed6c798	-0.41949153
21	0x3d7e50f5	0.062088925
22	0xbdd62a50	-0.10457289
23	0x3d3c4822	0.04596723
24	0xbe54f2e4	-0.2079578
25	0x3e6aa04b	0.2291271
26	0x3d652196	0.055940233
27	0x3f3fbaca	0.7489439
28	0x3efac562	0.48978716
29	0x3d418eb4	0.047255233
30	0x3f3cebfd	0.7379759
31	0x3ecd4dfe	0.40098566
32	0x3e27ba0c	0.16379565
33	0x3f9dfbcb	1.2342466
34	0x3ec586cd	0.38579407
35	0xbd1efd97	-0.03881606
36	0xbe7897c3	-0.24276643
37	0x3e0fd502	0.140461
38	0x3ee80feb	0.45324644
39	0xbe5e7a6d	-0.21726389
40	0x3f31205b	0.69189996
41	0x3f415cfb	0.755325
42	0x3dc9e14d	0.09857426
43	0x3f5a6ed3	0.85325354
44	0x3ef5113c	0.4786471
45	0xbedc60b8	-0.4304254
46	0xbee82cec	-0.45346773
47	0xbe220b23	-0.15824561
48	0xbe1b4bcf	-0.15165637
49	0x3f6f1992	0.9339839
50	0xbdbf9744	-0.093550235
51	0xbdda1b63	-0.10649755
52	0x3e16763f	0.14693545
53	0xbd8628d1	-0.06550754
54	0xbe055b80	-0.13023186
55	0xbcc38e65	-0.02387161
56	0x3e0ce436	0.1375893
57	0x3e69d6a5	0.22835787
58	0x3e96918e	0.29407924
59	0x3c581efb	0.01319098
60	0x3e3fbe18	0.18724859
61	0x3e845ebe	0.25853533
62	0x3ecb892f	0.397531
63	0x3d5bae5f	0.05363309
64	0x3eba3149	0.36365727
65	0xbe080084	-0.13281447
66	0xbe7ba399	-0.24574126
67	0xbd3326a4	-0.043738022
68	0xbed3fc81	-0.41403583
69	0xbd7ef9e4	-0.062250033
70	0xbed9ba32	-0.42524868
71	0xbe6fd08a	-0.23419395
72	0xbebf4d5b	-0.37363705
73	0x3d85a07f	0.06524753
74	0xbdd06c0c	-0.10176858
75	0x3df8378b	0.12119969
76	0x3f4a421c	0.79007125
77	0x3e7d50d6	0.24737868
78	0xbd2409a2	-0.04004825
79	0xbb849bc9	-0.0040468914
80	0x3e651118	0.22369802
81	0xbe0a6b8e	-0.13517591
82	0xbe4ba4f8	-0.1988715
83	0xbe842ef4	-0.25817072
84	0x3eb434fd	0.35196677
85	0x3e58ae8b	0.21160333
86	0xbd11489d	-0.03546964
87	0x3ec4a9b9	0.38410738
88	0xbd867393	-0.06565013
89	0xbd342dcb	-0.043988984
90	0x3f05ff22	0.52342427
91	0x3edff7c2	0.43743712
92	0x3f33956c	0.70149875
93	0xbed3cea3	-0.4136859
94	0x3e718e19	0.23589362
95	0x3ed01e5e	0.40648168
96	0xbedddab2	-0.43330914
97	0xbf206828	-0.6265893
98	0xbe0eaeb1	-0.13933827
99	0xbe9564ed	-0.29178563
100	0xbe3e2c98	-0.18571699
101	0x3e390903	0.18069844
102	0xbedd1242	-0.43177992
103	0xbe601c2e	-0.2188575
104	0xbe1a7671	-0.15084244
105	0x3edb95eb	0.42887816
106	0x3ed09b0f	0.407433
107	0x3e4c0b01	0.19926073
108	0x3da17419	0.07883472
109	0xbf123d97	-0.5712523
110	0xbef3bfa6	-0.47607154
111	0x3eea42f3	0.45754203
112	0x3ed92d81	0.4241753
113	0xbe92c369	-0.2866471
114	0x3e22df74	0.15905553
115	0xbdad4ccb	-0.08461913
116	0xbe2bf41c	-0.16792339
117	0x3e908bc0	0.2823162
118	0x3f3e9212	0.74441636
119	0x3b8a2c39	0.0042166975
120	0xbc6ed315	-0.014576693
121	0x3efbf40c	0.4920963
122	0xbd5e8d5a	-0.054334022
123	0xbeeeaf80	-0.4661827
124	0xbf22e187	-0.6362538
125	0xbe861008	-0.26184106
126	0x3e769433	0.24079971
127	0xbbd98872	-0.00663858
128	0x3cef2934	0.029194452
129	0xbb3ddc00	-0.0028970242
130	0x3e8b3b9a	0.2719391
131	0x3e95032e	0.29103988
132	0xbca55975	-0.020184258
133	0xbed3da6f	-0.4137759
134	0x3d8d790d	0.06907854
135	0xbdec6e05	-0.11544422
136	0xbe45c699	-0.1931404
137	0x3e0d0048	0.13769639
138	0x3eebd475	0.4606053
139	0x3dc07f85	0.093993224
140	0xbe018dad	-0.12651701
141	0x3ea3f8c2	0.32025725
142	0x3f269913	0.6507732
143	0xbc0a2dab	-0.00843374
144	0x3e1c6f95	0.1527694
145	0xbe9fabc3	-0.3118573
146	0xbdfbdf7f	-0.12298488
147	0xbe25d6ef	-0.16195272
148	0xbf1a1132	-0.6018249
149	0xbf26f5b1	-0.65218645
150	0x3df560e5	0.11981372
151	0x3e7311bf	0.23737238
152	0x3ec5f626	0.3866436
153	0xbe997510	-0.29972124
154	0xbedd6b87	-0.432461
155	0xbe8617f5	-0.26190153
156	0xbd1a857d	-0.03772496
157	0xbe1e366f	-0.15450452
158	0x3e198584	0.14992338
159	0x3ea3e7ad	0.32012692
160	0x3ec4a9ac	0.384107
161	0x3f8ee14a	1.1162503
162	0xbea33015	-0.3187262
163	0x3eb2d3c9	0.34927204
164	0x3f3bdd4f	0.73384565
165	0x3db31e76	0.08746044
166	0x3f301fd9	0.68798596
167	0x3f6deb52	0.92937195
168	0xbe4c5432	-0.19953993
169	0xbe60b0c8	-0.21942437
170	0x3d51ab09	0.051188502
171	0x3d841f22	0.064512506
172	0x3d84b539	0.06479878
173	0xbe5ce923	-0.2157331
174	0xbeb5a037	-0.35473797
175	0x3e10500b	0.14093034
176	0x3d9f45ed	0.07777009
177	0xbce10734	-0.027469255
178	0x3e0f889c	0.14016956
179	0x3dcf0640	0.10108614
180	0x3db8615e	0.09002946
181	0xbdc072b6	-0.093968794
182	0x3e6d7ff5	0.23193343
183	0xbe29a93c	-0.16568464
184	0xbe1b25ce	-0.1515114
185	0xbe419ff0	-0.18908668
186	0xbe6743c2	-0.22584441
187	0x3dc9cc9b	0.098534785
188	0x3d3f14cc	0.046650693
189	0x3e84ad67	0.25913545
190	0x3e79fe80	0.2441349
191	0x3f4ac893	0.792123
192	0x3e8e1b82	0.27755362
193	0xbe9eec6e	-0.31039757
194	0x3ef39cca	0.47580558
195	0xbe259e2a	-0.16173616
196	0xbfada820	-1.3566933
197	0xbe685859	-0.22689952
198	0x3eceb47f	0.40372083
199	0x3f0c914d	0.5490921
200	0x3f0b8920	0.5450611
201	0x3d2e1fad	0.042510677
202	0x3e018ad4	0.12650615
203	0x3ebf9941	0.3742161
204	0x3ebaf2aa	0.36513263
205	0x3e40e373	0.18836765
206	0x3df1383d	0.11778305
207	0x3dc4282c	0.09577975
208	0xbd52ea97	-0.051493254
209	0xbe6d1794	-0.23153526
210	0x3b94a03a	0.004535702
211	0x3e959599	0.29215696
212	0xbe6f21de	-0.23352763
213	0xbea75272	-0.32680088
214	0xbdc2aeb7	-0.095059805
215	0xbdb4dba7	-0.08830958
216	0xbee89647	-0.45427153
217	0xbf2c2636	-0.67245805
218	0xbec0524b	-0.37562785
219	0xbf1a3899	-0.6024261
220	0xbf2770f6	-0.6540674
221	0xbe4e2f60	-0.2013526
222	0xbf1b8d5b	-0.60762566
223	0xbf0ef4be	-0.55842197
224	0xbecdace5	-0.4017097
225	0x3e5c0914	0.21487838
226	0x3e842af9	0.25814036
227	0xbe049a15	-0.12949403
228	0x3f429640	0.76010513
229	0x3f39e0ac	0.7260845
230	0x3e65ebc2	0.22453216
231	0x3f370d9f	0.7150516
232	0x3ede232d	0.43386212
233	0x3e1b3781	0.15157892
234	0xbd029d85	-0.031888504
235	0x3dc47453	0.095924996
236	0x3f21a256	0.6313833
237	0x3e9ae6ff	0.3025436
238	0x3edfea4d	0.43733445
239	0x3efe454d	0.49662247
240	0xbe067e14	-0.13134032
241	0x3daaa3d5	0.0833203
242	0x3d956b19	0.07295818
243	0xbe326d28	-0.17424452
244	0x3f040c47	0.51581234
245	0x3ea4ed3b	0.32212242
246	0xbf1269fb	-0.57192963
247	0xbdd46d53	-0.103724144
248	0x3e4846ad	0.1955821
249	0xbd2592c9	-0.04042319
250	0x3ecd1e9b	0.40062413
251	0x3ed8e134	0.42359316
252	0xbe8cbb6f	-0.2748675
253	0x3c0feba4	0.008784208
254	0x3ee755a8	0.45182538
255	0xbd6c9854	-0.05776246

block1.1.bn2_2.weight f4 [8]
0	0x3f72cd0f	0.94844145
1	0x3f2ef4da	0.68342364
2	0x3f60e1fc	0.87844825
3	0x3f70ab65	0.9401153
4	0x3f77fc86	0.96869695
5	0x3e8d729c	0.27626503
6	0x3f59c9e7	0.85073704
7	0x3edd4f04	0.43224347

block1.1.bn2_2.bias f4 [8]
0	0x3f286e87	0.6579365
1	0xbeb20f9a	-0.34777528
2	0xbe919c34	-0.28439486
3	0xbec03705	-0.37541977
4	0x3f1d6fd2	0.6149875
5	0x3efa63b2	0.48904186
6	0x3eb717a0	0.35760212
7	0xbf032a65	-0.51236564

block1.1.bn2_2.running_mean f4 [8]
0	0x404d2469	3.2053473
1	0x3f2d3bbd	0.6766928
2	0x3f81aac8	1.0130243
3	0x40bd4f12	5.915902
4	0xbf978e70	-1.1840343
5	0xc02c7bda	-2.6950593
6	0xbfbecf2c	-1.4906974
7	0xc0868410	-4.203621

block1.1.bn2_2.running_var f4 [8]
0	0x412eb0bb	10.918147
1	0x401132ef	2.2687337
2	0x40a3e396	5.1215315
3	0x41e037f1	28.027315
4	0x4105a762	8.353365
5	0x411970ba	9.590021
6	0x4176aa5f	15.4165945
7	0x413868af	11.5255575

block1.1.conv3_1.weight f4 [2, 16, 1, 1]
0	0x3f0f163f	0.5589332
1	0xbe942300	-0.28932953
2	0xbe758654	-0.23977023
3	0xbe2afda7	-0.16698323
4	0xbe89344c	-0.26797712
5	0x3e8f4399	0.2798126
6	0x3e96f81a	0.2948616
7	0xbed39b49	-0.4132941
8	0x3df81ce2	0.12114884
9	0x3f7f985a	0.99841845
10	0x3ec52039	0.38501146
11	0xbd4b051e	-0.049565427
12	0x3f5ab78e	0.8543633
13	0xbeb3f865	-0.35150447
14	0xbc47b77e	-0.012189744
15	0xbd6abd62	-0.057309516
16	0xbc847193	-0.016167438
17	0x3b61a060	0.0034427866
18	0x3f898eeb	1.074674
19	0x3eb9c52c	0.36283243
20	0xbe40a45c	-0.18812698
21	0xbf5c6dc4	-0.8610499
22	0x3f1625e8	0.5865159
23	0xbef4bb7f	-0.47799298
24	0xbf078add	-0.52946264
25	0xbca2e55e	-0.019884761
26	0x3e9091d0	0.28236246
27	0x3e52236c	0.20521325
28	0x3d86f9ce	0.06590615
29	0x3ea26995	0.31721178
30	0xbe0db003	-0.13836674
31	0xbeea3abf	-0.45747945

block1.1.bn3_1.weight f4 [2]
0	0x3f751a8f	0.9574365
1	0x3f2e0715	0.67979556

block1.1.bn3_1.bias f4 [2]
0	0x3db9029f	0.09033703
1	0xbeff61d1	-0.49879315

block1.1.bn3_1.running_mean f4 [2]
0	0x3fb55399	1.4166137
1	0x3ff910c4	1.9458241

block1.1.bn3_1.running_var f4 [2]
0	0x3fcc0e9e	1.5941961
1	0x4090cd4a	4.5250597

block1.1.conv3_2.weight f4 [2, 2, 5, 5]
0	0x3c47f59e	0.012204556
1	0x3dcb3570	0.09922302
2	0xbef8154e	-0.48453754
3	0xbea5d62d	-0.32389966
4	0x3df85d7d	0.121272065
5	0xbecdb217	-0.40174934
6	0x3eb75507	0.35807058
7	0x3e71433d	0.23560806
8	0xbeaef3b8	-0.34170318
9	0xbe940cc6	-0.28915995
10	0x3dd5c2cd	0.10437546
11	0x3e401705	0.18758781
12	0xbe509f76	-0.2037333
13	0xbed7e3f1	-0.42166093
14	0xbeb7fb10	-0.35933733
15	0x3e11dcdb	0.14244406
16	0xbe95025a	-0.29103357
17	0xbea9f3eb	-0.33193907
18	0xbedf55d0	-0.43620157
19	0xbdcd1f95	-0.100157894
20	0x3e5092bc	0.20368475
21	0x3e6283bd	0.22120567
22	0xbe920ee5	-0.2852699
23	0xbeb3a1fd	-0.35084525
24	0xbd9b7421	-0.07590509
25	0xbe1bb698	-0.15206373
26	0x3d6bccce	0.057568364
27	0xbe13fa95	-0.14451058
28	0x3c1f5d23	0.009726795
29	0xbeb1016f	-0.34571406
30	0x3d92c0f0	0.07165706
31	0xbeb78a1e	-0.35847563
32	0x3c89a0f1	0.016800376
33	0xbe59268a	-0.21206108
34	0xbe685e3e	-0.226922
35	0xbdb70a82	-0.08937551
36	0x3e24c327	0.1609007
37	0x3ed4b849	0.41546848
38	0xbe369674	-0.17830831
39	0xbec92d3b	-0.3929232
40	0x3d6ed752	0.058310814
41	0xbdee8267	-0.11645966
42	0x3e89dce0	0.26926327
43	0xbd401724	-0.04689707
44	0xbe6d1889	-0.2315389
45	0x3de20dbe	0.11037777
46	0xbdf6b5c3	-0.12046387
47	0x3ded40ab	0.115846
48	0x3e9dd297	0.3082473
49	0xbe832298	-0.2561233
50	0xbdf5a214	-0.119938046
51	0xbddc0f05	-0.10745052
52	0xbe94b659	-0.2904537
53	0xbbe808c8	-0.007081125
54	0xbc5a524d	-0.013325286
55	0xbda9f54f	-0.08298742
56	0xbe0c721b	-0.13715403
57	0xbdf0a6bf	-0.11750554
58	0xbc74affd	-0.014934537
59	0xbe183c72	-0.14866808
60	0x3f1b3fab	0.60644025
61	0x3e6ab08c	0.2291891
62	0x3eee6ba0	0.46566486
63	0x3f0648da	0.5245491
64	0x3f2dc237	0.67874473
65	0x3bd8e229	0.0066187573
66	0xbe9ade2b	-0.30247626
67	0xbe7e7333	-0.24848633
68	0xbe1add20	-0.15123415
69	0xbe980bee	-0.29696602
70	0x3e09d4c4	0.1346007
71	0xbe4badf5	-0.19890578
72	0xbe29d318	-0.16584432
73	0xbde296e5	-0.11063937
74	0xbe94750d	-0.28995553
75	0xbec6cb77	-0.38827106
76	0x3cf71e73	0.030165887
77	0x3e78804f	0.24267696
78	0x3e7af0e1	0.2450595
79	0x3e657581	0.22408105
80	0xbdf1a084	-0.11798194
81	0x3ab943a4	0.0014134538
82	0x3dc6edb7	0.09713309
83	0x3efe23f0	0.49636793
84	0x3e5fd93a	0.21860209
85	0xbe12b308	-0.14326108
86	0xbe9b7353	-0.30361423
87	0xbcaa78e6	-0.020809602
88	0x3ef343ab	0.47512564
89	0x3e0b6e8f	0.13616394
90	0x3e5a3d89	0.21312536
91	0x3df56a30	0.11983144
92	0x3e76ff36	0.24120793
93	0x3f2836b8	0.65708494
94	0x3f050775	0.51964504
95	0x3eb2aad9	0.3489597
96	0x3e41bcea	0.18919721
97	0x3e65f051	0.22454955
98	0x3d6935d4	0.0569361
99	0x3e35f03e	0.17767426

block1.1.bn3_2.weight f4 [2]
0	0x3f200eaf	0.62522405
1	0x3f44e067	0.7690491

block1.1.bn3_2.bias f4 [2]
0	0x3e80fe33	0.2519394
1	0xbf90e417	-1.1319607

block1.1.bn3_2.running_mean f4 [2]
0	0xbf826f1c	-1.0190158
1	0x3eadaf59	0.33922842

block1.1.bn3_2.running_var f4 [2]
0	0x3fa6681e	1.3000524
1	0x40498298	3.1485958

block1.1.conv4_1.weight f4 [2, 16, 1, 1]
0	0x3fb46250	1.4092503
1	0xbeb390c7	-0.35071394
2	0x3e059902	0.13046649
3	0x3efc4e04	0.4927827
4	0xbeb59d6f	-0.35471675
5	0x3eaa39b7	0.33247158
6	0xbeebd7b5	-0.4606301
7	0x3e1e1eb8	0.15441406
8	0x3d59680f	0.053077754
9	0xbcec34e0	-0.028833807
10	0xbec4a8f7	-0.3841016
11	0xbe1b8874	-0.15188771
12	0x3e7ec2bb	0.24878971
13	0xbf18f904	-0.5975497
14	0xbe124ebc	-0.14287847
15	0xbe98d22e	-0.29847854
16	0xbe2657f7	-0.16244493
17	0xbf08a8d5	-0.5338262
18	0x3eb968bb	0.36212716
19	0x3e121346	0.14265165
20	0xbe23624a	-0.15955463
21	0xbe2189ea	-0.15775266
22	0x3e8befc5	0.27331367
23	0x3cd79a05	0.02631856
24	0xbdfcf360	-0.123511076
25	0xbea2c416	-0.31790227
26	0x3ec034ca	0.37540275
27	0x3cdc7578	0.026911482
28	0x3ed58e34	0.41710055
29	0x3f013edc	0.5048654
30	0x3e80cf69	0.2515824
31	0x402d6d61	2.709801

block1.1.bn4_1.weight f4 [2]
0	0x3fa1014a	1.2578518
1	0x3f4fbafa	0.8114468

block1.1.bn4_1.bias f4 [2]
0	0xbf1be609	-0.6089788
1	0x3fd88337	1.6915044

block1.1.bn4_1.running_mean f4 [2]
0	0x401178d4	2.2729998
1	0x4080718d	4.013861

block1.1.bn4_1.running_var f4 [2]
0	0x40324e90	2.786045
1	0x40b92931	5.7862782

block1.2.conv1_1.weight f4 [4, 16, 1, 1]
0	0x3e7b6889	0.24551596
1	0xbe0f77b8	-0.14010513
2	0xbf1403e8	-0.5781846
3	0xbdec1f83	-0.11529448
4	0x3f616080	0.8803787
5	0xbec84192	-0.39112526
6	0xbe784c25	-0.24247797
7	0x3f4e10a0	0.8049412
8	0x3e278375	0.1635874
9	0x3e820e30	0.2540145
10	0xbef60062	-0.48047167
11	0x3e6df0ee	0.23236439
12	0x3e54a6ca	0.2076675
13	0xbf18c657	-0.5967764
14	0xbf2afb1a	-0.667894
15	0x3fe24186	1.7676246
16	0xbe00dbd0	-0.12583852
17	0x3ce4793e	0.027889844
18	0xbe35fd6d	-0.17772456
19	0x3ebfc045	0.37451378
20	0x3e3c0cda	0.18364277
21	0x3dbbce1d	0.09170172
22	0xbecf5f62	-0.4050246
23	0x3f5772b5	0.84159404
24	0x3dad57c5	0.08464006
25	0x3ed625e4	0.41825783
26	0xbf18347b	-0.5945508
27	0xbe9a7946	-0.3017065
28	0x3d118e28	0.03553596
29	0xbe652c10	-0.2238009
30	0xbe69c228	-0.22827971
31	0x3f3ba1d0	0.7329378
32	0x40144d53	2.3172195
33	0x3f808685	1.0041052
34	0xbf4c08be	-0.7970084
35	0xbf925aba	-1.1433938
36	0x3ef6698d	0.48127404
37	0x3d08d496	0.033405863
38	0x3e0dd4ac	0.13850659
39	0x3ec90e7c	0.39268863
40	0x3e33734c	0.17524451
41	0x3da9f2f3	0.08298292
42	0x3f141bb9	0.578548
43	0xbceb7730	-0.028743356
44	0xbea3d939	-0.32001665
45	0xbe13191c	-0.14365047
46	0xbcf4aaea	-0.029866654
47	0x3e3ba99c	0.1832642
48	0x3e49b249	0.19696917
49	0x3f2e4ce4	0.68086076
50	0xbf4f96b5	-0.81089336
51	0xbda98222	-0.08276774
52	0xbd961421	-0.07328058
53	0x3ed10256	0.40822095
54	0x3f264edb	0.64964074
55	0xbf08e7f4	-0.5347893
56	0x3f8a642a	1.0811818
57	0x3ead8be4	0.3389579
58	0xbe1b81b4	-0.15186197
59	0xbd9789ce	-0.07399331
60	0xbeaf906d	-0.34289876
61	0xbe824c55	-0.25448862
62	0xbe1db705	-0.15401848
63	0x3da3352a	0.079691246

block1.2.bn1_1.weight f4 [4]
0	0x3f6d3b5f	0.9266872
1	0x3cd7934b	0.026315352
2	0x3fc67d5b	1.5507005
3	0x3f476a54	0.7789662

block1.2.bn1_1.bias f4 [4]
0	0x3f8cd193	1.1001457
1	0xbe41bf56	-0.18920645
2	0x4015b72e	2.3393054
3	0x3ea94863	0.3306304

block1.2.bn1_1.running_mean f4 [4]
0	0x406fb860	3.7456284
1	0x3fd690d0	1.6762943
2	0x4099d5bf	4.807342
3	0x3fa1de22	1.2645915

block1.2.bn1_1.running_var f4 [4]
0	0x40a1d52d	5.0572724
1	0x3f88e8fd	1.0696102
2	0x4195854d	18.690088
3	0x3fc8a57e	1.5675504

block1.2.conv2_1.weight f4 [8, 16, 1, 1]
0	0xbd30c83f	-0.04315972
1	0x3a24c381	0.0006285236
2	0xbe162d5a	-0.14665738
3	0xbdf61281	-0.12015248
4	0x3edc82f7	0.43068668
5	0x3eb36182	0.3503533
6	0xbe3cfc28	-0.18455565
7	0xbe1f4a43	-0.15555672
8	0xbec020b1	-0.37524942
9	0x3ef065e1	0.46952727
10	0x3f0f6eca	0.56028426
11	0x3ec38927	0.38190576
12	0x3eb43b84	0.35201657
13	0x3ecb949c	0.39761817
14	0x3e15bb23	0.14622168
15	0xbd9ac644	-0.075573474
16	0x3e90c780	0.28277206
17	0xbf36d2be	-0.7141532
18	0xbe128912	-0.143101
19	0x3ec3bd8b	0.38230547
20	0x3f6cf546	0.9256176
21	0xbf39b967	-0.72548527
22	0xbe85e2d7	-0.26149628
23	0x3dd93801	0.10606385
24	0x3d90dfe0	0.07073951
25	0xbe5d6f16	-0.21624407
26	0x3c32555b	0.010884608
27	0x3dbc5298	0.09195441
28	0xbd1b8150	-0.03796512
29	0x3e1e2f6a	0.15447775
30	0x3cbc2295	0.022965709
31	0x3da663d8	0.081245124
32	0xbfa9b2be	-1.3257673
33	0x3db6c7bc	0.08924815
34	0x3ed93152	0.4242044
35	0xbf17e974	-0.59340596
36	0x3e590fe7	0.21197473
37	0x3dff56b4	0.12467709
38	0x3eec1197	0.4610717
39	0xbdf776b5	-0.120831884
40	0xbe8d16c5	-0.27556434
41	0x3e926a4e	0.2859673
42	0x3d60e502	0.0549059
43	0xbe98722c	-0.29774606
44	0x3f41cb23	0.7570059
45	0xbf2a5d64	-0.6654875
46	0xbec7cf2f	-0.39025256
47	0xbea4edc5	-0.32212654
48	0xbef31f35	-0.47484747
49	0xbee25c54	-0.44211066
50	0x3f07e111	0.530778
51	0xbfbfdd25	-1.4989363
52	0xbe74b935	-0.23898776
53	0x3ef85b03	0.48506936
54	0x3e341cb4	0.17589074
55	0xbe8f788d	-0.2802166
56	0x3f7a650d	0.9781044
57	0x3e80b892	0.25140816
58	0x3f067d70	0.5253515
59	0x3ea3de40	0.320055
60	0x3ebb60f7	0.36597416
61	0xbf2e3ca2	-0.6806127
62	0x3e8d476f	0.27593562
63	0xbeb13e09	-0.34617642
64	0xbf2439e9	-0.64150864
65	0xbefcccca	-0.49374992
66	0x3efa8742	0.4893132
67	0xbe4f598e	-0.20249006
68	0x3e35748e	0.17720243
69	0x3e8068b4	0.25079882
70	0x3ebe8635	0.37211767
71	0x3d034cc4	0.03205563
72	0xbeb8b448	-0.36075044
73	0xbf05f12c	-0.52321124
74	0xbf266160	-0.6499233
75	0x3d92d832	0.07170142
76	0x3e6e5708	0.23275387
77	0xbec37238	-0.3817308
78	0x3eee52ba	0.4654749
79	0x3e9315c0	0.2872753
80	0xbe66cdc4	-0.22539431
81	0xbea9b855	-0.33148447
82	0x3e969402	0.29409796
83	0x3e8d3968	0.2758286
84	0x3f3423fe	0.7036742
85	0x3f007f1c	0.50193954
86	0x3d8e2f77	0.06942647
87	0xbefde887	-0.49591467
88	0xbdeef4eb	-0.11667808
89	0x3da90d4a	0.08254488
90	0x3e573a5d	0.21018358
91	0xbe15c6a3	-0.14626555
92	0x3e600f87	0.21880923
93	0xbe9bbb18	-0.3041618
94	0x3ed41de1	0.41429046
95	0xbe5b3bdb	-0.21409552
96	0xbfa3ccea	-1.279691
97	0x3dad5012	0.08462538
98	0x3f4e6f18	0.80638266
99	0x3bd5170c	0.0065029915
100	0x3efb5b93	0.49093303
101	0x3e90b3e9	0.2826226
102	0xbd839928	-0.064256966
103	0x3f412bee	0.75457656
104	0x3f278937	0.6544375
105	0xbf0ed8ac	-0.55799365
106	0x3e7d4aca	0.24735561
107	0xbec9f1ba	-0.39442235
108	0xbef085e4	-0.4697715
109	0x3ef0425c	0.46925628
110	0xbf3fcce1	-0.74921995
111	0x3e94133a	0.2892092
112	0xbf1449ac	-0.57924914
113	0x3eaa691b	0.33283314
114	0xbe221658	-0.15828836
115	0x3dfe4040	0.124145985
116	0x3e650896	0.22366557
117	0x3ebcbed2	0.36864334
118	0x3cf7d917	0.030254884
119	0x3e94c827	0.29058954
120	0xbe60e146	-0.21960935
121	0x3e02b759	0.12765254
122	0x3f26d921	0.6517506
123	0xbecdf7a7	-0.40228006
124	0x3e95494f	0.29157493
125	0x3f172c1d	0.59051687
126	0xbdb5997d	-0.08867166
127	0x3ee785f7	0.45219395

block1.2.bn2_1.weight f4 [8]
0	0x3d72eb45	0.0593064
1	0x3f7a05c1	0.9766503
2	0x3f88ce8e	1.0688035
3	0x3f75c927	0.9601006
4	0x3f7275ae	0.94710815
5	0xbd8295e9	-0.06376249
6	0x3f9b2418	1.212039
7	0x3e0a9b63	0.13535838

block1.2.bn2_1.bias f4 [8]
0	0xbeb9ca8a	-0.36287338
1	0xbd03f950	-0.032220185
2	0x3e18d523	0.14925055
3	0x3f9527f2	1.1652815
4	0xbe868659	-0.26274374
5	0xbf419953	-0.7562458
6	0x3f9850da	1.1899674
7	0xbf1619ef	-0.5863332

block1.2.bn2_1.running_mean f4 [8]
0	0x3e86c5f6	0.26322907
1	0x3fbc059b	1.4689211
2	0xc07c0a2a	-3.9381204
3	0xc03c64fd	-2.9436638
4	0xbfef528f	-1.869707
5	0x3e46fdd5	0.19432767
6	0xbfbe3ff2	-1.4863265
7	0x3ee55995	0.44794908

block1.2.bn2_1.running_var f4 [8]
0	0x3eafe19b	0.3435181
1	0x3fe4f8a8	1.7888384
2	0x405135dc	3.2689123
3	0x407093b0	3.7590141
4	0x3ffcf352	1.9761755
5	0x3f2e7752	0.6815082
6	0x4061662c	3.521861
7	0x3f404261	0.75101286

block1.2.conv2_2.weight f4 [8, 8, 3, 3]
0	0x3e7cf71d	0.24703641
1	0x3ef5291b	0.47882923
2	0xbe01fe9f	-0.12694786
3	0x3cab8b2a	0.020940382
4	0x3f56c7e5	0.83898765
5	0x3dca757c	0.098856896
6	0x3e08fcc5	0.13377674
7	0x3e82d7e0	0.25555325
8	0xbc694266	-0.014237022
9	0xbcf52acf	-0.02992764
10	0xbecd46b4	-0.40093005
11	0xbed460c2	-0.4148007
12	0x3e335861	0.17514183
13	0x3ec3db56	0.38253278
14	0x3dd39348	0.10330826
15	0x3edac2fb	0.42726883
16	0x3f518284	0.81839776
17	0x3e389417	0.18025242
18	0xbb3d472d	-0.0028881535
19	0x3f833bba	1.0252602
20	0x3edfe212	0.43727165
21	0x3e53656b	0.20644157
22	0xbe671bc3	-0.22569184
23	0x3f11ab61	0.5690213
24	0xbdd243b2	-0.10266818
25	0xbf2ef2d1	-0.6833926
26	0xbe17dc14	-0.14830047
27	0x3de29012	0.110626355
28	0x3fd463ed	1.6592995
29	0x3ef0a1b3	0.46998367
30	0x3ce6457e	0.028109308
31	0x3f1f5590	0.62239933
32	0xbd8e1b68	-0.06938821
33	0xbf03ac96	-0.5143522
34	0xbec5c53a	-0.38627034
35	0xbea94e97	-0.33067772
36	0xbdbdd340	-0.09268808
37	0x3e32c0fd	0.17456432
38	0x3e00c107	0.12573634
39	0xbe080fe7	-0.13287316
40	0xbe4413a5	-0.19148119
41	0x3e7cde8d	0.24694271
42	0xbe911a59	-0.28340414
43	0xbeb5e1e5	-0.35523906
44	0xbdfa6261	-0.122257955
45	0x3ea5b09d	0.32361308
46	0x3f1906ba	0.5977589
47	0x3d2d28c4	0.042275205
48	0x3dd8f4ae	0.10593544
49	0x3ee99667	0.4562256
50	0x3e81834a	0.25295478
51	0xbd782215	-0.06057938
52	0xbeabc771	-0.335506
53	0x3d4818a2	0.048851617
54	0xbea7b157	-0.32752487
55	0x3f055705	0.52085906
56	0xbf2bcf46	-0.6711315
57	0x3f3e9f96	0.7446226
58	0xbebd481f	-0.36969087
59	0x3d634874	0.05548902
60	0x3ef02ab7	0.4690759
61	0x3c20ed40	0.00982219
62	0x3e164fe1	0.14678909
63	0x3ec99030	0.3936782
64	0x3ee69a10	0.45039415
65	0x3e45d507	0.19319545
66	0xbd1985d8	-0.03748116
67	0xbd3499a9	-0.044091854
68	0x3eb54add	0.3540868
69	0x3cf110fc	0.029427044
70	0x3ee8b041	0.4544697
71	0x3f3122e6	0.69193876
72	0xbdd63760	-0.10459781
73	0xbed74a16	-0.4204871
74	0x3d9b64b0	0.07587564
75	0xbda2fdd7	-0.07958572
76	0xbe445532	-0.19173124
77	0x3e6c938b	0.23103158
78	0x3cf35eed	0.02970835
79	0x3e79dede	0.24401423
80	0xbec44348	-0.38332582
81	0xbeafe2a9	-0.34352615
82	0xbd9d1f25	-0.07671956
83	0xbdabd3f7	-0.083900385
84	0xbccbf853	-0.024898684
85	0xbed96740	-0.42461586
86	0xbeaf9a51	-0.34297422
87	0xbec8e54b	-0.39237437
88	0xbea95eab	-0.33080038
89	0xbedb1131	-0.42786554
90	0xbef66c8d	-0.48129693
91	0xbc93fb7e	-0.018064257
92	0xbdb687ea	-0.08912642
93	0x3cbbdac3	0.022931462
94	0x3e6b20be	0.22961709
95	0x3e04e0c6	0.1297637
96	0x3d2bf9d4	0.0419863
97	0xbe09b919	-0.13449515
98	0x3e60a43a	0.21937647
99	0xbf2af98c	-0.6678703
100	0xbe3391b9	-0.17536058
101	0xbdfc27d8	-0.12312287
102	0xbed802e2	-0.421897
103	0x3d3cc918	0.046090215
104	0xbaef2b95	-0.0018247241
105	0xbef9f6a1	-0.48820975
106	0x3ed0fe5b	0.40819058
107	0x3e0df526	0.13863048
108	0xbeb08df2	-0.34483296
109	0xbd7a84ce	-0.06116181
110	0xbf1663c6	-0.5874599
111	0x3eb50071	0.353519
112	0xbe86bc36	-0.2631547
113	0xbd792ff0	-0.060836732
114	0xbde17f62	-0.110106245
115	0xbe9e9ee3	-0.30980596
116	0x3e0ca78d	0.1373579
117	0xbe8ec22a	-0.2788251
118	0xbe901c32	-0.2814651
119	0xbf3aa734	-0.7291138
120	0x3e36208d	0.17785855
121	0xbdd33daf	-0.103144996
122	0xbdc40137	-0.09570544
123	0xbe40220a	-0.18762985
124	0xbeafdc86	-0.34347934
125	0xbd825f6a	-0.06365855
126	0xbf5b4846	-0.85657156
127	0xbf0c39c8	-0.5477567
128	0xbf2e299e	-0.6803225
129	0xbecb46a2	-0.39702326
130	0xbf4363a1	-0.76323897
131	0xbf4be7ca	-0.7965056
132	0xbe47c679	-0.19509305
133	0xbee3cefd	-0.44493857
134	0xbe492f51	-0.19646956
135	0xbec59aad	-0.3859457
136	0xbee47f52	-0.44628388
137	0xbf0a932a	-0.54130805
138	0xbd1f7c80	-0.03893709
139	0x3d1d010e	0.038331084
140	0xbde9e82d	-0.11421237
141	0xbf06cd14	-0.52656674
142	0xbf0db750	-0.5535784
143	0xbe0e86c1	-0.13918592
144	0xbd982086	-0.07428078
145	0xbd86834f	-0.06568014
146	0xbe142fca	-0.14471355
147	0x3e70fba2	0.2353349
148	0x3e0df9b3	0.13864784
149	0x3cc4bad3	0.024014866
150	0x3e925c0e	0.28585857
151	0xbcf0984c	-0.029369496
152	0x3d9bdf2e	0.076109275
153	0x3ead9eac	0.3391012
154	0x3de3a398	0.111151874
155	0xbccc876f	-0.024966924
156	0xbc3507ea	-0.01104925
157	0xbe3c0809	-0.1836244
158	0xbe246615	-0.16054566
159	0x3e43a581	0.19106103
160	0x3d8acd06	0.06777386
161	0xbc3e4d8b	-0.011615167
162	0x3cab6eb6	0.020926815
163	0xbd507f7f	-0.05090284
164	0xbea787d5	-0.3272082
165	0x3dd08a18	0.10182589
166	0x3e10d959	0.14145412
167	0xbe25242b	-0.16127078
168	0xbe89250b	-0.26786074
169	0x3e44cc3f	0.19218539
170	0xbcab420e	-0.02090552
171	0x3ea01b09	0.31270626
172	0x3f20415a	0.6259972
173	0x3e6af7b8	0.2294606
174	0x3eb6ba4c	0.35689008
175	0x3ed46858	0.41485858
176	0x3c8d3826	0.017238688
177	0x3db920bb	0.09039446
178	0x3df04f26	0.11733846
179	0x3e32e69b	0.17470782
180	0xbdc5cc53	-0.096581124
181	0x3dfbaaf1	0.12288464
182	0xba1fca6b	-0.0006095531
183	0x3e415363	0.18879466
184	0x3e877560	0.26456738
185	0x3cc40211	0.023926767
186	0xbe9ac5a6	-0.3022892
187	0x3d5a7465	0.05333366
188	0xbbac8637	-0.005265023
189	0xbb3bbca3	-0.0028646372
190	0xbc8aa004	-0.016922005
191	0xbe408f0d	-0.1880457
192	0x3e34044d	0.17579766
193	0x3e76971c	0.24081081
194	0xbd011e1c	-0.031522855
195	0xbe83c875	-0.25738874
196	0x3e50f8f8	0.20407474
197	0xbdb3e217	-0.087833576
198	0x3e1cec47	0.15324508
199	0x3e88132b	0.26577124
200	0x3b4df81e	0.0031428407
201	0xbe6f1389	-0.23347296
202	0x3f2d0802	0.67590344
203	0xbddf4aeb	-0.10902961
204	0xbf0e6acf	-0.55631727
205	0x3e72f818	0.23727453
206	0x3e0c6f4a	0.13714328
207	0x3da09d14	0.0784246
208	0x3e51941f	0.2046666
209	0x3e8da893	0.27667674
210	0x3e8635db	0.26212963
211	0x3da3aec8	0.07992321
212	0x3d9ca35c	0.07648346
213	0x3e77edab	0.24211757
214	0x3ea23ad2	0.316855
215	0x3ea9a9d0	0.3313737
216	0xbe2eceaf	-0.17071031
217	0x3e9225b7	0.285444
218	0xbdf28230	-0.118412375
219	0xbea186d2	-0.31548172
220	0xbf57be9e	-0.84275234
221	0x3e2ed13a	0.17072001
222	0xbf12d936	-0.5736269
223	0xbf082183	-0.53176135
224	0xbed654cf	-0.4186158
225	0xbbf4ba8d	-0.0074685276
226	0xbe479c72	-0.19493273
227	0xbe31dbc4	-0.1736899
228	0xbf1c748b	-0.6111533
229	0xbe687f57	-0.22704826
230	0x3ddc0fe8	0.107452214
231	0xbdbecb79	-0.09316153
232	0xbed8fb87	-0.423794
233	0xbe43e598	-0.19130552
234	0xbedd3f6d	-0.43212453
235	0xbee21761	-0.44158462
236	0x3dc88b52	0.09792198
237	0xbee0e486	-0.4392435
238	0xbea4a188	-0.3215449
239	0xbeb8e76e	-0.36114067
240	0xbeb737fd	-0.35784903
241	0xbd844943	-0.06459286
242	0xbd7e751b	-0.0621234
243	0xbe026c99	-0.12736739
244	0xbe105522	-0.14094976
245	0xbe9c3f32	-0.30516964
246	0xbedba4f6	-0.42899293
247	0xbef0bc2b	-0.4701856
248	0x3d21381e	0.03936016
249	0xbeeb755d	-0.4598798
250	0xbf143df8	-0.57907057
251	0xbf007420	-0.5017719
252	0xbe38275c	-0.17983764
253	0x3e841ddc	0.2580403
254	0x3f2eacbb	0.68232316
255	0xbeb87c78	-0.36032462

block1.2.bn2_2.weight f4 [8]
0	0x3f907f4c	1.1288848
1	0x3f095530	0.5364561
2	0x3f035b76	0.51311433
3	0x3dc70d51	0.09719337
4	0x3f5883a0	0.84575844
5	0x3f57610d	0.8413246
6	0x3f06e83d	0.5269812
7	0x3f11fb66	0.5702423

block1.2.bn2_2.bias f4 [8]
0	0x3edf12f9	0.43569162
1	0x3f410706	0.7540134
2	0xbe048ef1	-0.12945153
3	0xbf2dbaef	-0.67863363
4	0xbf05837f	-0.5215377
5	0x3f852a03	1.0403446
6	0x3f917dc5	1.1366507
7	0x3f56df83	0.839348

block1.2.bn2_2.running_mean f4 [8]
0	0x40532027	3.2988374
1	0xc10085a2	-8.032625
2	0x405aad42	3.4168248
3	0xc04e88c6	-3.227098
4	0xc0c6786e	-6.202201
5	0xbfe2e927	-1.7727402
6	0xbd4c9ed2	-0.04995615
7	0xc0adf78d	-5.4364686

block1.2.bn2_2.running_var f4 [8]
0	0x411575c3	9.34125
1	0x4181c966	16.22334
2	0x40920bde	4.5639486
3	0x408d162f	4.408958
4	0x41124db0	9.143967
5	0x41132715	9.1970415
6	0x405eea7e	3.4830623
7	0x4130ef86	11.058477
