assignment1/results/trial_2/inception/ckpts/7000.pt (torch, 689126 bytes, 467 tensors)

block1.0.conv1_1.weight f4 [4, 16, 1, 1]
-0.06967285 1.5663103 0.14981683 0.06312983 0.2751403 0.71028554 1.1628325 0.29805145
0.36264303 -0.4789283 -0.27324715 -0.25105277 -0.5896503 0.14911841 0.63430786 -0.6971464
-2.2068336 -1.048225 -0.0026524996 0.40733117 -0.25866044 -0.48290062 0.19344363 0.44925267
0.23954569 -0.17349294 -0.48835137 0.05882021 -0.6184866 -0.2234388 0.99312043 -0.58919346
0.11103707 -0.056317955 -0.6706904 -0.7593417 0.40699145 1.1481423 1.5513327 -0.037152052
0.76725936 0.3402475 0.21311699 0.16098909 0.5217881 -0.55631006 -0.060488407 0.12548399
0.26211247 0.13810784 -0.48709494 1.2203617 -0.19077453 1.8789072 -0.25275603 -0.9343312
0.38148478 -0.07379091 -0.38556203 0.2561749 1.4809585 1.0871795 -1.5539957 0.025845855
00000000: a4b0 8ebd db7c c83f 9569 193e 364a 813d
00000010: 30df 8c3e 46d5 353f b2d7 943f 339a 983e
00000020: 59ac b93e 1736 f5be 0de7 8bbe fd89 80be
00000030: 52f3 16bf 7fb2 183e 0062 223f 3078 32bf
00000040: c33c 0dc0 3d2c 86bf 8fd5 2dbb b68d d03e
00000050: 246f 84be c03e f7be 1616 463e 7204 e63e
00000060: 774b 753e 22a8 31be 3109 fabe 76ed 703d
00000070: 2355 1ebf 24cd 64be 243d 7e3f 62d5 16bf
00000080: 6767 e33d a8ad 66bd 5eb2 2bbf 3864 42bf
00000090: 2f61 d03e 54f6 923f 1292 c63f c02c 18bd
000000a0: 1c6b 443f ec34 ae3e 573b 5a3e 53da 243e
000000b0: e893 053f 566a 0ebf b1c2 77bd e07e 003e
000000c0: 9b33 863e 246c 0d3e 8264 f9be d034 9c3f
000000d0: 665a 43be 0880 f03f 3d69 81be 5430 6fbf
000000e0: f951 c33e b01f 97bd 6368 c5be 5b29 833e
000000f0: 0c90 bd3f b328 8b3f 55e9 c6bf b0ba d33c

block1.0.bn1_1.weight f4 [4]
1.0897118 1.9797297 1.1271424 0.78652626
00000000: ad7b 8b3f c867 fd3f 3446 903f c959 493f

block1.0.bn1_1.bias f4 [4]
1.0652351 -0.12620476 2.1532443 2.226829
00000000: a059 883f d23b 01be c1ce 0940 5e84 0e40

block1.0.bn1_1.running_mean f4 [4]
6.8399553 -4.715381 4.4891853 8.21718
00000000: eae0 da40 67e4 96c0 68a7 8f40 9279 0341

block1.0.bn1_1.running_var f4 [4]
10.868344 19.93631 13.950582 10.076309
00000000: bde4 2d41 907d 9f41 9535 5f41 9038 2141

block1.0.conv2_1.weight f4 [8, 16, 1, 1]
-0.7843671 -0.38840592 1.7200383 0.65030324 0.99516845 -0.074721105 -0.70465994 -0.09669783
-0.12447419 -0.39165404 0.01976332 -0.2453799 -0.21229336 0.94555736 0.27162033 -0.6461123
0.36219895 -0.76046926 1.1890966 -1.7436036 -0.14948022 -0.37167296 -0.4869571 -0.694464
-0.67415965 0.112643614 -0.4542809 -0.18973926 -0.60480535 0.90361667 -0.40545565 -0.10509427
-0.55420506 -0.40447986 -1.0173416 -1.089542 -0.28891376 0.004662444 0.3456046 0.27216586
-0.584977 -0.04157009 -0.20605995 -0.024387833 -0.23410587 -0.33992642 0.61915123 -1.0475119
-0.58985597 -0.87175786 0.48164466 -0.4399022 0.38249508 -1.0592108 1.6602404 0.46983227
1.7662864 -0.37622562 -0.092104666 -0.15836701 -0.32145995 -1.597301 0.09166676 0.27028218
0.40773273 0.3876841 0.6947374 0.8429318 0.15808687 0.6285434 0.19143343 -0.4708081
0.21264791 -0.10557982 0.09744227 0.41554138 0.25886875 0.2990772 -0.48598522 0.7492965
-0.6055864 -0.9415535 0.7516948 -0.08407427 0.46311617 -0.25650537 -0.71051365 0.721677
-0.8576657 -0.115937926 -0.12305877 -0.36614046 -0.07627293 -0.6761129 0.87659997 -0.008944264
0.46592146 -0.77552664 -0.7659718 -0.22243327 0.192858 -0.2415877 -0.2489499 -0.2485201
-0.09978203 -0.14530133 0.36151087 0.37094724 0.42508897 0.34549165 0.17961904 -0.3531107
0.2182416 -0.65309876 0.13505654 1.5233368 0.45317534 -0.3038742 -0.49030894 0.5678084
0.37283877 0.4975163 -0.13879798 0.6732587 0.34874862 -0.3953154 0.65211135 0.17356068
00000000: 48cc 48bf 24dd c6be 372a dc3f 467a 263f
00000010: 5cc3 7e3f 6107 99bd 9864 34bf 8309 c6bd
00000020: 53ec febd e186 c8be b0e6 a13c de44 7bbe
00000030: 6e63 59be 0c10 723f d211 8b3e 9e67 25bf
00000040: 2472 b93e 1dae 42bf 5134 983f 672e dfbf
00000050: 5811 19be eb4b bebe 7152 f9be 65c8 31bf
00000060: ba95 2cbf b2b1 e63d 8297 e8be 024b 42be
00000070: 86d4 1abf 6c53 673f e297 cfbe aa3b d7bd
00000080: 62e0 0dbf fc17 cfbe 4038 82bf 1d76 8bbf
00000090: 81ec 93be 6ac7 983b 16f3 b03e 5359 8b3e
000000a0: 0dc1 15bf 6645 2abd 6101 53be fec8 c7bc
000000b0: 73b9 6fbe d60a aebe b280 1e3f df14 86bf
000000c0: cd00 17bf 862b 5fbf 219a f63e dc3a e1be
000000d0: 65d6 c33e 3894 87bf c282 d43f db8d f03e
000000e0: ac15 e23f a5a0 c0be 5fa1 bcbd f62a 22be
000000f0: 6696 a4be 5c74 ccbf c8bb bb3d 6d62 8a3e
00000100: 58c2 d03e 887e c63e 4fda 313f 61ca 573f
00000110: 86e1 213e 38e8 203f 2007 443e c20d f1be
00000120: 60c0 593e 3c3a d8bd d08f c73d d7c1 d43e
00000130: 728a 843e a620 993e 0ed3 f8be e5d1 3f3f
00000140: b607 1bbf a609 71bf 126f 403f 222f acbd
00000150: 901d ed3e ac54 83be 39e4 35bf d3bf 383f
00000160: fb8f 5bbf dd70 edbd 3d06 fcbd c376 bbbe
00000170: fb34 9cbd bc15 2dbf db68 603f f68a 12bc
00000180: 428d ee3e ea88 46bf ba16 44bf 8cc5 63be
00000190: 917c 453e c462 77be b9ec 7ebe 0e7c 7ebe
000001a0: 855a ccbd dfc9 14be f417 b93e ccec bd3e
000001b0: 43a5 d93e 48e4 b03e 0eee 373e edca b4be
000001c0: ba7a 5f3e 7b31 27bf 434c 0a3e b3fc c23f
000001d0: 9906 e83e 6695 9bbe c609 fbbe e45b 113f
000001e0: b9e4 be3e 75ba fe3e 0f21 0ebe af5a 2c3f
000001f0: 2e8f b23e c866 cabe c5f0 263f e4b9 313e

block1.0.bn2_1.weight f4 [8]
1.1065149 0.8072905 0.88387203 1.3880464 0.13409035 0.32805097 0.60484886 1.3862765
00000000: 48a2 8d3f 97aa 4e3f 7045 623f 81ab b13f
00000010: fb4e 093e 4cf6 a73e 60d7 1a3f 8271 b13f

block1.0.bn2_1.bias f4 [8]
0.77892166 1.7748396 0.49247545 0.711482 -0.8537899 0.47431237 -0.565797 1.5596097
00000000: 6967 473f f22d e33f be25 fc3e af23 363f
00000010: fa91 5abf 12d9 f23e 12d8 10bf 4aa1 c73f

block1.0.bn2_1.running_mean f4 [8]
0.9424551 -4.2563105 -5.628315 -0.6715304 6.325365 -5.901869 -2.034208 1.4631016
00000000: bd44 713f b233 88c0 281b b4c0 6be9 2bbf
00000010: 6469 ca40 1cdc bcc0 7730 02c0 ea46 bb3f

block1.0.bn2_1.running_var f4 [8]
7.822213 6.168503 3.1749094 7.971819 2.0500314 12.2263565 1.3530028 8.236589
00000000: 924f fa40 6064 c540 b731 4b40 2419 ff40
00000010: b733 0340 289f 4341 322f ad3f 12c9 0341

block1.0.conv2_2.weight f4 [8, 8, 3, 3]
-0.34143794 -0.41729695 -0.26078647 -0.3411513 -0.12960503 -0.4793146 0.58983576 0.64811045
-0.023754628 0.24077007 -0.31307828 -0.18057734 0.14080471 -0.26466182 -0.48251006 0.17289262
-0.010410458 -0.24131222 0.22001256 -0.102052115 0.37702334 0.07659927 -0.015496758 0.2693975
0.20229511 -0.08279734 0.032017536 -0.3212293 -0.32520863 -0.38212824 -0.09551231 -0.222834
-0.27964845 -0.0024158016 -0.0018314647 -0.346792 0.44740972 0.5754099 0.33046314 -0.10322717
0.12097252 0.21290414 -0.12537278 0.0121033555 0.25407323 0.534754 0.28259936 0.1187879
0.24542522 0.13668588 0.14413999 0.1421246 -0.22094922 -0.2660404 0.33247772 0.4314069
0.10619596 0.12368562 0.079029374 -0.12206532 -0.149535 0.095106944 -0.11527846 0.42201516
1.0086333 0.20265327 -0.013274084 0.7809024 0.2639599 -0.56783384 -0.08370734 -0.21703577
-0.33113602 -0.26622635 0.028722309 -0.6885117 -0.042485435 -0.66503483 0.26732805 0.16447563
-0.3599788 -0.19365188 0.2828346 -0.11001423 0.25742075 0.049991064 -0.49997595 -0.20844957
-0.5769897 -0.37619272 -0.0390365 0.22255008 0.008520168 0.39495778 0.32506365 0.24523419
0.22588369 0.16162685 0.5212171 -0.00054365746 -0.35703903 -0.6153812 0.8638037 0.035120707
0.22926162 -0.40326524 -0.8375263 -0.82958025 0.21994603 0.21264309 -0.0922116 -0.46149254
-0.34502122 -0.35964838 -0.20944768 -0.13719077 -0.11487187 0.24002269 -0.18453252 0.117267735
-0.17350635 -0.34939826 -0.34904602 -0.024992656 -0.4275184 -0.26527035 -0.21956137 -0.4213746
-0.25070906 -0.04397797 -0.4089929 -0.2763878 -0.2592753 -0.5146098 -0.27040926 0.23145998
-0.45314562 0.08590734 -0.5700927 -0.6056738 -0.42393577 0.18828158 -0.25937325 0.11634334
0.1884428 -0.5695347 0.18356566 -0.06321483 -0.48884597 0.16523586 -0.23507158 -0.06796075
0.80724454 -0.36604485 -0.912485 -0.2064429 -1.0863384 -1.295904 -1.2272328 -0.42657745
-0.8942268 -0.9777496 -0.32896435 -0.018319136 -0.16841426 -0.15672614 -0.46824694 -0.32234672
-0.5099652 -0.68140686 -0.6599573 0.7041322 0.11609926 0.26006523 -0.23630805 -0.49367478
-0.5301354 0.6663089 0.22405493 0.14078799 0.2175758 -0.18381818 0.056972254 -0.042351797
-0.11495702 -0.07381243 0.19004898 0.098979995 0.22200678 -0.6360986 -0.8871093 -0.44337615
-0.2031688 -0.19042262 -0.6115077 -0.33328462 -0.86583436 -0.8823503 0.67613685 0.6393837
0.1392116 0.11068215 0.3799662 -0.14415419 0.66493237 0.7127572 0.45433936 -0.3526792
0.18226583 -0.18566848 -0.05974489 0.48071268 -0.010162809 -0.45798805 -0.15272851 -0.12833917
-0.5577362 0.30445677 0.83020467 -0.70864975 -1.4623692 1.2323924 0.33640495 -0.26080745
0.11024279 0.5294234 0.3538998 0.56603265 0.060572084 0.04364449 0.60168636 0.46336645
0.30244198 0.45980942 0.21976748 0.69285274 -0.72350264 0.6293666 0.800767 -0.554723
0.18490371 0.61289364 -0.48444358 -0.44892165 -0.03316861 0.19406392 -1.05361 -1.015434
-0.93778217 -0.0730277 -1.059158 -0.317168 0.11185043 0.37529138 -0.04567386 -0.28116468
00000000: f4d0 aebe f2a7 d5be ce85 85be 62ab aebe
00000010: 2eb7 04be b968 f5be 7aff 163f 91ea 253f
00000020: 1199 c2bc 6e8c 763e cc4b a0be 44e9 38be
00000030: 1c2f 103e c181 87be 8f0b f7be c30a 313e
00000040: a090 2abc 8d1a 77be f94a 613e b300 d1bd
00000050: 3409 c13e 14e0 9c3d 1de6 7dbc 78ee 893e
00000060: 7326 4f3e a791 a9bd d224 033d 2b78 a4be
00000070: bf81 a6be 50a6 c3be f59b c3bd 992e 64be
00000080: 152e 8fbe 6d52 1ebb c20d f0ba b98e b1be
00000090: e312 e53e 104e 133f 7732 a93e c468 d3bd
000000a0: 71c0 f73d 8b03 5a3e b961 00be 274d 463c
000000b0: e315 823e a3e5 083f ddb0 903e 1247 f33d
000000c0: c050 7b3e 62f7 0b3e 6f99 133e 1c89 113e
000000d0: 8340 62be 7336 88be 853a aa3e 5de1 dc3e
000000e0: 447d d93d e34e fd3d 27da a13d 62fd f9bd
000000f0: b41f 19be 6ec7 c23d 1d17 ecbd 5f12 d83e
00000100: e51a 813f 5784 4f3e 8b7b 59bc 38e9 473f
00000110: c125 873e 8f5d 11bf c16e abbd a03e 5ebe
00000120: a98a a9be d24e 88be 0c4b eb3c 4e42 30bf
00000130: 3505 2ebd b93f 2abf 39df 883e 4d6c 283e
00000140: 244f b8be ae4c 46be b2cf 903e 244f e1bd
00000150: a7cc 833e 6ec3 4c3d d9fc ffbe ce73 55be
00000160: 99b5 13bf 559c c0be bde4 1fbd 2be4 633e
00000170: 2d98 0b3c e837 ca3e be6e a63e ac1e 7b3e
00000180: 0e4e 673e 8281 253e 7c6e 053f 3c84 0eba
00000190: d2cd b6be 9f89 1dbf 3d22 5d3f bbda 0f3d
000001a0: 8fc3 6a3e c878 cebe 2068 56bf 5f5f 54bf
000001b0: 8839 613e 1cbf 593e 6fd9 bcbd c048 ecbe
000001c0: 9fa6 b0be d523 b8be 7479 56be bd7b 0cbe
000001d0: f141 ebbd 82c8 753e 18f6 3cbe 112a f03d
000001e0: a6ab 31be 54e4 b2be 29b6 b2be 66bd ccbc
000001f0: b1e3 dabe 84d1 87be b2d4 60be 69be d7be
00000200: f05c 80be 3e22 34bd 8467 d1be b482 8dbe
00000210: bbbf 84be 78bd 03bf 1573 8abe d803 6d3e
00000220: b402 e8be 30f0 af3d 98f1 11bf 700d 1bbf
00000230: 1c0e d9be e3cc 403e 92cc 84be 6b45 ee3d
00000240: 26f7 403e 07cd 11bf a3f8 3b3e c776 81bd
00000250: 054a fabe 9733 293e 9bb6 70be 012f 8bbd
00000260: 94a7 4e3f 3b6a bbbe 9e98 69bf c465 53be
00000270: 230d 8bbf 2fe0 a5bf f715 9dbf 5c68 dabe
00000280: 0cec 64bf cc4d 7abf 046e a8be 0312 96bc
00000290: ca74 2cbe d17c 20be 10be efbe a10a a5be
000002a0: 148d 02bf ae70 2ebf f6f2 28bf 0242 343f
000002b0: 73c5 ed3d 4527 853e bdfa 71be f1c2 fcbe
000002c0: f4b6 07bf 3893 2a3f a86e 653e ba2a 103e
000002d0: 31cc 5e3e d53a 3cbe bd5b 693d 1479 2dbd
000002e0: 966e ebbd f92a 97bd 339c 423e 06b6 ca3d
000002f0: bf55 633e 5cd7 22bf 9819 63bf 3302 e3be
00000300: 7b0b 50be 26fe 42be c58b 1cbf 48a4 aabe
00000310: 52a7 5dbf b6e1 61bf 4e17 2d3f a6ae 233f
00000320: 7c8d 0e3e 53ad e23d ee8a c23e 289d 13be
00000330: 0239 2a3f 4177 363f 2b9f e83e 5e92 b4be
00000340: e5a3 3a3e e11f 3ebe 0fb7 74bd f91f f63e
00000350: e981 26bc 697d eabe dd64 1cbe 586b 03be
00000360: cdc7 0ebf c2e1 9b3e 4b88 543f 126a 35bf
00000370: ea2e bbbf 09bf 9d3f 453d ac3e 8e88 85be
00000380: f9c6 e13d 4b88 073f 5b32 b53e 84e7 103f
00000390: 6f1a 783d 91c4 323d 1e08 1a3f 5e3e ed3e
000003a0: add9 9a3e 246c eb3e ba0a 613e cc5e 313f
000003b0: 7837 39bf 2b1e 213f 11ff 4c3f 5402 0ebf
000003c0: 6657 3d3e 99e6 1c3f fd08 f8be 0fd9 e5be
000003d0: cfdb 07bd b1b8 463e b1dc 86bf bef9 81bf
000003e0: 7e12 70bf 8c8f 95bd 7d92 87bf d863 a2be
000003f0: d711 e53d 3126 c03e 8314 3bbd d1f4 8fbe

block1.0.bn2_2.weight f4 [8]
0.77758694 -0.6076836 0.5699725 -1.0066373 0.4446235 0.9724063 1.0521905 0.53374684
00000000: f00f 473f 2791 1bbf b8e9 113f 7ed9 80bf
00000010: b1a5 e33e 9fef 783f 2eae 863f a2a3 083f

block1.0.bn2_2.bias f4 [8]
0.17282498 0.91896033 0.20013696 0.23482174 0.55348116 1.371221 -0.21867587 1.3000215
00000000: 08f9 303e fc40 6b3f b4f0 4c3e 1c75 703e
00000010: f1b0 0d3f 2b84 af3f 91ec 5fbe 1b67 a63f

block1.0.bn2_2.running_mean f4 [8]
-0.00711775 -7.6767015 -17.05348 -2.1549084 2.6243455 -1.0291693 -10.227816 4.2208476
00000000: 043c e9bb 8aa7 f5c0 876d 88c1 05ea 09c0
00000010: 47f5 2740 d2bb 83bf 22a5 23c1 2f11 8740

block1.0.bn2_2.running_var f4 [8]
14.770534 14.958225 37.03154 37.49958 13.108265 11.343118 18.436352 16.435337
00000000: 1b54 6c41 e454 6f41 4c20 1442 92ff 1542
00000010: 74bb 5141 697d 3541 a67d 9341 927b 8341

block1.0.conv3_1.weight f4 [2, 16, 1, 1]
0.62161994 3.4071984 0.9513625 1.0800405 0.2645348 1.3931942 0.15208393 1.1937085
0.019525776 0.44198102 0.028159207 0.31111038 1.7468091 -0.3597041 -0.1645408 2.551682
0.03318769 -0.11172434 -0.20308189 -0.07749596 0.21467406 1.2770265 0.44256544 0.16900675
0.81469136 0.23093463 -0.008506364 -0.027847467 0.52256083 0.7885196 0.53074783 -0.48367777
00000000: 7c22 1f3f 8a0f 5a40 7e8c 733f c43e 8a3f
00000010: 1b71 873e 3054 b23f e4bb 1b3e 71cb 983f
00000020: 85f4 9f3c 564b e23e 23ae e63c dc49 9f3e
00000030: 7197 df3f 232b b8be 627d 28be c24e 2340
00000040: d1ef 073d bbcf e4bd b3f4 4fbe 34b6 9ebd
00000050: 84d3 5b3e 9b75 a33f f097 e23e 1b10 2d3e
00000060: 9d8f 503f 217a 6c3e 475e 0bbc 5f20 e4bc
00000070: 8cc6 053f 6cdc 493f 17df 073f 9da4 f7be

block1.0.bn3_1.weight f4 [2]
0.86279 0.69737136
00000000: cedf 5c3f ee86 323f

block1.0.bn3_1.bias f4 [2]
-0.8370806 0.7050274
00000000: ea4a 56bf ad7c 343f

block1.0.bn3_1.running_mean f4 [2]
11.7695 6.176228
00000000: df4f 3c41 a9a3 c540

block1.0.bn3_1.running_var f4 [2]
15.299729 7.0794272
00000000: b1cb 7441 ab8a e240

block1.0.conv3_2.weight f4 [2, 2, 5, 5]
0.2749006 0.4372507 0.16763653 -0.39680594 -0.049707416 0.062630825 -0.022891106 -0.6306078
-0.40759918 -0.053777948 1.27307 0.39560935 -0.07652296 0.91893613 0.44546813 0.64388925
0.43350306 0.20818599 0.3454963 0.37925416 0.117233925 -0.037389323 -0.19926716 0.5042361
-0.3926154 0.3465536 0.43436256 0.17231566 0.013027604 0.7388255 0.012004852 -0.27148944
-0.8401558 -0.86768407 0.036664598 -0.61991656 -0.45831642 -0.08243624 -0.24854857 -0.8231782
0.19022602 0.1095412 -0.081932 -0.0041597127 0.09980044 -0.10264297 0.04162209 -0.38593572
-0.43931687 0.3873781 -0.41320267 -0.30055982 -0.43040973 0.014659901 0.05812649 -0.057113707
-0.17297865 0.07599106 0.771875 -1.629895e-05 -0.22466446 -0.0931277 -0.093716435 0.35290658
-0.13569985 -0.12855464 -0.24429664 -0.025194671 -0.2778048 -0.38975134 -0.0820239 0.113689244
-0.21495739 0.08542807 0.29259843 0.96323377 0.37863556 0.3452141 0.644525 0.49268126
1.0158955 0.8986221 0.88215107 0.74115443 0.80409104 0.8285308 0.81391114 -0.18976796
-0.048204344 -0.16503312 0.82845855 0.43477434 0.18801992 0.063041106 0.22809944 0.5327398
0.24974196 0.36845008 0.052450493 -0.26424453
00000000: c5bf 8c3e 53df df3e e9a8 2b3e 262a cbbe
00000010: 019a 4bbd 9744 803d 2186 bbbc 836f 21bf
00000020: d7b0 d0be 4446 5cbd f5f3 a23f 4f8d ca3e
00000030: 12b8 9cbd 663f 6b3f 6614 e43e edd5 243f
00000040: 1df4 dd3e b52e 553e e4e4 b03e 9a2d c23e
00000050: 5718 f03d 8c25 19bd b10c 4cbe 9e15 013f
00000060: e304 c9be 796f b13e c564 de3e 8473 303e
00000070: bb71 553c ab23 3d3f 00b0 443c aa00 8bbe
00000080: 7314 57bf 8b20 5ebf 9e2d 163d dab2 1ebf
00000090: 73a8 eabe 55d4 a8bd 8483 7ebe cebb 52bf
000000a0: 9cca 423e 2357 e03d f7cb a7bd 334e 88bb
000000b0: 2c64 cc3d 7a36 d2bd ed7b 2a3d 5e99 c5be
000000c0: 24ee e0be 6c56 c63e 4d8f d3be fae2 99be
000000d0: aa5e dcbe 1530 703c 0b16 6e3d 10f0 69bd
000000e0: 5121 31be 33a1 9b3d 9a99 453f bbb9 88b7
000000f0: 710e 66be bcb9 bebd 67ee bfbd 2cb0 b43e
00000100: e7f4 0abe d4a3 03be e628 7abe 0e65 cebc
00000110: 6e3c 8ebe 7d8d c7be 25fc a7bd e8d5 e83d
00000120: ca1d 5cbe e9f4 ae3d 76cf 953e 7d96 763f
00000130: 85dc c13e e7bf b03e 97ff 243f b840 fc3e
00000140: dd08 823f 190c 663f a7d4 613f 4cbc 3d3f
00000150: e9d8 4d3f 981a 543f 7b5c 503f 8852 42be
00000160: eb71 45bd 71fe 28be dc15 543f be9a de3e
00000170: 4b88 403e b21b 813d e692 693e a361 083f
00000180: 5bbc 7f3e 7da5 bc3e 54d6 563d 0f4b 87be

block1.0.bn3_2.weight f4 [2]
0.60593164 0.38938496
00000000: 561e 1b3f 775d c73e

block1.0.bn3_2.bias f4 [2]
0.48467276 0.6940544
00000000: 0727 f83e 8dad 313f

block1.0.bn3_2.running_mean f4 [2]
-1.5376852 6.4467607
00000000: ded2 c4bf dd4b ce40

block1.0.bn3_2.running_var f4 [2]
3.9924498 16.930933
00000000: 4c84 7f40 8d72 8741

block1.0.conv4_1.weight f4 [2, 16, 1, 1]
-0.39840078 -0.4814204 0.1792955 -0.4104605 0.14532073 -0.27141386 0.116363905 0.08281317
0.019176897 0.25421596 0.1751881 -0.2116556 0.023986392 -0.1940693 -0.31759074 0.0028374996
-2.1011484 -0.12926024 -1.029009 -0.5144604 -0.434771 0.64243084 0.04300711 0.35346052
-0.79077476 -0.18591459 -0.3081707 -0.37058002 0.033739593 0.41828832 -0.014176993 0.21561894
00000000: 30fb cbbe bc7c f6be 3d99 373e e127 d2be
00000010: f5ce 143e c2f6 8abe 3350 ee3d f499 a93d
00000020: de18 9d3c 9828 823e 8264 333e 3fbc 58be
00000030: 1c7f c43c 1aba 46be 419b a2be 58f5 393b
00000040: 3779 06c0 cc5c 04be 91b6 83bf adb3 03bf
00000050: 4e9a debe 5976 243f 3928 303d c7f8 b43e
00000060: 3770 4abf 6560 3ebe 8dc8 9dbe aabc bdbe
00000070: 8732 0a3d e329 d63e 9e46 68bc 36cb 5c3e

block1.0.bn4_1.weight f4 [2]
0.100025415 1.4155931
00000000: 20da cc3d 2832 b53f

block1.0.bn4_1.bias f4 [2]
-0.3187914 0.37777555
00000000: a038 a3be cc6b c13e

block1.0.bn4_1.running_mean f4 [2]
-3.788171 -9.232773
00000000: 6571 72c0 70b9 13c1

block1.0.bn4_1.running_var f4 [2]
1.9254633 24.347124
00000000: 9575 f63f e9c6 c241

block1.1.conv1_1.weight f4 [4, 16, 1, 1]
-1.2538188 0.2465514 -2.1974401 -0.54392135 -0.09941092 -0.89152235 0.038356964 0.9820094
0.53908575 0.78225344 0.43130997 -0.448576 -0.67206764 0.7969189 -0.030762387 0.010158685
0.38618922 0.50601476 -0.5104067 0.71607566 0.90858775 -0.33965075 0.27502728 -0.18703097
-0.8278703 0.1123919 0.7848424 -1.1430693 0.35979685 -0.33729342 -0.61181384 -0.00065810536
1.0549766 0.320335 1.0718745 -0.09194288 0.049208142 -0.23630634 0.6938844 -0.5157864
0.05755995 -0.110159196 -0.1663409 0.42967802 0.5685918 0.32744074 -0.062132474 0.22297762
-0.67139024 -0.79181635 -0.1321496 -0.6119622 -0.49208152 -0.53445524 -0.6504161 -0.42967197
0.45871386 -1.7768716 -0.5687085 0.1106652 0.5895152 0.2620736 0.37139225 0.11906128
00000000: 227d a0bf f877 7c3e dca2 0cc0 6e3e 0bbf
00000010: f497 cbbd cf3a 64bf 311c 1d3d f864 7b3f
00000020: 8601 0a3f c341 483f a9d4 dc3e c1ab e5be
00000030: a00c 2cbf e102 4c3f 6701 fcbc 9d70 263c
00000040: 98ba c53e 2f8a 013f 03aa 02bf bc50 373f
00000050: 3599 683f b4e6 adbe 60d0 8c3e 0c85 3fbe
00000060: 4fef 53bf b92d e63d 6eeb 483f 1850 92bf
00000070: 4b37 b83e b9b1 acbe d59f 1cbf b484 2cba
00000080: 7909 873f f302 a43e 2f33 893f 8c4c bcbd
00000090: 7a8e 493d 4afa 71be 68a2 313f 940a 04bf
000000a0: fbc3 6b3d 259b e1bd 4555 2abe c2fe db3e
000000b0: 3b8f 113f 50a6 a73e 9f7e 7ebd 3f54 643e
000000c0: 3be0 2bbf 7ab4 4abf 3a52 07be 8ea9 1cbf
000000d0: 1cf2 fbbe 0fd2 08bf ab81 26bf f7fd dbbe
000000e0: 8bdc ea3e 8770 e3bf e196 11bf 70a4 e23d
000000f0: 78ea 163f 832e 863e 2027 be3e 66d6 f33d

block1.1.bn1_1.weight f4 [4]
1.3827506 1.0525842 1.5250367 0.7698161
00000000: f9fd b03f 14bb 863f 6734 c33f ab12 453f

block1.1.bn1_1.bias f4 [4]
2.3478754 0.42136872 -0.89043474 1.5875133
00000000: 9743 1640 a4bd d73e 88f3 63bf a333 cb3f

block1.1.bn1_1.running_mean f4 [4]
-6.418256 -0.1885133 4.3297367 -5.7323513
00000000: 5a62 cdc0 a109 41be 348d 8a40 6c6f b7c0

block1.1.bn1_1.running_var f4 [4]
14.616496 2.8958602 5.3983564 4.409157
00000000: 2bdd 6941 c655 3940 56bf ac40 d017 8d40

block1.1.conv2_1.weight f4 [8, 16, 1, 1]
-0.16079351 -0.2660276 0.25179207 -0.1093842 0.114461526 -0.8113328 0.7565848 -0.8828536
-0.28511325 -0.19890273 0.038799554 -0.7763837 -0.6001705 0.2562869 -0.3790167 -0.40736535
-0.33494616 2.0163243 -0.025973815 -0.8378256 0.42149404 -0.43871692 -0.59358287 -0.52724004
0.2808533 -0.7836834 -0.4392717 0.29897583 -0.14456987 0.05185077 0.13529786 0.6219183
0.49421152 -0.63071746 0.39652765 -0.26068118 0.65946615 -0.073217504 -0.39874876 -0.18608744
0.14844124 -0.09460188 1.0066875 1.6729455 -0.05878168 0.6893846 -0.38506773 -0.16623405
0.6110268 0.3255254 -0.2951146 -0.1958807 -0.09761491 0.07717449 -0.718966 -0.039663516
0.21145163 0.72252524 -0.0916295 -0.74337924 -0.06356336 0.4051517 -0.0297844 -0.021247432
-0.07405056 0.29891828 0.7183709 0.84989417 -0.13890734 -0.015176115 0.41224343 -0.3221173
-0.36731738 0.4569188 1.0436132 -0.32789972 -0.10827354 -0.33502087 -0.47879082 -0.26655832
0.18479717 -0.16602036 -0.2222786 -2.2594357 0.40379477 -0.549141 -0.007423709 0.65526223
-0.018777402 0.0054198173 0.07443939 1.061904 -0.2878129 0.09438649 0.6289502 -0.034845047
0.1511891 -0.4413392 0.7857211 0.8707238 -0.20143144 -0.034686066 -0.34500822 0.18871759
0.28105247 0.49014157 0.25352436 -0.349501 0.17375484 -0.20322737 -0.25587744 -0.50741965
0.26749516 0.45305997 0.15190583 -0.28084016 -0.38380155 0.2547766 0.4107866 -0.89011824
-0.85414565 -0.18742141 0.5217233 0.28578958 -0.47105455 -0.04737928 -0.17698333 -0.32667586
00000000: 0ea7 24be c534 88be e4ea 803e d304 e0bd
00000010: ce6a ea3d 82b3 4fbf 8baf 413f b202 62bf
00000020: 5dfa 91be 28ad 4bbe 48ec 1e3d 15c1 46bf
00000030: c6a4 19bf 0938 833e 7a0e c2be 3192 d0be
00000040: 107e abbe 750b 0140 0ac7 d4bc bd7b 56bf
00000050: 11ce d73e 819f e0be 0cf5 17bf 34f9 06bf
00000060: 01cc 8f3e 7a9f 48bf 38e8 e0be 5c13 993e
00000070: 200a 14be 7961 543d 868b 0a3e 0a36 1f3f
00000080: 4b09 fd3e b376 21bf ac05 cb3e 0178 85be
00000090: c6d2 283f 0ff3 95bd cc28 ccbe b58d 3ebe
000000a0: fb00 183e a1be c1bd 23db 803f 1423 d63f
000000b0: 0fc5 70bd 827b 303f 9927 c5be 4239 2abe
000000c0: 416c 1c3f 44ab a63e 4319 97be f394 48be
000000d0: 53ea c7bd a90d 9e3d 280e 38bf 3676 22bd
000000e0: c786 583e 6af7 383f 3fa8 bbbd 1a4e 3ebf
000000f0: 822d 82bd 0b70 cf3e 6afe f3bc 180f aebc
00000100: d2a7 97bd d10b 993e 28e7 373f aa92 593f
00000110: ba3d 0ebe 3da5 78bc 9211 d33e 8fec a4be
00000120: 0611 bcbe 43f1 e93e 1e95 853f 79e2 a7be
00000130: 85be ddbd db87 abbe 1224 f5be 557a 88be
00000140: 783b 3d3e 3e01 2abe 009d 63be 989a 10c0
00000150: 30be ce3e 8194 0cbf 9642 f3bb 44bf 273f
00000160: 11d3 99bc b998 b13b ae73 983d 78ec 873f
00000170: 365c 93be b44d c13d e102 213f aeb9 0ebd
00000180: 51d1 1a3e 36f7 e1be 0525 493f c1e7 5e3f
00000190: 0b44 4ebe fa12 0ebd eba4 b0be 2f3f 413e
000001a0: 1ce6 8f3e d6f3 fa3e f2cd 813e ccf1 b2be
000001b0: caec 313e d61a 50be 5e02 83be 41e6 01bf
000001c0: 20f5 883e 7af7 e73e 348d 1b3e 48ca 8fbe
000001d0: a381 c4be 1472 823e 9f52 d23e cade 63bf
000001e0: 4aa9 5abf 66eb 3fbe a88f 053f 0353 923e
000001f0: 102e f1be c710 42bd 1e3b 35be 0f42 a7be

block1.1.bn2_1.weight f4 [8]
0.52326983 1.0356444 0.9038146 0.23181021 0.3581944 1.4449558 0.10195296 0.049450662
00000000: 03f5 053f ff8f 843f 6560 673f a85f 6d3e
00000010: 4265 b73e 50f4 b83f b7cc d03d c78c 4a3d

block1.1.bn2_1.bias f4 [8]
0.106754735 1.1804433 -0.5565215 -0.581787 -0.5200009 1.0385315 -0.4208152 -0.2089978
00000000: 3aa2 da3d c418 973f 3178 0ebf feef 14bf
00000010: c71e 05bf 9aee 843f 1775 d7be 8503 56be

block1.1.bn2_1.running_mean f4 [8]
-2.8397896 -2.1520274 3.2322884 -0.05283224 3.3336275 -4.257099 3.4582775 -0.68699366
00000000: 1dbf 35c0 d1ba 09c0 d0dd 4e40 9e66 58bd
00000010: 275a 5540 283a 88c0 6b54 5d40 d1de 2fbf

block1.1.bn2_1.running_var f4 [8]
1.9389659 5.2882295 2.7772849 0.71626186 2.9158492 3.916176 2.9907036 0.71280473
00000000: 0930 f83f 2d39 a940 09bf 3140 f05c 373f
00000010: 469d 3a40 a1a2 7a40 b067 3f40 5f7a 363f

block1.1.conv2_2.weight f4 [8, 8, 3, 3]
-0.39569253 -0.7793862 -0.089962974 -0.09830181 -0.12166788 0.16401395 -7.906084e-05 0.11408689
0.21339026 -0.43012387 0.0059025544 -0.44820574 0.5346443 1.3112847 0.046766724 0.8085136
1.0664202 -0.025805421 -0.39850876 -0.054442037 -0.38838032 0.113104805 -0.046403628 0.043204848
-0.223055 0.14886554 -0.0123316785 0.679341 0.44246292 0.045337785 0.663963 0.3581256
0.14629346 1.1188161 0.3532695 -0.032298204 -0.23118839 0.11566485 0.40139315 -0.19472136
0.6271311 0.6850411 0.081896655 0.7660754 0.43240845 -0.32657793 -0.3508137 -0.033132132
-0.1403795 0.93283826 -0.12426754 -0.20032279 -0.01722037 -0.27250418 -0.11782602 -0.021598218
0.12448628 0.20660737 0.26606977 0.011934945 0.16941325 0.23391025 0.35966626 0.048527136
0.3290178 -0.12016288 -0.22233288 -0.039573498 -0.37459996 -0.056306466 -0.38473654 -0.211873
-0.36576414 0.0061375927 -0.18195094 0.10725451 0.6647974 0.16749533 -0.04868638 -0.007347145
0.16064237 -0.09224636 -0.10937862 -0.04568411 0.30019486 0.13513443 -0.10577179 0.33642456
-0.14924037 0.023622017 0.4438485 0.4302217 0.58399963 -0.35605583 0.27252582 0.31327903
-0.3646512 -0.6249836 -0.18823592 -0.26398957 -0.16755867 0.16327964 -0.3874345 -0.1950127
-0.13475344 0.38771713 0.36826566 0.18110187 0.07292507 -0.51442623 -0.4278131 0.40933108
0.3855186 -0.26199338 0.12871224 -0.083193086 -0.15991035 0.29432905 0.83033055 0.08969817
0.18693052 0.39550513 -0.07329142 -0.4064752 -0.85040224 -0.347201 0.21786231 -0.0060086013
0.026409004 -0.0026212628 0.24603724 0.26331884 -0.01826152 -0.37436417 0.06249905 -0.104469456
-0.1747494 0.124576 0.41672587 0.0850414 -0.114464715 0.28970647 0.5887447 -0.0076728202
0.07892581 -0.31877762 -0.1269473 -0.1872137 -0.5403359 -0.55612695 0.06466907 0.20243268
0.32187152 -0.36244875 -0.34400553 -0.36491174 -0.20204267 -0.29417863 0.25048432 0.41831544
0.38934946 0.95568246 -0.35666353 0.29061145 0.757988 0.027957952 0.5371562 0.85688996
-0.24627829 -0.3413853 -0.012116159 0.05751357 0.053862173 -0.19515976 -0.31774712 0.12678541
0.07201473 -0.02450662 0.12917097 0.0908585 0.087133415 -0.076898426 0.22049117 -0.15387623
-0.1341976 -0.17259145 -0.21909553 0.07941241 0.026918001 0.18111594 0.4035602 0.709786
0.28982735 -0.29360002 0.57698375 -0.07674038 -1.2987286 -0.30008963 0.36525905 0.49678698
0.49314466 0.03846139 0.114457294 0.33857283 0.33035412 0.17042573 0.10656463 0.08664871
-0.046599522 -0.2094859 0.004114624 0.26434615 -0.21127288 -0.29574174 -0.086052746 -0.079954155
-0.42408192 -0.61344993 -0.3275713 -0.5488684 -0.5889108 -0.16415526 -0.55541474 -0.51837313
-0.3716245 0.14246796 0.22420995 -0.10847867 0.6978554 0.7703255 0.23172407 0.52850235
0.3513128 0.100746475 -0.07260762 0.048485942 0.55035216 0.28157967 0.41620806 0.4648487
-0.10260135 0.07905601 0.09029007 -0.15681554 0.46688884 0.29240456 -0.51848555 -0.09497201
0.17624176 -0.037628118 0.36383665 0.3837043 -0.25367272 0.0020225432 0.40340197 -0.051589876
00000000: 3698 cabe db85 47bf 823e b8bd 7652 c9bd
00000010: 022d f9bd 46f3 273e 77cd a5b8 63a6 e93d
00000020: fa82 5a3e 3239 dcbe 376a c13b 397b e5be
00000030: 73de 083f 2dd8 a73f 778e 3f3d bffa 4e3f
00000040: 7580 883f e465 d3bc 5709 ccbe 9dfe 5ebd
00000050: c9d9 c6be 7ea3 e73d bb11 3ebd 91f7 303d
00000060: 8868 64be 3570 183e cf0a 4abc 4be9 2d3f
00000070: 808a e23e 1db4 393d 7bf9 293f 3d5c b73e
00000080: f4cd 153e 5e35 8f3f bddf b43e 1f4b 04bd
00000090: a6bc 6cbe b1e1 ec3d 6783 cd3e 0965 47be
000000a0: aa8b 203f db5e 2f3f 6fb9 a73d 841d 443f
000000b0: a464 dd3e 3935 a7be da9d b3be 8fb5 07bd
000000c0: a5bf 0fbe 7dce 6e3f fb7f febd 6b21 4dbe
000000d0: bc11 8dbc ab85 8bbe c54e f1bd bfee b0bc
000000e0: aaf2 fe3d e290 533e 4c3a 883e ca8a 433c
000000f0: ab7a 2d3e 2b86 6f3e 2d26 b83e 64c4 463d
00000100: 0575 a83e f517 f6bd 3bab 63be d217 22bd
00000110: 91cb bfbe 9ca1 66bd 30fc c4be 3cf5 58be
00000120: 7045 bbbe dc1d c93b 5951 3abe 41a8 db3d
00000130: 2a30 2a3f e583 2b3e 5f6b 47bd 52c0 f0bb
00000140: 6f7f 243e a9eb bcbd e601 e0bd 431f 3bbd
00000150: 24b3 993e ae60 0a3e e19e d8bd d73f ac3e
00000160: 78d2 18be f682 c13c 1c40 e33e 0546 dc3e
00000170: 0081 153f f34c b6be 8188 8b3e 1c66 a03e
00000180: 90b3 babe edfe 1fbf ebc0 40be a429 87be
00000190: 8094 2bbe c732 273e d15d c6be 69b1 47be
000001a0: cefc 09be dc82 c63e 518d bc3e c572 393e
000001b0: bd59 953d 70b1 03bf 520a dbbe d893 d13e
000001c0: b262 c53e ff23 86be 24cd 033e 2361 aabd
000001d0: 8abf 23be 4cb2 963e 8b90 543f adb3 b73d
000001e0: b76a 3f3e a67f ca3e d019 96bd 841d d0be
000001f0: f6b3 59bf 54c4 b1be 4c17 5f3e cde3 c4bb
00000200: b257 d83c 7ec9 2bbb 30f1 7b3e bad1 863e
00000210: 2f99 95bc a9ac bfbe 01ff 7f3d 15f4 d5bd
00000220: 82f1 32be b421 ff3d 185d d53e 2f2a ae3d
00000230: 7a6c eabd 6854 943e f9b7 163f 486c fbbb
00000240: dba3 a13d d236 a3be 79fe 01be f3b4 3fbe
00000250: 7453 0abf 565e 0ebf 3871 843d 834a 4f3e
00000260: 58cc a43e e292 b9be 7e21 b0be b6d5 babe
00000270: 46e4 4ebe 959e 96be 7b3f 803e 712d d63e
00000280: d058 c73e 9ba7 743f 9a9c b6be 06cb 943e
00000290: 800b 423f 1308 e53c 1283 093f 245d 5b3f
000002a0: 6030 7cbe 0eca aebe db82 46bc 5993 6b3d
000002b0: 959e 5c3d f6d7 47be c0af a2be 09d4 013e
000002c0: 757c 933d 1bc2 c8bc 6545 043e 0514 ba3d
000002d0: 0173 b23d ec7c 9dbd 70c8 613e bb91 1dbe
000002e0: 186b 09be d0bb 30be 945a 60be f9a2 a23d
000002f0: 2483 dc3c 7576 393e 719f ce3e 89b4 353f
00000300: 4064 943e be52 96be 35b5 133f 0f2a 9dbd
00000310: bd3c a6bf 59a5 99be 3c03 bb3e dd5a fe3e
00000320: 757d fc3e b189 1d3d 9668 ea3d 6b59 ad3e
00000330: 2d24 a93e 1584 2e3e 8f3e da3d e174 b13d
00000340: 24df 3ebd 7983 56be f8d3 863b 6158 873e
00000350: eb57 58be 766b 97be 6c3c b0bd 01bf a3bd
00000360: 4421 d9be 0e0b 1dbf 6db7 a7be a482 0cbf
00000370: dcc2 16bf 5118 28be a92f 0ebf 1ab4 04bf
00000380: 9145 bebe 1fe3 113e 4b97 653e 112a debd
00000390: a7a6 323f 0d34 453f 1349 6d3e ee4b 073f
000003a0: 45df b33e 2b54 ce3d 4eb3 94bd 3299 463d
000003b0: e1e3 0c3f 362b 903e 3919 d53e a600 ee3e
000003c0: a820 d2bd 1ee8 a13d 00ea b83d 4194 20be
000003d0: 0e0c ef3e 0db6 953e 78bb 04bf af80 c2bd
000003e0: b878 343e f11f 1abd cc48 ba3e e474 c43e
000003f0: 64e1 81be a58c 043b b48a ce3e e84f 53bd

block1.1.bn2_2.weight f4 [8]
0.74276894 0.72503865 0.94191444 0.9601293 0.9548339 0.32014978 0.8456531 0.34975246
00000000: 1b26 3e3f 229c 393f 4e21 713f 09cb 753f
00000010: ff6f 743f acea a33e b97c 583f c112 b33e

block1.1.bn2_2.bias f4 [8]
0.71520364 -0.25977415 -0.39064786 -0.33925596 0.6470214 0.5156801 0.2952113 -0.4928663
00000000: 9617 373f 1e01 85be ff02 c8be f5b2 adbe
00000010: 32a3 253f 9c03 043f ef25 973e f958 fcbe

block1.1.bn2_2.running_mean f4 [8]
2.6032984 0.68623406 0.47105518 4.867544 -1.7688255 -2.4614973 -0.47933003 -4.1268883
00000000: 719c 2640 09ad 2f3f 252e f13e ecc2 9b40
00000010: e068 e2bf 2c89 1dc0 bf6a f5be 780f 84c0

block1.1.bn2_2.running_var f4 [8]
7.886179 2.7596285 2.900038 19.759193 8.33764 7.6650085 10.853296 8.625595
00000000: 945b fc40 c19d 3040 399a 3940 d412 9e41
00000010: f966 0541 c047 f540 1aa7 2d41 7002 0a41

block1.1.conv3_1.weight f4 [2, 16, 1, 1]
0.505677 -0.39102376 -0.12634122 -0.010805145 -0.04157349 0.22570133 0.29026443 -0.47037393
0.109986514 1.0627555 0.35143805 -0.12952791 0.7542422 -0.32136256 -0.014211926 -0.031225411
-0.026632885 0.01924441 1.0041867 0.27320907 -0.21424602 -0.79453295 0.47164613 -0.3966655
-0.45002788 0.0032198357 0.29817894 0.22935322 0.10770398 0.28808358 -0.12506053 -0.4243674
00000000: 0c74 013f 4434 c8be 985f 01be 1008 31bc
00000010: f748 2abd 401e 673e 8a9d 943e dad4 f0be
00000020: 9c40 e13d 5f08 883f b0ef b33e f7a2 04be
00000030: 0416 413f a289 a4be 23d9 68bc 6fcc ffbc
00000040: 352d dabc 74a6 9d3c 3189 803f 0fe2 8b3e
00000050: 4f63 5bbe 8366 4bbf 9a7b f13e be17 cbbe
00000060: 0e6a e6be e103 533b e9aa 983e 92db 6a3e
00000070: e793 dc3d b17f 933e de0f 00be af46 d9be

block1.1.bn3_1.weight f4 [2]
0.80038923 0.7141994
00000000: 4fe6 4c3f c6d5 363f

block1.1.bn3_1.bias f4 [2]
0.21671313 -0.5331749
00000000: 0cea 5d3e 267e 08bf

block1.1.bn3_1.running_mean f4 [2]
1.7797267 1.9751718
00000000: 16ce e33f 6ed2 fc3f

block1.1.bn3_1.running_var f4 [2]
1.3721225 3.8121095
00000000: b6a1 af3f 9af9 7340

block1.1.conv3_2.weight f4 [2, 2, 5, 5]
-0.10994732 0.030899853 -0.5033766 -0.17530946 0.18080579 -0.27872437 0.40638378 0.33447063
-0.37832642 -0.18482621 0.15870067 0.13847993 -0.23574574 -0.40244234 -0.31772798 0.16352636
-0.26328894 -0.2741158 -0.43876845 -0.12338582 0.16658214 0.19598277 -0.28148094 -0.30436385
-0.061361313 -0.09508022 0.07623779 -0.14497237 -0.0049733575 -0.29842627 0.10370039 -0.26985517
-0.0047326465 -0.22761062 -0.18651775 -0.061803784 0.17007498 0.39963812 -0.20109774 -0.39327732
0.046957716 -0.12609702 0.24817652 -0.043005634 -0.25307134 0.11038387 -0.0945412 0.13623646
0.3449636 -0.16310187 -0.03587061 -0.08200301 -0.24460126 0.007043905 0.018908734 -0.028622037
-0.10950907 -0.11932092 -0.004110007 -0.14625889 0.5827265 0.19783175 0.44350785 0.41189265
0.66287875 0.012381611 -0.21921083 -0.15298387 -0.07048804 -0.25572196 0.02604488 -0.2325402
-0.18431945 -0.11001296 -0.2976144 -0.36486202 0.0154476715 0.21632616 0.21281946 0.1829418
-0.11318198 -0.00861693 0.06773306 0.42268497 0.18347554 -0.11698056 -0.2614131 0.0005281074
0.43808076 0.13376677 0.2215078 0.117762946 0.2262562 0.6234694 0.5035473 0.34792167
0.19245493 0.22421266 0.069307774 0.18488933
00000000: 0f2c e1bd b021 fd3c 4add 00bf 5384 33be
00000010: 2725 393e f6b4 8ebe 8911 d03e bc3f ab3e
00000020: 00b4 c1be 1543 3dbe 6e82 223e afcd 0d3e
00000030: 5567 71be ec0c cebe 3ead a2be 7473 273e
00000040: cfcd 86be e858 8cbe 42a6 e0be b4b1 fcbd
00000050: 8294 2a3e b5af 483e 451e 90be 94d5 9bbe
00000060: 0056 7bbd 6bb9 c2bd 8f22 9c3d a373 14be
00000070: 8cf7 a2bb 54cb 98be df60 d43d 752a 8abe
00000080: 5114 9bbb c212 69be 82fe 3ebe f725 7dbd
00000090: 2328 2e3e 5e9d cc3e 91ec 4dbe a55b c9be
000000a0: bc56 403d 941f 01be fc21 7e3e ad26 30bd
000000b0: 9192 81be f010 e23d d19e c1bd 9281 0b3e
000000c0: 129f b03e 2d04 27be 10ed 12bd 32f1 a7bd
000000d0: c178 7abe 8fd0 e63b 7de6 9a3c c378 eabc
000000e0: 4b46 e0bd 875e f4bd 3dad 86bb e4c4 15be
000000f0: 902d 153f 6894 4a3e 7613 e33e 98e3 d23e
00000100: 6cb2 293f 3edc 4a3c ce78 60be cea7 1cbe
00000110: 095c 90bd fded 82be 125c d53c 051f 6ebe
00000120: 3dbe 3cbe 7a4e e1bd ea60 98be 32cf babe
00000130: 3b18 7d3c 9b84 5d3e 58ed 593e 1855 3b3e
00000140: f4cb e7bd 062e 0dbc a1b7 8a3d 2a6a d83e
00000150: 03e1 3b3e 8193 efbd f0d7 85be b070 0a3a
00000160: 1f4c e03e 28fa 083e f1d2 623e b32d f13d
00000170: b5af 673e b19b 1f3f 7ae8 003f ca22 b23e
00000180: e812 453e 0198 653e 3cf1 8d3d a153 3d3e

block1.1.bn3_2.weight f4 [2]
0.48277465 0.95704174
00000000: 3d2e f73e b000 753f

block1.1.bn3_2.bias f4 [2]
0.36121947 -1.1137578
00000000: c2f1 b83e 9e8f 8ebf

block1.1.bn3_2.running_mean f4 [2]
-0.8892942 0.37812608
00000000: c9a8 63bf be99 c13e

block1.1.bn3_2.running_var f4 [2]
0.8195368 2.2425313
00000000: 2acd 513f a285 0f40

block1.1.conv4_1.weight f4 [2, 16, 1, 1]
1.3847587 -0.265418 0.16578954 0.41556406 -0.4017275 0.15246218 -0.4458876 0.054976262
0.024603978 -0.05519045 -0.41511434 -0.21899162 0.24614652 -0.55163866 -0.1313006 -0.28989303
-0.12512507 -0.59426 0.3421216 0.2224883 -0.093121484 -0.11994101 0.20376593 -0.031256877
-0.006634691 -0.13308659 0.18419205 0.17659225 0.47022927 0.4501825 0.23301244 2.6442895
00000000: c63f b13f dee4 87be bcc4 293e d0c4 d43e
00000010: 3aaf cdbe 0c1f 1c3e 614b e4be ca2e 613d
00000020: 488e c93c 620f 62bd de89 d4be 573f 60be
00000030: d50d 7c3e 3138 0dbf aa73 06be dc6c 94be
00000040: c920 00be 6c21 18bf 902a af3e f9d3 633e
00000050: 7ab6 bebd a2a3 f5bd 04a8 503e 3607 00bd
00000060: d267 d9bb da47 08be d79c 3c3e 99d4 343e
00000070: e4c1 f03e 527e e63e d09a 6e3e 0a3c 2940

block1.1.bn4_1.weight f4 [2]
1.2335346 0.7044632
00000000: 76e4 9d3f b357 343f

block1.1.bn4_1.bias f4 [2]
-0.50600475 1.5329968
00000000: 8789 01bf 3d39 c43f

block1.1.bn4_1.running_mean f4 [2]
2.0503263 4.618882
00000000: 8c38 0340 e2cd 9340

block1.1.bn4_1.running_var f4 [2]
2.5230188 4.0565267
00000000: 2479 2140 11cf 8140

block1.2.conv1_1.weight f4 [4, 16, 1, 1]
0.29901823 -0.0876319 -0.5208423 0.052088797 0.99094033 -0.563182 -0.06815908 0.8479476
-0.18541804 0.1922293 -0.79531974 0.20696113 0.07972883 -0.57208705 -0.67527914 1.6183435
-0.11385259 0.025233358 -0.16079651 0.33884165 0.16615106 0.08296726 -0.36644655 0.76143336
0.07657819 0.37841937 -0.5379206 -0.27296945 0.0321512 -0.20248424 -0.20653643 0.6631264
2.5246832 0.871968 -0.7854163 -0.99830914 0.2393122 -0.050662242 0.0784175 0.32602653
0.17664675 0.113677576 0.51364994 -0.0303193 -0.33586797 -0.20288563 -0.04222678 0.09432424
0.011638656 0.79665416 -0.7116456 0.03598549 -0.08505939 0.4417332 0.61223304 -0.48385838
1.1977768 0.3677076 -0.14581074 -0.06677447 -0.3504619 -0.27977055 -0.12468643 0.044593915
00000000: eb18 993e 5b78 b3bd ec55 05bf 105b 553d
00000010: 44ae 7d3f b22c 10bf fd96 8bbd 1813 593f
00000020: 3ade 3dbe c2d7 443e 139a 4bbf 9eed 533e
00000030: de48 a33d 4c74 12bf 18df 2cbf e125 cf3f
00000040: 8c2b e9bd 30b6 ce3c d7a7 24be a77c ad3e
00000050: 8123 2a3e bdea a93d e29e bbbe 4ced 423f
00000060: 07d5 9c3d 2fc0 c13e 2ab5 09bf a7c2 8bbe
00000070: fab0 033d 0758 4fbe 497e 53be a7c2 293f
00000080: 6994 2140 4b39 5f3f 0b11 49bf 3091 7fbf
00000090: 420e 753e 3683 4fbd 5b99 a03d f3ec a63e
000000a0: e3e2 343e cacf e83d 907e 033f 2e60 f8bc
000000b0: e3f6 abbe 40c1 4fbe fdf5 2cbd 112d c13d
000000c0: 10b0 3e3c 87f1 4b3f 682e 36bf 8565 133d
000000d0: 9e33 aebd db2a e23e 4ebb 1c3f 49bc f7be
000000e0: c050 993f 2c44 bc3e 694f 15be 0ec1 88bd
000000f0: be6f b3be 163e 8fbe 995b ffbd 1ca8 363d

block1.2.bn1_1.weight f4 [4]
1.0537 0.023808839 1.470081 0.74491596
00000000: a4df 863f c10a c33c 9d2b bc3f d0b2 3e3f

block1.2.bn1_1.bias f4 [4]
1.0666271 -0.17118482 2.3974237 0.49533084
00000000: 3d87 883f 134b 2fbe 646f 1940 019c fd3e

block1.2.bn1_1.running_mean f4 [4]
3.2881615 1.4430082 5.4447823 1.3544908
00000000: 3d71 5240 7eb4 b83f a83b ae40 f45f ad3f

block1.2.bn1_1.running_var f4 [4]
5.0930033 0.73043543 17.99951 1.3510445
00000000: e2f9 a240 d1fd 3a3f fffe 8f41 07ef ac3f

block1.2.conv2_1.weight f4 [8, 16, 1, 1]
-0.038820613 0.0007329458 -0.13276024 -0.108756654 0.38943294 0.31698227 -0.16692446 -0.14070766
-0.3394164 0.42474997 0.506609 0.34553143 0.31845212 0.36063805 0.13230167 -0.068333425
0.15188622 -0.75324416 -0.08484317 0.500103 0.9118633 -0.62188226 -0.33486715 0.16700315
0.10396021 -0.20172486 0.026016355 0.083352886 -0.07521451 0.13117534 -0.04628561 -0.06470315
-1.2344474 0.11637291 0.3223871 -0.42211646 0.15658246 0.101855084 0.5395657 -0.031087512
-0.34852996 0.27805504 0.11012779 -0.27395034 0.6447526 -0.6678827 -0.43622145 -0.40135765
-0.5958892 -0.36041054 0.5784874 -1.4851439 -0.1927494 0.43826365 0.13934223 -0.21959479
0.88169914 0.16933078 0.3800515 0.28375635 0.43311742 -0.6885975 0.25971723 -0.22148614
-0.69427234 -0.4558542 0.47228858 -0.25559497 0.21274413 0.06182446 0.31346217 0.15139343
-0.38334006 -0.48377 -0.6203116 0.06485844 0.23532258 -0.31786835 0.3943724 0.30904654
-0.20392582 -0.29991102 0.2660855 0.24955635 0.63665 0.4541305 0.062813684 -0.44867933
-0.10556463 0.074682586 0.19016388 -0.132334 0.19796792 -0.27519086 0.3748299 -0.19370328
-1.1776792 0.008956266 0.87105703 0.0873124 0.58185977 0.27913657 0.0037553292 0.7694833
0.5882922 -0.6118272 0.18297356 -0.3503157 -0.4788688 0.5851348 -0.6792817 0.25973266
-0.52768385 0.29931402 -0.14153768 0.11336336 0.20215149 0.3321436 0.026384428 0.26251334
-0.19877295 0.11577308 0.59009206 -0.36397043 0.26411507 0.53205144 -0.079586364 0.4098694
00000000: 5d02 1fbd 2923 403a 4df2 07be cfbb debd
00000010: c163 c73e 804b a23e 3fee 2abe ab15 10be
00000020: fdc7 adbe d478 d93e 21b1 013f 7fe9 b03e
00000030: 280c a33e 8da5 b83e 177a 073e 65f2 8bbd
00000040: 1088 1b3e 9cd4 40bf 42c2 adbd c006 003f
00000050: e06f 693f ad33 1fbf b573 abbe e002 2b3e
00000060: 17e9 d43d f690 4ebe 4020 d53c ebb4 aa3d
00000070: 110a 9abd d452 063e fb95 3dbd 1683 84bd
00000080: 5f02 9ebf ec54 ee3d ec0f a53e a61f d8be
00000090: 2757 203e 6699 d03d fa20 0a3f 3dab febc
000000a0: 8572 b2be 3b5d 8e3e ae8a e13d 3843 8cbe
000000b0: 820e 253f 5cfa 2abf 6b58 dfbe c07e cdbe
000000c0: 328c 18bf bb87 b8be c017 143f 3219 bebf
000000d0: 1960 45be 1864 e03e bbaf 0e3e 75dd 60be
000000e0: 09b7 613f 0c65 2d3e 1c96 c23e 8348 913e
000000f0: 91c1 dd3e ed47 30bf a8f9 843e 43cd 62be
00000100: d5bb 31bf b965 e9be cfcf f13e 58dd 82be
00000110: 99d9 593e a53b 7d3d 1d7e a03e e106 1b3e
00000120: 2645 c4be b4b0 f7be becc 1ebf 80d4 843d
00000130: 67f8 703e a4bf a2be 2eeb c93e 593b 9e3e
00000140: eed1 50be f08d 99be 5c3c 883e b38b 7f3e
00000150: 7ffb 223f cb83 e83e 76a4 803d 4cb9 e5be
00000160: 4532 d8bd 2ff3 983d 52ba 423e 9082 07be
00000170: 1ab8 4a3e d1e5 8cbe b4e9 bf3e 275a 46be
00000180: 31be 96bf 4dbd 123c 98fd 5e3f d8d0 b23d
00000190: c3f4 143f fdea 8e3e f81b 763b dcfc 443f
000001a0: 519a 163f b5a0 1cbf 6c5d 3b3e 945c b3be
000001b0: 4b2e f5be 65cb 153f 68e5 2dbf aefb 843e
000001c0: 4a16 07bf b03f 993e 41ef 10be 0d2b e83d
000001d0: cd00 4f3e ba0e aa3e 2824 d83c 2668 863e
000001e0: 238b 4bbe 701a ed3d 4610 173f 555a babe
000001f0: 173a 873e 8634 083f 2dfe a2bd 67da d13e

block1.2.bn2_1.weight f4 [8]
0.05859642 0.9979302 1.0459348 0.63820934 0.9602854 -0.057689212 1.1422563 0.11162895
00000000: cd02 703d 5b78 7f3f 31e1 853f b061 233f
00000010: 44d5 753f 864b 6cbd 7435 923f b89d e43d

block1.2.bn2_1.bias f4 [8]
-0.3273634 0.1465394 0.49373102 1.1667724 -0.20193994 -0.68421465 1.15083 -0.5327955
00000000: 2d9c a7be 6d0e 163e 50ca fc3e cc58 953f
00000010: 58c9 4ebe b128 2fbf 664e 933f 4965 08bf

block1.2.bn2_1.running_mean f4 [8]
0.27136478 1.0904944 -3.8716428 -3.1155832 -2.168779 0.15252559 -1.4678934 0.32503396
00000000: 53f0 8a3e 5295 8b3f ffc8 77c0 b765 47c0
00000010: 46cd 0ac0 ab2f 1c3e eee3 bbbf da6a a63e

block1.2.bn2_1.running_var f4 [8]
0.27051967 1.364768 2.4680867 3.8034055 1.5989676 0.47314087 3.2493033 0.5394792
00000000: 8e81 8a3e b8b0 ae3f 22f5 1d40 ff6a 7340
00000010: f8aa cc3f 853f f23e 96f4 4f40 4f1b 0a3f

block1.2.conv2_2.weight f4 [8, 8, 3, 3]
0.22350737 0.4332129 -0.11485776 0.018850058 0.75900024 0.08936886 0.121041335 0.23125575
-0.0128620835 -0.09244496 -0.5180029 -0.5176567 0.1979876 0.34102675 0.059936978 0.36338165
0.7712788 0.24206303 -0.025650604 0.88320166 0.3730425 0.22014798 -0.34562716 0.5911588
-0.1998382 -0.72184664 -0.16130488 -0.06203836 1.5364393 0.38762558 -0.06610138 0.5681253
-0.02288668 -0.49987578 -0.4452531 -0.35114717 -0.0050876597 0.15481581 0.039573267 0.01696397
-0.23286484 0.21935037 -0.28391743 -0.3708466 -0.19832437 0.29278925 0.54082334 0.038248558
0.09584524 0.41277063 0.22886118 -0.054809276 -0.30354953 0.04419857 -0.1541329 0.5412895
-0.6536007 0.720769 -0.41337645 0.1490672 0.3323716 -0.0815455 0.23157464 0.356466
0.40789214 0.17508161 -0.033737373 -0.04001121 0.32029232 0.02603672 0.41062197 0.6254281
-0.09462992 -0.38042945 0.06866152 -0.07199402 -0.17346172 0.20903124 0.026899239 0.22078338
-0.34680644 -0.2849433 -0.03276017 -0.055020384 0.0047549573 -0.3429366 -0.31166616 -0.28505948
-0.20537642 -0.36556688 -0.46151108 -0.025121128 -0.059269868 -0.039403006 0.17860249 0.12748367
0.012488819 -0.12841064 0.23027411 -0.69484663 -0.1842057 -0.12461273 -0.41877624 0.045771923
0.015874997 -0.5021552 0.35252097 0.12953663 -0.2768193 -0.027362872 -0.4931941 0.2980935
-0.2418967 -0.044498835 -0.108915925 -0.2824764 0.14564519 -0.2522675 -0.2546559 -0.65966666
0.16091776 -0.093320586 -0.08658961 -0.16975832 -0.3107632 -0.057595167 -0.7867338 -0.50014436
-0.5743135 -0.40459445 -0.69535506 -0.7531795 -0.18554592 -0.4125974 -0.17367014 -0.3492324
-0.40383342 -0.48978412 -0.035286594 0.034651548 -0.10333248 -0.4763854 -0.5008272 -0.12584786
-0.06720009 -0.059431028 -0.13094498 0.21293539 0.1254453 0.02172531 0.25862616 -0.02658947
0.06884505 0.44054484 0.19504361 -0.015150879 0.15298536 -0.114803664 -0.13971595 0.29571345
0.14563264 0.03799228 0.10569586 -0.09492265 -0.2894013 0.101238266 0.20510475 -0.17286077
-0.23223633 0.16042314 -0.023389792 0.22496803 0.5404849 0.21531247 0.2611305 0.41016096
0.015593833 -0.0028225342 0.048109412 0.10634896 -0.033798743 0.14804485 0.022703368 0.11837326
0.2756665 -0.0012546285 -0.24986699 0.018035004 -0.0019080896 -0.0025917836 -0.015310208 -0.1701345
0.15905316 0.21787395 -0.028520351 -0.23287268 0.18463688 -0.079467505 0.11257509 0.19654293
0.10132772 -0.23209709 0.6826558 -0.18719782 -0.42980367 0.23605098 0.10919908 0.071175985
0.18530497 0.25044855 0.2371134 0.072317146 0.06914824 0.21896166 0.2865198 0.29965958
-0.15445031 0.25825584 -0.107133724 -0.28543258 -0.7624814 0.15445916 -0.5189897 -0.48111168
-0.37874323 -0.0067571606 -0.17636563 -0.15714616 -0.5529416 -0.20542225 0.09721756 -0.08428799
-0.38342813 -0.17308395 -0.390965 -0.39952433 0.08859498 -0.39740616 -0.29091817 -0.32674232
-0.3237644 -0.05844045 -0.056206234 -0.11523586 -0.12752442 -0.27610275 -0.38813198 -0.4254011
0.035611164 -0.41607678 -0.5239145 -0.45397887 -0.16270836 0.23346226 0.61733294 -0.32600424
00000000: 1edf 643e 15ce dd3e 8c3a ebbd 706b 9a3c
00000010: d74d 423f 0507 b73d 85e4 f73d 4fce 6c3e
00000020: 7dbb 52bc c853 bdbd d79b 04bf 2685 04bf
00000030: 43bd 4a3e 0f9b ae3e 7a80 753d 290d ba3e
00000040: 8772 453f 5fdf 773e 3721 d2bc 8119 623f
00000050: 6dff be3e 796e 613e 0bf6 b0be 2f56 173f
00000060: 63a2 4cbe f1ca 38bf 1b2d 25be ef1b 7ebd
00000070: 0baa c43f dc76 c63e 2960 87bd a970 113f
00000080: d97c bbbc b8ef ffbe 37f8 e3be 90c9 b3be
00000090: 62b6 a6bb 0988 1e3e 9417 223d 06f8 8a3c
000000a0: 1f74 6ebe 629d 603e a05d 91be 9bdf bdbe
000000b0: 8b15 4bbe 79e8 953e 6673 0a3f 85aa 1c3d
000000c0: 824a c43d ac56 d33e 965a 6a3e b17f 60bd
000000d0: d86a 9bbe 8f09 353d 04d5 1dbe f391 0a3f
000000e0: 6052 27bf 5184 383f 14a6 d3be 12a5 183e
000000f0: 9c2c aa3e 5401 a7bd e721 6d3e b682 b63e
00000100: 3dd7 d03e 9848 333e 3330 0abd cbe2 23bd
00000110: 5bfd a33e f64a d53c 0b3d d23e 0e1c 203f
00000120: 55cd c1bd a6c7 c2be 699e 8c3d 9a71 93bd
00000130: f39f 31be 490c 563e cb5b dc3c 0a15 623e
00000140: 9d90 b1be 17e4 91be 872f 06bd 0e5d 61bd
00000150: 79cf 9b3b 6395 afbe b592 9fbe 51f3 91be
00000160: 324e 52be 952b bbbe 2e4b ecbe d3ca cdbc
00000170: f6c4 72bd 0c65 21bd 92e3 363e 148b 023e
00000180: e79d 4c3c 147e 03be facc 6b3e 78e1 31bf
00000190: 6ba0 3cbe f634 ffbd d769 d6be 577b 3b3d
000001a0: 480c 823c 3e8d 00bf a17d b43e 40a5 043e
000001b0: 42bb 8dbe 1a28 e0bc f083 fcbe b69f 983e
000001c0: c5b3 77be 6944 36bd 500f dfbd bfa0 90be
000001d0: 0324 153e 3529 81be 4262 82be eadf 28bf
000001e0: a0c7 243e dd1e bfbd e555 b1bd 20d5 2dbe
000001f0: 5b1c 9fbe e9e8 6bbd 6367 49bf 7609 00bf
00000200: 3606 13bf 0127 cfbe ca02 32bf 5fd0 40bf
00000210: c0ff 3dbe f73f d3be 96d6 31be 97ce b2be
00000220: 41c3 cebe fcc4 fabe ad88 10bd c8ee 0d3d
00000230: fb9f d3bd cae8 f3be 3636 00bf 43de 00be
00000240: 33a0 89bd f36d 73bd 7116 06be bc0b 5a3e
00000250: bc74 003e 47f9 b13c a66a 843e 29d2 d9bc
00000260: a2fe 8c3d 188f e13e 83b9 473e 643b 78bc
00000270: 32a8 1c3e 2f1e ebbd b311 0fbe c167 973e
00000280: b920 153e cb9d 1b3d 1277 d83d ce66 c2bd
00000290: 682c 94be 0256 cf3d fb06 523e 6a02 31be
000002a0: 5ccf 6dbe f745 243e f39b bfbc 055e 663e
000002b0: 385d 0a3f df7a 5c3e e6b2 853e 9e00 d23e
000002c0: 477d 7f3c 44fa 38bb 600e 453d 7ccd d93d
000002d0: 8d70 0abd 1299 173e 6afc b93c ae6d f23d
000002e0: 2924 8d3e 5972 a4ba 22dd 7fbe 25be 933c
000002f0: dd18 faba eada 29bb abd7 7abc bd37 2ebe
00000300: d5de 223e 591a 5f3e 83a3 e9bc 2d76 6ebe
00000310: 7311 3d3e dcbf a2bd c58d e63d 8d42 493e
00000320: e884 cf3d dcaa 6dbe 88c2 2e3f c9b0 3fbe
00000330: 3a0f dcbe 59b7 713e c4a3 df3d b7c4 913d
00000340: 96c0 3d3e cb3a 803e dbcd 723e 031b 943d
00000350: 989d 8d3d 7c37 603e b9b2 923e fb6c 993e
00000360: 3928 1ebe 1c3a 843e ed68 dbbd 3824 92be
00000370: fb31 43bf 8b2a 1e3e 82dc 04bf 4554 f6be
00000380: a2ea c1be 2c6b ddbb 3199 34be ecea 20be
00000390: 958d 0dbf 365a 52be 001a c73d 2f9f acbd
000003a0: b150 c4be eb3c 31be 912c c8be 748e ccbe
000003b0: 4971 b53d d278 cbbe 3af3 94be c54a a7be
000003c0: 73c4 a5be 415f 6fbd 8238 66bd c700 ecbd
000003d0: c395 02be 575d 8dbe 3cb9 c6be 2cce d9be
000003e0: 03dd 113d 0408 d5be 431f 06bf eb6f e8be
000003f0: 059d 26be bb10 6f3e 8809 1e3f 07ea a6be

block1.2.bn2_2.weight f4 [8]
0.94753724 0.4688464 0.731799 0.087935805 0.83774143 0.77631354 0.56426895 0.5905518
00000000: cd91 723f a30c f03e 2e57 3b3f b017 b43d
00000010: 3976 563f 7cbc 463f ee73 103f 672e 173f

block1.2.bn2_2.bias f4 [8]
0.6280495 0.7071027 -0.008793794 -0.6139948 -0.55689853 0.97711235 1.1758832 0.84326655
00000000: dac7 203f af04 353f d813 10bc c32e 1dbf
00000010: e790 0ebf 0924 7a3f 5783 963f 51e0 573f

block1.2.bn2_2.running_mean f4 [8]
2.5001857 -7.5517426 3.0592473 -3.4281883 -5.2966433 -2.0567172 0.03647997 -5.1177087
00000000: 0b03 2040 e0a7 f1c0 b5ca 4340 7067 5bc0
00000010: 1a7e a9c0 41a1 03c0 056c 153d 45c4 a3c0

block1.2.bn2_2.running_var f4 [8]
6.595021 11.953735 2.7044656 2.9644415 5.9847393 6.8944488 3.385623 7.669908
00000000: 690a d340 8042 3f41 f715 2d40 69b9 3d40
00000010: fc82 bf40 539f dc40 0cae 5840 e36f f540

block1.2.conv3_1.weight f4 [2, 16, 1, 1]
0.738915 -0.57752925 -0.15539634 -0.51605904 -0.047530662 -0.38310686 -0.1878747 -0.5963866
0.62892085 -0.31301925 0.18848813 0.08799927 -0.10859141 -0.07531826 0.23394586 0.16994098
0.685688 -0.7887853 -0.69694436 -0.10387883 -0.5135823 0.1635521 0.08393354 0.11129476
-0.024466094 -0.23045628 0.24936111 -0.21495014 -0.2188383 -0.73427683 -1.2644393 -0.3148028
00000000: 8929 3d3f f5d8 13bf 3820 1fbe 721c 04bf
00000010: 83af 42bd 9526 c4be 3a62 40be cbac 18bf
00000020: f500 213f 0f44 a0be 0803 413e f638 b43d
00000030: 2c65 debd 7640 9abd 818f 6f3e 0205 2e3e
00000040: 4089 2f3f d5ed 49bf f26a 32bf 6dbe d4bd
00000050: 217a 03bf 347a 273e 59e5 ab3d 82ee e33d
00000060: 1e6d c8bc bbfc 6bbe 8558 7f3e e41b 5cbe
00000070: 2617 60be 91f9 3bbf 26d9 a1bf d52d a1be

block1.2.bn3_1.weight f4 [2]
0.54591703 0.5832979
00000000: 38c1 0b3f 0353 153f

block1.2.bn3_1.bias f4 [2]
-0.42351142 1.3709599
00000000: 7dd6 d8be 9d7b af3f

block1.2.bn3_1.running_mean f4 [2]
0.95281255 -0.6321907
00000000: 86eb 733f 40d7 21bf

block1.2.bn3_1.running_var f4 [2]
0.7677619 3.0756328
00000000: 0b8c 443f 2bd7 4440

block1.2.conv3_2.weight f4 [2, 2, 5, 5]
0.23348396 0.12413894 -0.3133954 0.21091999 0.11853468 0.12584184 0.03681427 -0.15101488
0.2298567 0.39445177 -0.07948615 0.029654326 -0.04377188 0.19100234 0.37927654 0.136467
0.20217527 -0.030468702 0.21415518 0.06004155 -0.1578343 -0.29618415 -0.5198954 -0.17792642
0.008739918 0.050137788 0.027903816 -0.33479637 0.007715936 0.108359165 -0.02359689 -0.15774398
-0.7676018 -0.5399854 -0.26811758 -0.47464022 -0.32782385 -0.8150674 -0.34174034 -0.54829395
0.057057723 0.11319651 -0.2843536 0.18216038 -0.013748404 -0.4367403 -0.099801496 -0.9033625
-0.32745463 0.14646998 0.017713303 -0.11571611 -0.39525175 -0.18929513 -0.13515739 0.07756172
0.5990586 0.09957846 0.14509013 -0.13423331 0.18978757 0.34158185 -0.04792982 0.05689323
-0.13324697 0.28067672 0.2987304 -0.17957993 0.105882026 -0.19139159 0.26190445 0.17113537
-0.289251 -0.14019051 -0.0143069085 -0.4574107 -0.53337747 -0.5351409 -0.34728658 -0.60010564
-0.36486506 -0.07238086 -0.18931712 -0.37040085 -0.20948218 0.1272724 -0.2711299 0.18799753
0.064146295 0.0739858 0.18526742 -0.2656296 -0.0548936 0.048385493 0.14203197 0.07487352
0.08772367 -0.39886552 -0.07744652 -0.078645654
00000000: 6b16 6f3e 8e3c fe3d 5d75 a0be 69fb 573e
00000010: 4fc2 f23d afdc 003e 8fca 163d a5a3 1abe
00000020: 8e5f 6b3e 95f5 c93e a2c9 a2bd a1ed f23c
00000030: 254a 33bd 1e96 433e 8930 c23e 01be 0b3e
00000040: 0907 4f3e 8099 f9bc 7f4b 5b3e 21ee 753d
00000050: 519f 21be 73a5 97be dd17 05bf 5832 36be
00000060: df31 0f3c 485d 4d3d 8b96 e43c 6e6a abbe
00000070: f6d5 fc3b 69eb dd3d 444e c1bc a387 21be
00000080: 8d81 44bf 7c3c 0abf b546 89be 0b04 f3be
00000090: 87d8 a7be 42a8 50bf 97f8 aebe fe5c 0cbf
000000a0: 5cb5 693d 92d3 e73d cc96 91be 4088 3a3e
000000b0: fc40 61bc 6d9c dfbe ba64 ccbd c442 67bf
000000c0: 22a8 a7be 3afc 153e 7d1b 913c 91fc ecbd
000000d0: 705e cabe 95d6 41be b366 0abe aed8 9e3d
000000e0: e85b 193f cbef cb3d 8292 143e 7574 09be
000000f0: ac57 423e d1e3 ae3e 0f52 44bd e008 693d
00000100: e571 08be dcb4 8f3e 31f3 983e cde3 37be
00000110: add8 d83d 28fc 43be 5718 863e 1c3e 2f3e
00000120: b518 94be 1a8e 0fbe 8667 6abc bc31 eabe
00000130: 6d8b 08bf fefe 08bf 8ccf b1be 86a0 19bf
00000140: 98cf babe 6b3c 94bd 59dc 41be 2ea5 bdbe
00000150: 7f82 56be b253 023e 8ad1 8abe 6d82 403e
00000160: 225f 833d de85 973d beb6 3d3e 9a00 88be
00000170: 1dd8 60bd de2f 463d d470 113e 4a57 993d
00000180: 78a8 b33d 1a38 ccbe 489c 9ebd f910 a1bd
